src/scripts/model/FC64_4layer_20hz_sf0.5/actor.pth (torch, 57223 bytes, 10 tensors)

linear_input.weight f4 [64, 12]
0	0x3e188e2b	0.14897983
1	0xbd40bef5	-0.04705711
2	0xbe6ae52e	-0.22938988
3	0x3ca738b6	0.020412784
4	0x3db8ae72	0.09017648
5	0x3e849d04	0.25901043
6	0xbc82290c	-0.015888713
7	0xbdfb26c3	-0.122632526
8	0xbe92e160	-0.28687572
9	0x3d739d93	0.059476446
10	0xbea1d1a4	-0.31605256
11	0xbe8cc1f3	-0.27491722
12	0x3e02fbbc	0.12791342
13	0xbed490df	-0.41516778
14	0x3c8ffd6b	0.017576894
15	0xbd1946db	-0.03742109
16	0x3e214fcf	0.15753101
17	0xbec39bcb	-0.38204798
18	0x3cfa15ba	0.030527938
19	0x3ea4d990	0.32197237
20	0x3e7eceaf	0.24883531
21	0xbe4d35fc	-0.20040125
22	0x3e877dbf	0.26463124
23	0x3e876927	0.26447412
24	0xbe023c95	-0.12718423
25	0x3e1c00d9	0.15234698
26	0xbdf27d0e	-0.118402585
27	0xbe99adf4	-0.30015528
28	0xbe4d86d7	-0.20070969
29	0xbe289d24	-0.16466194
30	0xbe90cb9f	-0.2828035
31	0x3e04f850	0.12985349
32	0xbeb08425	-0.34475818
33	0x3dadd4d4	0.08487859
34	0x3e642d67	0.22282945
35	0x3db81dd8	0.08990067
36	0xbe8f259e	-0.27958387
37	0x3bbd4bb4	0.005776847
38	0xbe8aa575	-0.2707936
39	0x3e097c1b	0.13426249
40	0x3de11412	0.10990156
41	0x3c877f5e	0.016540226
42	0xbe29e497	-0.16591106
43	0x3a2a2195	0.00064899895
44	0xbe8817b9	-0.265806
45	0xbdddb8a7	-0.10826235
46	0x3d4cf13d	0.05003475
47	0xbbe175c2	-0.006880493
48	0xbd8599bd	-0.06523464
49	0xbeb6a79e	-0.35674757
50	0x3c42882b	0.011873285
51	0x3d9178a4	0.071030885
52	0x3e6a25ad	0.22865935
53	0xbeeb0116	-0.45899266
54	0x3ce04b91	0.027379783
55	0x3d9b8a7e	0.07594775
56	0x3e8bff4a	0.27343208
57	0xbef8ec50	-0.48617792
58	0x3e8bd30c	0.27309453
59	0xbe5809ad	-0.21097441
60	0x3e8e0dfe	0.2774505
61	0x3e6e84f2	0.23292902
62	0x3e57675a	0.21035519
63	0xbe0c6737	-0.13711248
64	0xbdbe389f	-0.09288143
65	0x3f015bdd	0.505308
66	0x3b522d41	0.003207043
67	0x3e8ee7f3	0.27911338
68	0x3ea55e26	0.32298392
69	0x3e9bf847	0.30462858
70	0x3deef125	0.116670884
71	0xbe042840	-0.12905979
72	0xbd086cb1	-0.03330678
73	0x3e9bc528	0.30423856
74	0x3e3868c9	0.18008722
75	0x3e7e5be8	0.24839747
76	0x3dd06d2a	0.101770714
77	0x3d1ecea9	0.038771305
78	0xbe339ec8	-0.17541039
79	0xbdab28fa	-0.08357425
80	0x3d84c956	0.06483714
81	0x3ec54eac	0.38536584
82	0x3d600c59	0.054699276
83	0x3e80c1b5	0.25147787
84	0xbd93e588	-0.07221514
85	0x3e050bb2	0.12992743
86	0x3d87b7b7	0.06626838
87	0xbe04f06f	-0.12982343
88	0x3dff73ee	0.12473284
89	0xbe6f4152	-0.23364761
90	0xbdab6e30	-0.08370626
91	0xbe53dff4	-0.206909
92	0xbdd4b5d8	-0.103862464
93	0xbe9da80d	-0.30792275
94	0xbe7de3fb	-0.24793999
95	0x3e0055e4	0.12532765
96	0xbe93f3d6	-0.2889697
97	0x3e5dbea0	0.21654749
98	0xbe3765f0	-0.1790998
99	0xbeaeb2b8	-0.34120727
100	0x3e5846ab	0.21120708
101	0xbe3faa15	-0.18717225
102	0xbe44f3ea	-0.19233671
103	0xbeb6ff5f	-0.35741708
104	0x3cd3577d	0.025798554
105	0xbebea6bd	-0.37236586
106	0x3d39c4f8	0.04535386
107	0x3dc599db	0.09648486
108	0xbe9b4163	-0.30323324
109	0x3e9d5d97	0.30735466
110	0x3d2018a1	0.039085988
111	0xbd774d23	-0.060376298
112	0xbe86acb1	-0.26303628
113	0x3df9a986	0.12190537
114	0xbe8b0bfb	-0.27157578
115	0x3de8a5b0	0.113597274
116	0xbe9a9b78	-0.30196738
117	0x3e40e5d7	0.18837677
118	0xbe985aad	-0.2975668
119	0x3e832ff2	0.25622517
120	0xbe14415f	-0.14478062
121	0xbdc271a8	-0.094943345
122	0xbc0f42ca	-0.008743951
123	0x3b5762a4	0.003286519
124	0xbe0569b1	-0.130286
125	0x3e6c603c	0.23083586
126	0xbdb6318d	-0.0889617
127	0xbc82546a	-0.015909392
128	0xbdeb4a37	-0.11488765
129	0x3e14fd13	0.14549665
130	0x3d1b980f	0.03798681
131	0x3e977b37	0.29586193
132	0x3ecc21e4	0.39869606
133	0xbe4fa3ae	-0.20277283
134	0x3d0d9cc9	0.03457335
135	0x3e09fdd3	0.13475733
136	0x3e860321	0.26174262
137	0xbeab62f2	-0.33473927
138	0xbd5651fa	-0.052324273
139	0x3e186092	0.14880589
140	0x3ec27d9f	0.37986466
141	0x3dbea130	0.09308088
142	0xbd81f5f0	-0.06345737
143	0xbe82824b	-0.2549003
144	0x3e0f472b	0.13991992
145	0xbe3c9c42	-0.18418983
146	0xbe9e8ca0	-0.30966663
147	0x3e7be0eb	0.24597518
148	0x3e8f7228	0.28016782
149	0x3e03f714	0.12887222
150	0xbdae2c19	-0.08504505
151	0xbe4b6e38	-0.19866264
152	0x3e228f19	0.158749
153	0x3bf21cb3	0.007388675
154	0x3e293402	0.16523746
155	0xbe5b4c48	-0.21415818
156	0xbe364ea7	-0.17803441
157	0x3db1b957	0.08677929
158	0xbeb2facc	-0.34956968
159	0x3e3ee254	0.18641025
160	0xbecfe0fa	-0.4060133
161	0x3ca70c82	0.020391706
162	0x3d972e6f	0.073819034
163	0x3d604a99	0.054758642
164	0xbd5cdcf0	-0.05392164
165	0x3f11acd8	0.56904364
166	0x3e2f57c1	0.17123319
167	0x3e6cfb4a	0.23142734
168	0xbc6e298a	-0.014536271
169	0xbe32f03b	-0.17474453
170	0xbe1e598e	-0.1546385
171	0xbe589caf	-0.2115352
172	0x3e7581a3	0.23975234
173	0x3e6c7cd7	0.23094498
174	0xbb3635ad	-0.002780299
175	0xbe9437f6	-0.28948945
176	0xbe253667	-0.16134034
177	0xbcddd4dc	-0.027079038
178	0x3dff062c	0.12452349
179	0x3e8eed88	0.27915597
180	0xbd515a1e	-0.051111333
181	0xbe0a4d3b	-0.13506024
182	0x3e608b7c	0.21928209
183	0xbe513015	-0.20428498
184	0xbe1ca9a5	-0.15299089
185	0xbe7e97ab	-0.24862544
186	0xbdd6056f	-0.10450255
187	0x3e82edf8	0.2557218
188	0x3d41f323	0.047351014
189	0xbe57eeb2	-0.21087149
190	0xbe929ded	-0.28636113
191	0xbe015dc1	-0.1263342
192	0xbe04b1fb	-0.12958519
193	0xbdde3a2f	-0.108509414
194	0x3e13ba08	0.14426434
195	0xbd17d6dd	-0.037070144
196	0x3e1ccf92	0.15313557
197	0x3d655c20	0.05599606
198	0xbe6442b4	-0.2229107
199	0x3de1b1b7	0.110202245
200	0xbe8a33f1	-0.26992753
201	0x3e321c2c	0.17393559
202	0x3e67985e	0.22616717
203	0x3d85e55b	0.06537887
204	0xbd61649a	-0.05502758
205	0x3cc840bb	0.024444928
206	0xbe16e4ad	-0.1473567
207	0x3ab750cf	0.0013985875
208	0xbe73eb48	-0.23820221
209	0xbdb3ea8c	-0.08784971
210	0xbe7343e0	-0.23756361
211	0x3dc7888e	0.097428426
212	0x3d8b66eb	0.068067394
213	0x3c819d69	0.01582213
214	0xbe6fdb18	-0.23423421
215	0x3e1fe9f0	0.15616584
216	0xbe0a243c	-0.13490385
217	0xbdc73080	-0.097260475
218	0x3e631a3b	0.22177975
219	0x3e9c8e99	0.30577543
220	0xbe7d28a3	-0.24722533
221	0x3e9f8ca9	0.31162003
222	0xbea16e54	-0.31529486
223	0x3e706b4a	0.23478428
224	0xbcde2726	-0.027118277
225	0x3e42798c	0.18991679
226	0xbda0a638	-0.07844204
227	0x3cc2fbac	0.023801647
228	0x3dbf9a90	0.09355652
229	0x3e0cea48	0.13761246
230	0x3e039c25	0.12852533
231	0xbe668ef5	-0.22515471
232	0xbe3a929e	-0.18219993
233	0xbe61ef09	-0.22063841
234	0xbe4ba7b4	-0.19888192
235	0x3d3be563	0.045873057
236	0x3e028973	0.12747745
237	0x3e42b821	0.19015552
238	0x3d7d85d1	0.061895195
239	0x3e0cae46	0.13738355
240	0x3e02e301	0.12781908
241	0xbcd72e45	-0.02626718
242	0xbd417ad8	-0.047236294
243	0xbd9be873	-0.076126955
244	0xbeaf0948	-0.3418677
245	0x3e6845e6	0.22682914
246	0x3e2259e1	0.15854599
247	0x3e6f030e	0.23341009
248	0x3cdd3caf	0.027006475
249	0xbdfa366d	-0.12217412
250	0xbdef6ab1	-0.11690272
251	0x3e6fdf73	0.23425083
252	0x3e53969e	0.20662925
253	0x3d8d59c6	0.069018885
254	0xbe1b9cfd	-0.15196605
255	0xbd271a0e	-0.040796332

linear_input.bias f4 [64]
0	0xbe85e151	-0.26148465
1	0xbc081c6a	-0.008307556
2	0xbdb6a68f	-0.08918487
3	0xbe4d2ab6	-0.20035824
4	0xbdf7936d	-0.12088666
5	0x3e74064b	0.23830526
6	0x3e853f4d	0.26024857
7	0xbe3ab141	-0.1823168
8	0xbc22bc32	-0.009932565
9	0xbe4c2cee	-0.19939014
10	0x3e27c506	0.16383752
11	0x3e31694b	0.17325322
12	0xbe6271ff	-0.22113799
13	0x3ea46eb1	0.321157
14	0xbe63c160	-0.22241735
15	0xbcf96601	-0.030444147
16	0xbe925746	-0.2858221
17	0xbe07f905	-0.13278587
18	0x3d87e17a	0.06634803
19	0xbe9a48e0	-0.30133724
20	0x3d9c8348	0.076422274
21	0xbe81ec6e	-0.25375694
22	0x3df8682c	0.12129244
23	0x3ee8d0c9	0.4547179
24	0x3e20a708	0.15688717
25	0x3dff170d	0.124555685
26	0xbe5a526a	-0.21320501
27	0x3e92aae5	0.28646007
28	0x3d7a7db5	0.06115504
29	0x3ddf591c	0.10905668
30	0x3ddae70d	0.10688601
31	0x3db598f4	0.08867064
32	0x3e242107	0.16028224
33	0xbeae3835	-0.34027258
34	0xbbe74110	-0.0070573166
35	0x3e8f4955	0.27985635
36	0x3e666d4b	0.2250263
37	0x3e29b3b6	0.1657246
38	0x3e6fb2dd	0.23408075
39	0x3d46b29d	0.048510183
40	0x3d2cc5d5	0.042180855
41	0x3e149cdd	0.14512964
42	0xbe8aa6e8	-0.27080464
43	0x3d6d623d	0.057955015
44	0x3d82e0a3	0.06390502
45	0x3b38b469	0.0028183705
46	0xbe6e7ba7	-0.23289357
47	0x3edc5bdd	0.43038836
48	0x3e635846	0.22201642
49	0xbe382676	-0.17983422
50	0x3e9c1290	0.30482912
51	0xbe7ff3c1	-0.24995328
52	0xbe3c11c8	-0.18366158
53	0x3e98271f	0.29717347
54	0xbe9b2003	-0.3029786
55	0xbd5e2f6a	-0.054244436
56	0xbdfc989d	-0.12333796
57	0x3e6cf6d8	0.23141038
58	0x3e41a1b4	0.18909341
59	0x3eeb649a	0.4597519
60	0x3d89395d	0.06700394
61	0xbd588761	-0.052863482
62	0xbe98d5ef	-0.29850718
63	0xbe8993e3	-0.2687064

linear_hidden.0.weight f4 [64, 64]
0	0xbd300b02	-0.042979248
1	0x3e64ea9a	0.22355118
2	0x3cdf6000	0.027267456
3	0x3d775c81	0.060390953
4	0x3d9b6aa0	0.075886965
5	0x3dea32d4	0.11435476
6	0x3deaf20e	0.114719495
7	0xbe1d12e4	-0.15339237
8	0xbdba3238	-0.0909161
9	0x3e295a62	0.16538385
10	0x3e925d28	0.28586698
11	0xbd538065	-0.05163612
12	0xbd40720f	-0.046983775
13	0x3daec02d	0.08532748
14	0x3b143200	0.002261281
15	0xbe36e28a	-0.17859855
16	0xbcbdb9d0	-0.023159891
17	0xbe412c2f	-0.18864511
18	0x3e8149a3	0.25251493
19	0xbdd51cf4	-0.10405913
20	0x3e1d44a2	0.15358213
21	0xbdc127a7	-0.09431391
22	0x3e02d1bd	0.12775321
23	0x3d7c7a6b	0.061640184
24	0x3d25dac9	0.040491853
25	0x3df3691e	0.11885284
26	0xbd1dd9f6	-0.038537942
27	0x3ded50f7	0.115877084
28	0xbeae3f6f	-0.3403277
29	0x3e0352b3	0.12824516
30	0xbd61c4e3	-0.055119406
31	0x3daeb352	0.085302964
32	0x3c662453	0.014046746
33	0x3ddd018d	0.107913114
34	0xbd34c719	-0.044135187
35	0x3dce0e7d	0.10061357
36	0xbf16d9ab	-0.58925885
37	0xbb8940b3	-0.004188621
38	0xbdd45910	-0.1036855
39	0xbddfa350	-0.10919821
40	0x3e00fcae	0.1259639
41	0x3e69d687	0.22835742
42	0x3e21cf77	0.15801798
43	0xbe1a513a	-0.15070048
44	0xbdf26101	-0.11834908
45	0x3af26b80	0.0018495172
46	0xbda899fa	-0.08232494
47	0x3e4bece4	0.19914585
48	0x3dfa7bf9	0.12230677
49	0x3dcabccc	0.098992914
50	0xbd840d6a	-0.06447871
51	0xba78f600	-0.0009497106
52	0x3d429cb4	0.047512725
53	0x3ec0478d	0.3755459
54	0xbda58ef2	-0.08083905
55	0xbda3d600	-0.07999802
56	0xbc9cf59d	-0.019160086
57	0xbe0f0908	-0.13968289
58	0x3e02ce3e	0.12773988
59	0x3bc06902	0.005871893
60	0xbd0afeca	-0.033934392
61	0xbcc363b9	-0.023851262
62	0xbde58f83	-0.11209013
63	0xbe27587a	-0.16342345
64	0x3dbacdb9	0.0912127
65	0xbeb71504	-0.3575822
66	0x3e50718e	0.20355818
67	0x3eb4546a	0.35220653
68	0xbe96dcb1	-0.2946525
69	0xbe9e9b58	-0.30977893
70	0xbd9a27c0	-0.07527113
71	0x3d2e4df2	0.042554803
72	0xbc615ed6	-0.013755521
73	0x3e300e77	0.17193018
74	0xbd945662	-0.07243039
75	0x3e13d4e3	0.14436679
76	0xbd6acac8	-0.057322294
77	0xbebab55b	-0.36466488
78	0xbbcaed5c	-0.006192846
79	0x3dae9d5c	0.08526108
80	0xbd00aa00	-0.031412125
81	0x3dd88b77	0.10573476
82	0xbd211b7b	-0.039332848
83	0xbd46ff4e	-0.04858332
84	0xbdb5216d	-0.08844266
85	0x3de675aa	0.112529114
86	0xbdcffeb0	-0.10156
87	0xbe21f971	-0.1581781
88	0xbd7cbf95	-0.061706144
89	0x3e03a797	0.12856899
90	0x3d636056	0.055511795
91	0xbcf8faf5	-0.030393103
92	0x3d7dcb84	0.061961666
93	0xbde2decc	-0.110776514
94	0xbca0dc8f	-0.01963642
95	0xbdf3d32c	-0.11905512
96	0xbe1d4fe5	-0.15362509
97	0xbedf954f	-0.436686
98	0x3e158334	0.14600831
99	0x3cc9bc40	0.024625897
100	0x3ddf49c0	0.109027386
101	0x3d236593	0.03989179
102	0xbd8febe5	-0.07027415
103	0x3de3e57f	0.11127757
104	0xbd206a61	-0.03916395
105	0x3e11e385	0.14246948
106	0x3dfd321f	0.123630755
107	0xbde88b6f	-0.1135472
108	0xbd9a799f	-0.07542729
109	0x3d45d250	0.048296273
110	0x3dedf860	0.116196394
111	0xbe154cd2	-0.14580086
112	0xbd6a6a22	-0.057230122
113	0xbeb479a1	-0.35249045
114	0xbd74c782	-0.059760578
115	0xbd6793fe	-0.05653762
116	0xbd6b5f94	-0.057464197
117	0xbe4339bf	-0.19064997
118	0xbdec49ce	-0.115375146
119	0x3dd88a88	0.10573298
120	0x3e098f07	0.13433467
121	0xbdad5416	-0.08463304
122	0x3d949bee	0.07256304
123	0xbe84f3b9	-0.25967196
124	0xbd4b9227	-0.04969993
125	0x3d613b4e	0.054988198
126	0x3d62989c	0.05532132
127	0x3e2eb94e	0.17062876
128	0xbd8bfec9	-0.06835706
129	0xbe1bcda0	-0.15215158
130	0x3e91bc69	0.28464058
131	0x3dbf0435	0.09326974
132	0x3d16fe86	0.036863826
133	0x3cba91cd	0.022774601
134	0x3e43374d	0.19064064
135	0xbe6e0e7c	-0.23247713
136	0xbd995f3f	-0.0748887
137	0x3e68e4dc	0.22743553
138	0x3e2edc40	0.17076206
139	0xb9b86b43	-0.0003517513
140	0x3d7db7c1	0.06194282
141	0x3ec1f44d	0.378817
142	0xbc81932d	-0.01581725
143	0xbe3af526	-0.18257579
144	0x3dbb4ce6	0.091455266
145	0xbd4889df	-0.04895961
146	0x3e91045f	0.28323647
147	0xbcdc85d3	-0.026919281
148	0x3df184db	0.11792918
149	0x3ddb16a0	0.10697675
150	0x3e571ec2	0.21007827
151	0x3eb8ebbf	0.3611736
152	0x3e157e0e	0.14598867
153	0x3dc1ce0b	0.09463128
154	0xbe22dd56	-0.15904745
155	0x3e92759f	0.28605363
156	0x3d216910	0.039406836
157	0x3e22779f	0.15865944
158	0xbd54d143	-0.05195738
159	0xbe8aad5e	-0.27085394
160	0xbdc9d2bd	-0.09854648
161	0xbe1786cf	-0.14797519
162	0xbd0e0f2a	-0.03468243
163	0x3e75e7ff	0.2401428
164	0xbddc67f1	-0.10762013
165	0x3e7a6eb8	0.24456298
166	0xbcdaea4e	-0.026723053
167	0x3dc6eba2	0.09712912
168	0xbc9f592c	-0.0194517
169	0x3abe41c0	0.0014515445
170	0xbe74223c	-0.23841184
171	0x3df52a3c	0.11970946
172	0xbe17c0ae	-0.14819595
173	0xbd460248	-0.04834202
174	0x3dbd91d0	0.09256327
175	0x3e310d5f	0.17290257
176	0x3e59c442	0.21266273
177	0x3cad81e4	0.0211801
178	0x3e1b3ede	0.151607
179	0xbd1e49d4	-0.038644627
180	0xbcc65298	-0.024209306
181	0x3e20dac5	0.15708454
182	0xbdcacd15	-0.099023975
183	0xbdde1528	-0.10843879
184	0xbc8c01a7	-0.017090632
185	0x3d8eb699	0.069684215
186	0xbdd9a9d2	-0.10628094
187	0x3ea8335f	0.32851693
188	0xbe1326ba	-0.14370242
189	0x3e311079	0.1729144
190	0xbdbffcc9	-0.09374387
191	0xbc6bf745	-0.014402215
192	0x3dc5a571	0.09650696
193	0xbe323485	-0.17402847
194	0x3e002d86	0.12517366
195	0x3e85b23e	0.2611255
196	0x3d0f0bd8	0.034923404
197	0xbeea518f	-0.4576535
198	0xbccf8cda	-0.025335718
199	0x3cfbb8f8	0.030727848
200	0x3e22a7d4	0.15884334
201	0x3ecfb63f	0.4056873
202	0xbd856a21	-0.06514383
203	0xbdd2b519	-0.10288448
204	0x3c2be978	0.010492675
205	0xbd9aa34b	-0.07550677
206	0xbd33d57c	-0.043904766
207	0x3df70cb9	0.120629735
208	0xbdab033e	-0.08350228
209	0x3c385a3f	0.011251985
210	0xbe25029b	-0.16114275
211	0xbd7f26bd	-0.062292803
212	0xbcc3f793	-0.023921764
213	0x3e27ac69	0.16374363
214	0x3d5158f9	0.05111024
215	0xbe88f324	-0.26748002
216	0xbc264426	-0.010148084
217	0x3e01e46b	0.12684791
218	0x3e571593	0.21004324
219	0xbd0a312c	-0.0337383
220	0x3e065ab7	0.13120542
221	0x3d199e86	0.037504695
222	0x3d56354a	0.052296914
223	0xbdd2b2eb	-0.10288032
224	0x3d918956	0.07106273
225	0x3c9b2c1b	0.01894193
226	0x3e309230	0.17243266
227	0x3de5b0a8	0.11215335
228	0x3dfaa72d	0.122389175
229	0xbda5629b	-0.08075448
230	0x3cb0a19f	0.021561442
231	0x3dc17c74	0.09447566
232	0x3cdb16e3	0.026744312
233	0xbd049f3c	-0.03237842
234	0x3e8bd2fd	0.2730941
235	0xbe92b08a	-0.28650314
236	0xbe56372a	-0.20919481
237	0xbdd47650	-0.10374129
238	0x3d534b38	0.051585406
239	0xbe8daa14	-0.27668822
240	0x3e3fa70b	0.18716066
241	0x3e3576df	0.17721127
242	0xbdad37fe	-0.08457945
243	0xbc48b759	-0.012250745
244	0x3d66a990	0.05631405
245	0xbe754aa9	-0.23954262
246	0x3e6c465c	0.23073715
247	0xbdb79197	-0.08963316
248	0x3bad90ef	0.0052968184
249	0xbe3163c4	-0.17323214
250	0x3dc4ef65	0.096159734
251	0xbe07aabc	-0.13248724
252	0xbed6009d	-0.41797343
253	0x3e5e49df	0.21707867
254	0x3e0c14f2	0.13679865
255	0x3cf219b3	0.02955327

linear_hidden.0.bias f4 [64]
0	0xbd6c27da	-0.057655193
1	0x3d842e4f	0.06454145
2	0x3e1adaf8	0.15122592
3	0xbcbc8107	-0.023010744
4	0xbe075d40	-0.13219166
5	0xbde0f6ea	-0.10984595
6	0x3c8e907d	0.017402882
7	0xbd284224	-0.0410787
8	0x3c17919c	0.009251025
9	0xbd5cabba	-0.05387471
10	0x3dc8136a	0.09769328
11	0x3ca6e83a	0.020374406
12	0xbdad66f6	-0.08466904
13	0x3e10091c	0.14065975
14	0x3d350f32	0.044203945
15	0x3da1b7ef	0.07896411
16	0xbd9feb46	-0.07808547
17	0xbe4a6ff8	-0.19769275
18	0x3de816f4	0.11332503
19	0x3e282488	0.16420186
20	0xbdc581f9	-0.09643931
21	0xbc8863a0	-0.016649067
22	0xbc99dbd1	-0.018781574
23	0x3db9215c	0.09039566
24	0xbddb8fa2	-0.10720755
25	0x3e002399	0.1251358
26	0x3d6d7411	0.057972018
27	0xbd2be0c3	-0.041962396
28	0xbde33a9c	-0.11095163
29	0xbc8c8914	-0.017155208
30	0xbe170b43	-0.1475039
31	0x3d066f33	0.03282089
32	0x3d072ef5	0.033003766
33	0x3cc735e6	0.024317693
34	0xbd8fac28	-0.07015258
35	0xbd86d2bd	-0.06583164
36	0xbc9acf03	-0.018897539
37	0x3d1aae2c	0.03776376
38	0x3cf6bcb9	0.030119287
39	0x3dc4d069	0.096100636
40	0x3e1169e3	0.14200549
41	0x3ddcefdf	0.10787939
42	0xbc10389b	-0.008802558
43	0x3d90c534	0.070688635
44	0xbd75cdb8	-0.06001064
45	0xbdee59ce	-0.11638223
46	0x3dbf313f	0.09335565
47	0xbc384025	-0.011245762
48	0x3df4bff4	0.11950675
49	0xbd49d1a2	-0.049272187
50	0xbd84d579	-0.06486029
51	0xbdf4671e	-0.119337305
52	0xbde11faf	-0.10992371
53	0xbbf75582	-0.007548035
54	0x3d0c68f4	0.03427978
55	0xbdc33717	-0.09531992
56	0xbd78f9e8	-0.060785204
57	0xbdb830b3	-0.08993664
58	0x3d896579	0.067088075
59	0xbcbb72be	-0.022881862
60	0x3d7ad448	0.061237603
61	0xbdc7b555	-0.09751383
62	0xbd6fc046	-0.058532976
63	0x3dc41e87	0.09576135

linear_hidden.1.weight f4 [64, 64]
0	0x3e2216a2	0.15828946
1	0xbb3c98e0	-0.0028777644
2	0xbe453c53	-0.19261293
3	0xbc030d71	-0.00799881
4	0x3e608857	0.2192701
5	0xbd518526	-0.05115237
6	0xbceb06e7	-0.028689815
7	0xbda0707f	-0.07833957
8	0x3e623012	0.2208865
9	0x3e208e19	0.15679206
10	0x3e37af45	0.17937954
11	0xbdc7a803	-0.097488426
12	0x3df38048	0.11889702
13	0x3c910a50	0.017705113
14	0xbe170001	-0.14746095
15	0x3e379e2f	0.17931436
16	0x3d4b3712	0.049613066
17	0xbe424caa	-0.18974558
18	0x3e6fafec	0.23406953
19	0x3e1528eb	0.1456639
20	0xbcedec96	-0.029043477
21	0xbcd82dd1	-0.026389034
22	0x3dd2fc4a	0.103020266
23	0xbd8d0ffc	-0.068878144
24	0xbd85e0a7	-0.0653699
25	0x3e844695	0.258351
26	0xbd0f93a0	-0.035052896
27	0xbc6d2ad1	-0.01447554
28	0x3df3c580	0.119029045
29	0xbdc9d2b5	-0.09854642
30	0xbda6c70a	-0.081434324
31	0x3e254868	0.16140902
32	0x3d936670	0.07197273
33	0xbd45755b	-0.048207622
34	0xbca91928	-0.020641878
35	0x3d85c90d	0.06532488
36	0x3de73c5c	0.112908095
37	0x3d8f0775	0.06983844
38	0x3e44e1d0	0.19226766
39	0xbe07938f	-0.13239883
40	0x3e08765c	0.133264
41	0x3e563747	0.20919524
42	0xbd1aca2b	-0.03779046
43	0xbccf6e6f	-0.025321214
44	0x3dd508e8	0.10402089
45	0x3dcee02d	0.10101352
46	0xbe19bc0e	-0.15013143
47	0x3e134519	0.14381827
48	0x3e211efd	0.15734477
49	0xbc518173	-0.012787211
50	0x3e489a4b	0.19590108
51	0x3dfc05d6	0.123058006
52	0xbdd7f92c	-0.10545573
53	0x3e08f9ed	0.13376589
54	0xbc1bcee5	-0.009509777
55	0xbe4c3ea5	-0.19945772
56	0xbd20f1dc	-0.039293155
57	0x3dcb4a0e	0.09926234
58	0x3e38a3fc	0.18031305
59	0xbd24d9bd	-0.040246714
60	0xbc74098e	-0.014894856
61	0xbc6892c2	-0.014195146
62	0x3e643125	0.22284372
63	0x3d95ccb1	0.073144324
64	0x3ea690e6	0.32532424
65	0x3e02dd94	0.12779838
66	0xbf0f11c9	-0.55886513
67	0x3e4d5ac8	0.20054162
68	0xbdefee20	-0.117153406
69	0xbda13562	-0.0787151
70	0xbdb2c204	-0.08728412
71	0x3dfc6966	0.12324791
72	0x3ddf4e25	0.10903577
73	0xbd5d45e6	-0.05402174
74	0x3da20499	0.07911033
75	0x3ddfe93c	0.10933158
76	0xbde55b6a	-0.111990765
77	0x3c415884	0.011800889
78	0xbe9777ec	-0.2958368
79	0x3d913db0	0.07091844
80	0x3e33e175	0.17566474
81	0x3ed6e249	0.41969517
82	0x3e5e1dd6	0.21691069
83	0x3e50dd5f	0.20396946
84	0xbd75a936	-0.059975825
85	0x3cc9a409	0.02461435
86	0x3aa88cdd	0.0012859363
87	0x3cd8cea0	0.026465714
88	0xbd285e85	-0.041105766
89	0x3da08dda	0.07839556
90	0xbe9ccaf5	-0.30623594
91	0xbb9000bf	-0.00439462
92	0x3e167081	0.14691354
93	0x3d148520	0.03625977
94	0x3e6731a4	0.2257753
95	0xbca4e57c	-0.020128958
96	0x3dd35177	0.103182726
97	0xbd176bb8	-0.036967963
98	0x3e39a893	0.18130712
99	0xbbca7831	-0.0061788787
100	0x3d6333e1	0.055469397
101	0x3e286ea5	0.16448458
102	0x3d8d98f2	0.06913938
103	0x3e13ee9a	0.14446488
104	0x3cc91eb2	0.02455077
105	0x3d22d602	0.039754875
106	0x3d471248	0.04860142
107	0xbeb16a55	-0.34651437
108	0x3dc78610	0.09742367
109	0x3d842755	0.064528145
110	0xbf5b3ffe	-0.8564452
111	0x3e53ba33	0.20676498
112	0x3e32c7aa	0.17458978
113	0x3db3a6d2	0.08772053
114	0x3cd8c634	0.026461698
115	0x3d5f0228	0.054445416
116	0xbe09f799	-0.13473357
117	0xbd4d17ea	-0.050071634
118	0x3c9e633e	0.019334432
119	0x3dd1d64b	0.10245951
120	0xbcf0aee0	-0.029380262
121	0x3dd42c73	0.103600405
122	0xbd151335	-0.03639527
123	0xbd43d01c	-0.04780589
124	0xbe89151a	-0.26773912
125	0x3ca9a977	0.02071069
126	0xbe534b97	-0.20634304
127	0x3e1c3b7f	0.15257071
128	0x3db76b75	0.08956043
129	0x3d1fcedb	0.039015632
130	0xbe07116c	-0.1319024
131	0x3e14aec6	0.14519796
132	0x3db786f9	0.08961291
133	0xbc4d005e	-0.012512295
134	0xbe00cf17	-0.12578999
135	0x3cd92fc0	0.026512027
136	0x3dbba940	0.09163141
137	0xbc5e8b7c	-0.01358306
138	0x3c2d276a	0.010568479
139	0x3ded5898	0.115891635
140	0x3dcb4600	0.09925461
141	0x3e184f8f	0.14874099
142	0xbe76fde7	-0.24120294
143	0xbcdb9538	-0.026804551
144	0x3d8ce50b	0.06879624
145	0x3cfbb97b	0.030728092
146	0x3e4b8b0e	0.19877264
147	0xbe0ce846	-0.1376048
148	0x3cd75b8e	0.026288774
149	0x3dca5e4d	0.09881268
150	0x3def9446	0.11698203
151	0x3da33f54	0.07971063
152	0x3dd03e25	0.10168103
153	0xbdb6f2b9	-0.089330144
154	0xbea4130f	-0.3204579
155	0x3e1facc7	0.15593253
156	0x3e8c28df	0.27374932
157	0xbd845a4a	-0.06462534
158	0x3e1e5d1f	0.1546521
159	0xbe043a58	-0.12912881
160	0x3dc017b7	0.09379523
161	0x3dd3fe1d	0.10351203
162	0xbd217d57	-0.039426174
163	0x3e001676	0.12508568
164	0x3d4c4924	0.04987444
165	0xbd257916	-0.04039868
166	0xbdf1affd	-0.11801145
167	0x3dcc7a41	0.099842556
168	0x3cd6ea8b	0.026234886
169	0xbe21b9b3	-0.15793495
170	0x3d872220	0.06598306
171	0xbd646820	-0.055763364
172	0x3d8e20ce	0.06939851
173	0xbddf621b	-0.10907384
174	0xbf5483fe	-0.83013904
175	0x3e27f86a	0.16403356
176	0x3dcac090	0.0990001
177	0xbe660f2f	-0.2246673
178	0x3de09907	0.10966688
179	0x3cc301bb	0.023804536
180	0xbdf65e26	-0.12029676
181	0x3cd64c45	0.026159415
182	0xbd810f2b	-0.06301721
183	0x3d8e619c	0.06952211
184	0xbca22b90	-0.019796163
185	0x3de31465	0.11087874
186	0x3de2bca6	0.11071138
187	0xbbe1faec	-0.0068963673
188	0xbe2733af	-0.1632831
189	0x3dd58d2d	0.10427318
190	0xbe13c68d	-0.1443121
191	0xbe3346f9	-0.17507543
192	0x3dc3b0d0	0.09555209
193	0x3d6ff154	0.058579758
194	0xbdefb8f4	-0.11705199
195	0xbcc0f8da	-0.023556162
196	0xbd88e7d0	-0.0668484
197	0x3d715a44	0.058923975
198	0xbd05f975	-0.032708604
199	0xbcd036e0	-0.025416791
200	0xbd1d3f7a	-0.038390614
201	0xbdcf1ada	-0.101125434
202	0xbadacb80	-0.0016692728
203	0xbd2ced24	-0.042218342
204	0x3de8475e	0.11341737
205	0x3da00126	0.07812719
206	0x3da61349	0.08109147
207	0x3cb9d055	0.022682348
208	0x3dac483f	0.08412217
209	0xbd56ebc9	-0.052470956
210	0xbdb1e05a	-0.0868537
211	0x3defef89	0.117156096
212	0x3d8651d4	0.06558576
213	0xbd781275	-0.060564477
214	0xbdd36d77	-0.10323613
215	0x3dfa0e56	0.122097656
216	0xbcc59418	-0.024118468
217	0xbd9a062a	-0.07520707
218	0xbd9e83ca	-0.077399805
219	0xbcf8c653	-0.030368006
220	0x3dde88b6	0.10865919
221	0x3d6cb73b	0.05779193
222	0xbd3b5358	-0.04573378
223	0xbd895cf1	-0.0670718
224	0xbdb9f4a2	-0.09079863
225	0xbe001a03	-0.12509923
226	0x3dc14856	0.09437625
227	0xbd0dfd36	-0.03466531
228	0xbd5ec8c3	-0.05439068
229	0x3c7fd1f0	0.015614018
230	0xbce79452	-0.028268967
231	0xbd5d4556	-0.054021202
232	0xbc51f0b8	-0.0128137395
233	0xbdf0879c	-0.117446154
234	0x3dfdad84	0.12386611
235	0x3c88734a	0.016656537
236	0xbd8ee428	-0.06977111
237	0x3b086880	0.002081424
238	0xbd2468c0	-0.04013896
239	0x3c68812c	0.014190953
240	0xbd281f6a	-0.041045584
241	0x3a5e1906	0.0008472357
242	0x3ce6a129	0.028153019
243	0xbd1cdb6b	-0.03829519
244	0xbd09179f	-0.033469792
245	0xbcaf8aff	-0.021428583
246	0x3dc31e84	0.09527305
247	0x3dd9500d	0.106109716
248	0xb9812600	-0.0002463311
249	0x3de0468a	0.10950954
250	0xbdc3b97a	-0.09556861
251	0xbe069cac	-0.13145703
252	0xbdbd2a37	-0.092365675
253	0x3deaff7d	0.11474512
254	0xbdd09214	-0.10184112
255	0x3d18e603	0.03732873

linear_hidden.1.bias f4 [64]
0	0xbc021d17	-0.007941506
1	0xbdff26e5	-0.124585904
2	0xbc6d85b2	-0.0144972075
3	0x3c10b1c2	0.008831443
4	0xbd243df8	-0.04009816
5	0x3e261b84	0.16221434
6	0x3d1a33f0	0.037647188
7	0x3dd4c2ce	0.103887185
8	0xbb8548e1	-0.0040675257
9	0x3db2817f	0.08716106
10	0x3d43963b	0.047750693
11	0xbcc211f4	-0.023690201
12	0x3d476bfa	0.04868696
13	0xbcf2562c	-0.029582106
14	0xbd05b4ea	-0.032643236
15	0x3c21ef49	0.00988371
16	0x3d385ddb	0.045011383
17	0x3e2ed344	0.17072779
18	0xbc7ba0a4	-0.015358124
19	0x3d539def	0.05166429
20	0xbabcd310	-0.0014406163
21	0x3cdab8e8	0.026699498
22	0x3df1667c	0.117871255
23	0x3cf1be16	0.029509585
24	0xbe1b716c	-0.15179986
25	0x3e12e743	0.14346032
26	0x3e0e63c2	0.13905242
27	0x3ce3dffc	0.027816765
28	0x3d141924	0.03615679
29	0x3d89891e	0.06715606
30	0x3d94e4aa	0.07270177
31	0xbe019dae	-0.12657806
32	0xbd49ed31	-0.04929847
33	0x3d88ccc6	0.066796824
34	0x3e1fe37d	0.15614124
35	0x3c48d29f	0.012257247
36	0x3d7158dd	0.058922637
37	0xbdd57e43	-0.10424473
38	0x3df95277	0.12173932
39	0xbd9b82ea	-0.07593329
40	0x3e17e0cb	0.14831845
41	0xbcc2a665	-0.023760984
42	0xbc1294df	-0.008946626
43	0x3ceb835f	0.028749166
44	0x3d4807a9	0.04883543
45	0xbd11d3bf	-0.035602327
46	0x3dedea7b	0.11616989
47	0x3cde863f	0.027163623
48	0xbce5d1a3	-0.028054064
49	0x3dfe4b5e	0.12416719
50	0xbde304c4	-0.11084893
51	0xbd7aa22a	-0.061189808
52	0x3d9be67b	0.0761232
53	0x3dde03e4	0.10840586
54	0x3d49163a	0.049093463
55	0x3d73f230	0.05955714
56	0x3ddcd2af	0.10782372
57	0xbc7064e0	-0.014672488
58	0xbd4b2ac5	-0.049601335
59	0xbb929c7a	-0.00447422
60	0xbcc24606	-0.02371503
61	0x3e267221	0.16254474
62	0x3c2d8cef	0.010592683
63	0x3d80bf5d	0.062865

linear_hidden.2.weight f4 [64, 64]
0	0xbd884198	-0.06653136
1	0xbe811cc5	-0.25217262
2	0x3def6490	0.11689103
3	0xbdde3316	-0.108495876
4	0x3c83d17f	0.016091106
5	0xbc157dd1	-0.009124235
6	0xbd2d0dc8	-0.04224947
7	0xbd1de2f4	-0.038546517
8	0x3bdeb3ea	0.00679635
9	0xbd25f702	-0.040518768
10	0x3e1f25e3	0.15541796
11	0xbd054f55	-0.03254636
12	0x3dfe6858	0.12422246
13	0xbdb50610	-0.08839047
14	0xbd93ac8f	-0.07210647
15	0x3dfa1f0d	0.12212954
16	0x3c9655f3	0.01835153
17	0xbcdd5ee2	-0.027022783
18	0x3cb87d02	0.022520546
19	0xbd85c852	-0.06532349
20	0xbd41b644	-0.047292963
21	0xbd969cb0	-0.073541045
22	0x3e19c418	0.1501621
23	0x3c65643a	0.014000947
24	0x3e126ea7	0.14300023
25	0x3dc5f185	0.09665207
26	0xbe1b46a8	-0.15163672
27	0x3dbf6ca7	0.09346896
28	0x3e414096	0.18872294
29	0x3e8d3ab7	0.27583858
30	0xbe6563c6	-0.22401342
31	0xbd0224fc	-0.031773552
32	0xbcef2731	-0.029193493
33	0xbdf83e5e	-0.121212706
34	0xbdaaaad9	-0.08333368
35	0xbdf7e046	-0.12103324
36	0xbd7710f3	-0.0603189
37	0xbd8c52f6	-0.06851761
38	0xbe11d4b4	-0.14241296
39	0xbd32a632	-0.043615527
40	0xbccd3066	-0.025047492
41	0xbcae9d59	-0.021315264
42	0x3d87e13e	0.066347584
43	0xbd662381	-0.056186203
44	0x3e1cee07	0.15325175
45	0xbd09b427	-0.033619072
46	0x3ddf6954	0.109087616
47	0xbb7c1b40	-0.003846839
48	0xbead197d	-0.3380851
49	0x3cbde118	0.023178622
50	0x3df65180	0.12027264
51	0x3e17602e	0.14782783
52	0xbd172bcd	-0.036907006
53	0x3e0d31d1	0.13788535
54	0x3f3411c5	0.70339614
55	0x3dca19f8	0.098682344
56	0xbdb43bb3	-0.08800449
57	0xbddfb78e	-0.10923682
58	0x3e00c15e	0.12573764
59	0x3b7c6828	0.003851423
60	0x3e03e1f8	0.12879169
61	0xbd421db5	-0.047391612
62	0xbe479be7	-0.19493066
63	0xbcf7c7cb	-0.030246636
64	0x3d6a7380	0.057239056
65	0x3ebef791	0.37298253
66	0x3a454405	0.00075250893
67	0xbd119b30	-0.03554839
68	0xbb9405c0	-0.004517287
69	0x3e3d5b66	0.18491897
70	0xbd023711	-0.031790797
71	0xbdef74bd	-0.11692188
72	0xbdc5b9a2	-0.09654547
73	0x3e03114e	0.1279957
74	0x3d1949c6	0.03742387
75	0xbb45d9c0	-0.0030189604
76	0x3d41d463	0.04732169
77	0x3deb3ca6	0.11486177
78	0x3d90a1da	0.07062121
79	0xbd0c75cc	-0.034292027
80	0x3e264c17	0.16239963
81	0xbbf5096d	-0.0074779303
82	0xbe44bad2	-0.19211891
83	0x3d944fcc	0.072417825
84	0x3d922957	0.07136791
85	0x3e62666e	0.22109386
86	0xbddb6f54	-0.107145935
87	0x3d595d51	0.05306751
88	0xbe05195d	-0.12997957
89	0xbe395328	-0.18098128
90	0x3da67950	0.08128607
91	0x3d71662e	0.058935337
92	0xbde01ec4	-0.10943368
93	0xbf2ef87e	-0.6834792
94	0x3daf70b5	0.08566419
95	0x3d9e591e	0.077318415
96	0x3e3d1576	0.18465218
97	0x3e2d3e2c	0.16918248
98	0x3cc4db3c	0.02403032
99	0xbafa3184	-0.0019088243
100	0xbda9fd63	-0.08300283
101	0xbdeb1a94	-0.11479679
102	0x3e2dbfcd	0.16967697
103	0xbd5becca	-0.053692617
104	0x3dda5c1c	0.106621
105	0xbe32d0b5	-0.17462428
106	0xbc597ba6	-0.013274109
107	0x3e2ea807	0.17056285
108	0xbc5edae6	-0.013601994
109	0xbd28d6d6	-0.04122051
110	0xbc84d305	-0.016213903
111	0x3dcfe044	0.10150197
112	0x3edcfdda	0.43162423
113	0x3dd4065e	0.10352777
114	0x3dfbffbe	0.12304638
115	0x3b4bde85	0.0031107974
116	0x3de9c5a5	0.11414651
117	0xbdc9b84e	-0.098496065
118	0xbf97bd1a	-1.1854584
119	0xbe148827	-0.14505063
120	0x3da472f0	0.08029735
121	0x3db64342	0.08899547
122	0x3df99bf7	0.12187951
123	0x3d642d30	0.055707157
124	0xbda953b1	-0.08267916
125	0x3d891248	0.0669294
126	0x3d4ff4e6	0.050770663
127	0x3de3f3f3	0.11130514
128	0xbc2ba54f	-0.010476424
129	0xbd4ddad8	-0.050257534
130	0xbf0f607d	-0.56006604
131	0x3db30d54	0.087427765
132	0x3d373671	0.044729654
133	0xbee817dd	-0.45330706
134	0x3cd53ec8	0.026030913
135	0xbd5ececf	-0.054396447
136	0xbd1b2482	-0.037876613
137	0xbc22e95c	-0.0099433325
138	0x3e8800f4	0.26563227
139	0xbd5cc2fe	-0.053896897
140	0x3e1f9d5b	0.1558737
141	0xbead5771	-0.33855775
142	0xbe212723	-0.15737586
143	0xbd0096ce	-0.03139382
144	0x3dc3d376	0.09561817
145	0xbf0b9587	-0.54525036
146	0x3df35f00	0.11883354
147	0xbda31fe4	-0.07965067
148	0xbc686967	-0.014185286
149	0x3e81844f	0.25296256
150	0xbdcbb58a	-0.09946735
151	0x3c569a1e	0.013098268
152	0x3dabd31b	0.083898745
153	0xbcbb59e6	-0.022870015
154	0xbd9dbbad	-0.07701812
155	0xbe431103	-0.19049458
156	0xbe12fb80	-0.14353752
157	0xbe3fdf7c	-0.18737596
158	0xbe09d570	-0.13460326
159	0xbccdfb3b	-0.02514421
160	0xbe5b2a85	-0.21402939
161	0xbcb0779b	-0.021541407
162	0x3d87bcf5	0.066278376
163	0x3da871d8	0.08224839
164	0x3cf13437	0.029443843
165	0xbc054314	-0.008133668
166	0x3d5ac6f0	0.053412378
167	0xbdf8c631	-0.12147177
168	0x3e122578	0.14272106
169	0x3e02e644	0.12783152
170	0x3defcc4e	0.1170889
171	0x3e1b1169	0.1514336
172	0x3db0033f	0.08594369
173	0xbd9e1f58	-0.07720822
174	0xbe142fe8	-0.144714
175	0x3dc8d475	0.09806148
176	0xbe029827	-0.12753354
177	0xbec94b76	-0.39315385
178	0xbde09548	-0.10965973
179	0xbec63060	-0.38708782
180	0x3eb29770	0.34881163
181	0x3dc64932	0.0968193
182	0xbd42e8b7	-0.047585215
183	0xbd0de556	-0.03464254
184	0xbc4f6874	-0.012659181
185	0xbd0a6f6e	-0.033797674
186	0xbd3eac72	-0.046551175
187	0xbb903fa4	-0.004402118
188	0x3d7f52fb	0.062334996
189	0xba50f5ad	-0.0007971179
190	0xbe144fa0	-0.144835
191	0x3e03c94f	0.12869762
192	0xbd5384e9	-0.051640425
193	0x3db80448	0.089851916
194	0xbea3bbee	-0.31979316
195	0x3d326937	0.043557372
196	0xbdc7baf2	-0.09752454
197	0xbf8fdcb7	-1.1239232
198	0xbbeeba33	-0.0072853803
199	0xbdb0a7b3	-0.08625736
200	0x3ddfd953	0.10930123
201	0xbd914de8	-0.070949376
202	0xbe44d866	-0.19223174
203	0x3d6b54a0	0.05745375
204	0x3df2a24d	0.11847363
205	0x3d4bdbc7	0.049770143
206	0x3d491bf7	0.049098935
207	0xbec7e12f	-0.3903899
208	0x3d083b42	0.033259638
209	0xbf4cc1aa	-0.7998301
210	0xbf14ccec	-0.58125186
211	0x3d5940c8	0.053040296
212	0xbbaba0ea	-0.0052376883
213	0x3e0bc38f	0.13648818
214	0xbc8cef42	-0.01720393
215	0x3df007d6	0.117202446
216	0xbc2a73c2	-0.010403575
217	0xbddf9f16	-0.10919015
218	0x3d6cdcde	0.057827823
219	0xbc5a9ec4	-0.013343517
220	0xbd9d0772	-0.07667436
221	0xbecca246	-0.39967555
222	0xbe4a486f	-0.19754194
223	0xbd2a2e4a	-0.04154805
224	0xbc4ac8f5	-0.012377013
225	0x3d7cc90a	0.061715163
226	0x3df66349	0.12030656
227	0x3e9518a2	0.29120356
228	0xbd67b18c	-0.056565806
229	0xbc84aa0d	-0.016194368
230	0xbc1a3e5c	-0.009414282
231	0x3da3b77b	0.079939805
232	0x3cffa401	0.031206133
233	0xbeca7b16	-0.39547032
234	0xbd9b20ab	-0.0757459
235	0x3e5939f1	0.21213509
236	0xbd400f9c	-0.046889886
237	0x3dbedf18	0.093198955
238	0x3cfc0618	0.030764624
239	0xbb89e163	-0.0042077764
240	0x3ce2a16a	0.027664859
241	0xbede69d4	-0.43440115
242	0xbdd8d638	-0.10587734
243	0xbe9523f7	-0.29129001
244	0x3e172fe5	0.14764364
245	0xbad5b507	-0.0016304561
246	0xbe09ba35	-0.13449939
247	0x3e18eb02	0.14933398
248	0x3d1b4a9a	0.037912942
249	0x3d7b0d1b	0.061291795
250	0x3d4598d0	0.048241436
251	0x3ca9fa2b	0.020749172
252	0x3dd21ad6	0.10259025
253	0x3d29edf7	0.041486707
254	0xbe85b535	-0.26114812
255	0x3df17cf8	0.11791414

linear_hidden.2.bias f4 [64]
0	0x3dfea286	0.12433343
1	0xbbbdbd07	-0.005790356
2	0x3d592358	0.053012222
3	0x3c08d1b2	0.0083507765
4	0x3e29f4c2	0.16597274
5	0x3e2c6dbd	0.16838737
6	0x3e16f9b0	0.14743686
7	0x3d94d5e7	0.07267361
8	0xbd44c8a7	-0.04804292
9	0xbd627eb5	-0.05529662
10	0x3c2a5e24	0.010398421
11	0xbdc8ac9b	-0.09798547
12	0x3e0ec98d	0.13944073
13	0xbcb800cb	-0.022461316
14	0x3dce699c	0.10078737
15	0xbdbdc260	-0.0926559
16	0x3de62d69	0.1123913
17	0xbd1dcb82	-0.03852416
18	0x3d55c2b6	0.052187644
19	0x3dc64ee8	0.09683019
20	0xbc5099c8	-0.012731977
21	0xbdccd78b	-0.10002049
22	0x3def7576	0.11692326
23	0xbd73f582	-0.059560306
24	0x3dafb7ae	0.08579956
25	0xbd803bc0	-0.062613964
26	0x3d82fb78	0.0639562
27	0xbdc78fc6	-0.097442195
28	0x3d87b226	0.06625776
29	0x3df2a228	0.11847335
30	0x3b3faec1	0.0029248449
31	0xbda012bf	-0.078160755
32	0x3b86121f	0.0040915157
33	0x3c1b7070	0.009487256
34	0x3e139f65	0.14416273
35	0x3db7dc70	0.08977592
36	0xbd9456bd	-0.072431065
37	0x3d860173	0.06543245
38	0x3e14b69d	0.14522786
39	0xbcf28c5e	-0.029607948
40	0xbc945c48	-0.01811041
41	0xbddc80cc	-0.107667536
42	0xbcb31e3e	-0.021865007
43	0xbcf7b3f0	-0.030237168
44	0xbdd4082e	-0.10353123
45	0xbcf74c17	-0.03018765
46	0xbda9fbde	-0.08299993
47	0xbd1681f6	-0.036745034
48	0x3bfe6bce	0.007764316
49	0xbcc0309d	-0.02346068
50	0xbdd4a1ee	-0.10382448
51	0x3d9a77e3	0.07542398
52	0xbd1bbc5d	-0.038021434
53	0x3d207d68	0.039182097
54	0xbd73b3a5	-0.059497494
55	0x3de2652a	0.11054452
56	0xbd14313d	-0.03617977
57	0x3aa3a497	0.0012484965
58	0xbe267021	-0.16253711
59	0xba61159f	-0.00085862906
60	0xbda375f3	-0.079814814
61	0x3dc752ce	0.097325906
62	0x3dce8c79	0.10085387
63	0xbb91d104	-0.0044499654

linear_output.weight f4 [4, 64]
0	0xbe4b69dc	-0.19864601
1	0x3e32bc6e	0.17454693
2	0x3d656dbf	0.056012865
3	0x3dc6dfc5	0.097106494
4	0x3da2dc84	0.07952216
5	0xbd657fcb	-0.056030076
6	0x3ebd1f66	0.36938018
7	0x3eac7dc0	0.3368969
8	0xbdac4201	-0.08411027
9	0xbd826137	-0.063661985
10	0xbdf7ef0a	-0.1210614
11	0xbd3e0bcf	-0.04639798
12	0x3ce37d4e	0.02776971
13	0xbe1faa0f	-0.15592216
14	0xbd82bba3	-0.06383445
15	0xbe06e00c	-0.13171405
16	0xbcbffb08	-0.02343513
17	0xbc34aad7	-0.0110270595
18	0x3dd05871	0.10173119
19	0x3e1ef961	0.15524818
20	0x3deba347	0.11505752
21	0xbc9142db	-0.017732074
22	0xbe0d9ed4	-0.1383012
23	0xbd2d5666	-0.042318724
24	0x3df80c32	0.12111701
25	0xbdc40d19	-0.09572811
26	0x3d99277c	0.07478234
27	0xbd750f83	-0.059829246
28	0xbe243707	-0.16036616
29	0x3e4576d7	0.19283615
30	0x3d73f051	0.059555355
31	0x3d8af23a	0.06784482
32	0xbd078e1f	-0.03309452
33	0xbd80daba	-0.06291719
34	0x3caa020e	0.020752933
35	0x3dfd5eb5	0.123715796
36	0x3f1c9902	0.6117097
37	0x3dd9ea85	0.10640434
38	0x3db2e147	0.087343745
39	0x3ea852aa	0.32875568
40	0xbe15fc3e	-0.14647004
41	0xbd847222	-0.064670816
42	0xbe2b1250	-0.16706204
43	0x3d17f5ac	0.037099525
44	0xbdb380dc	-0.08764812
45	0xbdbf44ee	-0.09339319
46	0x3dd6f901	0.104967125
47	0x3da3136c	0.07962689
48	0xbe1792fd	-0.14802165
49	0xbdf121b7	-0.11774009
50	0xbdcc13ff	-0.099647515
51	0x3ec9583d	0.39325133
52	0xbdef6ea3	-0.11691024
53	0x3db145e1	0.086559065
54	0x3d92937d	0.071570374
55	0xbd24f8fa	-0.040276505
56	0x3f1167d8	0.5679908
57	0x3f05975c	0.5218408
58	0x3e80e1b5	0.251722
59	0xbe393387	-0.18086062
60	0xbe6e036a	-0.2324349
61	0x3ce6ec84	0.028188951
62	0x3eed4666	0.46342772
63	0x3d9ee008	0.07757574
64	0x3e0b8c57	0.13627754
65	0x3d94d915	0.072679676
66	0x3e30b58a	0.17256752
67	0x3e8340ee	0.25635475
68	0x3e8cb08c	0.27478445
69	0x3f1523fd	0.5825804
70	0x3edde0a4	0.4333545
71	0x3e915a4f	0.28389212
72	0x3de14b00	0.11000633
73	0x3d99c725	0.07508687
74	0xbde6b64e	-0.112652406
75	0x3d8c42e2	0.068486944
76	0x3e3c07be	0.18362328
77	0x3e50aa3e	0.20377442
78	0x3e814dc0	0.2525463
79	0x3f051ae2	0.51994145
80	0x3ea1bde5	0.3159019
81	0x3e953e0f	0.2914891
82	0xbd4ac793	-0.049506735
83	0x3e1a9279	0.15094937
84	0x3e56a71c	0.20962185
85	0x3be91e27	0.00711419
86	0x3def51c4	0.116855174
87	0x3db4d978	0.08830541
88	0x3e47bf07	0.19506465
89	0x3e01d650	0.1267941
90	0xbd21ca8d	-0.039499808
91	0xbdb14f2d	-0.0865768
92	0x3d003415	0.03129967
93	0x3e494822	0.19656423
94	0xbd2ff504	-0.042958274
95	0x3d72e18c	0.05929713
96	0x3d6f035b	0.05835281
97	0xbdd28c5e	-0.10280679
98	0x3e988ca3	0.29794797
99	0x3e837291	0.25673345
100	0x3ee9eeee	0.456901
101	0x3e8e45a5	0.2778751
102	0x3e3701c7	0.17871772
103	0x3e433f74	0.19067174
104	0x3ea8b4c0	0.329504
105	0xbd996134	-0.07489243
106	0x3df9d8d2	0.12199558
107	0xbd974856	-0.07386844
108	0x3d974222	0.07385661
109	0x3d9a73a7	0.0754159
110	0x3e1dce16	0.15410647
111	0x3db7cd78	0.08974737
112	0x3ecd3a63	0.40083608
113	0x3e952750	0.29131556
114	0x3d5be055	0.053680737
115	0xbd82c128	-0.06384498
116	0x3e778a8f	0.2417395
117	0x3e73cb04	0.23807913
118	0xbc85a09d	-0.016311938
119	0x3e2e13a3	0.16999678
120	0x3dc2fb7f	0.09520625
121	0xbce24a53	-0.027623331
122	0x3f0f7b2a	0.5604731
123	0x3e4c0b74	0.19926244
124	0xbd60dd54	-0.054898575
125	0x3e5300f5	0.20605834
126	0x3f3b5f03	0.7319185
127	0x3e84c520	0.25931644
128	0x3c5a93a6	0.013340866
129	0x3dba7376	0.09104054
130	0xbe2ffe33	-0.17186813
131	0x3cb97756	0.022639912
132	0x3e1e6433	0.1546791
133	0xbe15d18b	-0.14630716
134	0x3df84b80	0.121237755
135	0x3ea6d762	0.325862
136	0xbdcd9226	-0.10037641
137	0x3e8763ad	0.26443234
138	0x3ddd321a	0.10800572
139	0xbc3f26e0	-0.011666983
140	0x3dfef5af	0.12449204
141	0x3dee39e3	0.11632135
142	0xbdfabbf4	-0.122428805
143	0xbe692a25	-0.22769983
144	0x3e0fbd42	0.1403704
145	0x3ea002d6	0.31252164
146	0x3d406ca4	0.046978608
147	0xbe313d9f	-0.17308663
148	0x3e8f420d	0.2798008
149	0x3d80b13b	0.06283804
150	0x3d41471e	0.047186963
151	0xbd57b7b2	-0.05266542
152	0x3e4c315b	0.19940703
153	0x3e4633cd	0.19355698
154	0xbca02e4d	-0.019553328
155	0x3d49116d	0.049088884
156	0x3f938ca5	1.1527296
157	0x3da6f9e4	0.081531316
158	0x3dbbca62	0.09169461
159	0x3decd841	0.11564685
160	0x3eb2627c	0.34840763
161	0x3df0e950	0.11763251
162	0xbdcce5ec	-0.100047916
163	0xbde7b3b7	-0.11313575
164	0x3e387199	0.18012084
165	0xbbb57691	-0.005537816
166	0xbe0513df	-0.12995861
167	0x3de9cbbb	0.11415812
168	0xbe267a31	-0.1625755
169	0x3db713b7	0.08939307
170	0xbe0ba052	-0.13635376
171	0x3d93114c	0.071810335
172	0xbd37718b	-0.044786017
173	0xbd4bfa84	-0.049799457
174	0x3e435c75	0.19078238
175	0x3c48864c	0.01223905
176	0xbe189981	-0.14902307
177	0xbbfd7a55	-0.0077355304
178	0x3f90b049	1.1303798
179	0x3cf8c91a	0.03036933
180	0x3e239462	0.15974572
181	0xbe9c6a6a	-0.30549937
182	0xbcf4ff02	-0.029906753
183	0x3d971eae	0.073788986
184	0xbe1addfc	-0.15123743
185	0x3ebe9016	0.37219304
186	0xbdb39198	-0.08768004
187	0xbdc27996	-0.09495847
188	0xbea3f8de	-0.32025808
189	0xbdfa6e08	-0.12228018
190	0xbd85d47a	-0.06534667
191	0x3e60caf3	0.21952419
192	0x3dfde50f	0.12397205
193	0x3d97372b	0.07383569
194	0xbdd30761	-0.10304142
195	0xbeec5064	-0.46155083
196	0x3d91943a	0.0710835
197	0x3ef8ad7f	0.48569867
198	0x3ea5b990	0.32368135
199	0x3b89c6cb	0.004204606
200	0xbe21a558	-0.1578573
201	0xbeb54f8d	-0.35412255
202	0xbcd521cc	-0.026017092
203	0xbd59ad8f	-0.053144034
204	0x3ea49538	0.32145095
205	0x3e29997f	0.1656246
206	0x3daa0846	0.08302359
207	0xbefb3604	-0.49064648
208	0xbd3c9a1e	-0.046045415
209	0xbe13fb54	-0.14451343
210	0xbdc66d2a	-0.0968879
211	0x3c91945c	0.017770939
212	0x3dbb6581	0.0915022
213	0x3dac231a	0.084051326
214	0x3e9da675	0.3079106
215	0xbdc340bb	-0.09533831
216	0xbe28f71b	-0.16500513
217	0x3e7ca130	0.24670863
218	0xbd50901b	-0.05091868
219	0x3da288db	0.07936259
220	0x3d178e12	0.037000723
221	0xbeab70ab	-0.33484396
222	0x3d507479	0.050892327
223	0xbd133cbd	-0.035946596
224	0xbe1f4f8e	-0.15557691
225	0x3ab85c00	0.0014065504
226	0x3e62f09a	0.22162095
227	0xbe065b1b	-0.13120691
228	0xbe804be0	-0.25057888
229	0xbea12d60	-0.3147993
230	0x3dd57dc6	0.1042438
231	0xbeb75435	-0.35806432
232	0x3f546d76	0.82979524
233	0x3cf1185a	0.029430557
234	0xbe358a85	-0.17728622
235	0xbdd355a8	-0.10319072
236	0xbd7d7679	-0.061880562
237	0xbf51b78f	-0.81920713
238	0x3e0e62f0	0.13904929
239	0xbd0d6026	-0.034515522
240	0x3e9a191a	0.30097276
241	0x3e408218	0.18799627
242	0x3dd8d52f	0.105875365
243	0x3d6dbef5	0.05804344
244	0x3e596153	0.21228532
245	0x3eab09f0	0.3340602
246	0xbe4947a8	-0.19656241
247	0x3ba85d39	0.005138066
248	0x3d2d290d	0.042275477
249	0x3eac0ef9	0.33605173
250	0xbe727fba	-0.23681536
251	0x3e030c7e	0.12797734
252	0x3e56008d	0.20898648
253	0xbd94245a	-0.07233496
254	0x3ece1280	0.4024849
255	0xbe83bd8d	-0.25730553

linear_output.bias f4 [4]
0	0x3c7d6061	0.015464873
1	0x3e0f5ca7	0.14000188
2	0xbd9eea3e	-0.07759522
3	0x3e2d1530	0.16902614
