src/scripts/weights/actor.pth (torch, 23511 bytes, 6 tensors)

linear_input.weight f4 [64, 13]
000000 8b c9 a6 3d b3 6e c9 3d ff 53 69 3e 8d 51 f1 bd
       0.0814391 0.09835567 0.22785948 -0.11783133
000010 2f 80 f9 3d ba 0a 2f 3d a0 e6 eb bc 87 ca 8d be
       0.12182652 0.04273484 -0.028796494 -0.2769358
000020 7f 58 22 3e ce ee d4 bc b3 0b af 3d 64 9d ca bd
       0.15854071 -0.025992777 0.08547153 -0.09893301
000030 85 97 8b be 38 c7 16 3e 23 90 fb bd 3a 58 0c 3e
       -0.27264038 0.14724433 -0.12283351 0.13705531
000040 cf 4e 54 be 85 bc 7a bd 9a 58 c2 3d 82 d6 c4 3d
       -0.20733188 -0.061214942 0.09489556 0.096112266
000050 da 41 1a 3e 64 5a b9 bd 15 82 3e 3e 41 48 78 bd
       0.15064183 -0.09050444 0.1860431 -0.06061578
000060 89 c1 c7 bc d7 12 6a bd 0b 88 81 3e c9 81 86 3e
       -0.024384277 -0.057146873 0.25299105 0.26270893
000070 11 8b 59 bd 47 46 84 3e 89 02 1f be 04 33 24 be
       -0.05311114 0.25834867 -0.15528311 -0.16035086
000080 a6 0c 21 bc fe 16 35 3e f5 d9 c1 3d 00 4d 37 3e
       -0.009829676 0.17684552 0.094654 0.17900467
000090 e8 c0 2a bd 7f b8 86 3e e7 ff 84 3e 34 3b 10 be
       -0.041687876 0.26312634 0.25976488 -0.14085084
0000a0 0c 95 1f 3e ed 43 62 3e 9a 6f 68 3e ad dc 14 3e
       0.155842 0.22096224 0.22698823 0.14537306
0000b0 d8 2e dd 3d 11 30 54 be 09 d9 71 be 4d 8e 12 3e
       0.1079995 -0.20721461 -0.23617949 0.14312096
0000c0 1b 3e 26 be e1 af 38 3e ff b2 5b 3e 32 13 32 3e
       -0.16234629 0.18035842 0.21455 0.17390135
0000d0 04 7d 88 3d 33 a1 89 3e 9b 62 36 bd e1 ea e1 bd
       0.0666447 0.26880798 -0.04452763 -0.11031128
0000e0 f7 2d 40 be 53 b7 7f bd 66 16 78 bd e6 52 3e be
       -0.18767534 -0.06243069 -0.060568236 -0.1858631
0000f0 76 14 1d 3e 5f b0 a1 bd bb 16 6f 3e 17 b8 4f be
       0.15339836 -0.07894968 0.23348515 -0.20285068
000100 bd 6d 6b 3e 86 65 f6 3d 58 3c c0 bd 33 23 86 3e
       0.2299108 0.12031083 -0.0938651 0.2619873
000110 57 e0 5b 3d b6 c5 10 3e 8d e8 55 be 89 c7 76 be
       0.053680744 0.1413792 -0.20889492 -0.24099554
000120 56 bc 76 bd ce 9e e9 bc 6c 94 87 3d 1c f9 f9 3d
       -0.060238205 -0.028518107 0.06620106 0.12205717
000130 63 f0 5c be 1e c3 55 bd bd e9 c9 bb a4 2f e3 bd
       -0.21576075 -0.05218803 -0.006161897 -0.11093071
000140 a4 85 56 3d 66 b2 7a bd 8b 2a 25 3e f3 d8 74 3d
       0.052373543 -0.06120529 0.1612951 0.05977721
000150 c2 b3 e7 bc 13 d7 42 3e 39 6c b1 bd 38 ef e6 bd
       -0.028283957 0.19027357 -0.0866322 -0.11276096
000160 94 33 46 be ee 1a 3f 3d 0a 41 d2 3d fc 48 29 3e
       -0.19355613 0.04665654 0.102663115 0.16531748
000170 38 d0 5e 3e c4 02 21 be ed 77 36 3e 79 f3 8a be
       0.21759117 -0.15723711 0.17819186 -0.2713888
000180 da ce c6 ba d3 4c f0 3d 0e 58 0a be e2 f6 3e be
       -0.0015167848 0.11733403 -0.13510153 -0.18648866
000190 a2 31 34 3d e4 63 ad bd 34 09 b5 bd 00 56 5c be
       0.043992646 -0.08466318 -0.08839646 -0.21517181
0001a0 26 da 81 be e5 30 62 be 86 cc b8 bd 11 b6 a5 bd
       -0.25361747 -0.22088964 -0.09023385 -0.08091367
0001b0 d5 a9 39 3e fa f8 87 be 8e 41 7c be e9 d0 4a 3c
       0.18131192 -0.26557142 -0.24634382 0.01237891
0001c0 01 58 51 be 4d eb 0d 3e fb 2d 81 3e cd 7a 54 3e
       -0.20443727 0.13859291 0.25230393 0.2074997
0001d0 ba 33 37 3e 67 9f 19 3e 19 40 b2 bd 1a 94 3b be
       0.17890826 0.15002213 -0.08703632 -0.18318215
0001e0 3b 5a 6f 3e f2 89 20 bd 2e ab 86 3e be dd 33 be
       0.23374264 -0.039194055 0.26302475 -0.17565057
0001f0 af 80 8f bd 0c 2b 8a be 82 f7 81 3e c6 ff 5d 3d
       -0.07006966 -0.26985967 0.25384146 0.054199003
000200 3d 80 54 be 88 8c 1e 3e 2d 12 58 3e d6 64 f2 3d
       -0.20752044 0.15483296 0.21100684 0.11835639
000210 bc b5 88 bd 9b 48 5e 3e 02 db e9 bd 1a 91 53 3e
       -0.06675288 0.21707384 -0.114187256 0.2066082
000220 a4 00 52 3e b6 3b 8b be 96 04 5b 3e 17 46 55 3e
       0.20508057 -0.27193993 0.21388468 0.20827518
000230 1f 5c 85 be 15 54 21 3e 06 20 10 bc e1 f3 bd 3d
       -0.26046845 0.15754731 -0.0087966975 0.09275032
000240 21 65 17 3e e4 41 6e be aa 84 5d bd 3e ce ff 3d
       0.14784671 -0.23267323 -0.054081596 0.124905095
000250 29 aa 93 bd 1f c8 34 3e 2d ca cb 3d 2f 7a 1e 3e
       -0.0721019 0.17654465 0.09950671 0.15476297
000260 23 f1 ed bd 42 1f 32 be e4 7d fd 3c 6e a7 b5 3d
       -0.11618259 -0.17394736 0.030943818 0.08869825
000270 b9 45 66 3e 79 96 71 3d ca ff f8 3d 03 d8 45 bc
       0.22487535 0.058981393 0.12158163 -0.012075427
000280 45 2c 4e be 7e f4 c8 bd be 7c 99 3b 4e ad 09 be
       -0.20134075 -0.09812258 0.00468406 -0.13445017
000290 76 c7 22 be 70 8a 29 be 9f 5f 78 3e 2b 11 39 3e
       -0.15896401 -0.16556716 0.24255227 0.18072955
0002a0 61 97 17 3d ed 0b 05 be 92 92 c2 3d b0 3b 86 3e
       0.0370096 -0.1299283 0.09500612 0.26217413
0002b0 c3 8b 63 3e c6 2c 81 3e 93 4d ae 3d f1 08 03 bb
       0.22221284 0.25229472 0.0851089 -0.0019994343
0002c0 42 65 3f bd 55 28 c1 3c 43 ae 61 3e e8 d4 54 be
       -0.046727426 0.023578802 0.22039132 -0.20784342
0002d0 d8 a5 51 3d 82 25 8a be 14 ab 16 be a5 0e 67 be
       0.05118355 -0.2698174 -0.14713699 -0.2256418
0002e0 92 35 87 3b 76 6b 6f bd 90 7c f0 3d ea 1b 25 3e
       0.004126259 -0.058452092 0.117425084 0.1612393
0002f0 ac 71 8b 3e 92 84 b2 3d 15 c0 d2 3d e4 21 50 3e
       0.27235162 0.08716692 0.10290543 0.20325428
000300 c4 09 10 3e 19 40 7f 3d 72 0f e4 bd 0d 00 a6 3d
       0.14066225 0.062316988 -0.111357585 0.081054784
000310 48 79 33 be 41 ff e9 3c 7b 45 88 be 9f b1 4d 3e
       -0.17526734 0.028564097 -0.2661551 0.20087288
000320 ce 31 06 3e a5 f0 9e bc f0 ca 35 3e 4b 96 99 bd
       0.13104936 -0.019401858 0.17753196 -0.07499369
000330 51 1f 88 3e be a8 43 3e b5 c2 7c 3e 15 5e 89 be
       0.26586393 0.19107339 0.2468365 -0.2682959
000340 08 30 de bd b4 19 bb bd df 0f 36 3e 33 e0 83 3d
       -0.10849005 -0.09135762 0.17779492 0.06439247
000350 51 fe 47 be cb 02 8b bb 1e b3 37 be d7 2c cd 3c
       -0.19530608 -0.0042422763 -0.17939422 0.025045795
000360 26 0a 74 3d e3 11 42 be e3 dd 10 be b7 9d 4e be
       0.05957999 -0.18952136 -0.14147143 -0.20177351
000370 cc 18 68 be 2d 03 9c 3d 74 dc 3a be e3 9c 40 be
       -0.2266571 0.07617793 -0.18248159 -0.18809848
000380 cb 68 3b 3e f3 3a 7f 3e 3d a1 50 be 15 ea 8d 3e
       0.18301694 0.24924831 -0.20374008 0.27717653
000390 a8 4c 93 3d be 55 26 3e 65 46 52 3d a9 1e af bc
       0.071923554 0.16243646 0.051336665 -0.021376925
0003a0 4c f2 20 bd bc 33 8c 3e ce ef 5f be 35 fd e3 3d
       -0.039293572 0.2738322 -0.21868822 0.1113228
0003b0 5c dd 36 be 2d 8a 5f 3e 40 51 e3 3d a7 08 1e 3e
       -0.1785788 0.21830054 0.110994816 0.15432988
0003c0 65 ba a6 3d d3 a4 df bc a3 a3 91 bd ed 61 19 3e
       0.08141021 -0.027300274 -0.07111289 0.14978762
0003d0 e5 31 8b 3e 16 07 f0 bd f5 c2 67 be 93 6e de bd
       0.27186504 -0.117201015 -0.22632964 -0.10860934
0003e0 af 59 79 be 70 81 c9 3d 19 ac 05 be 19 4f 36 3e
       -0.24350618 0.09839141 -0.13053931 0.17803611
0003f0 d7 21 22 be f6 ac 80 be 5a e0 18 be 1a f1 3b 3d
       -0.15833221 -0.2513196 -0.14929333 0.04588423

linear_input.bias f4 [64]
000000 0a 69 1e be 92 3e e8 bd 62 ee ba bd 71 76 4d 3d
       -0.15469757 -0.11340059 -0.09127499 0.050161783
000010 3f 23 57 3d d6 e1 44 3e 31 fb 4f 3e c9 65 ff bd
       0.052523848 0.19226775 0.20310666 -0.12470586
000020 9e d9 3a be da fd 54 bd 4c 17 8e 3c 2c 42 51 3c
       -0.18247077 -0.051999904 0.017345093 0.012772124
000030 b8 4b 59 be f2 4c 36 3e 0c a1 92 3c 08 48 1d be
       -0.2122029 0.1780279 0.017899059 -0.15359509
000040 3e a9 81 be d7 e3 be 3c 27 ff 3f 3d 46 c9 79 3e
       -0.25324434 0.023302002 0.04687419 0.24393186
000050 e7 08 36 3e 25 0f d0 3c 70 a7 84 bd 4f 0e f4 3c
       0.17776833 0.025397846 -0.06477249 0.02979198
000060 f2 c7 06 3e 3c 26 be 3d 71 1c 12 3e fe c6 6c 3e
       0.1316221 0.092846364 0.14268662 0.23122784
000070 60 ad 72 3e d5 d2 98 3d 04 e3 93 3d 1e 8c 38 3e
       0.2369895 0.07462088 0.07221034 0.180222
000080 28 82 85 3e b1 e5 8a 3e f7 8d 4a bd 9b 4c 04 bd
       0.26075864 0.27128366 -0.049451794 -0.03229962
000090 3e 15 87 be 72 26 e7 3d 38 78 d7 bb c6 91 2d be
       -0.26383394 0.1128663 -0.0065756105 -0.1695014
0000a0 62 d5 af 3d 79 a5 f3 3d 0d 4b 71 3e f1 2e 02 be
       0.085856214 0.11896796 0.23563786 -0.12713219
0000b0 ff 65 18 3e 7e b8 b4 3d 1d 5d 8f 3d 2a 52 52 3e
       0.14882658 0.088242516 0.07000182 0.20539156
0000c0 4d 24 86 be 25 5a e0 3d d8 52 fb 3d 87 22 a6 3c
       -0.2619957 0.10954694 0.122716606 0.020280136
0000d0 ec 5c 71 be d9 28 7d bd 12 6a 3d 3e 08 30 f9 bd
       -0.23570603 -0.061806533 0.18497494 -0.12167364
0000e0 7e 9d 77 be 8b 4f 31 be 17 f4 85 3e 19 62 7b 3b
       -0.24181172 -0.173155 0.26162788 0.0038358031
0000f0 4d 0a d4 3d e0 47 4e be 2f a0 35 3e 86 56 ce 3d
       0.10353527 -0.20144606 0.17736886 0.10075097

linear_hidden.0.weight f4 [64, 64]
000000 ec 4b 5c 3d 26 f9 88 3d e4 0d 01 3d 18 59 a4 3d
       0.053783342 0.06688146 0.031507388 0.08024806
000010 88 e5 80 3d 8c 6a a6 3d 7a 88 b2 bd d8 22 c7 bd
       0.062937796 0.08125791 -0.08717437 -0.09723443
000020 b8 09 f4 3d 14 66 05 bd 58 6a fc bd ce 5d ef bd
       0.11915916 -0.032568052 -0.12324971 -0.11687814
000030 7e ce c0 bd 40 10 e2 3c ec 86 00 3d 10 a2 52 bd
       -0.09414385 0.02759564 0.03137867 -0.051424086
000040 70 63 1a bc f6 44 89 bd 88 2f 71 3d ba f7 9c bd
       -0.009423122 -0.067026064 0.05888322 -0.076644376
000050 ec 5e 56 3d 60 b0 73 3c e0 e4 ac 3d b4 2d 96 bd
       0.05233662 0.014873594 0.08442092 -0.07332936
000060 3e 35 f2 3d 26 7e d4 bd 50 d3 87 bd 2e 01 b6 bd
       0.118265614 -0.103756234 -0.066321015 -0.08886944
000070 80 42 b8 ba 40 6d 26 bc 5c 02 8d bd 64 5e 3a 3d
       -0.0014057904 -0.010157883 -0.06885216 0.045500174
000080 80 08 2e bd 00 1f fb bd 9a 89 c0 bd f0 34 d4 bd
       -0.042488575 -0.12261772 -0.094012454 -0.103616595
000090 8c 0b 88 3d 56 0c 8f bd 00 8a 7b 3c 3a 62 cd bd
       0.066428274 -0.06984775 0.015352726 -0.10028501
0000a0 30 b9 0c bc 10 97 ac bd 58 3f a6 bc 0a a3 87 bd
       -0.008589074 -0.084272504 -0.020293877 -0.06622894
0000b0 9a 5a 9d 3d 80 59 3b bb c2 f3 bb 3d 80 f9 49 bd
       0.076832965 -0.0028587282 0.091773525 -0.049310207
0000c0 0e f7 aa bd e0 18 e9 bc 14 5b ae bd 7c 0b 08 3d
       -0.08347903 -0.028454244 -0.085134655 0.033214077
0000d0 08 05 1e 3d 3e 42 ac 3d 88 e5 58 3d 84 24 ae 3d
       0.038579017 0.08411072 0.052953273 0.085030586
0000e0 74 1f 06 bd e0 56 8b bd ae 5f fa bd 38 4a 40 bd
       -0.03274484 -0.068036795 -0.12225281 -0.04694578
0000f0 8c 7f 6d bd 1c e6 23 bd 50 a1 42 bd a4 6a 39 bd
       -0.057982966 -0.04001437 -0.04751712 -0.045267716
000100 20 25 03 bd c8 c8 df 3c 38 c3 a6 bc 46 1a f3 bd
       -0.032017827 0.02731742 -0.02035676 -0.11870246
000110 7a 9e 90 bd 78 7b ac 3c cc 64 fb 3d 08 2b b4 3d
       -0.07061477 0.021054968 0.12275085 0.0879727
000120 38 86 62 3d 00 2c 7c bb e0 ba 32 bc 82 f3 9e 3d
       0.055303782 -0.0038478374 -0.010908812 0.07761289
000130 c8 e0 ee bd 22 0a a1 3d 38 47 fe 3d 04 1a 5a bd
       -0.11663967 0.07863261 0.12415928 -0.053247467
000140 1e 38 ed bd e0 a3 ac bc da c7 97 bd aa e2 80 3d
       -0.11582969 -0.021074235 -0.074111655 0.06293233
000150 68 23 d4 3c 90 62 6f 3d f0 98 96 3c 5e 3a cb bd
       0.02589579 0.058443606 0.018383473 -0.09923242
000160 30 09 5e bc a6 dd 80 bd c0 db cb bc 50 e2 ff 3c
       -0.013551995 -0.06292276 -0.024885058 0.031235844
000170 18 96 f6 3c 98 81 dc bc 3e 98 d4 3d 8c 60 ce 3d
       0.030100867 -0.026917264 0.103806004 0.100770086
000180 98 a0 25 bd 24 c9 56 bd a8 be 42 3d 10 47 8a 3d
       -0.040436357 -0.052437916 0.047545105 0.06751835
000190 b4 b4 d0 3d 4a 12 bf 3d 24 7c 68 bd 20 00 ea bb
       0.101907164 0.0932966 -0.056759015 -0.007141128
0001a0 5a 9f c1 bd 2c 61 dd bd d8 72 f3 3d 60 0d 4b 3c
       -0.09454222 -0.1080955 0.11887139 0.012393326
0001b0 28 48 ff bc 08 36 d8 bc 9e b7 99 bd 84 d4 c9 3d
       -0.031162336 -0.026392952 -0.07505725 0.09854987
0001c0 9c cf 61 bd 80 5d 54 3b 10 90 ad 3d ca 4b c5 bd
       -0.055129632 0.0032404363 0.08474743 -0.09633596
0001d0 20 1c d1 bd 90 73 7d 3c cc ca 34 bd 48 ca 1a 3d
       -0.102104425 0.015469447 -0.044138715 0.037790567
0001e0 4a 2d fe 3d 54 f2 bd bd f4 8e c4 3d 9c 9b fe bd
       0.12410982 -0.09274736 0.09597579 -0.12432024
0001f0 80 0c 6c bb 58 67 1d bd f8 78 97 bc 70 f2 9f bd
       -0.0036018193 -0.038428634 -0.0184903 -0.07809913
000200 36 e2 b4 3d bc d6 68 3d 96 3c cb 3d 4e 1c cb 3d
       0.08832209 0.05684541 0.09923665 0.09917508
000210 9e 2f 92 bd d4 1e 4a 3d 58 f8 cb bc 90 9c 76 bd
       -0.071379885 0.049345806 -0.024898693 -0.060207903
000220 6a db f9 3d ce 93 b6 bd 5c 96 45 bd e6 41 9c bd
       0.12200053 -0.0891491 -0.048239097 -0.07629757
000230 70 73 83 3c 60 70 1e 3c 2a 29 c2 bd 08 55 da 3c
       0.016046256 0.009670347 -0.09480508 0.026651874
000240 82 56 cb 3d d8 48 4b bd f8 54 9c bc 0c 4f 1e 3d
       0.099286094 -0.049630016 -0.019083485 0.038649604
000250 38 7e 43 3d a8 66 ce 3d d8 1e 42 3d 00 34 fe b9
       0.047727793 0.10078174 0.047392696 -0.00048485398
000260 44 68 a5 bd 06 71 e9 3d d0 0d b7 3d f8 ab c5 3c
       -0.08076528 0.11398511 0.089381814 0.024129853
000270 c0 a6 17 3b b4 8a a9 3d 98 3d 62 3d 64 d9 e8 bd
       0.0023140162 0.08278409 0.05523452 -0.11369589
000280 56 4c a9 bd 16 e8 f3 3d 6e 0d d6 bd e0 7c 1d bc
       -0.08266513 0.11909501 -0.1045178 -0.009612292
000290 66 af ab bd 70 13 cf 3d 80 6f b0 3c ec 81 d2 bd
       -0.08383064 0.10111129 0.021537542 -0.10278687
0002a0 80 f9 98 bc 3a 35 b4 bd e0 c5 fe bb c8 89 c6 bc
       -0.018673658 -0.08799215 -0.0077750534 -0.024235621
0002b0 18 92 61 bd 34 3b a3 bd 42 be b4 bd 60 23 67 bd
       -0.055070966 -0.079702765 -0.08825351 -0.05643022
0002c0 50 85 56 3d 86 5a f4 bd 34 97 fd bd fc b8 38 bd
       0.05237323 -0.119313285 -0.12382355 -0.04509829
0002d0 0c 90 a2 bd 80 86 79 bc 1a 6f de bd 96 a0 da 3d
       -0.07937631 -0.015229821 -0.10861035 0.106751606
0002e0 42 b8 fc bd 3c 32 5c bd 18 84 ea bc 28 42 46 3d
       -0.12339832 -0.053758845 -0.02862744 0.048402935
0002f0 30 05 bf 3d a4 6d ca bd f8 ce 9e 3d 80 33 3f bc
       0.09327161 -0.098841935 0.0775432 -0.011669993
000300 92 ab c5 bd 76 eb fe bd b0 df 31 3c e0 db 42 bc
       -0.09651865 -0.12447254 0.010856554 -0.011893243
000310 0c ba db bd b0 b6 3d bc 90 5a b0 3d e8 e2 d4 bd
       -0.10728845 -0.011579201 0.086110234 -0.103948414
000320 ca 13 fd 3d 84 76 ab 3d c4 ef 67 3d 60 cf 2a bd
       0.1235729 0.083722144 0.056625143 -0.041701674
000330 0c dc 0a 3d 28 e5 bc 3d 84 18 0b 3d 66 f9 e2 3d
       0.03390126 0.092233956 0.033958927 0.11082725
000340 30 8f 5e 3d 1a b2 8b bd e8 fc a7 3c be cd 96 bd
       0.054335773 -0.068210796 0.020506337 -0.07363461
000350 20 f8 0e 3d c4 56 c6 bd 76 ea ed 3d 1c e3 8f 3d
       0.0349046 -0.09684518 0.116169855 0.070257396
000360 38 25 d0 bc 72 13 dd 3d f0 d5 ba 3d 72 e3 f5 bd
       -0.025408372 0.107947245 0.091228366 -0.120062724
000370 4c ed 61 3d 50 33 55 3c d0 34 99 bc e8 c8 36 bd
       0.055157945 0.013012722 -0.01870194 -0.044625193
000380 e8 41 d3 3c 80 2f 97 bb 4e 7a cb 3d 54 ca f1 bd
       0.025788262 -0.0046138167 0.09935437 -0.11806169
000390 38 87 d8 bc fe b4 82 bd 4c 78 3e bd 90 f8 78 3c
       -0.026431665 -0.06382178 -0.046501443 0.015195981
0003a0 e4 52 e3 bd ba 6f cd bd 48 d0 0c 3d 36 15 f3 bd
       -0.110997945 -0.10031076 0.03437832 -0.1186928
0003b0 30 bc ca bc c0 06 7d 3c 52 c3 f1 bd 58 64 f7 bd
       -0.024747938 0.015443504 -0.118048325 -0.12079686
0003c0 80 43 e3 bc 5c 91 9f bd b0 e7 3d 3d 44 53 bb 3d
       -0.027742147 -0.07791397 0.046363533 0.09146741
0003d0 f8 63 d9 3d 7c 80 b5 3d 54 8b 3e bd 94 81 72 bd
       0.10614771 0.08862397 -0.046519592 -0.059205607
0003e0 50 e3 3e 3c 10 e9 e9 3c 78 26 1c bd 94 eb 2d bd
       0.011650875 0.028553516 -0.038122624 -0.042460993
0003f0 d0 21 d7 3c 04 b1 5b bd a4 86 ce 3d dc c9 7c 3d
       0.02626124 -0.053635612 0.100842744 0.061715946

linear_hidden.0.bias f4 [64]
000000 b8 5f 37 bd 00 16 40 bc 8e b1 de bd a0 8d f6 3c
       -0.04476902 -0.011723995 -0.108737096 0.030096829
000010 b0 7d a9 bc d2 3b ff 3d 10 74 26 3d 40 ee ca bb
       -0.020689815 0.12462582 0.04063803 -0.0061929524
000020 82 18 80 bd 48 b7 f0 bc 78 83 6f bd 14 ff ad bd
       -0.062546745 -0.02938427 -0.058474988 -0.08495918
000030 60 b6 d5 bc a8 2a a8 3d 00 47 ac ba aa 2a 87 bd
       -0.02608794 0.08211261 -0.0013143718 -0.065999344
000040 d0 0e c6 bc 20 0d 07 bd 18 f9 1c 3d e4 63 e7 3d
       -0.024176985 -0.0329715 0.03832349 0.112983495
000050 00 d0 cb bc ac eb 92 3d 5e 95 d7 3d 64 27 42 bd
       -0.024879456 0.07173857 0.105265364 -0.047400847
000060 06 94 ed bd cc 9b b2 3d a0 dc be 3c 30 e7 b3 bd
       -0.11600499 0.08721122 0.023298562 -0.0878433
000070 08 92 3e 3d b8 e9 d6 3d ec 30 ac bd 64 ba b9 bd
       0.046525985 0.10493797 -0.084077686 -0.09068754
000080 4e 51 c1 3d e0 5b e1 3b 54 e7 3c bd b4 37 e7 bd
       0.09439336 0.0068774074 -0.04611905 -0.112899214
000090 80 03 64 3c 84 96 0f 3d 44 1c ab bd bc f2 9b bd
       0.01391685 0.035055652 -0.083550006 -0.07614657
0000a0 28 1c 8d bd ae d0 ad bd f0 f5 8a bc b0 85 08 bc
       -0.06890136 -0.08487068 -0.016962975 -0.008332655
0000b0 98 0a 5d 3d dc e2 a0 3d 5a fa ce 3d 02 75 ca bd
       0.05396518 0.0785577 0.101063445 -0.09885599
0000c0 a2 ac ab 3d a6 0d 81 3d 10 77 e0 bd 16 e0 b8 3d
       0.083825365 0.06301431 -0.10960209 0.09027116
0000d0 5c 56 04 3d 90 95 72 bc be d9 8d 3d dc 60 ad 3d
       0.03230892 -0.014806166 0.06926297 0.0846574
0000e0 b8 89 1b 3d 82 32 d1 3d 38 d6 2e 3d a8 ad 17 bd
       0.037973136 0.10214712 0.042684764 -0.037030846
0000f0 e8 ab 63 3d 6a 82 d1 3d 40 cd ef 3b cc 7d ba bd
       0.055583864 0.10229953 0.007318169 -0.09106025

linear_output.weight f4 [4, 64]
000000 75 e8 40 bb f0 87 07 39 6b 55 3d ba f1 91 0c bb
       -0.002943543 0.00012925244 -0.0007222506 -0.0021449293
000010 9e db 7b b9 09 9f ed 3a 8e 68 07 bb 87 96 ba 37
       -0.00024019039 0.0018129061 -0.0020661685 2.2243023e-05
000020 56 b1 de ba a6 da 26 bb 90 22 18 3b 21 ea a6 ba
       -0.0016990106 -0.0025459914 0.002321396 -0.0012734571
000030 a5 12 06 3b 76 70 94 ba e3 74 3d 3b ac 11 fa 3a
       0.002045789 -0.001132502 0.0028908781 0.0019078753
000040 ab 12 85 3a 66 f7 17 3b f2 21 18 bb c3 a5 75 38
       0.0010152658 0.0023188232 -0.0023213592 5.856693e-05
000050 6b fc 1d b8 ea 5e b6 b9 25 03 f9 3a 44 b1 07 3a
       -3.76668e-05 -0.00034784462 0.001899813 0.0005176256
000060 c9 c1 b8 ba e3 b1 49 3a 02 5d d6 ba ae 4f c0 b9
       -0.0014095838 0.00076940487 -0.0016354623 -0.0003668046
000070 07 ca 9d 3a 90 19 98 3a 6f 88 86 ba e4 ed 24 bb
       0.0012038358 0.0011604298 -0.0010264049 -0.0025166208
000080 73 04 d6 3a 3e 23 8b ba ff 3c 3f bb 92 0e 6a 3a
       0.001632823 -0.0010615361 -0.0029180644 0.0008928563
000090 4e ba f8 38 3e fa d7 38 54 ba f5 ba 0d 49 1f 3b
       0.000118602635 0.0001029861 -0.0018747547 0.0024305016
0000a0 29 7c 4a 3a 9e 49 11 3a 6c 34 d1 ba 6f 70 ef b9
       0.000772419 0.0005542281 -0.0015961058 -0.00045669402
0000b0 25 00 bd 3a 59 f4 32 bb 2f f7 1d 3a 0c 44 c7 39
       0.0014419599 -0.0027306287 0.0006025908 0.00038006937
0000c0 ad 85 17 3b 25 ac 3a bb a0 9f 01 3a ea 46 30 b9
       0.0023120448 -0.0028483954 0.00049447455 -0.00016811086
0000d0 2c 1a 36 3b 41 29 2f 3b 8d a3 5a ba 86 08 08 bb
       0.0027786596 0.002672747 -0.0008340411 -0.0020757033
0000e0 16 54 3e 3b 60 b8 38 bb 42 ec 90 3a 8d c0 d5 ba
       0.0029041818 -0.0028186068 0.0011056738 -0.0016307995
0000f0 a4 d4 58 b9 42 f5 17 3b 3f 8b dc 3a 23 eb 1d 39
       -0.0002067858 0.0023186957 0.0016826167 0.00015060282
000100 a1 8e b8 3a fc 0b 82 b9 8e 6d 1c 3b 95 a6 f4 3a
       0.0014080593 -0.0002480446 0.002386901 0.0018665368
000110 87 38 6b ba df 71 06 3b 54 2c 2d 3b bf b1 11 bb
       -0.0008972962 0.002051465 0.0026424127 -0.002223119
000120 2b e6 0d bb 5e 3a 6d 37 d4 7a 17 bb 70 aa 22 bb
       -0.0021652083 1.41398905e-05 -0.0023113983 -0.0024820827
000130 98 4a c6 39 5f 9e 3e bb f6 a3 18 3b 7b cd a4 ba
       0.0003782108 -0.0029086096 0.0023291088 -0.0012573445
000140 cf 67 8e 39 9f 44 34 bb a4 68 ea b9 4e a6 00 bb
       0.00027161694 -0.0027506722 -0.0004470992 -0.0019630375
000150 14 6f da ba 0e b6 41 bb d7 33 8a 3a db 39 86 39
       -0.0016665184 -0.0029557976 0.0010544014 0.00025601577
000160 b8 77 1d 3a 2f dd f3 b6 2f c1 e5 ba 8b 0c 21 bb
       0.0006006914 -7.2677135e-06 -0.0017528887 -0.0024574127
000170 30 11 92 ba 84 84 9f ba 43 57 03 bb ac c1 18 bb
       -0.0011144038 -0.001217023 -0.0020041026 -0.0023308797
000180 dd 04 24 39 24 58 1d 3b d8 a1 ae 3a 40 25 ba 39
       0.0001564207 0.0024008835 0.001332338 0.00035504438
000190 d7 0e a3 3a bc 8b 19 bb e8 78 fb 3a 38 ef a5 ba
       0.0012440336 -0.0023429235 0.0019185813 -0.0012659794
0001a0 70 d5 a1 3a e3 7b e7 b9 1b cd 37 bb bc 2c 41 bb
       0.0012346935 -0.00044152056 -0.0028045836 -0.0029476127
0001b0 0d 7f 17 3b aa 3c 35 bb 1f 12 41 bb 69 83 c7 ba
       0.00231165 -0.0027654567 -0.0029460264 -0.0015221658
0001c0 56 99 0a bb 98 87 21 3b 1d 44 ed 3a df 58 01 3a
       -0.0021148524 0.002464747 0.0018101964 0.00049342023
0001d0 2d 6e b6 ba 67 d3 32 ba ea 7a 2d bb fb 78 eb 3a
       -0.0013918333 -0.00068216625 -0.0026470968 0.0017965132
0001e0 cb 54 e7 3a 02 d5 3e ba 9a 00 81 ba 6f 92 38 bb
       0.0017649172 -0.00072796654 -0.0009842098 -0.0028163453
0001f0 8f 4c 8a b9 f9 c9 3a bb 81 a5 f9 b8 8a e5 89 ba
       -0.00026378452 -0.0028501733 -0.00011904073 -0.0010520678
000200 94 4c c5 39 12 6f 2d bb 10 54 2a 3b c9 dd ae ba
       0.00037631823 -0.0026463908 0.0025990047 -0.0013341244
000210 46 be 55 3a 1e d0 b4 ba 26 6b db ba d2 60 1e bb
       0.0008153658 -0.0013794934 -0.0016740307 -0.0024166596
000220 76 a6 23 bb 69 21 13 3a bb 0e 37 3b 71 e3 22 bb
       -0.0024971045 0.00056125835 0.0027932364 -0.0024854804
000230 a7 51 0f bb 67 06 c5 b8 76 52 12 3b f2 00 ca 3a
       -0.0021868737 -9.3948845e-05 0.0022326983 0.0015411659
000240 c4 d1 e3 3a e7 6f 41 3b cc 05 20 3b ad c5 ea ba
       0.0017381241 0.0029516162 0.0024417518 -0.0017911695
000250 7c 3b bd 3a 4a b2 33 bb e5 74 0b bb ce 23 d3 ba
       0.0014437283 -0.00274195 -0.0021279391 -0.0016108693
000260 87 c2 74 b9 62 bd 2e bb fa 8a 18 ba 29 6f 06 3a
       -0.0002334212 -0.0026663174 -0.0005819049 0.00051282585
000270 80 e0 8c ba 0e 1b af 39 ec 8d 5c b9 e9 98 27 bb
       -0.0010748059 0.00033398758 -0.00021033705 -0.002557332
000280 c4 bd e5 3a a5 78 e5 ba 9b 4e 86 3a 29 4f 17 bb
       0.0017527868 -0.0017507268 0.0010246815 -0.0023087955
000290 71 6d 64 3a 23 00 22 bb 08 96 65 3a ef 63 0c bb
       0.0008713818 -0.002471932 0.0008758013 -0.002142187
0002a0 4f 25 96 ba 1d be 14 3a 9a 86 a6 ba 42 38 37 39
       -0.0011455211 0.0005674081 -0.0012704909 0.00017473198
0002b0 06 c2 ee ba 79 7d 3a bb 8e 33 a1 ba 99 ca 41 bb
       -0.0018215782 -0.0028456135 -0.001229869 -0.002957022
0002c0 c8 d9 2e 3b 3b d5 92 ba 9c 66 29 3b b2 4f c8 39
       0.00266801 -0.0011202464 0.0025848513 0.0003820635
0002d0 56 9b 08 3a 54 0b 79 b9 30 9f c4 3a 50 66 22 ba
       0.0005211135 -0.0002375071 0.0015001055 -0.00061950553
0002e0 f4 51 16 bb fe fa 0d bb ff dd 41 3b ce 4d 44 3b
       -0.0022937031 -0.0021664496 0.0029581783 0.0029953602
0002f0 c7 3f 3e 3a f5 bc 8f 3a bf 33 64 39 dd 93 03 bb
       0.00072574284 0.0010966348 0.00021763051 -0.0020077147
000300 00 1f 51 ba 5e 07 ae ba 7f 41 96 3a 5c 91 ec b9
       -0.00079773366 -0.0013277342 0.0011463611 -0.0004512173
000310 b9 d1 36 bb a8 b0 42 ba 39 aa 86 b9 51 9e 37 bb
       -0.0027896 -0.00074268365 -0.00025685297 -0.0028017948
000320 a4 14 37 3a 87 f1 ec ba a8 62 d7 b9 75 f0 1f 3b
       0.00069839717 -0.0018077352 -0.000410815 0.0024404798
000330 71 c5 c5 38 5a e9 07 bb 15 37 9c 3a c5 e0 b8 b9
       9.430468e-05 -0.0020738454 0.0011918271 -0.0003526268
000340 9f fd fc ba 0a 1f 35 b9 8d 15 52 3a 9e bb 9a ba
       -0.0019301659 -0.00017273068 0.00080140756 -0.0011805182
000350 a0 46 48 b9 23 5a 1e bb 71 36 eb 3a ee 3c 07 3b
       -0.00019099796 -0.0024162612 0.0017945302 0.0020635682
000360 67 74 b1 ba f6 7c 00 b9 75 0f b7 ba 42 75 28 bb
       -0.0013538719 -0.00012253583 -0.0013966399 -0.0025704657
000370 0b ac bd ba be 6c 42 3b 6e cf fd ba 56 b2 02 3b
       -0.0014470828 0.0029666866 -0.0019364187 0.0019942722
000380 4d 62 b2 ba f4 8b b8 ba 1d 86 46 39 1b cb c8 39
       -0.0013609618 -0.0014079795 0.00018932713 0.00038298298
000390 59 8c d6 ba 31 78 0d b9 f8 cd 05 3b 28 f5 41 3b
       -0.0016368731 -0.00013491583 0.0020416956 0.0029595587
0003a0 c5 4e 1f bb da 41 2c bb b8 a4 3e 3b cc bc 22 bb
       -0.0024308425 -0.0026284368 0.002908988 -0.002483177
0003b0 19 b9 b5 3a 6e b4 23 3b 2e a4 dc ba 0e 3f d9 ba
       0.0013864368 0.002497937 -0.0016833597 -0.0016574578
0003c0 de 27 0c bb fa 29 02 bb 0c 07 83 ba 0a 31 d0 3a
       -0.0021386067 -0.0019861446 -0.0009996607 0.0015883755
0003d0 c5 fe 00 3b 78 30 d2 ba e2 ff 0b 3b cc 12 1e 3b
       0.0019683104 -0.0016036173 0.0021362235 0.002412009
0003e0 d2 38 2b bb 88 73 3b bb 01 73 d9 3a f0 ec 5c ba
       -0.0026126397 -0.0028602798 0.001659006 -0.00084276404
0003f0 01 8a c2 ba d8 a6 20 bb 50 de 49 3a 8b 95 3d ba
       -0.0014842154 -0.002451351 0.00077006686 -0.00072320615

linear_output.bias f4 [4]
000000 4f 3e a7 ba 89 81 0b b9 3e 7d 29 bb 3c c7 f1 39
       -0.0012759658 -0.00013304329 -0.0025862004 0.00046115543
