src/scripts/weights/resnet128_bn_20hz_sf0.5_3state/critic.pth (torch, 147070 bytes, 11 tensors)

linear0.weight f4 [128, 16]
00000000: af3b 8dbc f25d 13bd f9f8 e4bd cb8e 61ba
00000010: 7f09 67bd 2ced ddbc 0640 dfbd 9640 32ba
00000020: ee52 0dbe 2659 243d 4eed 19be dfe5 26ba
00000030: cb13 bdbd 3fc2 0fbe e0dc 23be 8c05 103c
00000040: 4998 ebb2 c0d3 ba2f 33ac 6a31 d17f d3b5
00000050: 7bd5 c4b2 dc24 c1b5 c683 f932 68bd fdab
00000060: 8f8d f02d b1a4 49b1 9870 30b0 2f05 1fac
00000070: 1123 7030 4164 b7b0 7116 ddb1 95ee 39b7
00000080: cfd3 0037 5bb9 95b5 2d09 cb37 4193 92b6
00000090: 2482 1737 72a0 2ab4 b022 c737 66d3 92b6
000000a0: d27b 1537 e990 0cb6 de8f c337 feb7 92b6
000000b0: bd18 27b7 5c6b d5b7 f3c3 d9b7 bd2f 5937
000000c0: e72e 98b7 3890 e137 2937 7538 08a0 9db7
000000d0: 9b1a 9db7 022e 9237 6714 6d38 5db3 9db7
000000e0: 8789 a9b7 e725 f9b6 0298 6838 15a5 9db7
000000f0: 1baf feb7 af0a 17b8 e62d 11b8 bbfd a936
00000100: 8403 fc34 d80e 45b5 6d5a bcae e8d1 14b5
00000110: 1ab0 3e34 44e6 a936 14d3 cc2e 8cc6 46ad
00000120: 6818 7135 7293 4cb2 6a48 d02e 41dd 09b7
00000130: c70a 7f33 d75c 06ae ffc3 012e 323b 17af
00000140: 4d11 0080 eaae 9133 a30a 0080 bb33 2899
00000150: 950d 0080 8438 b620 7209 0080 ce74 0197
00000160: 0606 0080 2290 35a5 9a00 0000 507a c517
00000170: 15e6 f234 2b13 0080 c909 0080 2f11 0000
00000180: b203 0080 de09 0000 0305 0080 270a 0080
00000190: 2908 0080 0f00 0080 a101 0000 3a08 0080
000001a0: af0c 0080 240d 0080 a807 0080 8704 0000
000001b0: f90d 0000 2604 0080 7c0a 0080 7709 0000
000001c0: 8c0f 00b7 4d05 a9a7 380c 0080 187c 4db3
000001d0: 9637 7b30 2f93 e5b3 0411 0000 c9a0 c7b4
000001e0: 217c 75a7 bffe 1da7 ef06 0080 7a5e 1324
000001f0: 38b8 82aa de2e b7b1 9d0c 58b1 6ebe ff19
00000200: 5e01 0000 c405 0080 0502 0000 5006 0000
00000210: 4406 0000 ed00 0000 9003 0080 3103 0000
00000220: 6701 0000 7206 0000 a400 0000 dc05 0000
00000230: b402 0000 5104 0080 1c01 0080 1901 0000
00000240: f6a8 1aba 712e e13c 6cf5 86bd bea5 123c
00000250: 432d a8bc 50d2 26bb dabc edbd fba9 143c
00000260: 5b37 bfbd 0886 283d cf96 8abd 916e 163c
00000270: faab 083d ffd9 1b3d 2224 6abd a1a1 ab3b
00000280: 8008 6133 6e63 c82c 3cb5 0123 c519 0932
00000290: 8f79 f32d b5f6 93ae 89b9 80a0 58a1 04b3
000002a0: 2b62 b225 aa4d 73ac 476e d8a2 d2db c9af
000002b0: a630 c322 ab36 6aaa a253 7bac b695 d8a9
000002c0: 10ab f08d a6ae 6f24 8410 0000 24bc cd1d
000002d0: 0b65 8b84 f43b 6128 3d03 0000 3478 461c
000002e0: c6dd 8b36 ff05 60ad 2705 0000 43ac b720
000002f0: 1504 22a8 b519 0080 f14e 0000 189d bf27
00000300: 6e5a b718 833b a731 e39d f494 28bb 9335
00000310: f576 8f35 008b 9230 5360 1295 fce5 bfb4
00000320: 4cf7 b7b0 b162 822c 5e64 7014 cd27 bb35
00000330: e35b 27b6 78ce 4396 f3de 4e16 00cc 31b1
00000340: 0e00 0000 2202 0080 6bc8 5624 e101 0000
00000350: da01 0080 9601 0080 bd85 82a5 0802 0000
00000360: 9201 0080 8601 0080 4ffa a7a5 1a02 0000
00000370: d001 0080 ce59 980e 2f6d 1090 5600 0000
00000380: 1c06 be0b bab0 6f8c 4d59 7c8b 0dd6 2c8c
00000390: df9d cf8c 4725 940b 4dc6 af8c c9d1 460c
000003a0: c15f bd8c 780f b00b 6c43 670c 1672 df8a
000003b0: 73c5 428b 3ded 710c 9519 7a8c 8a6c a48c
000003c0: 54cf e225 93e1 c8a4 098f 15a7 fdff cda5
000003d0: 5f19 7aa6 ac36 c830 440e 2626 42b2 faae
000003e0: 12ed 3b26 8113 33b4 5a17 4f24 63bd 43ae
000003f0: 91a7 2ba5 ce7f 8026 dc10 84a6 839b 7e26
-0.017240373 -0.035978265 -0.111803 -0.00086043467 -0.05640554 -0.027090631 -0.109008834 -0.0006799785
-0.13801166 0.04012408 -0.15031931 -0.0006366651 -0.09232291 -0.14038943 -0.16002226 0.008790385
-2.7426852e-08 3.398366e-10 3.4149366e-09 -1.5757925e-06 -2.2914483e-08 -1.4390348e-06 2.9047339e-08 -1.8029302e-12
2.7347706e-11 -2.9342966e-09 -6.418843e-10 -2.2598136e-12 8.7361324e-10 -1.3343496e-09 -6.434498e-09 -1.10824085e-05
7.67871e-06 -1.1155311e-06 2.4203759e-05 -4.3682817e-06 9.030602e-06 -1.5890853e-07 2.3738801e-05 -4.375749e-06
8.909921e-06 -2.0945974e-06 2.3312805e-05 -4.3725586e-06 -9.9597355e-06 -2.5441572e-05 -2.5959662e-05 1.2945323e-05
-1.8141653e-05 2.6889247e-05 5.8463924e-05 -1.8790379e-05 -1.8728248e-05 1.742598e-05 5.6524204e-05 -1.8799381e-05
-2.0210411e-05 -7.4251907e-06 5.545468e-05 -1.879273e-05 -3.03607e-05 -3.6011155e-05 -3.461344e-05 5.0661306e-06
4.6941216e-07 -7.340982e-07 -8.565313e-11 -5.543975e-07 1.7759194e-07 5.063399e-06 9.314341e-11 -1.1299083e-11
8.981501e-07 -1.1907888e-08 9.471608e-11 -8.217351e-06 5.9381616e-08 -3.055053e-11 2.9505284e-11 -1.37544e-10
-6.206e-42 6.783905e-08 -3.816e-42 -8.695843e-24 -4.872e-42 3.0869398e-19 -3.388e-42 -4.1829576e-25
-2.161e-42 -1.5748082e-16 2.16e-43 1.2761703e-24 4.524342e-07 -6.876e-42 -3.51e-42 6.164e-42
-1.326e-42 3.54e-42 -1.798e-42 -3.642e-42 -2.927e-42 -2.1e-44 5.84e-43 -2.951e-42
-4.55e-42 -4.714e-42 -2.747e-42 1.624e-42 5.012e-42 -1.488e-42 -3.761e-42 3.395e-42
-7.633014e-06 -4.691267e-15 -4.383e-42 -4.7843145e-08 9.139226e-10 -1.0690416e-07 6.104e-42 -3.7183625e-07
-3.406787e-15 -2.1926225e-15 -2.487e-42 3.195557e-17 -2.3220466e-13 -5.331329e-09 -3.1439307e-09 2.6443296e-23
4.9e-43 -2.068e-42 7.24e-43 2.264e-42 2.248e-42 3.32e-43 -1.278e-42 1.145e-42
5.03e-43 2.312e-42 2.3e-43 2.102e-42 9.7e-43 -1.548e-42 -3.98e-43 3.94e-43
-0.0005899811 0.027487965 -0.06589779 0.008950649 -0.020529395 -0.0025454946 -0.11608286 0.00907373
-0.0933673 0.041143447 -0.06767046 0.0091816345 0.033367135 0.038049694 -0.057163365 0.0052377735
5.2394626e-08 5.695381e-12 7.031482e-18 7.980309e-09 2.7679884e-11 -6.72861e-11 -2.180682e-19 -3.0880386e-08
3.09446e-16 -3.457549e-12 -5.866368e-18 -3.671788e-10 5.2906364e-18 -2.0802342e-13 -3.571567e-12 -9.6182976e-14
-1.4832324e-30 5.1972797e-17 5.925e-42 5.445758e-21 -3.2771536e-36 1.2503009e-14 1.162e-42 6.5668063e-22
4.1683406e-06 -1.2734257e-11 1.848e-42 3.11154e-19 -8.993692e-15 -9.222e-42 2.8319e-41 5.318347e-15
4.73957e-24 4.8671054e-09 -2.4699979e-26 1.1006823e-06 1.0688951e-06 1.0662404e-09 -2.9560452e-26 -3.5743858e-07
-1.3385288e-09 3.705779e-12 1.21366974e-26 1.3944169e-06 -2.4938424e-06 -1.5817125e-25 1.6710898e-25 -2.587285e-09
2e-44 -7.65e-43 4.6573614e-17 6.74e-43 -6.64e-43 -5.69e-43 -2.264203e-16 7.29e-43
-5.63e-43 -5.47e-43 -2.9139498e-16 7.54e-43 -6.5e-43 3.755737e-30 -2.8483105e-29 1.2e-43
7.319453e-32 -1.8465072e-31 -4.8600617e-32 -1.3314812e-31 -3.1988415e-31 5.7063615e-32 -2.7082367e-31 1.5316495e-31
-2.917769e-31 6.781601e-32 1.7815882e-31 -2.1517033e-32 -3.7511585e-32 1.8637356e-31 -1.9266998e-31 -2.5333525e-31
3.9345242e-16 -8.711831e-17 -2.0755443e-15 -3.5735296e-16 -8.677056e-16 1.4567454e-09 5.7612153e-16 -1.1400349e-10
6.519995e-16 -1.667777e-07 4.490575e-17 -4.4506076e-11 -1.488866e-16 8.916426e-16 -9.16391e-16 8.833471e-16

linear0.bias f4 [128]
00000000: e153 42bd ddbd d930 723a afb7 39e9 4cb8
00000010: 82ae e4ac 1312 0080 1c03 0080 19ab 8cad
00000020: c902 0080 c997 9c3d 3c4d cdb0 fc11 0080
00000030: db33 a595 ff01 ac98 6322 b00b 3027 90a4
00000040: 2ef2 3692 c839 0080 dbcd ac8d f314 0080
00000050: 009e b13d ad41 38ad 6610 0080 e7b7 91bd
00000060: 79ec 3834 0094 9b38 02bb 9632 849c 202f
00000070: 8cbe d427 4131 43af e3ea 24b1 6d28 2039
00000080: bb04 13b5 59a6 3105 4c09 0080 937b a22c
00000090: 52c2 4d30 8a18 2aa8 3801 0000 338d 733d
000000a0: f20e 0000 3f5f 9014 ae70 a5ba 21ee 0680
000000b0: 7b45 66a7 f56e 04a3 019b 40ae b32a 8130
000000c0: c327 f00f e850 0484 8263 e60c d12e de0c
000000d0: 6590 a2b6 9c91 f0a2 9b25 5b3d 53ac 1231
000000e0: c75a 7532 577b 1230 0474 453d de03 0080
000000f0: 0628 8ea8 6593 1a39 1abd af9b 50a5 921f
00000100: 0853 d215 3b1a 0080 5e62 4d38 c90e 2b34
00000110: 8e07 0080 ae9c 40a6 2114 0080 3892 87b8
00000120: f7f1 f72b 9e72 1b33 0cc0 b83d 7aeb 9ab5
00000130: 6021 0280 a35e 76b7 9a58 89a2 6805 0000
00000140: 29bb 3a8f 1841 3d38 e062 013e 3f84 93b8
00000150: 4002 0000 f76f 822a 74b6 17af 5f04 12b1
00000160: 5003 5633 c68c 559b b309 2d8e 9d1e 0080
00000170: a8e5 07b1 8ccf 983d 7484 2ba9 e504 0000
00000180: 2538 2d27 9f9a 5e22 1f6f 11ab ef07 f3b5
00000190: 8a00 220d 7622 7ca5 b73f 8735 e67c 031c
000001a0: 5904 0000 38b7 dfbc ef42 160c 9a01 0080
000001b0: 3f0d 0000 e37c 7a2b dee7 abab f133 bfa9
000001c0: 1135 b12f e0fd b699 8817 8429 e1ba a1b6
000001d0: 094f 7c27 ab00 0080 a9a9 0b8c dfb6 393d
000001e0: 7aa6 82b5 9117 a3b8 0581 71ad e567 4ca6
000001f0: c1ec 81bd d321 6eb8 4205 0000 5401 0000
-0.047443274 1.584279e-09 -2.0888841e-05 -4.8854596e-05 -6.499524e-12 -6.484e-42 -1.115e-42 -1.599214e-11
-9.99e-43 0.07646138 -1.4937664e-09 -6.452e-42 -6.672478e-26 -4.4462973e-24 6.7844473e-32 -6.251643e-17
-5.7727583e-28 -2.0728e-41 -1.0649876e-30 -7.515e-42 0.08672714 -1.0473772e-11 -5.883e-42 -0.07115155
1.7222364e-07 7.418543e-05 1.754734e-08 1.4607521e-10 5.904841e-15 -1.7752645e-10 -2.3998659e-09 0.00015273849
-5.476865e-07 8.353053e-36 -3.335e-42 4.6180364e-12 7.485471e-10 -9.442217e-15 4.37e-43 0.05946083
5.361e-42 1.4577852e-26 -0.0012622082 -6.36438e-40 -3.1956577e-15 -7.17923e-18 -4.3793417e-11 9.398121e-10
2.3681143e-29 -1.5553676e-36 3.5497e-31 3.4232692e-31 -4.844786e-06 -6.52063e-18 0.05350266 2.1343751e-09
1.4281517e-08 5.3289767e-10 0.048206344 -1.387e-42 -1.5782524e-14 0.00014741493 -2.9073525e-22 6.210689e-20
8.4949325e-26 -9.41e-42 4.896742e-05 1.5930995e-07 -2.71e-42 -6.682572e-16 -7.221e-42 -6.464537e-05
1.7617564e-12 3.6192993e-08 0.09021005 -1.1542427e-06 -1.95644e-40 -1.4684777e-05 -3.7227735e-18 1.94e-42
-9.206554e-30 4.5121735e-05 0.12635374 -7.034139e-05 8.07e-43 2.317033e-13 -1.379819e-10 -2.124828e-09
4.982877e-08 -1.7664433e-22 -2.1328566e-30 -1.0982e-41 -1.977563e-09 0.074614614 -3.8084512e-14 1.756e-42
2.4039009e-15 3.0168466e-18 -5.166856e-13 -1.810722e-06 4.9920753e-31 -2.1869192e-16 1.0076827e-06 4.350569e-22
1.56e-42 -0.027309045 1.1575722e-31 -5.75e-43 4.752e-42 8.8991157e-13 -1.2214637e-12 -8.491114e-14
3.2233818e-10 -1.8920898e-23 5.8660596e-14 -4.8199295e-06 3.501487e-15 -2.4e-43 -1.0759226e-31 0.045340415
-9.734206e-07 -7.776835e-05 -1.3727912e-11 -7.091752e-16 -0.06343985 -5.6775123e-05 1.886e-42 4.76e-43

linear1.weight f4 [128, 128]
00000000: a355 c0a4 2ac2 0ea7 d9bb 8420 d4c1 80aa
00000010: 277a 81b5 ff06 cdb3 d4f0 67b1 caf8 1f34
00000020: f06b 612b 7d06 0080 24f8 12af 8fef 9ab4
00000030: 4e16 92ab ac1e 0080 c6f3 b3b3 834f 0db4
00000040: 4c54 f327 a714 0baf d144 53b5 2105 8829
00000050: 3a0b 0080 0f21 34af fafb 9b2f e7be 0325
00000060: 2ebb 4da9 19b8 1a97 a4d2 dcad 66ab d926
00000070: 7e7f f3af 475e 192d 490b a134 af32 0e2a
00000080: a23b 05b3 2a4f 2d33 104f 48a5 0e6f 4529
00000090: f814 2b32 6e20 fb26 638d 5c37 9408 9f1d
000000a0: bfd8 4eac d910 09ab 0812 0000 5506 3aac
000000b0: 0d5b 0b28 4865 bc24 2ca3 73a1 932f cfaa
000000c0: a66a 732b 097e 9f29 7703 3db4 89f1 e235
000000d0: 4c97 ceb5 b4f3 4ba8 3291 a6b3 9d91 a52d
000000e0: 7bca ccad c561 961f d20f 0080 e3ae 6336
000000f0: 10b7 66a1 f266 c124 0381 44b3 0f5a 5f2f
00000100: 0969 fdaa 78fe 9f28 f502 0080 57b2 0f28
00000110: 3a14 d123 f09f 6f34 0f71 c82b 34a6 8ba5
00000120: 3b6e 092f 482a c0b2 4504 0080 e653 532a
00000130: 0763 9a23 57f9 fc30 efec d41c 8a42 71ae
00000140: 0c76 8ab2 8941 b8ae 5c12 0000 7dda 3d23
00000150: f8ca 9cb4 fe73 61ad 6583 8c27 313c 9a21
00000160: f3c7 d7ab d3b9 d62e 907f 3227 d2a1 aa27
00000170: 92cb 32ae 9383 9b92 bc1d 5f2a ca35 d629
00000180: 121e ab28 fd8f d8af 7220 82ad 9f08 84b2
00000190: 956a 4db1 a5c3 6c37 7923 f1b2 15c4 52aa
000001a0: 6832 1030 0610 0000 377d ff30 eebc 64b5
000001b0: 735e e12e 7d47 efab 3bcd b397 c667 a12d
000001c0: 57e9 9030 cb84 2c2c fd8a 17a0 4bb6 532e
000001d0: c6ec 3230 45d7 0fab bca5 e5ad b70c 2827
000001e0: fa05 de22 abc0 57b5 d1cb 3533 6c27 17b6
000001f0: be0b 0000 f61d 0080 13a9 3c35 8880 ebaa
00000200: 12f4 ecaa 71f1 0d2b fb3a 5b2d 40d7 2dac
00000210: 36ab 7fb4 3636 29b6 2e50 a8b2 1b37 83ab
00000220: a9a3 362b 8884 4330 d2bc 14b6 ae11 6e2e
00000230: f4bb ffb3 1d85 feab 43ec ae30 b8c3 8baa
00000240: 98d7 6dae 823c e926 2b38 b82f 723a bb28
00000250: 745c 39b1 0eb1 b6ab 79a4 a2b1 d431 8f36
00000260: a0d7 0531 9d72 09ac ce00 ac27 bf8f 9729
00000270: 449c 26b3 ee6c 10b1 d4d5 8bb5 4a62 6aad
00000280: c5e0 85b5 5897 aeb4 34b4 6dae e040 4236
00000290: 1228 922f b405 b2aa 06ff 332e 6c79 eb36
000002a0: f955 99ac 5403 8328 7fc9 71ae a1d3 26af
000002b0: 2e17 6735 6312 af2c 170e 1e30 f617 43b7
000002c0: 70fb b0b0 94b3 732b 3d8a de2f 0edb fcb1
000002d0: 258d 22b2 8549 892c 3915 182d a1b2 962c
000002e0: d4cb 32b2 961b 0533 7784 8c33 ce59 f22a
000002f0: b4a6 42a9 d302 13b5 9857 712b dc42 aead
00000300: 6fcf 0a35 a15f 86ab 0009 1d2b 76c5 bd35
00000310: 4fe6 ceab df97 372f 82dd 39a9 6e10 c734
00000320: 73fa e4ab 6bbd b333 e6a1 5335 c2b6 e4b6
00000330: 117e 1ab4 42d5 b22d abef 85ae ea48 f929
00000340: 84a0 6437 3e17 fd2a 818d bb32 5071 3fad
00000350: 8add 80aa cdce b3b4 3d62 78b2 41ec 0e34
00000360: 3bf6 b128 d1a4 afaf c3ab 812e 2846 10a7
00000370: f7d9 ac2c c507 91b6 7d10 70b5 acf7 85b4
00000380: 7ec2 252c b759 0629 3b06 3ab4 ca1e bcb6
00000390: b3cb 512d 035b b934 fbc3 82b1 9b30 dba7
000003a0: b868 b82c 62c4 17b1 56a2 10b2 fe28 32b7
000003b0: aac4 3631 ef7f 0c2c e065 8f2d 54a0 b82f
000003c0: f337 2929 cad7 a1ae 1559 9f28 8f6d 48b4
000003d0: 4fb8 6daa 1c11 a932 c5ec e629 12dd 68ac
000003e0: 6fe5 46ac d386 852b ba5e 3e32 a105 80a8
000003f0: 605f c835 8891 86b5 8683 462c 62c1 7ba8
-8.34118e-17 -1.9811715e-15 2.2485977e-19 -2.2871863e-13 -9.6468e-07 -9.547329e-08 -3.375182e-09 1.4898538e-07
8.008585e-13 -2.328e-42 -1.336678e-10 -2.8859037e-07 -1.0380115e-12 -1.1003e-41 -8.379679e-08 -1.3160574e-07
6.7537444e-15 -1.2649314e-10 -7.8703766e-07 6.040503e-14 -4.027e-42 -1.638265e-10 2.8373376e-10 1.1427119e-16
-4.5681497e-14 -4.999245e-25 -2.5104648e-11 1.5103857e-15 -4.429203e-10 8.717977e-12 2.9996798e-07 1.2629718e-13
-3.102071e-08 4.03517e-08 -1.7374022e-16 4.3839112e-14 9.958278e-09 1.7425414e-15 1.3145941e-05 4.209582e-21
-2.939468e-12 -4.869556e-13 6.468e-42 -2.6435705e-12 7.7357935e-15 8.170358e-17 -8.254756e-19 -3.6803598e-13
8.6478947e-13 7.082882e-14 -1.7603257e-07 1.6908608e-06 -1.5392229e-06 -1.1321608e-14 -7.756388e-08 1.8822994e-11
-2.3282034e-11 6.368922e-20 -5.675e-42 3.3927433e-06 -7.816931e-19 8.3874804e-17 -4.575214e-08 2.0313727e-10
-4.501471e-13 1.7762904e-14 -1.061e-42 7.976766e-15 2.2668392e-17 2.2316794e-07 1.4242235e-12 -2.422528e-16
1.2499239e-10 -2.2370969e-08 -1.532e-42 1.8769673e-13 1.6738653e-17 1.840628e-09 1.4090229e-21 -5.4856154e-11
-1.6118996e-08 -8.3789926e-11 6.586e-42 1.0291977e-17 -2.9204944e-07 -1.2815525e-11 3.9000264e-15 1.0451378e-18
-1.5332166e-12 9.764602e-11 2.4771614e-15 4.7359924e-15 -4.065332e-11 -9.814311e-28 1.9816695e-13 9.51284e-14
1.8997855e-14 -3.939248e-10 -1.4793698e-11 -1.5370743e-08 -2.989201e-09 1.4112248e-05 -2.8072224e-08 -1.8719776e-13
5.2458526e-10 5.748e-42 1.858928e-09 -8.521155e-07 1.0248593e-10 -1.7001813e-12 -1.1619411e-24 1.8349666e-11
1.0543698e-09 2.4516385e-12 -1.2836185e-19 4.8137754e-11 6.50925e-10 -5.110255e-13 -2.6107887e-11 2.3321576e-15
6.017955e-18 -8.037411e-07 4.2327716e-08 -2.25237e-06 4.212e-42 -1.0748e-41 7.0281493e-07 -4.1833572e-13
-4.209138e-13 5.042833e-13 1.2461805e-11 -2.4704266e-12 -2.3811012e-07 -2.5214517e-06 -1.9594236e-08 -9.323405e-13
6.4886513e-13 7.1128925e-10 -2.2163626e-06 5.4130637e-11 -1.1908551e-07 -1.8084732e-12 1.2727316e-09 -2.4827167e-13
-5.4079047e-11 1.6184023e-15 3.3509315e-10 2.0786517e-14 -2.6973597e-09 -1.298102e-12 -4.733519e-09 4.267533e-06
1.9476616e-09 -1.9532494e-12 4.7740463e-15 6.730683e-14 -3.879201e-08 -2.1016677e-09 -1.0418539e-06 -1.3323185e-11
-9.974689e-07 -3.2520143e-07 -5.4047614e-11 2.8946015e-06 2.6585717e-10 -3.162311e-13 4.0926394e-11 7.017681e-06
-4.3580664e-12 1.4545365e-14 -5.497602e-11 -1.5172798e-10 8.6087937e-07 4.9758405e-12 5.750009e-10 -1.1628485e-05
-1.2877148e-09 8.6580157e-13 4.047979e-10 -7.359069e-09 -9.461734e-09 3.9019365e-12 8.644912e-12 4.283088e-12
-1.0407309e-08 3.0991565e-08 6.543353e-08 4.305015e-13 -4.3221245e-14 -5.476588e-07 8.574196e-13 -1.9811201e-11
5.171086e-07 -9.547815e-13 5.5790095e-13 1.4139066e-06 -1.4701104e-12 1.6697708e-10 -4.127038e-14 3.7078593e-07
-1.6269888e-12 8.369792e-08 7.883922e-07 -6.8162053e-06 -1.438823e-07 2.0330963e-11 -6.0907134e-11 1.107047e-13
1.3627232e-05 4.4957956e-13 2.1834014e-08 -1.0882253e-11 -2.289109e-13 -3.3491816e-07 -1.4457837e-08 1.3310729e-07
1.9757733e-14 -3.1949424e-10 5.896752e-11 -2.0022046e-15 4.912733e-12 -4.3222412e-06 -8.943096e-07 -2.4953385e-07
2.3555875e-12 2.9831792e-14 -1.7324867e-07 -5.606421e-06 1.1925505e-11 3.4525155e-07 -3.8057784e-09 -6.083741e-15
5.2412207e-12 -2.2085023e-09 -8.418814e-09 -1.0619171e-05 2.6596276e-09 1.9966214e-12 1.630246e-11 3.3583325e-10
3.7574066e-14 -7.359764e-11 1.769118e-14 -1.8666309e-07 -2.1113773e-13 1.968197e-08 1.0255125e-13 -3.3091902e-12
-2.8264854e-12 9.48764e-13 1.1080994e-08 -1.4213296e-14 1.4928919e-06 -1.0026133e-06 2.8210503e-12 -1.3975232e-14

linear1.bias f4 [128]
00000000: 9a08 0080 c76f cb35 ce72 9eb3 d323 5037
00000010: a598 d8ae 610d 0080 5711 0080 6450 1733
00000020: f202 0080 d9fc ec3c a662 a92a f320 0080
00000030: f835 8c30 0801 0000 fd98 8d0c 9df9 7a25
00000040: 2b03 0000 6e22 0000 8c37 a48d cea2 acae
00000050: 3ad2 78bc 451d f736 de00 0080 de04 cd3c
00000060: a667 9a35 76c2 d738 60d6 26b6 57ba 44b3
00000070: 0943 bcac a454 7d31 ad7c 85b0 139e 0f3a
00000080: 2840 70ac 413f 7b05 2d08 0000 c93e 912f
00000090: 13f0 6c30 8bee 5c37 76e6 2baa f703 f23d
000000a0: 8712 0080 ffc2 6715 5f3b 3fb7 76cd 3180
000000b0: cd73 6831 3ed2 e736 9be9 e9b3 c264 b436
000000c0: 077b 3c0e 00d9 ea04 b868 7b0d daa8 118d
000000d0: e8d1 c62d 22c2 9620 a174 e43b d152 a6aa
000000e0: e305 4534 921e 4c2e 7cde ff3a d60e 0080
000000f0: c50c bfaf ea7a bd38 6307 c71b 0567 4e9e
00000100: 4dc3 86b5 6818 0000 1a52 fd38 8bbb ddb3
00000110: 450f 0000 ee56 8aa6 3c1b 0000 615d c438
00000120: 39b6 09a3 26aa c132 2158 52bb 3551 4b35
00000130: 2c37 0100 bc14 0f35 9099 29ab e114 0080
00000140: 953a f60d a6b2 b338 dbe2 f43c c780 5e38
00000150: 8414 0000 2d19 14ab 1332 f9ac 339d 72b0
00000160: 6e54 87b3 20ae 2e1b d2d6 0c8e c60f 0000
00000170: 442f fbb2 f6c6 133d 42cb a82c 4317 0080
00000180: 7a04 5329 903b ad1d e15d 48b0 03c5 8034
00000190: 758e 3d8c 32d4 82a7 e5f6 6bae 4e5a 999a
000001a0: 470c 0080 479b 743c 6776 930b a7e5 1ea9
000001b0: c010 0080 81ab e32d 0fde cf2e eec2 032b
000001c0: 5a31 16ab b9dd 839d e79f f2b5 62c5 a533
000001d0: dd5f 9734 af01 0000 9a26 fd0c f1af a4bb
000001e0: ce6b 7c2a 5970 3d38 796b a038 1c43 5733
000001f0: 6d6b 823d 2505 cf38 f182 60aa 0d02 0080
-3.086e-42 1.515721e-06 -7.378331e-08 1.2406107e-05 -9.849658e-11 -4.8e-42 -6.22e-42 3.5230542e-08
-1.057e-42 0.02892916 3.0088882e-13 -1.182e-41 1.020168e-09 3.7e-43 2.1816566e-31 2.1768616e-16
1.136e-42 1.2351e-41 -1.0120653e-30 -7.8505744e-11 -0.015186841 7.364581e-06 -3.11e-43 0.025026735
1.150406e-06 0.0001028822 -2.486071e-06 -4.580428e-08 -5.3507238e-12 3.6864458e-09 -9.712459e-10 0.0005478572
-3.4141665e-12 1.1813581e-35 2.933e-42 2.6419958e-10 8.6197466e-10 1.3168562e-05 -1.5267808e-13 0.118171625
-6.646e-42 4.6803903e-26 -1.1398311e-05 -4.573645e-39 3.3826268e-09 6.908812e-06 -1.08924006e-07 5.376148e-06
2.3232025e-30 5.521242e-36 7.7471397e-31 -4.4884822e-31 2.2603211e-11 2.5539455e-19 0.006971911 -2.954499e-13
1.8349196e-07 4.641138e-11 0.0019521262 -5.322e-42 -3.475177e-10 9.035117e-05 3.2926562e-22 -1.0926853e-20
-1.0040618e-06 8.755e-42 0.00012079273 -1.0325228e-07 5.478e-42 -9.599236e-16 9.77e-42 9.3634015e-05
-7.465372e-18 2.2545532e-08 -0.0032095986 7.5741565e-07 1.11627e-40 5.3301824e-07 -6.025397e-13 -7.49e-42
1.5175024e-30 8.568661e-05 0.02989333 5.3048858e-05 7.36e-42 -5.26151e-13 -7.082565e-12 -8.826248e-10
-6.301785e-08 1.4449205e-22 -1.7359765e-30 5.658e-42 -2.924174e-08 0.036078416 4.7974133e-12 -8.345e-42
4.6855294e-14 4.5854305e-21 -7.2892986e-10 2.3985203e-07 -1.46029e-31 -3.631231e-15 -5.36521e-11 -6.342521e-23
-4.404e-42 0.014929599 5.680049e-32 -3.528224e-14 -6.009e-42 2.5883075e-11 9.452716e-11 4.681107e-13
-5.3359194e-13 -3.4904667e-21 -1.8076943e-06 7.719315e-08 2.8195691e-07 6.04e-43 3.9004055e-31 -0.0050258567
2.2419498e-13 4.5165743e-05 7.649413e-05 5.0119624e-08 0.06368146 9.8714874e-05 -1.9940626e-13 -7.36e-43

linear2.weight f4 [128, 128]
00000000: eab3 ce29 c1f4 6634 0344 d7b3 a395 7db4
00000010: c905 0b34 706d 95a1 e8e9 75aa 01cd 6329
00000020: 470b 0000 db9d 8735 f299 5a2e a981 f5a8
00000030: 140f 2d96 5504 0000 812c daad fc4a 9a34
00000040: e707 0000 6f2d bda3 5e9c 04b5 c703 0080
00000050: 5796 e9b3 41af f92d f17d a199 447a 95b4
00000060: 92af ea34 b789 5533 9084 44b3 3919 37b0
00000070: c8ed f02c f446 4533 8314 9fae 02a2 ad35
00000080: b77d 14a9 b5b5 efac 7116 1ca8 04cc beaf
00000090: d598 8834 25ca 7d2e 123e b6ad a10e c9b5
000000a0: b8e5 7337 5cf7 86b0 6501 0080 0861 a12b
000000b0: 3716 e1ab 7b13 0000 1bb5 082c 68f2 81b5
000000c0: 6e4c 7cab 9b42 a8b4 1f03 43ab 8b0d 9032
000000d0: 025d 2fb6 47b8 28b2 583a 3435 2654 4bae
000000e0: 5b57 8030 fafa c72c f50c 1bb6 210e 3f2c
000000f0: 48e2 2ba8 0f2d e3b5 dd53 a7b5 b452 dd29
00000100: a107 0080 d138 b5ae 34e2 d1b5 049c a236
00000110: 654d b1ac 44e8 e232 57f6 1c24 e409 f7b4
00000120: 890c 0c34 e57a 9b2f 74db 8835 2924 a2b5
00000130: 24d5 dfad 04ff 41b3 94d4 6e2a 5af0 2c2e
00000140: c3e1 64a5 5c03 ea34 369b 8a35 eb0e c134
00000150: 8197 2824 663c 0b2c 5467 8baf 3c1b 6736
00000160: 551c 94ac 08a6 8eb1 92f4 752d 17b7 712c
00000170: 8f72 992c 00c2 b635 4fb9 cf34 8d7a c833
00000180: af78 632b 22c8 b1ab 4ed2 f423 112a 04af
00000190: caaa 0ba7 52a5 172e a1ec 4d32 39a4 cfae
000001a0: 624f a4a8 8252 cd34 b7bc 55a8 c07b 0f2a
000001b0: 6849 fbac 3180 d635 b20c 0000 55ad bdb5
000001c0: 267d 0836 a1c6 3bb1 9ad3 5e2b 24cd bbb0
000001d0: 8a37 0436 4300 d393 899a afb0 6289 9335
000001e0: 2514 44a8 54f0 9b34 b5ea fc9e 3ca2 0180
000001f0: e665 6a35 3e8b 0934 5ed4 4dab 9434 a59c
00000200: 84af 9328 c8b9 32ad ad98 1c30 d59e 632d
00000210: d4c2 1caa 79b2 6c2b 1b50 aeaf 406f 7aae
00000220: d2ea af30 a9bf 4b2c 0876 58b4 8720 a027
00000230: 6915 0eaa 6604 09b6 2fca c5a9 9c13 bd2e
00000240: 48c8 eb2f fdad a832 fec2 05b0 3941 8b2f
00000250: 60fc 4d2e d5c4 1037 033e 9931 acd0 ef2d
00000260: fa5d 612d 9bca 8029 2155 a834 ad7e c2a8
00000270: a4f8 b0b1 04b1 01ab b178 abb2 c2b6 6f2c
00000280: 5785 79b4 6dc8 44a9 478d c236 5de2 50aa
00000290: 7ed5 a7b3 482e cb2b 9616 78a8 d254 9e2c
000002a0: b3f9 c628 e2f1 52a8 7fe6 91ae 9d32 6ca8
000002b0: 546f 3129 3cd7 06aa 1bc2 84aa 0fd3 b22d
000002c0: b6d0 502d 0c0e 44ad 7170 94ab 793c e733
000002d0: aeb8 1436 e66f 8731 efbd feb4 96ec 81b5
000002e0: df5c e32e 7316 d727 c4de 71ac 2891 852a
000002f0: 756c c631 7708 37ac 855e 9ab6 94c8 5b2b
00000300: d45f 87a6 ed15 76b1 6b59 f2b0 6f02 92a8
00000310: a873 ac28 76df 292c b9d1 0bb0 b8ae 9caf
00000320: 55a2 22af 21e2 6530 a857 71ab bf47 17b5
00000330: 65ed 8d32 1291 2c32 fb2f 22b3 e350 90ac
00000340: f465 6232 b20d 7eb4 0d1c 042b 37c0 39ab
00000350: 5072 2c2c da32 032b 740d 41b0 3e78 70ac
00000360: 866e 42ad 077e 1628 d8c0 41b1 3d1f e7af
00000370: b4a0 7ca6 228d d1b2 bbb0 39af 1f8f 9f36
00000380: cfd9 5daa 40a7 a72f fbdd 2131 a117 1c29
00000390: 73eb 98ae b842 2a29 d9b1 3bab 2b2c 0028
000003a0: 7fce 9d2b 5b5f 85ad 402f 45b2 2d70 59b2
000003b0: 0406 3ab1 ef66 be27 ea91 1928 0fe6 7ab6
000003c0: 5679 b52e 2e1d cbb4 de25 4ab3 aab7 bb27
000003d0: 576c 1fb1 0181 9fab 4118 4c2a 313a a1ab
000003e0: 98b4 6eaa 3518 91a8 209e 2dad 6e2a 932c
000003f0: f1ea 0e30 83b7 46ac b4a0 9535 c592 d4ac
9.179448e-14 2.150946e-07 -1.0024089e-07 -2.3616899e-07 1.2947488e-07 -1.0125601e-18 -2.1841524e-13 5.0581938e-14
4.046e-42 1.0104226e-06 4.9704192e-11 -2.7256695e-14 -1.3979587e-25 1.554e-42 -2.4803494e-11 2.8739294e-07
2.835e-42 -2.0510663e-17 -4.9401376e-07 -1.355e-42 -1.0877255e-07 2.8385851e-11 -1.6697877e-23 -2.7842373e-07
4.371364e-07 4.9718178e-08 -4.575537e-08 -6.6610856e-10 6.8476093e-12 4.593217e-08 -7.2341265e-11 1.2936655e-06
-3.2971642e-14 -6.812962e-12 -8.664606e-15 -3.470576e-10 2.5443174e-07 5.770508e-11 -2.071857e-11 -1.4979925e-06
1.4537414e-05 -9.820087e-10 -5e-43 1.146667e-12 -1.5993377e-12 6.988e-42 1.9427296e-12 -9.681798e-07
-8.963445e-13 -3.13409e-07 -6.928225e-13 1.6769965e-08 -2.613117e-06 -9.820787e-09 6.7140127e-07 -4.6231595e-11
9.338054e-10 5.683784e-12 -2.3104342e-06 2.7150576e-12 -9.541474e-15 -1.6925932e-06 -1.2466877e-06 9.828718e-14
-2.737e-42 -8.24102e-11 -1.5637547e-06 4.846139e-06 -5.039235e-12 2.6415485e-08 3.4035766e-17 -4.6014532e-07
1.3043076e-07 2.8281658e-10 1.0196659e-06 -1.2080465e-06 -2.5446818e-11 -4.516825e-08 2.1212399e-13 3.9321747e-11
-1.9852339e-16 4.358834e-07 1.0326974e-06 3.5959906e-07 3.6557522e-17 1.9786616e-12 -2.5357372e-10 3.4437535e-06
-4.2095585e-12 -4.1516195e-09 1.3980943e-11 3.4349795e-12 4.36124e-12 1.3616518e-06 3.8691584e-07 9.3355176e-08
8.081408e-13 -1.2632154e-12 2.65436e-17 -1.2020275e-10 -1.938271e-15 3.448026e-11 1.1986374e-08 -9.442442e-11
-1.8242084e-14 3.8244258e-07 -1.1864796e-14 1.2743886e-13 -7.141999e-12 1.5981551e-06 4.554e-42 -1.4132044e-06
2.0338425e-06 -2.732499e-09 7.91639e-13 -1.3664345e-09 1.970186e-06 -5.3264146e-27 -1.2776847e-09 1.0992337e-06
-1.0884554e-14 2.9045862e-07 -2.677861e-20 -1.50034e-40 8.7320075e-07 1.2809775e-07 -7.312535e-13 -1.0932375e-21
1.6396396e-14 -1.015938e-11 5.6969435e-10 1.2938724e-11 -1.3923178e-13 8.4091723e-13 -3.1707334e-10 -5.694223e-11
1.2799666e-09 2.8954428e-12 -2.0159507e-07 4.4444187e-15 -1.2619562e-13 -2.041715e-06 -8.783631e-14 8.598208e-11
4.288856e-10 1.9636895e-08 -4.866222e-10 2.5330296e-10 4.6835757e-11 8.628897e-06 4.459936e-09 2.7263823e-11
1.2810636e-11 5.719488e-14 3.1354378e-07 -2.1593264e-14 -5.1505413e-09 -4.6075665e-13 -1.9961904e-08 3.4065394e-12
-2.3238441e-07 -4.3694584e-14 5.7980974e-06 -1.8552647e-13 -7.8153775e-08 1.4436863e-12 -1.3771663e-14 4.500047e-12
2.2090706e-14 -1.1709792e-14 -6.634781e-11 -1.3111607e-14 3.9398457e-14 -1.1976265e-13 -2.3582598e-13 2.0329986e-11
1.1869774e-11 -1.1144429e-11 -1.0547241e-12 1.0767776e-07 2.2161216e-06 3.9417385e-09 -4.7449382e-07 -9.680105e-07
1.0339262e-10 5.9698827e-15 -3.437182e-12 2.3726268e-13 5.7748886e-09 -2.6010563e-12 -4.600561e-06 7.808279e-13
-9.393481e-16 -3.5810175e-09 -1.7633232e-09 -1.6210312e-14 1.9145994e-14 2.414039e-12 -5.086594e-10 -2.850038e-10
-1.4791486e-10 8.3631063e-10 -8.5742047e-13 -5.635629e-07 1.6522515e-08 1.0044703e-08 -3.7762202e-08 -4.1017064e-12
1.3178113e-08 -2.3660576e-07 4.693475e-13 -6.5991955e-13 2.4506126e-12 4.661112e-13 -7.023211e-10 -3.41728e-12
-1.1052164e-11 8.3540005e-15 -2.8194815e-09 -4.204085e-10 -8.7647857e-16 -2.4394982e-08 -1.6888439e-10 4.7552307e-06
-1.970431e-13 3.049596e-10 2.3554765e-09 3.4659453e-14 -6.953984e-11 3.7805452e-14 -6.668256e-13 7.115005e-15
1.1212835e-12 -1.5162696e-11 -1.1477653e-08 -1.2656568e-08 -2.7069982e-09 5.2847194e-15 8.524846e-15 -3.7386815e-06
8.2524806e-11 -3.7832928e-07 -4.706623e-08 5.2102055e-15 -2.319913e-09 -1.1333435e-12 1.8127255e-13 -1.1455889e-12
-2.1201302e-13 -1.6108732e-14 -9.869022e-12 4.182702e-12 5.199317e-10 -2.8239362e-12 1.1148136e-06 -6.041697e-12

linear2.bias f4 [128]
00000000: cb6b 3eb6 25cc e2b3 c881 d436 8dff 2b38
00000010: 3656 5cb6 71fe 488a d108 0000 c741 3eb2
00000020: 6a00 0000 52f1 b43d a2d3 ca33 1e5d ab9f
00000030: ae5c bf14 3300 0080 a166 5b8c 1685 61a5
00000040: e701 0000 3502 0080 3c8a 582b 7400 0000
00000050: 89bc 2b3e f835 342b 6313 0080 c2f9 373d
00000060: 9059 0033 336a f938 e7c5 7c30 3704 58b0
00000070: 00b4 3ea8 1068 d4b5 24b1 47b4 3101 903b
00000080: 589d 1d28 0a39 2405 2f78 95ad 37f7 1c2e
00000090: 14db 412a fa8b 16a7 1106 0000 9964 41bc
000000a0: a116 0080 b59e 9c2c 0357 d7ba dbf2 812f
000000b0: 48ff 4a33 ce1a 3710 6030 f4b6 0abb 48b1
000000c0: ce63 a58f 3f9b cf84 4794 6c0d ec98 6eaf
000000d0: 5e6e cfae 8813 51b0 5e1d 3e3d 58f1 27ae
000000e0: d893 622e 1f78 bd36 d0d5 8f3d f140 f126
000000f0: 576f 7527 6f98 7839 635a 1d9b 4b42 1730
00000100: 72c9 f510 a5a0 ea2c 75b2 ed38 1cae a033
00000110: cc7f 1e2e e903 3532 dfa6 0080 3668 8a39
00000120: d8c5 6a2d 4570 7633 f7ab dd3d 5b2b 1faf
00000130: 316e 0000 07a9 b936 a487 c8b5 2244 d220
00000140: 19bc 318c 4741 c238 ddae 113e c13a 8738
00000150: 35f0 1aa7 7d2a 6122 2a41 09b5 1a0a d430
00000160: 84c5 07b3 e76e 8e20 9841 08b3 277e f5aa
00000170: 1308 97aa b4ee 503d b46c 142f 857b 2136
00000180: 7126 20aa 6df1 61ae caf3 5328 921e ad27
00000190: 83d3 3b0c a4eb f11f 5cf9 2e2e 03e0 79ad
000001a0: ab38 0135 6ad8 803d 7a90 890a a999 34ab
000001b0: c623 0000 5ec3 932d 6f13 0000 5041 6eb6
000001c0: ce95 6535 62c4 8db6 168b ed2b fe0e d7b2
000001d0: 5612 0fb2 2602 0000 8d14 640b 6e52 ed3d
000001e0: c004 5226 add7 7738 e17e d3aa e205 8620
000001f0: 9108 7ebb 11d5 f639 37e4 6ea5 4600 0000
-2.837495e-06 -1.0561079e-07 6.333201e-06 4.1007577e-05 -3.2832736e-06 -9.677505e-33 3.163e-42 -1.1074412e-08
1.49e-43 0.08835091 9.444854e-08 -7.2575366e-20 1.9322627e-26 -7.1e-44 -1.690203e-31 -1.956073e-16
6.82e-43 -7.92e-43 7.6930454e-13 1.63e-43 0.16771139 6.4023743e-13 -6.955e-42 0.044915922
2.988378e-08 0.000118930264 9.19583e-10 -7.858633e-10 -1.058615e-14 -1.5825517e-06 -1.8597763e-07 0.0043946733
8.749369e-15 7.7217194e-36 -1.6992711e-11 3.5689864e-11 1.7217851e-13 -2.0892563e-15 2.176e-42 -0.0118037695
-8.118e-42 4.4514067e-12 -0.001642913 2.3637522e-10 4.7263967e-08 3.6111036e-29 -7.2773983e-06 -2.921015e-09
-1.63087e-29 -4.8808037e-36 7.2901597e-31 -2.1700303e-10 -9.432875e-11 -7.606151e-10 0.046414725 -3.818576e-11
5.1517762e-11 5.646623e-06 0.070232034 1.6740337e-15 3.4060938e-15 0.00023707909 -1.3015941e-22 5.502769e-10
9.6945837e-29 6.668515e-12 0.00011334281 7.482251e-08 3.6038547e-11 1.0536476e-08 -5.9862e-41 0.00026399054
1.334529e-11 5.7378447e-08 0.10823815 -1.4476369e-10 3.9529e-41 5.533107e-06 -1.4940638e-06 3.562047e-19
-1.3692188e-31 9.2628e-05 0.14226861 6.4482454e-05 -2.150201e-15 3.051568e-18 -5.1131303e-07 1.5427901e-09
-3.1611776e-08 2.4129125e-19 -3.1724625e-08 -4.3608278e-13 -2.682859e-13 0.051008895 1.3499141e-10 2.4062767e-06
-1.4224192e-13 -5.1373506e-11 1.1765716e-14 4.805029e-15 1.4469605e-31 1.02457305e-19 3.9784495e-11 -1.4203752e-11
4.813871e-07 0.06291278 1.3246966e-32 -6.416209e-13 1.2833e-41 1.6798726e-11 6.971e-42 -3.550278e-06
8.552714e-07 -4.2249894e-06 1.6878467e-12 -2.5036112e-08 -8.327865e-09 7.71e-43 4.3926663e-32 0.11587988
7.2864823e-16 5.9090253e-05 -3.756917e-13 2.2704376e-19 -0.003876243 0.00047079523 -2.0720532e-16 9.8e-44

linear3.weight f4 [1, 128]
00000000: cf12 0739 73c8 7dab 2e4c 133c 8e35 973c
00000010: edbe db31 c501 0000 f600 0080 4c02 0000
00000020: 3d45 042e 81b6 9f3e 44f4 0c00 f200 0080
00000030: 5a67 9337 f001 0080 b6e3 442f d38d 3b29
00000040: 57d1 e415 b7b2 de0e ccf3 7f1b 87d5 c836
00000050: 4b0b 313f 39d1 3d33 f5d2 af8a 1083 eabe
00000060: 0ee8 32b9 d165 273d 5b38 3731 36e8 64ab
00000070: c74e 3c2d 2780 87af ddad 12b0 5b1e 603e
00000080: 9a2d 9f29 567d b797 ce00 0000 2a74 ff36
00000090: 995d 2fb1 d748 3db0 6400 0080 a136 b1be
000000a0: 4ef6 2107 598c 8697 0802 beb8 37be d582
000000b0: d73a 7f33 d3ff 5519 69c7 f6b3 c7f8 94b1
000000c0: f0d4 2499 42d9 af26 f422 7e94 692d 6f0f
000000d0: cbac 33b0 4664 fc26 a6fd 14bf 9bfe 328e
000000e0: d922 00b4 8cc6 6930 7355 8c3e 8801 0000
000000f0: 8401 8c38 12d9 693d 87fb 429e 7301 0080
00000100: c5c6 752b c901 0000 5044 953d d560 4db6
00000110: b001 0080 de0e dba8 ae71 0080 d16d 793d
00000120: 5a00 0080 566b c9b6 3ed1 ca3e 5f91 41ae
00000130: e6b9 b827 5326 d33b d2a2 6703 d300 0000
00000140: 35de 40ad 0c6d 173d 8888 0f3f 332a ec3c
00000150: f001 0080 b755 81af b7d7 a329 fd9f 8539
00000160: 56c4 46b0 1a74 001e a50d 6b11 ab01 0000
00000170: 5a13 672a fc22 43bf 03c1 c9aa 3401 0000
00000180: 0e47 b72c 6865 832d 750f 2ca9 8263 95ae
00000190: 5ce4 a331 3c00 0000 d0d9 1d2c 553b 8c12
000001a0: cc00 0080 c7bc 31bf d834 782a f716 0080
000001b0: 3a4c 8897 2d45 1233 4354 9032 f5b9 c0b1
000001c0: 66ed 14ae b3ba 62a9 cce1 d430 3dc6 10b9
000001d0: 45b9 dd2d 3402 0080 eb07 1230 2a16 cc3e
000001e0: bb26 5caf e472 ed3c b31c d3ad df50 8321
000001f0: 8c60 b5be 0f69 9b3d 2d00 0080 2100 0000
0.0001288161 -9.0161835e-13 0.008990331 0.018458154 6.3954446e-09 6.35e-43 -3.45e-43 8.24e-43
3.007482e-11 0.31193927 1.189652e-39 -3.39e-43 1.7571892e-05 -6.95e-43 1.7906995e-10 4.1645354e-14
9.2418747e-26 5.489932e-30 2.1171881e-22 5.9853223e-06 0.69157857 4.419528e-08 -1.693124e-32 -0.45803118
-0.0001706185 0.040868584 2.666204e-09 -8.132413e-13 1.0704055e-11 -2.4647415e-10 -5.3361565e-10 0.2188658
7.068929e-14 -1.1857737e-24 2.89e-43 7.6131155e-06 -2.5519056e-09 -6.886131e-10 -1.4e-43 -0.3461199
1.2184676e-34 -8.694976e-25 -9.060284e-05 -3.1406715e-37 5.942533e-08 1.1063505e-23 -1.149154e-07 -4.3356496e-09
-8.521604e-24 1.2201952e-15 -1.2830616e-26 1.17923554e-29 -6.5365374e-10 1.7513192e-15 -0.58199537 -2.2062782e-30
-1.1933606e-07 8.504706e-10 0.27408943 5.5e-43 6.6760025e-05 0.05709178 -1.0322289e-20 -5.2e-43
8.7317333e-13 6.4e-43 0.0728842 -3.0603744e-06 -6.05e-43 -2.4320332e-14 -4.078e-41 0.060895745
-1.26e-43 -6.0027623e-06 0.39612764 -4.4012235e-11 5.127181e-15 0.0064437776 6.8071707e-37 2.96e-43
-1.0963276e-11 0.03696923 0.56067705 0.028828716 -6.95e-43 -2.3525867e-10 7.276075e-14 0.00025486937
-7.231099e-10 6.800273e-21 1.8542436e-28 5.98e-43 2.0523635e-13 -0.76225257 -3.58387e-13 4.32e-43
5.2090615e-12 1.493801e-11 -3.820508e-14 -6.793412e-11 4.769886e-09 8.4e-44 2.2431952e-12 8.849869e-28
-2.86e-43 -0.69428676 2.2045159e-13 -8.238e-42 -8.808036e-25 3.405619e-08 1.6802124e-08 -5.6090763e-09
-3.3862156e-11 -5.0344016e-14 1.5489205e-09 -0.0001380676 2.5207067e-11 -7.9e-43 5.312574e-10 0.3986066
-2.0022643e-10 0.028985448 -2.4000668e-11 8.898312e-19 -0.35425222 0.07588398 -6.3e-44 4.6e-44

bn1.weight f4 [128]
00000000: 83e3 993e 3703 3828 6091 e138 1e17 8239
00000010: e556 8daf 2506 0000 5609 0000 1408 0000
00000020: 2101 0000 0e8a 123f 0aa8 0000 ee12 0080
00000030: e82d d295 cf01 0080 f7f7 448d 663e d126
00000040: 4301 0000 6f95 0080 ca69 4f0d d606 0080
00000050: 4a78 5a3f 67fe a8af 5009 0000 211e 4e3f
00000060: d667 acb6 cb6c 873a 04ce 9bb0 050e b634
00000070: 1c60 7535 5c6f 86b3 9caa 14ab 893a ed3c
00000080: 7bd5 8c35 ad0d cd06 140d 0000 8d4e f231
00000090: a57d 42ad 20db 7db4 5504 0000 c1bd 393f
000000a0: ff01 0080 bff0 7495 a223 043c ada3 1e00
000000b0: d9b9 3c2f 4e40 bc21 1b01 d22c 3bf3 57b7
000000c0: 5e1d ff10 c66e 5606 eaa7 820c 8163 4f0c
000000d0: 0fed 1d36 8e90 9d21 8bf0 653f 12ae 6d8b
000000e0: 02f4 c934 49e3 83aa 37ed d33e ab16 0080
000000f0: 03c1 722b fbff e33a 8b8f b69b d802 0000
00000100: 4b02 0000 5b02 0080 ce95 233b 9e3f 5434
00000110: ab07 0080 9880 9ea6 4d0b 0080 9560 063b
00000120: b704 0080 bfdc b933 1e8f 083f 2e16 7a29
00000130: 686c 3000 743f 5938 5bdc 1200 3d10 0000
00000140: 550b ada0 1cbe 653a 2901 323f f550 0f3a
00000150: 9108 0000 9d03 eca6 ab87 e8b4 a4c7 e433
00000160: b1b8 adb6 244a eb9b 8e23 2309 6211 0000
00000170: f044 70ae bd90 a63f 3c59 1fb3 cb18 0000
00000180: aca8 1bb1 94ba 73a9 be5e 96a4 9cd7 f72a
00000190: b477 220c c60d 0000 3cf7 8132 2f5f 9226
000001a0: 1903 0000 118d 8b3f 3005 fd1a 224a d314
000001b0: 9706 0080 d8f1 baaf 9803 0080 b78c 06ac
000001c0: aebb 8fb4 9988 a5a3 6165 7b2b 0ec9 7bb5
000001d0: 3fbc ab27 a201 0080 d8da d90d e064 023f
000001e0: 3c26 c728 61d9 fb39 f5ed 0437 91d6 7a1f
000001f0: 8c6d 283f b80b fc3b d106 0080 5b01 0080
0.3005639 1.0214749e-14 0.00010755914 0.00024812756 -2.5709493e-10 2.204e-42 3.349e-42 2.898e-42
4.05e-43 0.57241905 6.0281e-41 -6.79e-42 -8.489075e-26 -6.49e-43 -6.069564e-31 1.4519201e-15
4.53e-43 -5.3607e-41 6.391414e-31 -2.452e-42 0.85339797 -3.0739786e-10 3.34e-42 0.80514723
-5.1380875e-06 0.0010332105 -1.1336287e-09 3.3910342e-07 9.140947e-07 -6.2601174e-08 -5.281693e-13 0.028958576
1.0492944e-06 7.7132524e-35 4.692e-42 7.052057e-09 -1.1055522e-11 -2.3642178e-07 1.554e-42 0.72555166
-7.16e-43 -4.9465323e-26 0.008065136 2.81378e-39 1.7164527e-10 1.2756397e-18 5.9686817e-12 -1.287163e-05
1.0062501e-28 4.033031e-35 2.013073e-31 1.5976643e-31 2.353281e-06 1.0676997e-18 0.89820164 -4.5775496e-32
3.7616707e-07 -2.3427985e-13 0.41391918 -8.132e-42 8.624353e-13 0.0017395014 -3.0202137e-22 1.02e-42
8.23e-43 -8.45e-43 0.0024961117 1.9767182e-07 -2.751e-42 -1.0998308e-15 -4.054e-42 0.0020504345
-1.691e-42 8.654887e-08 0.5334338 5.553039e-14 4.446993e-39 5.1795927e-05 1.732088e-39 5.825e-42
-2.931484e-19 0.0008763985 0.6953302 0.00054670806 3.073e-42 -1.6376769e-15 -4.331208e-07 1.0653392e-07
-5.1773027e-06 -3.89254e-22 1.9637129e-33 6.236e-42 -5.463091e-11 1.3012921 -3.710123e-08 8.894e-42
-2.2651347e-09 -5.411867e-14 -6.521263e-17 4.4025623e-13 1.2516048e-31 4.941e-42 1.5130006e-08 1.0156585e-15
1.111e-42 1.0902425 1.0464673e-22 2.1334796e-26 -2.364e-42 -3.4005043e-10 -1.289e-42 -1.9120658e-12
-2.677238e-07 -1.7947187e-17 8.9313805e-13 -9.379736e-07 4.766613e-15 -5.86e-43 1.3426342e-30 0.50935173
2.211002e-14 0.0004803641 7.923217e-06 5.3117044e-20 0.65792155 0.0076918267 -2.445e-42 -4.86e-43

bn1.bias f4 [128]
00000000: d70d 3dbd 3ec0 40ae fa57 dc3b 5748 863c
00000010: b335 86b3 9bba 40ab f529 e9b4 c9e6 119c
00000020: d0c0 1ab2 7d84 ad3d 5c71 1c9e 6ed7 bfac
00000030: eea8 99b4 353d 9bb5 111c bbb8 122d 1cb7
00000040: a24c 54ad 26b6 bbb6 0547 ffb7 88de d9b2
00000050: 211e 333e c7cb 6533 c603 69b6 0568 abb7
00000060: d67e 2a3b cb31 3c3d 82c9 8cb3 792e ecae
00000070: 7a74 10af 786f 9cb0 b6df 4bb1 710c 0f3e
00000080: cb79 0aae 40e9 dab7 9ada 1da8 8844 4cb8
00000090: 993b 42b3 748b 84b0 b7f4 37af fb37 e43c
000000a0: 8ab5 02b6 3c71 cfb2 1313 16b9 fbaa 2bb5
000000b0: 44b6 57b4 47fd 41ad fe2d bab4 57c3 b7b1
000000c0: daa1 18b8 c387 89b7 4d69 74b8 342a a6ad
000000d0: 7e63 28b0 53bc 04a7 2e2a a63c eacc 94ad
000000e0: 68fa c9b4 d980 8d30 18f7 a93d 52f8 52a5
000000f0: 151e adb6 51fe 793d 40d0 adb5 bb14 1ca4
00000100: 1cc0 969f e358 f2ad f6fd 803d 166f a9ba
00000110: 014d c4b3 f3cb 83b5 6485 07b6 6d20 853d
00000120: fd16 2a9e f933 aab9 cfcb 1f3e ce05 15b0
00000130: be88 deb5 3dd3 603b e064 d3a5 1a1f c7a2
00000140: fab7 24ae c7d4 293d 827a 333e 0016 f83c
00000150: 7091 94b1 7138 5eb0 0b34 b0ae 2c3d 0738
00000160: 04da 43b4 c83e 14b6 a18a bfaf 19fa 57a8
00000170: 8113 84ac f221 8b3d 2e25 cbae 5572 25a7
00000180: 53fe 7eae 6d03 88b0 5e6c 8ead 8a02 01b0
00000190: 9f65 0bb8 ef84 5e93 52ac 9aad a0e4 f9ac
000001a0: 5786 27ad 9203 0f3c 5ab1 bfaa 91bc 1eae
000001b0: e514 95b6 cc6e 1ab4 1e99 7bb0 ec82 4bb3
000001c0: 4af8 1eb0 904f 27a9 1faf a7af 4eb9 35ba
000001d0: 1668 b6af 42cd 73a3 43eb 4bb9 03ff 073e
000001e0: de03 9bb1 809d d13c 2f09 11b3 c36e c625
000001f0: d656 253d bbea 683d 4e90 47a6 565a 5bad
-0.046155777 -4.382649e-11 0.006724355 0.016391916 -6.249629e-08 -6.847107e-13 -4.343016e-07 -4.827476e-22
-9.00782e-09 0.08472536 -8.2820134e-21 -5.452464e-12 -2.8621383e-07 -1.1566214e-06 -8.9220826e-05 -9.308818e-06
-1.2067821e-11 -5.594239e-06 -3.043144e-05 -2.536332e-08 0.17491962 5.3503552e-08 -3.4721902e-06 -2.0433226e-05
0.0026015542 0.045945924 -6.555912e-08 -1.0740293e-10 -1.3138104e-10 -1.1382175e-09 -2.9667553e-09 0.1396959
-3.148574e-11 -2.609624e-05 -8.762652e-15 -4.8701215e-05 -4.522335e-08 -9.643899e-10 -1.6730693e-10 0.027858725
-1.947718e-06 -2.4149465e-08 -0.0001431222 -6.3951273e-07 -2.0089743e-07 -1.1027019e-11 -3.4678663e-07 -5.3482085e-09
-3.639036e-05 -1.6394892e-05 -5.8272202e-05 -1.8890757e-11 -6.125943e-10 -1.842077e-15 0.020283785 -1.6916652e-11
-3.7621362e-07 1.0295721e-09 0.082990825 -1.8298731e-16 -5.159304e-06 0.06103355 -1.2950113e-06 -3.3844667e-17
-6.384529e-20 -2.7551688e-11 0.06298439 -0.0012926783 -9.140968e-08 -9.819618e-07 -2.0194211e-06 0.06500325
-9.004479e-21 -0.0003246365 0.1560509 -5.4214133e-10 -1.6580086e-06 0.0034305595 -3.667102e-16 -5.397199e-18
-3.7452687e-11 0.041462686 0.17527202 0.030283928 -4.3239012e-09 -8.084334e-10 -8.012798e-11 3.224348e-05
-1.8240104e-07 -2.2090262e-06 -3.48412e-10 -1.1989129e-14 -3.753831e-12 0.06793584 -9.237976e-11 -2.296033e-15
-5.79788e-11 -9.896276e-10 -1.6191656e-11 -4.6933535e-10 -3.3234825e-05 -2.808588e-27 -1.7584299e-11 -7.102388e-12
-9.52268e-12 0.008728879 -3.4051478e-13 -3.609252e-11 -4.4429785e-06 -1.4382675e-07 -9.153086e-10 -4.7383693e-08
-5.7832905e-10 -3.715046e-14 -3.0501554e-10 -0.00069322146 -3.3179565e-10 -1.32165214e-17 -0.0001944723 0.13280873
-4.5115334e-09 0.025587797 -3.3768796e-08 3.442258e-16 0.040366016 0.05686448 -6.9237564e-16 -1.2468767e-11

bn1.running_mean f4 [128]
00000000: 0000 0000 0000 0000 0000 0000 0000 0000
00000010: 0000 0000 0000 0000 0000 0000 0000 0000
00000020: 0000 0000 0000 0000 0000 0000 0000 0000
00000030: 0000 0000 0000 0000 0000 0000 0000 0000
00000040: 0000 0000 0000 0000 0000 0000 0000 0000
00000050: 0000 0000 0000 0000 0000 0000 0000 0000
00000060: 0000 0000 0000 0000 0000 0000 0000 0000
00000070: 0000 0000 0000 0000 0000 0000 0000 0000
00000080: 0000 0000 0000 0000 0000 0000 0000 0000
00000090: 0000 0000 0000 0000 0000 0000 0000 0000
000000a0: 0000 0000 0000 0000 0000 0000 0000 0000
000000b0: 0000 0000 0000 0000 0000 0000 0000 0000
000000c0: 0000 0000 0000 0000 0000 0000 0000 0000
000000d0: 0000 0000 0000 0000 0000 0000 0000 0000
000000e0: 0000 0000 0000 0000 0000 0000 0000 0000
000000f0: 0000 0000 0000 0000 0000 0000 0000 0000
00000100: 0000 0000 0000 0000 0000 0000 0000 0000
00000110: 0000 0000 0000 0000 0000 0000 0000 0000
00000120: 0000 0000 0000 0000 0000 0000 0000 0000
00000130: 0000 0000 0000 0000 0000 0000 0000 0000
00000140: 0000 0000 0000 0000 0000 0000 0000 0000
00000150: 0000 0000 0000 0000 0000 0000 0000 0000
00000160: 0000 0000 0000 0000 0000 0000 0000 0000
00000170: 0000 0000 0000 0000 0000 0000 0000 0000
00000180: 0000 0000 0000 0000 0000 0000 0000 0000
00000190: 0000 0000 0000 0000 0000 0000 0000 0000
000001a0: 0000 0000 0000 0000 0000 0000 0000 0000
000001b0: 0000 0000 0000 0000 0000 0000 0000 0000
000001c0: 0000 0000 0000 0000 0000 0000 0000 0000
000001d0: 0000 0000 0000 0000 0000 0000 0000 0000
000001e0: 0000 0000 0000 0000 0000 0000 0000 0000
000001f0: 0000 0000 0000 0000 0000 0000 0000 0000
0.0 0.0 0.0 0.0 0.0 0.0 0.0 0.0
0.0 0.0 0.0 0.0 0.0 0.0 0.0 0.0
0.0 0.0 0.0 0.0 0.0 0.0 0.0 0.0
0.0 0.0 0.0 0.0 0.0 0.0 0.0 0.0
0.0 0.0 0.0 0.0 0.0 0.0 0.0 0.0
0.0 0.0 0.0 0.0 0.0 0.0 0.0 0.0
0.0 0.0 0.0 0.0 0.0 0.0 0.0 0.0
0.0 0.0 0.0 0.0 0.0 0.0 0.0 0.0
0.0 0.0 0.0 0.0 0.0 0.0 0.0 0.0
0.0 0.0 0.0 0.0 0.0 0.0 0.0 0.0
0.0 0.0 0.0 0.0 0.0 0.0 0.0 0.0
0.0 0.0 0.0 0.0 0.0 0.0 0.0 0.0
0.0 0.0 0.0 0.0 0.0 0.0 0.0 0.0
0.0 0.0 0.0 0.0 0.0 0.0 0.0 0.0
0.0 0.0 0.0 0.0 0.0 0.0 0.0 0.0
0.0 0.0 0.0 0.0 0.0 0.0 0.0 0.0

bn1.running_var f4 [128]
00000000: 0000 803f 0000 803f 0000 803f 0000 803f
00000010: 0000 803f 0000 803f 0000 803f 0000 803f
00000020: 0000 803f 0000 803f 0000 803f 0000 803f
00000030: 0000 803f 0000 803f 0000 803f 0000 803f
00000040: 0000 803f 0000 803f 0000 803f 0000 803f
00000050: 0000 803f 0000 803f 0000 803f 0000 803f
00000060: 0000 803f 0000 803f 0000 803f 0000 803f
00000070: 0000 803f 0000 803f 0000 803f 0000 803f
00000080: 0000 803f 0000 803f 0000 803f 0000 803f
00000090: 0000 803f 0000 803f 0000 803f 0000 803f
000000a0: 0000 803f 0000 803f 0000 803f 0000 803f
000000b0: 0000 803f 0000 803f 0000 803f 0000 803f
000000c0: 0000 803f 0000 803f 0000 803f 0000 803f
000000d0: 0000 803f 0000 803f 0000 803f 0000 803f
000000e0: 0000 803f 0000 803f 0000 803f 0000 803f
000000f0: 0000 803f 0000 803f 0000 803f 0000 803f
00000100: 0000 803f 0000 803f 0000 803f 0000 803f
00000110: 0000 803f 0000 803f 0000 803f 0000 803f
00000120: 0000 803f 0000 803f 0000 803f 0000 803f
00000130: 0000 803f 0000 803f 0000 803f 0000 803f
00000140: 0000 803f 0000 803f 0000 803f 0000 803f
00000150: 0000 803f 0000 803f 0000 803f 0000 803f
00000160: 0000 803f 0000 803f 0000 803f 0000 803f
00000170: 0000 803f 0000 803f 0000 803f 0000 803f
00000180: 0000 803f 0000 803f 0000 803f 0000 803f
00000190: 0000 803f 0000 803f 0000 803f 0000 803f
000001a0: 0000 803f 0000 803f 0000 803f 0000 803f
000001b0: 0000 803f 0000 803f 0000 803f 0000 803f
000001c0: 0000 803f 0000 803f 0000 803f 0000 803f
000001d0: 0000 803f 0000 803f 0000 803f 0000 803f
000001e0: 0000 803f 0000 803f 0000 803f 0000 803f
000001f0: 0000 803f 0000 803f 0000 803f 0000 803f
1.0 1.0 1.0 1.0 1.0 1.0 1.0 1.0
1.0 1.0 1.0 1.0 1.0 1.0 1.0 1.0
1.0 1.0 1.0 1.0 1.0 1.0 1.0 1.0
1.0 1.0 1.0 1.0 1.0 1.0 1.0 1.0
1.0 1.0 1.0 1.0 1.0 1.0 1.0 1.0
1.0 1.0 1.0 1.0 1.0 1.0 1.0 1.0
1.0 1.0 1.0 1.0 1.0 1.0 1.0 1.0
1.0 1.0 1.0 1.0 1.0 1.0 1.0 1.0
1.0 1.0 1.0 1.0 1.0 1.0 1.0 1.0
1.0 1.0 1.0 1.0 1.0 1.0 1.0 1.0
1.0 1.0 1.0 1.0 1.0 1.0 1.0 1.0
1.0 1.0 1.0 1.0 1.0 1.0 1.0 1.0
1.0 1.0 1.0 1.0 1.0 1.0 1.0 1.0
1.0 1.0 1.0 1.0 1.0 1.0 1.0 1.0
1.0 1.0 1.0 1.0 1.0 1.0 1.0 1.0
1.0 1.0 1.0 1.0 1.0 1.0 1.0 1.0
