src/scripts/model/resnet128_bn_20hz_sf0.5_3state/actor.pth (torch, 147951 bytes, 16 tensors)

linear0.weight f4 [128, 12]
000000 8e 9b 90 3c c1 b7 bc be 32 6a 97 3e 3c b9 6d 3e
       0.0176523 -0.36858943 0.29573208 0.23215193
000010 a9 bf c8 3d da c1 9f be a8 6f 90 3d 03 db 28 be
       0.09802181 -0.31202585 0.07052547 -0.16489796
000020 ab ff 5b bd 69 a9 0f be 06 5c f5 bd ba 98 1b 3e
       -0.05371062 -0.14029469 -0.11980443 0.1519498
000030 91 e2 05 be 10 06 c0 be 34 8d 98 be f5 fb 52 be
       -0.1307471 -0.37504625 -0.2979523 -0.20603926
000040 e2 92 2f be c0 c5 05 3e 83 2a 12 3e 96 04 61 be
       -0.17145875 0.13063717 0.1427403 -0.21974406
000050 cb 22 73 bd 60 88 b0 be d3 35 0c 3e 8d 54 f2 bd
       -0.059359353 -0.34479046 0.13692407 -0.11832533
000060 d3 69 75 3e 87 1e 77 3e bb 2d f1 bd f7 47 33 3d
       0.2396615 0.24132739 -0.117763005 0.043769803
000070 c0 dd 01 3d 8a 93 77 be 3d da 53 3e 4b 82 25 3e
       0.031705618 -0.24177375 0.2068872 0.16162984
000080 03 26 a3 3e f2 48 40 be 88 04 b7 3d 0e ad 69 3e
       0.31864938 -0.18777826 0.08936411 0.22819921
000090 8c 2f 0a be dd 5b fc 3d 88 4e 2e 3e f3 47 86 3e
       -0.134947 0.12322209 0.17022145 0.26226768
0000a0 e4 0e e8 3d 7b 77 6d 3d 6d dc a1 3d fe b6 28 3e
       0.11330965 0.057975274 0.07903371 0.16476056
0000b0 01 e7 38 be c5 21 62 bb f1 78 aa 3a 1b 5c e0 3e
       -0.18056871 -0.0034504991 0.0013006014 0.4382027
0000c0 c0 4f 28 be 7b b5 0e 3e 58 4c 52 be 19 0d 70 bd
       -0.16436672 0.13936417 -0.20536935 -0.05860624
0000d0 67 22 2b be fe b1 1f 3e 3a c6 ec bd 88 0a 76 3d
       -0.16712342 0.15595242 -0.11561246 0.060068637
0000e0 a2 df b3 be fc f4 0a be 70 93 cf bd 96 8a 76 3d
       -0.35131556 -0.13570017 -0.10135543 0.06019076
0000f0 3c 54 dd 3d e9 f2 8d 3c 84 a3 18 3e 17 1c 02 be
       0.10807082 0.017327743 0.14906126 -0.12706028
000100 16 1c 4f be f8 6b 5b be 2e 33 f6 3d 56 80 90 bd
       -0.20225558 -0.21427906 0.120214805 -0.07055728
000110 a7 07 95 be 83 de fa bd 12 94 a2 be b9 d0 0b 3e
       -0.291074 -0.12249472 -0.31753594 0.1365384
000120 f0 2e 2f 3e ba 95 27 3e 11 cb 8b be fe 33 94 3e
       0.17107749 0.1636571 -0.27303365 0.28945917
000130 6a fd 6b 3e fa fd a6 3d 39 43 3d be 53 25 40 3e
       0.23045889 0.08153911 -0.18482675 0.18764238
000140 88 8a 27 3d e7 41 c2 3e e2 1b 3e be 62 fa d7 3d
       0.040903598 0.37940904 -0.18565324 0.105458036
000150 ac c7 27 be a5 3d da 3d 34 b8 95 3d bd 4c de 3e
       -0.16384763 0.10656289 0.073105246 0.43417922
000160 50 d0 52 3d a7 70 1b be c4 f9 8c 3d 0c 45 5a 3e
       0.051468194 -0.15179692 0.068835765 0.21315402
000170 3f 5b c0 3d d2 93 5b be 81 e5 cf 3d 17 8b 81 3e
       0.09392404 -0.21443108 0.10151196 0.2530143
000180 e8 92 90 be a6 8f 2b 3d bc 21 01 3e 6f 6c 67 3e
       -0.2823708 0.04188504 0.12610525 0.22599958
000190 de cb b9 bd 19 3b da 3d e3 1f 95 3d dd 7f c6 3d
       -0.09072088 0.10655803 0.072814725 0.09692357
0001a0 3f 25 c6 be 0c b4 b5 be 79 39 40 be 62 13 2c 3e
       -0.38700292 -0.35488927 -0.18771924 0.16804269
0001b0 ef 13 66 3d 07 98 2c be 1a 85 23 be 67 ff 25 bd
       0.056171354 -0.16854869 -0.15968743 -0.040526774
0001c0 4c 00 62 3e 01 df 92 be 14 4d 6a 3d 06 25 d7 bd
       0.22070426 -0.28685763 0.057202414 -0.105051085
0001d0 01 b7 2e 3e 00 2e e9 be 9c 8a 7c 3e 81 0e 06 3e
       0.17061998 -0.45542908 0.2466225 0.1309147
0001e0 54 3b da bd 04 c2 32 3e e0 d4 95 bb 0b 46 3a be
       -0.10655847 0.17456824 -0.004572496 -0.18190782
0001f0 a0 02 f5 bc 6e 56 6e be 95 d2 22 3e fa e0 db 3d
       -0.029908478 -0.23275158 0.15900643 0.1073627
000200 16 97 96 bd 87 d3 18 3e 09 79 88 be 3b 2f 6c bd
       -0.07353036 0.14924441 -0.26654842 -0.05766223
000210 fd 14 86 be ab e0 b2 bd 22 4e 0c be 17 7e 02 be
       -0.26187888 -0.08734258 -0.1370168 -0.12743412
000220 da d3 f6 bd 7c 49 3f bd 3f c6 5e 3e 13 2e 14 be
       -0.12052126 -0.04670094 0.21755312 -0.14470701
000230 04 50 bc bc 39 ac d8 3c c4 89 96 3e 09 5c 95 bd
       -0.022987373 0.02644931 0.29401982 -0.07292945
000240 64 39 17 3d db 65 10 be 96 91 13 3d 2b 1c 97 bd
       0.036919966 -0.14101355 0.036027513 -0.073784195
000250 d0 d3 88 3e 71 89 9d bd 3a 74 6e be 8f 9b 06 3d
       0.267241 -0.076922305 -0.23286524 0.032863196
000260 0a 35 da 3c bd 64 df 3d 45 59 c6 bd 10 05 2a 3e
       0.02663662 0.10907886 -0.096849956 0.16603494
000270 b1 6a a1 3e 13 8d a0 3d 11 57 4b 3c ef ad 26 3e
       0.31526712 0.07839408 0.012410895 0.16277288
000280 d7 3a b8 3e 16 c9 8b 3e cd c4 78 3e d9 7c 89 be
       0.3598239 0.27301854 0.24293824 -0.26853064
000290 3e be 60 3d bb 26 9f be 5c 3c 55 be 9c 04 68 be
       0.05486893 -0.31084237 -0.20823807 -0.22658008
0002a0 06 3c b5 3d 43 da f8 3d dc fe c6 3c 4e 0f a2 3d
       0.08849339 0.12151005 0.024291448 0.079130754
0002b0 21 10 fb bd 43 1a 31 3e 03 5f c5 bc 37 df 8b bd
       -0.12258936 0.17295174 -0.024093157 -0.06829684
0002c0 ae 1e 89 be 70 ba 53 3e 18 c8 c7 bd 9b 33 bc 3e
       -0.2678122 0.20676589 -0.09754962 0.36758122
0002d0 cc dd cd 3e f1 d3 77 3d 3f e2 83 be 18 e8 07 3e
       0.4020828 0.060504857 -0.2575855 0.1327213
0002e0 74 c5 b7 bd ff b0 d4 bd 1b 3a 73 3d 23 a0 93 be
       -0.08973208 -0.10385322 0.059381586 -0.28833112
0002f0 94 45 f1 3d 06 4f 9f be 34 b7 9f bd 6b c3 06 3e
       0.11780849 -0.31114978 -0.07798615 0.13160484
000300 1e 40 2b be 62 91 8b 3e 3e 12 aa 3e 4a ee 26 bd
       -0.16723678 0.27259356 0.33217043 -0.040754594
000310 58 a4 08 be 09 5f f9 ba 72 87 04 3e 3b 9e 86 bd
       -0.13343942 -0.0019025515 0.12942293 -0.06573149
000320 75 48 30 be 2f 0a 89 3e 61 aa 96 3e 68 50 15 be
       -0.1721514 0.26765582 0.29426864 -0.14581454
000330 e6 b8 0e be 73 12 a4 be a3 d6 af bd 9c c9 97 3d
       -0.1393772 -0.32045326 -0.085858606 0.07411501
000340 6d 44 fa 3d 2a 30 84 be 8f 01 0b be 02 ba 80 be
       0.122200824 -0.25817996 -0.13574813 -0.25141913
000350 26 0a 3e be f8 d2 16 3e 18 10 38 be cc 5c 75 be
       -0.18558559 0.14728916 -0.1797489 -0.2396118
000360 52 1d 64 3d f5 c4 5c 3e 43 f9 29 3e 53 95 32 be
       0.055692025 0.21559508 0.16598992 -0.17439775
000370 37 cb 01 be ba 87 d2 3c af 7c f6 3d 32 37 3e 3c
       -0.12675177 0.025699485 0.120355 0.011609839
000380 63 af 87 be 60 1c 79 3e 2e 94 e0 bc 13 21 9d be
       -0.26500997 0.2432723 -0.027414408 -0.30689296
000390 e1 38 60 3e c8 ef 75 3d 00 91 66 be 95 33 8e bc
       0.21896698 0.060043126 -0.2251625 -0.01735858
0003a0 ef e1 30 be d3 14 68 3d 68 ed 9c be 63 0e c0 bd
       -0.17273687 0.056660485 -0.30649877 -0.09377744
0003b0 3d 41 0d be 28 78 3f 3e 89 16 11 3d 18 26 2d 3d
       -0.13794418 0.1869818 0.03542188 0.042272657
0003c0 fb ca 3e 3e 3f b8 1b be b9 1d 77 3d c6 6c a3 be
       0.18632118 -0.15207003 0.06033108 -0.31918925
0003d0 86 9a e2 bb bb 3b a1 bd 7d 90 79 bd 7e 5b 2b 3e
       -0.0069153933 -0.07872721 -0.06092881 0.1673412
0003e0 c1 b6 b5 3e d1 fb aa be c0 d7 a3 3c 99 b4 76 be
       0.35490993 -0.33395246 0.020000339 -0.2409233
0003f0 ae b9 f7 bd 50 59 4f bd ae c0 3e 3e 88 be 37 be
       -0.120959625 -0.050622284 0.18628189 -0.17943776

linear0.bias f4 [128]
000000 9f 47 8b 3d 75 f3 29 3e ee ac 76 3e 5d ad bc 3e
       0.0680077 0.16596778 0.24089405 0.36851016
000010 07 83 13 bd 27 01 89 3e f8 aa b7 3e 35 b2 8b 3e
       -0.03601363 0.26758692 0.35872626 0.272844
000020 3c dc 44 bd 05 5d 2f be fb 7b 8b 3e dc 0c e9 bc
       -0.048061594 -0.17125328 0.27243027 -0.028448515
000030 bc 0a 8d 3e 48 0e 08 be 62 24 df 3d 67 16 e1 3d
       0.27547252 -0.13286698 0.10895611 0.10990601
000040 fd f3 3d be 84 15 5a be 85 82 3e 3d 49 a0 05 3e
       -0.18550105 -0.2129727 0.046511192 0.13049425
000050 7f f5 4d be bb 64 f3 3d 8b fd 88 3e 70 59 4a be
       -0.2011318 0.11884447 0.26755938 -0.1976068
000060 ff dc c2 be 42 3c 91 be 89 db e6 3c 35 0d 2f be
       -0.38059232 -0.28366286 0.028180854 -0.17094882
000070 2c b7 04 be f9 24 8c be 18 ec 9d bd 4c 68 9f bd
       -0.129605 -0.27371958 -0.07711047 -0.07783565
000080 f5 b3 4c 3e 6b 51 7d 3a bf e6 a5 3d f7 70 62 3e
       0.19990523 0.00096633163 0.08100652 0.22113405
000090 f6 0e 23 3e 77 47 0d 3e 89 f1 ac 3e 08 a9 f6 3d
       0.15923676 0.13796793 0.33778027 0.12043959
0000a0 1a 10 5d be 47 54 2d 3e 70 3a c3 bd 21 bf 81 3e
       -0.21588174 0.1692668 -0.095326304 0.25341132
0000b0 fe 48 4e be 69 8c 3a be a4 f3 52 be 54 3f 37 bd
       -0.20145032 -0.18217625 -0.20600754 -0.04473813
0000c0 65 30 17 be cc a8 36 be 97 02 ad bd 17 5d eb bd
       -0.14764555 -0.17837828 -0.084477596 -0.11492365
0000d0 a5 b4 7d 3e 47 12 3d be 98 42 60 3e 64 a1 01 be
       0.24775942 -0.18464004 0.21900403 -0.12659222
0000e0 70 23 97 be c6 93 d1 bd a0 a4 1d 3e 31 0b f6 3d
       -0.29519224 -0.10233264 0.1539483 0.12013853
0000f0 04 6f 88 bd 93 24 da bd ef 45 6a 3e dd 21 aa bd
       -0.066617996 -0.10651507 0.2287824 -0.0830724
000100 ae fc b3 3d ed 3d 07 bd f3 85 51 3e e8 e2 ba 3e
       0.08788429 -0.03301804 0.20461254 0.3650124
000110 79 2e 08 3d e2 a9 18 3d 14 52 4b 3e 7b 68 2a bd
       0.033247445 0.037271388 0.19855529 -0.041603547
000120 d2 b2 d2 bd 5c a2 2b be 8e d0 a8 be 20 fb 22 3e
       -0.102880135 -0.16761154 -0.32971615 0.15916109
000130 48 c6 68 3e a3 97 01 3e ea 02 20 be eb b1 90 3e
       0.22731888 0.12655501 -0.15626112 0.2826074
000140 65 38 e8 bd 47 cd 73 3e 44 ce 45 3e ca dc 33 3e
       -0.113388814 0.23808776 0.19316965 0.17564693
000150 9f b5 d3 be f0 c6 46 3e 01 5c 74 3e 0b d8 39 be
       -0.41349503 0.19411826 0.23863222 -0.1814882
000160 7f 96 30 be aa b4 73 3e df 95 8e be ac 16 8c bd
       -0.1724491 0.23799387 -0.27848718 -0.06840262
000170 e0 4c 85 3e 1b c2 cf 3d 66 c4 7f 3e 17 b8 5f bc
       0.26035213 0.101444446 0.24977264 -0.01365473
000180 0c 8e 19 be b1 dc 9c be 9c 5e b4 be 66 ed b4 3d
       -0.14995593 -0.30637124 -0.3522843 0.08834343
000190 3f 43 a9 3e 92 fe 1b 3e e5 52 ac bd 46 e9 0d 3e
       0.33059117 0.1523383 -0.084142484 0.13858518
0001a0 71 81 96 3c 36 c7 e8 3d fd e9 be 3e 43 a7 f4 bb
       0.01837227 0.113661215 0.37287894 -0.007466228
0001b0 bc 6d 7a 3d 59 73 14 3b 80 bb 34 bd 2e 4d 6a be
       0.061139807 0.002265176 -0.044124126 -0.22881004
0001c0 93 1c 15 be 2b b8 39 bd e7 44 11 be c4 27 64 be
       -0.14561681 -0.045341652 -0.1418644 -0.22280794
0001d0 9d 2b 80 3e e7 f6 83 bd a7 29 9a 3e f4 de c4 3d
       0.25033274 -0.06443577 0.30109903 0.096128374
0001e0 83 c9 a9 be 57 9f e1 bd f3 93 99 3c 01 18 92 bc
       -0.33161554 -0.1101672 0.018747305 -0.017833712
0001f0 9b df e6 bd 12 bc 22 3e d4 5a 91 3e 77 47 30 3e
       -0.11273118 0.15892056 0.2838961 0.17214762

linear1.weight f4 [128, 128]
000000 5e b9 78 bd d8 fe 0e 3d aa 8a 1a 3d ac 64 cc bc
       -0.060723655 0.034911007 0.037729897 -0.024950348
000010 fc a3 09 3d 00 90 01 bd 84 26 12 bd b7 99 fa bc
       0.033603653 -0.03163147 -0.035681263 -0.030590875
000020 90 3f 20 3d 4d 6c 97 3c 5a d0 c1 39 59 30 df ba
       0.039123118 0.018484259 0.00036967063 -0.0017027959
000030 9e 32 54 bd a1 32 5c bd 77 ab a3 bd f1 64 93 bd
       -0.051806085 -0.05375922 -0.07991689 -0.071969874
000040 13 2d 4e 3a 9a af 9a 3d 69 08 bf 3c 68 28 b8 bd
       0.0007864993 0.075530246 0.02331944 -0.08992082
000050 2b e4 89 bc 6e be 2f bd b6 31 4f 3a 6a 28 ba bc
       -0.016832432 -0.042906217 0.0007903831 -0.022724349
000060 fb 08 ca bc d1 40 34 bd 0c c8 96 3d e4 33 94 3d
       -0.024662485 -0.044007126 0.07362375 0.0723646
000070 cc 7e 21 bd 9c bb 23 bd 6f 28 10 bc fd 53 5c 3d
       -0.039427564 -0.03997384 -0.008798703 0.053791035
000080 70 23 78 bb 02 3e 0a bc a5 76 6e bd b1 38 90 bd
       -0.003786292 -0.008437635 -0.058218617 -0.07042063
000090 e4 ae e3 3c 6c 4b 08 3c 2c c0 65 bd 78 23 c0 bd
       0.027793355 0.008318763 -0.056091473 -0.09381765
0000a0 11 e6 42 3c d6 d1 1d 3d f9 e1 09 bd cf 67 bf 3c
       0.011895672 0.038530193 -0.03366277 0.02336493
0000b0 9e ca 37 3c 13 d8 95 3d 44 cd a4 bd e7 0d ce 3b
       0.011217741 0.073166035 -0.08046964 0.0062882784
0000c0 0e d3 1d 3d 20 f1 d2 3b 1c 3c 17 bc 5b 43 80 bd
       0.038531356 0.0064374357 -0.00923064 -0.06262847
0000d0 c3 84 1c 3d c3 6a 85 bd 5e 83 d3 3c 2a 90 6d bd
       0.03821255 -0.06514504 0.025819477 -0.057998814
0000e0 2e 70 4b bc cc 71 b8 bd f0 0a 9d bc 05 f6 bc 3b
       -0.012416882 -0.0900608 -0.019170254 0.0057666325
0000f0 91 ce 75 bd 9a c1 b3 bd 1a 97 39 bd 0f 4a a1 3b
       -0.06001145 -0.08777161 -0.045310117 0.0049221586
000100 60 43 a2 3d a0 b3 fa bc 91 c8 b8 ba 63 df 91 bd
       0.07923007 -0.03060323 -0.0014097859 -0.07122686
000110 4f c5 93 bb 2d d3 42 3d 90 27 ce bc b4 a2 a3 3d
       -0.004509605 0.047564674 -0.02516535 0.079900175
000120 14 ad 8a 3d 31 18 7e 3d 19 9a 72 bd 34 12 db 3c
       0.06771293 0.06203479 -0.05922899 0.026742078
000130 64 0d 11 3d b7 d4 ab bb fd 89 85 bd e2 28 91 3d
       0.03541316 -0.0052438634 -0.0652046 0.07087876
000140 47 f6 e9 3c 42 25 ac bd 93 53 13 3d bc 6c cf bd
       0.028559817 -0.08405544 0.035968374 -0.10128161
000150 2f ce 3e bd ca 44 23 3d ab 87 84 3d 0a 61 1c bd
       -0.04658335 0.039860524 0.06471189 -0.03817848
000160 df 20 4d bd 46 64 2c 3d e7 dc 87 bb 44 3f 71 3c
       -0.050080176 0.042087816 -0.0041462067 0.014724556
000170 de 9d 1d 3a 5d fb d9 bb 3c 7a 17 bc 18 2b ac 3d
       0.0006012599 -0.0066522793 -0.009245452 0.08406657
000180 e1 1b 90 bd c2 7f bc bd 38 f2 4a 3d bf 4f 81 bd
       -0.070365675 -0.09204055 0.049547404 -0.063140385
000190 3f b5 24 3d cf c3 90 bb d3 c8 a0 3d 44 58 84 bd
       0.040211912 -0.0044178735 0.07850804 -0.06462148
0001a0 9b 21 b1 3c ba a9 a0 3d 1e 81 9e 3c 38 e0 09 bd
       0.02162247 0.07844873 0.019348677 -0.033661097
0001b0 47 43 11 bd ff 88 ed bc c1 cb 7b bd 9d c5 0f bb
       -0.03546455 -0.028995989 -0.06147361 -0.0021937855
0001c0 38 93 e9 bb 94 a9 a9 3c b2 a1 0c 3d a6 a7 74 bd
       -0.0071281455 0.020710744 0.034333892 -0.059730195
0001d0 41 88 c6 3c a3 03 ae bd bf d1 01 bd fa d9 98 bb
       0.024234893 -0.084967874 -0.03169417 -0.0046646567
0001e0 e2 52 34 3d 42 96 77 bc 08 70 94 bc a0 ba 01 3d
       0.044024356 -0.015111508 -0.018119827 0.03167212
0001f0 2f b5 58 bd 3a 9a 19 bc 2b 06 77 bd 61 4c 9f 3a
       -0.052907165 -0.009375149 -0.060308617 0.00121535
000200 b4 9a 4d bd 26 ff 90 bd 3d 83 c1 bc c9 40 5d 3c
       -0.050196365 -0.07079916 -0.02362215 0.0135042155
000210 e5 8d bf bc 4f f6 3f be 75 81 a1 bd 9f 92 6d bc
       -0.02338309 -0.18746303 -0.0788602 -0.014500289
000220 26 6c 85 bc a1 d4 50 bd 52 d0 b8 3b 9c 7d 9d 3c
       -0.01628692 -0.05098403 0.005640068 0.019224934
000230 6d 42 30 bd 65 fa 14 be ad dd 0e 3d 8d e6 62 bd
       -0.0430321 -0.14548643 0.034879375 -0.05539565
000240 4e 08 74 3e f6 58 2e be 8c e2 df 3d 61 97 a4 3b
       0.23831293 -0.17026123 0.10931882 0.0050229286
000250 98 94 8a 3b 1a 70 81 3c 8f 59 e1 3d 63 44 3c 3b
       0.0042291395 0.015800525 0.1100341 0.0028727285
000260 6c a1 6c 3e 80 c0 78 bd d8 95 e9 3d 9a 80 8e bc
       0.23108453 -0.060730457 0.114055336 -0.017395306
000270 5f b4 3f 3e ec 7a ad bd 61 c1 fd 3c ec 11 b4 bd
       0.1872115 -0.08470711 0.030976 -0.08792481
000280 4d 48 1d be a0 b8 d3 bd 3a 3a b6 3d c5 1f 4c bc
       -0.15359612 -0.10337949 0.088978246 -0.012458746
000290 39 74 1c bd 95 f8 b7 bc 71 0f 81 3d 73 90 6d 3d
       -0.038196776 -0.0224574 0.06301773 0.057999086
0002a0 67 f8 28 3e ba d9 36 be c1 a4 3c 3d 47 9a 5b 3d
       0.16501008 -0.17856494 0.04605556 0.053613927
0002b0 a7 d9 44 3e 05 7a 94 bd 9e 2c 2c bd 44 2b 7d 3c
       0.19223653 -0.07249836 -0.042034738 0.01545221
0002c0 52 50 4a be a0 47 ac bd 3a 08 cb 3d 28 fc 20 3d
       -0.19757202 -0.08412099 0.099136785 0.039302975
0002d0 82 5a 88 3b ae 16 05 3e 41 6e c5 bd ac 2e 64 bd
       0.00416118 0.12996933 -0.0964017 -0.055708572
0002e0 bb ad e6 bc a9 da 88 bd 2a f4 fd bd 86 36 9c be
       -0.028159013 -0.06682331 -0.12400086 -0.30510348
0002f0 45 be 28 be 1d 4a 79 3c 52 02 d4 be 19 78 18 bc
       -0.16478832 0.015215424 -0.4140802 -0.009305977
000300 b4 b3 81 3e 36 31 0e 3d 41 cd 98 be 0b f7 3b be
       0.25332415 0.0347149 -0.29844096 -0.18355958
000310 73 0b 5d bd ea 87 75 bd 5b c1 e5 bb 37 b0 83 be
       -0.053965997 -0.05994407 -0.007011575 -0.2572038
000320 11 6c 78 be cf 1f a2 bd f0 31 66 3d da 33 53 bd
       -0.24259974 -0.07916223 0.056199968 -0.05156312
000330 9b 7f 1e bd 27 b5 b3 bd 63 d6 0e 3d e6 57 a6 bd
       -0.038695913 -0.087747864 0.034872424 -0.08122234
000340 6b 4d c7 bd ae 1d 91 bd b8 00 df bd 04 75 2c bd
       -0.09731563 -0.07085739 -0.10888809 -0.042103782
000350 f4 d8 0f 3e 5f ad 12 be c3 2b 82 3d f1 e8 1e be
       0.14047605 -0.14323948 0.06356003 -0.15518548
000360 b1 20 91 be b0 27 d6 bd 78 f5 96 bd e8 7e 53 be
       -0.28345254 -0.104567885 -0.07371038 -0.2065388
000370 31 f5 86 bd 0d 2a c5 bc ff b5 bf bd 7b 32 88 be
       -0.06589735 -0.024067903 -0.09360885 -0.26601014
000380 a1 c0 b8 3d be cc 84 3c bb 1f 2a 3e a6 a2 6f 3d
       0.09021116 0.01621091 0.16613667 0.058504723
000390 df 9f bd bd 71 bc 7b 3d 9f 23 75 bd 0e cc be bd
       -0.092590086 0.06145901 -0.059848424 -0.09316264
0003a0 34 09 df bc b3 35 19 be e8 e4 43 be 2e 8e 8d bd
       -0.027226068 -0.14961891 -0.1913029 -0.06911884
0003b0 3a e6 74 bd c8 cd 9f bd 13 7f 54 3d e7 d7 02 3d
       -0.059789874 -0.078029215 0.051879 0.03194418
0003c0 3d 4a e5 3d 2e 77 b0 3d eb e8 0d bd 65 2e 72 bd
       0.111958005 0.08616482 -0.034645956 -0.059126277
0003d0 fe 58 07 3e 75 1e 18 3e 1e 35 22 bd 0a 45 d9 3d
       0.13217542 0.14855368 -0.039601438 0.10608871
0003e0 ac 86 14 bc 37 77 8e bd 65 c1 57 3e 49 3a 8d bd
       -0.009065311 -0.06956332 0.21069868 -0.06895883
0003f0 0d 93 1a bd 3d 28 1e be 22 88 f2 bd ee 85 ae 3d
       -0.037737895 -0.15445037 -0.118423715 0.08521639

linear1.bias f4 [128]
000000 06 1b 91 bc 53 71 0c bc a4 ed a8 3d 40 11 c5 bd
       -0.017713081 -0.0085719405 0.08248451 -0.09622431
000010 02 3c 4e 3d b4 32 fc 3c 90 4d 66 bd 00 b8 4b 3c
       0.050350197 0.030785896 -0.056226313 0.012434006
000020 23 7e d8 3b 25 3c 11 3d 87 5c 07 be fc 12 4a bc
       0.0066068335 0.03545775 -0.1321889 -0.012333628
000030 c8 33 7c 3d 0e b6 46 bc c8 61 63 3c 8f 1d 29 bb
       0.06157282 -0.012128366 0.013878293 -0.0025804972
000040 12 f6 8b 3b 6e df d9 3b 91 59 9f 3c 29 d0 22 3d
       0.004271277 0.0066489493 0.019451888 0.0397493
000050 a5 0d 91 3d b9 7a 03 3d 32 c7 b4 3b c7 71 2e 3c
       0.070826806 0.03209946 0.00551691 0.010647244
000060 bd 1f 86 bc 92 af 86 bd 2c 55 8a 3d 6b 3e 4d 3d
       -0.016372556 -0.06576456 0.067545265 0.050108355
000070 23 82 b1 3d 29 a1 59 bd e4 17 4b bd ab 5a 16 3e
       0.086674 -0.05313221 -0.04958333 0.14683025
000080 bb ea 97 3d ba 8c fc bc 60 01 57 3d bb 05 8d 3d
       0.07417818 -0.030828822 0.052491546 0.068858586
000090 32 4f b2 bd 8a b5 3d 3d 62 7f 87 3d 06 7a c2 3d
       -0.087065116 0.046315707 0.06616093 0.094959304
0000a0 76 dd 5b 3d f7 9a 9e bc e8 4f 81 bd c2 61 ac 3c
       0.053678 -0.019361002 -0.06314069 0.021042708
0000b0 22 18 42 3d e6 d7 dc bc 33 77 b7 bc d9 10 7d bd
       0.047386296 -0.026958417 -0.022395706 -0.061783645
0000c0 d9 1e 96 3d 3d 53 46 bd 8b 0a 89 3d 08 2d 42 3d
       0.073301025 -0.048419226 0.06691464 0.047406226
0000d0 11 d7 be 3c 7d a7 e9 bb 56 0a 7d bc 3f 6d 14 bc
       0.023295911 -0.007130562 -0.015444359 -0.009059249
0000e0 d1 fa 0e bd 9c 6c 29 3d bd 36 84 3d 3b 11 a0 3c
       -0.034907166 0.041363344 0.06455753 0.019539466
0000f0 2c 10 c6 bc c4 dd 3e 3d 10 9b e0 bd c9 16 28 bc
       -0.024177633 0.04659821 -0.10967076 -0.010259339
000100 6d 93 8c 3c 15 44 b6 3b 9f e8 d5 3d 88 62 8a 3d
       0.017160142 0.005562315 0.104447596 0.067570746
000110 0d 04 fe 3b 34 9c 88 bd ce 76 26 3c b1 78 72 3c
       0.0077519477 -0.066704184 0.010160161 0.014799283
000120 63 e5 6c bc 2f e2 ab 3c 1f 46 e3 bd 7e 91 c1 bb
       -0.014458987 0.020981876 -0.11097359 -0.0059072366
000130 9c ed 55 3d 7e c5 79 3d 5f 00 55 3d aa a9 93 bb
       0.052228555 0.06097936 0.052002307 -0.0045063095
000140 3a 69 12 bd b0 ad 11 bd d7 67 8d 3d f2 d7 d5 bc
       -0.035744883 -0.035566032 0.069045715 -0.026103947
000150 36 11 d6 bc 20 1e ad 3d 0b 24 7d 3c b6 87 af 3d
       -0.026131254 0.084530115 0.015450488 0.08570807
000160 12 95 a9 3d 3c 3d af 3d 66 5d d2 bc 6b 5c 37 3c
       0.08280386 0.085566014 -0.025679301 0.011191468
000170 b0 7f 90 3d 0b f8 15 3c 45 77 e0 bd e5 93 98 3a
       0.070556045 0.009153376 -0.10960249 0.0011640756
000180 c3 27 a6 bd 71 7c 58 3d d6 e9 fc bd cf 9e 2c be
       -0.08113053 0.05285305 -0.12349288 -0.16857456
000190 bc 23 93 3d 75 a1 90 3d 2d 2e 14 3c 61 64 47 bd
       0.0718455 0.070620455 0.009044212 -0.048679713
0001a0 3f c8 fa ba ee 51 a1 bd dd 71 b1 3c 61 27 9a 3d
       -0.0019133164 -0.07876955 0.02166074 0.07527042
0001b0 f2 14 af 3d 8e 72 24 bd 4d 9f 73 bc bf cb fa 3d
       0.08548917 -0.04014831 -0.014869523 0.12245893
0001c0 ed 5b 66 3b 02 7a 8d 3d ed fd c2 ba 47 29 11 bd
       0.0035150007 0.06908037 -0.0014876701 -0.035439756
0001d0 c3 fe 90 3d c3 b2 8f 3c e8 70 2a 3d 12 34 04 3e
       0.07079842 0.017541295 0.041611582 0.12910488
0001e0 ff 9c 93 bc b5 98 a1 bc b3 38 65 bd 9d 08 93 3d
       -0.018019198 -0.019726137 -0.055962276 0.07179377
0001f0 38 2a 91 bd c5 e0 be 3c 37 c9 c6 3d 1e 5c cc 3d
       -0.07088131 0.023300538 0.097063474 0.099785075

linear2.weight f4 [128, 128]
000000 76 8b 68 bd 65 4e a0 3d 47 52 43 bc 27 12 66 bd
       -0.056773625 0.078274526 -0.011921472 -0.056169655
000010 ff 41 0b 3e f1 ae 02 3e 7d 0c 30 b9 7b 52 fd 3c
       0.13599394 0.12762047 -0.0001678932 0.030923119
000020 1a f3 cf bc 19 0a 8e 3d 78 5e 12 bc 97 ad 58 3d
       -0.025384475 0.0693552 -0.008933656 0.052899923
000030 28 ec b5 3d 9d c9 87 3e 3b 29 8c 3d e6 a9 ef bd
       0.08882934 0.26521006 0.068438016 -0.117023274
000040 a1 ac c1 bd 60 90 b5 bb 76 fd 92 3d 34 3f 39 bd
       -0.094567545 -0.0055408925 0.0717725 -0.04522629
000050 74 c3 a8 3d f5 14 de bd 47 cb 80 3d 92 d0 66 3e
       0.08240405 -0.10843841 0.06288772 0.22540501
000060 e3 7f a4 3d bc 2f 1a bd 99 8f a4 bc 77 9b b2 bb
       0.08032205 -0.03764318 -0.020088004 -0.0054506618
000070 3f 20 d8 3d 32 8d 81 3b b8 a4 7d bd 85 5a 8b bd
       0.105530255 0.0039535994 -0.061924666 -0.068043746
000080 7b 1b ea 3d b7 b9 16 bd 38 ec 06 3d 36 58 72 bc
       0.11431023 -0.036798205 0.03294012 -0.014791539
000090 3e 8b 78 bd 28 95 58 bd cc f9 13 bd 70 c0 94 3d
       -0.060679667 -0.05287662 -0.036126897 0.07263267
0000a0 59 c2 15 3d 23 b5 3a bc ac d5 1a 3d 28 33 a0 3d
       0.036562297 -0.011395725 0.03780143 0.07822257
0000b0 21 cd 24 bd 22 f5 74 3d d0 53 ae 3d e3 66 b3 bd
       -0.04023469 0.05980409 0.0851208 -0.087598585
0000c0 03 2a a7 3d 83 de 4d bd 04 e9 c9 3d 7b 62 05 3e
       0.0816231 -0.05026103 0.09858897 0.13025849
0000d0 d3 ab 1f 3e 8b 11 c5 bd 43 df a1 bc 4a 22 b7 bd
       0.1559289 -0.09622487 -0.01975978 -0.08942087
0000e0 68 ab 22 bc 3c 1b 87 bd 3f ab 59 be 34 fb 5c 3c
       -0.009928562 -0.065969914 -0.21256731 0.013487626
0000f0 2f 69 93 3c 52 5f 38 bb 7b b2 1e 3e ed c6 c2 3d
       0.017994491 -0.0028132987 0.15497772 0.09510598
000100 88 f3 1c 3d a5 5b 29 3d 0d b9 88 3d f5 2f 64 3e
       0.038318187 0.041347165 0.06675921 0.22283919
000110 b3 8d 08 3d 4c 40 0f bc ec 99 93 3d 11 a6 ff bc
       0.03333826 -0.008743357 0.07207093 -0.031207116
000120 9d ca b7 bd 5e 03 25 3e b3 4a 44 3e 67 20 10 bd
       -0.08974192 0.16114566 0.1916912 -0.03518715
000130 33 55 89 bc e5 0d a2 3d 94 f5 af 3d 95 86 4e 3d
       -0.016764259 0.079128064 0.08591762 0.050421316
000140 a8 ff 88 be 33 aa bc 3d 0a 7e 81 bd 2c 94 93 bb
       -0.2675755 0.092121504 -0.06322868 -0.0045037474
000150 6b 2e e5 3d 95 4a 98 3c 48 f8 a3 bb ce 3c d5 3c
       0.11190494 0.018590251 -0.0050039627 0.02602997
000160 9c 09 04 3e 1b 68 e8 3d b8 97 39 bd ea 7f c9 39
       0.1289429 0.113479815 -0.045310706 0.0003843301
000170 21 77 07 3d a9 cc 8f bc a0 e2 da bd 05 b5 8c 3d
       0.033072595 -0.017553644 -0.106877565 0.06870464
000180 8f ef a2 bc b2 7f 93 bd 4c d8 8e 3d 97 53 d1 3e
       -0.019889621 -0.0720209 0.06974849 0.40884086
000190 b5 af 38 3d 79 21 a3 3d b7 00 6f 3d ca ee 20 3d
       0.045089442 0.07965369 0.05835029 0.039290227
0001a0 23 6d 90 3c 67 7d 29 3b 2d 40 f1 bd 9c 51 1f 3d
       0.017630165 0.00258621 -0.11779819 0.03889619
0001b0 cb 7f 20 3d 84 2e ed 3c 1f 14 27 bd 43 6f fe bd
       0.039184373 0.028952844 -0.040790673 -0.12423565
0001c0 fc 6b c9 bd c2 d7 9f bd 09 7a 7b bd 2d ba 1d bc
       -0.098350495 -0.078048244 -0.06139568 -0.009626907
0001d0 ad 1d c1 3c ad 93 4b 3d dc 54 3c bd 15 92 c7 bd
       0.02357372 0.04970138 -0.045979366 -0.0974466
0001e0 4c f1 c6 3c f6 f5 00 3d 17 0b 19 3e f9 ee ab 3c
       0.024284981 0.031484567 0.14945637 0.020987974
0001f0 ad 64 96 3d fc dc a6 bc 41 6f 75 3d 1e f5 b3 bc
       0.07343421 -0.020369045 0.059920553 -0.021967467
000200 db 67 1c 3d 27 39 d0 bc d0 00 11 bd cc 34 f9 3d
       0.03818498 -0.025417877 -0.035401165 0.12168273
000210 a6 97 f6 3d 59 a6 88 bb 97 1a ef 3c 9a b6 e5 3d
       0.120406434 -0.004170221 0.029187484 0.11216469
000220 77 59 82 3d 34 05 9e bd bb c7 be 3d 0d f9 a7 bd
       0.0636472 -0.07715836 0.09315439 -0.082017995
000230 05 f2 60 3d 4a 0a 44 3e 35 eb 89 3c 30 c3 3c bd
       0.054918308 0.1914455 0.016835788 -0.046084583
000240 4b 79 48 be 66 ec d4 bc 6a 48 a1 3b c3 af a1 3d
       -0.1957752 -0.02599163 0.0049219625 0.07894852
000250 72 c1 1b be ce cf 0f be d0 6c d6 bd 56 50 30 3e
       -0.15210512 -0.14044115 -0.10469973 0.17218146
000260 7c ee b4 bd 54 15 f1 3c bb 36 32 be ef 34 49 3b
       -0.0883455 0.029429115 -0.1740369 0.0030701717
000270 98 1b e2 3c 56 c9 95 be f8 d5 5c bd 7a 0b f7 bd
       0.027601048 -0.2925517 -0.053914994 -0.12062736
000280 ad 55 7a 3c 58 68 35 3a 60 36 1c bc 72 8e 34 bd
       0.015279216 0.00069201505 -0.009534448 -0.04408116
000290 8a 25 27 bc fc 63 80 bd 09 de 6e 3c 04 4d 46 3d
       -0.010201821 -0.062690705 0.0145793045 0.04841329
0002a0 cb 74 33 be 92 2e 99 bd 6b 71 99 3d 0a b0 b0 bc
       -0.17525022 -0.07479586 0.07492336 -0.021568317
0002b0 08 b2 93 bc 5f ca 1f 3d 43 a8 8f 3d 56 89 6b 3c
       -0.018029228 0.039011355 0.07014515 0.014376005
0002c0 0d d9 76 bc b3 8a f9 bc 49 11 88 3d eb 47 06 3d
       -0.015066397 -0.030461645 0.06643922 0.03278343
0002d0 38 a6 85 3e dd 9a ab 3c e6 ae 07 bc df 12 13 be
       0.26103377 0.020947868 -0.008281445 -0.14362668
0002e0 b7 7d 65 be 97 ee 53 bc 44 0e 86 be 79 21 03 be
       -0.22411238 -0.012935302 -0.2618276 -0.12805738
0002f0 9b f1 1a bd 19 4e bf b9 0f c4 1a 3e 4b 54 c6 bd
       -0.03782807 -0.00036488546 0.15113853 -0.09684046
000300 57 04 11 be af 9a e9 3d d8 4d a1 3d 8e 57 b0 3e
       -0.14161812 0.11406457 0.07876176 0.344418
000310 04 4a 71 bd ba 60 07 3d cd 9f 53 bd e9 f6 a0 bc
       -0.058908477 0.03305123 -0.05166607 -0.019648986
000320 16 b1 c9 bd b8 8a 4d 3d 3c 8e 06 3e c2 20 4a bd
       -0.098482296 0.05018112 0.13140196 -0.049347647
000330 05 82 1f 3e 4b 32 21 3c e8 98 7a 3d e5 ef ea bc
       0.15576942 0.009838651 0.06118098 -0.028678844
000340 28 fb 47 be cc be 52 bc b3 55 90 bd 92 57 8f 3d
       -0.19529402 -0.012862872 -0.07047596 0.069991246
000350 ee a9 6a bd aa 71 cc 3c a3 8b 16 be 92 eb ad 3c
       -0.057290964 0.024956543 -0.14701705 0.021230493
000360 8e cb 58 3c 0b 17 cb bd 5b 36 01 be 7d e0 be 3d
       0.013232125 -0.099165045 -0.12618391 0.093201615
000370 c1 af 3c bb 42 10 a8 3b d1 91 8a be 10 e2 68 3d
       -0.002879128 0.005128891 -0.27064374 0.056856215
000380 10 77 7b bd 6c 77 90 bc 9c 73 88 bc 14 03 90 3e
       -0.061392844 -0.01763507 -0.01665669 0.28127348
000390 b7 f8 f4 bb 58 df a0 3d a4 08 83 3d 83 bb d5 3b
       -0.007475938 0.078550994 0.063981324 0.0065225973
0003a0 d6 f6 34 bd 2f 15 8b 3d 3b fd 91 3b 12 ea 52 3d
       -0.044180714 0.0679115 0.0044552363 0.051492758
0003b0 82 45 11 3d 8b 7d 1d be 79 d0 cf bd 44 be f5 bd
       0.03546668 -0.15379922 -0.10147185 -0.11999181
0003c0 c2 3a 89 bd 1c 5d ac 3c af ae 18 bd f5 aa 40 3d
       -0.0670066 0.021040492 -0.037275966 0.047038037
0003d0 e5 ae a4 3d 72 b4 b6 3d 35 b1 b0 3d 87 62 da bd
       0.08041171 0.08921136 0.086275496 -0.10663324
0003e0 3c 8c d8 bd 46 6e b1 bd 3f 05 5a 3e 7e 6b 03 3e
       -0.105736226 -0.08663611 0.21291064 0.12833974
0003f0 b0 44 b3 3c 42 65 76 3d 35 55 88 bd af 4d 09 3d
       0.021883339 0.06015516 -0.06656877 0.03352135

linear2.bias f4 [128]
000000 c5 20 b9 bc 60 62 05 3d 8a 58 b5 3d b0 bb 4b bc
       -0.022598634 0.03256452 0.08854778 -0.012434885
000010 ac 2d 3e 3d e7 7f 2e 3d 22 8c 1f bc 2f 12 ce 3b
       0.046430275 0.042602446 -0.009738 0.0062887887
000020 9d 40 82 3d 4c 21 5b 3a 4d e9 b7 3d c7 07 79 3c
       0.0635998 0.00083591486 0.089800455 0.015199608
000030 f5 20 e9 bc ef 82 8b bc 17 3f 87 3d e3 77 47 bd
       -0.028458098 -0.017030207 0.0660383 -0.048698317
000040 90 4e 91 bc b4 f3 8f 3d 25 6d 5f bd 93 22 33 3d
       -0.017737657 0.070289046 -0.054547448 0.043734144
000050 32 f9 3d bb c3 b4 cf bc 4a f5 e3 3c e6 0c 0e 3d
       -0.0028987643 -0.025354749 0.027826924 0.03468027
000060 29 a8 0b bd b7 10 f1 3c 5c 95 0e bd f4 15 80 bc
       -0.034095917 0.029426916 -0.03481041 -0.015635468
000070 a1 6e 84 bc 45 69 bf bd c6 20 8c 3d 18 0a 78 3d
       -0.016166033 -0.093462504 0.068421885 0.0605565
000080 ca b6 43 bd ab 14 96 3d 93 69 ac 3d 0a a4 0e bb
       -0.047781743 0.07328161 0.08418574 -0.0021765255
000090 ad 75 7d bc 1a 2d 9e 3c f2 f5 4a 3d b8 32 79 3d
       -0.015469951 0.019308615 0.049550958 0.060839385
0000a0 8d 05 e0 3d 98 ab 06 3d c7 d4 13 bd 07 27 db bd
       0.10938559 0.03287849 -0.036091592 -0.10700803
0000b0 0a a2 05 3d 9c be 58 3d e6 7b 5f 3c bd 8d 57 3d
       0.032625236 0.052916154 0.0136403795 0.052625407
0000c0 d7 c8 83 3c bf f7 aa bd f1 e2 07 3b 70 65 69 3d
       0.016086979 -0.08348035 0.0020734633 0.056981504
0000d0 f0 40 a0 bd dd 01 dd bc c5 74 64 bd e8 e1 c9 3c
       -0.07824886 -0.026978428 -0.055775423 0.024643853
0000e0 54 ba 06 bd d2 83 8d 3d d1 29 25 3c d8 5c 62 3c
       -0.03289254 0.06909908 0.010080771 0.013816081
0000f0 eb 66 aa 3b 1d 85 0c bd 9f 01 48 3d 34 ee 87 bd
       0.005200257 -0.034306634 0.04882967 -0.066372305
000100 c5 64 a2 3d e6 e0 45 bd 31 52 b2 3d 85 b4 88 3c
       0.079293765 -0.048310183 0.08707083 0.01668764
000110 89 70 21 bd e9 b4 70 bd a2 3c a7 bc 2a e0 1f bd
       -0.039413963 -0.05876628 -0.020414654 -0.03903214
000120 96 7c 13 bd 0c 5f 0b bd e6 c1 3d 3d 72 52 c1 3d
       -0.036007486 -0.03402619 0.046327494 0.09439553
000130 d8 7f 81 bd 02 91 36 3d 09 5d 31 bc 71 5a 35 bd
       -0.063232124 0.044571884 -0.010825404 -0.044275705
000140 97 c3 59 bd d0 04 91 bd a2 23 57 bd 60 c5 c1 bc
       -0.053165045 -0.07080996 -0.052524216 -0.023653686
000150 b8 bb 6a 3d b7 e2 b2 37 c7 f8 fd 3c 57 cb 5c bd
       0.05730793 2.1324826e-05 0.031002415 -0.053904857
000160 05 0e ad 3d 77 dd 87 3c 30 99 d5 3d d0 4b 7b bd
       0.0844994 0.016585095 0.10429609 -0.061351597
000170 63 91 93 b9 5f 26 3c 3c ad 98 9a 3d 32 47 a2 3d
       -0.00028146346 0.011483758 0.07548652 0.07923736
000180 1d 08 7a bd 4f c0 ab bc 83 9d b0 3c 1d 7e be bb
       -0.061042894 -0.020965723 0.021559482 -0.0058133737
000190 47 a8 81 bd 28 0f a2 bc ed 3b f6 bb 2b eb 13 3d
       -0.063309245 -0.019782618 -0.007514468 0.036112946
0001a0 e2 d3 93 3c e0 55 b1 3d 08 e9 44 3d e0 78 1d 3d
       0.01804537 0.086589575 0.0480738 0.038445354
0001b0 d0 0c 88 3c 73 36 82 bd fe 38 d9 bc aa 33 86 3d
       0.016607672 -0.063580416 -0.026516434 0.06552823
0001c0 30 27 05 bc cc 00 f7 bd 7d 33 39 3d af f2 1c 3b
       -0.008127019 -0.12060699 0.04521512 0.0023948362
0001d0 f1 5f df 3d 68 24 23 3d 93 b0 70 bd e6 cd 9e 3c
       0.10906971 0.03982964 -0.058762144 0.01938529
0001e0 81 14 81 3d 64 4c 98 3d f4 4a f4 3c d0 05 81 3d
       0.06302739 0.07436445 0.029820897 0.06299937
0001f0 9a 04 19 bb 03 76 05 3c 55 ce 71 3d f1 63 a8 3b
       -0.002334869 0.008145812 0.059034664 0.005138867

linear3.weight f4 [4, 128]
000000 0f be 22 be 95 80 60 be 76 90 14 be ce 72 05 be
       -0.15892814 -0.2192405 -0.14508232 -0.13032076
000010 48 55 3d be 11 0b 22 bd 3e 2d d2 bd 3b 79 82 bd
       -0.18489563 -0.039561335 -0.102625355 -0.06370779
000020 d2 42 0f 3e 6a ae 7d 3d 11 bc 15 3e c5 81 29 bf
       0.13990334 0.061933912 0.14622523 -0.6621364
000030 d3 03 ba bd f3 95 c5 bc 9c c2 75 b9 2f 0a c1 bf
       -0.09082761 -0.024119353 -0.00023437518 -1.5081233
000040 60 82 8e 3b db 1f 7c bd ef 6a 38 be c4 80 db bd
       0.004349038 -0.061553817 -0.18009542 -0.107179195
000050 47 b4 b5 bd 7f 3a 7c 3d 11 ca 34 3e b5 35 a7 bd
       -0.08872276 0.061579224 0.17655207 -0.08164541
000060 aa e9 5b 3d f8 8f 95 be 38 aa 1c 3e d8 29 2f bd
       0.053689636 -0.29211402 0.15299308 -0.042764515
000070 52 f7 9d bc 24 ec 3a bc 1a 9c 88 3d 83 b7 5a bd
       -0.01928297 -0.011408839 0.06670399 -0.053397667
000080 43 fd ce bd e2 2e 82 3f a9 62 ce bc f6 7d 5d be
       -0.101068996 1.0170557 -0.02519353 -0.21630082
000090 79 8a 20 3d c8 d8 19 bb 42 2a e3 3d e8 e8 2f 3d
       0.039194558 -0.002347516 0.110920444 0.042946726
0000a0 62 b2 a2 bd d3 8f 26 3e 93 07 b3 bd 7f 96 77 3e
       -0.0794418 0.16265802 -0.08741679 0.24178503
0000b0 ff f7 12 bd e4 5c ab 3d e2 8f e5 3d a1 f6 b1 bd
       -0.03588104 0.08367327 0.11209084 -0.08689619
0000c0 04 e7 b1 bc 7c bf a1 bd 7a a0 ca bc 38 77 26 bd
       -0.021716602 -0.07897851 -0.024734724 -0.04064104
0000d0 04 26 09 3e f1 ba 0b bd 29 ce 13 3c 90 0f 68 bd
       0.13393408 -0.034113828 0.00902132 -0.056655467
0000e0 1d 79 2e bf d5 d8 c4 3e 58 28 b3 3d 78 fa f2 3d
       -0.68153554 0.3844668 0.08747929 0.118641794
0000f0 a9 68 95 bd 9c da 9c 3d 47 86 9f 3b bc f9 e0 bd
       -0.07295353 0.07658884 0.004868302 -0.10985133
000100 7b 2a ca bd 88 bf f0 bd f5 f7 07 3d c1 ec d8 3d
       -0.09871384 -0.11755282 0.033195455 0.10592032
000110 b1 b6 8c bd 7a 23 12 3d c1 22 36 bd 84 b2 07 3e
       -0.06870783 0.035678364 -0.044466738 0.13251692
000120 eb 40 ea bd 04 d9 63 3d f3 1b 90 bd 20 f4 a4 bd
       -0.11438163 0.055626884 -0.07036581 -0.08054376
000130 7d 20 7b 3d 99 b9 35 bb 2e 73 a9 3d ab cc 84 3d
       0.06131028 -0.0027729033 0.08273922 0.0648435
000140 30 65 c1 bc e6 51 c3 bd bc 2f 3e 3c 57 c9 08 be
       -0.02360782 -0.09537105 0.01160806 -0.13358055
000150 23 29 3e 3d be 2a 80 bc 84 d1 fe 3d 88 a9 3c bf
       0.04642595 -0.015645381 0.12442306 -0.73696184
000160 14 b5 4b bd 87 cf 24 3d de 65 c1 bc ef 60 56 bd
       -0.049733236 0.040236976 -0.023608144 -0.052338537
000170 1d e6 3b 3e e4 16 d4 ba b1 be ce 3d 10 ed 97 bc
       0.183495 -0.0016181138 0.10094965 -0.018545657
000180 c7 76 11 be ec 7c aa 3e af 89 d6 3d 72 3d 50 3e
       -0.14205466 0.33298433 0.1047548 0.2033594
000190 f0 2b ae bd 38 c0 26 3e 76 05 1a 3d e6 d3 40 3d
       -0.08504474 0.16284263 0.037602864 0.047077082
0001a0 17 8c 2a 3d d5 6a d9 3d 9d ad 06 bd 17 9e c2 3d
       0.041637506 0.1061608 -0.032880414 0.095028095
0001b0 cc 6c d4 3c 01 7a 07 bd af 5e f0 3d 2a 32 01 3e
       0.025930785 -0.033075336 0.117368095 0.12616792
0001c0 41 2e 8a bd 74 36 f3 3d 81 c1 e0 3d b3 5c 3e bd
       -0.067471035 0.118756205 0.10974408 -0.046475124
0001d0 24 bb 64 3d 3f 67 4b 3e 31 91 a4 3d 33 33 49 3d
       0.055842534 0.19863604 0.080355056 0.049121093
0001e0 8f 0d 63 3d 29 6f ce 3e 68 87 c1 bd 9e 3d 46 bc
       0.055432852 0.40319183 -0.09449655 -0.012099652
0001f0 ec f3 ef bd aa f9 5a 3d e7 ed 7f bd c3 ac 46 3d
       -0.11716446 0.053460754 -0.06248274 0.048504602
000200 3d 87 a2 3d 62 ef 1c 3e 11 f3 fa 3d 27 5f 13 3c
       0.07935951 0.15325692 0.122533925 0.008994854
000210 a4 eb 52 3e 1d 51 76 3d 1f d7 04 3e 86 e4 d5 3d
       0.20597702 0.06013595 0.12972687 0.10443978
000220 3b f6 b8 bd 98 09 71 3d 1a 54 a5 bd 81 a8 24 be
       -0.0903134 0.05884704 -0.08072682 -0.16079904
000230 71 b3 7e bd 67 44 46 bc ab 86 63 be b0 dd eb 3d
       -0.062182847 -0.012101269 -0.2221934 0.11516893
000240 b7 f6 ea bc 10 1f a3 3e 90 60 13 3e 0b ee e1 3c
       -0.028682096 0.31859636 0.14392304 0.027579328
000250 7f 62 da bc 75 39 50 bd 7a fe d7 bc 3d 1b ac bd
       -0.026658295 -0.050836045 -0.026366461 -0.08403633
000260 10 2c c0 be 00 0d 93 bd f7 93 ca bd d6 6b 21 3e
       -0.37533617 -0.07180214 -0.09891503 0.15763792
000270 7c 70 2d 3d 99 ae de bc 65 bb 7d 3d 08 c2 1b bd
       0.0423436 -0.027182864 0.06194629 -0.03802684
000280 2d 10 7d 3c 9b 30 fd 3d b1 48 37 3e b2 49 a4 3d
       0.015445751 0.123627864 0.17898823 0.08021869
000290 0f 3a 7b 3d f2 e2 a1 3d 4b 5f 33 bc 31 aa ae 37
       0.061334666 0.079046145 -0.010948013 2.0821668e-05
0002a0 d1 3f 28 3a 09 61 b3 bd 86 a7 7a 3e 10 7d 1e bd
       0.0006418201 -0.08758742 0.24477968 -0.038693488
0002b0 15 e1 9a 3c c2 63 74 3c 4b 7c 05 3f 86 e6 d9 bd
       0.018906156 0.014916362 0.5214278 -0.10639672
0002c0 3e f1 7a 3b fa 0a e2 ba c8 b2 f6 bd fc 38 94 bd
       0.0038290764 -0.0017245703 -0.120458186 -0.072374314
0002d0 d8 90 08 3e 0b 9f ad bc 50 f6 31 bc 23 8d ee 3e
       0.13336504 -0.021194002 -0.010861948 0.46592054
0002e0 88 95 a2 3b a5 30 e1 bb a6 c3 cd 3d 6c f5 e2 3d
       0.004961673 -0.006872254 0.100470826 0.11081967
0002f0 0c 40 4f 3c 71 de 42 bc 8a 3a a1 bd a2 34 46 3d
       0.012649547 -0.0118938545 -0.078724936 0.04839004
000300 b7 34 13 bd 91 45 93 3d 42 44 ad 3e 9d 34 91 be
       -0.035938945 0.07191003 0.3384114 -0.28360453
000310 47 b9 7e 3e bf 0a ea 3d b2 d7 ef bc 72 7e ac 3d
       0.24875365 0.11427831 -0.029277656 0.08422555
000320 b6 65 ac 3e 14 7b 58 3d 8c cf 9b 3c c1 98 bd 3d
       0.3367135 0.05285175 0.019019864 0.09257651
000330 2b 94 0c 3e 91 05 47 3e df c3 8d bd f2 5d 92 3d
       0.13728397 0.19435717 -0.06922125 0.07146825
000340 0b 90 97 3d b7 57 a9 bc 49 fd af 3d f1 9f c7 bd
       0.07400521 -0.020671709 0.08593232 -0.09747303
000350 a7 80 6f 3b cf a4 4f 3e f9 ff 36 3e dd cd 3c 3e
       0.0036545189 0.20277713 0.17871083 0.18437906
000360 08 3d 66 bd 4b bb 88 3e 1d 1a d1 bd aa b4 95 3e
       -0.056210548 0.26705393 -0.10210059 0.29239398
000370 d5 e5 26 3e e8 a5 bd 3d 3b 93 5d bd b9 03 82 3e
       0.16298611 0.0926016 -0.054095488 0.25393465
000380 68 a6 dc 3c 90 48 a9 3d e4 00 db 3d 05 e3 5e 3e
       0.026934817 0.08265793 0.10693529 0.21766289
000390 07 4e 18 bd 02 c0 b6 bc a2 a8 3e bc 31 40 8e 3d
       -0.037183788 -0.022308353 -0.011636885 0.06945837
0003a0 93 b3 22 bd d9 75 6b bc 9c 56 80 be 24 90 43 3e
       -0.039722037 -0.014371359 -0.25066078 0.19097954
0003b0 d0 e4 e2 3d c5 50 0a 3e 3f 99 7e 3e 3e 20 87 be
       0.11078799 0.13507374 0.24863146 -0.26391786
0003c0 0d 26 a6 3b a7 3b a8 bd 03 44 0d be 1c 71 01 3d
       0.005070454 -0.08214503 -0.13795476 0.03160201
0003d0 d3 3d 1e bd 94 98 5d 3e 64 ab 72 bd 83 f7 94 bd
       -0.03863318 0.21640235 -0.059245482 -0.072737716
0003e0 cc 28 59 bd 8d 0e 98 3c 4d ea ea 3d e0 92 5e 3d
       -0.053017423 0.018561626 0.114704706 0.05433929
0003f0 71 7b ac 3e 09 e0 29 3e 54 5f e6 bd 29 38 c6 3d
       0.33687928 0.16589369 -0.11248651 0.096786804

linear3.bias f4 [4]
000000 3f d3 31 3d b5 e3 83 3c 8d 30 2c bd 20 6d 07 be
       0.04341435 0.01609979 -0.04203849 -0.13225222

bn1.weight f4 [128]
000000 6a c9 99 3f 0e a9 92 3f 16 58 88 3f 22 cb 97 3f
       1.2014592 1.1457841 1.0651882 1.1858866
000010 cd 78 9b 3f 67 50 89 3f 4b 79 84 3f 85 ef 8b 3f
       1.214624 1.0727662 1.0349516 1.093247
000020 89 4d af 3f e9 21 92 3f ed 33 95 3f bb a7 b3 3f
       1.3695537 1.1416599 1.1656471 1.4035562
000030 b8 64 84 3f 5f b9 9a 3f b1 ef 94 3f 31 37 b0 3f
       1.0343237 1.2087821 1.1635648 1.3766843
000040 c3 b0 8e 3f 51 f4 90 3f 80 b1 9c 3f 08 6e 88 3f
       1.1147693 1.132456 1.2241669 1.0658579
000050 47 ae 8d 3f 2c ed 8f 3f 15 96 90 3f 5b 2c 88 3f
       1.106881 1.1244254 1.1295801 1.0638536
000060 44 52 a1 3f 4f 0c 8a 3f a0 80 8c 3f a6 61 92 3f
       1.260323 1.0785006 1.0976753 1.143605
000070 e8 89 91 3f bb be b4 3f 91 17 9c 3f 32 42 8d 3f
       1.1370211 1.4120706 1.2194692 1.1035826
000080 2a f6 89 3f 37 8a 93 3f 77 16 8b 3f cf 40 98 3f
       1.0778248 1.1526555 1.0866231 1.1894778
000090 3d f8 82 3f b2 b7 88 3f d0 4e 9f 3f 95 0e 89 3f
       1.0232006 1.0681059 1.2445927 1.0707575
0000a0 55 50 9d 3f b8 88 92 3f fb da a5 3f 5c 8c 9e 3f
       1.229014 1.1447973 1.2957453 1.2386584
0000b0 68 1f 95 3f 92 78 8e 3f 36 b6 a6 3f bb 80 95 3f
       1.165021 1.1130545 1.3024356 1.167991
0000c0 5a a0 91 3f 20 e5 8e 3f c3 d6 86 3f 1d 26 86 3f
       1.137706 1.1163673 1.053429 1.0480381
0000d0 12 86 8d 3f e4 35 9e 3f fd 7d 8d 3f c4 e4 94 3f
       1.105654 1.2360196 1.1054074 1.1632314
0000e0 98 20 af 3f 53 a9 94 3f 2e 51 89 3f 4b 22 8f 3f
       1.3681822 1.1614174 1.0727899 1.118234
0000f0 6c 95 86 3f 17 8f 8a 3f 5b aa 97 3f 3a b9 8c 3f
       1.051435 1.0824918 1.1848863 1.0994027
000100 cb cc 92 3f 42 e6 87 3f f1 33 91 3f 0b f0 a3 3f
       1.1468748 1.0617144 1.1343976 1.280763
000110 c8 20 8a 3f 24 3a 8a 3f 63 28 87 3f b4 6f 8b 3f
       1.0791254 1.0798993 1.05592 1.0893464
000120 21 d9 89 3f fc 82 8e 3f 17 51 a1 3f 2e 26 8b 3f
       1.0769387 1.1133723 1.2602872 1.0871027
000130 02 a2 8d 3f 2a db 8c 3f df 4d 85 3f 2c 00 83 3f
       1.1065066 1.1004384 1.0414389 1.0234427
000140 06 50 8c 3f b5 6b 89 3f 54 b9 83 3f 1f b4 83 3f
       1.0961921 1.0735995 1.0290933 1.0289344
000150 37 89 89 3f a4 39 8c 3f 3f 61 91 3f 8f e0 96 3f
       1.0745 1.095509 1.1357802 1.178728
000160 39 2d 88 3f f7 e1 88 3f 1a bc 8f 3f da 8d 86 3f
       1.0638801 1.0693959 1.1229279 1.051204
000170 c1 11 9b 3f 11 6c 85 3f 51 db 81 3f 4d 59 8b 3f
       1.2114793 1.0423604 1.0145055 1.0886627
000180 a2 36 8c 3f 38 a2 93 3f 7f 95 9a 3f 2b 74 bb 3f
       1.0954173 1.153388 1.2076873 1.4644827
000190 b5 41 85 3f e2 24 8e 3f ac 87 81 3f 4b e4 9a 3f
       1.0410677 1.1105006 1.0119529 1.210092
0001a0 2b dd 8e 3f 24 02 ab 3f 0b 3e 9e 3f 66 53 89 3f
       1.1161245 1.3360028 1.2362684 1.0728576
0001b0 b0 c4 86 3f fe 2a 8b 3f 7d 81 8a 3f 37 44 8f 3f
       1.0528774 1.0872495 1.0820767 1.1192693
0001c0 25 73 9b 3f 19 bc 9f 3f 4c 3c 8c 3f 68 2a 8a 3f
       1.2144514 1.2479278 1.0955901 1.0794191
0001d0 29 8c 8c 3f cf c7 8e 3f d2 fb 88 3f 4c 1b 94 3f
       1.0980273 1.1154727 1.070185 1.157083
0001e0 5c c5 8c 3f cb 95 8c 3f ed 4e 8b 3f 29 c6 8b 3f
       1.0997729 1.0983213 1.0883461 1.0919849
0001f0 90 98 88 3f 51 b0 8b 3f ea 5f 87 3f 8e 23 8c 3f
       1.0671558 1.0913182 1.0576146 1.094835

bn1.bias f4 [128]
000000 53 00 01 bc c7 26 d4 bc 18 6e 02 ba 42 ec 74 3d
       -0.007873612 -0.025897397 -0.00049755117 0.059795626
000010 ec fa 2e 3c c0 20 a5 3d ca 3b 1e 3d f0 27 5a 3d
       0.010679942 0.08062887 0.038631238 0.053260744
000020 26 af b4 3a f5 ee 66 3c e6 6e 53 3d d8 7d 10 bd
       0.0013785108 0.014095058 0.051619433 -0.035276264
000030 f4 30 38 3d 1e 36 1d bd d6 8c d6 3d 7b a7 59 bd
       0.04496856 -0.03838169 0.10476081 -0.053138237
000040 b5 58 30 bc a6 c5 93 bc ca f0 2e bd ff 85 2f 3d
       -0.010763337 -0.018038582 -0.042710103 0.042852398
000050 f7 88 92 bd b9 a8 05 3d 5a b3 77 ba e2 6f 7f bb
       -0.0715503 0.03263161 -0.0009449028 -0.00389766
000060 62 12 21 bd 2c d9 e1 39 0a 13 00 3c 37 72 8c bd
       -0.03932417 0.0004307715 0.007817039 -0.06857722
000070 c9 bd 0f bd 9c e6 73 bd e0 b5 60 bd 57 ed 85 3c
       -0.035093103 -0.059546098 -0.05486095 0.016348524
000080 18 24 5e 3d e9 24 81 3d af 46 16 3d 5b 19 3c 3d
       0.05423364 0.06305868 0.036688503 0.04592262
000090 ed 4a 81 bb 85 b9 6c 3d 27 75 bb 3c e7 1d a3 3c
       -0.0039456994 0.057794113 0.022883011 0.01991172
0000a0 0b 07 ba 3c cb 0b bb 3c f2 ff b1 3b 30 69 97 3d
       0.022708436 0.022832772 0.0054321224 0.0739311
0000b0 13 7e 34 bd 7c 0f fe bc 9c 2e 2c 3d 14 75 53 bd
       -0.044065546 -0.031013243 0.042036638 -0.051625326
0000c0 8e fe c2 3b d3 24 77 bc 51 dc 21 bc cf 63 b4 3c
       0.0059507554 -0.015084463 -0.009879188 0.022020249
0000d0 8b 99 6a 3c 47 62 6e bc 3d 60 e4 3c 86 dc 48 bc
       0.014318834 -0.014549798 0.027877921 -0.012259608
0000e0 1a 18 10 bd 36 a5 11 bc b5 9f 1c 3d 62 a2 1a 3d
       -0.035179235 -0.008889487 0.038238246 0.037752517
0000f0 96 7a b1 3c d0 c1 db bc f3 fe be bb 3b 1f 5e bc
       0.021664899 -0.026825815 -0.005828732 -0.013557251
000100 d7 c8 8d 3c 67 96 d2 3c 07 d3 02 3d 26 29 a2 3d
       0.017307682 0.025706483 0.031939533 0.07918005
000110 b3 66 a4 bc 7e be 8a ba f4 c7 a8 3d 1b 0c 94 3d
       -0.020068502 -0.0010585336 0.08241263 0.072288714
000120 eb bc 66 3c 9e ba 7b bc d6 12 43 bd 68 b7 e3 3c
       0.0140831275 -0.015364317 -0.047625385 0.027797416
000130 b8 cf 2a bd b6 c8 ea 3c 57 5d 46 bd 7a 29 93 3c
       -0.041702002 0.02866016 -0.04842886 0.017964114
000140 05 d5 39 3c 58 74 8e 3d 8d 8a c5 3c 29 d0 43 bc
       0.011342292 0.069557846 0.024113918 -0.011951485
000150 5c 6b 5d bd 37 76 a7 3d aa cf a6 3d 94 eb 7e ba
       -0.054057464 0.081768446 0.081450775 -0.0009724435
000160 5a 32 82 3d f4 83 d5 3c 2a d0 a6 3c d4 2d 3a ba
       0.0635726 0.026063897 0.020362932 -0.0007102166
000170 8a c8 8f 3c 28 09 39 3c dd 78 a7 bb 8e b2 a4 3c
       0.01755168 0.011293687 -0.0051108436 0.020104673
000180 86 1e 19 bd 8e ad 8e bd 5e ca 93 bd 03 5a b6 bd
       -0.037382625 -0.06966697 -0.07216333 -0.08903887
000190 cb fb 12 3d cf 35 94 3d f2 ad 38 bd 89 93 da ba
       0.03588466 0.07236826 -0.045087762 -0.0016676049
0001a0 69 fe 9b 3d eb 48 87 bc 89 8a c4 3d a5 d9 b4 3c
       0.07616884 -0.016514262 0.09596736 0.022076437
0001b0 07 45 74 3d 6d 74 4e 3c 6f 0e 3c 3d f1 97 ad 3c
       0.059636142 0.012601 0.045912202 0.021190615
0001c0 ae ec 98 3d f8 0e dc bc f1 43 01 3d 64 df 29 bd
       0.07467018 -0.026862606 0.031558935 -0.041472808
0001d0 0d 62 b2 3d 21 09 38 bd e5 18 6d 3d a1 c1 94 3a
       0.08710108 -0.04493058 0.05788507 0.001134921
0001e0 ef 6f 26 bd 59 70 14 bd ae 28 5f bd b9 21 d1 3c
       -0.040634092 -0.036239956 -0.054482155 0.025528776
0001f0 d0 04 be bc 45 5d 71 3d 61 1f de 3c 85 ad 8e 3c
       -0.023195654 0.05892684 0.027114572 0.017416725

bn1.running_mean f4 [128]
000000 00 00 00 00 00 00 00 00 00 00 00 00 00 00 00 00
       0.0 0.0 0.0 0.0
000010 00 00 00 00 00 00 00 00 00 00 00 00 00 00 00 00
       0.0 0.0 0.0 0.0
000020 00 00 00 00 00 00 00 00 00 00 00 00 00 00 00 00
       0.0 0.0 0.0 0.0
000030 00 00 00 00 00 00 00 00 00 00 00 00 00 00 00 00
       0.0 0.0 0.0 0.0
000040 00 00 00 00 00 00 00 00 00 00 00 00 00 00 00 00
       0.0 0.0 0.0 0.0
000050 00 00 00 00 00 00 00 00 00 00 00 00 00 00 00 00
       0.0 0.0 0.0 0.0
000060 00 00 00 00 00 00 00 00 00 00 00 00 00 00 00 00
       0.0 0.0 0.0 0.0
000070 00 00 00 00 00 00 00 00 00 00 00 00 00 00 00 00
       0.0 0.0 0.0 0.0
000080 00 00 00 00 00 00 00 00 00 00 00 00 00 00 00 00
       0.0 0.0 0.0 0.0
000090 00 00 00 00 00 00 00 00 00 00 00 00 00 00 00 00
       0.0 0.0 0.0 0.0
0000a0 00 00 00 00 00 00 00 00 00 00 00 00 00 00 00 00
       0.0 0.0 0.0 0.0
0000b0 00 00 00 00 00 00 00 00 00 00 00 00 00 00 00 00
       0.0 0.0 0.0 0.0
0000c0 00 00 00 00 00 00 00 00 00 00 00 00 00 00 00 00
       0.0 0.0 0.0 0.0
0000d0 00 00 00 00 00 00 00 00 00 00 00 00 00 00 00 00
       0.0 0.0 0.0 0.0
0000e0 00 00 00 00 00 00 00 00 00 00 00 00 00 00 00 00
       0.0 0.0 0.0 0.0
0000f0 00 00 00 00 00 00 00 00 00 00 00 00 00 00 00 00
       0.0 0.0 0.0 0.0
000100 00 00 00 00 00 00 00 00 00 00 00 00 00 00 00 00
       0.0 0.0 0.0 0.0
000110 00 00 00 00 00 00 00 00 00 00 00 00 00 00 00 00
       0.0 0.0 0.0 0.0
000120 00 00 00 00 00 00 00 00 00 00 00 00 00 00 00 00
       0.0 0.0 0.0 0.0
000130 00 00 00 00 00 00 00 00 00 00 00 00 00 00 00 00
       0.0 0.0 0.0 0.0
000140 00 00 00 00 00 00 00 00 00 00 00 00 00 00 00 00
       0.0 0.0 0.0 0.0
000150 00 00 00 00 00 00 00 00 00 00 00 00 00 00 00 00
       0.0 0.0 0.0 0.0
000160 00 00 00 00 00 00 00 00 00 00 00 00 00 00 00 00
       0.0 0.0 0.0 0.0
000170 00 00 00 00 00 00 00 00 00 00 00 00 00 00 00 00
       0.0 0.0 0.0 0.0
000180 00 00 00 00 00 00 00 00 00 00 00 00 00 00 00 00
       0.0 0.0 0.0 0.0
000190 00 00 00 00 00 00 00 00 00 00 00 00 00 00 00 00
       0.0 0.0 0.0 0.0
0001a0 00 00 00 00 00 00 00 00 00 00 00 00 00 00 00 00
       0.0 0.0 0.0 0.0
0001b0 00 00 00 00 00 00 00 00 00 00 00 00 00 00 00 00
       0.0 0.0 0.0 0.0
0001c0 00 00 00 00 00 00 00 00 00 00 00 00 00 00 00 00
       0.0 0.0 0.0 0.0
0001d0 00 00 00 00 00 00 00 00 00 00 00 00 00 00 00 00
       0.0 0.0 0.0 0.0
0001e0 00 00 00 00 00 00 00 00 00 00 00 00 00 00 00 00
       0.0 0.0 0.0 0.0
0001f0 00 00 00 00 00 00 00 00 00 00 00 00 00 00 00 00
       0.0 0.0 0.0 0.0
