src/scripts/model/resnet64_20hz_sf0.5_3state/actor.pth (torch, 40015 bytes, 8 tensors)

linear0.weight f4 [64, 12]
0	0xbdc1ff34	-0.09472504
1	0xbee3694a	-0.44416267
2	0xbe22e33b	-0.15906994
3	0xbe0b94e1	-0.13631012
4	0x3e57e2b8	0.2108258
5	0xbecf6968	-0.40510106
6	0x3e6d5999	0.2317871
7	0xbe323ff7	-0.17407213
8	0x3e4f227c	0.20227998
9	0xbf024e26	-0.50900495
10	0x3e6f73cb	0.23384015
11	0x3ddcd9f4	0.10783759
12	0xbe646dae	-0.22307464
13	0x3c5e7f85	0.013580208
14	0xbe8e95b5	-0.27848592
15	0xbdbe6d9a	-0.092982486
16	0xbe176883	-0.14785962
17	0x3d8ba4d5	0.068185486
18	0xbe058353	-0.13038377
19	0x3cd07e4c	0.025450848
20	0x3e17bec7	0.1481887
21	0x3eed5228	0.46351743
22	0xbe6b4e8e	-0.22979185
23	0x3e669acf	0.22519992
24	0xbeb805a5	-0.35941806
25	0x3eb355cf	0.35026404
26	0xbdcb31f4	-0.09921637
27	0xbd252b0c	-0.040324256
28	0xbe5bc52c	-0.21461934
29	0x3d901308	0.0703488
30	0xbe56c491	-0.20973422
31	0x3de767e1	0.1129911
32	0xbd2fda0d	-0.04293256
33	0x3b6e74ea	0.0036385604
34	0xbe5cd222	-0.21564534
35	0x3bad2228	0.0052836128
36	0x3e668892	0.22513035
37	0xbe3b23e4	-0.1827541
38	0x3dcf2986	0.10115342
39	0x3e55c375	0.20875342
40	0x3f03a39e	0.51421535
41	0x3d5f3816	0.054496847
42	0xbda383c1	-0.079841144
43	0xbe7ee93d	-0.24893661
44	0x3f093267	0.5359253
45	0xbb8e0832	-0.004334473
46	0x3e380b45	0.17973049
47	0x3e651c4e	0.22374079
48	0x3ee53a14	0.44770873
49	0xbe9d83f6	-0.3076474
50	0xbe28788f	-0.1645224
51	0xbd5c91ae	-0.05384987
52	0x3d9b8614	0.07593933
53	0xbf007f6c	-0.5019443
54	0x3e374ef3	0.1790121
55	0x3e40b9ca	0.18820873
56	0x3eb35d53	0.35032138
57	0xbf17478f	-0.59093565
58	0x3b9cd49a	0.0047860863
59	0xbe884c48	-0.26620698
60	0xbee0d1fc	-0.43910205
61	0x3db30022	0.0874026
62	0x3e0e890e	0.1391947
63	0x3e9eb477	0.3099706
64	0x3dd1bdbd	0.10241268
65	0x3d2a7aca	0.041621007
66	0xbeb88c4c	-0.36044538
67	0x3e715026	0.2356573
68	0xbea4a5f6	-0.32157868
69	0xbeaaa6de	-0.33330435
70	0x3d07d68e	0.0331636
71	0x3eb85506	0.36002368
72	0x3e92f2b1	0.28700784
73	0x3e076cc1	0.1322508
74	0x3da5ada7	0.08089762
75	0x3e726c7a	0.23674193
76	0x3e6ab0cc	0.22919005
77	0x3cb09f38	0.021560296
78	0x3d8106d1	0.06300128
79	0xbdeaefe9	-0.114715405
80	0x3e9329c2	0.28742796
81	0x3bc9af2a	0.0061549144
82	0xbd4e625c	-0.05038677
83	0x3eb89f67	0.36059114
84	0xbe5b0079	-0.21386899
85	0x3f1c47d4	0.610471
86	0x3ddb16b0	0.10697687
87	0x3e529657	0.20565163
88	0xbe460909	-0.19339384
89	0x3d747813	0.059684824
90	0x3e830650	0.25590754
91	0x3ddef5be	0.10886715
92	0xbe139007	-0.14410411
93	0x3f13deeb	0.5776202
94	0x3e3d488c	0.18484706
95	0xbdebe780	-0.115187645
96	0x3ea8d977	0.32978413
97	0xbcec3cc3	-0.028837567
98	0xbdb69546	-0.089151904
99	0x3c5d2924	0.013498578
100	0x3c236580	0.00997293
101	0xbebb4c09	-0.36581448
102	0x3ced79d2	0.028988753
103	0xbd157c47	-0.036495473
104	0x3eb00efb	0.3438643
105	0xbec1db52	-0.3786264
106	0xbe40604b	-0.18786733
107	0xbe94fc50	-0.2909875
108	0xbd409dec	-0.047025606
109	0xbedb478a	-0.42828017
110	0x3d8d7d75	0.06908695
111	0xbd8fb9e1	-0.070178755
112	0x3ed56270	0.41676664
113	0xbd31b8e9	-0.043389235
114	0xbe4fcfc7	-0.20294105
115	0xbdbcb28d	-0.09213743
116	0x3e466532	0.1937454
117	0xbe128e6e	-0.14312145
118	0xbd438efc	-0.047743782
119	0x3dab741e	0.08371757
120	0x3d5e2d6e	0.054242544
121	0xbf0fc8b9	-0.56165653
122	0xbe1f1a8f	-0.15537475
123	0x3e87f13d	0.26551238
124	0xbe4797f2	-0.19491556
125	0xbf133142	-0.57497036
126	0xbdbde545	-0.09272245
127	0x3ec1accf	0.37827155
128	0xbea5a2b1	-0.32350686
129	0xbec9857f	-0.39359662
130	0x3ce68221	0.028138222
131	0x3f023533	0.50862426
132	0xbd8a6a24	-0.06758526
133	0x3ac0f31d	0.0014720891
134	0xbd81049a	-0.06299706
135	0x3ec28b91	0.37997106
136	0x3e254490	0.16139436
137	0x3eaa80ce	0.33301395
138	0xbe531d65	-0.20616682
139	0x3d578f55	0.052626926
140	0xbe881b2f	-0.2658324
141	0x3e861ffe	0.26196283
142	0x3df8df76	0.12151997
143	0x3ea7e5e6	0.32792586
144	0x3e8b70e4	0.27234566
145	0x3cabb148	0.020958558
146	0xbd959edf	-0.07305693
147	0xbdc047a0	-0.093886614
148	0x3e8d660d	0.2761692
149	0xbeb5124f	-0.3536553
150	0x3e4b002d	0.19824286
151	0xbe3d1a56	-0.18467078
152	0x3ebc8547	0.36820433
153	0xbd0757d8	-0.03304276
154	0xbe46eaba	-0.19425479
155	0xbe09a0dd	-0.1344027
156	0x3eb3cc4a	0.35116798
157	0xbbee68f4	-0.007275695
158	0xbe7d5377	-0.2473887
159	0xbe1f3bce	-0.15550157
160	0x3ea10fd2	0.31457382
161	0xbe877a75	-0.26460615
162	0x3e14d022	0.14532521
163	0x3c58b7af	0.013227387
164	0xbdf01f6f	-0.117247455
165	0xbd47e52f	-0.04880255
166	0xbe873e9e	-0.2641496
167	0x3e56d9d0	0.20981526
168	0x3dbaef8c	0.09127721
169	0x3eff97b5	0.4992043
170	0x3e6c9b61	0.23106147
171	0xbd960c01	-0.07326508
172	0x3e4e9939	0.20175637
173	0x3e5ce6c2	0.21572402
174	0x3ee7238c	0.45144308
175	0x3dea5513	0.11442008
176	0x3e54f5b6	0.20796856
177	0x3e622174	0.22083074
178	0x3e238335	0.1596802
179	0x3c5375ea	0.012906531
180	0xbdc781de	-0.09741567
181	0xbe66e2dd	-0.22547479
182	0xbdd38960	-0.103289366
183	0x3e91c0da	0.28467447
184	0xbe01ed85	-0.12688263
185	0x3e99da85	0.3004953
186	0xbe7debcc	-0.2479698
187	0x3acab2cd	0.0015464664
188	0x3e9c0654	0.30473578
189	0x3c2bf3bc	0.0104951225
190	0xbe833336	-0.25625008
191	0x3e169d0d	0.14708348
192	0xbd90f7ac	-0.0707849
193	0xbe90345e	-0.28164953
194	0xbd83b810	-0.064315915
195	0xbcebc4ba	-0.02878033
196	0xbcbda5a2	-0.023150269
197	0xbeaf07e6	-0.34185714
198	0x3e19b1ab	0.15009181
199	0x3e2fb686	0.17159471
200	0xbd2dd440	-0.042438745
201	0xbf189c73	-0.5961372
202	0x3e1c4353	0.15260057
203	0x3e50a586	0.20375642
204	0x3dff7930	0.124742866
205	0xbe3b57cb	-0.18295209
206	0x3dee9397	0.11649244
207	0xbe02e63e	-0.12783143
208	0x3ec14861	0.37750533
209	0xbe8e23f3	-0.27761802
210	0xbe7df93c	-0.24802107
211	0xbd937dc3	-0.072017215
212	0xbda2cc98	-0.079491794
213	0xbe627925	-0.22116525
214	0xbe468b57	-0.19389091
215	0xbe7ad373	-0.24494724
216	0xbe252851	-0.1612866
217	0x3e870307	0.26369497
218	0xbe2e6637	-0.1703118
219	0x3d64b5f6	0.055837594
220	0xbe233692	-0.15938786
221	0x3e2dee62	0.16985467
222	0xbea7604b	-0.32690653
223	0xbdf38da5	-0.11892251
224	0x3e805718	0.25066447
225	0x3ee7c774	0.45269358
226	0xbeaca32d	-0.33718243
227	0xbdcc931e	-0.09988998
228	0x3ee48f19	0.44640425
229	0x3e80eb9b	0.25179753
230	0xbe6f6211	-0.23377253
231	0x3d350bb0	0.0442006
232	0x3ed74268	0.4204285
233	0x3cb5214f	0.02211061
234	0xbe82ab7a	-0.2552145
235	0x3e60fa69	0.21970524
236	0x3eb7bdfa	0.35887128
237	0xbe984aa0	-0.29744434
238	0x3e878a2c	0.26472604
239	0xbd9cf47a	-0.07663818
240	0xbd3f6edc	-0.046736583
241	0x3db0f1c7	0.08639865
242	0x3e072a1b	0.13199656
243	0x3a8cc990	0.0010741223
244	0x3d724cd2	0.059155293
245	0x3e134a6a	0.14383855
246	0x3d5b441d	0.053531755
247	0x3da69fe1	0.08135963
248	0xbe0d36e6	-0.13790473
249	0xbe26acb3	-0.16276817
250	0x3d16a3dc	0.036777362
251	0x3ea42c1c	0.32064903
252	0xbcffe144	-0.031235345
253	0xbe8f1270	-0.27943754
254	0xbc68d55b	-0.014211024
255	0x3e2fc229	0.1716391

linear0.bias f4 [64]
0	0x3d86bd3a	0.06579061
1	0x3eaa38e5	0.33246532
2	0xbd874ef0	-0.06606853
3	0xbe10ae42	-0.14128974
4	0xbd9779bc	-0.07396266
5	0x3e0825e7	0.13295709
6	0x3ea32858	0.31866717
7	0x3e66f7c8	0.22555459
8	0x3d309508	0.043110877
9	0x3e8d20a1	0.27563956
10	0x3de324a8	0.11090976
11	0x3e385df8	0.18004596
12	0xbeed4977	-0.46345112
13	0xbdc46a42	-0.095905796
14	0x3c86fab6	0.01647697
15	0x3de1317d	0.10995767
16	0xbc824dd6	-0.015906256
17	0x3e2fd425	0.1717077
18	0xbe3e42d8	-0.18580186
19	0x3e191a04	0.1495133
20	0x3ee78716	0.4522025
21	0x3e96cf0e	0.29454845
22	0x39abb63f	0.00032751446
23	0x3dd744ad	0.10511146
24	0xbcb16363	-0.021653837
25	0x3e80374b	0.25042185
26	0xbc62fb8a	-0.013853917
27	0x3e7dce13	0.24785642
28	0xbdb51ee4	-0.088437825
29	0xbe85c10a	-0.2612384
30	0xbe8f76af	-0.28020236
31	0x3e3dbd90	0.18529344
32	0x3d3eb03f	0.0465548
33	0x3e20fdea	0.1572186
34	0xbc6ef6f7	-0.014585248
35	0xbe83be04	-0.25730908
36	0x3df2865d	0.11842034
37	0x3e1932e3	0.14960818
38	0xbe86ad90	-0.26304293
39	0x3c27d60a	0.010243902
40	0xbe32143e	-0.17390534
41	0xbdf20c14	-0.1181871
42	0x3dc15f44	0.094419986
43	0xbe181a76	-0.14853844
44	0xbe940562	-0.28910357
45	0x3eaed18e	0.34144253
46	0xbe90bba5	-0.2826816
47	0x3da32ac5	0.07967142
48	0x3d8d8626	0.069103524
49	0x3e803686	0.25041598
50	0x3e9e554b	0.30924448
51	0x3e7a7ee1	0.24462463
52	0xbd020c45	-0.031749982
53	0x3eb78fcd	0.358519
54	0x3ec4ea8b	0.38460192
55	0x3d475010	0.048660338
56	0x3e93c7dd	0.2886342
57	0x3e9cebd3	0.3064867
58	0x3e9828b6	0.2971856
59	0x3ca97a5e	0.020688232
60	0x3dc75f48	0.0973497
61	0x3ca7e1e8	0.020493463
62	0xbde1499e	-0.110003695
63	0x3e5efc73	0.21775989

linear1.weight f4 [64, 64]
0	0xbe0416fa	-0.1289939
1	0x3ddd0852	0.107926026
2	0xbdd7dbad	-0.10539947
3	0x3ec58c7a	0.38583738
4	0x3e87fc5d	0.26559725
5	0xbe6ffaa8	-0.23435462
6	0x3e62355f	0.22090672
7	0x3decdd6b	0.115656696
8	0x3b8c8976	0.0042888476
9	0x3e878026	0.26464957
10	0x3da915fa	0.08256145
11	0xbd8d735e	-0.0690677
12	0xbe70580b	-0.23471086
13	0xbb818c62	-0.0039535025
14	0x3ea3ea72	0.32014805
15	0xbcd4d135	-0.025978664
16	0x3e5688e3	0.20950656
17	0x3e0dc363	0.13844065
18	0xbdc6cb11	-0.097067006
19	0x3c0a9825	0.008459126
20	0x3db764a9	0.08954746
21	0x3cb31592	0.021860871
22	0x3c0eff70	0.008727893
23	0x3db5e0ce	0.08880769
24	0xbba1f681	-0.0049427156
25	0x3d9d39fd	0.07677076
26	0xbd0426c2	-0.032263525
27	0xbd23632a	-0.039889492
28	0x3d1b4098	0.0379034
29	0xbdddb831	-0.10826147
30	0xbe89defa	-0.2692793
31	0x3dce4e49	0.100735255
32	0x3dbbfeed	0.091794826
33	0x3db3031a	0.08740826
34	0x3cb0e961	0.021595659
35	0xbe061513	-0.13093977
36	0x3c356552	0.01107152
37	0x3e1d0108	0.15332425
38	0xbe8dc028	-0.27685666
39	0x3e36b629	0.17842926
40	0x3d9c2fcb	0.07626303
41	0x3e11ca09	0.14237227
42	0x3dbd4567	0.09241753
43	0x3d96e9c5	0.07368807
44	0xbe9262ed	-0.285911
45	0xbc558c19	-0.01303389
46	0xbdd635bb	-0.10459467
47	0xbeb9b5f4	-0.36271632
48	0xbbb59dde	-0.005542501
49	0x3e8070e2	0.25086123
50	0xbcd3c6fd	-0.025851721
51	0xbd9f529d	-0.07779429
52	0xbd362be4	-0.04447545
53	0x3e43b6e5	0.19112737
54	0x3e9b7932	0.30365902
55	0xbdbb931f	-0.091589205
56	0x3db4ab59	0.088217445
57	0x3dcb1189	0.09915454
58	0x3e1f67f7	0.15567003
59	0x3e2d9c17	0.16954075
60	0xbe505eae	-0.20348617
61	0xbe40cbcc	-0.18827742
62	0x3ad163a7	0.0015975133
63	0x3e20b7a5	0.15695055
64	0xbe64bb50	-0.22337079
65	0x3c874930	0.01651439
66	0x3d2b6684	0.041845813
67	0xbe886116	-0.2663657
68	0x3cedc950	0.029026657
69	0x3d812d0b	0.063074194
70	0x3e20bc91	0.15696932
71	0x3f26c878	0.6514964
72	0xbce368c2	-0.027759913
73	0x3e191ab9	0.149516
74	0xbe739ad3	-0.2378953
75	0x3e9d62c9	0.3073943
76	0xbeb5c6ef	-0.35503337
77	0xbe11eb47	-0.14249907
78	0x3f08ae4b	0.5339095
79	0x3dc5c50f	0.096567266
80	0xbe7923c6	-0.24330053
81	0x3d7aece0	0.061261058
82	0xbdb9087b	-0.09034821
83	0xbd720ae9	-0.059092436
84	0x3e7a273d	0.2442903
85	0xbd1406a2	-0.036139138
86	0x3db158f3	0.08659544
87	0xbd637faa	-0.05554167
88	0xbe9668b7	-0.29376766
89	0xbd2aa2c5	-0.041659135
90	0xbdc9dfe3	-0.09857156
91	0x3d9a612f	0.075380675
92	0xbded0fd8	-0.115752876
93	0x3dcc3e25	0.09972791
94	0xbdc8dded	-0.09807954
95	0xbd72fbcb	-0.05932216
96	0x3e6a9e2c	0.229119
97	0xbc76db88	-0.015066989
98	0x3e516062	0.20446923
99	0xbdaba185	-0.08380417
100	0xbd95a54f	-0.07306921
101	0xbd87fcc6	-0.066400096
102	0x3e1a054e	0.15041086
103	0xbd91b5ae	-0.07114731
104	0xbdd49feb	-0.103820644
105	0xbe798dd1	-0.24370505
106	0xbd0feef1	-0.03513998
107	0xbd19a865	-0.03751411
108	0xbea674ec	-0.3251108
109	0x3d2aa909	0.04166511
110	0x3d711ea3	0.058867108
111	0x3e40956d	0.18807001
112	0x3e87d7fc	0.2653197
113	0x3e3b7f0c	0.18310183
114	0x3e32cbe6	0.17460594
115	0x3e2dd385	0.1697522
116	0xbe0cab35	-0.13737185
117	0x3ee0e8f7	0.43927738
118	0x3f0893d8	0.5335059
119	0x3e2b8469	0.16749729
120	0x3db3c084	0.08776954
121	0x3dc35aa1	0.095387705
122	0x3e6996af	0.22811387
123	0x3e99f0eb	0.30066618
124	0x3defe409	0.11713416
125	0x3c3e7e10	0.011626735
126	0xbdb215a9	-0.086955376
127	0xbb0fc82b	-0.0021939378
128	0xbd997c10	-0.07494366
129	0x3df74251	0.12073196
130	0x3ca33f54	0.019927658
131	0x3e523882	0.20529369
132	0x3e00a8e4	0.12564427
133	0x3dc730a2	0.09726073
134	0x3d964a21	0.07338358
135	0x3ebce426	0.36892813
136	0x3d2fbfe7	0.04290762
137	0x3e34133c	0.17585462
138	0xbdb086b5	-0.08619443
139	0x3bc41cfe	0.0059849015
140	0x3da254ef	0.07926356
141	0x3e25488d	0.16140957
142	0x3eb4b01a	0.35290605
143	0xbc843299	-0.016137408
144	0xbcc99eb9	-0.024611818
145	0x3d4587dc	0.04822527
146	0xbb8b01fd	-0.0042421804
147	0x3d404a45	0.04694583
148	0x3e3677eb	0.17819183
149	0x3e97c1a3	0.2963992
150	0x3e114baa	0.1418902
151	0xbbea33e9	-0.0071473015
152	0xbcbc2fd6	-0.022972029
153	0x3e07075e	0.13186404
154	0x3ddabe13	0.10680785
155	0xbd2fc5cc	-0.042913243
156	0xbdcc5090	-0.099763036
157	0x3d521f7c	0.051299557
158	0x3bda6ed3	0.0066660433
159	0x3e131e27	0.14366971
160	0x3e50fa9e	0.20408103
161	0x3c2835d9	0.0102667445
162	0x3dbc057f	0.09180736
163	0x3e6e3a51	0.23264433
164	0xbc6f2542	-0.014596285
165	0xbd39a574	-0.045323804
166	0x3e3edc91	0.18638827
167	0x3da3e711	0.08003057
168	0x3e0dea88	0.13858998
169	0xbe298ccd	-0.16557617
170	0x3e01f167	0.12689744
171	0x3d88fffb	0.066894494
172	0x3e1cd471	0.15315415
173	0x3cf43983	0.02981258
174	0x3e09db6a	0.13462606
175	0x3df6429d	0.12024424
176	0x3d2b2cdc	0.041790828
177	0x3d5235a1	0.051320676
178	0x3c38edca	0.011287162
179	0x3e3a7c73	0.18211536
180	0x3d55682e	0.052101307
181	0x3e2942ab	0.16529338
182	0x3cf83176	0.030297022
183	0x3e52766e	0.2055299
184	0x3dac2307	0.084051184
185	0x3d9425c5	0.072337665
186	0x3e1781bc	0.14795583
187	0x3caf305e	0.021385368
188	0x3da885bd	0.082286336
189	0x3e200b70	0.15629363
190	0x3cd07616	0.025446933
191	0x3e7eb209	0.24872603
192	0x3e75e442	0.24012855
193	0x3d2a27d3	0.041541886
194	0x3c896ea3	0.016776389
195	0x3de31a6c	0.11089024
196	0xbeff4818	-0.4985969
197	0x3abd13a0	0.0014425404
198	0x3982f9fd	0.00024981788
199	0x3e78c1e4	0.24292713
200	0xbe1fb76a	-0.1559731
201	0xbe98c256	-0.29835767
202	0x3e88f3c3	0.26748475
203	0x3da4ed38	0.080530584
204	0xbe5db2ba	-0.2165021
205	0xbe612450	-0.21986508
206	0xbe48a5a3	-0.19594435
207	0x3d241be3	0.040065657
208	0x3ecc2255	0.39869943
209	0xbe222b60	-0.15836859
210	0x3e2b94d9	0.16756
211	0xbce87d65	-0.028380105
212	0x3d3feb6e	0.046855383
213	0xbea556a0	-0.32292652
214	0xbe1cff0f	-0.15331672
215	0x3c9b108e	0.018928792
216	0x3ea0170f	0.31267592
217	0xbdad5ec6	-0.08465342
218	0xbe80cc72	-0.2515598
219	0xbd1b1475	-0.037861306
220	0x3cbb99c8	0.022900477
221	0xbe39e71e	-0.1815457
222	0x3f11a5bd	0.5689352
223	0xbc1df15e	-0.009640066
224	0xbd04b857	-0.032402363
225	0xbd848b83	-0.06471922
226	0x3d95bcdc	0.07311413
227	0xbea38341	-0.31936076
228	0xbded5def	-0.11590182
229	0xbdb0e686	-0.08637719
230	0xbd5384c2	-0.05164028
231	0xbdb3795e	-0.08763383
232	0xbe93a4d4	-0.2883669
233	0x3e8a9d47	0.27073118
234	0x3d9a297f	0.07527446
235	0xbdbc77ab	-0.09202512
236	0x3daada40	0.08342409
237	0x3e146741	0.14492513
238	0x3d92b63a	0.07163663
239	0x3ea2e8d4	0.3181826
240	0x3ea23c77	0.31686756
241	0xbd5ca341	-0.05386663
242	0x3e99546c	0.2994722
243	0x3e8f624a	0.28004676
244	0x3de1cb87	0.11025148
245	0x3ebbaf56	0.36657208
246	0x3e8bbb2c	0.27291238
247	0x3dcfaaaa	0.101399735
248	0x3e6eb655	0.23311742
249	0xbbc74029	-0.0060806465
250	0x3e3f5907	0.18686305
251	0x3f0d452a	0.5518366
252	0x3e11ba80	0.142313
253	0x3e5d9aaa	0.21641031
254	0xbe7ce742	-0.24697593
255	0xbe81a3d3	-0.253203

linear1.bias f4 [64]
0	0x3e20f5c1	0.15718748
1	0x3e3d039f	0.18458413
2	0x3dde4918	0.10853785
3	0x3d5540b1	0.052063648
4	0xbdd697aa	-0.104781464
5	0x3d51cd80	0.05122137
6	0xbdc01d4b	-0.09380587
7	0x3d3cf1a4	0.046128884
8	0xbd22515e	-0.03962838
9	0x3d9f3964	0.07774618
10	0xbda374a9	-0.079812355
11	0xbd2c2e5c	-0.0420364
12	0x3bb5b764	0.0055455435
13	0x3deee0d2	0.11663975
14	0x3df93e61	0.12170101
15	0xbcc39378	-0.02387403
16	0x3de5c5a4	0.112193376
17	0xbd36debb	-0.044646006
18	0xbdb2143e	-0.08695267
19	0xbe0def7f	-0.13860892
20	0x3c07ca17	0.008287928
21	0x3b362111	0.0027790705
22	0xbd6261f6	-0.055269204
23	0x3da85eee	0.082212314
24	0x3dd00a3a	0.101582006
25	0xba86aca0	-0.0010274835
26	0x3d734d8d	0.05940013
27	0xbdcae316	-0.099065945
28	0xbb56022e	-0.0032655108
29	0x3ca719d0	0.02039805
30	0x3d1ed691	0.038778845
31	0x3c4b73af	0.012417718
32	0xbd96d231	-0.073643096
33	0xbdd5afe7	-0.10433941
34	0xbdc21fa2	-0.0947869
35	0x3d7f42cc	0.06231956
36	0x3d825a90	0.0636493
37	0x3e044e59	0.12920512
38	0xbe2f0d81	-0.17094995
39	0x3bd869c8	0.006604407
40	0xbdc6ea0a	-0.09712608
41	0xbda9e08e	-0.082947835
42	0x3d0503cc	0.032474324
43	0x3d435580	0.04768896
44	0x3e0829e9	0.13297237
45	0x3e757692	0.23971012
46	0x3e2d7100	0.16937637
47	0x3daa33d6	0.08310668
48	0xbd24b4b3	-0.04021139
49	0xbd8a1da1	-0.067439325
50	0x3e336881	0.17520334
51	0xbd8ed2e0	-0.06973815
52	0x3d95892f	0.07301556
53	0x3c667e2b	0.014068167
54	0x3e0bb2b9	0.13642396
55	0x3e65a2d6	0.22425398
56	0x3d061cf1	0.032742444
57	0xbd007d11	-0.031369273
58	0x3aaa687f	0.0013001113
59	0xbd9e8c64	-0.07741621
60	0x3dd69b17	0.104788
61	0xbd65fd02	-0.05614949
62	0xbc6d3dc8	-0.014480062
63	0x3b376781	0.0027985277

linear2.weight f4 [64, 64]
0	0x3e0ecf12	0.13946179
1	0x3e3a8c47	0.18217574
2	0xbd7f600d	-0.06234746
3	0x3e4ab81c	0.19796795
4	0xbdd4308c	-0.10360822
5	0x3e3ee247	0.18641005
6	0xbc960e25	-0.018317292
7	0x3d37c5c0	0.044866323
8	0x3d938166	0.07202415
9	0x3e53f172	0.20697573
10	0x3cfe2cf1	0.03102729
11	0x3dc1ba1c	0.09459326
12	0x3d6dd1c7	0.058061387
13	0x3d365c38	0.04452154
14	0xbc10f3c1	-0.008847178
15	0x3dc82976	0.09773533
16	0xbd6b90f2	-0.057511277
17	0xbeae8844	-0.34088337
18	0x3eba32f5	0.36367002
19	0x3e8db2e2	0.2767554
20	0xbc83d1cd	-0.016091252
21	0x3dce9780	0.1008749
22	0x3dbec300	0.09314537
23	0x3dcf47a3	0.101210855
24	0x3da13979	0.0787229
25	0x3e6126bc	0.21987432
26	0x3e494d70	0.19658446
27	0xbde1ac4e	-0.11019193
28	0x3dac7cbf	0.08422231
29	0x3df5c464	0.12000349
30	0x3da57292	0.08078493
31	0x3ccf1266	0.025277328
32	0x3da00b57	0.07814663
33	0x3e4ee5d2	0.20204857
34	0x3e4afb94	0.19822532
35	0x3dda14ed	0.106485225
36	0x3e10af98	0.14129484
37	0x3cd83f14	0.026397265
38	0x3db078a5	0.08616761
39	0x3e953d73	0.29148445
40	0x3da0ff5b	0.07861205
41	0xbc8d62c8	-0.017259017
42	0xbdba56e8	-0.09098607
43	0x3dc89e15	0.09795777
44	0x3e7dbfc2	0.24780181
45	0x3e15c641	0.14626409
46	0x3e0e5f20	0.13903475
47	0x3e1207ba	0.1426076
48	0x3dbc841e	0.09204887
49	0x3c81ef28	0.015861109
50	0x3ce885fa	0.028384198
51	0x3dea4dd8	0.11440629
52	0xbe8076e6	-0.25090712
53	0xbd277a32	-0.04088802
54	0x3dfc4e2b	0.12319597
55	0xbc82d77f	-0.015971897
56	0x3dcb71d4	0.0993382
57	0x3b6ae6ac	0.0035843058
58	0x3dc0b601	0.094097145
59	0x3df9689f	0.12178158
60	0x3c02a222	0.007973226
61	0xbeac303e	-0.33630556
62	0xbd27da30	-0.040979564
63	0x3df778ea	0.120836094
64	0xbd9c7964	-0.07640341
65	0x3d976126	0.073915765
66	0xbd85f84c	-0.065414995
67	0x3df00224	0.11719158
68	0x3ce6f220	0.028191626
69	0xbe08872e	-0.13332817
70	0xbdb20468	-0.08692247
71	0xbd81bbd5	-0.06334654
72	0x3db775f0	0.08958042
73	0xbdb5963d	-0.08866546
74	0xbe7c46f2	-0.24636438
75	0xbe1fc245	-0.15601452
76	0xbdbe1b90	-0.09282601
77	0xbbaa0ed8	-0.005189758
78	0x3d8f4701	0.06995965
79	0xbdc21e12	-0.09478392
80	0x3c125b02	0.008932831
81	0xbdb2318e	-0.08700858
82	0xbd2e5e04	-0.04257013
83	0x3d6b85a2	0.05750049
84	0xbd9480db	-0.0725114
85	0xbe20f619	-0.15718879
86	0x3e1f3988	0.1554929
87	0x3df92bc8	0.12166554
88	0x3d8eb779	0.069685884
89	0x3e168aa9	0.14701332
90	0xbd822201	-0.06354142
91	0x3dffbea0	0.12487531
92	0xbd9b0c16	-0.075706646
93	0xbd2c9f19	-0.042143915
94	0x3cc15331	0.023599239
95	0xbd66e7a2	-0.056373246
96	0xbebe2621	-0.37138465
97	0x3d28794a	0.041131295
98	0xbe25af82	-0.16180232
99	0x3d1089bc	0.035287604
100	0xbd5caf6b	-0.05387823
101	0xbd6d5503	-0.0579424
102	0xbe05eb9a	-0.13078156
103	0xbd4bb372	-0.04973168
104	0x3b8f2c1e	0.004369273
105	0xb8a7c000	-7.998943e-05
106	0xbe0619bb	-0.13095753
107	0xbda1a46b	-0.07892688
108	0xbd79fc11	-0.061031405
109	0x3e08dfd9	0.13366641
110	0x3d7c37c1	0.06157661
111	0xbdd007ac	-0.10157713
112	0x3bb81edf	0.0056189145
113	0x3caad516	0.02085356
114	0xbe244e97	-0.16045605
115	0xbd8cf796	-0.06883161
116	0xbc60ecc5	-0.013728325
117	0xbe472d08	-0.19450772
118	0xbdaddf34	-0.08489838
119	0x3d76d0db	0.060257774
120	0xbdc1ed6a	-0.09469111
121	0xbe242e83	-0.16033368
122	0xbd18ef44	-0.037337556
123	0x3ddd2717	0.107984714
124	0x3d4b8c4a	0.049694337
125	0xbc6fd2c6	-0.014637655
126	0x3d7ab762	0.061210044
127	0xbea60758	-0.32427478
128	0xba4a0fe7	-0.0007708058
129	0x3de230e0	0.110444784
130	0x3dc1bd33	0.09459915
131	0x3e7dafa0	0.24774027
132	0x3c008d70	0.007846221
133	0x3d3c6c04	0.04600145
134	0xbcfcf00c	-0.030876182
135	0xbd93d06c	-0.07217488
136	0x3db784e8	0.08960897
137	0x3d311f55	0.04324277
138	0xbd23b1b2	-0.039964385
139	0xbb33b475	-0.0027420793
140	0x3daf0c4e	0.08547269
141	0x3d6ede10	0.058317244
142	0xbcecaa40	-0.028889775
143	0xbcc24b48	-0.023717538
144	0xbe06a114	-0.13147384
145	0x3913084b	0.00014022102
146	0x3dfe6d34	0.124231726
147	0x3e8dfa42	0.27729994
148	0xbda96f47	-0.082731776
149	0x3dfcc484	0.1234217
150	0xbc441899	-0.011968755
151	0x3da8c634	0.08240929
152	0xbc1e2a3a	-0.009653622
153	0x3ebe0990	0.3711667
154	0x3e702d87	0.23454867
155	0x3d354410	0.044254363
156	0x3d3c2c93	0.045940947
157	0xbd2102fa	-0.03930948
158	0x3d921511	0.07132924
159	0x3c9372e7	0.017999126
160	0x3c33d305	0.010975604
161	0x3ec4c9ef	0.38435313
162	0x3ec124b9	0.3772333
163	0x3da5a97c	0.08088967
164	0x3d01be65	0.031675715
165	0xbc974a37	-0.018468006
166	0xbc636595	-0.0138791995
167	0x3e84abd5	0.25912347
168	0xbd87c0b8	-0.06628555
169	0xbd92de6c	-0.0717133
170	0xbda45d76	-0.08025639
171	0x3e16a864	0.14712673
172	0x3e012ede	0.12615535
173	0x3e62a243	0.2213221
174	0xbdc17e14	-0.094478756
175	0x3c8da2d5	0.017289558
176	0xbd38942d	-0.045063186
177	0xbd2efd55	-0.042722065
178	0x3d649a25	0.055811066
179	0x3e115228	0.14191496
180	0xbc1b222e	-0.009468598
181	0x3d69041d	0.05688869
182	0xbde0279c	-0.10945055
183	0x3e73df52	0.23815659
184	0xbca12219	-0.01966958
185	0xbe0ee941	-0.13956167
186	0x3e68a852	0.22720459
187	0x3e2bbaaa	0.16770425
188	0xbd2743ba	-0.040836073
189	0xbeb60e66	-0.3555786
190	0x3df38715	0.11890999
191	0x3e18cce1	0.14921905
192	0x3da89156	0.08230846
193	0x3d11411a	0.035462476
194	0x3de0c20a	0.1097451
195	0xbdc6efcb	-0.09713706
196	0x3dd7c0be	0.105348095
197	0xbc776325	-0.0150993215
198	0x3d9e93e5	0.077430524
199	0x3d84217f	0.064517014
200	0x3dc7105b	0.097199164
201	0xbd6166e4	-0.055029765
202	0xbdae7c38	-0.085197866
203	0x3d5ec344	0.05438544
204	0xbd1f8f6a	-0.03895513
205	0x3d89a795	0.06721417
206	0xbd318a6b	-0.043344896
207	0x3cc19820	0.02363211
208	0xbbbb6545	-0.0057188594
209	0xbdc6fdd8	-0.097163856
210	0x3d16c720	0.036810994
211	0xbf119a66	-0.5687622
212	0x3e00c0de	0.12573573
213	0x3df05a79	0.11736006
214	0x3cc9455b	0.024569204
215	0x3d84d4e8	0.06485921
216	0xbbf7c4db	-0.007561309
217	0x3de6c8f6	0.11268799
218	0x3bc5f5e5	0.006041276
219	0xbc6a8e70	-0.014316186
220	0x3e00f69e	0.12594077
221	0xbd490cb2	-0.049084373
222	0xbd369fa5	-0.044585843
223	0xbe2412e1	-0.16022827
224	0xbdf3916c	-0.118929714
225	0xbea9aad4	-0.33138144
226	0xbd5d65ed	-0.054052282
227	0xbd8f8879	-0.07008452
228	0xbd3638a3	-0.044487607
229	0xbd02c8a6	-0.031929635
230	0x3df2fe1d	0.118648745
231	0xbe20bf7e	-0.15698048
232	0xbda6bccb	-0.08141478
233	0xbc44d3a0	-0.012013346
234	0x3b86e718	0.004116904
235	0xbe25e6fe	-0.16201398
236	0x3c51d1fd	0.012806413
237	0xbd4b6ba8	-0.049663216
238	0x3d46e59a	0.04855881
239	0xbd67c24c	-0.05658178
240	0x3dd667c2	0.10469009
241	0xbd851028	-0.06497222
242	0x3d3d6d1d	0.046246637
243	0x3db160fa	0.08661075
244	0xbcdc1753	-0.02686659
245	0xbdbe4211	-0.09289945
246	0x3db62c5d	0.088951804
247	0x3e4a9ef0	0.19787192
248	0x3dd3f97e	0.10350321
249	0x3db7dc43	0.089775585
250	0x3d3f192c	0.046654865
251	0xbdeb1745	-0.11479048
252	0x3e0d5263	0.1380096
253	0xbcb80a93	-0.02246598
254	0x39bc297e	0.00035889068
255	0x3d4becb7	0.049786296

linear2.bias f4 [64]
0	0x3d8b141d	0.06790946
1	0x3cb93ef6	0.02261303
2	0x3c9b2bec	0.018941842
3	0x3d84c1c9	0.06482274
4	0xbbf9d876	-0.007624681
5	0xbd7a0ea0	-0.061049104
6	0xbdc849d9	-0.0977971
7	0xbdc7a93f	-0.09749078
8	0xbc02eacf	-0.007990553
9	0xbd5d8b5b	-0.054087978
10	0xbd45b71d	-0.048270334
11	0xbdf55843	-0.11979725
12	0x3e224249	0.15845598
13	0xbda821ed	-0.08209596
14	0xbd8186e6	-0.06324558
15	0x3dd50861	0.10401989
16	0x3cb112fe	0.021615501
17	0xbd8bcf1d	-0.06826613
18	0xbde568e1	-0.11201645
19	0xbc1cc2a6	-0.009567892
20	0x3c862fcf	0.016380219
21	0xbdb0c224	-0.086307794
22	0x3dd013e9	0.101600476
23	0x3d828cc6	0.06374507
24	0x3cbc751a	0.023005057
25	0x3d955455	0.07291476
26	0xbdf585c0	-0.119884014
27	0xbd18b754	-0.03728421
28	0x3df0fd1e	0.11767028
29	0xbe1dab56	-0.1539739
30	0x3d28db6a	0.041224875
31	0x3d4ef93b	0.050530653
32	0xbc8a2f45	-0.016868243
33	0x3d22e30d	0.039767314
34	0x3da5ae15	0.08089844
35	0xbcf45677	-0.029826386
36	0x3df9007c	0.121582955
37	0xbda9d668	-0.08292848
38	0x3e00a48c	0.1256277
39	0x3c076839	0.008264595
40	0xbe149ade	-0.14512202
41	0x3e2d9b24	0.16953713
42	0x3e12b734	0.14327699
43	0x3be76230	0.0070612654
44	0x3d35a5dc	0.04434763
45	0x3c751675	0.014958967
46	0xbc6610ba	-0.014042074
47	0x3d438dee	0.047742777
48	0x3ddcdc83	0.10784247
49	0xbcc58345	-0.024110446
50	0xbd5ff2b8	-0.054674834
51	0xbb8dfd8b	-0.004333203
52	0xbd6e6988	-0.05820611
53	0x3d909817	0.07060259
54	0xbd174091	-0.03692681
55	0x3df8c4dd	0.12146924
56	0x3d686337	0.056735244
57	0xbe055d1b	-0.13023798
58	0x3dbe8416	0.09302537
59	0x3dae50b3	0.08511486
60	0xbd82d318	-0.06387919
61	0x3c8381ed	0.016053164
62	0x3d0fbfad	0.035094906
63	0xbe25236e	-0.16126797

linear3.weight f4 [4, 64]
0	0x3e1f7f2a	0.15575853
1	0xbe7a3c3a	-0.24437037
2	0x3e5950cb	0.21222226
3	0xbdff4641	-0.12464572
4	0xbdc1f098	-0.09469718
5	0xbc0cdb0a	-0.008597145
6	0x3c8e1b81	0.0173471
7	0x3d1bf65d	0.038076747
8	0xbe848a7a	-0.258869
9	0x3d4e165e	0.0503143
10	0xbe339555	-0.17537434
11	0x3e09d72c	0.13460988
12	0xbe8b84bd	-0.2724971
13	0xbd33ed1f	-0.04392731
14	0x3de76963	0.11299398
15	0xbe13dc66	-0.14439544
16	0x3e61cd1f	0.22050904
17	0x3dbb3e00	0.09142685
18	0x3de01fea	0.10943587
19	0xbd95f50e	-0.07322131
20	0xbe0faf4e	-0.14031717
21	0xbddeb6c5	-0.10874704
22	0xbca0eb6d	-0.01964351
23	0x3af93e63	0.0019015785
24	0xbe6a9d8f	-0.22911666
25	0xbe621e69	-0.22081913
26	0xbe0277fb	-0.12741081
27	0xbd796434	-0.060886577
28	0xbd21ede8	-0.039533526
29	0xbf3eb767	-0.744986
30	0x3d9feb92	0.07808603
31	0xbe21e29c	-0.15809101
32	0x3dc1ed11	0.09469045
33	0xbe150767	-0.14553605
34	0xbc613824	-0.013746295
35	0x3e750798	0.23928678
36	0xbe0de695	-0.13857491
37	0xbe908127	-0.28223535
38	0xbdc4abe4	-0.09603098
39	0xbdba93fc	-0.09110257
40	0xbe949f95	-0.29028
41	0xbf06f537	-0.5271792
42	0xbe486fd2	-0.19573906
43	0xbdcfa7db	-0.10139438
44	0xbd58c512	-0.052922316
45	0x3e0ed744	0.13949305
46	0x3ddfdf42	0.10931255
47	0xbe2b2ddf	-0.16716717
48	0xbce9e420	-0.028551161
49	0xbeec5508	-0.46158624
50	0x3da26255	0.079289116
51	0xbd0978a4	-0.033562317
52	0xbd87fb76	-0.06639759
53	0xbdd50100	-0.10400581
54	0x3e59e55f	0.21278904
55	0x3dae7eac	0.085202545
56	0x3d087503	0.033314716
57	0xbc980543	-0.018557196
58	0x3e0eb106	0.13934717
59	0xbe19395c	-0.14963287
60	0x3e05cca8	0.13066351
61	0xbce3f966	-0.027828883
62	0xbdb81858	-0.08989018
63	0xbed55081	-0.41662982
64	0x3dbe2d2f	0.09285962
65	0x3e81343c	0.25235164
66	0x3d83755f	0.06418871
67	0x3dc7d183	0.09756758
68	0x3e468028	0.19384825
69	0xbe0dbbfb	-0.1384124
70	0xbdac816a	-0.08423121
71	0x3e55e9e3	0.20890002
72	0x3af0b46e	0.0018364319
73	0x3dcae158	0.09906262
74	0xbcf925e8	-0.030413583
75	0x3d58aa50	0.052896798
76	0xbea1bb35	-0.3158814
77	0x3f6ddbd0	0.9291353
78	0xbc9735de	-0.018458303
79	0x3e35c0d9	0.17749347
80	0xbdc471b7	-0.09592002
81	0x3e4f3243	0.20234017
82	0x3eb23261	0.3480406
83	0x3e905ec7	0.2819731
84	0x3f4c0809	0.7969976
85	0xbda8a48d	-0.082345106
86	0x3ef1069d	0.47075358
87	0x3e46e81d	0.19424482
88	0x3f091b7b	0.53557557
89	0x3dbe2fcc	0.0928646
90	0x3c6d794d	0.014494252
91	0x3c002202	0.007820608
92	0xbcad6099	-0.021164225
93	0xbe9781c9	-0.29591206
94	0x3e0f4a4d	0.13993187
95	0xbd6b5ca2	-0.05746139
96	0x3dd7ddc7	0.105403475
97	0x3d81b46e	0.06333242
98	0x3e7b4898	0.24539411
99	0xbea5430f	-0.32277724
100	0xbc7dfb32	-0.015501784
101	0xbe5cf84a	-0.2157909
102	0x3e8e273e	0.27764314
103	0xbdd2b69e	-0.10288738
104	0xbec15683	-0.37761316
105	0xbd86cc59	-0.06581945
106	0x3f18b174	0.5964577
107	0x3e4a4d83	0.19756131
108	0x3e4492df	0.19196652
109	0xbde9319b	-0.113864146
110	0x3d35de85	0.044401664
111	0xbd90de24	-0.0707362
112	0x3e1310d4	0.14361888
113	0x3cf02c3f	0.029317973
114	0xbcc13439	-0.023584472
115	0xbd0d4942	-0.034493692
116	0x3e337ea6	0.17528781
117	0xbdff04e0	-0.12452102
118	0x3b663626	0.003512749
119	0xbe14b8b9	-0.14523591
120	0x3daf7d24	0.085687906
121	0x3dc24c84	0.094872504
122	0xbceaadb1	-0.028647276
123	0xbdb8f90c	-0.09031877
124	0x3cf17ce2	0.029478494
125	0x3dc6a31c	0.096990794
126	0x3dfb986d	0.12284932
127	0x3e268b4b	0.16264074
128	0x3c314a1a	0.01082089
129	0x3ea6f67b	0.32609925
130	0xbdab83bd	-0.083747365
131	0x3b7f206d	0.003892924
132	0x3dc556b9	0.09635682
133	0xbb7b5705	-0.0038351428
134	0x3d9df220	0.07712197
135	0x3e46fd49	0.19432558
136	0x3e623785	0.22091492
137	0xbd365922	-0.044518597
138	0x3e24f5a9	0.16109337
139	0x3e64717a	0.22308913
140	0x3e34e886	0.17666826
141	0xbc8f2c2f	-0.017477123
142	0xbdd5262a	-0.1040767
143	0xba2d604f	-0.00066137774
144	0xbd3b21f5	-0.04568668
145	0x3e4a0686	0.19729051
146	0x3e184c4a	0.14872852
147	0xbca7a375	-0.020463685
148	0xbe49f2e3	-0.1972156
149	0x3e2c931b	0.16852991
150	0x3e63ca75	0.222452
151	0x3c679b30	0.014136121
152	0x3dae0b94	0.08498302
153	0x3cc9da87	0.024640335
154	0x3defde2a	0.11712296
155	0xbd9a7b8f	-0.07543098
156	0xbddd43b3	-0.10803928
157	0xbe20dd97	-0.1570953
158	0xbdcf3e28	-0.10119277
159	0x3eb8ad45	0.36069694
160	0xbdd0bc13	-0.10192122
161	0xbdd2b22c	-0.1028789
162	0x3e0e8242	0.13916877
163	0x3edaf9a6	0.42768592
164	0x3e085a87	0.13315783
165	0xbd5c07da	-0.053718425
166	0xbd82b580	-0.06382275
167	0x3eac2a41	0.33625987
168	0xbd53b72d	-0.051688362
169	0xbe2cdedb	-0.16881888
170	0x3d225619	0.03963289
171	0xbc8febe1	-0.01756853
172	0xbe0f5177	-0.1399592
173	0x3eadb85e	0.33929724
174	0xbbe61c56	-0.007022421
175	0x3e686bde	0.22697398
176	0xbdefb316	-0.1170408
177	0xbe77d4fc	-0.24202341
178	0x3de96afb	0.11397358
179	0x3be16131	0.006878041
180	0x3da76102	0.081728
181	0xbd654808	-0.055976897
182	0xbc4032af	-0.011730834
183	0xbe06e9ca	-0.13175121
184	0xbdd1490e	-0.10219012
185	0x3ffd87b6	1.9807041
186	0x3e0d9990	0.1382811
187	0xbe23b6b7	-0.15987669
188	0xbd3dde28	-0.046354443
189	0xbdd9b68e	-0.10630523
190	0xbcd0b647	-0.025477542
191	0xbed85036	-0.42248696
192	0x3b9314f6	0.0044885827
193	0x3e6eac9f	0.23308037
194	0xbcf73121	-0.030174794
195	0xbdd35232	-0.10318412
196	0x3f416339	0.75542027
197	0x3e03f2d6	0.12885603
198	0x3da76174	0.081728846
199	0x3d90be32	0.07067527
200	0x3f4e499e	0.8058108
201	0x3d752595	0.059850294
202	0xbd8a7c52	-0.067619935
203	0x3efc7d05	0.49314132
204	0xbdcaecc8	-0.09908444
205	0x3dda8a7c	0.10670945
206	0x3e108a3f	0.14115237
207	0xbb5f69db	-0.0034090194
208	0xbc7e4ed0	-0.01552172
209	0xbd6a6505	-0.057225246
210	0x3d6a7a5a	0.05724559
211	0xbc736f04	-0.014858011
212	0xbcc09b53	-0.023511564
213	0x3e827e9b	0.25487217
214	0x3d284355	0.041079838
215	0xbd5a2e78	-0.053266972
216	0x3d967b48	0.07347733
217	0xbc40d623	-0.011769804
218	0xbdda0d71	-0.10647095
219	0xbd08bd69	-0.03338376
220	0xbc9f79ff	-0.019467352
221	0x3f8d3255	1.1030985
222	0x3d35aca5	0.0443541
223	0xbca70b65	-0.020391176
224	0xbd48cc8f	-0.049023207
225	0xbd0d62c3	-0.034518015
226	0x3e17a6bf	0.14809702
227	0x3e713582	0.23555568
228	0x3e15e947	0.1463977
229	0x3e459221	0.19294025
230	0xbcd56296	-0.026047986
231	0xbde14405	-0.10999302
232	0x3ecd6de3	0.401229
233	0x3f08393b	0.53212327
234	0x3e460e59	0.1934141
235	0x3948a610	0.0001913535
236	0x3da13a9f	0.07872509
237	0xbddf4a28	-0.10902816
238	0x3dfffaaa	0.12498982
239	0xbd1d2338	-0.038363665
240	0xbe021f67	-0.12707292
241	0x3edf8b0d	0.43660775
242	0xbe00a554	-0.12563068
243	0xbe2d56b2	-0.16927603
244	0xbc0ae35f	-0.008477061
245	0xbdafcd82	-0.085841194
246	0x3e0b096d	0.13577814
247	0xbd581213	-0.052751612
248	0xbd1d8ae6	-0.038462542
249	0x3df0547b	0.11734863
250	0xbdb169f5	-0.08662788
251	0x3df6d1c7	0.120517306
252	0xbe09932c	-0.13435048
253	0x3d99e17e	0.07513712
254	0xbdbafea4	-0.091306
255	0x3d8b7c3f	0.068108074

linear3.bias f4 [4]
0	0xbdf1359c	-0.11777803
1	0x3d281b9b	0.04104195
2	0x3d859520	0.06522584
3	0x3d9a1467	0.07523423
