src/scripts/ddpg/weights/HER_VFC2L256_PFC2L64_c(curr best)/actor_best.pth (torch, 68783 bytes, 18 tensors)

linear_input.weight f4 [64, 13]
0.4149328 -0.25580812 0.07106672 0.17773014 0.27839634 -0.28377622 0.06992112 0.047405697
0.48580438 -0.1733343 0.25285226 0.03297717 0.15934597 0.04519221 0.112347886 -0.053890236
0.37915692 0.209874 -0.26309553 0.1463343 0.11515739 0.21253812 0.043846115 -0.23982951
-0.0896267 -0.6055795 -0.087740414 -0.06561293 0.20977123 -0.29051766 0.2181672 -0.11897861
-0.14553384 -0.029315742 0.26455492 -0.36861613 -0.07061803 0.10352751 0.07261687 0.140463
0.18447828 -0.15493189 -0.16573857 0.0030919346 0.6367051 0.14919175 -0.2933614 0.23117238
0.4755027 -0.21749699 -0.3152835 -0.042703718 0.033391755 0.04386243 0.07515929 0.14852498
0.3692539 -0.14817129 -0.07567374 -0.018109372 0.07674928 -0.019839605 -0.06799792 0.09620683
-0.5026932 0.252341 -0.10702489 -0.29283196 -0.0026700972 0.3337817 -0.012430227 -0.14253128
-0.049723685 -0.04368821 -0.25033873 -0.38839194 -0.24441326 0.11806654 -0.15906109 0.15357828
-0.021068014 -0.14330849 -0.20223148 0.020062916 -0.12870258 -0.21472521 -0.13926242 0.30126095
-0.23079576 -0.0858398 -0.083163515 -0.12799709 -0.019675601 -0.147455 0.37901863 -0.24368273
-0.06443196 -0.08330317 0.45359296 0.23518606 0.5042805 0.24444276 -0.08345066 -0.1286729
0.50944966 -0.20438762 -0.0489606 0.29921603 0.46328232 -0.37540546 -0.039441206 0.24897584
0.2197448 -0.4131818 0.119308025 0.10836702 -0.5480602 -0.20154612 0.18619007 -0.22706012
0.31806663 -0.3078202 -0.21498527 0.16412199 -0.14597276 -0.16074356 -0.20381598 -0.34081483
-0.14950158 0.08550547 0.06884667 0.09971907 -0.02503507 0.31759274 -0.17406602 0.10108628
0.034878653 -0.065741315 -0.14510357 0.23173666 -0.0306948 0.10224348 -0.056480005 -0.058458257
0.23164496 0.0921375 -0.10637753 -0.23352306 -0.1055122 0.07817892 0.1487543 0.011898908
-0.22772615 -0.4282402 0.19958423 0.5111857 0.2854361 -0.0481657 -0.024131121 -0.1005953
0.03709397 0.031919513 -0.16316901 -0.09356863 -0.114329904 -0.26015702 -0.16303353 0.015546763
-0.65416497 0.28593 0.13033944 0.11959935 0.30923128 -0.0985494 -0.021780943 -0.069868095
-0.08313164 0.28030515 -0.18670735 -0.19552809 -0.053113542 -0.47809982 -0.21043536 0.16397503
0.0061522396 -0.048424542 0.15812613 -0.30245465 -0.2107 -0.025043067 0.053570885 -0.37865558
-0.35687137 -0.16279268 0.26149386 0.09795064 0.14190349 0.067672074 0.08133255 0.28729576
-0.107149675 -0.21786138 0.1518439 0.088803135 0.27619177 0.35147253 0.11586395 -0.07926319
0.039334834 0.032856576 -0.21948428 0.17827131 -0.48026118 -0.12797035 -0.040848773 0.29686025
-0.46897933 -0.017138075 -0.07952322 0.3718434 0.09347889 0.12383065 0.16209391 -0.08411702
0.035234552 0.26207224 0.11553594 -0.0900863 -0.13135588 0.2748944 0.004981082 -0.058301378
0.015569883 0.018516779 -0.20961015 0.1467683 0.22402197 -0.05013615 0.29575616 -0.22546424
-0.2289174 0.061251372 0.12947948 -0.2374102 -0.1490207 0.28288534 -0.629277 -0.2956682
0.2159096 0.082675725 -0.20728506 0.12464135 0.25100875 -0.36346203 -0.09873966 -0.12771636
00000000: 1272 d43e 48f9 82be 6e8b 913d e4fe 353e
00000010: f789 8e3e 1e4b 91be ce32 8f3d 7a2c 423d
00000020: 5abb f83e 8c7e 31be da75 813e 1213 073d
00000030: 972b 233e 771b 393d a616 e63d 02bc 5cbd
00000040: db20 c23e 36e9 563e 75b4 86be a9d8 153e
00000050: a3d7 eb3d 98a3 593e fc97 333d de95 75be
00000060: 348e b7bd 4207 1bbf 3fb1 b3bd 1260 86bd
00000070: 45ce 563e bbbe 94be 3967 5f3e 0fab f3bd
00000080: d306 15be 9127 f0bc be73 873e 41bb bcbe
00000090: 30a0 90bd 3b06 d43d 27b8 943d 88d5 0f3e
000000a0: e0e7 3c3e 77a6 1ebe 5fb7 29be 0ea2 4a3b
000000b0: 1bff 223f b9c5 183e 7733 96be 74b8 6c3e
000000c0: 1775 f33e 88b7 5ebe d76c a1be 18ea 2ebd
000000d0: cbc5 083d 17a9 333d 1ded 993d ef16 183e
000000e0: d90e bd3e 37ba 17be d5fa 9abd 1b5a 94bc
000000f0: ba2e 9d3d ab86 a2bc 7e42 8bbd 1608 c53d
00000100: 80b0 00bf d732 813e de2f dbbd 12ee 95be
00000110: ccfc 2ebb 6fe5 aa3e 27a8 4bbc b8f3 11be
00000120: 10ab 4bbd 69f2 32bd 662c 80be 4fdb c6be
00000130: 7847 7abe dfcc f13d e9e0 22be a043 1d3e
00000140: d496 acbc 76bf 12be c515 4fbe fc5a a43c
00000150: 9cca 03be ede0 5bbe cf9a 0ebe e03e 9a3e
00000160: b955 6cbe c7cc afbd a251 aabd ab11 03be
00000170: ba2e a1bc 72fe 16be bb0e c23e f787 79be
00000180: e7f4 83bd da9a aabd 563d e83e 9dd4 703e
00000190: 8718 013f 344f 7a3e 2ee8 aabd d4c2 03be
000001a0: 4b6b 023f fd4a 51be e98a 48bd d832 993e
000001b0: 5733 ed3e 2535 c0be 1a8d 21bd 86f3 7e3e
000001c0: c804 613e 918c d3be c457 f43d 87ef dd3d
000001d0: ac4d 0cbf 1b62 4ebe 9ca8 3e3e 7382 68be
000001e0: a1d9 a23e 9c9a 9dbe 1925 5cbe 980f 283e
000001f0: e279 15be f699 24be 23b5 50be 487f aebe
00000200: f116 19be 7e1d af3d 7cff 8c3d 8339 cc3d
00000210: 5916 cdbc 849b a23e 5d3e 32be 5306 cf3d
00000220: ebdc 0e3d 62a3 86bd 0896 14be 604c 6d3e
00000230: a973 fbbc 0865 d13d 9457 67bd ed71 6fbd
00000240: 5634 6d3e 96b2 bc3d 76dc d9bd ab20 6fbe
00000250: c816 d8bd 451c a03d 0c53 183e a3f3 423c
00000260: 0b31 69be 4d42 dbbe cf5f 4c3e 11dd 023f
00000270: ae24 923e 6649 45bd a1ae c5bc e904 cebd
00000280: d9ef 173d 09be 023d c715 27be e9a0 bfbd
00000290: cc25 eabd 4d33 85be 43f2 26be dab7 7e3c
000002a0: 5b77 27bf 6b65 923e b477 053e 81f0 f43d
000002b0: 9053 9e3e 45d4 c9bd f36d b2bc 0117 8fbd
000002c0: ec40 aabd 2884 8f3e 3630 3fbe 8438 48be
000002d0: 968d 59bd 80c9 f4be 5e7c 57be 12e9 273e
000002e0: ba98 c93b d058 46bd d1eb 213e 56db 9abe
000002f0: bec1 57be 1e27 cdbc 256d 5b3d 25df c1be
00000300: d8b7 b6be 20b3 26be 86e2 853e 589a c83d
00000310: 264f 113e a897 8a3d ae91 a63d 6e18 933e
00000320: 4a71 dbbd 0e17 5fbe f87c 1b3e 6bde b53d
00000330: 0269 8d3e 35f4 b33e 144a ed3d bd54 a2bd
00000340: 901d 213d 9e94 063d 7dc0 60be c18c 363e
00000350: cbe4 f5be a90a 03be 0b51 27bd 11fe 973e
00000360: 0f1e f0be 2665 8cbc 12dd a2bd 4262 be3e
00000370: dc71 bf3d ec9a fd3d f2fb 253e 8b45 acbd
00000380: 1b52 103d 552e 863e 1b9e ec3d 2b7f b8bd
00000390: 2882 06be f5be 8c3e 5838 a33b 6dcd 6ebd
000003a0: d318 7f3c 80b0 973c 0ba4 56be 6e4a 163e
000003b0: 0466 653e 905b 4dbd 5a6d 973e 19e0 66be
000003c0: 5369 6abe b8e2 7a3d 4596 043e a91b 73be
000003d0: e298 18be 59d6 903e 4c18 21bf d361 97be
000003e0: 6817 5d3e e451 a93d 8942 54be f743 ff3d
000003f0: 3884 803e b217 babe 0538 cabd 14c8 02be

linear_input.bias f4 [64]
-0.05993829 0.22295862 0.097412236 -0.34125698 0.2099966 -0.35214546 0.1465117 0.36150363
-0.047379013 -0.039863627 0.27842668 -0.22388808 0.19689773 0.09486091 -0.027302394 0.41245502
-0.088895336 -0.32793486 0.31287324 0.06407292 -0.18752101 0.077181034 -0.051401336 0.041732974
0.32903132 0.27364734 0.073399864 -0.19365035 -0.21792397 0.47762933 -0.15298621 -0.07719449
0.43853557 0.32330045 -0.09770416 -0.22750634 -0.2403347 0.30891332 -0.050883655 0.28103226
0.24420543 0.2890352 0.017924998 0.22127365 0.25356242 0.10412014 -0.28211412 -0.1988414
0.49170953 -0.091722056 0.55418086 0.3678604 0.00953092 0.21578273 -0.28101644 0.37087268
0.29679415 -0.13751419 -0.42101884 -0.061534774 0.46651015 0.2829401 0.07571494 -0.21895222
00000000: da81 75bd 444f 643e 1180 c73d 3cb9 aebe
00000010: 5909 573e 694c b4be 2a07 163e 0117 b93e
00000020: 7f10 42bd 0b48 23bd f18d 8e3e eb42 65be
00000030: 8f9f 493e 7046 c23d 45a9 dfbc 4e2d d33e
00000040: c20e b6bd 14e7 a7be ec30 a03e aa38 833d
00000050: 8205 40be 1711 9e3d 358a 52bd 32f0 2a3d
00000060: cb76 a83e 811b 8c3e ab52 963d 474c 46be
00000070: 7627 5fbe d58b f43e 6ba8 1cbe 2518 9ebd
00000080: bc87 e03e a387 a53e 1e19 c8bd 6cf7 68be
00000090: 4d1a 76be e329 9e3e 616b 50bd 76e3 8f3e
000000a0: fd10 7a3e 6cfc 933e 72d7 923c 8f95 623e
000000b0: efd2 813e f13c d53d 4371 90be 149d 4bbe
000000c0: 5ac1 fb3e c6d8 bbbd ccde 0d3f 3358 bc3e
000000d0: 9327 1c3c 26f6 5c3e 63e1 8fbe 06e3 bd3e
000000e0: 67f5 973e 85d0 0cbe c88f d7be e30b 7cbd
000000f0: 6bda ee3e 86dd 903e 6f10 9b3d 0335 60be

linear_hidden.0.weight f4 [64, 64]
0.1864229 0.16929206 -0.10380759 0.1351281 0.13890004 0.101404265 -0.020624869 0.08684769
0.50576115 -0.0995537 -0.0025691797 -0.3010882 0.13709961 0.08732606 -0.14363723 0.06142462
-0.2873056 0.11615424 0.17530794 0.014865418 -0.044844348 -0.045566715 -0.13001731 0.0014472427
0.0850978 0.061773527 -0.028898496 0.13361654 0.034381427 -0.14112729 -0.029161245 -0.027576903
-0.03145806 0.33597293 -0.081255995 0.25410697 -0.030175647 0.16623971 0.0821612 0.24431123
0.20533608 0.060357265 -0.26287806 0.18938519 0.1599923 0.09212365 0.1415286 -0.0024988872
0.065298796 0.07388775 0.17654663 0.030422116 -0.30092922 0.27679366 -0.14827466 0.18769586
0.08944507 -0.0258007 0.16768596 0.17259683 -0.03855275 -0.04797882 -0.1667253 0.11044927
0.36262637 -0.24699366 0.0035916667 0.5181793 -0.14433579 0.19449982 -0.08643795 0.033017002
0.044671975 0.022389885 -0.022190897 0.056451242 -0.2551581 -0.14080428 0.18506761 -0.047461193
-0.19815704 0.20820075 -0.21784127 0.07338567 -0.030715458 0.10845747 0.19166432 -0.016081827
-0.49903503 -0.17151676 0.14445159 0.16260982 0.10070627 -0.41717675 0.096256465 -0.063731335
-0.13432346 -0.17028306 -0.44325387 0.11324877 0.14316584 -0.24913663 0.21602598 0.029565454
0.0039284695 0.20500115 -0.7495444 -0.13038206 -0.07708792 0.18970223 0.59555846 0.14700165
-0.455339 0.034565452 -0.45658058 -0.2522639 0.054672815 -0.19799237 0.1621678 -0.0695474
0.04155315 -0.057537593 0.6521177 -0.0093553895 -0.13101633 -0.12955828 -0.46535385 -0.04920927
0.15510109 -0.5932461 0.19753812 0.41090062 -0.47960967 0.364552 0.03682248 -0.26222864
-0.42231825 0.14119351 -0.18594635 0.42589307 -0.5861213 -0.32926095 0.36616382 -0.2444845
0.14420164 0.46804 -0.6431937 0.27347165 0.21686095 0.35439792 0.44361338 0.11716295
-0.12757362 -0.31883907 0.21891586 -0.15416105 -0.10849637 -0.4106617 0.04979956 -0.11961043
-0.355419 -0.33575913 0.10152299 -0.08481912 0.35994405 -0.27913973 0.24095872 -0.23497738
-0.18479545 0.012892635 -0.25150773 -0.34845603 -0.43335596 0.2372962 0.5921991 0.37096885
-0.3729373 -0.08847338 -0.43858144 -0.13732381 0.15491897 -0.6132647 0.35287008 -0.50777876
-0.30735916 -0.07160802 0.6807949 0.13494034 -0.23102535 0.026979517 -0.012096365 -0.5254803
0.04324985 0.5221312 -0.1410366 -0.5357983 0.4729838 -0.07345253 -0.08692603 0.39532667
0.060434196 -0.16227995 -0.019958533 -0.07267132 0.31366405 0.271371 -0.123683915 0.37816375
0.084616385 -0.21698073 0.5088656 -0.16666748 -0.121822074 -0.033123825 -0.19307318 -0.081044436
0.4392447 0.16232568 -0.13341576 0.030283298 0.004170364 0.40292734 -0.018405661 -0.14362943
0.4262598 0.2464693 0.045142032 0.17597388 0.09457058 0.39210498 -0.09788795 0.08314556
0.5293541 0.073913276 -0.19689508 0.56317294 0.22388941 0.0754114 -0.7135371 -0.1451823
0.5450342 0.38753474 0.78461206 0.48159978 -0.03977878 0.4438371 -0.4213627 0.6734935
0.31675318 0.02051295 -0.44294366 0.046290617 0.4030197 0.21024877 -0.08095229 0.23012409
00000000: a5e5 3e3e e65a 2d3e 1399 d4bd 055f 0a3e
00000010: d03b 0e3e 0aad cf3d 7cf5 a8bc 34dd b13d
00000020: 9079 013f cfe2 cbbd af5f 28bb 3c28 9abe
00000030: d763 0c3e 01d8 b23d a315 13be 6298 7b3d
00000040: b819 93be 46e2 ed3d ed83 333e 158e 733c
00000050: b5ae 37bd 2aa4 3abd 4223 05be 68b1 bd3a
00000060: c147 ae3d 3d06 7d3d 8abc ecbc c6d2 083e
00000070: 8ad3 0c3d ac83 10be 90e3 eebc f5e8 e1bc
00000080: 2bda 00bd a504 ac3e 8b69 a6bd 4f1a 823e
00000090: eb32 f7bc be3a 2a3e 2244 a83d b92c 7a3e
000000a0: 9f43 523e 2e39 773d f497 86be 31ee 413e
000000b0: 06d5 233e 53ab bc3d e0ec 103e 5fc4 23bb
000000c0: 60bb 853d 7652 973d a4c8 343e cd37 f93c
000000d0: 6513 9abe e6b7 8d3e 50d5 17be 5833 403e
000000e0: fa2e b73d fd5b d3bc deb5 2b3e 39bd 303e
000000f0: 7de9 1dbd 7085 44bd 09ba 2abe 3a33 e23d
00000100: 2aaa b93e e8eb 7cbe 2b62 6b3b 66a7 043f
00000110: c3cc 13be f62a 473e 6106 b1bd d63c 073d
00000120: f6f9 363d fe6a b73c afc9 b5bc 6b39 673d
00000130: 15a4 82be ff2e 10be 5d82 3d3e ab66 42bd
00000140: aee9 4abe 9432 553e c811 5fbe 3a4b 963d
00000150: fc9e fbbc f31e de3d a743 443e 09be 83bc
00000160: 8581 ffbe 17a2 2fbe 1eeb 133e 3083 263e
00000170: 173f ce3d 3198 d5be 1c22 c53d 9385 82bd
00000180: 178c 09be af5e 2ebe 2cf2 e2be f9ee e73d
00000190: 119a 123e ac1d 7fbe ea35 5d3e 4033 f23c
000001a0: 64ba 803b d2eb 513e 24e2 3fbf e082 05be
000001b0: 45e0 9dbd 4d41 423e 8576 183f 9a87 163e
000001c0: 3222 e9be 8194 0d3d eec4 e9be bc28 81be
000001d0: 9af0 5f3d 83be 4abe 510f 263e de6e 8ebd
000001e0: a333 2a3d 8aac 6bbd 30f1 263f 5947 19bc
000001f0: 2529 06be edaa 04be dc42 eebe a98f 49bd
00000200: d2d2 1e3e fade 17bf 6f47 4a3e 9161 d23e
00000210: 668f f5be 8fa6 ba3e 2bd3 163d d542 86be
00000220: 193a d8be 0895 103e b868 3ebe a80e da3e
00000230: 0c0c 16bf e494 a8be d379 bb3e 255a 7abe
00000240: 98a9 133e f0a2 ef3e 58a8 24bf 7a04 8c3e
00000250: cc10 5e3e a573 b53e 4b21 e33e 21f3 ef3d
00000260: a9a2 02be e03e a3be 7b2b 603e 65dc 1dbe
00000270: 5833 debd 4042 d2be a0fa 4b3d 50f6 f4bd
00000280: 7bf9 b5be 9fe8 abbe 49eb cf3d a6b5 adbd
00000290: 964a b83e 67eb 8ebe e2bd 763e e99d 70be
000002a0: 053b 3dbe a13b 533c 9fc5 80be d468 b2be
000002b0: d5e0 ddbe c6fd 723e 5c9a 173f a1ef bd3e
000002c0: a3f1 bebe 8831 b5bd bf8d e0be 9d9e 0cbe
000002d0: 14a3 1e3e eafe 1cbf 63ab b43e cafd 01bf
000002e0: 2e5e 9dbe 3aa7 92bd 9348 2e3f cd2d 0a3e
000002f0: e991 6cbe 2604 dd3c d52f 46bc e085 06bf
00000300: c126 313d 64aa 053f e66b 10be 142a 09bf
00000310: ef2a f23e 486e 96bd 4606 b2bd 4268 ca3e
00000320: d989 773d b72c 26be 1480 a3bc b3d4 94bd
00000330: 9398 a03e 24f1 8a3e fe4d fdbd ae9e c13e
00000340: 5b4b ad3d 3230 5ebe 0445 023f e1aa 2abe
00000350: da7d f9bd d9ac 07bd fab4 45be a0fa a5bd
00000360: aee4 e03e b438 263e 249e 08be ae14 f83c
00000370: 8ca7 883b 7e4c ce3e 78c7 96bc 9813 13be
00000380: b93e da3e 7362 7c3e dae6 383d 7f32 343e
00000390: 38ae c13d fcc1 c83e 7a79 c8bd 3848 aa3d
000003a0: c083 073f d85f 973d dd9e 49be 1a2c 103f
000003b0: 4443 653e 4b71 9a3d 5eaa 36bf abaa 14be
000003c0: 5d87 0b3f f46a c63e 56dc 483f 3f94 f63e
000003d0: 13ef 22bd 9e3e e33e dabc d7be 126a 2c3f
000003e0: 792d a23e c60a a83c 83c9 e2be 3b9b 3d3d
000003f0: 9958 ce3e 744b 573e 50ca a5bd a6a5 6b3e

linear_hidden.0.bias f4 [64]
0.054925624 -0.030171465 -0.050311707 0.119702995 0.15472539 -0.008361507 -0.007823995 0.004213214
-0.099870734 0.08601509 0.06790359 0.13682601 -0.07383087 0.1509983 -0.11227614 0.103708364
-0.09004774 0.08134197 0.056632336 0.13094659 -0.08701957 0.00448683 0.12777887 -0.05020291
0.10489315 -0.070763655 0.14686106 -0.114405826 0.19549346 -0.11979719 0.11326267 0.20414451
0.17113347 -0.024031144 0.04930038 0.17308408 0.16603297 -0.027303653 0.23986703 -0.051386602
0.10470419 -0.024030466 0.09900168 0.15561989 0.21545339 -0.0019134114 0.045190003 -0.13595611
0.06864628 -0.11334352 0.0025006023 0.12693606 -0.096354246 0.13804066 0.10032347 -0.045770805
0.04653856 0.11790214 0.10528015 0.06627728 -0.04865435 0.15274887 0.09066299 0.18347383
00000000: b1f9 603d 262a f7bc a613 4ebd d826 f53d
00000010: 5570 1e3e b4fe 08bc 3730 00bc 000f 8a3b
00000020: 0789 ccbd ae28 b03d 0a11 8b3d 1e1c 0c3e
00000030: a434 97bd 4c9f 1a3e 08f1 e5bd 0d65 d43d
00000040: f36a b8bd 9e96 a63d 4ff7 673d dd16 063e
00000050: 5137 b2bd 4206 933b 77d8 023e 91a1 4dbd
00000060: 38d2 d63d 89ec 90bd bf62 163e 9a4d eabd
00000070: 702f 483e 3b58 f5bd 42f6 e73d 420b 513e
00000080: 9d3d 2f3e f6dc c4bc 32ef 493d f43c 313e
00000090: 8c04 2a3e e9ab dfbc b49f 753e c27a 52bd
000000a0: 266f d63d 8adb c4bc 65c1 ca3d d25a 1f3e
000000b0: d09f 5c3e 6fcb faba 2719 393d 1438 0bbe
000000c0: 6c96 8c3d a620 e8bd 25e1 233b 87fb 013e
000000d0: 6055 c5bd 885a 0d3e 6476 cd3d 2b7a 3bbd
000000e0: 389f 3e3d ad76 f13d 1f9d d73d 62bc 873d
000000f0: c949 47bd 336a 1c3e 85ad b93d 90e0 3b3e

linear_output.weight f4 [4, 64]
-0.07208487 -0.09741617 -0.151741 -0.010107025 -0.0829268 -0.038970646 -0.066365354 -0.002102036
-0.13375166 0.03408738 -0.07111212 0.08059134 -0.05538256 -0.080298275 -0.0029793645 -0.063847564
-0.087939024 0.02565404 0.0256624 0.11837434 0.2695052 -0.058408268 0.086579174 -0.07051606
-0.08237485 -0.10466233 -0.09268077 -0.11138685 0.039599974 -0.0037589679 -0.072204694 0.3011323
0.075220056 -0.047860548 -0.10976471 0.54455996 -0.06638598 -0.08937814 -0.09220259 -0.040956393
-0.05773645 -0.038059182 -0.09965623 -0.07388307 -0.094546065 -0.051306017 -0.052264366 -0.06897747
0.13444205 -0.0015919551 -0.025210552 -0.07048235 -0.061262287 -0.053193852 0.1244954 -0.06513664
-0.09938412 -0.062180974 0.11385722 -0.08260477 -0.00058295263 -0.29597512 -0.04544375 -0.07249364
0.05714885 0.06865958 0.51752067 0.49714106 0.051373504 0.06292198 0.051655766 -0.0028494466
0.06874112 0.22074868 0.048998144 0.33716068 0.07102132 0.055973038 0.0008787714 0.05867085
0.06476253 0.2823047 0.26056814 0.41044113 0.1787891 0.057484914 0.5105726 0.045503736
0.05016451 0.06210743 0.047105182 0.06447493 0.3745133 -2.8090953e-05 0.05944232 0.4436894
0.46041918 0.05792123 0.029207662 0.0015777879 0.055655524 0.052212678 0.050400726 0.057142567
0.059235062 0.060364105 0.050349027 0.056477003 0.048106335 0.060249843 0.060674336 0.75955284
0.51439434 0.0026337423 0.06398688 0.054703478 0.0584476 0.055815786 0.54491097 0.07683432
0.05568665 0.054396607 0.5664482 0.04170682 0.0029611546 0.05848996 0.063025996 0.05684669
0.21679407 0.02033172 -0.52715415 0.45307133 0.1885699 0.116136044 0.29059207 -0.0010671812
0.28516045 0.51625025 0.24074711 0.5408709 0.028497221 0.26935494 -0.0022270794 0.16041338
-0.011744828 0.51359326 0.69284904 0.6183253 -0.10683406 0.13660078 0.78570926 0.28594756
0.236766 0.023777371 0.2267806 0.11977316 0.49887648 -0.0027232661 0.10961095 -0.33362594
0.7413732 0.24214198 0.26693434 -0.10175623 0.2057748 0.22221135 0.23083441 0.23408101
0.19646806 0.2650073 0.31818214 0.21982834 0.2599729 0.36243874 0.21332502 0.23001315
0.5735039 0.0013274722 0.108118854 0.19309682 0.07403542 0.2191633 0.38111728 -0.02184373
0.26104262 0.25969872 0.5429945 0.27083206 -0.00263631 0.27099645 0.20243306 0.20523015
-0.046936896 0.33292058 0.47790858 -0.592307 -0.26190248 0.24623717 -0.020624928 -0.00033780994
0.39575526 -0.30443388 -0.1558612 -0.2534431 0.3437124 -0.2642235 -0.0020828058 -0.17592502
0.37931064 -0.44001532 -0.2039619 -0.30249384 0.43815666 0.13034354 -0.20776057 0.09826881
-0.54700524 0.3961261 -0.3992719 0.3923792 -0.51428944 -0.0026233399 0.034025323 0.12288093
-0.31207824 0.12482591 -0.46568054 -0.6322198 -0.34927058 -0.19195205 -0.43779853 0.00057539216
-0.11583563 0.13698314 -0.62385565 -0.05687848 -0.55517787 0.13514301 0.10216073 0.7248597
-0.077961616 -0.0014663207 0.05952285 -0.29076338 0.39086714 0.026409963 -0.08086145 0.32702398
-0.3857769 -0.009987169 -0.052449018 -0.106689766 -0.00010914573 0.035387125 0.25709713 -0.29779282
00000000: 3ba1 93bd 2182 c7bd fe61 1bbe ef97 25bc
00000010: 87d5 a9bd af9f 1fbd 8fea 87bd 50c2 09bb
00000020: 32f6 08be 359f 0b3d 3ba3 91bd 130d a53d
00000030: d3d8 62bd 6c73 a4bd 7141 43bb 83c2 82bd
00000040: 6019 b4bd 6c28 d23c f439 d23c 3f6e f23d
00000050: 96fc 893e 823d 6fbd 6c50 b13d b96a 90bd
00000060: 25b4 a8bd 3459 d6bd 6acf bdbd ca1e e4bd
00000070: 9533 223d 0459 76bb 0ee0 93bd 032e 9a3e
00000080: f90c 9a3d 6c09 44bd 52cc e0bd 4868 0b3f
00000090: 5ff5 87bd e30b b7bd b6d4 bcbd e4c1 27bd
000000a0: 0e7d 6cbd f2e3 1bbd 9118 ccbd 0250 97bd
000000b0: 5ea1 c1bd 4226 52bd 2913 56bd 0f44 8dbd
000000c0: 2dab 093e 26a9 d0ba 5c86 cebc 0d59 90bd
000000d0: 2aee 7abd cce1 59bd 72f7 fe3d 5c66 85bd
000000e0: e789 cbbd 7ab1 7ebd f92d e93d b12c a9bd
000000f0: 4ad1 18ba 0d8a 97be 3a23 3abd 8c77 94bd
00000100: ea14 6a3d 659d 8c3d 3c7c 043f 4689 fe3e
00000110: 066d 523d 3ddd 803d ff94 533d c8bd 3abb
00000120: 25c8 8c3d f10b 623e 47b2 483d 53a0 ac3e
00000130: a073 913d fc43 653d 5a5d 663a d850 703d
00000140: 38a2 843d 3e8a 903e 3069 853e 5725 d23e
00000150: 7d14 373e 4d75 6b3d e3b4 023f 2062 3a3d
00000160: 4d79 4d3d 5c64 7e3d 5df1 403d 6f0b 843d
00000170: 35c0 bf3e dda4 ebb7 ca79 733d 422b e33e
00000180: 10bc eb3e d03e 6d3d e844 ef3c c7cd ce3a
00000190: 0cf7 633d f6dc 553d fe70 4e3d 530e 6a3d
000001a0: 77a0 723d 5a40 773d c83a 4e3d 6e54 673d
000001b0: 260b 453d 8ac8 763d a785 783d 0e72 423f
000001c0: 59af 033f dd9a 2c3b 8e0b 833d c110 603d
000001d0: c066 6f3d 189f 643d 497f 0b3f 505b 9d3d
000001e0: af17 643d face 5e3d c002 113f c5d4 2a3d
000001f0: ee0f 423b 2b93 6f3d c613 813d 13d8 683d
00000200: 44ff 5d3e b58e a63c 93f3 06bf f7f8 e73e
00000210: 7818 413e bcd8 ed3d 7cc8 943e a9e0 8bba
00000220: 8d00 923e fa28 043f 6986 763e 8476 0a3f
00000230: 0173 e93c e4e8 893e 31f4 11bb 6843 243e
00000240: 616d 40bc d97a 033f 8e5e 313f 914a 1e3f
00000250: d1cb dabd 13e1 0b3e 3e24 493f b867 923e
00000260: c972 723e c3c8 c23c 2c39 683e a14b f53d
00000270: bd6c ff3e d378 32bb b57b e03d 05d1 aabe
00000280: a2ca 3d3f 11f4 773e 9eab 883e 9265 d0bd
00000290: a1b6 523e 5f8b 633e db5f 6c3e efb2 6f3e
000002a0: ec2e 493e 09af 873e c5e8 a23e ae1a 613e
000002b0: 2b1b 853e 9291 b93e e071 5a3e 9188 6b3e
000002c0: 27d1 123f 93fe ad3a 6b6d dd3d 2cbb 453e
000002d0: e29f 973d 586c 603e ce21 c33e 9ff1 b2bc
000002e0: 61a7 853e 3bf7 843e b001 0b3f 80aa 8a3e
000002f0: f1c5 2cbb 0cc0 8a3e 9d4a 4f3e da27 523e
00000300: e740 40bd 9174 aa3e 6fb0 f43e 6ea1 17bf
00000310: 1518 86be 9925 7c3e 9cf5 a8bc 151c b1b9
00000320: 6fa0 ca3e c2de 9bbe 149a 1fbe 4bc3 81be
00000330: 12fb af3e 4d48 87be af7f 08bb b025 34be
00000340: 0135 c23e b049 e1be 63db 50be 79e0 9abe
00000350: 1256 e03e c778 053e 30bf 54be 2841 c93d
00000360: 8908 0cbf 0ad1 ca3e 5e6d ccbe ede5 c83e
00000370: 79a8 03bf 57ec 2bbb 235e 0b3d ffa8 fb3d
00000380: b8c8 9fbe baa4 ff3d ae6d eebe 28d9 21bf
00000390: 98d3 b2be 148f 44be 2127 e0be ead5 163a
000003a0: 3b3b edbd 4f45 0c3e 01b5 1fbf 69f9 68bd
000003b0: 2320 0ebf ee62 0a3e a539 d13d 6890 393f
000003c0: 57aa 9fbd 8f31 c0ba 3bce 733d f0de 94be
000003d0: bd1f c83e b559 d83c b09a a5bd b06f a73e
000003e0: 8d84 c5be 39a1 23bc c8d4 56bd 2a80 dabd
000003f0: 2be5 e4b8 17f2 103d 3ca2 833e 4d78 98be

linear_output.bias f4 [4]
0.017176256 0.05666128 0.008381631 -0.04712262
00000000: 38b5 8c3c a915 683d 1c53 093c a603 41bd

exp_avg f4 [64, 13]
0.0007076659 -0.00028703825 -0.0019752316 0.00023366336 0.00070764945 -0.00026889762 -0.0019721654 0.00023352983
0.0007081179 -0.0002380607 -0.0019701165 0.00023329827 0.0011309125 0.0004931965 -0.0003798085 -0.001497192
0.00018221459 0.0004925242 -0.00038207546 -0.0015096407 0.0001818895 0.00048826722 -0.00037555466 -0.0015223349
0.00018246863 0.001039498 2.2834423e-05 6.995036e-06 -6.9493486e-05 7.597039e-06 2.1519225e-05 8.422642e-06
-6.788254e-05 7.677266e-06 2.061158e-05 1.02169015e-05 -6.7047826e-05 7.5440753e-06 4.199464e-05 0.00010269414
-3.9522896e-09 -0.00025362172 3.2084707e-05 0.00010724619 1.6511289e-05 -0.00023676203 3.2476517e-05 0.000113222115
2.4855333e-05 -0.00021871724 3.2050317e-05 0.0003062271 0.00051185035 -0.00038794058 -0.0015153942 0.00018463274
0.0005116739 -0.00039178212 -0.0015239569 0.00018429618 0.0005080565 -0.0003879815 -0.0015321632 0.00018483255
0.0009784187 -9.712802e-05 5.69097e-05 0.00028178736 -3.0925163e-05 -9.973721e-05 5.29845e-05 0.00028488677
-3.0666524e-05 -0.000102806924 4.550978e-05 0.00028517868 -3.101379e-05 -0.00019659354 -0.00010748297 4.8073674e-05
0.00031693807 -3.6564008e-05 -0.0001068148 4.3442837e-05 0.00031774482 -3.651904e-05 -0.0001059142 3.610896e-05
0.00031825548 -3.6513866e-05 -0.00021399815 0.00025291825 -0.00014708948 -0.00074399164 8.336413e-05 0.00025724585
-0.0001391956 -0.00074906216 8.286609e-05 0.0002620453 -0.00012383702 -0.00074927363 8.3502724e-05 0.0005351615
0.0007759988 -0.00040031245 -0.0022419668 0.00025911804 0.0007803005 -0.00039384663 -0.0022418553 0.00025880532
0.00078419875 -0.00037781135 -0.0022406515 0.00025900925 0.0011575894 -0.0005048848 0.0002571941 0.0014705488
-0.00016829585 -0.0005073945 0.00024504674 0.0014735165 -0.00016791775 -0.0005103225 0.00022297092 0.0014737366
-0.00016824855 -0.0008743555 7.1403615e-06 -1.9132025e-05 -3.0129335e-05 2.4674919e-06 8.777147e-06 -1.9797866e-05
-3.1147832e-05 2.3466569e-06 1.0709401e-05 -1.9906376e-05 -3.0780036e-05 2.557355e-06 4.903678e-05 -0.0005179075
0.00027131147 0.0014999465 -0.00017080098 -0.0005234125 0.0002573428 0.0015055828 -0.0001701716 -0.0005299768
0.00023107207 0.0015054392 -0.00017088852 -0.0009487407 0.00027165693 -0.00024747822 -0.00085302396 0.000105354455
0.0002700275 -0.00025020904 -0.00086385704 0.00010511416 0.00026526384 -0.00024745223 -0.0008746228 0.00010557728
0.0006707284 0.00026128703 -0.00020205972 -0.00078581815 9.539163e-05 0.00026081523 -0.00020331764 -0.0007916146
9.521313e-05 0.00025836518 -0.00020035292 -0.00079714734 9.551106e-05 0.0005257081 -7.721016e-05 4.7215864e-05
0.00022548993 -2.4877812e-05 -7.94126e-05 4.4035434e-05 0.00022801192 -2.4655943e-05 -8.208047e-05 3.7805243e-05
0.00022810171 -2.4973138e-05 -0.00017443816 0.00032311148 -0.00016915792 -0.000939838 0.00010689072 0.00032631133
-0.00015805027 -0.0009442943 0.00010643293 0.00032999687 -0.0001380496 -0.0009442778 0.00010696529 0.0006466501
-0.0004966876 0.00026919704 0.0014941504 -0.00017343726 -0.0004929012 0.00026037454 0.0014972849 -0.00017337833
-0.0004877347 0.0002440068 0.0014997167 -0.00017328211 -0.0008505504 -6.280738e-05 4.0538172e-05 0.00018326593
-1.9654868e-05 -6.500262e-05 3.7819023e-05 0.00018600153 -1.9436045e-05 -6.765665e-05 3.2446696e-05 0.00018632176
-1.974193e-05 -0.00013659862 0.00040978685 -0.00021779239 -0.0012355852 0.00014005249 0.00041012716 -0.00021489238
-0.0012409571 0.00013978007 0.00040681456 -0.000205592 -0.0012447895 0.0001402496 0.00082545064 -0.00018294972
8.2882005e-05 0.00051274634 -5.9120954e-05 -0.00018482693 7.731435e-05 0.0005140662 -5.892796e-05 -0.0001870362
00000000: a882 393a 9f7d 96b9 e372 01bb 8803 7539
00000010: 8d81 393a d4fa 8cb9 723f 01bb b0df 7439
00000020: fda0 393a ef9f 79b9 121d 01bb 87a1 7439
00000030: 203b 943a db49 013a 0921 c7b9 6d3d c4ba
00000040: db10 3f39 bd1c 013a 4d51 c8b9 23df c5ba
00000050: 97b9 3e39 1efe ff39 18e6 c4b9 1589 c7ba
00000060: 0d55 3f39 c43f 883a 8d8c bf37 e7b6 ea36
00000070: 08bd 91b8 11ea fe36 2f84 b437 f94e 0d37
00000080: 295c 8eb8 9bcd 0037 08e7 ac37 4269 2b37
00000090: 079c 8cb8 1d23 fd36 6723 3038 7f5d d738
000000a0: b5cc 87b1 88f8 84b9 b192 0638 5ce9 e038
000000b0: b981 8a37 5343 78b9 6537 0838 a971 ed38
000000c0: 6c80 d037 7657 65b9 c46d 0638 1b8d a039
000000d0: b22d 063a 8164 cbb9 31a0 c6ba f999 4139
000000e0: db21 063a 1b68 cdb9 82bf c7ba a13f 4139
000000f0: 182f 053a ff69 cbb9 ded2 c8ba 9ccf 4139
00000100: 493e 803a 35b1 cbb8 53b2 6e38 dcbc 9339
00000110: a4b5 01b8 022a d1b8 ac3b 5e38 db5c 9539
00000120: ee9f 00b8 0c9a d7b8 c1e1 3e38 0984 9539
00000130: ce14 02b8 ad24 4eb9 7b68 e1b8 b7a2 4938
00000140: b52a a639 4e5c 19b8 c201 e0b8 6436 3638
00000150: fd96 a639 052c 19b8 411e deb8 b373 1738
00000160: 87db a639 7726 19b8 b164 60b9 1d9a 8439
00000170: 083c 1ab9 6f08 43ba c7d3 ae38 f4de 8639
00000180: 09f5 11b9 b65c 44ba 65c8 ad38 2063 8939
00000190: 3fda 01b9 e76a 44ba 2f1e af38 154a 0c3a
000001a0: 666c 4b3a 07e1 d1b9 f6ed 12bb 3cda 8739
000001b0: 158d 4c3a 337d ceb9 17ec 12bb 43b0 8739
000001c0: b092 4d3a fb14 c6b9 e5d7 12bb a2cb 8739
000001d0: 41ba 973a 3f5a 04ba 02d8 8639 6ebf c03a
000001e0: 9378 30b9 ab02 05ba 9e79 8039 0223 c13a
000001f0: 1413 30b9 2ac7 05ba 4dcd 6939 652a c13a
00000200: e06b 30b9 0135 65ba 3d97 ef36 b67d a0b7
00000210: 41be fcb7 3097 2536 8f41 1337 9813 a6b7
00000220: bba4 02b8 427b 1d36 87ac 3337 9efc a6b7
00000230: d019 01b8 069f 2b36 d7ac 4d38 2fc4 07ba
00000240: cf3e 8e39 da99 c43a 0a19 33b9 9e35 09ba
00000250: f7eb 8639 fa56 c53a 1770 32b9 24ee 0aba
00000260: f04b 7239 2852 c53a 8a30 33b9 e9b4 78ba
00000270: 2d6d 8e39 f7bf 81b9 789d 5fba bef1 dc38
00000280: 7a92 8d39 7d2e 83b9 7774 62ba bc70 dc38
00000290: 1c13 8b39 7abc 81b9 f146 65ba 5f69 dd38
000002a0: d2d3 2f3a 5afd 8839 fedf 53b9 5dff 4dba
000002b0: fe0c c838 07be 8839 aa31 55b9 5b84 4fba
000002c0: 29ad c738 3075 8739 d415 52b9 a7f7 50ba
000002d0: 1c4d c838 accf 093a e4eb a1b8 a609 4638
000002e0: 7e71 6c39 b2b0 d0b7 518a a6b8 b0b2 3838
000002f0: 7c16 6f39 3cd4 ceb7 9e22 acb8 1291 1e38
00000300: 962e 6f39 687d d1b7 63e9 36b9 4a67 a939
00000310: fc5f 31b9 765f 76ba 852a e038 c414 ab39
00000320: 4cba 25b9 858a 77ba bf34 df38 6e03 ad39
00000330: 68c1 10b9 6989 77ba 8e52 e038 f483 293a
00000340: 2434 02ba 0423 8d39 5ed7 c33a b6dc 35b9
00000350: 0a36 01ba e182 8839 8b40 c43a e4cc 35b9
00000360: a5b6 ffb9 14dc 7f39 2492 c43a 10b3 35b9
00000370: 79f7 5eba 75b7 83b8 8807 2a38 132b 4039
00000380: 82e0 a4b7 0452 88b8 de9f 1e38 6809 4339
00000390: 970a a3b7 e3e2 8db8 6017 0838 5e5f 4339
000003a0: 799b a5b7 ea3b 0fb9 a9d8 d639 335f 64b9
000003b0: 5cf3 a1ba 0edb 1239 5606 d739 bc54 61b9
000003c0: 9ca7 a2ba ed91 1239 ba49 d539 2f94 57b9
000003d0: 3428 a3ba f70f 1339 0e63 583a 31d6 3fb9
000003e0: f0d0 ad38 d369 063a a4f8 77b8 1ace 41b9
000003f0: d323 a238 66c2 063a 6a29 77b8 261f 44b9

exp_avg_sq f4 [64, 13]
1.0739806e-06 2.6371495e-07 9.183567e-06 1.2780193e-07 1.0763977e-06 2.2753957e-07 9.119062e-06 1.2766364e-07
1.0830297e-06 1.8399912e-07 9.052193e-06 1.2772385e-07 7.881171e-06 7.4449133e-07 3.3907253e-07 7.914092e-06
8.76637e-08 7.5757254e-07 3.6989493e-07 8.043396e-06 8.755355e-08 7.789797e-07 4.169857e-07 8.196797e-06
8.7545196e-08 4.7748413e-06 2.8949975e-08 7.4843785e-09 2.748909e-07 3.5414158e-09 2.8941097e-08 6.916191e-09
2.72359e-07 3.5368746e-09 2.9408481e-08 6.667151e-09 2.6862978e-07 3.5390517e-09 3.0116942e-07 4.230395e-07
3.9101081e-07 5.5758283e-06 4.1638252e-08 4.4695062e-07 5.035019e-07 5.5571677e-06 4.1614413e-08 4.9830396e-07
6.7007704e-07 5.496584e-06 4.164341e-08 3.9869815e-06 6.0707026e-07 2.4346247e-07 6.1759956e-06 7.1335485e-08
6.1689354e-07 2.596992e-07 6.2736726e-06 7.127123e-08 6.303376e-07 2.818365e-07 6.388486e-06 7.126802e-08
3.674448e-06 1.6517151e-07 5.983114e-08 1.7173527e-06 2.011359e-08 1.661467e-07 6.349502e-08 1.699514e-06
2.0093578e-08 1.7192625e-07 7.3009936e-08 1.6735288e-06 2.010029e-08 1.6957695e-06 1.9477236e-08 5.6372356e-09
1.8246477e-07 2.415543e-09 1.9356843e-08 5.065328e-09 1.8177344e-07 2.4127136e-09 1.9328917e-08 4.4255333e-09
1.8067506e-07 2.4139786e-09 1.8497803e-07 5.1692996e-07 1.981059e-07 5.4437955e-06 6.269323e-08 5.20339e-07
2.1349396e-07 5.3898816e-06 6.2641e-08 5.394571e-07 2.4847395e-07 5.3096637e-06 6.265566e-08 5.2970468e-06
6.0494693e-07 1.8914514e-07 5.382884e-06 7.3312115e-08 6.0704815e-07 1.7741928e-07 5.391488e-06 7.325522e-08
6.077007e-07 1.5686518e-07 5.425293e-06 7.328329e-08 2.4236178e-06 3.3760335e-07 1.1456729e-07 3.3640558e-06
4.130641e-08 3.3873297e-07 1.1526779e-07 3.3440394e-06 4.127997e-08 3.4574504e-07 1.2154213e-07 3.3161887e-06
4.1284526e-08 2.6277055e-06 7.336691e-08 2.6184077e-08 7.371975e-07 8.852206e-09 7.366037e-08 2.708374e-08
7.3204393e-07 8.843139e-09 7.541404e-08 2.9712467e-08 7.241626e-07 8.846233e-09 7.058861e-07 7.2485534e-07
2.7695998e-07 7.5919147e-06 8.762104e-08 7.3073466e-07 2.9861894e-07 7.516051e-06 8.756014e-08 7.587568e-07
3.4754447e-07 7.4066643e-06 8.7571976e-08 6.9643497e-06 4.144576e-07 1.7043003e-07 4.434278e-06 5.001815e-08
4.2004146e-07 1.8362454e-07 4.5202996e-06 4.9956753e-08 4.2838838e-07 2.0155473e-07 4.6174137e-06 4.994962e-08
2.737499e-06 1.8159035e-07 8.181675e-08 1.9230142e-06 2.1325366e-08 1.849609e-07 9.015947e-08 1.956125e-06
2.1297382e-08 1.8999127e-07 1.01320545e-07 1.9942386e-06 2.1294e-08 1.1327423e-06 1.4025072e-07 5.21048e-08
1.4470039e-06 1.6912635e-08 1.4135159e-07 5.5382365e-08 1.4339879e-06 1.689564e-08 1.4627182e-07 6.336121e-08
1.4148596e-06 1.690076e-08 1.3672251e-06 4.1480274e-07 1.6009716e-07 4.393153e-06 5.0322704e-08 4.1769303e-07
1.7311233e-07 4.3503615e-06 5.028667e-08 4.335665e-07 2.023461e-07 4.2862425e-06 5.0294403e-08 4.191151e-06
5.712637e-07 1.7129203e-07 5.3896797e-06 7.243214e-08 5.655142e-07 1.5024318e-07 5.3890585e-06 7.235708e-08
5.595094e-07 1.2279814e-07 5.384201e-06 7.23874e-08 4.530373e-06 1.2857227e-07 4.566584e-08 1.320371e-06
1.5525563e-08 1.2940671e-07 4.8303804e-08 1.3074042e-06 1.5509784e-08 1.3376517e-07 5.5212336e-08 1.2884896e-06
1.5515983e-08 1.3112932e-06 4.0633267e-07 1.5806282e-07 4.132511e-06 5.027071e-08 4.100638e-07 1.624618e-07
4.209505e-06 5.0226614e-08 4.146722e-07 1.6678635e-07 4.3046207e-06 5.0215107e-08 2.6891512e-06 5.407999e-08
1.8846565e-08 5.578244e-07 6.663955e-09 5.435503e-08 1.9956632e-08 5.50873e-07 6.65973e-09 5.6243373e-08
00000000: b125 9035 b594 8d34 1f13 1a37 ed39 0934
00000010: be78 9035 9a51 7434 13fe 1837 ea13 0934
00000020: 9e5c 9135 4b91 4534 dfde 1737 7724 0934
00000030: 5f39 0437 0ed9 4735 c609 b634 c4c6 0437
00000040: a141 bc33 fd5b 4b35 f995 c634 1ff2 0637
00000050: 1305 bc33 141b 5135 14de df34 fa84 0937
00000060: 7b00 bc33 9337 a036 abad f832 a594 0032
00000070: b894 9334 3f5d 7331 259a f832 76a3 ed31
00000080: bc38 9234 5b0d 7331 ef9d fc32 e114 e531
00000090: 3238 9034 a833 7331 69b0 a134 1b1e e334
000000a0: 1eec d134 0018 bb36 bed5 3233 6df4 ef34
000000b0: 6328 0735 b577 ba36 88bb 3233 30c3 0535
000000c0: 58df 3335 4c6f b836 6adb 3233 e9c7 8536
000000d0: 8df5 2235 3ab5 8234 663b cf36 1931 9933
000000e0: 9a98 2535 c96c 8b34 7082 d236 c60d 9933
000000f0: 7834 2935 504f 9734 ad5c d636 020c 9933
00000100: 8996 7636 005a 3134 847c 8033 ca7f e635
00000110: 41c6 ac32 0f66 3234 c25a 8833 db1a e435
00000120: 3f9a ac32 ba9a 3834 a3c9 9c33 039e e035
00000130: 01a9 ac32 329a e335 e54e a732 a6b1 c131
00000140: 89eb 4334 affe 2531 2646 a632 190b ae31
00000150: 812d 4334 e8cc 2531 bd08 a632 670f 9831
00000160: 95ff 4134 29e3 2531 609e 4634 28c3 0a35
00000170: efb6 5434 d9a9 b636 f8a1 8633 6cad 0b35
00000180: c63c 6534 bbda b436 4185 8633 36cf 1035
00000190: 0066 8534 aa29 b236 508d 8633 49bd b136
000001a0: a363 2235 d217 4b34 9f9e b436 c36f 9d33
000001b0: 08f4 2235 a480 3e34 87e8 b436 7c50 9d33
000001c0: e020 2335 c66e 2834 e90a b636 ea5f 9d33
000001d0: 70a5 2236 da3f b534 0908 f633 0ac2 6136
000001e0: e168 3133 1bdb b534 2389 f733 296a 6036
000001f0: cf4b 3133 d69e b934 3f81 0234 b08b 5e36
00000200: d150 3133 a357 3036 e38d 9d33 65eb e032
00000210: d4e3 4535 6a14 1832 372f 9e33 c6a5 e832
00000220: ad81 4435 89ec 1732 4ff3 a133 683a ff32
00000230: 1364 4235 25fa 1732 207c 3d35 ae93 4235
00000240: 17b1 9434 0dbe fe36 2d2a bc33 b427 4435
00000250: e051 a034 6332 fc36 b208 bc33 5fad 4b35
00000260: 2696 ba34 c386 f836 340f bc33 4faf e936
00000270: 9e82 de34 73ff 3634 28ca 9436 8ad3 5633
00000280: 0f82 e134 542a 4534 14ad 9736 0890 5633
00000290: 40fd e534 f16a 5834 48ef 9a36 3088 5633
000002a0: e0b5 3736 2dfb 4234 3cb3 af33 220d 0136
000002b0: fa2e b732 aa99 4634 b19d c133 f945 0336
000002c0: 70f1 b632 6700 4c34 8f95 d933 c2d4 0536
000002d0: 00ea b632 bb08 9835 d397 1634 d5c9 5f33
000002e0: ad36 c235 4747 9132 6ec6 1734 8edd 6d33
000002f0: 7377 c035 e821 9132 e40e 1d34 3211 8833
00000300: 35e6 bd35 2a2d 9132 7f81 b735 0eb2 de34
00000310: 2ce7 2b34 e668 9336 6622 5833 4b3f e034
00000320: c1e0 3934 52f9 9136 c7fa 5733 edc4 e834
00000330: 7944 5934 8bd2 8f36 4803 5833 b7a1 8c36
00000340: f158 1935 65ec 3734 ffd8 b436 fd8b 9b33
00000350: d7cd 1735 8852 2134 a9d3 b436 ba62 9b33
00000360: 3131 1635 7fda 0334 efa9 b436 6573 9b33
00000370: 9c03 9836 ad0d 0a34 1f22 4433 9a37 b135
00000380: 135d 8532 0cf3 0a34 9876 4f33 117a af35
00000390: 603a 8532 17a1 0f34 9b22 6d33 2af0 ac35
000003a0: 0248 8532 b1ff af35 f025 da34 fab7 2934
000003b0: 00aa 8a36 3be9 5733 bd26 dc34 2971 2e34
000003c0: 5f3f 8d36 bfb8 5733 1da0 de34 e215 3334
000003d0: 6970 9036 18ac 5733 4477 3436 9445 6833
000003e0: 09e4 a132 67bd 1535 c5f8 e431 fd73 6933
000003f0: 196d ab32 b4df 1335 9bd3 e431 3e90 7133

exp_avg f4 [64]
0.0013310605 0.0010391842 4.3221014e-05 0.00018233404 0.0010525608 -0.00017649317 -0.00020837523 0.00047558406
0.001476373 -0.0009591998 1.4280992e-05 -0.000973827 0.00060095184 0.00054390024 -0.00014206463 0.0006095911
-0.0009884151 -0.000112250265 0.0007985526 -0.00033694654 -0.00025193038 -0.00041823514 -0.00014698987 -0.0008335751
0.0011924847 0.0009577565 -7.283918e-05 0.0003082935 -6.562219e-05 -6.970964e-05 0.0 -0.0006199163
0.0003103246 0.0012419496 -4.2516595e-07 -3.6569494e-07 -0.00049473136 0.00042470876 -1.9687626e-05 0.00052206666
0.0007256273 0.00025354506 -0.00043293863 0.0011460524 0.00015541549 -7.393882e-06 6.673835e-05 -0.00031568765
-0.000102784456 7.886235e-07 0.0019800744 0.00020757824 -0.0005818678 0.0010067584 -0.0007806864 0.00070782297
0.0007087307 -0.0002689359 -3.7663704e-05 0.000552943 0.0001680785 0.00019307804 -0.00042649417 0.00055742124
00000000: fb76 ae3a 3c35 883a 3648 3538 ec30 3f39
00000010: 14f6 893a 0611 39b9 4d7f 5ab9 d057 f939
00000020: dc82 c13a cf72 7bba 6598 6f37 6c48 7fba
00000030: 3289 1d3a 8794 0e3a 2ff7 14b9 f7cc 1f3a
00000040: b58d 81ba e767 ebb8 f555 513a 33a8 b0b9
00000050: 8615 84b9 9246 dbb9 4b21 1ab9 4784 5aba
00000060: 264d 9c3a f311 7b3a 3dc1 98b8 74a2 a139
00000070: a59e 89b8 1431 92b8 0000 0000 e181 22ba
00000080: 10b3 a239 eac8 a23a 5d42 e4b4 bb54 c4b4
00000090: dcb0 01ba 72ab de39 db26 a5b7 4ddb 083a
000000a0: 0638 3e3a 3eee 8439 0afc e2b9 2337 963a
000000b0: 07f7 2239 f618 f8b6 e1f5 8b38 e182 a5b9
000000c0: fc8d d7b8 cbb1 5335 23c4 013b 5ca9 5939
000000d0: 7d88 18ba 35f5 833a faa6 4cba 328d 393a
000000e0: 1dca 393a f7ff 8cb9 18f9 1db8 60f3 103a
000000f0: 3b3e 3039 fe74 4a39 149b dfb9 e81f 123a

exp_avg_sq f4 [64]
4.1438957e-06 2.841932e-06 1.1489152e-07 1.3530271e-06 2.3130983e-06 6.527161e-07 7.832463e-08 2.0346274e-06
2.376028e-06 1.3398657e-06 2.8722312e-07 2.8434795e-06 1.6215904e-06 6.9125826e-07 5.488052e-07 1.6331403e-06
2.3482896e-06 5.038013e-07 1.6293612e-06 2.1624642e-07 3.7487962e-07 3.43217e-07 6.487536e-07 1.0461142e-06
6.059057e-06 1.7763786e-06 1.2209182e-07 7.825643e-08 2.0609492e-07 7.1905233e-06 0.0 5.650817e-07
2.780203e-06 2.5519566e-06 1.4352617e-08 1.9825181e-08 9.734564e-07 5.724414e-06 8.832335e-07 4.5774243e-07
3.3243168e-06 1.18325566e-07 1.3115744e-06 2.7454496e-06 1.3184899e-06 2.3083966e-07 2.1973792e-06 9.37056e-07
6.262666e-06 1.9231132e-09 2.0530299e-05 3.5665744e-06 7.037056e-07 2.2395157e-06 1.91648e-06 1.7292025e-06
1.0835198e-06 1.4969537e-07 1.7798731e-06 5.9841705e-07 1.7755682e-06 1.2827737e-06 1.1764671e-06 5.6384454e-07
00000000: cb0b 8b36 05b8 3e36 48ba f633 a899 b535
00000010: ba3a 1b36 4f36 2f35 6c33 a833 a28a 0836
00000020: da73 1f36 6fd5 b335 a533 9a34 9bd2 3e36
00000030: 6ca5 d935 e88e 3935 9b51 1335 4632 db35
00000040: 4f97 1d36 f63c 0735 6db0 da35 5d31 6834
00000050: 1043 c934 6343 b834 0226 2e35 3668 8c35
00000060: e74e cb36 e76b ee35 5818 0334 ed0d a833
00000070: f14a 5d34 2046 f136 0000 0000 1eb0 1735
00000080: 8693 3a36 4842 2b36 7a93 7632 094c aa32
00000090: b5a7 8235 5814 c036 5817 6d35 a4bf f534
000000a0: 5417 5f36 2b1a fe33 5a09 b035 773e 3836
000000b0: f8f6 b035 b9dc 7734 b076 1336 ff89 7b35
000000c0: e423 d236 c427 0431 7b38 ac37 4859 6f36
000000d0: 48e6 3c35 964a 1636 e09c 0036 f216 e835
000000e0: 756d 9135 f3bb 2034 f9e3 ee35 e8a2 2035
000000f0: 0f50 ee35 c52b ac35 1ae7 9d35 1a5b 1735

exp_avg f4 [64, 64]
2.7963366e-05 2.7128453e-05 3.793798e-05 5.8628657e-06 2.1410357e-05 0.00010333655 1.4157079e-05 1.734328e-05
4.0515042e-05 2.565043e-05 7.1519403e-06 3.691695e-05 3.0568597e-05 2.0491309e-05 8.718056e-05 2.5069394e-05
1.3649464e-05 2.5817157e-05 2.6001071e-05 5.232233e-05 2.9836894e-05 8.715034e-05 6.651717e-05 1.7162567e-05
3.3429053e-05 2.4330191e-05 3.9624192e-05 1.6579714e-05 2.0080886e-06 1.8975517e-05 0.0 2.2511214e-05
2.6185793e-05 4.7240137e-05 1.5504211e-06 -4.0921194e-08 4.2940203e-05 3.6029396e-05 3.5838093e-05 2.340206e-05
2.4620236e-05 6.8023105e-06 1.758597e-05 1.3062079e-05 2.8067327e-06 8.63559e-05 9.632098e-07 3.4396886e-05
2.2753218e-05 5.8829573e-07 1.6458745e-05 1.8230116e-05 4.695903e-05 2.4408693e-05 3.397795e-05 8.907917e-06
1.3610829e-05 3.0880798e-05 1.5500174e-06 4.1008614e-05 2.660596e-05 4.9566665e-06 2.46288e-05 1.7376284e-05
-1.122955e-05 2.9036717e-06 -1.4292201e-05 4.2918128e-07 2.724339e-06 -3.917851e-05 -6.1425567e-06 -4.5285406e-06
-4.8834777e-06 -1.0312581e-05 -1.5678422e-06 -1.3020374e-05 4.5444662e-07 3.0462156e-06 -3.2320848e-05 -7.2449307e-06
-5.4250063e-06 -8.769105e-06 2.1446433e-06 -1.8011617e-05 -1.05871195e-05 -3.0181774e-05 -2.5617102e-05 -4.578113e-06
-6.7175038e-06 -1.5004691e-06 -1.4335923e-05 4.0123023e-06 -7.354583e-08 -4.4765434e-06 0.0 -8.128108e-06
-6.6982893e-06 -1.1252247e-05 2.1716977e-08 5.8023215e-08 -1.35467e-05 -8.919679e-06 -1.5682943e-05 2.1890446e-06
-5.929903e-06 1.423158e-06 -1.8637026e-06 1.7394891e-06 2.8839172e-06 -3.080785e-05 -6.97856e-07 -1.2385274e-05
-6.78804e-06 -3.0162823e-12 -1.6885671e-06 -5.065661e-06 -1.4771912e-05 1.6693514e-06 -1.23484e-05 2.2696427e-06
1.5875828e-06 -1.2444152e-05 -1.614622e-06 -1.4078208e-05 -6.388646e-06 2.9502876e-06 1.4488076e-06 1.9980325e-06
-5.523122e-06 1.48962545e-05 -5.1297798e-06 8.271954e-07 1.2382255e-05 -1.5935542e-05 -3.6988101e-06 -9.1737957e-07
9.62739e-06 -3.6459742e-06 -1.4611666e-07 -3.146955e-06 1.3013153e-05 1.2444041e-05 -1.1134819e-05 -2.4815054e-06
-1.3299077e-06 -4.287861e-06 1.3860048e-05 -5.8317955e-06 -2.4129142e-06 -7.9221545e-06 -9.318984e-06 -2.3989537e-07
2.6682803e-06 7.0693777e-06 -4.5772535e-06 1.2113781e-05 -3.1572375e-07 -3.4733165e-07 0.0 -3.373282e-06
-1.2177454e-06 2.68252e-06 3.891187e-08 9.505593e-08 -4.349388e-06 -2.303608e-06 -6.569014e-06 1.2613617e-05
-1.944647e-06 3.5913233e-06 4.6915675e-06 7.317998e-06 4.6618734e-06 -9.899973e-06 -8.0150306e-07 -3.104074e-06
-9.761002e-07 4.5299073e-10 9.638628e-07 -9.323757e-07 -3.2429148e-06 1.242099e-05 -4.1491853e-06 6.9869293e-06
7.227536e-06 -4.0271425e-06 -2.0372488e-06 -5.5578853e-06 -3.0073102e-07 5.1734964e-06 1.1798498e-05 1.04941255e-05
5.5943765e-05 1.5219358e-05 7.586357e-05 3.7071368e-06 1.0913242e-05 0.0002106914 2.8734712e-05 2.5795378e-05
4.0227143e-05 5.7303892e-05 1.09481425e-05 9.729179e-05 2.2668037e-05 9.709845e-06 0.00018423471 3.862949e-05
3.5109137e-05 4.7852955e-05 1.5858233e-05 0.000109928405 7.438041e-05 0.00020035979 0.0001447471 4.6318168e-05
3.7938593e-05 2.1633967e-05 8.6681735e-05 5.323093e-06 1.8853349e-06 3.3838995e-05 0.0 4.509708e-05
4.2537282e-05 5.9628757e-05 2.7588095e-07 -1.1757087e-07 9.9956065e-05 5.8169397e-05 8.582863e-05 1.4491779e-05
3.7905553e-05 -1.024185e-06 1.6470227e-05 6.7296314e-06 1.9934344e-06 0.00018368229 2.7122928e-06 9.019251e-05
4.171322e-05 8.985908e-08 2.6889003e-05 3.3470995e-05 0.000111767906 1.5560117e-05 6.925164e-05 1.7034371e-06
7.3458127e-06 6.011975e-05 4.7872013e-06 6.443223e-05 4.2830965e-05 8.648787e-06 1.538396e-05 9.331704e-06
00000000: df92 ea37 e991 e337 991f 1f38 a2b9 c436
00000010: 649a b337 63b6 d838 3184 6d37 697c 9137
00000020: b2ee 2938 e12b d737 b3fa ef36 46d7 1a38
00000030: c836 0038 c0e4 ab37 b5d4 b638 1d4c d237
00000040: 0000 6537 ec91 d837 e01c da37 ad74 5b38
00000050: 3e4a fa37 7cc4 b638 227f 8b38 55f8 8f37
00000060: 2c36 0c38 b018 cc37 2732 2638 aa14 8b37
00000070: b3c2 0636 9d2d 9f37 0000 0000 77d6 bc37
00000080: 90a9 db37 b623 4638 1018 d035 54c1 2fb3
00000090: b11a 3438 451e 1738 dc50 1638 8b4f c437
000000a0: 8e87 ce37 673f e436 9585 9337 3425 5b37
000000b0: 4d5b 3c36 f919 b538 a347 8135 6045 1038
000000c0: 2ade be37 60eb 1d35 e310 8a37 e0ec 9837
000000d0: e0f5 4438 45c1 cc37 8c83 0e38 3673 1537
000000e0: 115a 6437 0186 0138 310a d035 aa00 2c38
000000f0: dd2f df37 7151 a636 f299 ce37 49c3 9137
00000100: 8d66 3cb7 b3dc 4236 89c8 6fb7 3a6a e634
00000110: cad3 3636 9b53 24b8 291c ceb6 def3 97b6
00000120: c1dc a3b6 3304 2db7 a66e d2b5 1572 5ab7
00000130: abfa f334 966d 4c36 3f90 07b8 7b19 f3b6
00000140: 7308 b6b6 051f 13b7 b1ec 0f36 a717 97b7
00000150: 559f 31b7 de2e fdb7 4fe4 d6b7 b19d 99b6
00000160: eb66 e1b6 ba63 c9b5 5284 70b7 6aa1 8636
00000170: 3ff0 9db3 3735 96b6 0000 0000 f55d 08b7
00000180: dec1 e0b6 08c8 3cb7 238c ba32 3335 7933
00000190: a246 63b7 bba5 15b7 dd8e 83b7 80e7 1236
000001a0: 7bf9 c6b6 5603 bf35 5524 fab5 6478 e935
000001b0: 5289 4136 ad37 01b8 4d54 3bb5 59ca 4fb7
000001c0: d2c4 e3b6 8340 54ac b9a2 e2b5 b2f9 a9b6
000001d0: e1d4 77b7 7a0e e035 f92b 4fb7 2a50 1836
000001e0: ee14 d535 3ac7 50b7 fdb5 d8b5 7131 6cb7
000001f0: 0d5e d6b6 8efd 4536 a674 c235 f015 0636
00000200: 4253 b9b6 edea 7937 7920 acb6 6f0c 5e35
00000210: 61bd 4f37 51ad 85b7 1339 78b6 d841 76b5
00000220: 5385 2137 5cad 74b6 3ee4 1cb4 4630 53b6
00000230: 1153 5a37 c0c6 5037 afcf 3ab7 f087 26b6
00000240: 487f b2b5 72e0 8fb6 7488 6837 beae c3b6
00000250: 8ded 21b6 65e9 04b7 bb58 1cb7 f8ca 80b4
00000260: b510 3336 7e35 ed36 4f96 99b6 4b3c 4b37
00000270: be80 a9b4 e678 bab4 0000 0000 8b60 62b6
00000280: 6a71 a3b5 5805 3436 0e20 2733 8d21 cc33
00000290: f5f0 91b6 af97 1ab6 676b dcb6 139f 5337
000002a0: c880 02b6 7702 7136 426c 9d36 208d f536
000002b0: 306d 9c36 0f18 26b7 df26 57b5 964f 50b6
000002c0: 8c02 83b5 c708 f92f 135e 8135 5f48 7ab5
000002d0: daa0 59b6 bf63 5037 3b39 8bb6 4471 ea36
000002e0: 1084 f236 e420 87b6 abb7 08b6 df7d bab6
000002f0: 2874 a1b4 ff97 ad36 2af2 4537 ed0f 3037
00000300: 29a5 6a38 a556 7f37 f218 9f38 20c8 7836
00000310: 0418 3737 0bed 5c39 530b f137 2763 d837
00000320: 91b9 2838 9659 7038 eaad 3737 2209 cc38
00000330: 3d27 be37 77e7 2237 212f 4139 1906 2238
00000340: 2642 1338 b8b5 4838 4c07 8537 5d89 e638
00000350: aefc 9b38 ac17 5239 41c7 1739 c145 4238
00000360: 4120 1f38 977a b537 e7c8 b538 059d b236
00000370: 9d0b fd35 58ee 0d38 0000 0000 9f26 3d38
00000380: 0f6a 3238 e419 7a38 ca1c 9434 457b fcb3
00000390: 819f d138 eafa 7338 e5fe b338 b821 7337
000003a0: c7fc 1e38 bb76 89b5 8b29 8a37 18cf e136
000003b0: f1c6 0536 d79a 4039 d604 3636 bc25 bd38
000003c0: 3bf5 2e38 8df8 c033 b28f e137 3563 0c38
000003d0: f064 ea38 1987 8237 313b 9138 a7a1 e435
000003e0: 0d7c f636 1729 7c38 bfa1 a036 ca1f 8738
000003f0: 66a5 3338 421a 1137 cd0c 8137 5d8f 1c37
