src/scripts/model/actor_best.pth (torch, 68975 bytes, 18 tensors)

linear_input.weight f4 [64, 13]
000000 cd 97 af 3e c0 3c d8 bd 46 0b 64 be 34 06 a4 3c
       0.34295502 -0.10558462 -0.22269925 0.02002249
000010 75 86 b9 3d 32 d9 5b be a7 71 d0 3d 6d 3c 32 be
       0.09058849 -0.21469572 0.101779275 -0.17405863
000020 79 89 05 3e e0 73 43 bd 96 3d 5d 3e 7d 68 0e 3e
       0.13040723 -0.04771793 0.21605524 0.13907047
000030 a3 51 13 3e b3 20 c3 bd b4 b2 8f 3e b5 07 88 3e
       0.1438661 -0.09527721 0.28066027 0.2656838
000040 97 4d 6c be da 3d 89 bd 6c 55 94 3e 2c 0a 4a 3e
       -0.23076473 -0.067012504 0.28971422 0.19730443
000050 78 60 3b be 39 43 6d be d5 f8 21 3e ee ef 80 bd
       -0.18298519 -0.23170175 0.15817578 -0.06295763
000060 fc ee 65 be 1a 8a 73 be d6 7a ac 3e e0 d1 c0 be
       -0.22454447 -0.2378315 0.33687466 -0.37660122
000070 b6 e7 6c bd 4a 2b 49 3e b7 ef bf bb d8 d1 d2 be
       -0.057838164 0.1964542 -0.0058574337 -0.41175723
000080 75 57 e1 3a 09 94 2d 3e b2 8e 6e 3e 3e a2 e4 be
       0.0017192202 0.16951002 0.23296621 -0.4465503
000090 57 53 22 bc 37 4f 07 3e a2 fc 86 3e 77 29 51 be
       -0.009907565 0.13213812 0.2636462 -0.20425974
0000a0 54 18 39 3e 4a 30 03 be 97 e5 cf bd 50 ef b4 bb
       0.18075687 -0.1281139 -0.10151213 -0.0055216923
0000b0 22 ca ac 3e fe e3 ad bd e2 d9 fc 3c 0a 2e 03 3d
       0.33747965 -0.08490752 0.030865613 0.03202633
0000c0 5b 4a 75 3d f6 13 5f 3d 6c c6 26 3e d5 cc 8b bc
       0.059885364 0.054462396 0.1628663 -0.017065445
0000d0 e3 99 a9 bd 41 38 e6 be 92 78 1a 3e a5 5d ad bd
       -0.08281305 -0.44964793 0.15085056 -0.08465127
0000e0 e3 a9 81 3e 67 8a 69 be 7f f6 3a bd 29 82 52 3e
       0.25324926 -0.22806703 -0.045645233 0.20557465
0000f0 72 c8 c9 3d 7f bf 06 bf 86 90 3d 3d 3c 5b 07 3e
       0.09852685 -0.5263595 0.046280406 0.13218397
000100 00 b1 ac 3e de fb 95 be 89 4c d0 3e a7 f7 e3 3d
       0.3372879 -0.29293722 0.40683392 0.1113122
000110 e9 0a eb 3d f5 82 50 3c 81 07 cc 3e 5f ff b2 3b
       0.1147669 0.012726535 0.39849475 0.0054625715
000120 b9 59 de 3e 14 6e a7 bd 1b 66 e4 3e ad 4d a8 3d
       0.43427828 -0.081752926 0.4460915 0.082179405
000130 a1 7f af 3e 29 57 34 3e ab 02 1f be 69 c5 4b 3e
       0.3427706 0.17611374 -0.15528361 0.19899525
000140 06 d3 99 3e 29 e8 4d 3e ea eb d4 bc 20 ea f7 ba
       0.3004381 0.20108093 -0.025991399 -0.0018914379
000150 4c 48 3b 3e 56 4d 41 be de 62 d6 bd 25 ff ae 3e
       0.18289298 -0.18877158 -0.10468076 0.34179035
000160 41 ba 95 3e 2f 1e 9c 3e a1 d7 a3 3e 31 a8 15 3e
       0.29243663 0.30491778 0.3200045 0.14614941
000170 b8 d2 f4 be d3 a5 91 3d 8d 04 99 bd 8d 95 88 3e
       -0.47817016 0.071117066 -0.07471571 0.26676598
000180 e7 1e 14 bf 18 2e 23 bd 4f 83 7b bd fa 40 47 3e
       -0.57859653 -0.03983888 -0.061404523 0.1945838
000190 ba b8 ab be bb 45 ea bd 61 e6 7d 3e 57 c7 54 3e
       -0.33539373 -0.11439081 0.24794914 0.20779167
0001a0 86 24 a8 3e 9e 64 e0 3d 7a 7f f6 bd c9 02 71 bd
       0.32840365 0.10956691 -0.12036033 -0.058840547
0001b0 0c 11 3b bd 78 37 29 3d 5b e3 de bd fd 31 0a 3e
       -0.045670554 0.041312665 -0.10883208 0.13495632
0001c0 66 9e a9 bc a1 9e ee 3d 7b d4 09 bd 17 f7 ba bc
       -0.020705413 0.1165135 -0.033649903 -0.0228229
0001d0 ae ff 55 be d9 bc f8 3d 32 38 6f bd 0c 79 1a be
       -0.20898315 0.12145395 -0.0584032 -0.15085238
0001e0 e7 59 2c be c1 bf 92 be 97 53 c1 3d 6e 69 16 3e
       -0.1683117 -0.28661922 0.094397716 0.14688656
0001f0 7f 6d f6 3c 9a 82 19 3e 63 2e 54 ba 6f f0 c9 bd
       0.030081509 0.14991227 -0.00080940704 -0.09860312
000200 3a 07 3f 3e 8c de b2 3d 07 b4 af 3d d3 48 2c be
       0.186551 0.08733854 0.08579259 -0.16824655
000210 3e b1 26 be d9 ad 53 be 41 cc d2 3d 51 41 38 3d
       -0.1627855 -0.20671786 0.102928646 0.044984166
000220 14 1f 28 3e 17 c9 07 be 37 a8 a5 bd 60 20 56 be
       0.16418105 -0.13260303 -0.08088725 -0.20910788
000230 f2 4f 5b bb df af a6 3d 56 a9 67 3e 8c 81 3b 3e
       -0.00334644 0.081390135 0.2262319 0.18311137
000240 da 6b 94 3d 19 03 55 bd 55 94 e0 3c ae b9 a8 3e
       0.072471336 -0.052004907 0.02741448 0.32954162
000250 d6 e8 17 3f da 76 b5 be 27 cd 3c 3e da f1 67 be
       0.59339654 -0.3544224 0.18437634 -0.22650853
000260 6c 0c a5 3e b5 2f a8 3c 11 cd 57 3e c4 87 84 be
       0.3223604 0.020530561 0.2107432 -0.2588483
000270 76 1c 9d be 7b a9 44 3c bc 25 13 be 2e fa b8 3b
       -0.30685776 0.012003298 -0.14369863 0.005645058
000280 7f 8c 56 be c5 7b b5 3d 33 54 81 3d 92 85 dd bd
       -0.20952033 0.08861498 0.06314888 -0.10816492
000290 91 e2 1c 3e ae a6 de 3d 28 60 38 bd 22 2c a0 bc
       0.15320803 0.108716354 -0.045013577 -0.019552294
0002a0 09 98 e8 bd 2e 2f 5c 3d cc 27 5f 3c 40 00 fb 3d
       -0.113571234 0.05375593 0.013620328 0.12255907
0002b0 3a 82 96 be b0 17 15 3e 56 17 b9 be f5 cc a3 3d
       -0.2939623 0.14559817 -0.36150616 0.07998077
0002c0 7d 4c 79 3e 06 a2 5a 3e 62 ed d5 be 74 43 26 be
       0.24345584 0.2135087 -0.4178267 -0.16236669
0002d0 b4 c0 1d 3d d1 f9 77 bb 97 44 cb 3d 1e cd 34 3e
       0.038513854 -0.0037838111 0.09925192 0.17656371
0002e0 98 7e 36 bc 75 0a b6 3e d5 63 15 be d0 84 5d 3e
       -0.011138581 0.35554853 -0.14588864 0.21632695
0002f0 c4 5c 36 be be 6c ba 3d b6 c5 74 3e 59 30 9c 3e
       -0.17808825 0.09102772 0.23903546 0.30505636
000300 0e df a7 bd 4c bf e7 3e d2 35 c3 be f9 b1 d2 3d
       -0.08196841 0.45263135 -0.38127 0.10287852
000310 bb d2 df bd 9a f1 78 3d 5e 49 4c 3e 35 88 ea 3c
       -0.109288655 0.060777284 0.19949862 0.028629402
000320 75 cf 7b be f1 93 79 be be 41 26 3e da 9d bc 3e
       -0.24590857 -0.24372841 0.16236016 0.3683918
000330 81 0e 56 be 81 aa 8d bd f8 84 ea bc 86 82 45 3e
       -0.2090397 -0.06917287 -0.028627858 0.19288072
000340 99 7b 01 3d 99 df c1 3e c6 27 60 3e f8 4d 39 3d
       0.031612013 0.37865904 0.21890172 0.045240372
000350 62 3f fc 3d 1c 75 86 3d 3f 10 86 be 00 76 b1 3d
       0.12316777 0.065653056 -0.2618427 0.08665085
000360 ee 43 e0 3d 1d d2 b3 3e 05 9a 57 be 38 07 7b 3e
       0.109504566 0.3512124 -0.21054848 0.24514472
000370 a4 8d b6 be 21 d9 d5 bd 4c 4f 74 3e 77 7b 2b be
       -0.35654938 -0.10441805 0.23858374 -0.16746317
000380 35 fb 12 3d 39 27 ad bd 29 d9 5e 3e 75 70 e4 bd
       0.0358841 -0.08454747 0.21762528 -0.11154262
000390 8a 82 c7 3e 46 2d cf bd 10 1b dc 3e 51 b9 42 be
       0.3896678 -0.10116057 0.42989397 -0.19016005
0003a0 84 55 09 3f 9d cd c7 be a5 c7 52 be 57 2d c0 3e
       0.5364611 -0.39024058 -0.20583971 0.37534592
0003b0 24 e6 53 be 39 be 83 3e 6c df ec bb 25 e3 69 3e
       -0.2069326 0.25731066 -0.0072287824 0.22840555
0003c0 dc 32 95 be 8e d3 f9 3e 5a a8 79 3e 63 ee 9e 3d
       -0.29140365 0.48794216 0.24380627 0.077603124
0003d0 ac 61 1d be a8 d6 08 3e 4b ac d3 be 0f 48 cd be
       -0.1536929 0.13363135 -0.41342387 -0.4009404
0003e0 b3 07 36 bd 02 ac 11 3e 80 ca 6f be e5 d4 a4 be
       -0.044440936 0.14225772 -0.23417091 -0.32193676
0003f0 72 8a 97 3e 82 4e 53 be cb 53 94 be d2 b1 6c be
       0.29597813 -0.20635417 -0.2897018 -0.23114708

linear_input.bias f4 [64]
000000 b4 5c 17 3e 22 f1 e2 3c be 38 50 be 74 30 bd 3e
       0.14781457 0.027702872 -0.20334145 0.3695103
000010 b7 46 5b 3e 9c 17 8d 3e 5f b8 ff bd 4c 58 92 3c
       0.21413694 0.27557075 -0.12486338 0.017864369
000020 22 a3 ec bd b1 dd 69 be 4b 2f 2a 3e f5 c2 dd bc
       -0.115545526 -0.22838475 0.16619603 -0.027070502
000030 c9 28 8e 3e ba 15 30 3e 29 44 97 3e f7 a0 06 3d
       0.27765492 0.17195788 0.2954419 0.03286835
000040 c3 d0 9a 3e cc 35 92 3e d9 2d be 3a 46 1d a0 be
       0.30237398 0.2855667 0.0014509513 -0.31272334
000050 b9 ec 87 3e 18 cb db 3e fa 61 e8 3e d6 21 14 3d
       0.26547793 0.42928386 0.4538725 0.03616508
000060 ab ae 82 3d 14 a0 bb bb 9b c9 e1 bc d9 ab 4e 3e
       0.063809715 -0.00572587 -0.027561953 0.20182742
000070 98 2f 6c 3e 61 6f d6 3e f3 64 33 bc 49 12 0b 3e
       0.2306503 0.4188185 -0.010949361 0.13581194
000080 68 87 4e 3e 2b 2e 26 be 28 3a 9d bd 6e d2 a9 bd
       0.20168841 -0.16228549 -0.07677108 -0.082920894
000090 88 d6 b7 3e b3 bf 8f 3e c4 8e b1 bd 8e 04 32 be
       0.35905862 0.28075942 -0.086698085 -0.1738455
0000a0 d4 8d 1c 3e f9 f7 d1 bd 09 01 76 be fe 4a b7 3e
       0.15288478 -0.10252375 -0.24023832 0.35799402
0000b0 a6 43 f5 bd a2 32 6c bc 7a ef 57 be 16 bb 11 3e
       -0.119757935 -0.014416369 -0.21087447 0.14231524
0000c0 ce e7 2b 3d 56 f2 45 be 19 94 47 be 85 1a 9a 3d
       0.041969113 -0.19330725 -0.19490089 0.075245894
0000d0 b7 89 ce 3c ed eb c7 bc 3b b4 b2 3e f4 b3 b9 3e
       0.025212152 -0.02440449 0.3490313 0.36270106
0000e0 02 a0 98 bd 0d 4f 2c bd 99 2a 78 be d6 1e 3e 3e
       -0.07452394 -0.042067576 -0.24235 0.1856645
0000f0 65 85 ba 3e f9 36 ee 3e 3a de 9a 3c 24 36 9f 3d
       0.36429897 0.46526316 0.018904794 0.077739984

linear_hidden.0.weight f4 [64, 64]
000000 ac fc dd bd 84 e7 73 3e 32 1f d4 bd 72 ee 08 3c
       -0.10839209 0.23818785 -0.103575125 0.008357631
000010 2a c4 f0 bd c4 f2 7d 3e 10 26 74 3e 10 cb 41 be
       -0.11756165 0.24799639 0.23842645 -0.18925118
000020 9a b0 d6 bd e7 e8 7d bd 59 80 d6 bd d1 e5 16 bd
       -0.10482903 -0.06198969 -0.10473699 -0.036840264
000030 ad 04 ac bd 75 77 cc bb f3 69 c6 3d 9c 11 f3 3c
       -0.08399329 -0.0062398263 0.09688177 0.029671483
000040 36 60 e3 3d 83 70 09 3e 7d 2a cc 3c ec 34 f4 3d
       0.11102335 0.13421826 0.024922604 0.119241565
000050 d4 97 11 3d a5 18 84 3e a7 bd 90 3e af cb 82 bc
       0.035545185 0.25800052 0.28269693 -0.015966265
000060 9d 08 42 3e b3 ed cd 3e ef d0 69 bd c5 9d 66 3e
       0.18948598 0.40220413 -0.05708402 0.22521122
000070 e6 1e af bd d4 ec 9d 3d 53 8d 03 bd f5 e3 94 3e
       -0.08550815 0.07711187 -0.0321172 0.29080167
000080 34 69 25 3e ee b4 bd 3d a3 76 9e be cf c5 53 3e
       0.16153413 0.09263025 -0.30949888 0.20680927
000090 6f ec 80 3e 5c 8a ce 3d fd c5 c1 3d b4 71 ee 3d
       0.25180385 0.10084984 0.094615914 0.11642781
0000a0 69 89 d2 3e 30 4f ea 3d 37 86 72 bd f1 73 ef 3c
       0.4112046 0.11440885 -0.05921003 0.02923009
0000b0 5c a3 fb 3a c8 2c 09 3d f3 98 94 be 59 7f 04 3e
       0.0019198465 0.033489972 -0.2902294 0.12939204
0000c0 b8 6b 51 3e cc a9 b4 3c 29 c8 77 bd d5 74 b0 3e
       0.20451248 0.022053622 -0.060493622 0.34464136
0000d0 ec 3f de bd b2 08 55 3d 18 24 b0 3d 30 e9 c6 3e
       -0.10852036 0.052010246 0.08600634 0.38849783
0000e0 36 7b b9 3e fd 65 c7 3e 78 27 4e 3d 8f a4 b8 3d
       0.36226815 0.38944998 0.05033061 0.09015762
0000f0 d7 48 32 3e f5 95 3c 3f 76 6c 19 bc 9f 08 b9 bb
       0.17410599 0.73666316 -0.009364238 -0.0056467797
000100 52 e8 83 bc b0 e1 19 bc c2 3e de bc 3a 2b 74 3d
       -0.01610199 -0.009392187 -0.027129535 0.059611537
000110 41 19 6d 3d 9b d6 8f bd 85 92 3b bc be 99 34 3d
       0.057885412 -0.070233546 -0.011448507 0.044091932
000120 40 1d 59 bb 74 23 b0 3d 99 66 02 3d 00 29 41 bd
       -0.0033129007 0.08600512 0.031836126 -0.04715824
000130 d2 b1 a4 bd 40 05 b6 3c 22 0d 9a 3d 36 d2 26 bc
       -0.08041729 0.0222193 0.07522036 -0.010181954
000140 c4 32 ea 3d 8a f1 84 bd fa 60 bc bd a8 a9 88 3c
       0.11435464 -0.064913824 -0.09198184 0.01668246
000150 70 8a 48 3c c3 71 18 3d ca 0d b9 bd 98 14 22 3d
       0.012240037 0.037217867 -0.09035833 0.03957042
000160 50 2e 78 bd 24 dd 5b bd ad 8a 9f bd c5 0f dc 3d
       -0.060591042 -0.053677693 -0.07790122 0.10745195
000170 40 19 5e bb 42 c4 29 3d fe 39 ea bd 9c d0 09 bd
       -0.0033889562 0.04144693 -0.114368424 -0.03364621
000180 3a ad 83 3d 80 cf d3 3d 42 b0 bd bd 14 35 b8 bd
       0.06429525 0.10342312 -0.09262134 -0.08994499
000190 14 fc 96 3d 0a 86 93 bd 98 14 fe 3c fa bb 98 3d
       0.07372299 -0.072033 0.03101568 0.07457729
0001a0 18 ba c2 bd 5c 5d cd bb 49 11 f7 3c 90 35 be bd
       -0.09508151 -0.006267233 0.03015961 -0.0928756
0001b0 71 e3 9d bc ff 02 58 3d 1c 71 e9 bb 75 6e 52 3d
       -0.019273492 0.052737232 -0.0071240794 0.05137487
0001c0 c8 7f 84 3d 1c 4c cc 3d f8 c5 af bd 0d af f1 3d
       0.06469685 0.09975454 -0.085826814 0.118009664
0001d0 c0 d0 fc bd 64 88 c2 bd e2 f7 54 3d 44 c9 6b 3d
       -0.123445034 -0.09498671 0.051994212 0.05756499
0001e0 9c aa 90 bd 1d f2 ab bd 28 d4 80 bd 05 b8 ce bd
       -0.07063791 -0.08395789 -0.062904656 -0.10093693
0001f0 19 55 f9 bc 0a d9 ae bd 18 ec a6 bc 63 2a fa bd
       -0.030436086 -0.08537491 -0.02037625 -0.12215116
000200 ff 98 b4 38 29 88 23 3e 4b 3d 9c bd 87 a1 88 3d
       8.6115666e-05 0.1596991 -0.07628878 0.06671434
000210 e2 03 2c be d2 25 f1 3d c0 19 a2 3a 40 09 30 be
       -0.16798356 0.11774792 0.0012367293 -0.17191029
000220 08 18 f1 bc d2 b7 3b 3d d5 4a 23 3d 7b df bb 3e
       -0.029430404 0.0458296 0.039866287 0.3669394
000230 ce dd 23 3e 4f 40 11 3e ce 09 37 3e 51 14 be 3c
       0.1600258 0.14184688 0.17874834 0.023203047
000240 c8 51 4f 3e 16 91 cd 3e 81 2f 86 3e 2d 9c 0f 3d
       0.20246041 0.40149754 0.26208118 0.03506105
000250 75 c0 8f 3e 22 f5 1f 3e 0d 98 80 3e 2a ea 47 be
       0.2807652 0.15620854 0.25116006 -0.1952292
000260 ac 34 83 3e 6e 7f 94 3e 8d 83 20 be b8 81 80 bc
       0.25626123 0.2900347 -0.15675183 -0.015686855
000270 b6 bb 4a 3e dc cd 87 3e e1 16 61 bc 92 79 23 3e
       0.19798169 0.26524246 -0.013738365 0.15964344
000280 fe 5a 59 3e b4 b4 a8 3c b4 fe 1d 3e fe d0 dc 3d
       0.21226117 0.020593978 0.15429193 0.107820496
000290 55 ef 3e 3e 55 d6 29 3e ca 93 23 3e 66 30 ab bb
       0.18645985 0.16585667 0.15974346 -0.0052242754
0002a0 c0 7f 05 3f 4c e3 06 3d 4b 9b 2c be 6f fe 50 3e
       0.52148056 0.03293161 -0.16856115 0.20409559
0002b0 56 12 f3 bd b3 10 39 bd 45 45 37 be 08 d9 d6 bd
       -0.11868732 -0.04518194 -0.17897518 -0.10490614
0002c0 46 e8 34 be 3c 1d 08 3e dc 0d b0 3d c4 98 52 bd
       -0.1766673 0.13292402 0.085963935 -0.05141522
0002d0 ca 2f d8 3a 16 32 7e 3e 11 06 a4 3c 17 84 f1 3e
       0.0016493734 0.24823794 0.020022424 0.4717109
0002e0 60 e6 bf 3d bc d5 5c 3d e1 b1 f1 bd 04 ce 82 3d
       0.093701124 0.05391477 -0.11801506 0.063869506
0002f0 27 18 0e 3e 57 f7 15 3f 54 f0 04 bd 42 4a a9 3d
       0.13876401 0.58580536 -0.032455757 0.08266117
000300 8c 88 12 bd e9 f1 d4 3d 4e 25 1c 3e 6a c1 20 3c
       -0.035774752 0.10397703 0.15248606 0.0098117385
000310 4f c9 0b 3e ea 02 bd bb 1e 08 53 3e 03 98 c0 bd
       0.13651012 -0.0057681696 0.20608565 -0.09403994
000320 42 a5 57 3d 6c a4 f9 3d 93 e5 9d 3d fa b7 8f be
       0.052647837 0.12189564 0.077098034 -0.2807005
000330 bf 1a e4 bd 81 a2 ac bd 99 3f 43 be d1 57 09 bd
       -0.11137914 -0.08429433 -0.1906723 -0.033531014
000340 69 d5 26 be c2 11 85 bd 8c d8 ab 3c b9 1a 01 3e
       -0.16292347 -0.06497528 0.020977281 0.1260785
000350 5e 7c 26 3d 33 ea 84 3e 26 67 32 bd 88 97 74 bd
       0.04064595 0.2595993 -0.0435554 -0.059714824
000360 01 68 4f 3f 01 0a 9a bc fe 8f c4 bb aa c5 7c 3e
       0.8101807 -0.018803598 -0.0059986105 0.24684778
000370 01 59 d1 bd 83 cb d2 bd 28 44 5d 3d c7 d9 5b 3e
       -0.10222054 -0.10292723 0.054020077 0.21469794
000380 0d 75 06 3e f4 43 53 3d 25 49 c9 be fe 0d 0d 3e
       0.13130589 0.051578477 -0.39313617 0.13774869
000390 92 42 09 bc 66 3a 8c bd e8 d2 be bd 43 16 e0 3d
       -0.008377688 -0.06847076 -0.09317571 0.10941746
0003a0 d1 65 c2 3e 1d 97 02 3e 63 04 34 3e e0 7a 6f 3c
       0.37968305 0.12752958 0.17579798 0.014616698
0003b0 ef c5 ea 3d 6d 29 24 3e 4a 43 db 3c db 4b 2e 3e
       0.11463534 0.16031428 0.026765484 0.17021124
0003c0 51 9d 2f 3e 9a 1c 24 3d 60 0c 74 bd 27 bb 9a 3e
       0.17149855 0.04006634 -0.059582114 0.3022091
0003d0 f4 50 86 3d 18 09 ad 3d 29 0c f3 bd 69 86 83 3b
       0.06558409 0.08449 -0.11867554 0.0040138257
0003e0 69 12 61 3e 21 8f 92 3e 88 f5 26 3e 0c d6 b2 3d
       0.21979679 0.28624824 0.163046 0.087322325
0003f0 91 32 96 3d 12 ee 7e 3e d3 87 4e be bc 07 97 3d
       0.073338635 0.24895504 -0.20169 0.07374522

linear_hidden.0.bias f4 [64]
000000 f9 4d 01 3e 96 52 ae bd a0 45 69 3e f9 bd 69 3d
       0.126274 -0.08511846 0.22780466 0.057065938
000010 02 91 0a 3d 34 12 1a 3e ef b6 a2 bb 9a bb 63 bd
       0.033829696 0.15046006 -0.004965655 -0.055598833
000020 aa 21 a5 bd 53 c1 e8 3c 33 ab 80 3d 00 31 87 ba
       -0.080630615 0.028412497 0.06282654 -0.0010314286
000030 23 7d 59 ba ba 27 a6 3d 51 2c 77 3e 76 9e e6 bd
       -0.000829654 0.08113046 0.24137999 -0.11260693
000040 a1 db 1b 3e fd 82 f9 3d f5 51 36 3e 71 60 90 bd
       0.152205 0.12183187 0.17804702 -0.07049645
000050 08 4e 27 3e eb 7e 8d 3d a9 ba 48 3e 04 10 06 3e
       0.1633836 0.06908973 0.19602455 0.13092047
000060 4c 5b 46 3e 4d d7 8f 3e e4 a5 e9 bc 63 de 9a bd
       0.19370764 0.2809395 -0.028521486 -0.07561948
000070 14 89 af bd ea 99 d7 bc 44 f1 60 bd d2 53 0f 3e
       -0.085710675 -0.02631851 -0.05491759 0.13996819
000080 c9 81 bc bd 9f 7c 2e 3e ed 77 12 3e 12 68 be 3d
       -0.09204442 0.17039727 0.1430356 0.092971936
000090 dd 33 ba bd 73 b9 92 3c 4f f6 57 bb eb 9e 34 be
       -0.090919234 0.017910695 -0.0032953208 -0.17638747
0000a0 80 20 a7 bd e0 c8 0b 3e 0f c7 8a 3e 9d 57 5c bd
       -0.08160496 0.13650846 0.27104995 -0.053794492
0000b0 12 39 a1 bd c4 74 b3 3d 85 11 04 bd c6 4a 83 39
       -0.078722134 0.08762506 -0.03224327 0.00025041978
0000c0 1c ae 75 bd e0 fe 28 3d c3 38 ec bd 86 28 f9 3d
       -0.059980497 0.041258693 -0.11534264 0.12165932
0000d0 e3 78 99 3d 12 2e 86 bd a1 81 43 3e 4a 6d f2 3d
       0.074937604 -0.06551756 0.19092418 0.118372515
0000e0 e0 1b 38 bd f5 d4 ae 3c e0 4c f6 3c 56 c4 c1 3d
       -0.04494846 0.02134178 0.030065954 0.09461276
0000f0 da 9c 90 bc 34 67 a4 bd 61 e1 56 bc ad 55 26 3e
       -0.017652918 -0.08027497 -0.013115258 0.1624362

linear_output.weight f4 [4, 64]
000000 88 a5 aa 3c 71 2f 8b 3a 59 fd 81 3d 70 17 0b 3d
       0.020830885 0.0010618997 0.0634715 0.0339579
000010 99 e0 15 3d f5 7d 7f 3c 30 de cc 3d 5a c1 74 3d
       0.036591146 0.015593995 0.100033164 0.059754707
000020 83 27 27 bd 57 7b c0 bc cf 15 39 bd 0c 69 37 3b
       -0.040809166 -0.023496313 -0.045186814 0.0027986197
000030 76 d2 23 3c a5 b7 d2 3d 7f bd 12 3e 2d 14 1c bd
       0.009998908 0.10288934 0.143301 -0.03810518
000040 16 fc e7 bc dd b9 cf 3d f8 3e 26 bc 49 74 8f bc
       -0.028318446 0.101428725 -0.010146849 -0.017511504
000050 4f d5 a0 3c bc f6 18 3d 22 50 e2 bc bf ef ac bd
       0.019632963 0.03734468 -0.0276261 -0.084441654
000060 8c da 85 bc df 69 0b 3c 3d af ec bc 65 c3 99 b9
       -0.016339563 0.008509128 -0.028892154 -0.00029328014
000070 1d 8a f5 b8 ef 86 a0 bb 04 7a a6 3d e7 33 85 bc
       -0.00011708236 -0.004898898 0.081287414 -0.0162601
000080 34 87 63 bd e3 74 0e bd 8d 35 2a bd 2e e5 f3 bc
       -0.05554886 -0.03477944 -0.041554976 -0.029772367
000090 6c 47 5f bd c4 b3 3e bd 73 7c f9 3b 38 04 f7 3b
       -0.054511473 -0.046558157 0.0076137125 0.0075383447
0000a0 53 d3 34 bd 17 b6 22 3e 8c f5 2f bd 08 28 9a 3c
       -0.044146847 0.15889774 -0.04295878 0.018817917
0000b0 87 b7 14 bd c5 c9 c3 3d 41 54 15 3c d8 17 56 bd
       -0.036307838 0.09559969 0.009114326 -0.052268833
0000c0 5b cd fc 3d 56 52 e2 bc a2 64 e6 3c 4b 30 7c 3d
       0.12343856 -0.027627151 0.028124157 0.061569493
0000d0 ea 28 40 3d d5 93 54 bc ef fb 04 3d 44 59 3d 3d
       0.04691402 -0.012974699 0.032466825 0.04622771
0000e0 3f 92 a7 3c 5a 90 f4 bc f1 ad 60 be e7 ab 35 bd
       0.020455478 -0.029853988 -0.21941353 -0.044353392
0000f0 7e 85 02 bc a2 fa aa bc 54 12 e1 3b 51 59 50 bd
       -0.007966397 -0.020871464 0.00686864 -0.05086643
000100 72 fb 3a 3d b5 d5 3f ba 95 6c 35 3e 28 b8 3d 3d
       0.045649953 -0.00073179166 0.17717202 0.046318203
000110 ff 3d 40 3d fa e5 3d 3d 65 cd cf 3d cb 8a 51 3d
       0.046934124 0.0463619 0.10146598 0.051157754
000120 bf 0c 49 3d ea 55 39 3d ac 93 3e 3d 56 84 b7 ba
       0.04908442 0.04524795 0.04652755 -0.0014001231
000130 5b 67 45 3d 4a 9b 70 3d 01 6d d7 3d 7f ee 45 3d
       0.04819427 0.058741845 0.10518838 0.04832315
000140 ed 52 4f 3e 7a f8 56 3d 37 65 4f 3e d8 2e 33 3d
       0.20246477 0.05248306 0.20253454 0.043745846
000150 55 dc d8 3d 74 f7 4d 3d 5d 89 35 3e 2b 36 a3 3e
       0.105889 0.050284818 0.17728181 0.31877264
000160 a0 f5 37 3d 75 49 bf 3d 19 09 38 3d 3e 6d 4a 3d
       0.04491198 0.09340183 0.04493055 0.049420588
000170 46 9a 3d b9 72 e6 80 3d 01 f5 41 3d 49 9b 2b 3d
       -0.00018081916 0.06293954 0.047352795 0.04189614
000180 a1 ee 3c 3d 9b be 74 3e 3b c2 27 3d 71 8d 2e 3d
       0.04612601 0.23900835 0.040956717 0.042615358
000190 96 05 46 3d cf 9e 36 3d ce e0 41 3d 03 f3 2f 3d
       0.04834517 0.044585045 0.04733353 0.042956363
0001a0 15 48 45 3d c1 d6 f5 3d 0f 6d 5e 3e ae 88 43 3d
       0.048164446 0.12003852 0.2172129 0.04773777
0001b0 1f 37 2f 3d a8 c0 46 3d 0c 40 6d 3d e1 f9 31 3d
       0.042777177 0.048523575 0.057922408 0.043451194
0001c0 cd 40 53 3f 5e 5f 24 3d 80 af 2f 3d 8b 5f 43 3d
       0.82520753 0.04013001 0.04289198 0.04769854
0001d0 d0 c5 2c 3d 22 52 57 3d 63 80 d1 3d 24 f0 38 3d
       0.042180836 0.052568562 0.10229566 0.04515089
0001e0 8c 72 25 3d 54 eb 30 3d 95 3a 69 3d 03 4c 4f 3d
       0.040392444 0.043193176 0.056940634 0.0506096
0001f0 ef f6 1b 3d c1 09 4e 3d 38 a8 2e 3d 9d b7 a8 3e
       0.03807729 0.05030227 0.042640895 0.32952586
000200 d0 27 cb 3d c3 8a 22 bb e3 17 ad 3d 5c 67 c7 3d
       0.09919703 -0.0024801947 0.08451822 0.09736511
000210 b8 43 cf 3d 09 c9 e4 3d bb a9 eb 3a 30 a5 f1 3d
       0.10120338 0.11171157 0.0017979661 0.11799085
000220 b5 82 03 3e e2 61 ee 3d 72 e7 eb 3d b8 ea cc b9
       0.1284283 0.116397634 0.11518754 -0.0003908479
000230 8a c7 db 3d 13 1e 9e 3d 8d db 02 3d a9 b3 00 3e
       0.107314184 0.0772058 0.03194766 0.12568535
000240 a2 86 5f 3d 77 48 a4 3d a2 d5 df 3c cb ab 91 3d
       0.054571755 0.08021634 0.027323548 0.07112845
000250 55 76 36 3d 37 db c4 3d 08 2c 36 3d 9c 67 76 3c
       0.044546444 0.096121244 0.044475585 0.015039351
000260 7a 38 d3 3d 51 63 16 3d 72 13 da 3d b9 16 f0 3d
       0.103135064 0.03671581 0.1064824 0.11723084
000270 dd b0 a0 39 f4 0f 49 3d 5e 47 a1 3d 50 95 d3 3d
       0.00030649352 0.04908748 0.0787494 0.103312135
000280 d3 2f f0 3d 61 00 23 bc ac 6c f7 3d bf 9f d9 3d
       0.11727872 -0.009948821 0.120812744 0.10626172
000290 78 f5 e0 3d b3 e4 d3 3d 0a d4 e3 3d f4 39 b5 3d
       0.109843194 0.10346355 0.111244276 0.08848944
0002a0 b7 ea f5 3d 1f 10 fb 3c 8a 31 43 3d d3 ea b8 3d
       0.12007659 0.030647336 0.047654666 0.09029164
0002b0 fd d1 d2 3d 94 d1 93 3d c7 7e aa 3d c8 93 e5 3d
       0.10293958 0.07217708 0.08324962 0.11209828
0002c0 2b 2c a4 3f 91 e2 c7 3d 38 c3 d9 3d d6 84 bc 3d
       1.2825979 0.09760011 0.10632938 0.09205024
0002d0 00 ca a8 3d 60 69 e0 3d 88 b3 8c 3d 24 00 ae 3d
       0.082416534 0.10957599 0.0687018 0.084961206
0002e0 be 30 c9 3d 30 05 ce 3d 59 c2 63 3d 23 2f 0c 3e
       0.0982375 0.10059583 0.055605266 0.13689856
0002f0 67 78 cf 3d d1 56 ea 3d f5 60 e9 3d ca 0e a8 ba
       0.10130387 0.1144234 0.11395446 -0.001282179
000300 19 15 76 bd 1b 1a d9 3a 6d c7 5a be 69 a2 83 3d
       -0.060078714 0.0016563566 -0.21365137 0.06427462
000310 43 be 27 3d 34 d1 00 be 16 45 c8 bd f8 d5 4b bd
       0.040952932 -0.12579805 -0.09778802 -0.049764603
000320 bd c5 9d 3d ff 7c 1a bc 23 59 0d 3e 7f 9c e0 39
       0.07703731 -0.009429215 0.13803534 0.00042841208
000330 4c 79 c8 bd 50 d4 10 3d 0f 04 12 be f3 59 6e 3d
       -0.097887605 0.035358727 -0.1425936 0.05819125
000340 10 5f 0f be 4e 61 ff bb 55 d8 17 be 86 bd 24 3e
       -0.14001107 -0.007793582 -0.14828618 0.16087922
000350 32 be 65 be e2 64 b5 3d 5c 88 29 be e1 f1 ea bd
       -0.22435835 0.088571325 -0.16555923 -0.11471916
000360 34 d2 3a be d9 09 72 be 14 57 d4 3c 85 f2 16 3e
       -0.18244249 -0.23636569 0.025920428 0.14740951
000370 c2 75 04 bb c7 c8 7f 3e a7 92 67 3e 53 a1 11 be
       -0.002021179 0.24978934 0.22614537 -0.14221697
000380 94 64 a3 3d d3 00 fd bd 4f d2 d8 3c b8 93 ac 3c
       0.07978168 -0.12353673 0.02646747 0.021066532
000390 c3 a8 d9 3d a2 e6 96 3d 35 d1 72 3d 6a ca 3a 3e
       0.10627892 0.073682085 0.059281547 0.18241277
0003a0 bb f6 0e 3e 38 4c 1c be e8 fc a4 bd 40 e4 6a 3e
       0.13961308 -0.1526345 -0.080560505 0.22938633
0003b0 01 70 94 3d 68 c9 a0 3d ce d0 7a 3e e5 9f 89 3d
       0.072479255 0.07850915 0.24493715 0.067199506
0003c0 86 12 09 3f 37 dc b7 3c ba 15 90 bb c5 3c c5 bd
       0.5354389 0.022443874 -0.0043971213 -0.096307315
0003d0 cb c3 e4 3d df c7 0f 3e 12 76 77 be e9 04 ac bd
       0.11170157 0.14041089 -0.24166134 -0.08399374
0003e0 c3 9b 06 3d 65 b3 22 3d 94 cd 9e 3e a6 ab ec 3d
       0.03286339 0.039721865 0.3101622 0.11556177
0003f0 52 4b db bc cf 80 04 3e 7c 3b 8d 3d dd 9a 17 be
       -0.026769314 0.12939762 0.06896111 -0.1480517

linear_output.bias f4 [4]
000000 e6 0c d5 3b fe c7 11 3d 6e e4 83 3d 28 03 dd bc
       0.0065017818 0.035591118 0.06440054 -0.026979044

exp_avg f4 [64, 13]
000000 45 49 5c b7 8d 74 99 37 a6 56 31 38 92 d3 b2 b6
       -1.3130081e-05 1.8293294e-05 4.2280786e-05 -5.3294434e-06
000010 ee 81 65 b7 50 f0 b7 37 b5 a0 2d 38 b2 1b b7 b6
       -1.3679715e-05 2.1927204e-05 4.1396084e-05 -5.457049e-06
000020 af 4f 6d b7 64 95 f4 37 b4 14 2d 38 c8 02 b5 b6
       -1.4144854e-05 2.9156632e-05 4.1265695e-05 -5.394544e-06
000030 ee 47 f6 38 d3 17 49 b2 db af 3e b2 26 bf 81 32
       0.00011743592 -1.1705157e-08 -1.10994405e-08 1.51045e-08
000040 e5 80 76 b1 02 6e 4d b2 70 18 5a b2 33 7c 68 32
       -3.587098e-09 -1.1957583e-08 -1.26948265e-08 1.3532417e-08
000050 22 85 76 b1 25 30 59 b2 54 4a 7c b2 93 03 47 32
       -3.5873389e-09 -1.2642009e-08 -1.4685231e-08 1.1584137e-08
000060 8f 58 76 b1 22 4c dd 32 ce a8 64 b9 ee b8 66 39
       -3.5848051e-09 2.5762407e-08 -0.00021806659 0.00022003401
000070 36 80 4d 3a 8e 3a ab b8 73 c8 64 b9 6e 44 7a 39
       0.00078392343 -8.164822e-05 -0.00021818448 0.0002386735
000080 22 7e 4f 3a 53 47 ac b8 bf 09 62 b9 88 cd 8d 39
       0.00079152186 -8.214884e-05 -0.0002155667 0.00027046748
000090 d4 e0 51 3a 50 2f ab b8 00 8f 02 38 49 88 e1 38
       0.0008006219 -8.162728e-05 3.1127594e-05 0.00010754221
0000a0 26 bb dd b8 bc b2 cb b9 f3 64 2a 38 d5 49 e1 38
       -0.0001057296 -0.00038852345 4.0625175e-05 0.00010742588
0000b0 c4 12 ee b8 93 79 cd b9 51 4a 2b 38 27 94 de 38
       -0.0001135222 -0.00039191227 4.083879e-05 0.000106133804
0000c0 ea 01 05 b9 19 7e cf b9 5a 42 2a 38 2c 26 e2 36
       -0.00012684581 -0.00039576067 4.0592953e-05 6.7397687e-06
0000d0 6c 96 33 b9 17 3a 3a 39 29 66 22 3a 3a d0 86 b8
       -0.00017126807 0.00017759982 0.00061950326 -6.428403e-05
0000e0 29 ae 33 b9 98 3a 4a 39 73 09 24 3a e5 a0 87 b8
       -0.0001713565 0.00019286049 0.00062575116 -6.4672706e-05
0000f0 02 83 31 b9 43 08 65 39 26 f3 25 3a 15 c0 86 b8
       -0.0001692884 0.0002184222 0.00063304824 -6.425396e-05
000100 81 bf af 37 21 fa bc b7 13 9c 2b 37 c8 be d4 38
       2.0950802e-05 -2.2527822e-05 1.0228733e-05 0.000101444835
000110 d8 c2 56 b7 18 32 9e b7 0a bd 00 36 19 9f cb 38
       -1.280076e-05 -1.8858394e-05 1.9183522e-06 9.7094286e-05
000120 bb a4 57 b7 41 53 8f b7 aa 02 c4 b6 13 4b b9 38
       -1.2853353e-05 -1.7085697e-05 -5.8415653e-06 8.835471e-05
000130 f9 ac 58 b7 01 ef 22 b9 a9 53 c5 b4 ab 19 ae b4
       -1.2914877e-05 -0.0001553856 -3.675498e-07 -3.2428702e-07
000140 7c fe c2 34 05 af c5 b3 a3 15 d2 b4 e2 dc c5 b4
       3.6320478e-07 -9.205363e-08 -3.913129e-07 -3.6854823e-07
000150 b1 9f a1 34 ce 30 c5 b3 32 9c e9 b4 33 f0 e7 b4
       3.0104778e-07 -9.182405e-08 -4.351328e-07 -4.320187e-07
000160 a1 b4 80 34 d4 7b c5 b3 d6 29 55 b5 d6 1f 76 b9
       2.3973283e-07 -9.1960516e-08 -7.940956e-07 -0.00023472248
000170 b7 3a 64 39 17 7e 56 3a ec ed b7 b8 11 8a 76 b9
       0.00021765647 0.0008182241 -8.7704364e-05 -0.00023511822
000180 0e 4c 74 39 1f b5 57 3a 2c f2 b8 b8 ef 02 75 b9
       0.00023297986 0.0008228588 -8.818912e-05 -0.00023366114
000190 b5 a8 88 39 ee 5f 59 3a b5 e5 b7 b8 dd 7a 9a 38
       0.00026065638 0.00082921877 -8.768906e-05 7.366177e-05
0001a0 a3 9e cb 37 54 83 39 b8 1f 35 f0 b8 ef 15 1f 37
       2.4273357e-05 -4.4229746e-05 -0.000114539864 9.482245e-06
0001b0 62 fb cf 37 11 47 58 b8 9c f3 f8 b8 1b b6 20 37
       2.4793382e-05 -5.15646e-05 -0.00011870937 9.579143e-06
0001c0 59 91 cd 37 46 40 7d b8 25 c0 01 b9 c1 68 1e 37
       2.4505587e-05 -6.037976e-05 -0.00012373978 9.441924e-06
0001d0 13 85 d0 37 32 dc f8 36 23 88 4f b6 25 27 cc b7
       2.48575e-05 7.41661e-06 -3.0924646e-06 -2.4336923e-05
0001e0 66 05 60 36 10 df ee 36 ee 95 48 b5 3c 41 c4 b7
       3.3381743e-06 7.1189206e-06 -7.472398e-07 -2.3395398e-05
0001f0 63 03 5c 36 82 76 ed 36 df 9c 68 36 57 25 b9 b7
       3.2784526e-06 7.0769465e-06 3.4662005e-06 -2.2071106e-05
000200 0c 46 5d 36 b1 06 f4 37 f8 53 0d b8 af 0e 0b 38
       3.297234e-06 2.9090183e-05 -3.369522e-05 3.3153858e-05
000210 44 c3 ef 38 3d 66 4e b7 07 6e 0e b8 f7 14 1a 38
       0.00011432779 -1.2302361e-05 -3.395791e-05 3.6735986e-05
000220 76 5a f1 38 a9 46 50 b7 a7 d7 0d b8 95 b9 35 38
       0.00011508625 -1.2414218e-05 -3.381786e-05 4.33266e-05
000230 57 16 f4 38 35 e7 4e b7 5a 53 3e 38 e6 c8 a6 39
       0.00011638988 -1.2332389e-05 4.5377157e-05 0.00031811668
000240 35 0d ae b9 07 f9 98 ba f0 c9 f7 38 e0 66 a6 39
       -0.00033197706 -0.0011670896 0.000118154916 0.00031738635
000250 2c d4 bc b9 56 13 9b ba c3 1c f9 38 64 76 a3 39
       -0.00036016235 -0.0011831324 0.000118786025 0.0003117799
000260 b8 7a d4 b9 c8 4f 9d ba 38 81 f7 38 48 d4 1a 39
       -0.00040527224 -0.0012001926 0.00011801947 0.00014765665
000270 39 c3 4f 38 07 0c 4a b8 27 dd 39 b9 8b 5a 99 37
       4.953446e-05 -4.8171754e-05 -0.0001772536 1.8281184e-05
000280 1f 14 4f 38 4c 6d 57 b8 1a e0 3b b9 d1 f5 99 37
       4.9371385e-05 -5.1361785e-05 -0.00017917194 1.8353488e-05
000290 62 7e 4c 38 01 6d 6c b8 48 e3 3d b9 5b 18 99 37
       4.8755093e-05 -5.6368302e-05 -0.00018109113 1.8250363e-05
0002a0 b1 a0 19 38 fa b8 a1 b8 5e b3 99 38 5e 5c 8b 39
       3.6627698e-05 -7.711533e-05 7.329018e-05 0.00026580965
0002b0 27 ba f1 b7 67 bd a2 b8 d3 8d a7 38 1a e4 8b 39
       -2.8816123e-05 -7.760041e-05 7.989597e-05 0.00026682095
0002c0 b7 93 f3 b7 3e 81 a2 b8 c8 8a c1 38 39 f3 8c 39
       -2.9036642e-05 -7.748835e-05 9.228807e-05 0.00026884096
0002d0 cb 08 f2 b7 09 ba b6 38 c7 6b 57 39 38 52 68 b9
       -2.8852743e-05 8.713088e-05 0.00020544148 -0.00022155873
0002e0 f1 f3 4c ba 75 ab a3 38 03 cb 55 39 4e f9 7a b9
       -0.00078183325 7.804382e-05 0.0002038889 -0.00023934731
0002f0 d9 df 4f ba 0e 7f a4 38 21 04 51 39 1e e4 8b b9
       -0.0007929779 7.843795e-05 0.00019933331 -0.00026682107
000300 00 e3 52 ba d3 68 a3 38 b2 d9 48 39 e1 c2 55 b8
       -0.000804469 7.791971e-05 0.00019154584 -5.0964652e-05
000310 03 97 3b 38 79 3b 33 39 64 d1 9d b7 68 2c 57 b8
       4.4724915e-05 0.00017092926 -1.8813364e-05 -5.130135e-05
000320 f1 28 4b 38 97 9c 33 39 cb ff 9e b7 b0 32 57 b8
       4.84371e-05 0.00017129105 -1.895418e-05 -5.13072e-05
000330 d5 e5 69 38 79 c9 34 39 95 11 9e b7 20 1b 7f 38
       5.5765577e-05 0.00017241192 -1.8843255e-05 6.0822e-05
000340 70 ca 65 39 ee 56 7f b9 60 3b 5d ba 9c 97 af 38
       0.00021914556 -0.00024351079 -0.00084393285 8.37289e-05
000350 11 0f 64 39 08 87 8a b9 ee 8d 60 ba df 83 b0 38
       0.00021749387 -0.00026422017 -0.0008566071 8.416897e-05
000360 bf c9 5e 39 37 7f 9b b9 ac 04 64 ba 9e 50 af 38
       0.00021246726 -0.00029658686 -0.0008698206 8.3596664e-05
000370 99 24 4c 39 b6 31 b8 39 e2 0f bd b9 1f 71 a7 ba
       0.0001946859 0.00035132252 -0.00036060723 -0.0012774802
000380 1e 54 0b 39 5b 9f b7 39 fc 6d cc b9 6d 24 a9 ba
       0.00013287409 0.0003502321 -0.00038991857 -0.0012904532
000390 a4 1d 0c 39 9b a2 b4 39 d7 4c e6 b9 20 0f ab ba
       0.00013362482 0.00034453426 -0.0004392627 -0.0013050772
0003a0 79 41 0b 39 6c 20 2c 38 b2 fa ea 38 fe 65 06 b9
       0.00013280463 4.103819e-05 0.00011204685 -0.00012817231
0003b0 89 e8 e0 b9 9d d5 31 38 a9 86 e9 38 76 33 13 b9
       -0.00042897862 4.239903e-05 0.00011135388 -0.00014038183
0003c0 55 9c e4 b9 e4 e3 32 38 2c 27 e3 38 cd f2 26 b9
       -0.00043604025 4.2650747e-05 0.000108315 -0.00015921444
0003d0 8c 8c e8 b9 59 9e 31 38 c6 27 a8 38 14 45 87 2e
       -0.00044355204 4.234756e-05 8.018273e-05 6.15136e-11
0003e0 ec e0 33 af 22 66 0f 2f 0c 44 34 ae 3c 51 a4 2e
       -1.6359863e-10 1.3042059e-10 -4.09877e-11 7.472287e-11
0003f0 63 e1 51 af f7 63 f6 2e 41 c6 34 ae b1 54 c6 2e
       -1.9088513e-10 1.1204542e-10 -4.1103346e-11 9.019042e-11

exp_avg_sq f4 [64, 13]
000000 df c2 bd 32 2d 57 eb 31 a5 4d 52 34 37 53 3c 31
       2.2091113e-08 6.849311e-09 1.9586021e-07 2.7404903e-09
000010 56 80 bd 32 a0 72 db 31 9f 54 4f 34 cd 2a 3c 31
       2.2060856e-08 6.3867702e-09 1.9309162e-07 2.738193e-09
000020 c9 14 bf 32 4d 3a c9 31 1b 30 4c 34 15 3c 3c 31
       2.2244778e-08 5.856498e-09 1.9016481e-07 2.7391753e-09
000030 e2 8a d7 33 2e 3a f9 2b 31 0c 4d 2d 2a 7c 2d 2d
       1.003698e-07 1.7708662e-12 1.1655608e-11 9.861481e-12
000040 b3 38 b3 2a f4 e3 15 2c 1b ba 74 2d 29 97 1b 2d
       3.183613e-13 2.1300713e-12 1.3911118e-11 8.844294e-12
000050 a4 55 b3 2a ff 76 36 2c 1e 41 8d 2d 4d ca 09 2d
       3.1856213e-13 2.5929812e-12 1.6058762e-11 7.832468e-12
000060 f5 ed b2 2a a8 11 43 2d 9f eb 3e 35 0d 85 8a 34
       3.1784268e-13 1.1088387e-11 7.112339e-07 2.580131e-07
000070 6b c7 d6 36 84 37 be 33 10 6d 3e 35 6f f2 83 34
       6.4009123e-06 8.857663e-08 7.093922e-07 2.4577045e-07
000080 75 3f d4 36 67 1d be 33 fc 26 3f 35 07 52 75 34
       6.3254797e-06 8.852913e-08 7.1209774e-07 2.2847244e-07
000090 a8 67 d1 36 cf 3b be 33 82 fb 2b 36 d5 b9 04 34
       6.2407526e-06 8.8584436e-08 2.5627382e-06 1.2361063e-07
0000a0 51 ce 45 33 61 f8 94 35 62 69 83 32 8b 7c 04 34
       4.605528e-08 1.1099147e-06 1.529833e-08 1.2338766e-07
0000b0 9f 89 3d 33 39 69 93 35 be 58 83 32 5e 00 05 34
       4.4130157e-08 1.0982977e-06 1.5290762e-08 1.2386724e-07
0000c0 14 34 31 33 a9 a6 91 35 7f 6d 83 32 72 ec eb 34
       4.125839e-08 1.0851846e-06 1.53002e-08 4.3944198e-07
0000d0 69 6e 02 35 e5 8b 3d 34 6d 4e 92 36 2a ac 81 33
       4.858944e-07 1.765289e-07 4.360269e-06 6.038347e-08
0000e0 71 25 02 35 64 d3 34 34 77 96 90 36 6c 99 81 33
       4.848326e-07 1.684071e-07 4.309051e-06 6.034938e-08
0000f0 6c ac 02 35 d6 43 28 34 f6 a7 8e 36 94 ae 81 33
       4.867968e-07 1.5670898e-07 4.251483e-06 6.038786e-08
000100 e6 4a e8 35 e4 b4 44 33 5f 36 8e 31 45 ba ed 34
       1.7307145e-06 4.5799325e-08 4.138925e-09 4.428022e-07
000110 f7 4c db 31 ab 7d 3e 33 d5 e2 15 31 d2 40 de 34
       6.3824888e-09 4.4352117e-08 2.1811293e-09 4.1397885e-07
000120 ef 56 db 31 96 56 43 33 4d be 51 31 20 13 cc 34
       6.383622e-09 4.5480725e-08 3.0521676e-09 3.8011876e-07
000130 59 15 db 31 93 f2 36 35 65 dd 69 2e 96 a8 2d 2f
       6.376166e-09 6.8153275e-07 5.3174704e-11 1.5794152e-10
000140 69 17 35 2f 57 a7 0c 2d 4b 8c 88 2e eb 3f 58 2f
       1.6470171e-10 7.9952356e-12 6.209485e-11 1.9667794e-10
000150 7c 3e 14 2f ef 02 0d 2d e6 ec a6 2e 97 b3 80 2f
       1.348272e-10 8.0155734e-12 7.5908876e-11 2.341067e-10
000160 5a 59 eb 2e 70 56 0c 2d 1c 26 84 30 2d 6f 20 35
       1.0702435e-10 7.977272e-12 9.615095e-10 5.9766427e-07
000170 f6 24 66 34 91 b2 b2 36 8f 66 9e 33 93 45 20 35
       2.1433866e-07 5.3256013e-06 7.3761036e-08 5.970589e-07
000180 51 94 5b 34 a2 a8 b0 36 24 51 9e 33 86 45 21 35
       2.0449922e-07 5.26484e-06 7.372208e-08 6.0078344e-07
000190 a7 d9 4c 34 6f 66 ae 36 0e 69 9e 33 1b f2 09 36
       1.9078162e-07 5.197529e-06 7.376558e-08 2.0555515e-06
0001a0 5c c4 d1 33 19 3d 2a 33 c9 44 6e 35 26 a2 4f 32
       9.7680385e-08 3.9636777e-08 8.8762005e-07 1.2085854e-08
0001b0 1d 86 d1 33 dd 42 27 33 41 52 6d 35 1b 77 4f 32
       9.756716e-08 3.894353e-08 8.8409075e-07 1.2076067e-08
0001c0 cc 2a d1 33 45 d3 1f 33 de 1e 6c 35 ee 9e 4f 32
       9.7401056e-08 3.721222e-08 8.796177e-07 1.2085122e-08
0001d0 69 b4 8c 34 5b 3a 88 31 6f 22 99 30 c4 bf 1d 33
       2.6208298e-07 3.964755e-09 1.1142002e-09 3.672882e-08
0001e0 ed dc 0b 30 cb 30 87 31 7b f4 87 30 c8 b9 1a 33
       5.088186e-10 3.9345642e-09 9.892028e-10 3.6024886e-08
0001f0 a3 b8 0b 30 b3 97 87 31 0f 86 68 30 65 76 17 33
       5.083029e-10 3.9462633e-09 8.4591617e-10 3.5265106e-08
000200 9d cf 0b 30 65 1e d8 32 8d a9 f2 32 28 79 23 32
       5.086294e-10 2.5159531e-08 2.824961e-08 9.5153965e-09
000210 42 37 88 34 78 61 73 31 e3 e6 f1 32 f0 7d 19 32
       2.537218e-07 3.5416559e-09 2.8161088e-08 8.934407e-09
000220 d0 41 86 34 68 3a 73 31 f7 39 f3 32 ec e7 0c 32
       2.500733e-07 3.5394354e-09 2.8315283e-08 8.2018055e-09
000230 31 20 84 34 94 5b 73 31 e7 98 eb 33 c1 d5 e8 35
       2.4610338e-07 3.541321e-09 1.0970853e-07 1.7347558e-06
000240 bf cf 2b 35 28 2e 83 37 d2 3d 67 34 ad 3b e8 35
       6.4004774e-07 1.563791e-05 2.1536042e-07 1.7302715e-06
000250 a7 90 24 35 fa c9 81 37 48 1e 67 34 f7 d1 e8 35
       6.130526e-07 1.5472051e-05 2.1524568e-07 1.7346455e-06
000260 4b a1 19 35 f8 34 80 37 89 46 67 34 b7 5b ca 36
       5.7231654e-07 1.5283455e-05 2.1539212e-07 6.030746e-06
000270 a1 9b c9 32 11 e8 1e 32 ff b0 64 34 a4 cc 48 31
       2.3470252e-08 9.249576e-09 2.1298546e-07 2.9220155e-09
000280 57 1d c9 32 dd f2 19 32 dc a7 62 34 30 b6 48 31
       2.3412822e-08 8.960993e-09 2.1108957e-07 2.9207392e-09
000290 01 68 c9 32 02 85 11 32 af 46 60 34 86 d7 48 31
       2.3446775e-08 8.470353e-09 2.088734e-07 2.9226341e-09
0002a0 ec 07 a5 33 21 06 c5 33 8e 5d 06 33 02 54 5b 35
       7.684852e-08 9.174642e-08 3.1284394e-08 8.1706105e-07
0002b0 f2 35 43 32 f2 b5 c4 33 54 8e fd 32 2e 85 58 35
       1.136276e-08 9.160057e-08 2.95178e-08 8.066007e-07
0002c0 23 19 43 32 d0 0b c6 33 8f f3 e9 32 d7 72 55 35
       1.1356209e-08 9.222242e-08 2.7235528e-08 7.95158e-07
0002d0 38 33 43 32 a2 e8 b9 34 b5 e4 4e 35 4c c6 9e 34
       1.136214e-08 3.4628198e-07 7.707379e-07 2.9574073e-07
0002e0 6b 4b eb 36 ce 9f ce 33 5b 40 4e 35 e6 3b 99 34
       7.0123256e-06 9.621691e-08 7.683463e-07 2.8542053e-07
0002f0 d9 2a e9 36 b5 81 ce 33 28 58 4e 35 17 48 90 34
       6.9489292e-06 9.616216e-08 7.6869264e-07 2.6874542e-07
000300 e2 b3 e6 36 0d a7 ce 33 9d 10 29 36 2f a3 1b 33
       6.8754753e-06 9.623009e-08 2.5192633e-06 3.6237164e-08
000310 54 75 51 32 04 6e ad 34 5b 33 9a 31 b2 6f 1b 33
       1.21920785e-08 3.2303808e-07 4.4878283e-09 3.6190336e-08
000320 4f f1 45 32 82 54 ab 34 47 1d 9a 31 e2 9f 1c 33
       1.1521776e-08 3.191272e-07 4.4853183e-09 3.6466993e-08
000330 0b ac 37 32 be 0f a9 34 53 30 9a 31 57 d8 08 34
       1.069112e-08 3.1490157e-07 4.4874837e-09 1.2744691e-07
000340 49 18 85 35 39 d4 cc 34 e3 fc 16 37 ef 8e 04 34
       9.91634e-07 3.8152373e-07 8.9995765e-06 1.2345457e-07
000350 4e b7 84 35 2a ae c5 34 c9 b4 15 37 62 7a 04 34
       9.888115e-07 3.682083e-07 8.923184e-06 1.233798e-07
000360 17 c2 84 35 15 f0 b9 34 ab 32 14 37 a6 92 04 34
       9.891254e-07 3.4633618e-07 8.8332845e-06 1.2346808e-07
000370 a3 9d 52 36 c6 d0 de 35 12 35 24 35 af 17 7b 37
       3.1384195e-06 1.660105e-06 6.117199e-07 1.496628e-05
000380 79 fc 5d 34 90 36 de 35 40 cf 1c 35 d9 43 78 37
       2.0674078e-07 1.6556169e-06 5.8416117e-07 1.4797749e-05
000390 0c de 5d 34 1c e1 de 35 60 05 12 35 80 13 75 37
       2.0663009e-07 1.6605804e-06 5.439706e-07 1.4607678e-05
0003a0 11 02 5e 34 02 73 c5 36 d3 b0 a2 34 81 be f6 33
       2.0676113e-07 5.884446e-06 3.0303508e-07 1.148992e-07
0003b0 c5 58 39 36 22 da 22 33 d4 1c a2 34 51 55 ed 33
       2.761882e-06 3.7916955e-08 3.0195827e-07 1.10516915e-07
0003c0 b8 91 37 36 44 c1 22 33 bc 2d a2 34 b7 82 de 33
       2.7353944e-06 3.789434e-08 3.0208128e-07 1.03614575e-07
0003d0 0e 86 35 36 96 dd 22 33 f9 48 8c 35 e6 3d 6b 2d
       2.7049132e-06 3.7920096e-08 1.0452051e-06 1.3371948e-11
0003e0 aa 59 81 2e 2a d8 27 2e c6 87 f7 2b 1e 48 91 2d
       5.8821684e-11 3.8163396e-11 1.758809e-12 1.6516618e-11
0003f0 fe a5 9e 2e fa f9 14 2e 65 32 f7 2b ad 08 b4 2d
       7.214494e-11 3.3873328e-11 1.7564393e-12 2.0467484e-11

exp_avg f4 [64]
000000 be 2e 01 b8 46 da af b2 15 50 f4 b9 1a fd 72 39
       -3.079953e-05 -2.047194e-08 -0.00046598972 0.00023173206
000010 c4 57 c0 b9 aa 41 99 b8 a6 d0 0c b5 4b 31 03 ba
       -0.00036686484 -7.3078394e-05 -5.245769e-07 -0.00050045986
000020 a1 b6 62 38 5c bd 9d 37 bc 8b 93 b8 ad a7 30 3a
       5.4052685e-05 1.8804036e-05 -7.035534e-05 0.0006738853
000030 2f 7e da 38 8c ab 2c b9 4b 4f e9 39 c1 74 e1 b8
       0.000104185536 -0.00016467104 0.000445003 -0.00010750583
000040 bd 57 fa 39 e3 ba 46 3a 4b 9b 7d 39 c0 da 80 af
       0.00047749086 0.0007580949 0.00024185811 -2.3438496e-10
000050 1e 4b 01 3a ec 6d f8 b8 01 9c ec 39 c4 e5 a6 b9
       0.0004932153 -0.00011846036 0.0004512966 -0.00031833176
000060 6f 4e 9a 39 9d a8 5c 3a 85 5f ab b9 0b a1 81 b8
       0.00029431607 0.00084174593 -0.0003268683 -6.181196e-05
000070 66 9b 63 39 5d 3f f2 39 1c 8f b0 b8 5c a5 90 b3
       0.00021706297 0.00046205046 -8.41899e-05 -6.735601e-08
000080 dc 2d 2c 39 79 c9 7f b9 9a a6 0a 3a 68 73 86 af
       0.00016420282 -0.0002439375 0.0005289108 -2.445646e-10
000090 22 cf 3c 3a db 3d 95 39 59 ff e9 39 f9 59 00 b2
       0.0007202496 0.0002846558 0.00044631472 -7.471038e-09
0000a0 87 2b 03 3a 56 74 cc b8 a4 a4 15 ba 5f 3b 89 39
       0.00050037395 -9.749147e-05 -0.0005708432 0.0002617491
0000b0 58 b8 9d b9 f5 e0 2a b9 c9 ac fa b9 c8 04 d1 ae
       -0.0003008272 -0.00016296266 -0.0004781245 -9.505069e-11
0000c0 0c 79 14 b2 6c c5 ce 37 97 62 c9 b8 0f 4a 80 b8
       -8.642257e-09 2.4649045e-05 -9.602791e-05 -6.11731e-05
0000d0 3c ac 39 38 82 1c 0e 39 b3 ae 2d 39 38 95 4c 3a
       4.4267843e-05 0.00013552795 0.00016563646 0.0007804218
0000e0 ee f3 b5 b7 5e 60 9f b6 9d 99 10 ba 02 c1 4f b9
       -2.169047e-05 -4.749788e-06 -0.0005516054 -0.0001981296
0000f0 0a 9d 6a 39 be 7c ad 3a 65 a5 5d 39 b2 5f 06 b8
       0.0002237448 0.0013236029 0.00021137817 -3.2037213e-05

exp_avg_sq f4 [64]
000000 11 9c be 33 67 74 36 2d 94 87 40 36 d4 03 05 35
       8.875953e-08 1.0371349e-11 2.8689146e-06 4.955193e-07
000010 6d 3f 03 36 24 be 5e 34 04 2a 8f 2f ef 54 20 36
       1.955744e-06 2.0744534e-07 2.6041402e-10 2.3891296e-06
000020 fa 0e d2 34 4e 8b 8d 32 66 53 f6 33 13 0a ea 36
       3.9126445e-07 1.6477909e-08 1.1470438e-07 6.9749162e-06
000030 42 3b cb 33 c5 97 c5 34 84 1b 51 36 8a 12 1c 34
       9.463703e-08 3.6804536e-07 3.1159443e-06 1.4535377e-07
000040 81 25 86 36 6d af e0 36 c5 cf a4 35 fa e2 7b 2e
       3.9978772e-06 6.6961425e-06 1.2279421e-06 5.7272388e-11
000050 0d a3 68 36 05 5d cc 34 4a b7 cf 35 55 69 b3 35
       3.4665602e-06 3.8065642e-07 1.5476046e-06 1.3367195e-06
000060 db 81 a0 35 78 70 22 37 2f 2e b5 35 70 02 ba 35
       1.1958722e-06 9.682139e-06 1.3498992e-06 1.3858789e-06
000070 11 a6 81 35 7b b8 20 36 68 03 c1 33 b3 3f be 2d
       9.659581e-07 2.394924e-06 8.9878824e-08 2.1628787e-11
000080 33 3f a9 35 47 07 2e 35 ae e9 93 36 88 07 c1 2d
       1.2609875e-06 6.483064e-07 4.4081453e-06 2.1944904e-11
000090 6a 5d ac 36 94 4f ae 35 ed 6b 04 36 13 b1 67 2e
       5.1368743e-06 1.298717e-06 1.9732354e-06 5.2680593e-11
0000a0 45 23 4d 36 a4 3c 79 35 c5 62 9a 36 13 21 82 35
       3.056791e-06 9.284797e-07 4.601056e-06 9.695381e-07
0000b0 c8 fa bb 35 d3 f8 ab 34 4c 68 52 36 e6 98 88 2e
       1.4005573e-06 3.2032275e-07 3.1353147e-06 6.211724e-11
0000c0 8f ce 20 2f c0 2f 1f 34 ef 27 e2 33 70 4f 9f 32
       1.46253e-10 1.48254e-07 1.0531209e-07 1.854616e-08
0000d0 75 08 3a 34 6e 99 95 34 62 d8 d9 34 d5 ca f0 36
       1.7325677e-07 2.7865048e-07 4.057684e-07 7.17617e-06
0000e0 03 5e 1b 31 d6 73 7a 2f ca 77 bf 36 7c 2a 35 35
       2.2608908e-09 2.2778521e-10 5.706189e-06 6.748958e-07
0000f0 ca 85 3d 35 7e 9b b2 37 67 f3 36 36 29 e0 cc 31
       7.0602675e-07 2.129166e-05 2.7261792e-06 5.9626655e-09
