src/scripts/model/actor_best.pth (torch, 68975 bytes, 18 tensors)

linear_input.weight f4 [64, 13]
00000000: ca47 dcbe 7c6c 3c3e 9f3e a4ba d890 d03d
00000010: d780 f4be 3c22 22bd 73b7 ff3d 8d90 0e3d
00000020: e903 a0bd b70d 213e e114 d8bc cbf4 c03e
00000030: 1bb0 b73e d177 913e 3507 6c3c d287 7b3d
00000040: ba8d a23a 59cf 363e b9a0 843e f8e1 60be
00000050: 89ed 2bbe 7513 3a3e be26 663e 2fa6 33be
00000060: 38eb 89bd 66d8 b6bd 7b23 ce3e 3663 00be
00000070: 555b 41be cbf0 043e c4c8 ba3e e69f a7bd
00000080: ed77 293d 1699 9e3a c806 973e d780 413e
00000090: d827 563e 8c7b 343e 33a4 1a3e 2ed0 1abe
000000a0: 7641 993e a8eb 84be c20e 8a3e 70f7 8fbd
000000b0: 3d4e ab3d 8623 0b3e c2f8 033e 66db 0c3e
000000c0: dbdc 573e 076f 48bc 7112 b43e d66c a5bd
000000d0: 91f1 e23a 7caa 9cbc c854 73be 2b0c 17be
000000e0: 16f8 c6ba 0262 2c3d 2705 82be d2de 263e
000000f0: d744 253c 914c 9c3e a03b 87bd 6790 403d
00000100: cd78 1fbe d68c 583e d7e0 703e 541f 1dbd
00000110: 9852 b73e a667 8a3e 3658 f2bc 2edc d3bd
00000120: 98a5 9d3e ca39 463d 5145 8a3e 1a4a 8d3d
00000130: ea28 d8bd 8f17 3fbe a8a8 243e 2c0f 07bd
00000140: b353 84bd e551 8d3e f217 c23e e614 e6bc
00000150: d8b4 69bd 6807 a23e 83d5 773e 0fd4 283b
00000160: 0dd7 9abc 9256 d4bd 2ed7 09be f0b2 cbbe
00000170: 5eb2 a73e 8766 97be ca2f 0abc 083c 4e3d
00000180: 867e ff3e 06e2 12bc 1579 d03e a465 e2be
00000190: 1831 f13e cd73 5c3e 6279 8a3d e825 a93e
000001a0: 483d a83e a364 f83d d86d 83bc eea4 bf3e
000001b0: e079 503e 9d66 f63d 0ba0 cb3d e439 0c3d
000001c0: 4bc7 2f3e 1c2e a23e e525 3fbe a384 d9bd
000001d0: 9f22 9dbd 1fc2 8cbd bf8f c8be 8219 273e
000001e0: 73da 573d b06b 0f3e e4ea babe 9d36 dcbc
000001f0: 4f66 3f3e 44e6 b13e 1424 d8be d6b9 dd3d
00000200: ddf8 d1bd 5237 9b3e fbea eebd 3cdc 463e
00000210: b7ee 65be faa7 11be 6ee7 17be be50 023e
00000220: b042 dd3d 41f0 b33e 38eb 2bbe 750d 38bb
00000230: 6c95 9ebe b0cf 4b3e 7a4d 923e cbf2 943d
00000240: 736f 2f3e 3e67 8cbe 1826 573e 9800 87be
00000250: e776 9e3d 8136 4abd 87d4 013e 88e9 f3bd
00000260: dfb0 8b3e b9c2 b8be 4234 c53d 5c6e 38bd
00000270: 88b4 603e 8817 06be 84d1 253e 5c7b 8f3e
00000280: 8dd4 c53e 09bd 9ebe 2005 28bc 4815 263d
00000290: f00d 023f 2f82 b9be 2aaf 5bbd d18f 983e
000002a0: 5da3 9f3e 5c5e 1b3e 7444 a03e 272f f13d
000002b0: 9145 b03e 8ad6 873e a190 2f3e 025a d8bd
000002c0: 9d98 f53d 4682 45bd e89f 233e b144 b43c
000002d0: 543e 0ebd 87a7 19be e8d8 c13d 8393 8f3e
000002e0: 4f9d 4f3c 81c2 783e 5ca7 edbd 9fd2 ce3e
000002f0: c107 3bbe 3ba0 9a3e 49c3 ecbd 67d8 2c3e
00000300: e1ad 9bbe fbcf ce3e 7ab2 a6be 3b6f b8be
00000310: 43e8 8b3e 8d4c 993c 62a8 ee3e 8cc1 0cbe
00000320: 19da 8b3d c29b 39be 82bc cf3e e3b8 bfbe
00000330: 0c02 5b3e 5fe7 1cbe 39cb e03e 447e dbbd
00000340: 034b b6be 4f50 c73e 167f 80be 0ca9 ab3e
00000350: ed73 253e cfe7 c83e 3c8f 94be c30a eb3d
00000360: 104b d0be 8671 da3e f0bb babd bccc 023d
00000370: 273e f43c 4bb7 923e 51d5 5abe 4542 e0bb
00000380: a27e 53bd 1620 8d3e c130 903d daae 6b3e
00000390: eed0 273e 3f47 483e df71 c3bd 4b76 c33d
000003a0: 7beb cdbc e76c a13e 8ffc c6be fbfe 10be
000003b0: 2c75 013e cf4f 0fbe 84fc 9bbc f3fd 173e
000003c0: 27d1 9f3e 49fc 273e 757e dcbe e912 b03e
000003d0: 1bf7 3a3e 4916 473e 75fc 2f3e 633d 6dbd
000003e0: 8756 1b3e c5bf a23c 1842 053d 62ad 5abe
000003f0: ea02 323e cb17 dbbc e143 e13d f912 7abc
-0.4302352 0.18400759 -0.001253087 0.10183877 -0.47754547 -0.03958343 0.12486162 0.034805823
-0.07813246 0.15727888 -0.026377143 0.37686762 0.35876545 0.28411725 0.014406015 0.061408825
0.0012401857 0.17852534 0.25903872 -0.219612 -0.16789831 0.18171485 0.22475716 -0.17543863
-0.067343175 -0.089279935 0.40261444 -0.12537846 -0.18882497 0.1298248 0.36481297 -0.08184795
0.041374136 0.0012100067 0.2949736 0.18896805 0.20913637 0.17625254 0.151017 -0.15118477
0.29932755 -0.2596104 0.26964384 -0.07029617 0.08364532 0.1358777 0.12887862 0.13755569
0.21080343 -0.012233502 0.3517032 -0.080773994 0.0017314424 -0.019124262 -0.2376281 -0.14750735
-0.0015180137 0.042085655 -0.25394556 0.16295937 0.0100872135 0.30527166 -0.066031694 0.047012713
-0.15573426 0.21147475 0.2352327 -0.038359955 0.35805202 0.27032202 -0.029583078 -0.1034473
0.307904 0.048394956 0.2700601 0.068988994 -0.10554679 -0.1866133 0.16079962 -0.032973453
-0.06461277 0.27601543 0.37908894 -0.028086137 -0.05705723 0.31646276 0.24202542 0.0025761162
-0.018901372 -0.103680745 -0.13460991 -0.39784956 0.3275327 -0.2957041 -0.008434245 0.05035022
0.49901217 -0.008965021 0.40717378 -0.4421817 0.47107768 0.2152855 0.06761433 0.33036733
0.32859254 0.1212857 -0.016043589 0.3743052 0.20358992 0.12031291 0.09942635 0.034234896
0.17165868 0.31675804 -0.186668 -0.106210016 -0.07672619 -0.06872963 -0.3917217 0.16318324
0.052698564 0.14005923 -0.36507332 -0.02688151 0.18691371 0.3474599 -0.42215025 0.10826461
-0.10252545 0.30315644 -0.11665913 0.1941995 -0.22454344 -0.14224234 -0.14834377 0.12726113
0.10803735 0.35144237 -0.16788948 -0.0028084193 -0.30973375 0.19903445 0.28574735 0.072728716
0.17132358 -0.27422518 0.21010625 -0.2636764 0.077375226 -0.049368385 0.12678729 -0.11909777
0.2728338 -0.36086062 0.09629108 -0.045027122 0.21943867 -0.13094914 0.16193205 0.28023803
0.38638726 -0.31003597 -0.010255128 0.04054764 0.50802517 -0.36232135 -0.053633846 0.29797223
0.31179324 0.15172714 0.31302226 0.11776572 0.34428075 0.26530868 0.17145015 -0.10564043
0.11991999 -0.04821994 0.15978968 0.02200541 -0.03472741 -0.15005313 0.094652 0.2804223
0.012671783 0.24292947 -0.11604187 0.40395066 -0.18264677 0.3020037 -0.11560685 0.16879426
-0.30406097 0.40393052 -0.32558042 -0.36022362 0.2732564 0.01871326 0.4661284 -0.13745707
0.06828708 -0.18125823 0.40573508 -0.37445745 0.213875 -0.15322636 0.43905047 -0.10717443
-0.35604104 0.38928458 -0.2509696 0.3352741 0.16157503 0.39239356 -0.2901553 0.11476662
-0.40682268 0.42664737 -0.091178775 0.03193353 0.029814793 0.28655466 -0.21370436 -0.0068438374
-0.05163444 0.27563542 0.07040549 0.2301592 0.16388294 0.19558428 -0.095432036 0.09544047
-0.0251367 0.31528398 -0.38864562 -0.14159767 0.12642354 -0.13995288 -0.019041307 0.14842968
0.31214258 0.16404833 -0.4306523 0.34389427 0.18258326 0.19442095 0.17186148 -0.05791987
0.15169726 0.019866833 0.032533735 -0.21355203 0.17383924 -0.026744744 0.10999275 -0.0152633125

linear_input.bias f4 [64]
00000000: 8187 563d eb7f 943e 2c7b 30be 80aa ac3e
00000010: 0130 0abe 4bb9 573e 425d 36be 06b7 82bd
00000020: 2f60 4b3e 000e 5d3c 6f9f bcbd d96f 853e
00000030: 3db2 0fbe 0651 7b3e f63b fb3d 6193 823e
00000040: 9252 7e3b ad09 5e3d b001 0fbd 8515 67bd
00000050: e777 983e 8398 163e eb9e b8bd 8184 0cbc
00000060: 5d32 b8bd 0e2e 933d 9c2e 893e 07e3 5e3d
00000070: f23b 113e ff06 a93e 9745 363d b8c5 1b3e
00000080: 84aa 4ebd 3e67 993e 46d3 b0bd 292d 723e
00000090: bc55 acbd d5f4 083e 828d 09be 617a 1c3e
000000a0: 8c54 acbb 3f50 59bd 4b0b 9d3d e403 3b3c
000000b0: 8540 3a3e 5f76 453c d442 85be 45c6 a33e
000000c0: 14cf 9e3e bc52 8e3e af79 debd 269e c1bd
000000d0: 9a5d 73be c7fd cfbd 90a5 413e b38d 89bd
000000e0: 25cb f83d afbd 4f3e aab9 843e 85ae 9d3e
000000f0: e40d 183e 5385 8cbd f600 843e eeb1 5abe
0.05237532 0.29003844 -0.17234486 0.3372383 -0.13494875 0.21066777 -0.17809013 -0.06382565
0.1986091 0.013492107 -0.09210097 0.26061895 -0.14032836 0.24542627 0.12267296 0.25503066
0.003880654 0.054208446 -0.03491372 -0.056417007 0.29778978 0.14706616 -0.09014686 -0.008576513
-0.08993981 0.071865186 0.26793373 0.05441573 0.14183024 0.3301315 0.04449996 0.15212142
-0.050455585 0.2996158 -0.08634047 0.2365004 -0.0841479 0.13374646 -0.13432887 0.15281059
-0.005259102 -0.053055044 0.076681696 0.011414502 0.18188675 0.012052148 -0.26027548 0.31987205
0.31017363 0.27797496 -0.10863053 -0.094539925 -0.23766175 -0.10155826 0.18910813 -0.0671648
0.12148122 0.20287202 0.259229 0.3079721 0.14849049 -0.06861367 0.25781983 -0.21356937

linear_hidden.0.weight f4 [64, 64]
00000000: e81a 3ebd fa40 b7bc 649e 31bd 9d2c 853e
00000010: c09d 853d 871d cc3d ea9f e0bd 904d 6a3e
00000020: 5b74 363e 1b9e 9dbe f2f5 b4bd cdec a93d
00000030: 8a20 aebd 48b7 293e 4ea9 9d3e bb56 be3e
00000040: 8292 933e a777 a7bc 5109 d43d bfb1 c13b
00000050: 7b9e ecbd 604d f73d a147 003d f380 df3d
00000060: 4a4a 333e 843b 243e d25b 593e 12e8 993d
00000070: 0f5a f0bd 166d 803e b32b 76bc 8623 e73d
00000080: 34ad afbc c5b8 d13b e11a e33c 78a7 a1bd
00000090: 1dac bbbd 0583 7c3e a7d2 043e 2f4a 3dbd
000000a0: 07c3 0d3d bd27 24bd d056 b13d 960e 04bd
000000b0: bce3 873e 415b 0dbe 29ab 51bd 9126 fd3d
000000c0: 381d 1d3d bc80 ff3d e009 033e 6973 433d
000000d0: 15aa 813d 3e78 ecbd b465 903d aeea 643e
000000e0: 7154 aebd 6941 77bd 5f20 c4bc 316a 0e3e
000000f0: b22a 783d ebf2 bbbc 376b 8d3c f1c7 563c
00000100: 3de1 9c3e 9321 bebd 8424 563e d6dd 0d3c
00000110: 2a99 04be ca6c e33b 29d5 73bd af93 b2bd
00000120: 2b7f 083d 3337 513d 9122 a8bb b255 a8bd
00000130: 6e32 643e 2d99 33be 6d2a 513d 4f6e 6cbe
00000140: f91b 43be b307 063e 57ad c13d 047f ab3e
00000150: de80 b93d df43 643e cc5d 9d3d 966d 8a3d
00000160: 3d53 97bd 31eb 263d 1750 b0bd c13a d33d
00000170: ef21 f33c 9d0a b63b b1ce e83b 871e 85bc
00000180: 95bd 273d 13e0 62bd af08 b4bb 6bee 223e
00000190: 27fb 933d 9a98 cbbd 5a63 653e bf68 383b
000001a0: 6b19 d63c 90ca a93d 4ae6 ca3c 09cc 973e
000001b0: f70b c3bc 2b66 d13d df65 98bd 4207 823d
000001c0: 39b9 ed3d d1ea 27bd 94d4 c83c c2e1 d0bd
000001d0: 39a2 c33d c8a4 b23d 8d4a 20be 344f 21bd
000001e0: f625 a43e e96f 0c3e 708c 153d a02d cabd
000001f0: 661a 3c3d 3954 db3d 58bc 9a3d 5428 1f3e
00000200: 853a d53d 0379 8e3c 6b2a 88bc d796 1a3e
00000210: 5f40 cb3d d1c9 543d c172 6cbd 5775 7a3e
00000220: b548 4cbd b639 d8bd 3625 163e 5409 553d
00000230: 2730 7ebe 4b96 17bd a985 b23e 2a56 ac3e
00000240: 394c 3d3e 6d45 47be 8087 873d b5c4 72bc
00000250: 9303 e4bc 1277 343e 0761 763e b888 05bd
00000260: 0e58 203e 9a27 293e 1923 f73d 6e86 abbc
00000270: 603f 733d 1684 d33e d86a 6dbd 613e db3d
00000280: 919a 39be e2de 8f3d ccba 99bc edbc 59be
00000290: d1a0 c9bd f816 303e 4586 1e3e 87b7 0bbd
000002a0: 3ccd 193e 18c8 5abd a41d 163e e389 bebd
000002b0: 88e1 233e 00df 9cbc db21 f93c 21ee c93d
000002c0: ee8f 7e3d 9ae9 923e 2c75 14bd 3b5c b83d
000002d0: b3ac f6bd 6fff c5bc 9d03 993d 592b 7f3e
000002e0: 16be 273c 7b76 00be e93c 0d3e 953e 613e
000002f0: 42c2 d13d da61 ae3d 54e2 aa3c fbc4 d9bd
00000300: 6ea7 0c3d 177e d13a ac06 863e eea1 963e
00000310: 9ba5 613e 579c fa3d 19cf 1c3e b77e 3d3e
00000320: f49d e73d 1d2a e93c c956 81bc 71a3 4d3e
00000330: a7f9 ed3d dfc3 6e3e b734 533e c55f 8b3d
00000340: a7a1 613d 9c8e 193d adda cdbd bdc7 a43d
00000350: 5605 933d bb22 273d 6b18 0b3c 1680 5b3d
00000360: 6fd7 773e 1ec5 883e 8e2b 953e 71f1 b13d
00000370: acb7 063e 94bd 6c3e a656 b63d e4f5 1fbc
00000380: 7818 b33d 0ecb 543b e6a6 fc3b b8ce f7bc
00000390: cd56 d23c 5ae6 753e 75b4 bf3d c423 adbd
000003a0: f2a1 aabd e54e fe3d 8060 0cbe 7ac2 763e
000003b0: c778 0d3e 4c14 5a3e aac7 de3d 7f01 483e
000003c0: 2657 123e 1d86 293d 24a9 213e 4a65 2ebe
000003d0: 6298 3c3e 3a15 3e3e af04 8e3e afa2 863e
000003e0: 2f0b b7bd bc85 133e 00f7 8fba 3c5c 203e
000003f0: d687 c7bb 1434 ed3d 3882 113e 2f76 323e
-0.04641238 -0.02236985 -0.043363944 0.260106 0.06524229 0.099665694 -0.10968001 0.2288115
0.17817824 -0.30784687 -0.08835973 0.08297119 -0.085023 0.16573822 0.30793232 0.37175545
0.28822714 -0.020442797 0.103533395 0.0059110816 -0.11553665 0.12075305 0.03131831 0.10913267
0.17508808 0.16038328 0.21226433 0.07514967 -0.11735927 0.25083226 -0.015025067 0.112860724
-0.021444894 0.0064002 0.027722778 -0.0789327 -0.091636874 0.24659355 0.12970982 -0.046213325
0.03460982 -0.04007696 0.08659136 -0.032240473 0.26540935 -0.13804342 -0.05118862 0.123608716
0.038357943 0.12475726 0.12796736 0.047717486 0.06331269 -0.11546372 0.07050648 0.22355148
-0.085122 -0.060365114 -0.023941217 0.13907696 0.060587592 -0.02294298 0.017263038 0.013109193
0.30640593 -0.092837475 0.20912367 0.008658847 -0.12949052 0.006940459 -0.059529457 -0.08719575
0.0333244 0.051078033 -0.0051310738 -0.0821947 0.22284862 -0.175389 0.05106585 -0.23088954
-0.1905364 0.13088875 0.0945689 0.33495343 0.090577826 0.22291516 0.07683906 0.06759183
-0.07388923 0.04075164 -0.08609026 0.10313941 0.029679267 0.0055554644 0.0071047177 -0.016249908
0.040952284 -0.055389475 -0.005494199 0.15911262 0.07225638 -0.09941216 0.22401181 0.0028138605
0.026135167 0.08290589 0.024768014 0.29647854 -0.023809416 0.10224565 -0.07441305 0.063490406
0.11607594 -0.040995423 0.024515428 -0.1019931 0.09552426 0.08722836 -0.15653439 -0.039382175
0.32060212 0.13714565 0.036510885 -0.098719835 0.045923613 0.107094236 0.07555455 0.15542728
0.10411552 0.017391687 -0.016621789 0.15096603 0.09924387 0.05195028 -0.057726625 0.24458824
-0.049874026 -0.105578825 0.14662632 0.05201085 -0.24823056 -0.037008565 0.348676 0.33659488
0.18486108 -0.19460078 0.066176414 -0.014817406 -0.027833736 0.17623547 0.2406045 -0.03260109
0.1565859 0.16519013 0.12067241 -0.020938125 0.05938661 0.4131171 -0.057963222 0.10705257
-0.18125369 0.070249334 -0.01876583 -0.21263476 -0.098451264 0.17196262 0.15480907 -0.034110572
0.15019697 -0.05341348 0.14659745 -0.093036436 0.16004002 -0.019149303 0.030411651 0.098598726
0.06214898 0.2869385 -0.036244556 0.090019666 -0.120446585 -0.024169652 0.07471392 0.2491888
0.010238191 -0.12545197 0.13792767 0.2199653 0.1024213 0.085147575 0.020859875 -0.10633274
0.03433936 0.0015983012 0.26176965 0.29420418 0.2203583 0.12236851 0.15313376 0.18505369
0.11309424 0.028462464 -0.015788453 0.20081879 0.11619883 0.23316906 0.20625578 0.06805376
0.055085804 0.03748952 -0.10051475 0.080459096 0.07178752 0.040804606 0.008489708 0.05358895
0.24203275 0.26712888 0.29134792 0.086886294 0.13156003 0.23119193 0.08903246 -0.009763215
0.087449014 0.0032469663 0.0077103255 -0.030249938 0.025676155 0.24013653 0.09360591 -0.084540874
-0.0833167 0.12417392 -0.13708687 0.24097624 0.13815604 0.21296805 0.10877927 0.1953182
0.14291057 0.041387666 0.15787178 -0.17030826 0.18417504 0.18562785 0.27737948 0.26295993
-0.0893768 0.14406484 -0.0010983646 0.15660185 -0.006089191 0.11582199 0.14209831 0.17427896

linear_hidden.0.bias f4 [64]
00000000: e67d bb3d 38f5 84bd c648 503d 1d4b 743d
00000010: ac21 113e b3d8 933d 33b1 2e3e 584f 093e
00000020: 594c 783d ec8b 253e 58bd 373b d444 963b
00000030: 38d9 993d e0ce 953b c2ca d53d 70d5 da3d
00000040: c647 11bb 7b12 753d 9ebc 853d f5ca 243e
00000050: b9ff 853c 60ad 9e3c b082 043e 8372 c03c
00000060: a41f 2d3e a7cb a83d d6e8 9abd 880c fd3d
00000070: 0d0c 2b3e 5857 d9bc f17f 853b edbb 073e
00000080: e75b a23d 92d6 a9bd 6d40 683e 3471 77bd
00000090: 8ab1 313c e9e5 973c 799a 093d 45eb 463d
000000a0: 033b fdbd 7a7c 7e3c 5f4f d03d ef0a 1d3e
000000b0: 2696 473d 9406 573d 1a6a a23d 478e ef3d
000000c0: fb47 9c3d 37d9 4c3d b08d 743d c41b 44bd
000000d0: e303 713c 96bb c73d bf7f 3f3e 5f4b ae3d
000000e0: 79fe 0a3e 2353 853d dcae a2bc 28ed 333c
000000f0: 0ff0 123c a883 8a3c e8b3 153e eb70 1c3b
0.091548726 -0.06492084 0.050850652 0.059641946 0.14173001 0.072190665 0.17059784 0.13409173
0.060619686 0.16166657 0.0028036442 0.0045858417 0.07512134 0.0045717806 0.104390636 0.10685241
-0.0022168024 0.059832077 0.065301165 0.16093047 0.01635729 0.019369781 0.12940478 0.023492103
0.16906601 0.082419686 -0.07563941 0.12355906 0.16703816 -0.026530907 0.0040740897 0.13255282
0.07927685 -0.08292879 0.22680826 -0.060410693 0.010845551 0.018542247 0.033594582 0.048564214
-0.12364771 0.015532607 0.10171389 0.15336202 0.048727177 0.052496508 0.079303935 0.11697059
0.07630917 0.05001184 0.059705436 -0.047878042 0.014710399 0.09752576 0.18701075 0.0851047
0.13573636 0.06509998 -0.01985877 0.010981835 0.008968367 0.016908482 0.1461941 0.0023871015

linear_output.weight f4 [4, 64]
00000000: 4380 833b 15ea 26bd 8d69 163e 2dd1 f9bc
00000010: 18ef 863d 2efe 153b 06fb 99bd 1de4 213e
00000020: 7781 3a3d ccf1 0c3d dd1a 16bd 8676 8d3b
00000030: 949a 333e 03c3 313b fdda 073d 7724 d23d
00000040: 4c2b 23bd 63ad 4bbc d981 523e 2376 223e
00000050: a766 3e3d 2b44 7abd c169 5ebd feab 36bd
00000060: 9154 6a3d 34b9 513d 0863 6bba ca4d 45bd
00000070: 6dff b03c 5aee b33d c8da f43a 1494 563d
00000080: 06c5 f53d 1283 adba 22c3 2e3e efad 3dbd
00000090: ce99 1dbd f20a 35bd f241 83bc 99f7 cbbc
000000a0: 1297 eebc 6143 25bd 3fc6 133d ee71 553d
000000b0: 1a68 8d3b aca8 1b3e 6c1f a13c 24ea f13d
000000c0: e88a a83d 187e 0ebd f474 c0bb c66b c9bc
000000d0: e5f5 2abd d48c 95bd aade be3d 98e4 d83c
000000e0: 1be1 703d 4a99 1d3c 698f c83c 917a 313d
000000f0: 1f87 20bd d7fe c13c e1ff 4d3c 2b5d bbbb
00000100: 36df f43d f507 4b3d 4ccb af3e b1ff 263e
00000110: 6f13 2e3d 937a 263d 4a40 ac3e c122 d43d
00000120: 2181 323d b560 203d 67a8 543d fef4 9b3e
00000130: 95ac e53d c1d0 52ba ac7e 4d3d 8475 393d
00000140: 8139 433d 4b44 7c3e 40f5 373e 2d41 c03d
00000150: 6f93 263d 1189 a03d 9e9a b23d 21b1 373d
00000160: c642 103d 5129 1c3d c14e 02ba d069 7c3d
00000170: 1c1f 363d 7e0b 323d ac37 283d 6d31 1e3d
00000180: 241c c73d 4e78 f839 98ff 1e3e f012 b53d
00000190: 84f2 fd3d 33dc 973d 674c 2c3d dc06 603d
000001a0: 9a41 4c3d 1cf0 5a3d 979a 213d 0d7f 183e
000001b0: 205e 463d 561b 373e df00 2b3e 19fa b73d
000001c0: aac8 5e3d 714a 303d e44f 4f3d 90a5 7c3d
000001d0: 240a 263e 5218 a23d ead9 ab3d 10d7 203d
000001e0: 28b6 423d 86c3 203d 2469 973d 7dba 363d
000001f0: 7b5b 7e3d f0f8 233d d7e1 333d 5ed1 ec3d
00000200: 53ad 133e 7b49 14bc d161 583e 1dea 093d
00000210: 7fa8 863d cb76 823d fa9d c63d 5c78 173d
00000220: a6f6 8d3d a1ac 843d e4e0 f1bc 6a62 0b3d
00000230: 99fb 5d3d fa20 90b9 9c7f 933d 4cf5 843d
00000240: 08a7 14bd d585 ce3d cdf4 5f3d 195b 6a3d
00000250: 3ce6 8b3d 324f 3fbd ff42 3bbd 615f 363e
00000260: b2f5 7e3d fc76 8d3d 1d48 48ba f59a 2abd
00000270: cba1 723d 6be8 863d 2315 6a3d 4ed0 833d
00000280: 52b0 0c3d 08ec 5aba 377d 013d 45e5 22bd
00000290: c507 e3bc 9528 30bd 16da 3d3d 17d1 d8bc
000002a0: cce0 b7bb d923 1bbd c82d 723d dd8e f83d
000002b0: a9ee 813d ccf2 023d 1219 a33d 7312 393d
000002c0: d5d1 753d af46 933d b63f 4e3d 9a60 bfbc
000002d0: de0f e93c 90b2 40bd f365 a63d d6a5 8a3d
000002e0: 9458 9a3d 099c 753d ae21 c23d cdac 803d
000002f0: 697e 20bd 1d49 9c3d 21b0 603d 9e64 a0bb
00000300: 9eb5 f0bd 5a8e b53d fd9a 56be 8f1e f7bc
00000310: 6d3b 09be b7ef 3bbe 001e 0cbe b296 403d
00000320: 6472 53be 796b 3fbe b2fa 9f3d 325b e6bd
00000330: 23b3 4a3c cc68 34bb 7752 19be e129 b8bd
00000340: 9ce2 8f3d 5627 acbd 4089 243e d427 b2bc
00000350: 1266 35be 3adc cd3d 4336 a93d ebb5 a83c
00000360: 888e c6bd e094 e3bd e8e4 15ba 17f8 bc3d
00000370: 3c83 59be f649 64bd 8fcb 03be c5ee 1abe
00000380: ed0f 813d d493 b13a 8d77 ec3d d76d a13d
00000390: 0ff9 c53b 1737 b23d 7cf7 b5bd 63e2 233d
000003a0: 7c81 c33d 9699 833d 84d5 34be c259 cebd
000003b0: d6b0 4bbe dc38 193e c2ba e1bd 87e9 863d
000003c0: 5b5f a73b fdc6 c03d 8445 32be c9fa ac3d
000003d0: ff76 913d a996 ea3d 852a 39bd ccd9 26be
000003e0: 2b08 9abd 521d 3dbe b6aa 8abe 7824 47be
000003f0: b06c 9d3d d858 44be e24d 3cbe d19c 1d3e
0.0040130927 -0.04075058 0.14688702 -0.03049525 0.06588572 0.0022887099 -0.07518582 0.15809675
0.045533624 0.034410283 -0.036646713 0.0043171076 0.17539436 0.0027124293 0.033167828 0.10260861
-0.039836213 -0.012431475 0.20557345 0.15865378 0.046484616 -0.061100166 -0.054300074 -0.04459762
0.057209555 0.051202014 -0.00089792954 -0.04816989 0.021606172 0.08785696 0.0018680925 0.052387312
0.1200047 -0.0013237915 0.17066625 -0.046308454 -0.038476758 -0.04419989 -0.016022656 -0.024898337
-0.02912477 -0.04034746 0.036077734 0.052110605 0.0043153884 0.15201062 0.019668303 0.11812237
0.08229619 -0.03478822 -0.005873317 -0.024587523 -0.04173841 -0.073022515 0.093198135 0.02647619
0.058808427 0.0096190665 0.024482446 0.04332978 -0.03919136 0.023681087 0.012573213 -0.0057178936
0.119566366 0.049568135 0.3433479 0.16308476 0.042499002 0.04064424 0.336428 0.10358191
0.04358018 0.039154727 0.051918413 0.30460352 0.11214558 -0.0008041971 0.05016963 0.045278087
0.047662262 0.24635427 0.17964649 0.09387431 0.040667947 0.07838643 0.08720897 0.044846658
0.03521993 0.03812534 -0.00049708417 0.06162435 0.044463262 0.04346799 0.041068718 0.038621355
0.09722164 0.0004739188 0.15527189 0.08841503 0.12399772 0.074150465 0.04206505 0.05469404
0.04986725 0.053451642 0.03945407 0.14892216 0.04842961 0.17881522 0.16699551 0.08983249
0.054390587 0.043039743 0.0506133 0.06168133 0.16214806 0.07914795 0.08391173 0.0392676
0.047537 0.039248966 0.07393101 0.044611443 0.06209896 0.040032327 0.04391655 0.11563371
0.14421587 -0.009050722 0.21131064 0.033670533 0.06575107 0.06370314 0.096981004 0.036980018
0.0693181 0.06478239 -0.029526182 0.0340294 0.05419502 -0.0002749039 0.07202074 0.06492099
-0.036292106 0.1008412 0.05467682 0.057215784 0.06831023 -0.046706386 -0.04571819 0.17809822
0.062246032 0.0690746 -0.000764014 -0.041651685 0.05923633 0.06587299 0.057149064 0.06436215
0.03434784 -0.00083512114 0.031613555 -0.03976943 -0.027713666 -0.043007452 0.04635056 -0.02646689
-0.0056115147 -0.037875984 0.05912569 0.12136624 0.06344349 0.03196983 0.07963766 0.04518361
0.060014565 0.07191216 0.05035373 -0.023361493 0.028449949 -0.04704529 0.08124914 0.06769912
0.07536426 0.05996326 0.0947908 0.06282959 -0.039183054 0.07631133 0.05485547 -0.004894807
-0.11753391 0.08865042 -0.20957561 -0.030165939 -0.13401575 -0.18353163 -0.13683319 0.047018714
-0.20649105 -0.18693341 0.07811488 -0.11247863 0.012371811 -0.0027528284 -0.14972864 -0.08992363
0.07025644 -0.0840594 0.16067982 -0.021747507 -0.17714718 0.100517705 0.08262303 0.020594558
-0.096951544 -0.1111238 -0.00057180086 0.09227007 -0.21241468 -0.055734597 -0.1287062 -0.15130146
0.06301866 0.0013548085 0.1154624 0.078822784 0.006041653 0.08701914 -0.088850945 0.04001082
0.095461816 0.064257786 -0.17659575 -0.10075714 -0.19891676 0.14963096 -0.11021949 0.065875106
0.005107803 0.09412954 -0.1740933 0.08446271 0.07102775 0.114545174 -0.045206565 -0.1629402
-0.07521089 -0.18468216 -0.27083367 -0.19447505 0.07686746 -0.19174516 -0.18389085 0.15391852

linear_output.bias f4 [4]
00000000: 4c4d 153c 1ced 1f3d e1be 47bd 9204 683c
0.009112667 0.039044484 -0.04876602 0.014161246

exp_avg f4 [64, 13]
00000000: abde 0538 6f18 a237 fb9d 0438 3d32 b1b3
00000010: 1194 2738 8829 1437 6c0e fd37 0987 82b4
00000020: 2e20 4538 57a9 5637 5bd3 ac37 1468 7432
00000030: c0e5 50b7 3b05 5d38 8919 40b7 ba77 0bb9
00000040: a200 2137 af0b 6038 57ac d0b6 addc 10b9
00000050: 68ea 1e37 b23f 6b38 bc72 c2b6 0d27 19b9
00000060: 0c7b 1f37 c1ca 9239 fbd1 4cb9 db7b 6736
00000070: 59bf 9739 a06b 30b8 9570 57b9 625a 3337
00000080: a1c8 9539 1d61 2fb8 db13 6bb9 46d4 db37
00000090: 9313 9739 e6da 2fb8 1110 9f38 6cb4 7f39
000000a0: a093 1e36 63bf e1b9 6b8f 4338 4430 8539
000000b0: c57a d736 e027 e5b9 2792 4138 d7d0 8f39
000000c0: e736 3ab6 148b eeb9 9f7c 4238 dfc9 fe39
000000d0: 017d 2438 79bd 4db7 14ff b4b8 d12e c836
000000e0: ff93 2738 425d 16b7 d428 beb8 7da6 c536
000000f0: 2ccc 3138 b417 31b7 de29 ccb8 218d c536
00000100: 3010 5a39 481a 8e38 3a13 51b7 5704 1fb9
00000110: 5772 1137 6ad6 8f38 63a4 7bb6 ef9d 28b9
00000120: a5cc 0e37 b241 9638 f6ca 1db6 80ba 35b9
00000130: ac7a 0f37 b0a6 cf39 f9a7 f5b7 0032 9cb7
00000140: 7a5f df37 9198 a8b6 837c 04b8 af42 8cb7
00000150: 9c4d d837 5fd7 a6b6 1d40 15b8 6850 6cb7
00000160: 0211 df37 e88b a8b6 7dc3 4e38 70b7 8939
00000170: bde7 7cb8 b3ba 52ba e7d0 c838 28f7 8539
00000180: bab7 23b8 8d16 52ba 1a01 c838 f157 7d39
00000190: e9b1 f7b5 2924 55ba a1a1 c838 e22f 973a
000001a0: be9f 1837 7174 a5b7 6db0 41b8 3c34 2ab5
000001b0: e8a9 fd36 f6d1 60b7 7ace 58b8 f7be 30b5
000001c0: 83da b836 21b7 28b7 5d06 73b8 5fd4 31b5
000001d0: f1c9 8839 0081 e4b9 8e5f bf37 9f4c 4d3a
000001e0: 2e19 adb8 4ed0 eeb9 fade bb37 9e4e 513a
000001f0: 6e5c abb8 86a2 01ba d037 5338 1ea0 5a3a
00000200: 9b16 acb8 f088 22ba 34c4 1738 52b5 c737
00000210: 3513 2ab8 e977 2a37 47b2 2338 abaa 9f37
00000220: 42ac 1bb8 8c80 2937 95aa 3438 43ee 8437
00000230: 70c7 15b8 da87 2a37 7b06 5bb8 77f2 db38
00000240: 5a37 a736 ef14 22b9 79a5 ab37 759b e638
00000250: aec8 8b36 40ce 21b9 8e50 aa37 937d fa38
00000260: 9e17 90b4 151e 26b9 bb26 ab37 58f5 cd38
00000270: e642 a4b9 1360 81b7 0098 0d3a df04 7fb8
00000280: 22d8 abb9 5720 86b7 0c07 0f3a 85ae 7cb8
00000290: aafd bab9 cbc7 9635 c019 143a 8aab 7db8
000002a0: 5cf4 b4b9 6ad1 1e39 0838 8db8 6747 beb9
000002b0: d0e5 fe37 0ecb 2039 af6d 6fb8 ddd9 c5b9
000002c0: 727f fb37 3f42 2539 f838 7cb8 eb26 d0b9
000002d0: a82f fd37 ce0f 1b3a 83a7 d839 7d06 38b6
000002e0: 8731 35ba bb2e 9938 51bb e239 3791 c0b6
000002f0: 0b59 39ba 4ffa 9738 1bf1 f539 812a 19b8
00000300: cfad 42ba 8655 9838 d804 313a a002 ca39
00000310: e803 b638 0fbf 35ba a432 a838 01f6 d339
00000320: da75 a538 ded3 37ba a343 a638 e38f e939
00000330: 3edc 0c38 4dce 3fba cc17 a738 1235 3f3a
00000340: 7958 4d39 abe5 3539 77d0 78b9 9c0a a837
00000350: abb0 5c39 fe52 3a39 36ba 81b9 a07b a237
00000360: 8f80 7c39 a110 2839 85d2 90b9 5e69 a437
00000370: 92f8 f939 6090 2ab9 714a aeb4 24ea 9239
00000380: 7a80 06b8 f8f8 31b9 9155 9a35 ee41 9439
00000390: af2e 05b8 a542 40b9 55b2 7337 44f4 9839
000003a0: d999 05b8 97e7 4db9 0609 a832 5aef f432
000003b0: b837 9f31 d3d1 6b31 ee63 ae32 af23 0033
000003c0: b3a3 f231 46e6 6c31 b5b9 be32 6bea 0a33
000003d0: 4a96 2532 c037 6c31 785c 6f32 d77e 55b8
000003e0: e756 b938 b010 9239 c9b1 ecb7 f1cb 3bb8
000003f0: b8cc aa38 c497 9339 4281 edb7 679f 16b8
3.1917047e-05 1.9323283e-05 3.1618383e-05 -8.251343e-08 3.99538e-05 8.831157e-06 3.0166666e-05 -2.4312638e-07
4.699843e-05 1.27948215e-05 2.0602418e-05 1.4226334e-08 -1.2451259e-05 5.2695377e-05 -1.1450037e-05 -0.00013300675
9.596495e-06 5.3416643e-05 -6.218946e-06 -0.00013815118 9.472111e-06 5.6087687e-05 -5.7950074e-06 -0.00014605765
9.505788e-06 0.00027998353 -0.0001953318 3.4493776e-06 0.0002894353 -4.2061904e-05 -0.00020545938 1.0690275e-05
0.00028568975 -4.1813695e-05 -0.00022418743 2.6205682e-05 0.00028815548 -4.1927116e-05 7.5847034e-05 0.00024385907
2.3629764e-06 -0.00043057938 4.662519e-05 0.00025403698 6.4217916e-06 -0.00043707993 4.61509e-05 0.00027430683
-2.7748117e-06 -0.0004549852 4.6369267e-05 0.0004859706 3.9217066e-05 -1.2263067e-05 -8.630581e-05 5.9659146e-06
3.9953735e-05 -8.96241e-06 -9.067511e-05 5.8904393e-06 4.239024e-05 -1.0555541e-05 -9.7352764e-05 5.887487e-06
0.0002079613 6.775983e-05 -1.2461847e-05 -0.00015165038 8.669295e-06 6.858709e-05 -3.74976e-06 -0.00016080563
8.511507e-06 7.164794e-05 -2.3512962e-06 -0.00017330982 8.552026e-06 0.0003960631 -2.9284494e-05 -1.8619932e-05
2.6628131e-05 -5.0245512e-06 -3.1587213e-05 -1.6720353e-05 2.5785346e-05 -4.972258e-06 -3.558408e-05 -1.4085417e-05
2.6591591e-05 -5.0230774e-06 4.929629e-05 0.00026267348 -6.0297305e-05 -0.00080386846 9.575654e-05 0.00025551883
-3.9033337e-05 -0.00080142246 9.536948e-05 0.00024160721 -1.8454713e-06 -0.00081306935 9.566849e-05 0.0011534656
9.097099e-06 -1.9723755e-05 -4.6179095e-05 -6.3405946e-07 7.5597673e-06 -1.3400326e-05 -5.169071e-05 -6.5843e-07
5.5090654e-06 -1.0056218e-05 -5.794164e-05 -6.624668e-07 0.000260904 -0.0004358366 2.281347e-05 0.0007831547
-8.253973e-05 -0.00045550097 2.2395969e-05 0.0007984432 -8.171132e-05 -0.00049451774 5.03583e-05 0.00083398994
-8.20581e-05 -0.0006200215 3.6183934e-05 2.3807082e-05 -4.0549046e-05 1.0160708e-05 3.9028262e-05 1.903375e-05
-3.7115307e-05 1.0103115e-05 4.307421e-05 1.5846575e-05 -3.571011e-05 1.016442e-05 -5.2219704e-05 0.00010487896
4.9834316e-06 -0.00015457322 2.0461843e-05 0.00010996211 4.165885e-06 -0.0001543099 2.030309e-05 0.00011944319
-2.6839274e-07 -0.000158422 2.0402824e-05 9.8208606e-05 -0.0003133036 -1.5422736e-05 0.0005401373 -6.0801274e-05
-0.00032776693 -1.5989104e-05 0.0005456067 -6.0244016e-05 -0.0003566568 1.1234018e-06 0.0005649589 -6.047966e-05
-0.00034514337 0.00015146067 -6.7338406e-05 -0.00036292823 3.0386174e-05 0.00015334433 -5.708419e-05 -0.0003773709
2.9980878e-05 0.00015760305 -6.013454e-05 -0.00039701848 3.0182142e-05 0.0005915136 0.00041323536 -2.7421913e-06
-0.0006911982 7.304313e-05 0.0004324564 -5.738951e-06 -0.00070704584 7.246865e-05 0.0004690968 -3.6517627e-05
-0.0007426412 7.263855e-05 0.0006752736 0.00038530398 8.679164e-05 -0.0006933072 8.020297e-05 0.00040428343
7.889765e-05 -0.00070124667 7.928095e-05 0.00044548427 3.3583718e-05 -0.0007316813 7.967613e-05 0.000729398
0.00019583282 0.00017347063 -0.00023728782 2.0032101e-05 0.00021046649 0.0001776926 -0.00024743535 1.9369472e-05
0.00024080485 0.00016027923 -0.0002762267 1.9599389e-05 0.0004767818 -0.00016266247 -3.246419e-07 0.00028021738
-3.2067743e-05 -0.00016972783 1.1498797e-06 0.0002827788 -3.175315e-05 -0.00018335374 1.452545e-05 0.0002917369
-3.1852953e-05 -0.00019636597 1.9561877e-08 2.8514183e-08 4.6338435e-09 3.4316272e-09 2.0301709e-08 2.9834776e-08
7.0617374e-09 3.4473415e-09 2.2203361e-08 3.234383e-08 9.638436e-09 3.437421e-09 1.3932656e-08 -5.0901286e-05
8.837674e-05 0.00027859723 -2.821618e-05 -4.477421e-05 8.1443635e-05 0.000281511 -2.8312792e-05 -3.5911242e-05

exp_avg_sq f4 [64, 13]
00000000: 45c3 1c33 7f8c 3b32 22dd a934 cc7d 9b31
00000010: 7e6e 1c33 7096 2f32 1b58 a634 9e3e 9b31
00000020: f9f0 1c33 5a35 2332 d9a4 a234 ea47 9b31
00000030: ccb5 eb34 14d6 a134 1e19 0034 d9a1 3a36
00000040: 9c6d 2333 2cd3 a034 f84b f433 2a5f 3936
00000050: f23a 2333 f1c5 9f34 e129 e133 e5d0 3736
00000060: d74d 2333 d535 8235 b0a6 2d35 9cab 6b34
00000070: fa25 be36 c004 a833 7f29 2e35 af7a 6034
00000080: 009f bc36 c2d0 a733 6a6c 2f35 0e9b 5034
00000090: 7bd4 ba36 43e0 a733 f5f8 f835 432a f335
000000a0: a985 3335 c3a6 8837 d90f 7134 b198 f235
000000b0: 1cd8 2935 d981 8737 9bc7 7034 3461 f235
000000c0: 89c7 1a35 dd28 8637 dee1 7034 1042 c936
000000d0: f722 6734 d8ff b833 43bd 0436 588b e832
000000e0: 8fd9 6534 bc25 b133 94dd 0336 d444 e832
000000f0: 7d82 6434 e136 a433 97c8 0236 b260 e832
00000100: ab8c 4035 fa2b 2d35 fa0f 8834 4b5e c636
00000110: 71a9 ad33 5d2d 2c35 44d4 8134 5816 c536
00000120: c473 ad33 e133 2b35 7097 6f34 2b79 c336
00000130: d287 ad33 4c2b 0936 f527 0633 a348 4932
00000140: c4e2 9534 3867 8331 3835 0633 a349 4232
00000150: 100a 9534 af3e 8331 ee75 0633 9f74 3732
00000160: da01 9434 b748 8331 76e2 c333 35b2 5d34
00000170: 78c0 0733 8456 0a36 34e0 f232 ac7f 5534
00000180: f0d9 ab32 7246 0536 8480 f232 d0ba 5234
00000190: 9602 8332 32bd fe35 ad59 f232 f3c7 4e36
000001a0: 4392 5234 56b8 a533 dae9 f035 a425 d232
000001b0: 276c 5134 39db 9e33 0f9f ef35 47e4 d132
000001c0: 0b4e 5034 42ef 9333 77ee ed35 49fd d132
000001d0: 5b47 1d35 9bdc de36 0488 2436 a00f 7b38
000001e0: 76a1 5d35 9656 de36 b4ef 1b36 99ec 7838
000001f0: 545f 5d35 ac2a de36 b6b9 0e36 2568 7638
00000200: 5977 5d35 d4a8 b237 51b0 1e34 589a 7533
00000210: 329f b235 cf82 9c32 db97 1e34 4a5b 6f33
00000220: 02cd b135 ba4f 9c32 cfb3 1e34 8aeb 6433
00000230: 1ac6 b035 e25e 9c32 6c55 c734 a2e5 5c34
00000240: 64bc 9c33 e9b0 f135 df2b d632 1b63 5d34
00000250: e834 9533 c9a5 ef35 eaea d532 357b 5e34
00000260: 8186 8933 5b51 ed35 a8fe d532 37b3 3b35
00000270: a06c 3e36 e003 8b35 5def d537 fafe bc34
00000280: fe13 3e36 7d7c 8335 4514 d437 e8c6 bc34
00000290: b91f 3e36 550d 7035 f4e5 d137 adda bc34
000002a0: b665 1637 5264 d835 16c6 2035 37cf 7137
000002b0: b6fe 5334 eebf d735 6bdc 1835 913a 7037
000002c0: b9bc 5334 1255 d735 0843 0c35 cf44 6e37
000002d0: 5ed5 5334 d88a a136 83a7 ce36 2045 1836
000002e0: 0208 6838 09e6 4c35 554c ce36 0f5e 1036
000002f0: fb12 6638 f5a9 4c35 f350 ce36 1c2e 0436
00000300: a8c4 6338 9cbf 4c35 afa3 a337 b3e6 1737
00000310: 05dd 5d36 50fc ab38 ed09 9835 426c 1737
00000320: f99b 5136 ff79 aa38 b5dd 9735 d80b 1737
00000330: 833e 3f36 97b4 a838 0fed 9735 2fa0 f437
00000340: d9c7 8236 65ad bf35 eb82 1438 5a5e 0335
00000350: ad4a 8236 7e0b b435 ae2c 1338 9136 0335
00000360: 2ee7 8136 4579 a235 4399 1138 9743 0335
00000370: 3e38 5637 cc0b 5a35 3c29 9934 b099 f236
00000380: c752 d633 d3be 5935 3658 9034 a177 f036
00000390: 5e11 d633 9ff6 5935 095f 8334 5bf1 ed36
000003a0: 9f24 d633 2184 2b36 cb71 062d b1b8 592d
000003b0: 95a9 8b2d d73a bf2b 03d8 142d 055f 802d
000003c0: ce16 742d 07fb bf2b ea31 2c2d eed4 962d
000003d0: c7a7 552d fc21 bf2b 9bed 662f cf4c 1534
000003e0: 0716 4133 66aa a535 68e1 9232 b119 1534
000003f0: ab5b 3533 9382 a435 0fb8 9232 8cfe 1434
3.6499177e-08 1.0916778e-08 3.1639598e-07 4.525395e-09 3.6422072e-08 1.0220546e-08 3.0984015e-07 4.5182125e-09
3.6540744e-08 9.4999795e-09 3.0294794e-07 4.5192694e-09 4.3904436e-07 3.014435e-07 1.1930067e-07 2.7810368e-06
3.8051084e-08 2.995597e-07 1.1375954e-07 2.762254e-06 3.8005005e-08 2.976008e-07 1.0484997e-07 2.7390718e-06
3.802219e-08 9.701422e-07 6.4690084e-07 2.1948512e-07 5.6668623e-06 7.823974e-08 6.4880436e-07 2.0906258e-07
5.6213466e-06 7.814516e-08 6.5350343e-07 1.9427918e-07 5.567968e-06 7.8173365e-08 1.8549896e-06 1.8117211e-06
6.68772e-07 1.6290118e-05 2.245064e-07 1.8074844e-06 6.3271887e-07 1.615372e-05 2.2424358e-07 1.8058695e-06
5.765983e-07 1.5993073e-05 2.2433912e-07 5.9979575e-06 2.1526272e-07 8.6147054e-08 1.9779698e-06 2.707172e-08
2.1406434e-07 8.2490686e-08 1.9649497e-06 2.7039654e-08 2.1281626e-07 7.6468275e-08 1.9488268e-06 2.7052327e-08
7.173027e-07 6.4511516e-07 2.5343599e-07 5.911837e-06 8.0867615e-08 6.4141005e-07 2.4182566e-07 5.8736587e-06
8.076998e-08 6.377796e-07 2.2313702e-07 5.8255587e-06 8.080646e-08 2.0439793e-06 3.1235647e-08 1.17162555e-08
2.7918406e-07 3.8243364e-09 3.124771e-08 1.1309029e-08 2.7760734e-07 3.819728e-09 3.1306563e-08 1.06785185e-08
2.7568495e-07 3.8208685e-09 9.121588e-08 2.064706e-07 3.1607186e-08 2.0613961e-06 2.8274464e-08 1.9883618e-07
2.0006127e-08 1.985955e-06 2.823095e-08 1.9625736e-07 1.5251583e-08 1.8979538e-06 2.8213288e-08 3.0812778e-06
1.9610984e-07 7.716942e-08 1.7949453e-06 2.4464335e-08 1.9503987e-07 7.397325e-08 1.785318e-06 2.443461e-08
1.9399901e-07 6.888742e-08 1.7727278e-06 2.4445983e-08 5.8590894e-07 6.6417974e-06 2.4517076e-06 5.9857615e-05
8.256387e-07 6.6261955e-06 2.3236325e-06 5.9348156e-05 8.2467636e-07 6.6210832e-06 2.1267747e-06 5.8747963e-05
8.250259e-07 2.129787e-05 1.477904e-07 5.7183883e-08 1.3308365e-06 1.8220275e-08 1.4770141e-07 5.572955e-08
1.3247193e-06 1.8197046e-08 1.478031e-07 5.329961e-08 1.3170677e-06 1.8203938e-08 3.712879e-07 2.0572637e-07
7.298584e-08 1.8007387e-06 2.493283e-08 2.0618283e-07 6.947977e-08 1.7855137e-06 2.490329e-08 2.0720184e-07
6.404026e-08 1.7681554e-06 2.4912268e-08 6.992372e-07 2.8375434e-06 1.0357435e-06 2.550304e-05 3.520325e-07
2.8323843e-06 9.796491e-07 2.5281808e-05 3.5162452e-07 2.8330671e-06 8.942637e-07 2.5021822e-05 3.5176836e-07
8.964378e-06 1.6122451e-06 5.98929e-07 1.4412965e-05 1.974357e-07 1.6074607e-06 5.6945163e-07 1.4318751e-05
1.9719563e-07 1.6043507e-06 5.225161e-07 1.4201926e-05 1.9728529e-07 4.8143374e-06 6.1587793e-06 2.269e-06
5.532057e-05 7.633067e-07 6.1481646e-06 2.1512421e-06 5.485395e-05 7.624324e-07 6.148702e-06 1.9696372e-06
5.4304168e-05 7.627475e-07 1.9507335e-05 9.054015e-06 3.3060217e-06 8.200912e-05 1.1327771e-06 9.025507e-06
3.1234215e-06 8.128955e-05 1.1314902e-06 9.003059e-06 2.8497604e-06 8.044502e-05 1.131937e-06 2.9161658e-05
3.8975672e-06 1.4281073e-06 3.5407877e-05 4.89386e-07 3.8829953e-06 1.341439e-06 3.5089142e-05 4.888071e-07
3.8714124e-06 1.2105235e-06 3.471343e-05 4.889966e-07 1.2768489e-05 8.1228495e-07 2.8528473e-07 7.2300536e-06
9.980209e-08 8.1116485e-07 2.6886272e-07 7.166484e-06 9.9683106e-08 8.119768e-07 2.44698e-07 7.091248e-06
9.971813e-08 2.5557895e-06 7.642285e-12 1.2376032e-11 1.587778e-11 1.3587698e-12 8.46079e-12 1.4594112e-11
1.3874858e-11 1.364104e-12 9.788151e-12 1.7147585e-11 1.2144902e-11 1.3580799e-12 2.1002793e-10 1.3904649e-07
4.4956348e-08 1.234305e-06 1.709914e-08 1.3886053e-07 4.2225718e-08 1.2256954e-06 1.7080337e-08 1.3876178e-07

exp_avg f4 [64]
00000000: 41b4 87b5 d2b9 6138 9909 7ab9 6a05 8a39
00000010: 53e5 0b38 0d8f 4a38 e405 efb7 c0ca 0e3a
00000020: 228f 84b6 f431 f4b9 c2d8 7238 f8f7 f238
00000030: 0c1d b4b9 e059 3339 4559 d839 3711 ed39
00000040: 02cc e838 92be 3db9 ecb9 a832 edc3 27b9
00000050: e28f dab7 6a61 a436 dcdb 2b39 9eb5 9a2d
00000060: e151 0837 fd34 8539 87b2 1539 8b36 1439
00000070: 370a 39b9 13ca 063a 50c3 deb7 0460 8c38
00000080: f51b 0fb9 28d8 b538 99bf 3138 05a9 2db9
00000090: b7e3 2ab9 9e2e e538 3e40 db33 99cb c036
000000a0: 8f1a 1834 5be4 81b9 5708 6839 c910 3ab7
000000b0: 84b9 cb38 ce14 9ab9 0400 0000 1cd4 5f37
000000c0: c72e abb8 fe12 8339 3212 9238 d21c e938
000000d0: afc5 eab8 b6aa 0fb9 4ac3 2739 239a ee38
000000e0: 6602 c1b8 f290 87b8 102f 9bb7 e388 5039
000000f0: 66b6 9f37 a59e 1936 ac3c 7238 f800 7bb9
-1.0110745e-06 5.381724e-05 -0.00023845433 0.00026325445 3.3353757e-05 4.829378e-05 -2.8493763e-05 0.0005447082
-3.9505694e-06 -0.00046576525 5.7899168e-05 0.00011585647 -0.00034353917 0.00017104251 0.0004126524 0.0004521699
0.000111006215 -0.00018095438 1.9642322e-08 -0.00015999349 -2.6054626e-05 4.8989214e-06 0.00016389735 1.7588427e-11
8.125296e-06 0.00025407216 0.00014276254 0.00014134699 -0.0001764678 0.0005141806 -2.6555412e-05 6.6936045e-05
-0.00013647958 8.671015e-05 4.2378528e-05 -0.0001656153 -0.00016297294 0.00010928254 1.0209668e-07 5.745748e-06
1.4165765e-07 -0.00024774935 0.00022128351 -1.1090372e-05 9.714349e-05 -0.0002938867 6e-45 1.3341221e-05
-8.1626284e-05 0.00025000417 6.965212e-05 0.00011115674 -0.00011194811 -0.00013701138 0.00015999112 0.000113774346
-9.203404e-05 -6.4643e-05 -1.8499355e-05 0.0001988742 1.9039213e-05 2.289112e-06 5.77538e-05 -0.00023937586

exp_avg_sq f4 [64]
00000000: 6e70 1d34 3572 a535 300d 2a36 b707 f436
00000010: 5b6b 6b35 18ce 2f36 dbfc 0434 bc5f 7635
00000020: 86bb 5435 b65b e037 8964 1e35 44c7 5835
00000030: c251 3f37 679c d636 076c cf37 17e9 1938
00000040: 5ffc 8437 3df4 5836 b525 432e dc9a 1435
00000050: 4015 1335 71bd e12f 197e 4936 b27c 872b
00000060: e40b 4e34 cc39 0937 86e9 8536 63ef 4634
00000070: a0c9 3336 c64c 1e38 1a40 2a34 5d80 5b35
00000080: 45ac 2736 7999 1936 c6aa 8535 b1e9 3736
00000090: 14e8 2436 24ef a836 8f9e 0b2c e54a e535
000000a0: 0f78 c92c a2ec b836 495c bf36 1dd4 2132
000000b0: c8ab 7c36 1251 6637 42a8 311e 35a2 b134
000000c0: 203a d634 72ac 1737 c158 9f35 56e3 1036
000000d0: 0ec4 c135 7faf 0336 72bc b636 373e 1c37
000000e0: b59c 2634 4752 db34 388c 0634 54eb 8336
000000f0: fd7f 6431 6dbb 732e b275 b734 a08b f536
1.4662666e-07 1.2326697e-06 2.533965e-06 7.272665e-06 8.7700545e-07 2.6196994e-06 1.2385446e-07 9.1781453e-07
7.9249037e-07 2.6745587e-05 5.9005885e-07 8.075624e-07 1.1403523e-05 6.3959046e-06 2.4726627e-05 3.6695124e-05
1.5853146e-05 3.2328674e-06 4.4371357e-11 5.5359646e-07 5.479269e-07 4.1061868e-10 3.0024732e-06 9.626937e-13
1.9189571e-07 8.179293e-06 3.9908946e-06 1.8527275e-07 2.679044e-06 3.7741636e-05 1.5855804e-07 8.177065e-07
2.4985213e-06 2.288811e-06 9.958974e-07 2.7405151e-06 2.4572992e-06 5.03463e-06 1.9841106e-12 1.7083627e-06
5.7260928e-12 5.511175e-06 5.702987e-06 9.419662e-09 3.7650916e-06 1.3727944e-05 9.405097e-21 3.308684e-07
3.9902898e-07 9.040452e-06 1.1872254e-06 2.159e-06 1.443668e-06 1.9622673e-06 5.4459606e-06 9.31281e-06
1.5516964e-07 4.0851793e-07 1.2530734e-07 3.9315e-06 3.325112e-09 5.541827e-11 3.417204e-07 7.3178235e-06

exp_avg f4 [64, 64]
00000000: 9044 5437 2b61 cbb7 42c8 8c37 a5f9 b6b7
00000010: abe6 f6b7 26d4 a1b7 c313 2cb7 0aa4 9237
00000020: 81d1 22b7 74dd 3837 74c8 82b5 39af 41b8
00000030: 76a6 6d37 0337 2eb7 5ebd 2eb8 40ba 07b8
00000040: b1b3 74b7 0cf3 f537 064c c2ad de36 1238
00000050: 2f48 41b7 5914 58af ce9f 0ab7 cc9c 0429
00000060: 7bde 0bb7 080c 97b7 0c62 dbb6 3ccc 4237
00000070: 26dd 94b7 bc98 ecb7 4643 6137 3b20 ffb7
00000080: 7295 00b6 d2bc 41b8 8a8b eab7 4023 dc35
00000090: 031c 2f36 9299 26b8 effc a52e 5522 c3b6
000000a0: 4d41 882f 833b a2b6 76e1 edb6 081f 8636
000000b0: 445e 30b8 c47e 5036 0400 0000 cbb6 a8b7
000000c0: 6fdf bdb6 1785 73b8 3597 17b8 7024 d3b7
000000d0: b834 75b7 b8e7 1fb7 747b fcb7 c49e 57b7
000000e0: d648 3038 639c 0ab7 e064 d7b7 cfa0 f4b7
000000f0: 52c7 d234 91b0 ab31 8675 d5b7 5859 1d37
00000100: f06b 49b7 0f87 68b8 47d1 0db8 30df bcb7
00000110: c7ab fcb7 7ce3 08b8 a938 12b8 2394 9cb7
00000120: daad 2fb8 d95b 58b7 a396 8ab7 5629 46b8
00000130: 1966 3eb8 a95c 97b7 2d5c fbb7 8bfc c8b6
00000140: 2bf2 c1b7 1e3a 8cb7 1951 e9ae 58bd 1fb7
00000150: dc2c d5b7 e5a2 abb3 2482 fcb6 81af 802a
00000160: 2955 c9b7 0a82 57b7 1e00 7fb7 9884 41b7
00000170: 4b9c 1eb8 e474 93b7 0fe7 4db7 c1f7 97b7
00000180: 5337 40b8 16d9 43b8 84ed 39b8 61a7 cbb7
00000190: 2dea dcb7 22bd 08b8 89d4 5eb0 1325 43b7
000001a0: 766f 14b1 831b 81b8 c887 04b7 63c4 c6b6
000001b0: 58c7 dab7 605d 62b7 0400 0000 5a04 a1b6
000001c0: 8e12 0cb8 4997 5fb7 da26 72b8 07c0 aab7
000001d0: 9ad4 f4b7 0f48 6db8 6b29 d5b7 9255 00b7
000001e0: b7ba a5b7 c6c8 69b8 f442 8ab8 7da1 9cb7
000001f0: 49e7 cfb4 6d8c 4eb3 f333 bfb7 9398 f3b7
00000200: 5962 d737 1c2f 1738 c196 3d38 86d7 9537
00000210: 661f 66b4 1008 8337 826a 1637 483f 1838
00000220: 4bb2 1e38 6f3e 2937 1682 2d38 0861 af37
00000230: 56ca 4038 cea4 a137 f395 8335 24e7 04b7
00000240: bba7 2538 2ff7 4838 d9f4 ec2f cf16 5e38
00000250: 4ba8 e537 20e9 2c34 8134 af37 50e4 c52b
00000260: 53a9 0038 2da2 6237 6d11 c237 aae8 b937
00000270: 1fdc 1936 d4e3 8137 c32f 2e38 7b28 35b4
00000280: d759 2538 691a 4d36 3029 9a37 cf52 8a37
00000290: 4fff 9537 fa8e 1db6 c092 4231 bf03 a337
000002a0: 3628 1c32 17a6 2638 9493 b737 7761 9337
000002b0: d386 5eb7 b9fa c236 0400 0080 1832 83b7
000002c0: 7dd1 da37 9520 10b8 26ab c837 c6e1 33b7
000002d0: 1624 a536 af2b 3538 77e5 5d36 b1d9 8a36
000002e0: adb0 bc38 8c3a 4238 a922 6338 8cb1 6e36
000002f0: dc5c 6935 8e2c 3934 bf93 7837 fb50 1738
00000300: 17ad 40b6 5ef6 a635 af34 ef36 2961 2cb6
00000310: dcbe b1b5 edc1 5ab6 9ee9 9835 5bfa 4736
00000320: c29c a635 d6b9 0a37 b256 8836 773e 10b5
00000330: ae5e 3737 113f 40b7 b746 8db7 5f60 a2b6
00000340: 93ba 1836 1abd 0f37 01d1 feae 7ed3 5137
00000350: 6c3f ef36 a112 be32 069f 6636 b431 a9aa
00000360: bde9 6a35 103d 06b6 d719 2ab7 c766 ab34
00000370: 6886 e136 f840 87b7 c8fd a236 e41e 1eb6
00000380: da22 1f37 c28c 85b6 3ef3 f5b5 c2c4 b536
00000390: 4191 9b36 b88e 53b7 71f6 25b0 6fd5 e136
000003a0: 78ac 04b1 4131 3237 3f94 ca35 c527 9cb5
000003b0: ed3b 3eb7 0137 1537 0400 0000 77ac 29b5
000003c0: ae77 0936 e9d9 e2b6 b5ed bdb3 e2c0 f8b5
000003d0: 9e3e 3836 1539 0637 d591 62b7 1b14 6634
000003e0: e138 6636 ff74 0e37 8493 bd36 8c29 09b6
000003f0: 85f7 0d34 92bd 19b3 37ae be35 f25d 2137
1.2652148e-05 -2.4244733e-05 1.6782553e-05 -2.181234e-05 -2.9432898e-05 -1.9291485e-05 -1.02566e-05 1.7480943e-05
-9.704731e-06 1.1018816e-05 -9.744094e-07 -4.6177975e-05 1.4165058e-05 -1.0384017e-05 -4.1661195e-05 -3.2359967e-05
-1.4585371e-05 2.9319453e-05 -2.2089008e-11 3.486021e-05 -1.1520503e-05 -1.9652314e-10 -8.262648e-06 2.9445887e-14
-8.336846e-06 -1.8006205e-05 -6.5381228e-06 1.1610853e-05 -1.7745955e-05 -2.8204515e-05 1.3426708e-05 -3.0413377e-05
-1.9160475e-06 -4.619064e-05 -2.7959952e-05 1.6401536e-06 2.6093337e-06 -3.9720508e-05 7.548261e-11 -5.8154496e-06
2.4784655e-10 -4.8349043e-06 -7.0893975e-06 3.9971237e-06 -4.204946e-05 3.1068203e-06 6e-45 -2.011228e-05
-5.65865e-06 -5.8059664e-05 -3.6142028e-05 -2.5170128e-05 -1.46154125e-05 -9.53109e-06 -3.0098228e-05 -1.2851964e-05
4.2029504e-05 -8.261853e-06 -2.567697e-05 -2.9161949e-05 3.9260573e-07 4.9968283e-09 -2.5446305e-05 9.378731e-06
-1.2005665e-05 -5.5438893e-05 -3.3811924e-05 -2.2515276e-05 -3.0120731e-05 -3.2636788e-05 -3.486188e-05 -1.866563e-05
-4.1885163e-05 -1.2895988e-05 -1.6521028e-05 -4.7245376e-05 -4.5394616e-05 -1.8043751e-05 -2.9964454e-05 -5.9898643e-06
-2.3120161e-05 -1.6716363e-05 -1.0610019e-10 -9.521224e-06 -2.5412468e-05 -7.9924384e-08 -7.5253356e-06 2.2859148e-13
-2.4000723e-05 -1.2845276e-05 -1.5199212e-05 -1.1534568e-05 -3.7815695e-05 -1.7578197e-05 -1.227275e-05 -1.8115972e-05
-4.5827892e-05 -4.66938e-05 -4.432864e-05 -2.4277428e-05 -2.633509e-05 -3.260107e-05 -8.106516e-10 -1.1631538e-05
-2.1600193e-09 -6.156324e-05 -7.899427e-06 -5.9237223e-06 -2.6080452e-05 -1.349239e-05 6e-45 -4.7986805e-06
-3.339588e-05 -1.332706e-05 -5.773348e-05 -2.0354999e-05 -2.9186067e-05 -5.6572313e-05 -2.5410865e-05 -7.649318e-06
-1.9756479e-05 -5.5738514e-05 -6.592824e-05 -1.8671848e-05 -3.8725037e-07 -4.809083e-08 -2.2793165e-05 -2.9038905e-05
2.5675794e-05 3.604508e-05 4.5201512e-05 1.7862545e-05 -2.1431842e-07 1.5620171e-05 8.965495e-06 3.629856e-05
3.7836184e-05 1.0087721e-05 4.1367566e-05 2.090681e-05 4.5964807e-05 1.9269439e-05 9.803902e-07 -7.92163e-06
3.9495277e-05 4.7913923e-05 4.3102125e-10 5.2950167e-05 2.7377295e-05 1.6103559e-07 2.0886075e-05 1.4061061e-12
3.0675274e-05 1.3508409e-05 2.3134717e-05 2.2162061e-05 2.2926904e-06 1.5484089e-05 4.1529314e-05 -1.6871665e-07
3.9422735e-05 3.0562753e-06 1.837741e-05 1.6489443e-05 1.7881071e-05 -2.3478046e-06 2.8314133e-09 1.9432859e-05
9.089538e-09 3.9732167e-05 2.1884021e-05 1.7569151e-05 -1.3263622e-05 5.8108385e-06 -6e-45 -1.5639744e-05
2.6085176e-05 -3.436262e-05 2.3921555e-05 -1.0721798e-05 4.921584e-06 4.3194446e-05 3.3065132e-06 4.138063e-06
8.997447e-05 4.630773e-05 5.4153297e-05 3.556811e-06 8.693439e-07 1.7245677e-07 1.4816352e-05 3.6076624e-05
-2.871098e-06 1.2439666e-06 7.1288882e-06 -2.5686552e-06 -1.3243075e-06 -3.259741e-06 1.1392874e-06 2.9799037e-06
1.2413586e-06 8.268709e-06 4.0632085e-06 -5.373508e-07 1.0929694e-05 -1.1458776e-05 -1.6841439e-05 -4.8391953e-06
2.2758366e-06 8.567493e-06 -1.1587709e-10 1.2506613e-05 7.1301383e-06 2.2127383e-08 3.4365235e-06 -3.005492e-13
8.7511927e-07 -2.00031e-06 -1.0138806e-05 3.1926012e-07 6.7211695e-06 -1.6123508e-05 4.8575203e-06 -2.3561815e-06
9.485253e-06 -3.9800952e-06 -1.8324715e-06 5.417126e-06 4.6362698e-06 -1.2609809e-05 -6.0376865e-10 6.7303695e-06
-1.9306565e-09 1.0621095e-05 1.5093318e-06 -1.163448e-06 -1.1338835e-05 8.893899e-06 6e-45 -6.3208375e-07
2.0484254e-06 -6.760693e-06 -8.844237e-08 -1.8533576e-06 2.7454585e-06 8.000313e-06 -1.3504604e-05 2.1427734e-07
3.4305779e-06 8.4911e-06 5.649812e-06 -2.0438774e-06 1.3221695e-07 -3.57955e-08 1.4206806e-06 9.618221e-06
