src/scripts/model/actor.pth (torch, 68975 bytes, 18 tensors)

linear_input.weight f4 [64, 13]
00000000: bd29 04bf e145 ec3d bc9d 37bd 2529 8d3d
00000010: a10e 13bf a938 f6bd c20d 783d 7eff 193b
00000020: e374 38be 5e12 253d dfb4 e0bd 5850 b03e
00000030: 5c9d bf3e 31e4 ab3e 71ea 60bd 9176 b13d
00000040: 7b3c 643d 56ca 6f3e a300 3a3e 20a8 33be
00000050: 72d4 e8bd 9107 773e a9dc 113e 62e0 e4bd
00000060: d48a 56bc 7cb0 49be 01dd be3e 1462 60be
00000070: 0e2b 59be 482c 103e 234c a63e 06df 43be
00000080: bd22 653c d523 493c 7b4e 773e b65f 3f3d
00000090: abdb 343e bce3 3f3e b874 433e 60b7 97bd
000000a0: 2eb7 823e 1687 73be 6dc1 a93e a20b 713c
000000b0: 4f27 1e3d 5a93 353e 6c0f 433e 03cb 6f3e
000000c0: 901b 2d3e 9e84 4e3d 50a2 d33e 769a 19be
000000d0: 1299 64bc 4504 e53c 65bc 62be f9d3 12be
000000e0: 268a 73bc 3e01 c73d 7a9e 6abe 2c08 2b3e
000000f0: 7009 51bb 2893 be3e afa9 08bd 83ee 503d
00000100: d62e 91be dd98 8f3e 8f8e 073e 9c90 21bd
00000110: 75e7 e03e a462 af3e d172 11be 4755 aebd
00000120: 9e16 c73e 2851 fc3d 05e3 1a3e 96ca db3d
00000130: 141f c9bc 1420 87be 8b05 4d3e 1e23 39be
00000140: 589b 7dbd a49e a43e 33a2 d83e bc31 67be
00000150: 7ba4 2dbd 332d b93e 33c6 8f3e 9bb4 7bbe
00000160: 863f f83b 3bab 6fbd 3de1 8ebe c5d7 a4be
00000170: 6480 d63e 7692 72be d876 1c3d 423e 073e
00000180: 1089 313f 063e 9f3d 744a e83e 9d65 b2be
00000190: ec0d 2d3f 1914 a93e 4d0b ea3d b2ac 9c3e
000001a0: 739c bf3e 5955 843d a65a 213b 5c97 e03e
000001b0: 2f45 813e a1d3 613d bb6f 0d3e 4d61 c93d
000001c0: 22b1 643e 9503 793e d446 02be ba6a 2cbd
000001d0: f5b8 4cbe 2e44 24be 05cc b6be fa21 353e
000001e0: 6194 c1bc 3405 183d b2ab a6be a159 f3bc
000001f0: 89f8 e23d b089 6a3e bb85 c4be 5254 b33d
00000200: f1e8 36be 3220 c03e a601 0cbe 26b4 983e
00000210: 0fb4 65be 087f 48be af80 28be 1166 753e
00000220: 4c99 bf3d f69e 983e b292 32be 437d f13d
00000230: 3915 adbe 6a0c 153e 1d39 aa3e cba0 063e
00000240: aa46 463e ec2f 80be e25a 673e 0808 44be
00000250: 76c9 c53d cca9 82bc 96e6 113e fb79 03bd
00000260: 478f 9a3e 2637 a2be 6a35 e53d 812b c7bd
00000270: 4643 fd3d cd80 e8bd 3c13 2f3e 6b33 4d3e
00000280: a554 8f3e 380c 98be 5f2c 9cbc 39f9 1fbd
00000290: 9b5b c53e d57f b9be 8da3 a7bd 5c96 5f3e
000002a0: f4d6 b43e 0a1d 6d3e e81c 3b3e 3e10 d63d
000002b0: 6d9d de3e 47a8 b23e 2051 e63c 7b2f cdbd
000002c0: 9732 573e d9db 1d3d 4237 cd3b 9336 403d
000002d0: bdb0 633d 5c58 5ebe 4469 343e db48 6f3e
000002e0: b876 bf3c d6e9 9d3e b1cd d6bc fb66 b63e
000002f0: a736 1dbe 9904 bc3e c0e3 65bc ae47 013e
00000300: 19ac 82be 583a f03e 0da9 bdbe 734d 8ebe
00000310: bcb8 833e 2334 2f3d 26eb 033f 59a8 33bd
00000320: 28d5 553d 933a 0fbe 44c8 e83e 6d48 87be
00000330: 175a 513e 6f5a bebd 3cdb f93e d079 37be
00000340: 98d6 90be 88af d23e 325f 61be 9538 bf3e
00000350: c2da 7c3e cfd5 d53e 1367 78be 3f68 1c3e
00000360: f497 9bbe 6b89 ed3e 9879 cfbc 1f28 8f3d
00000370: 65f6 1bbd 1dfb 473e 133f 4abe 766e 063d
00000380: bda7 d7bd b6ef 313e c319 af3d c5fa 873e
00000390: d3ff e13d 6f2d a63d b230 c6bd 5c2b 013e
000003a0: 7023 a1bd e04d ca3e c597 32be f242 abbd
000003b0: bf80 093d 59a9 333d 9d45 463e abed 803e
000003c0: 324c 7d3e de1c b23e 58ce 66be a017 ed3e
000003d0: 1d90 163e 6eac c13e fdb9 a23e 0e3c 95bc
000003e0: 6d9c 383e 5a1c febb a765 f73c 0b47 2cbe
000003f0: aae1 513e 5aca 85bd 8dc0 dc3d e821 283d
-0.5162619 0.11536766 -0.04482816 0.06892613 -0.57444197 -0.12022526 0.060559995 0.0023498232
-0.18013339 0.04030072 -0.109719984 0.34436297 0.37424743 0.33572534 -0.05491108 0.08665193
0.05572174 0.23417029 0.18164305 -0.17544603 -0.11368646 0.2412398 0.14244331 -0.1117561
-0.013094623 -0.1969623 0.37277988 -0.21912414 -0.2120783 0.14079392 0.32479963 -0.19128045
0.013985333 0.012276609 0.24151032 0.046722136 0.17661922 0.18739218 0.19087493 -0.07408023
0.2553038 -0.23782 0.33155385 0.014712246 0.038611706 0.17731991 0.19048852 0.23417287
0.16905046 0.050419442 0.41334772 -0.15000328 -0.01395251 0.027956137 -0.2214218 -0.14338674
-0.01486448 0.09717034 -0.22912017 0.16702336 -0.0031896494 0.37221646 -0.033364948 0.051008713
-0.28356045 0.28046313 0.13237976 -0.03944455 0.43926588 0.34254944 -0.14203955 -0.08512359
0.38884443 0.12320167 0.15125664 0.107319996 -0.024550952 -0.2639166 0.20021646 -0.18079802
-0.061915725 0.32152283 0.42311248 -0.22577566 -0.04239319 0.36167297 0.28080902 -0.24580614
0.007575932 -0.058512907 -0.27906218 -0.3219587 0.4189483 -0.23688683 0.038199276 0.13207343
0.69349766 0.07775502 0.45369303 -0.3484315 0.6759937 0.33023146 0.11427937 0.30600506
0.3742405 0.06461591 0.002462068 0.43865478 0.25248095 0.055133466 0.13812153 0.09833012
0.22333196 0.24317773 -0.12722331 -0.04209397 -0.1999243 -0.16041633 -0.3570253 0.17688742
-0.023630323 0.037114337 -0.32552868 -0.029705824 0.110825606 0.22904086 -0.38383278 0.08756317
-0.17862298 0.37524563 -0.13672504 0.29824942 -0.22431968 -0.19579709 -0.16455339 0.23964716
0.09355411 0.29808778 -0.17438772 0.1179147 -0.33805254 0.14555517 0.332467 0.13147275
0.19362894 -0.2503656 0.22593263 -0.19143689 0.09657566 -0.015950106 0.14248118 -0.03209875
0.30187437 -0.316827 0.111918285 -0.097250946 0.12366347 -0.11352692 0.17097181 0.20039146
0.27994266 -0.29696822 -0.019064127 -0.039056037 0.38546452 -0.3623034 -0.08185492 0.21834701
0.35320246 0.23155609 0.18272746 0.10452317 0.4347948 0.3489401 0.028114855 -0.10018822
0.21015392 0.03853974 0.0062626908 0.046927046 0.055588473 -0.21713394 0.1761828 0.23367636
0.02337204 0.30842465 -0.026221128 0.35625443 -0.1535288 0.36722258 -0.014031351 0.12625
-0.25521925 0.46919513 -0.37043038 -0.27793464 0.2572688 0.04277433 0.51530683 -0.04386172
0.052205235 -0.13987188 0.4546529 -0.26422444 0.20444523 -0.092945926 0.48800075 -0.17917562
-0.28288722 0.41149545 -0.2200897 0.37347856 0.24692824 0.41764686 -0.2425807 0.15274142
-0.3038937 0.46393904 -0.025326535 0.06990074 -0.038076777 0.19529386 -0.19750623 0.032820188
-0.105300404 0.17376599 0.085498355 0.2655851 0.11035123 0.081141345 -0.09677257 0.12614197
-0.07868087 0.3951254 -0.17440708 -0.08362378 0.033570047 0.043862674 0.19362493 0.25181326
0.24736097 0.3478765 -0.22539651 0.46307087 0.14703412 0.37826866 0.31782523 -0.018217113
0.18028422 -0.0077548446 0.030199839 -0.16823976 0.2049624 -0.06532736 0.10778914 0.04104796

linear_input.bias f4 [64]
00000000: ab74 a03c 208c b03e f62d 25be d387 cc3e
00000010: 01e6 05be 8b9d 953e 37bf 07be 03ac 8cbc
00000020: e0cb 863e a140 81bd 5e63 15be 4483 8d3e
00000030: c4c4 61be 472a ac3e 8901 413e 15e4 9b3e
00000040: 5431 2d3d 39ee 2f3a c854 193e 028e 71bd
00000050: f494 603e 6eee 803e c51e b7bd 6bcb f6bc
00000060: 6185 e8bd e518 eb3d 3428 b83e b3ba 8c3c
00000070: 3d14 cc3d 2941 ce3e 00b7 3abc 28b3 163e
00000080: 62a1 00be 990a b73e 236c 99bd 8339 613e
00000090: e4b1 f5bd cbee 4f3e 46ce 4fbe 0976 dd3d
000000a0: dae8 b4bd 96cb e9bd 4acd a53d 5b64 99bc
000000b0: d325 823e 56b8 75bd d442 85be 6d66 d73e
000000c0: b607 d03e 5d70 9e3e 2f63 91bd 4ef7 e3bd
000000d0: 771a 9dbe f8f3 34be a59e 883e e75d 72bd
000000e0: 4092 193e da08 473e e289 7b3e db23 af3e
000000f0: 6d26 763e 772c c13d 691b 583e 652e 92be
0.019586882 0.34481907 -0.16130814 0.39947376 -0.13076021 0.29221758 -0.13256536 -0.017171865
0.2632742 -0.06311155 -0.14588687 0.2763921 -0.22047716 0.33626005 0.18848242 0.3044745
0.04228337 0.0006711218 0.14973748 -0.05897332 0.21931821 0.25181907 -0.08941416 -0.030126294
-0.11353565 0.11479358 0.35968173 0.017178869 0.09964798 0.40284088 -0.01139617 0.1471678
-0.12561563 0.35750273 -0.074913286 0.21994595 -0.119968206 0.20305936 -0.20293531 0.10813529
-0.088334754 -0.11415784 0.080957964 -0.018724611 0.25419483 -0.05999025 -0.26027548 0.42070332
0.40630883 0.309451 -0.07098996 -0.11131154 -0.30684254 -0.17671192 0.26683536 -0.059171584
0.14997196 0.1943697 0.24564317 0.34207043 0.24038096 0.09432309 0.21104206 -0.2855102

linear_hidden.0.weight f4 [64, 64]
00000000: e340 3abe 58bc c83c 4a1e a8bd d44b 9b3e
00000010: 3214 2a3e dae8 473e c889 9cbb 9eff 4fbd
00000020: ced4 603e aa06 a4be 4ab3 04be e15b 043e
00000030: 6ee7 cbbd 9c5d a43e 8c22 eb3e 3642 fb3e
00000040: cb1e 973e b327 24be 2eb5 a83b bcf7 0ebe
00000050: 3dd4 13be 158b 073e 9952 01bc 2ea0 033e
00000060: e63f 393e 647f 4e3e 24e5 aa3e e2e4 09be
00000070: 4976 a9bd 219f c03e 4430 ecbd 8dbb 473e
00000080: 9ad6 9bbc e01b db3d 86df 023e 71c3 95bd
00000090: a072 9ebd 0095 c63e f37e 433e 3353 abbd
000000a0: dc7a b33d e6ff 0bbd 3685 5c3d 7fa3 06be
000000b0: ef5e d33e 2c10 16be 29ab 51bd 3f2d 8b3e
000000c0: 1f52 ae3d 28ba 963e aab9 483e c9a8 273e
000000d0: a3ec 023e fcbd d4bd d1bb 5a3e d855 953e
000000e0: 9cab 87be 14bd 39bd 9de7 6c3b 4c62 463e
000000f0: 787a 313d 24d0 afbe 9517 cc3c c3cf 6bbc
00000100: effa ef3e e615 4bbe c8c5 983d 5e5c d8bd
00000110: 2468 3cbe 2d36 22be 77eb 76be 2025 ecbd
00000120: 926e d2bd f74e 9dbb eb79 30bc 2c47 08be
00000130: dd18 143e 38cf c9be 7d94 25bd 9be2 7ebe
00000140: 3fc2 5abe ee64 cf3d 58fb 803d 4a27 a23e
00000150: ad2c 823d 7e9b 8c3e 3002 9a3d 67a3 463d
00000160: 6617 adbd 09c7 763c b303 8fbe b143 5d3e
00000170: b074 82bd 04ab 04be 9895 d8b8 c639 18bd
00000180: c003 f3bb 6849 35be 7926 babd 794a 0f3d
00000190: 365c 83bd 9587 5cbe 8e5f 673e dd3e b6bc
000001a0: 869d fb3c a391 93bb 9e0e 653c b22d b13e
000001b0: 5dd7 fdbd 33e1 7c3d df65 98bd 0089 86bd
000001c0: 636b 9abd e439 afbd aac4 7ebd 2ed4 3abe
000001d0: f084 043d eee8 d43c cf0e 92be 0318 acbc
000001e0: 79a5 903e 6e9a 323d dc7b 4dbd e002 18be
000001f0: fd84 f33d 248e 6a3e 8dab a43d 9ff9 e83d
00000200: 5059 e7bd cebb 843d 3423 ef3d c7fb 723e
00000210: dc7b 3a3d d135 473e 07d4 ee3d 9461 a83e
00000220: 2136 6d3d f7b6 adbd a367 5d3d 1444 af3c
00000230: a204 48be 3959 303e 4a2a ab3e 4a71 7d3e
00000240: 68da b23d 2c75 0bbe 6411 b03e 6b8c efbd
00000250: d1f7 44bd 2ffc bf3e c20c 173e e1cc 2ebd
00000260: 7b71 e13c f716 bb3d d2fd a03e 5097 27be
00000270: 116c f33d 88f8 f73e 02ff 15be 79f6 3e3c
00000280: 88b0 4abe 4b4d 003e 414e 64bc aba8 d7bd
00000290: eb69 afbc dfd7 543e 5833 b83d 8989 51bd
000002a0: 0a3e b73d 8fb1 353c 03a5 7a3d 7841 2c3d
000002b0: ab3e 423e 9791 99bb db21 f93c fe68 513e
000002c0: cc75 863e 781c 833e 287f 17bd 38ee 6f3d
000002d0: 860b 1dbe db48 e3bc 1339 163e 7f2a ad3d
000002e0: 8c15 84bd 4edb 7ebd 044d 2c3e 89e1 613e
000002f0: e6aa 903e 7baf 653e 1c16 94bd 2cc6 debd
00000300: 6475 cc3d 2650 1dbd 3403 a63e 32a5 8e3e
00000310: e604 b13d 688a 0b3e 0a15 963e b688 1f3e
00000320: 0912 b23d f6a6 033e d858 bfbd 39c1 063e
00000330: d848 223e c5a2 9c3e 5f9a 043e 87af f1bc
00000340: 056f b6bd e915 633e 58ed 513e 8699 903c
00000350: c08c 793d 9070 cf3e 8cc1 7dbd 2435 b93d
00000360: 69b5 4a3d e7fb 103e bd95 ad3e 8ac7 f53c
00000370: 1b42 493e 4e1b 643e f89f 863c 0e1a 14be
00000380: 8523 893d 05f3 d8bc 4976 c2bd 0808 9b3d
00000390: e7ec 8a3d b93a 413e 3eb1 0b3e b65d 69bd
000003a0: fc2b 1bbd 1990 263e dd81 57be cfe6 c43e
000003b0: 1595 bb3d 984a 993e aac7 de3d fb75 963e
000003c0: 05a1 5d3e 1554 38ba ca72 b73d 305f 87be
000003d0: 2a3a 1c3e 859f 1c3e 41bd 833e 2d5c 573d
000003e0: a04c c6bd e437 3d3e 05d1 99bc ae7a ed3d
000003f0: 6de2 9c3e 0781 893e d9d0 143d 1433 493e
-0.18188815 0.024503872 -0.08208902 0.3033129 0.16609266 0.1952242 -0.004777167 -0.050780885
0.21956179 -0.32036334 -0.12959018 0.12925674 -0.09956251 0.32102668 0.45924795 0.49073952
0.2951568 -0.16030769 0.0051485514 -0.1396169 -0.14436431 0.1323665 -0.007893228 0.12854072
0.18090782 0.20165783 0.33377945 -0.13466218 -0.08274514 0.37621406 -0.115326434 0.19505139
-0.019023228 0.10698676 0.1278058 -0.07312668 -0.07736707 0.38785553 0.19091396 -0.08365478
0.08763668 -0.03417959 0.053837977 -0.13148306 0.41283366 -0.14654607 -0.05118862 0.27182958
0.08511757 0.294389 0.19602075 0.1637298 0.12785582 -0.10387799 0.21360709 0.29167056
-0.26498115 -0.045346335 0.0036148794 0.19373435 0.043329686 -0.34338486 0.024913589 -0.014392796
0.46871135 -0.19832572 0.07459599 -0.10564493 -0.18399101 -0.15840979 -0.2411326 -0.115305185
-0.10274996 -0.004800673 -0.010771255 -0.133084 0.1446261 -0.39415908 -0.040424813 -0.2489113
-0.21363162 0.10126673 0.0629794 0.316706 0.063561775 0.2746238 0.075199485 0.048495676
-0.084517285 0.015062102 -0.2793251 0.21607853 -0.063699126 -0.12955862 -0.000103275466 -0.037164472
-0.0074162185 -0.17703784 -0.09089369 0.034983132 -0.06414072 -0.21536095 0.22595045 -0.022246772
0.030714761 -0.0045034452 0.013980536 0.34605175 -0.12394593 0.061738204 -0.07441305 -0.065690994
-0.07540014 -0.08555964 -0.062199272 -0.18245003 0.03235334 0.025989976 -0.28526923 -0.021007543
0.28251246 0.043604307 -0.05016695 -0.14844847 0.118906 0.22905785 0.08040533 0.113757364
-0.11296332 0.064811334 0.11676636 0.23728858 0.045528278 0.19454123 0.11661535 0.32886946
0.05791295 -0.084821634 0.054053914 0.021394767 -0.19533017 0.17221536 0.33430701 0.24750248
0.08733064 -0.13618916 0.34388268 -0.116967045 -0.0480879 0.37497088 0.1475096 -0.042675857
0.027519932 0.091352396 0.3144365 -0.16366315 0.118858464 0.48431802 -0.14648059 0.011655443
-0.19793904 0.12529485 -0.013934673 -0.10530218 -0.02141281 0.20785473 0.08994168 -0.051156554
0.0894738 0.011089697 0.061192524 0.042054623 0.18969218 -0.004686545 0.030411651 0.20450208
0.26261747 0.25607657 -0.0369865 0.058576792 -0.15336427 -0.027744701 0.1467021 0.08455371
-0.06449422 -0.062220864 0.16826254 0.22058691 0.28255385 0.22430222 -0.072307795 -0.10877642
0.09983328 -0.038406514 0.3242432 0.2786041 0.086435124 0.13627017 0.29312927 0.15579495
0.08694846 0.1285666 -0.093431175 0.13159646 0.158481 0.30592933 0.12949513 -0.029502643
-0.08907894 0.22176327 0.20500696 0.01765133 0.060925245 0.40515566 -0.06195216 0.09043339
0.049489412 0.14158593 0.33903304 0.030002374 0.19654123 0.22276041 0.0164337 -0.14463064
0.06696228 -0.026483068 -0.09495217 0.07569891 0.06783467 0.18870057 0.13641831 -0.056974135
-0.037883744 0.16265906 -0.21045633 0.38457343 0.091592945 0.29939723 0.10877927 0.29386887
0.21643455 -0.0007031572 0.08957441 -0.2643981 0.15256563 0.15295227 0.25730327 0.05257814
-0.09682584 0.18478352 -0.018776426 0.11595665 0.306415 0.26856253 0.036331985 0.19648391

linear_hidden.0.bias f4 [64]
00000000: f703 f43d f567 18be eb65 f23d 8f1c c13d
00000010: 3a44 473e 3194 073e 6dfd 593e 4402 133e
00000020: 8951 013e f00c 643e 1683 a2bd f4cd 963d
00000030: 9af6 c03d 0696 863b 057b 1d3e 05d1 cf3d
00000040: dd43 5cbd b1c0 c23d cd47 423d 52c6 4d3e
00000050: eb16 a73d 914c 26bd 4c46 a63d 3119 893d
00000060: 3e2a 3c3e 66e5 b73d d6e8 9abd 4604 8a3d
00000070: a54c 6f3e a9b6 1ebb b665 4e3d 4119 463e
00000080: 90e8 573d 92d6 a9bd 8b4a 5a3e 17b5 ebbd
00000090: 4985 003d c46a 14bd 1bff 703d 161c aebc
000000a0: 20e5 54be 071f 08bd 340d 2c3e e962 2d3e
000000b0: dfc1 e83d ab63 6a3c e496 c03d 2c9b cb3d
000000c0: 8a40 b43d 08d1 0c3d b858 fc3d a5a1 00be
000000d0: 3793 acbd 855f 033d 55cb 423e 8cdc 0d3e
000000e0: b7af e23d 8e0c 003e 74e9 583d ee2d 9a3d
000000f0: d915 42bd 16fe aa3d 19da 583e 3998 5fbd
0.11914819 -0.14883406 0.118358456 0.09429275 0.1945962 0.13240124 0.2128808 0.14356333
0.1262876 0.2227056 -0.07935159 0.07363501 0.094220355 0.0041072397 0.1537896 0.10147289
-0.053775657 0.09509409 0.047431756 0.20095184 0.08158668 -0.040600363 0.08118877 0.06694258
0.18375489 0.08979301 -0.07563941 0.06739096 0.23369081 -0.002421776 0.050389968 0.19345571
0.052712023 -0.08292879 0.21317498 -0.115091495 0.03137711 -0.036234632 0.058837038 -0.021253627
-0.20790529 -0.033232715 0.16801912 0.16932262 0.11365103 0.014305989 0.0940378 0.09941706
0.08801372 0.034379035 0.12321609 -0.12561662 -0.084265165 0.032073516 0.19022878 0.13853663
0.11068671 0.12504789 0.052957013 0.07528292 -0.047384117 0.08349244 0.21176948 -0.05458853

linear_output.weight f4 [4, 64]
00000000: 4fd0 9fbd 4b4c 00be 7e2c b33d 6029 283b
00000010: e67f a83c 916e c8bc 0d2b 4ebd bf38 0f3e
00000020: 117f c93c 76dd cfbb effa a23c d35c a63c
00000030: 5803 213e 2767 303b dc0c e4bc 4e54 263d
00000040: 8446 85bc c818 003d d8ed 383e ffb3 263e
00000050: 332b e03b f8e8 0cbd 4277 cebc 860a 0cbf
00000060: 8ddb 58bc 6690 0bbd 0863 6bba a8e6 e9bc
00000070: fe79 55bb a58d 9b3d a0e5 8bbd 60a0 323c
00000080: 56e7 aa3d 1283 adba 3751 153e 8d70 33bd
00000090: 0e9f 76bc a506 dbbc cace cabd 6c57 06bd
000000a0: c38d 0fbe a850 83bc f284 593c b9d6 0ebd
000000b0: 7872 83bc 3b12 c53d b760 7cbd 625d b03d
000000c0: f1d5 973d 8d3a 0bbf 3224 3ebc 9323 82bd
000000d0: 24d7 21bd 7755 50bd 2e13 8d3d f9a3 a6bc
000000e0: 0cc1 f7bc 99b1 8ebc a3f2 823b 8119 3cba
000000f0: 3a28 9ebc 97f6 c0bc 2919 edb6 4774 26be
00000100: 7dbb 0f3e c0bb 833d 180b e53e a5c3 7e3e
00000110: 9422 5d3d b83c 4d3d 14d6 ea3e c444 033e
00000120: 0a46 6c3d 5259 583d a9ef 8b3d 7dc9 bd3e
00000130: 0ff0 0d3e aaaa 52ba a5cd 843d a30f 453d
00000140: 41be a33d 3e0b 9d3e be8b 5d3e 45b1 fc3d
00000150: 11a6 573d a9f1 0c3e bd3a 213e 3ff8 8c3d
00000160: 849e 353d 740d 2d3d c14e 02ba bc03 d93d
00000170: db00 743d 5cb8 3d3d 8a30 443d 1cbd 4d3d
00000180: 3f7e f03d 4e78 f839 1ca4 413e 4906 193e
00000190: 216a 4f3e 92cc 073e 70c2 513d 2578 943d
000001a0: 1bc7 803d f570 b03d 9e35 543d 522f 313e
000001b0: 9a04 7f3d 2cb4 623e 4b47 3b3e ea04 d53d
000001c0: 8a07 8a3d 5ee4 823d 543c 873d 157a b93d
000001d0: 788b 7c3e 50a9 0e3e b392 ba3d 210d 4d3d
000001e0: b9e1 573d 2799 573d 85ff be3d c334 633d
000001f0: 60ef c73d 88c2 5a3d 2048 6b3d 1aee 323e
00000200: 87a0 1e3f ec94 20be 2b97 f73e b036 42bd
00000210: 6a52 c93e 7f12 c13e 24d6 b03b dc69 39be
00000220: c14f a63e 6175 ca3e 7237 2cbe a94e debd
00000230: 883f 2ebe a248 e339 9b4c f13e 29b3 3d3b
00000240: a9a1 16be 8e8e 17bc 725b 2abe d1df 37be
00000250: 49f9 c83e 6a25 0bbe 22d1 0abe 6d50 a13e
00000260: 3cb2 0d3f 8526 e83e 1d48 48ba 58ae 02be
00000270: 7666 b43e d3b3 5fbe 1b95 1c3f e67c a93e
00000280: d36f 28be 08ec 5aba 9654 55be 9142 04be
00000290: 867b 10be 1f29 0fbe 4ba2 223f 8e40 42be
000002a0: e45c 24be bcee 16be 50d9 ad3e 2e1d 0a3f
000002b0: a867 c03e a17d 48be 7a1d f13e 811c 33be
000002c0: a71a 12be 0a4d f53d 778d ca3e c3e0 14be
000002d0: f335 76bd 2c98 e2bd a183 3dbe 59af c93e
000002e0: 9a97 ea3e e6af db3e 8bac ca3e 518c ab3e
000002f0: 337d 13be c49d f73e b6e4 da3e 72fe 1bbe
00000300: 5790 70bc b3fb 7bbd aeb9 01be 72e1 98bd
00000310: e8d6 78bd b1f6 0fbe b7d2 35be bd95 9e3d
00000320: f3e7 27be 710e 06be 40a7 313e 104f eabd
00000330: 96f6 483d d605 0fbb dcc3 90bd 66ac cd3c
00000340: 5e3d 0a3d d2e1 03be 2ae4 423e b7f0 55bc
00000350: 2adb ddbd 1e67 373d 3dc9 083d 2dd3 513f
00000360: 6615 abbb 5f9e aa3b e8e4 15ba cc9e 4b3d
00000370: f8c4 34be 542d 713c ee12 8bbd 314e b8bd
00000380: 4cc4 c93d d493 b13a c2db 223e f8d5 7f3d
00000390: 8c69 d6bc ef02 583d 10ef 3dbd 941c b53c
000003a0: ff77 143e 1ef3 fe3c 9263 08be 0574 fc3b
000003b0: c289 2bbe 149b 4b3e 9d62 193b cf0d db3d
000003c0: 2840 eb3c 1656 283f eeff 2bbe 8a83 9d3d
000003d0: dba4 e83c 1335 383d 3e2c 063d d507 b9bd
000003e0: 275a 713d c802 2cbe fe21 6bbe 998c 09be
000003f0: d830 303d 9443 0abe e4c2 2cbe 5315 103e
-0.078034036 -0.12529103 0.087487206 0.0025659427 0.0205688 -0.024466785 -0.050334025 0.1398649
0.024596723 -0.006343539 0.019895045 0.020307934 0.15723932 0.0026916952 -0.027838163 0.040607743
-0.016268976 0.031273633 0.1805948 0.162796 0.0068410872 -0.034401864 -0.025203351 -0.5470356
-0.013235939 -0.034073256 -0.00089792954 -0.028552368 -0.0032573934 0.07595376 -0.06830907 0.010902494
0.08344905 -0.0013237915 0.14581762 -0.04380851 -0.01505257 -0.026736567 -0.09902723 -0.032798216
-0.14018922 -0.01602967 0.013276326 -0.034872744 -0.016045794 0.09622618 -0.061615672 0.08611561
0.07413853 -0.54386216 -0.011605309 -0.063544415 -0.039511815 -0.050862756 0.06888424 -0.02034186
-0.03024342 -0.01741867 0.0039962097 -0.0007175431 -0.01930629 -0.023555083 -7.0660794e-06 -0.16255294
0.14036365 0.06432295 0.44735026 0.2487932 0.053988054 0.050106734 0.45866454 0.12819201
0.057683982 0.052819557 0.06832821 0.37067786 0.13861106 -0.0008036295 0.06484536 0.048110615
0.079952724 0.3067264 0.21635339 0.12338499 0.052648608 0.13764061 0.15745063 0.06883287
0.044340625 0.042249158 -0.00049708417 0.105964154 0.05957113 0.046318397 0.047897853 0.050229177
0.117428295 0.0004739188 0.18910259 0.14943804 0.20255329 0.13261631 0.05121082 0.07249478
0.06287976 0.08615295 0.051808946 0.17303208 0.062260248 0.22139043 0.18288915 0.10401328
0.06739719 0.06391214 0.066033036 0.090564884 0.24662578 0.13931775 0.09110012 0.05006135
0.0527055 0.05263629 0.0932608 0.05547024 0.09762454 0.053408176 0.05744183 0.17473641
0.61963695 -0.15681809 0.4835752 -0.047415435 0.3932069 0.37709424 0.0053966213 -0.18106788
0.32482722 0.39542678 -0.16818026 -0.10854847 -0.17016423 0.0004335093 0.47128758 0.00289459
-0.14710106 -0.009250296 -0.16636446 -0.17956473 0.3925269 -0.13588491 -0.1355634 0.31506673
0.5535009 0.45341888 -0.000764014 -0.1276182 0.35234421 -0.21845941 0.61165017 0.33103102
-0.16448908 -0.00083512114 -0.20833048 -0.12916018 -0.1410962 -0.1398053 0.6352889 -0.18969938
-0.1605106 -0.14739507 0.3395486 0.53950775 0.37579083 -0.19579174 0.470928 -0.17491342
-0.1426798 0.11977585 0.39561054 -0.14538865 -0.060110044 -0.11064181 -0.18507244 0.39391592
0.45818788 0.42907637 0.39584765 0.3350549 -0.14403228 0.48362553 0.42752618 -0.15233782
-0.014682851 -0.061519336 -0.12668487 -0.07464875 -0.060751826 -0.14058949 -0.17756163 0.07743404
-0.16397075 -0.13091446 0.17348957 -0.11440861 0.049063288 -0.0021823547 -0.07068607 0.02510662
0.03374993 -0.12879112 0.1903235 -0.013057879 -0.10832818 0.044776075 0.03339504 0.81962854
-0.0052210568 0.0052068676 -0.00057180086 0.049711987 -0.17653263 0.01472028 -0.0679072 -0.08999289
0.09851894 0.0013548085 0.15904143 0.062459916 -0.026173376 0.052737173 -0.046370566 0.022108354
0.144989 0.031121787 -0.13319233 0.0077042603 -0.16751769 0.19883376 0.0023404725 0.10695993
0.028717116 0.65756357 -0.16796848 0.07691105 0.028398922 0.04497249 0.032757036 -0.09034697
0.058923867 -0.16797936 -0.22962186 -0.1343254 0.04301533 -0.13502342 -0.1687122 0.14070635

linear_output.bias f4 [4]
00000000: 4fb2 403d fbd1 6a3d b577 30be 007c 73bd
0.04704505 0.05732916 -0.17233165 -0.059444427

exp_avg f4 [64, 13]
00000000: 0255 153a b888 42ba 0178 8f39 2078 3a38
00000010: ab11 183a 9fed 54ba 8760 a539 2a1e 3b38
00000020: ed14 123a a65e 5dba 4612 a739 a040 3c38
00000030: 02e0 9239 a50d 33b9 3b8f 9339 87ef 99b9
00000040: 8ebd 5436 7b36 36b9 fd3e a439 633b a1b9
00000050: 9b31 5036 ed66 2ab9 2e49 af39 d2e1 a0b9
00000060: 495f 4a36 b886 4c38 c7a6 4e39 fae4 8738
00000070: e752 90ba 77d5 e238 d864 4c39 2de1 df38
00000080: 5ed5 90ba 5e9f e238 b283 5839 990b 2939
00000090: 528b 90ba e0d5 e238 c2d0 663a d16a 10ba
000000a0: 820a 393a 0551 5cb9 4cdb 56b8 279d 14ba
000000b0: f7f3 4b3a 52f2 8bb9 d3fd 56b8 63cd 0fba
000000c0: 694c 553a d909 98b9 cb48 58b8 79ee a8b9
000000d0: aa29 63b9 1df2 8a38 774b 5c3a b85b bdb8
000000e0: 74f8 5db9 2810 3938 5ffd 5d3a 9e3e bdb8
000000f0: 5d6f 5db9 c2e0 2f37 2768 603a 9da8 bdb8
00000100: 8d2a 35ba 13a0 f4b9 3bd4 313a b86e 02ba
00000110: 86d2 a9b7 4def f9b9 c5e3 423a 10a8 0dba
00000120: c643 abb7 7b5a ecb9 cea2 4d3a 47ac 0fba
00000130: 9e76 acb7 c916 04b9 a9e0 f6b9 ffbf 7a39
00000140: e63a 9a3a 5f72 18b9 ef56 feb9 d9d2 7539
00000150: 3aa8 973a 856e 18b9 599e 00ba 6288 4f39
00000160: 0b68 973a b2d4 18b9 3bfe 90ba d619 8237
00000170: dd81 9439 1275 bbba 3ed6 e738 692d 3837
00000180: 4185 b539 ef09 c2ba 7e1e e738 3daf e737
00000190: a8e9 d439 d429 c5ba e2a2 e738 c83b 373a
000001a0: 1fb5 c0b9 dd11 f139 2659 a0b8 19fe 21b8
000001b0: fdca c3b9 13e1 023a 1492 dbb8 2939 22b8
000001c0: 8a81 bbb9 84d9 073a 7bea e7b8 05db 22b8
000001d0: 9129 81b9 8fab 143a c21a 8fb9 add8 a4ba
000001e0: 7aeb 2539 5a22 1a3a f149 91b9 1469 a0ba
000001f0: 0cef 2539 2c94 1d3a 9ddb 77b9 ab2b 9eba
00000200: be2a 2639 0064 8c3a 1c80 5839 7e7f c3b9
00000210: 05d4 f639 40e6 57b7 a630 5c39 43be dab9
00000220: fdb4 ff39 3602 56b7 3779 4a39 84e5 eab9
00000230: e99e fd39 cd43 54b7 3676 06b9 c926 9fb8
00000240: 1124 1437 3427 9b39 f9eb 02b8 d87c 9fb8
00000250: f04b a335 fc9e 9a39 51ea 02b8 0dda a4b8
00000260: ae4c 36b7 0237 9a39 df0f 03b8 10c5 79b9
00000270: 842b a139 a15d 40b9 fd17 08ba 2ac2 9d38
00000280: ef72 a739 cb80 4cb9 0ad6 00ba 77c5 9d38
00000290: 4963 a939 7880 3eb9 2792 fab9 2f0f 9e38
000002a0: 2ed3 073a 42e9 10ba 9765 7f3a 2c5a a7ba
000002b0: 5318 0b38 476a 15ba fd26 8f3a 48c0 aeba
000002c0: 3f04 0a38 a739 0bba 4544 9a3a 0526 afba
000002d0: a94c 0938 737e b939 1ba5 21ba 49e2 323a
000002e0: 9d4b d338 0247 a3b8 48e5 25ba 53a6 433a
000002f0: 4b0b 6038 2a6f a3b8 e45a 22ba a268 483a
00000300: c7e1 3338 b324 a4b8 2f8d 05ba 64b4 1aba
00000310: ba77 0f3a 0c14 083a ed50 e2b8 a57c 1fba
00000320: 9e6e 1b3a 282b f739 2347 e2b8 c2a2 1eba
00000330: 875e 1b3a 3bf5 ec39 57f7 e2b8 4389 3fba
00000340: a3b7 d4b9 c5f3 7039 a25f 6a3a 6364 f9b8
00000350: e25f dab9 79e7 7139 39d6 613a 173a f9b8
00000360: 75d0 ddb9 e151 5439 5202 5c3a cdb3 f9b8
00000370: 0425 6aba fc6c 2939 5f4b 87b8 a6c7 ceb9
00000380: 358e 3e38 f36b 2c39 fa9c 7fb8 86bf ceb9
00000390: be8f 3e38 d2bf 2f39 a3dd 3db8 68ad d0b9
000003a0: 34a7 3e38 0667 bc39 6c6f 5bb8 fd73 2a3a
000003b0: 629d 0fbb d72a 2c39 cf06 e8b7 0b95 423a
000003c0: 376a 0fbb 725f 2b39 158c e237 350f 5a3a
000003d0: 5f21 0ebb 7e00 2c39 e074 b33a 1cf2 9639
000003e0: 1baa c8b9 0fdf 1739 f270 9b37 dfce 9539
000003f0: c5c7 d8b9 39ab 1b39 5af0 9c37 5756 8c39
0.0005696566 -0.00074208854 0.00027364495 4.445773e-05 0.00058009726 -0.00081225665 0.0003154317 4.4612367e-05
0.0005572576 -0.00084445847 0.00031866337 4.488288e-05 0.0002801419 -0.00017075853 0.0002814474 -0.00029360896
3.1700797e-06 -0.00017377168 0.00031327448 -0.0003075256 3.102329e-06 -0.00016250806 0.00033433124 -0.00030685827
3.015581e-06 4.8762857e-05 0.0001970782 6.479952e-05 -0.0011011035 0.00010816281 0.00019492523 0.00010675411
-0.0011049917 0.00010806204 0.00020648426 0.00016121416 -0.0011027849 0.00010816357 0.0008804911 -0.0005509081
0.0007058756 -0.00021011017 -5.1225812e-05 -0.00056691695 0.0007780189 -0.0002669269 -5.1257968e-05 -0.0005485622
0.0008136691 -0.00028999036 -5.1566207e-05 -0.00032221133 -0.00021663928 6.62545e-05 0.0008403579 -9.029306e-05
-0.00021168758 4.4122484e-05 0.0008468236 -9.023886e-05 -0.00021117688 1.0483143e-05 0.0008560442 -9.043629e-05
-0.00069109426 -0.0004665857 0.0006783639 -0.0004975605 -2.0244403e-05 -0.00047671274 0.0007434453 -0.00054037664
-2.0416348e-05 -0.0004508084 0.0007844389 -0.00054806884 -2.0559233e-05 -0.00012596989 -0.0004708816 0.00023913382
0.0011766821 -0.00014538456 -0.00048511426 0.00023443568 0.0011570521 -0.00014537021 -0.0004906408 0.00019791865
0.0011551393 -0.00014575085 -0.0011062095 1.5509238e-05 0.00028325515 -0.0014301857 0.00011054844 1.09778275e-05
0.00034622292 -0.0014803986 0.00011020618 2.7618948e-05 0.00040609878 -0.0015042373 0.00011045278 0.0006989804
-0.0003675604 0.0004598041 -7.646e-05 -3.8622038e-05 -0.00037344536 0.0004992645 -0.00010469943 -3.8677044e-05
-0.00035763934 0.00051822537 -0.00011058614 -3.8827788e-05 -0.00024635767 0.0005671316 -0.00027295022 -0.0012576781
0.00015823348 0.00058797526 -0.00027711646 -0.0012238347 0.00015824678 0.0006011154 -0.00023637568 -0.0012067457
0.00015846916 0.0010710955 0.0002064709 -0.00037288287 0.00047078743 -1.2868608e-05 0.00020998958 -0.00041721956
0.00048772237 -1.2755909e-05 0.00019309377 -0.0004480296 0.00048374318 -1.2651971e-05 -0.00012823273 -7.588935e-05
8.829885e-06 0.00029593112 -3.1214182e-05 -7.604965e-05 1.2166547e-06 0.00029491622 -3.121264e-05 -7.8607445e-05
-1.0865899e-05 0.00029414153 -3.1247615e-05 -0.00023819902 0.00030740735 -0.00018345426 -0.0005191563 7.522509e-05
0.00031938354 -0.00019502935 -0.0004914707 7.523124e-05 0.00032308165 -0.0001816767 -0.00047792608 7.536855e-05
0.00051813095 -0.0005527922 0.0009742616 -0.0012767962 3.3162836e-05 -0.00056997355 0.0010921654 -0.0013332451
3.290572e-05 -0.000531102 0.0011769613 -0.0013362771 3.273474e-05 0.00035380162 -0.0006166265 0.000682388
0.00010075348 -7.785672e-05 -0.0006328416 0.0007463444 5.341628e-05 -7.7931516e-05 -0.00061933533 0.0007644986
4.2887197e-05 -7.826965e-05 -0.00050945854 -0.0005901514 0.0005472858 0.00051909755 -0.000107915934 -0.0006083942
0.0005929264 0.00047143665 -0.0001078977 -0.00060514745 0.00059268664 0.0004519614 -0.000108225904 -0.00073065254
-0.0004057261 0.00022978995 0.0008940642 -0.00011891944 -0.00041651638 0.00023069781 0.00086149905 -0.00011884065
-0.00042307717 0.00020248398 0.000839268 -0.00011906736 -0.00089319074 0.00016157696 -6.4513406e-05 -0.00039440132
4.543197e-05 0.00016443412 -6.0942933e-05 -0.00039434078 4.54334e-05 0.00016760759 -4.5267527e-05 -0.0003980205
4.545525e-05 0.00035934913 -5.231744e-05 0.0006502269 -0.0021913876 0.00016419157 -2.7659726e-05 0.0007422722
-0.0021883377 0.00016343387 2.700653e-05 0.0008318306 -0.0021687371 0.00016403382 0.0013691448 0.00028790615
-0.0003827371 0.00014483578 1.8530034e-05 0.00028573626 -0.0004134757 0.00014845737 1.8708572e-05 0.0002676721

exp_avg_sq f4 [64, 13]
00000000: 771d 5635 f275 a834 e06e 3437 9e31 0b34
00000010: 89d9 5135 2f4b b934 e5c4 3337 2a0c 0b34
00000020: b7a2 5735 5b3d df34 4fa5 3237 e01a 0b34
00000030: c3f8 1b37 d0bb d933 6ec3 3e33 3af9 bf35
00000040: b175 9032 eee7 d533 be4b 5733 7d5d bf35
00000050: 8c51 9032 a967 dd33 2d7f 8433 9bec bd35
00000060: 2e60 9032 fdf5 a435 8942 8932 64cb 9532
00000070: 2080 dc34 53ab 8331 2eee 8a32 f706 c732
00000080: 7f0f dd34 b0b9 8331 62f7 9d32 5418 0b33
00000090: 30da d934 0bc1 8331 cb64 9934 4d4e 4235
000000a0: 32c1 8434 eb2b 2137 c1d9 f733 3b6e 3e35
000000b0: 1c7b 8d34 4e3d 2137 549e f733 d72d 4335
000000c0: f9c5 a534 0cee 2037 1fb9 f733 a72e f936
000000d0: 624d 7f33 6fc2 8a32 8a19 3235 d9f9 1032
000000e0: 0ed6 7a33 c866 8232 0e3b 3235 1ecd 1032
000000f0: c07a 7d33 396a 8332 44e6 3235 9dde 1032
00000100: d97e 0935 745a 3735 232a 9334 69bf 1b37
00000110: a379 ed33 fc31 3435 fbd2 a234 572f 1b37
00000120: ec43 ed33 7418 3a35 9ea6 c534 c013 1a37
00000130: 085b ed33 1c8f 0437 8256 ed34 d12e 0834
00000140: 3ca4 8f36 407c 7433 601d e834 7b8e ea33
00000150: 154b 9036 ae30 7433 e1e8 e234 4e9d bc33
00000160: 021b 9236 e046 7433 85a5 6936 b5dd ce33
00000170: 1351 9033 548a 2436 5f53 cb32 5cc8 d433
00000180: 3425 da33 723e 2436 4a59 cb32 5ddc 0234
00000190: edea 2b34 1929 2036 427e cb32 9b24 0436
000001a0: e0e3 8e34 0af5 d433 1086 6836 8914 3533
000001b0: abfc 8b34 c21a e633 9cec 6736 51e5 3433
000001c0: be40 8f34 359e 0734 4fdb 6636 f2fb 3433
000001d0: 6267 4636 ec78 fa34 6ac3 fe33 2e8f 9f36
000001e0: 807b 8933 0dae f534 63cf de33 a6b8 9e36
000001f0: c453 8933 d031 f534 a4d3 c233 ddd1 9e36
00000200: 5d65 8933 d373 8436 8916 6f34 1b66 ce33
00000210: 8326 5336 4405 1f33 2303 6b34 7d17 ea33
00000220: 5c62 5236 cfdd 1e33 23d7 7334 d5fe 1034
00000230: 4fad 5036 ceed 1e33 0a2f 3336 41c9 8c31
00000240: 61c1 0831 1ee0 6f33 4c5f 2a30 0f71 8f31
00000250: 2d11 2731 ecdc 6c33 9047 2a30 4c94 9a31
00000260: 6066 5d31 8de9 6833 d47e 2a30 1f84 5b33
00000270: c807 6934 38f6 6633 bb79 2136 01af 0533
00000280: 7535 6534 c2a1 5633 b3d1 2036 2589 0533
00000290: de64 6934 b6c7 5833 3d72 2036 6a9a 0533
000002a0: 7ac3 0036 29b7 b935 e4d6 1c35 24d8 a537
000002b0: 2dd3 7734 5ccf b635 7a4e 3235 1847 a537
000002c0: 269c 7734 1357 be35 5099 5e35 10ea a337
000002d0: e8b3 7734 195f 8b37 6b0b 7535 c06a 9d34
000002e0: 1eb5 3d37 1bf0 1534 f11c 7135 f206 a434
000002f0: 64f4 3c37 92c2 1534 6b23 7735 ca45 bc34
00000300: 9b0a 3c37 5dd3 1534 cd29 2437 40e3 4435
00000310: 3bf9 6334 0892 1037 d960 e833 a9bc 4135
00000320: cca1 6134 c72c 1037 d817 e833 ae2e 4535
00000330: 9702 7434 96f0 0f37 1933 e833 bdac eb36
00000340: 2fc6 5634 730f 6333 6e45 0c36 f95e eb32
00000350: c2bc 5234 1479 4933 2443 0c36 1618 eb32
00000360: cd7e 5234 c11c 3433 bf05 0d36 8c33 eb32
00000370: 88db c735 d085 4133 6a64 7832 dff2 eb34
00000380: d8bf be31 f9e2 4633 ad2e 8b32 c330 e534
00000390: d379 be31 da2c 5433 0404 af32 c29b df34
000003a0: e0b5 be31 10ff 0d35 9ea3 9e34 9cb1 c134
000003b0: 0291 ee36 8de7 9333 1467 a834 9799 0135
000003c0: 2220 e736 c6d5 9333 cfc7 ce34 7aa6 3835
000003d0: 4e86 dc36 08f0 9333 656d df36 ed5f e334
000003e0: fd78 2934 97d3 ad36 8cf0 8a33 8783 df34
000003f0: cfe1 3334 98c7 ac36 6bc4 8a33 09c5 e434
7.976409e-07 3.1378255e-07 1.0754651e-05 1.2963434e-07 7.817512e-07 3.4513639e-07 1.07150745e-05 1.2949809e-07
8.033052e-07 4.158163e-07 1.0648116e-05 1.2955161e-07 9.296639e-06 1.0139013e-07 4.4415565e-08 1.4303143e-06
1.6817326e-08 9.960773e-08 5.0127476e-08 1.4257818e-06 1.680089e-08 1.030997e-07 6.169862e-08 1.4150459e-06
1.6807544e-08 1.2290544e-06 1.5979156e-08 1.7438374e-08 4.1071416e-07 3.832079e-09 1.6173626e-08 2.3169816e-08
4.1175733e-07 3.833712e-09 1.8389702e-08 3.2385586e-08 4.0578152e-07 3.8345482e-09 2.8571807e-07 7.2384574e-07
2.4727484e-07 9.606573e-06 1.1541443e-07 7.094092e-07 2.635287e-07 9.610621e-06 1.15306335e-07 7.2709867e-07
3.087769e-07 9.592168e-06 1.1535507e-07 7.4262093e-06 5.9442193e-08 1.6153733e-08 6.634733e-07 8.438712e-09
5.8402343e-08 1.5180731e-08 6.6396103e-07 8.428541e-09 5.9017793e-08 1.5298712e-08 6.664525e-07 8.43252e-09
5.1221065e-07 6.830444e-07 2.7411542e-07 9.283286e-06 1.1058298e-07 6.712796e-07 3.032836e-07 9.249742e-06
1.10485274e-07 6.9325984e-07 3.681534e-07 9.183714e-06 1.1052731e-07 7.901133e-06 4.4207633e-07 1.2683019e-07
4.2808515e-06 5.692368e-08 4.323474e-07 1.0922391e-07 4.300275e-06 5.685495e-08 4.2265222e-07 8.783046e-08
4.354283e-06 5.6875137e-08 3.481605e-06 9.632951e-08 6.72027e-08 2.4518422e-06 2.3670223e-08 9.9084644e-08
1.0158183e-07 2.4474252e-06 2.3672914e-08 1.2187361e-07 1.6011082e-07 2.386578e-06 2.3689726e-08 1.969084e-06
2.6615362e-07 9.9165916e-08 3.4648729e-06 4.2161023e-08 2.6074608e-07 1.0715077e-07 3.4559407e-06 4.2118078e-08
2.6682932e-07 1.263041e-07 3.4400325e-06 4.213866e-08 2.9564476e-06 4.665411e-07 1.1863342e-07 4.7552376e-06
6.402024e-08 4.5761445e-07 1.0375404e-07 4.730263e-06 6.3947965e-08 4.567105e-07 9.072326e-08 4.7331982e-06
6.3979975e-08 3.9473903e-06 2.2266808e-07 9.6111954e-08 3.1463867e-06 3.702486e-08 2.1887222e-07 1.09007466e-07
3.1349691e-06 3.6988975e-08 2.2709405e-07 1.3503752e-07 3.1095294e-06 3.7003524e-08 2.670046e-06 4.097416e-09
1.9900528e-09 5.5850357e-08 6.1981065e-10 4.174701e-09 2.4311462e-09 5.514896e-08 6.1947336e-10 4.4988493e-09
3.2217926e-09 5.4229123e-08 6.2025873e-10 5.1110074e-08 2.1702647e-07 5.3774983e-08 2.4061726e-06 3.112564e-08
2.1346735e-07 4.9972876e-08 2.396392e-06 3.1091208e-08 2.1736511e-07 5.0473055e-08 2.3908353e-06 3.1106914e-08
1.9187269e-06 1.3836881e-06 5.8427236e-07 1.9770181e-05 2.3080493e-07 1.3620406e-06 6.6424366e-07 1.9702638e-05
2.3060474e-07 1.4181445e-06 8.2924544e-07 1.9540108e-05 2.3069117e-07 1.6614375e-05 9.128623e-07 2.93212e-07
1.13074475e-05 1.3964056e-07 8.982161e-07 3.0552434e-07 1.1262575e-05 1.394749e-07 9.206621e-07 3.5068507e-07
1.12081425e-05 1.39536e-07 9.784894e-06 7.334638e-07 2.1231692e-07 8.617069e-06 1.0820958e-07 7.217264e-07
2.1013619e-07 8.593494e-06 1.0807679e-07 7.3456147e-07 2.2725213e-07 8.57948e-06 1.08126365e-07 7.023655e-06
2.0002402e-07 5.2866607e-08 2.090204e-06 2.740079e-08 1.9626444e-07 4.690908e-08 2.0900707e-06 2.7368554e-08
1.9603904e-07 4.1935667e-08 2.1013982e-06 2.7381041e-08 1.4890547e-06 4.5058016e-08 1.4458331e-08 4.3948873e-07
5.551538e-09 4.6306898e-08 1.6202955e-08 4.2690053e-07 5.5435776e-09 4.940089e-08 2.0374507e-08 4.1650316e-07
5.5504046e-09 5.289776e-07 2.954884e-07 3.607828e-07 7.109834e-06 6.88734e-08 3.1367438e-07 4.827975e-07
6.888077e-06 6.884106e-08 3.851587e-07 6.8787597e-07 6.572146e-06 6.888882e-08 6.658653e-06 4.235184e-07
1.5783367e-07 5.180434e-06 6.469881e-08 4.1632686e-07 1.6752823e-07 5.149235e-06 6.461854e-08 4.261167e-07

exp_avg f4 [64]
00000000: 9408 8539 109d 9637 899f 213a cee7 98b9
00000010: a609 07ba e5e0 f2b8 8068 59ba 361f 253a
00000020: 88ed 66b9 3a84 6c3a fd45 99b8 bda3 3ab9
00000030: dcd1 e039 eee8 4539 16ad e8b9 b427 21ba
00000040: 9f9f 31ba 2ac0 8739 db57 753a 0a7f df38
00000050: e771 0738 6533 8f3a d8b6 96b9 c5f8 8427
00000060: c749 6fba 3666 65ba b657 94b9 a41a 2fba
00000070: 05af 143a 10b8 60b9 9301 ecb8 bcaf 07ba
00000080: 2c14 3139 33e0 41b9 8a2d 08ba 8880 2d3a
00000090: 321d 133a a0f5 cdb9 7a58 0c33 cade 0239
000000a0: e4b2 2835 a440 2f39 1004 08b9 dfb7 4839
000000b0: 5fca ddb9 6008 0e3a 0400 0000 6f1a 203a
000000c0: 12d1 f038 e7b4 10b9 0d15 af38 836c f9b9
000000d0: 5631 be39 f552 1f39 2072 deb9 6cd6 1eb9
000000e0: 9142 b3b9 e52e 183a 3235 a239 001e 02ba
000000f0: c959 223a f201 a43a 6cdd e8b9 ffb0 2b38
0.00025374128 1.7954531e-05 0.0006165435 -0.00029164407 -0.0005151279 -0.00011581349 -0.0008293465 0.0006298901
-0.00022022997 0.0009022389 -7.308645e-05 -0.0001779934 0.00042880967 0.00018874157 -0.00044379447 -0.0006147579
-0.00067757996 0.0002589238 0.00093591 0.000106571315 3.2292588e-05 0.0010925351 -0.0002874646 3.6907076e-15
-0.000912812 -0.00087508874 -0.0002829411 -0.000667969 0.0005671832 -0.00021430873 -0.0001125365 -0.0005176028
0.0001688755 -0.00018489435 -0.0005194774 0.0006618579 0.00056119554 -0.00039283652 3.267676e-08 0.00012480762
6.2845197e-07 0.00016713381 -0.00012971484 0.00019141984 -0.00042303183 0.0005418118 6e-45 0.00061074545
0.00011483034 -0.00013800302 8.348571e-05 -0.00047573828 0.00036276382 0.00015194326 -0.0004242817 -0.00015147933
-0.00034191136 0.00058053277 0.0003093868 -0.0004963577 0.00061931886 0.0012512787 -0.0004441546 4.0934417e-05

exp_avg_sq f4 [64]
00000000: 7322 8d36 e67d 1235 c8cb 0534 ca4e 7b36
00000010: 0fef 9234 54d3 7036 d3a7 f735 68b6 4e35
00000020: 039a b735 1f54 0b36 ca41 a135 60ed ac32
00000030: 5684 8735 ad58 fb36 2100 9836 7989 6b36
00000040: 3b80 6e35 1774 4134 1647 1636 a9d5 0c36
00000050: 8f8f a134 aa7c e435 8ffb 4435 e943 4d29
00000060: 4a8f 0035 b30e 9b35 d8ad ed36 1bdb 6335
00000070: 9496 7b34 902c 3837 40ac 8535 4541 3d34
00000080: 2700 8335 b45e fb35 574c 4835 95b9 2d34
00000090: fb3d 7134 6b1b 4c36 65e4 1c2a e13e 2535
000000a0: 15b7 3d2b 6002 7c34 0a92 4235 cfc6 b533
000000b0: cfd9 3536 7cf1 b835 9568 a612 9758 ac35
000000c0: 7ea6 1036 2544 0036 41e8 3f34 30ce 1334
000000d0: 4cb3 9e35 8e1e 1635 02fd 8636 9e02 b233
000000e0: be66 e035 a1c5 e733 04d2 4d33 b0b8 4c35
000000f0: 76fa ba35 318d a735 859d 2434 c0ae ab35
4.206138e-06 5.4572445e-07 1.2460725e-07 3.7447776e-06 2.7368557e-07 3.5885796e-06 1.8451777e-06 7.7006416e-07
1.3679386e-06 2.076158e-06 1.2014582e-06 2.0131381e-08 1.0096799e-06 7.490706e-06 4.529968e-06 3.5097748e-06
8.884851e-07 1.8016759e-07 2.239312e-06 2.0985992e-06 3.009304e-07 1.7023606e-06 7.3381756e-07 4.5578047e-14
4.789223e-07 1.1552678e-06 7.0833885e-06 8.488293e-07 2.3430977e-07 1.097763e-05 9.959404e-07 1.7625742e-07
9.760305e-07 1.872852e-06 7.4616895e-07 1.6179395e-07 2.2467422e-07 3.0414328e-06 1.3934824e-13 6.155879e-07
6.7400366e-13 2.3470193e-07 7.2483147e-07 8.4646324e-08 2.7097883e-06 1.377935e-06 1.0501854e-27 1.2840782e-06
2.1554583e-06 1.9113152e-06 1.7872755e-07 1.3765452e-07 1.18241e-06 5.592382e-07 4.022965e-06 8.289247e-08
1.6719202e-06 1.0792724e-07 4.792129e-08 7.626468e-07 1.3930974e-06 1.2483562e-06 1.5330995e-07 1.2791352e-06

exp_avg f4 [64, 64]
00000000: f1f1 b037 09b0 4338 fffe 8938 9323 0538
00000010: b513 28b7 62af f837 8b23 1238 c139 e937
00000020: 68ba d537 c3c3 2f38 20a5 5e38 4e08 8738
00000030: 1665 9338 4ce3 c037 2df5 3937 2e7d 6b37
00000040: f09e b337 4407 a337 f360 a437 607a 8b38
00000050: 9d3b 9338 c0f5 4337 a743 7c38 10dc 51a5
00000060: c04e 5db7 0adb d036 ac9e c337 89e7 8037
00000070: ff36 ba38 771d c437 31d5 2538 79a3 68b6
00000080: 59be a438 a6cf 0638 1fea a1b6 dcc5 9638
00000090: 5a8d 5238 7e88 6c37 065b 19b4 3ed4 b938
000000a0: a240 a9b1 e1fd c738 9daa 3f38 d71f 3636
000000b0: caca 8237 149d 8e38 0400 0000 6fd9 6d38
000000c0: d46f 6438 a105 8a36 06c3 2a38 5ac5 1ab6
000000d0: 9e95 0838 ab8e 9a38 8010 9737 55af 9936
000000e0: d343 ae38 7c69 f338 c503 b138 1209 9137
000000f0: 254d 4f37 9d36 ad37 0a0e 1d36 0666 9438
00000100: f746 9835 13cf b236 e742 e336 6e81 0a36
00000110: 620a cc35 27b3 4136 de9f 2633 0126 e633
00000120: d678 5336 1198 4e36 9fc2 f636 fcb3 f636
00000130: 9779 f036 ba44 0a36 742e 1a36 3fb9 ae34
00000140: 9062 9636 b5bd 4236 f30f 38af 4956 0437
00000150: 9b0f d936 4038 aab5 116a e036 0400 0000
00000160: 36b9 2636 8a07 c135 f115 fa35 95a3 2735
00000170: 8e7c d536 a297 0c36 5c43 d036 519f 7b35
00000180: 9d66 1737 638e 3536 ef19 4835 eae1 b736
00000190: 1f00 ab36 d445 0836 0400 0080 51ea e036
000001a0: 0400 0080 8ce9 1637 3065 a236 7bfc 1cb5
000001b0: fd9c ca35 79b4 8d36 0400 0000 5dfd 4036
000001c0: 0e0d 9d36 5050 3035 74ad b236 0abe 4c35
000001d0: 098f 8b36 1b27 1e37 3d25 d935 9586 24b5
000001e0: bb28 0237 7c50 1837 8733 ff36 5a8d 3035
000001f0: b165 d3b5 b1d0 1335 4ff6 1e36 3967 f536
00000200: c97b 1d39 dc0c 4538 f8e5 a6b8 f489 9b38
00000210: 9c30 2439 3473 abb7 de83 98b8 3072 4139
00000220: 507e 9636 d1db 8eb8 5744 8839 da60 8139
00000230: 82e6 e2b8 3a22 67b7 2273 3839 374b 3439
00000240: 3a62 ab39 02f3 01b8 4f59 0538 8a64 2c39
00000250: e94c 0639 84c0 1c37 75b2 6c39 20ef 7c25
00000260: 5f82 9839 9a84 2b39 3d0c 3c37 6acd 5c39
00000270: 21ac dcb8 4d90 2f39 bc2a 1e39 b9db 6339
00000280: 0bab 6138 299b 8738 fc09 cd38 252c cab8
00000290: 6ca2 7bb8 0b80 e638 ac04 2c34 e952 8638
000002a0: 5ca8 be31 7c1a d4b8 15ee 2e39 01bc c536
000002b0: 8f08 db38 40be b9b8 0400 0080 c4c4 66b8
000002c0: 92e1 a4b8 ed75 9e38 3ef3 da38 5abe 7738
000002d0: 28e6 c637 b256 aa38 f9cc b038 6de2 9538
000002e0: 1db2 1c39 79d5 f0b8 f4d4 a537 e304 b638
000002f0: b3b9 3a37 a6e6 6d38 c5c5 8f39 14f6 1c36
00000300: 9f4a 8038 1baa 5638 ee60 fab6 8a28 5538
00000310: 67bf a638 a4b1 4b37 b2ee 88b7 e9e2 cb38
00000320: 6e06 bf37 565b 9bb7 1d9d 1139 916b 1839
00000330: ee62 adb7 d9ba 3237 63a9 cc38 365e b038
00000340: 7325 2e39 d9e2 21b7 9b82 7d37 105a cb38
00000350: 3c4f a238 5bf3 2035 f580 0039 22d1 9222
00000360: fcd7 1339 102e ab38 33b1 ae37 b943 d738
00000370: c033 97b7 fe41 c238 90d7 b038 202b da38
00000380: e59c 6338 447f 5f38 a2a8 6038 f481 9bb7
00000390: 09db d9b6 fd2b 9038 02f7 9b31 e41a 5038
000003a0: e4e4 272f 9d1d 05b7 f95c c038 2b97 cf35
000003b0: 891f 8438 3315 cbb7 0400 0000 31dc c6b6
000003c0: f07a e8b6 a1fa 2738 1c92 a038 7fd9 0938
000003d0: 074c d037 6213 9438 0e15 6738 c171 1d38
000003e0: 732c bf38 19c3 3fb7 1724 4238 ff43 4838
000003f0: 3593 bd34 600a f137 0445 0739 99aa c037
2.1093498e-05 4.665557e-05 6.580166e-05 3.1742802e-05 -1.0018169e-05 2.9645573e-05 3.4842215e-05 2.7802658e-05
2.547838e-05 4.190557e-05 5.308271e-05 6.4388485e-05 7.028335e-05 2.2994027e-05 1.1083944e-05 1.4036237e-05
2.1412474e-05 1.9434498e-05 1.9595469e-05 6.6508306e-05 7.02061e-05 1.1680124e-05 6.0144488e-05 -1.820242e-16
-1.3190962e-05 6.2243826e-06 2.3319699e-05 1.5366606e-05 8.879415e-05 2.3378741e-05 3.9537616e-05 -3.4665848e-06
7.8555844e-05 3.2141477e-05 -4.825429e-06 7.1894116e-05 5.0199546e-05 1.4098476e-05 -1.428235e-07 8.8610206e-05
-4.9258952e-09 9.536348e-05 4.5696845e-05 2.7138647e-06 1.5591639e-05 6.800346e-05 6e-45 5.6707704e-05
5.4463584e-05 4.113376e-06 4.0712788e-05 -2.3062662e-06 3.256427e-05 7.369866e-05 1.8008286e-05 4.5801667e-06
8.3096e-05 0.00011606791 8.44072e-05 1.728957e-05 1.2356123e-05 2.0648638e-05 2.3402995e-06 7.076193e-05
1.1345536e-06 5.32892e-06 6.7729156e-06 2.063894e-06 1.5202206e-06 2.8863521e-06 3.8795285e-08 1.07171225e-07
3.1511786e-06 3.0784906e-06 7.354028e-06 7.3523242e-06 7.1667123e-06 2.0603607e-06 2.2974828e-06 3.254481e-07
4.4818225e-06 2.9018677e-06 -1.6740369e-10 7.887903e-06 6.4689207e-06 -1.2682358e-06 6.688068e-06 6e-45
2.4843735e-06 1.4381815e-06 1.8632837e-06 6.245039e-07 6.3623947e-06 2.0949888e-06 6.2067247e-06 9.373662e-07
9.024193e-06 2.7053982e-06 7.4543544e-07 5.480125e-06 5.096211e-06 2.0306225e-06 -6e-45 6.7029982e-06
-6e-45 8.995074e-06 4.839756e-06 -5.8481936e-07 1.5095862e-06 4.2231372e-06 6e-45 2.8757706e-06
4.6804844e-06 6.568198e-07 5.325006e-06 7.6272465e-07 4.1591743e-06 9.426639e-06 1.6178598e-06 -6.1290604e-07
7.758087e-06 9.078645e-06 7.605591e-06 6.5770803e-07 -1.5750321e-06 5.5065453e-07 2.3687205e-06 7.3135857e-06
0.000150188 4.6980436e-05 -7.958332e-05 7.416672e-05 0.00015658367 -2.0438434e-05 -7.272487e-05 0.00018448452
4.485053e-06 -6.812032e-05 0.0002599086 0.00024676957 -0.00010819455 -1.3776642e-05 0.00017590498 0.00017194157
0.00032688846 -3.0982315e-05 3.1792846e-05 0.00016440652 0.00012807887 9.343148e-06 0.00022573194 2.1938534e-16
0.00029088833 0.00016357229 1.1208523e-05 0.00021057358 -0.00010522479 0.00016743057 0.00015083974 0.0002173026
5.3803476e-05 6.4662025e-05 9.7770215e-05 -9.640333e-05 -5.999433e-05 0.000109911045 1.6020448e-07 6.405061e-05
5.548868e-09 -0.00010113881 0.00016682626 5.892944e-06 0.00010444328 -8.856924e-05 -6e-45 -5.5019525e-05
-7.862145e-05 7.5559925e-05 0.000104403574 5.9066668e-05 2.3710614e-05 8.12238e-05 8.430513e-05 7.147049e-05
0.00014943672 -0.00011483854 1.9768697e-05 8.6793465e-05 1.11297e-05 5.672001e-05 0.00027422435 2.3389048e-06
6.117415e-05 5.118e-05 -7.4618647e-06 5.0820912e-05 7.951148e-05 1.2141103e-05 -1.6323615e-05 9.7220596e-05
2.2771968e-05 -1.8519971e-05 0.00013886807 0.00014535921 -2.0669275e-05 1.0653131e-05 9.759029e-05 8.409882e-05
0.00016607884 -9.649165e-06 1.5110384e-05 9.69657e-05 7.7395205e-05 5.9958774e-07 0.00012255071 3.9794807e-18
0.00014099473 8.162495e-05 2.0824931e-05 0.00010264613 -1.80247e-05 9.262933e-05 8.4324856e-05 0.00010403083
5.4267137e-05 5.328587e-05 5.3562813e-05 -1.8537954e-05 -6.492603e-06 6.8746485e-05 4.5391753e-09 4.961611e-05
1.526988e-10 -7.934313e-06 9.172591e-05 1.5466698e-06 6.3001244e-05 -2.4209357e-05 6e-45 -5.9264935e-06
-6.9284506e-06 4.004932e-05 7.6566095e-05 3.2865904e-05 2.4830935e-05 7.0608e-05 5.50943e-05 3.753766e-05
9.115869e-05 -1.1429912e-05 4.6286816e-05 4.7747042e-05 3.53111e-07 2.873427e-05 0.00012900314 2.2967624e-05
