src/scripts/model/critic.pth (torch, 853167 bytes, 15 tensors)

linear_input.weight f4 [256, 17]
0	0x3d01bafa	0.031672455
1	0xbd1f406c	-0.038879797
2	0xbdb31626	-0.08744459
3	0x3c2ddc5c	0.01061162
4	0x3cdce37a	0.026963938
5	0xbcf70603	-0.030154234
6	0xbdab7a22	-0.08372904
7	0x3c29b8cf	0.010359003
8	0x3caae95a	0.020863224
9	0xbc9294ac	-0.017893158
10	0xbda7a7a9	-0.081862755
11	0x3c2bba80	0.010481477
12	0x3bdae4b5	0.006680096
13	0x3ba18769	0.004929472
14	0x3d35d763	0.044394862
15	0x3cdc6d96	0.026907723
16	0xbcbdbb85	-0.023160705
17	0xb41d6ba3	-1.4660922e-07
18	0xb11bbcbd	-2.2662754e-09
19	0x34218582	1.5042863e-07
20	0xb3f79cf1	-1.1530381e-07
21	0xb4136084	-1.3725554e-07
22	0xb28ffd1d	-1.6762494e-08
23	0x34276947	1.5591387e-07
24	0xb3f76333	-1.1519878e-07
25	0xb40e7128	-1.3265947e-07
26	0xb383940a	-6.127091e-08
27	0x342aca33	1.5906043e-07
28	0xb3f6e76b	-1.1497362e-07
29	0x3352e823	4.9105562e-08
30	0xb3199434	-3.575788e-08
31	0xb4b03602	-3.282185e-07
32	0xb48660db	-2.5029917e-07
33	0xb458b5f5	-2.0182763e-07
34	0xba300117	-0.00067140296
35	0x3a392262	0.00070623134
36	0xba972ba6	-0.0011533394
37	0x39457a0b	0.00018832849
38	0xba413783	-0.00073706376
39	0x3a393582	0.0007065163
40	0xba036652	-0.00050125003
41	0x396efe32	0.00022792144
42	0xba2c8171	-0.00065805676
43	0x39f350bd	0.00046408726
44	0x39799f03	0.00023805727
45	0x395fbbb6	0.00021336865
46	0xbcb58f61	-0.022163095
47	0x3b9fe423	0.004879491
48	0xbc4b4691	-0.012406961
49	0xbb6fc697	-0.0036586875
50	0xbc74d9bd	-0.014944491
51	0x37864c87	1.600968e-05
52	0x384c3548	4.8687012e-05
53	0x3a55620c	0.00081399153
54	0x34519efb	1.9522479e-07
55	0x378f40ca	1.7077098e-05
56	0x383adb45	4.4550066e-05
57	0x3a51ffee	0.0008010854
58	0x3496df83	2.8102303e-07
59	0x379dc6c1	1.880841e-05
60	0x384b8ebc	4.8531903e-05
61	0x3a462ffa	0.00075602497
62	0x3499d33b	2.865216e-07
63	0xb94a97a0	-0.00019320706
64	0x371fa2d7	9.515053e-06
65	0x379e481e	1.886865e-05
66	0x37a14389	1.9224144e-05
67	0xb7c89e26	-2.3915502e-05
68	0xb646e88a	-2.9639655e-06
69	0xb372021a	-5.6346927e-08
70	0x369311ee	4.3830287e-06
71	0xb57904af	-9.2766544e-07
72	0xb63d62ff	-2.8220818e-06
73	0xb4bc6870	-3.5093717e-07
74	0x36939aec	4.3989767e-06
75	0xb578dc5d	-9.270787e-07
76	0xb6396394	-2.762511e-06
77	0xb55b81b8	-8.1772623e-07
78	0x3693030e	4.381297e-06
79	0xb577190c	-9.205112e-07
80	0xb54edf9d	-7.706638e-07
81	0xb608c035	-2.0377458e-06
82	0xb6c26868	-5.793805e-06
83	0xb6a450b3	-4.8969755e-06
84	0xb60e91ed	-2.124459e-06
85	0xb5b35dc9	-1.3363834e-06
86	0x35f91f3d	1.8561037e-06
87	0xb46826b0	-2.1620758e-07
88	0xb400279d	-1.193534e-07
89	0xb5ba0d2f	-1.3861917e-06
90	0x35e7c08d	1.7266881e-06
91	0xb4fc394f	-4.6980355e-07
92	0xb404e86a	-1.237801e-07
93	0xb5c911d0	-1.4980851e-06
94	0x358b8a46	1.039655e-06
95	0xb5546f5b	-7.91382e-07
96	0xb418f1b2	-1.4244031e-07
97	0xb564d78d	-8.5250286e-07
98	0xb60ad9e4	-2.0690431e-06
99	0xb58ec690	-1.0637614e-06
100	0xb5986700	-1.135486e-06
101	0x3559de00	8.116185e-07
102	0xb57b6b70	-9.366113e-07
103	0x2d149e58	8.447985e-12
104	0x39c9a31e	0.0003845924
105	0xad04df15	-7.5528655e-12
106	0xb5c784fc	-1.4865359e-06
107	0x2e9e9d63	7.2129656e-11
108	0x39ac6d6e	0.00032887928
109	0xad07551d	-7.6927605e-12
110	0xb64a516e	-3.0147744e-06
111	0x32e547cb	2.6691756e-08
112	0x39874a22	0.0002580444
113	0xad0b5128	-7.9192555e-12
114	0xb94e7c45	-0.00019691985
115	0xb7fc4606	-3.0073348e-05
116	0xb91ade89	-0.00014769485
117	0xb9820bbb	-0.00024804272
118	0x3749d789	1.2030717e-05
119	0x3ce25871	0.027630063
120	0x3cf9b67c	0.030482523
121	0x3c4390a1	0.011936338
122	0x3bae5868	0.0053205974
123	0x3cecd33b	0.028909316
124	0x3d0b11bd	0.033952463
125	0x3c99c0ab	0.018768629
126	0x3bb1e37d	0.00542873
127	0x3cf9920c	0.030465148
128	0x3d154926	0.036446713
129	0x3ce62a50	0.028096348
130	0x3bb01d52	0.005374589
131	0xbd9779c7	-0.07396274
132	0x3c623070	0.013805494
133	0x3c1fbbab	0.009749333
134	0x3d13cdbe	0.036084883
135	0x3d2a3594	0.041555002
136	0x33279a6d	3.9023167e-08
137	0x33cb0b6e	9.455003e-08
138	0x3384104d	6.149694e-08
139	0xb23641fb	-1.06087965e-08
140	0x332ac91e	3.9764124e-08
141	0x33e92b16	1.0857745e-07
142	0x3328347b	3.916328e-08
143	0xb232e503	-1.0413035e-08
144	0x3318d7fc	3.5586694e-08
145	0x33e18246	1.05010756e-07
146	0x325d04f3	1.2865018e-08
147	0xb2328920	-1.0392142e-08
148	0xb3e29eb3	-1.0552812e-07
149	0x31b5ec7b	5.294678e-09
150	0xb2b7862d	-2.136502e-08
151	0xb2b9659e	-2.1583045e-08
152	0x32867ae1	1.5655532e-08
153	0xaf0bb95e	-1.2707832e-10
154	0xae21cfcb	-3.679172e-11
155	0x30a1aa03	1.1762612e-09
156	0xaffe17fa	-4.6219367e-10
157	0xae9f8d8e	-7.255628e-11
158	0x2fad59ae	3.1532238e-10
159	0x307975ae	9.0752905e-10
160	0xafff9eb0	-4.6496984e-10
161	0x2e847ee3	6.0252046e-11
162	0x3087a1a8	9.868488e-10
163	0x30329548	6.4968164e-10
164	0xb0012bb1	-4.6992016e-10
165	0xb0dd3985	-1.6096214e-09
166	0x301547a3	5.4307686e-10
167	0x2f1574df	1.3592992e-10
168	0xaf563d6b	-1.9485007e-10
169	0x309dfbfe	1.1494874e-09
170	0xaf4b6e6a	-1.850197e-10
171	0x30677bb8	8.4213125e-10
172	0x31e72a60	6.7278023e-09
173	0x2fb07aa7	3.2101363e-10
174	0xaf714738	-2.1944124e-10
175	0x30631aa9	8.2620005e-10
176	0x31f78083	7.203256e-09
177	0x2fad6479	3.1539907e-10
178	0xafa4915e	-2.9934716e-10
179	0x303af9a6	6.802118e-10
180	0x3200b5e7	7.49194e-09
181	0x2fad2419	3.1494166e-10
182	0xaf915611	-2.64365e-10
183	0xb0a4eb4b	-1.1999445e-09
184	0xb09e76ab	-1.152974e-09
185	0xb0bce8d2	-1.3744972e-09
186	0x30f3151e	1.7686579e-09
187	0x35013ee7	4.814778e-07
188	0x35230b9f	6.073914e-07
189	0x38b5fe5d	8.6781314e-05
190	0x34169200	1.4022953e-07
191	0x35012fa0	4.812555e-07
192	0x352a6977	6.3483407e-07
193	0x38af1816	8.3491366e-05
194	0x34171520	1.4070656e-07
195	0x35022752	4.848599e-07
196	0x35389974	6.8768645e-07
197	0x389d7d95	7.509735e-05
198	0x341957e7	1.4281214e-07
199	0xb79c9275	-1.8664849e-05
200	0x3491dcc7	2.716899e-07
201	0xb6b13370	-5.280999e-06
202	0xb5b31be9	-1.3344662e-06
203	0x3748b717	1.1963558e-05
204	0xb793c693	-1.7616234e-05
205	0x35dd4d0c	1.6488207e-06
206	0x380d35e3	3.3667206e-05
207	0xb6cf7cee	-6.1836245e-06
208	0xb78b161c	-1.6580387e-05
209	0xb410a29b	-1.34702e-07
210	0x380f70d1	3.4198925e-05
211	0xb6ccdff6	-6.1057463e-06
212	0xb78825b7	-1.6230026e-05
213	0xb65573e1	-3.1806924e-06
214	0x380d0d0f	3.362918e-05
215	0xb6cc7314	-6.0930706e-06
216	0xb6c48f7d	-5.8579594e-06
217	0xb72434da	-9.787467e-06
218	0xb8388968	-4.3996988e-05
219	0xb81a85e6	-3.6841164e-05
220	0xb7324ec3	-1.0627965e-05
221	0xb9741170	-0.0002327615
222	0x39019432	0.00012357606
223	0xba466311	-0.00075678626
224	0xb8b94b76	-8.835543e-05
225	0xb9485d6f	-0.00019108293
226	0x3933b2bf	0.00017137358
227	0xb9943f5d	-0.0002827597
228	0xb84fdeb9	-4.9560073e-05
229	0xb8b5223f	-8.6371314e-05
230	0xb843f017	-4.6715224e-05
231	0x3997d155	0.0002895693
232	0xb87eba39	-6.0731752e-05
233	0xbc92c7e1	-0.017917575
234	0x3ba1fa1b	0.004943145
235	0xbc29ea74	-0.010370839
236	0xbb7bba64	-0.0038410658
237	0xbc4060f1	-0.011741863
238	0xbb1f5c07	-0.0024316327
239	0xb8a93767	-8.0688675e-05
240	0x3b485c59	0.0030572622
241	0xbae6c1b4	-0.0017605335
242	0xbb137036	-0.0022497303
243	0xb9ba3316	-0.00035514747
244	0x3b4b101f	0.003098495
245	0xbae6f917	-0.0017621842
246	0xbb0d7d49	-0.0021589568
247	0xba4c349a	-0.00077898207
248	0x3b4ab84d	0.0030932606
249	0xbae56b49	-0.0017503287
250	0xba3b66e6	-0.0007148817
251	0xba80dc9c	-0.0009831372
252	0xbb69a535	-0.003565145
253	0xbb47344a	-0.0030396157
254	0xba952d0a	-0.001138122
255	0x30276353	6.0895394e-10

linear_input.bias f4 [256]
0	0x3d601e63	0.05471648
1	0xb4172055	-1.4074733e-07
2	0x3baeb556	0.0053316755
3	0xb883367d	-6.256716e-05
4	0xb68d104d	-4.204025e-06
5	0xb263127a	-1.321734e-08
6	0xb92f9d29	-0.00016747847
7	0x3d299fc5	0.041412134
8	0xb2ba9348	-2.1720226e-08
9	0xb0549355	-7.733452e-10
10	0xb1059c82	-1.9443012e-09
11	0xb6fee615	-7.596575e-06
12	0xb800c7ed	-3.0703774e-05
13	0x3b7ee732	0.0038895127
14	0xbb2ad9cb	-0.0026069756
15	0xb03a9047	-6.7871436e-10
16	0xb1453977	-2.8699938e-09
17	0xbabdb30a	-0.0014472913
18	0xbc52a9d6	-0.012857875
19	0x3d1dbdb8	0.038511008
20	0xafa1c80b	-2.9427868e-10
21	0xba46813b	-0.00075723574
22	0x37b9506d	2.209117e-05
23	0x2e91139a	6.5973185e-11
24	0xb2f88d1a	-2.8935165e-08
25	0xbd406731	-0.04697341
26	0xbd150b67	-0.036387827
27	0xb945d489	-0.0001886656
28	0xbd924de5	-0.071437635
29	0xaf749358	-2.2244018e-10
30	0x2fc78d42	3.629826e-10
31	0x3087aede	9.872243e-10
32	0x313dcd2c	2.7619746e-09
33	0x3ce362ae	0.027757015
34	0xb01ef321	-5.782557e-10
35	0xbd8f3264	-0.06992033
36	0xaf739087	-2.2152068e-10
37	0x3d3d69e3	0.04624356
38	0xafe6160b	-4.185242e-10
39	0x30767fc5	8.967585e-10
40	0x3d4820c4	0.048859373
41	0x37eab90e	2.7981147e-05
42	0xb16d9a90	-3.4575898e-09
43	0xb1805638	-3.7350922e-09
44	0x3c6f7a17	0.014616511
45	0xb004d3fb	-4.832256e-10
46	0xb0e0ecd2	-1.6365453e-09
47	0x3467191d	2.1522688e-07
48	0xbb0411ba	-0.0020152167
49	0xaf56d32e	-1.9538213e-10
50	0xbca2cc0c	-0.019872688
51	0x3d14d068	0.036331564
52	0xb0bd4e4c	-1.3773813e-09
53	0x3685ae4d	3.984e-06
54	0xb44ec293	-1.9256031e-07
55	0x3c0db6d0	0.008649543
56	0xb4547d09	-1.9789526e-07
57	0xb0374def	-6.668576e-10
58	0xb689eef6	-4.110737e-06
59	0xb8950e61	-7.107552e-05
60	0xbd81010e	-0.06299029
61	0xba1a1712	-0.00058780715
62	0xb004a43f	-4.825473e-10
63	0xb3ab7452	-7.9839666e-08
64	0xb99d3ff3	-0.0002999302
65	0xb0aca96f	-1.2562803e-09
66	0x321c4df4	9.09812e-09
67	0xa2021496	-1.7629183e-18
68	0xb5d29be3	-1.5691588e-06
69	0xb96fde34	-0.00022875593
70	0x36483c78	2.983752e-06
71	0xb1e83981	-6.758626e-09
72	0x3c29f090	0.010372296
73	0x2cb693df	5.189168e-12
74	0xb5a75a21	-1.24687e-06
75	0xb66c1eab	-3.5184592e-06
76	0xba522d36	-0.0008017601
77	0xb767eb32	-1.3823434e-05
78	0xb13dc783	-2.761653e-09
79	0xb151e74d	-3.0544982e-09
80	0xb04a53e1	-7.360637e-10
81	0xb72c55c0	-1.0271964e-05
82	0xb8cc6785	-9.74676e-05
83	0x3a041e4a	0.0005039914
84	0xaead082b	-7.86858e-11
85	0x3c377fda	0.011199916
86	0x3a5a6b96	0.00083320716
87	0xbd876538	-0.06611103
88	0xb34c0a67	-4.7506912e-08
89	0xba1d8bea	-0.00060099235
90	0xb1b88406	-5.370114e-09
91	0xb5e3a472	-1.6960678e-06
92	0xb3d3cfe1	-9.863266e-08
93	0xae2cee54	-3.931995e-11
94	0x3d0631ca	0.032762326
95	0xb602a54b	-1.9467723e-06
96	0xb12470fa	-2.392936e-09
97	0xb0716e86	-8.783235e-10
98	0xb2a41a49	-1.9104066e-08
99	0xb268fd28	-1.3561738e-08
100	0xb046d6a7	-7.233702e-10
101	0x3ca1ccf5	0.019751051
102	0xbbeafc51	-0.0071711917
103	0x3513441f	5.4860897e-07
104	0xb1cf3d06	-6.0314305e-09
105	0x3214dce2	8.664957e-09
106	0xb5170161	-5.625389e-07
107	0xbd0170f9	-0.03160188
108	0x3520811c	5.9792524e-07
109	0xba34ff06	-0.00069044565
110	0xb8c6e878	-9.4846764e-05
111	0xbdea288b	-0.11433514
112	0xb8dfa800	-0.00010664761
113	0x3cc76a23	0.024342602
114	0x3d69b61b	0.057058435
115	0x33590615	5.052978e-08
116	0xb64be6dd	-3.0383737e-06
117	0xb47a7c3b	-2.3328259e-07
118	0x388281ff	6.223097e-05
119	0x3cc7488a	0.024326582
120	0xb108c4fc	-1.9902577e-09
121	0xba1fb622	-0.00060925086
122	0x32ce0004	2.3981563e-08
123	0xb55506a5	-7.935835e-07
124	0x3d4242cf	0.047426995
125	0xaf16e9f1	-1.3725533e-10
126	0x3d3e79b1	0.046502773
127	0x3bc658f2	0.0060530836
128	0x2e09255f	3.1183386e-11
129	0x303ef0c2	6.9463735e-10
130	0xb40ac0a9	-1.2922341e-07
131	0x33fa08fa	1.1643165e-07
132	0xb07ef5c4	-9.2753916e-10
133	0xb817674f	-3.609742e-05
134	0x3d0ccf40	0.034377337
135	0xb7b89312	-2.2002994e-05
136	0xb32e539a	-4.0588567e-08
137	0xb0f96a59	-1.814736e-09
138	0xb6b09664	-5.2627165e-06
139	0xaec0d259	-8.7685144e-11
140	0xb107fdd3	-1.9789368e-09
141	0xb09f6d53	-1.1599844e-09
142	0xb34918ec	-4.6821626e-08
143	0xafaa5c39	-3.0988348e-10
144	0xb66e5cfd	-3.551889e-06
145	0x34923c68	2.723857e-07
146	0x32086588	7.939327e-09
147	0xaec68f35	-9.029436e-11
148	0xb85b9a6c	-5.2357485e-05
149	0x36478af7	2.97342e-06
150	0xb0a5531c	-1.2028951e-09
151	0x380cb980	3.355136e-05
152	0xbd8213a1	-0.063514
153	0xaef5de36	-1.1180783e-10
154	0xa14ba7d5	-6.90012e-19
155	0xb9a29e5f	-0.00031017044
156	0xbcea8367	-0.02862711
157	0xb103503f	-1.9108624e-09
158	0xbd23e844	-0.040016428
159	0xbd88c38c	-0.066779226
160	0xba3f2d3b	-0.00072928116
161	0x3c84b9af	0.016201822
162	0x378cee32	1.6800219e-05
163	0xbdb7fedd	-0.08984158
164	0xb1045549	-1.9257007e-09
165	0xb64586d5	-2.943377e-06
166	0x2df7366b	2.8104815e-11
167	0x3b3d1a86	0.002885492
168	0xb875bc99	-5.8588197e-05
169	0xb9733335	-0.00023193362
170	0xb093eccb	-1.0762958e-09
171	0xaf0fa39c	-1.30639e-10
172	0x3c2bb712	0.010480659
173	0x3c190a55	0.009340842
174	0x3c97e289	0.018540638
175	0xb36b7ddd	-5.4829673e-08
176	0xbe1cfd30	-0.15330958
177	0xa96b67b5	-5.2270434e-14
178	0xb28e7439	-1.6583828e-08
179	0x2edecbcc	1.0131593e-10
180	0xb185938a	-3.8875827e-09
181	0x3383a92d	6.130936e-08
182	0xbd57306c	-0.052536413
183	0xaf670387	-2.1010581e-10
184	0xbd8e6775	-0.069533266
185	0xbdc0c29f	-0.09412121
186	0xafbeb12f	-3.4686695e-10
187	0x37e50a67	2.7303771e-05
188	0x3c0cf6f3	0.008603799
189	0xb34f9efe	-4.8340546e-08
190	0xb1d8ac4a	-6.3060144e-09
191	0xaeb1350c	-8.058451e-11
192	0xb01552a4	-5.4323324e-10
193	0xbde05af5	-0.10954849
194	0x3b30e9ac	0.0026994748
195	0x3c5843cc	0.013199758
196	0xb76f2bc6	-1.4255702e-05
197	0x258597ff	2.317482e-16
198	0x311ba906	2.2651547e-09
199	0xb0c2fd4f	-1.4187352e-09
200	0xb817b702	-3.6171645e-05
201	0xba34303a	-0.00068736414
202	0xaf21c06c	-1.4711227e-10
203	0xb780e21a	-1.5364076e-05
204	0x37ef35e9	2.8516124e-05
205	0x2e69510f	5.305006e-11
206	0xb05a829b	-7.949354e-10
207	0x30733a8e	8.8486096e-10
208	0xbd25c3b8	-0.040469855
209	0x3d294934	0.041329578
210	0xb99e9a84	-0.00030251232
211	0xb6bfea1c	-5.7194975e-06
212	0xb0eb0364	-1.7099464e-09
213	0xb799191d	-1.8250716e-05
214	0xb5f59c00	-1.8299324e-06
215	0xb68faf9d	-4.282176e-06
216	0xaeb945a7	-8.425199e-11
217	0xafaed887	-3.1804268e-10
218	0xb48afeaa	-2.5889796e-07
219	0xb4916eed	-2.7089064e-07
220	0xb9a11d1c	-0.0003073
221	0xb33b3db1	-4.359544e-08
222	0xb30c2e6a	-3.2638503e-08
223	0xb208fd61	-7.973854e-09
224	0xbd17a304	-0.0370207
225	0xb229d9b2	-9.886593e-09
226	0xae6b3ac2	-5.3485e-11
227	0x3cc734b5	0.024317125
228	0x2f4d48bc	1.8670482e-10
229	0xb1397d97	-2.6992433e-09
230	0x3960d2ef	0.00021440884
231	0x30638cbb	8.278211e-10
232	0xbdd65337	-0.10465091
233	0x3c613e99	0.013747835
234	0x2fea465f	4.2614354e-10
235	0x304d72e4	7.4741835e-10
236	0xb432fbed	-1.6669192e-07
237	0xaec02f7a	-8.739583e-11
238	0xb0e5a7a7	-1.6709593e-09
239	0xbcc319d0	-0.02381602
240	0xaf8a1686	-2.5118058e-10
241	0x2de1f4ff	2.5688339e-11
242	0x3605c37f	1.9932338e-06
243	0xaf0f2526	-1.3018972e-10
244	0x373c0acc	1.1208187e-05
245	0xaf01e12f	-1.1812483e-10
246	0xb8c405d5	-9.3470946e-05
247	0x34e4b719	4.260153e-07
248	0xaf49aca9	-1.8342185e-10
249	0xbd2c34e9	-0.042042647
250	0x334dbdea	4.7903008e-08
251	0xaf676f9d	-2.104898e-10
252	0xb70d8978	-8.436262e-06
253	0x305d08cf	8.041185e-10
254	0xafc64cb5	-3.6070494e-10
255	0x32c06bee	2.2400823e-08

linear_hidden.0.weight f4 [256, 256]
0	0xb4a297df	-3.0285352e-07
1	0xae866804	-6.1120914e-11
2	0x34d99974	4.0531052e-07
3	0xb34254ac	-4.5246153e-08
4	0x2de74e51	2.6296439e-11
5	0xafb1ca6c	-3.2339942e-10
6	0x3393a771	6.875678e-08
7	0x353a20c0	6.9338057e-07
8	0x3496e28e	2.8104517e-07
9	0xb353118d	-4.9143228e-08
10	0xad6f00ce	-1.3585756e-11
11	0xb43eaf26	-1.7758848e-07
12	0x3393be07	6.879787e-08
13	0x334df0bf	4.794924e-08
14	0xb4abc813	-3.1996805e-07
15	0x35f74d56	1.8425442e-06
16	0xb5a97c30	-1.2627625e-06
17	0xb6622c7f	-3.3702524e-06
18	0x34b4118b	3.3540377e-07
19	0xb3e510d7	-1.06667066e-07
20	0x2c9c3238	4.439362e-12
21	0xb3091ec7	-3.192579e-08
22	0xb72f948c	-1.0465399e-05
23	0xaf692edf	-2.1207879e-10
24	0x320e5387	8.28448e-09
25	0x33b45685	8.397641e-08
26	0x3518f4f4	5.6980866e-07
27	0x35ac681b	1.2845297e-06
28	0xb5a6199c	-1.2375417e-06
29	0xb79158f7	-1.7326774e-05
30	0xb4fc1dbe	-4.6960298e-07
31	0x27bc8c1b	5.2332385e-15
32	0xb21f43c0	-9.270423e-09
33	0x3502870e	4.8625304e-07
34	0xae59d4f8	-4.9529242e-11
35	0x35737e72	9.0708556e-07
36	0x2fab99ed	3.121409e-10
37	0x335bdd9a	5.1191456e-08
38	0x338330ec	6.109062e-08
39	0x3381939a	6.033879e-08
40	0x35ce0e6d	1.5352394e-06
41	0x319468d9	4.3192867e-09
42	0x34f3507a	4.5320832e-07
43	0xaea53c76	-7.514071e-11
44	0xb4a27285	-3.0258175e-07
45	0x2d3874f5	1.0485159e-11
46	0xb18beff3	-4.0727115e-09
47	0xadad1980	-1.9679147e-11
48	0xb7314099	-1.0565062e-05
49	0xb3856429	-6.211514e-08
50	0x344d1256	1.9098783e-07
51	0xb59808a5	-1.1327398e-06
52	0xac2b7ac9	-2.436872e-12
53	0xb24d7334	-1.1958765e-08
54	0xb3361a92	-4.2399343e-08
55	0xb4d25b66	-3.918205e-07
56	0xb0555b13	-7.7618373e-10
57	0x33ae5244	8.1174704e-08
58	0xb5353857	-6.750974e-07
59	0x33af3e31	8.160385e-08
60	0xb4ac4bb5	-3.209258e-07
61	0xb7864e82	-1.6010603e-05
62	0xb39c226e	-7.270579e-08
63	0x2d710d84	1.3702265e-11
64	0x34ec9dd1	4.4073252e-07
65	0xb60a8300	-2.0639854e-06
66	0xb55bfc72	-8.1951214e-07
67	0x9d600901	-2.9650808e-21
68	0xb086a7ad	-9.79744e-10
69	0x36701c2c	3.5779185e-06
70	0xb04d66fb	-7.472491e-10
71	0x2e8fe840	6.544143e-11
72	0xb622a318	-2.4234814e-06
73	0xb4469bd5	-1.8496878e-07
74	0xb367588e	-5.386442e-08
75	0x339c6539	7.2827284e-08
76	0xb43ff5ea	-1.7877724e-07
77	0xb4f48ea5	-4.555233e-07
78	0x3173cebd	3.5478671e-09
79	0x34731eec	2.2642388e-07
80	0x2f0aa7f9	1.2610703e-10
81	0x358f721e	1.0687543e-06
82	0x31de4ec6	6.470006e-09
83	0xb547ba22	-7.4404136e-07
84	0x31c452a9	5.713748e-09
85	0xb5bfcd56	-1.429037e-06
86	0xb5691a7d	-8.683781e-07
87	0x34933f77	2.742706e-07
88	0x367ce4ba	3.7684063e-06
89	0xb5c804a8	-1.4902516e-06
90	0x36afe9e6	5.242636e-06
91	0xada9b39a	-1.9292835e-11
92	0x3040b967	7.0112666e-10
93	0xb2475c0f	-1.1604256e-08
94	0xb4d599f9	-3.9786372e-07
95	0xb6bf2a0e	-5.6971394e-06
96	0xad34da09	-1.0280229e-11
97	0x36e50b96	6.8260806e-06
98	0x33e9b1b6	1.08822334e-07
99	0xb3274ca4	-3.895242e-08
100	0xaed5b245	-9.7177856e-11
101	0x3517068e	5.626142e-07
102	0xb5cb1ce3	-1.5133086e-06
103	0xb217a6f2	-8.827316e-09
104	0x375bf3b7	1.31101615e-05
105	0x2b727ad4	8.614613e-13
106	0xae853e87	-6.059247e-11
107	0xb4379414	-1.7097074e-07
108	0xadc5a368	-2.2468874e-11
109	0x33c0ca38	8.97748e-08
110	0xb80e26d9	-3.3891618e-05
111	0x33847539	6.168052e-08
112	0xb3ae99fb	-8.130515e-08
113	0x35da568f	1.6267458e-06
114	0x3497611a	2.8196592e-07
115	0x330d2870	3.28659e-08
116	0xb58ae640	-1.0348813e-06
117	0x37414569	1.1519857e-05
118	0xb57bd727	-9.3817874e-07
119	0x3553da34	7.892115e-07
120	0x2cacf0cb	4.9152674e-12
121	0x358adc6f	1.0345956e-06
122	0x31eabe4a	6.8319297e-09
123	0x3259b540	1.2672274e-08
124	0x359c0fa2	1.1627455e-06
125	0xb09a5340	-1.1228636e-09
126	0x35c10ecd	1.4383928e-06
127	0x352808c1	6.2597616e-07
128	0x310d7eb8	2.0590232e-09
129	0xb70b2a45	-8.294887e-06
130	0xb70dd73e	-8.45437e-06
131	0xb00309ff	-4.767173e-10
132	0xb1b2f2ae	-5.2080713e-09
133	0x33d75cb0	1.00285774e-07
134	0x360c89b8	2.0941789e-06
135	0x3415b68a	1.3943114e-07
136	0x34d30fc9	3.9313298e-07
137	0xb3ab2273	-7.969074e-08
138	0xafa66be4	-3.0271885e-10
139	0x36d53de9	6.355102e-06
140	0x32c2315d	2.260702e-08
141	0x3596a8ac	1.1224961e-06
142	0x378981a4	1.6392041e-05
143	0xb7586384	-1.2897774e-05
144	0x2d3bdd25	1.0678823e-11
145	0xb3d13e5d	-9.743665e-08
146	0xb13b2dc2	-2.7238092e-09
147	0x333cbd47	4.3944308e-08
148	0x338af755	6.471115e-08
149	0x3586001d	9.983811e-07
150	0xb032baba	-6.5021377e-10
151	0xb69d634c	-4.6905243e-06
152	0x3532025a	6.631359e-07
153	0x33ba7a43	8.683539e-08
154	0x9c0e96fb	-4.7178996e-22
155	0x3455e803	1.9921576e-07
156	0x34d94173	4.046702e-07
157	0xb6523797	-3.1324796e-06
158	0x344b56ea	1.8937467e-07
159	0x3376f719	5.7501072e-08
160	0x36a3f37a	4.886123e-06
161	0x34e2f5e6	4.2274695e-07
162	0x354fea07	7.7454064e-07
163	0x35a0226c	1.1930947e-06
164	0x2b469d6d	7.0562203e-13
165	0x3646f3f1	2.9646292e-06
166	0x3506213d	4.996726e-07
167	0xb31495f9	-3.4595335e-08
168	0x306de879	8.655046e-10
169	0x35a4dc5a	1.2283083e-06
170	0xb17a7cb1	-3.6450667e-09
171	0xb6b76421	-5.4654815e-06
172	0xb5a479cb	-1.2254399e-06
173	0x35639824	8.4785484e-07
174	0x3586fbe5	1.0057089e-06
175	0xb5e1b495	-1.6816363e-06
176	0x3543ba51	7.2914287e-07
177	0x2d822eff	1.480016e-11
178	0xb0c8bf2c	-1.460625e-09
179	0xafba392e	-3.3873832e-10
180	0xb2a51ffd	-1.9223075e-08
181	0x321a000e	8.963992e-09
182	0xb5723eca	-9.0243395e-07
183	0x3640ca61	2.872803e-06
184	0x34b8368a	3.4312353e-07
185	0x35a39c0e	1.2189864e-06
186	0xb2417591	-1.126081e-08
187	0x326bd5af	1.3727386e-08
188	0x35718cb9	8.9984275e-07
189	0x37c08305	2.2949194e-05
190	0x3504219b	4.9222734e-07
191	0x31223afa	2.3607627e-09
192	0xb12ebed5	-2.5428808e-09
193	0x3460647f	2.0898186e-07
194	0xb4e83cfc	-4.325774e-07
195	0x336a6c79	5.4581026e-08
196	0x2fc24a70	3.5341285e-10
197	0x200fff34	1.2197011e-19
198	0x3580a0e0	9.583564e-07
199	0x345da2a0	2.0641392e-07
200	0x37c7974a	2.3793098e-05
201	0x3694b640	4.4319604e-06
202	0xafb9eb63	-3.3818556e-10
203	0xb3738fdc	-5.6708686e-08
204	0xb32669e5	-3.8746197e-08
205	0x33b3c6fa	8.371531e-08
206	0x35baf316	1.3928827e-06
207	0xaea59c8e	-7.531141e-11
208	0x358f50c2	1.0677834e-06
209	0x353b7f69	6.9848335e-07
210	0x34e73a84	4.306968e-07
211	0xaf74b60b	-2.2256345e-10
212	0x333bc642	4.3719645e-08
213	0xb0c31dc3	-1.4196576e-09
214	0x3309d520	3.2091634e-08
215	0xb728eece	-1.0069181e-05
216	0x2bd141ab	1.486857e-12
217	0x2b65fac5	8.1705156e-13
218	0xb1d39659	-6.1580008e-09
219	0xb1237f1b	-2.3791873e-09
220	0x33aa61d9	7.93404e-08
221	0x325cf745	1.2861908e-08
222	0x3204c855	7.7289615e-09
223	0xb333c416	-4.1855024e-08
224	0x35358d14	6.763305e-07
225	0x2f9c5a87	2.8440558e-10
226	0xae11963f	-3.310263e-11
227	0x359abf18	1.152951e-06
228	0xae52a8aa	-4.7898276e-11
229	0xb1a4abc4	-4.7925557e-09
230	0x34cbdc2a	3.7971887e-07
231	0x33d39b61	9.8537164e-08
232	0x35427642	7.244272e-07
233	0xb59bdf7e	-1.1613445e-06
234	0x3331e704	4.142113e-08
235	0xad2c35c8	-9.78901e-12
236	0xb1d98cff	-6.3315606e-09
237	0xa91a9530	-3.432427e-14
238	0x2faae252	3.108363e-10
239	0xb531e414	-6.6269536e-07
240	0x326e7d62	1.3881932e-08
241	0xaf3325c4	-1.6293372e-10
242	0xb261c26d	-1.3140931e-08
243	0x2f577d52	1.9598659e-10
244	0x32ae21ab	2.0271576e-08
245	0xab02a110	-4.6408797e-13
246	0xb2b4c12d	-2.1042604e-08
247	0xb57d924a	-9.4462723e-07
248	0x30b640e5	1.3260687e-09
249	0x359d694d	1.1728058e-06
250	0x311109d0	2.1105855e-09
251	0x30ab0c8f	1.2445457e-09
252	0xb6248f75	-2.4521407e-06
253	0x2ca2c6ee	4.6264026e-12
254	0xaf264bfb	-1.5124606e-10
255	0xb5db9639	-1.6360492e-06

linear_hidden.0.bias f4 [256]
0	0x3585b39c	9.961545e-07
1	0xb6590d35	-3.2343207e-06
2	0x3a959b6b	0.0011414116
3	0xb50d2823	-5.2585e-07
4	0xb4f56781	-4.5710115e-07
5	0x3d82fc28	0.06395751
6	0x3d666452	0.056248017
7	0xb2b7f733	-2.1416417e-08
8	0x30db5d60	1.5960886e-09
9	0xb4821232	-2.4227626e-07
10	0x3b07af4f	0.0020703857
11	0x3d85ee02	0.06539537
12	0x350f5f31	5.3410173e-07
13	0xb31f1671	-3.7040483e-08
14	0xb4ad4320	-3.22726e-07
15	0xb9e343cb	-0.00043347324
16	0xb5d5090a	-1.5872367e-06
17	0x383f156a	4.5557892e-05
18	0x34462e5e	1.8457055e-07
19	0xb80f22c3	-3.412623e-05
20	0xb39776f5	-7.0531236e-08
21	0xb277ca3b	-1.4423274e-08
22	0x33e81c57	1.0808497e-07
23	0xb899e7c5	-7.338779e-05
24	0x3430e687	1.6475143e-07
25	0x3ad3965a	0.0016142831
26	0x3477abec	2.3066212e-07
27	0xb2af8e0e	-2.043728e-08
28	0xb3ebe71a	-1.09850774e-07
29	0xb1c04226	-5.5954557e-09
30	0xb7aa80bc	-2.0325526e-05
31	0xb6cce45c	-6.1062583e-06
32	0xb37ff077	-5.9590516e-08
33	0x339c8ca7	7.2899006e-08
34	0x3b02f253	0.0019980862
35	0x3451f405	1.9553416e-07
36	0xb64eb0bd	-3.0799267e-06
37	0x36a8cfe9	5.030994e-06
38	0xb8bb1d82	-8.922351e-05
39	0xb5e03f4e	-1.6707725e-06
40	0x9a4aaf06	-4.1914004e-23
41	0xb7020c63	-7.751488e-06
42	0x3b08e79d	0.0020890005
43	0xb2b0aa5c	-2.0566567e-08
44	0x3b1969cb	0.0023409005
45	0xb4690a88	-2.1703647e-07
46	0x39f25208	0.00046218955
47	0xb60e8501	-2.1237067e-06
48	0xb415d897	-1.3955501e-07
49	0xad80ccd2	-1.4642874e-11
50	0xb710b58e	-8.62534e-06
51	0xb2810ae1	-1.5022524e-08
52	0xb4ca8748	-3.7723862e-07
53	0xb82dd286	-4.144248e-05
54	0xb4096f7d	-1.2799678e-07
55	0xaf922d7a	-2.6589558e-10
56	0xb42ff242	-1.6386278e-07
57	0xb228e6b5	-9.831344e-09
58	0xb1051424	-1.9365496e-09
59	0xb30a72e4	-3.223512e-08
60	0xb4dca563	-4.1098528e-07
61	0xb92f1742	-0.00016697965
62	0x3b16fa63	0.0023037426
63	0xb91ed8de	-0.00015148844
64	0x3ad420a7	0.0016184048
65	0xb7a6b6a3	-1.9873789e-05
66	0x354b05bd	7.5631743e-07
67	0xb49e1346	-2.9443817e-07
68	0xb936af4a	-0.00017422173
69	0x33a9c012	7.904613e-08
70	0x3a72d7af	0.0009263707
71	0xb502ac7b	-4.8679766e-07
72	0xb0fb256d	-1.8273291e-09
73	0x3b1d43c0	0.002399668
74	0x3b190206	0.0023347153
75	0x39b7f74e	0.00035088736
76	0xb42e3f99	-1.622815e-07
77	0x32f3e6f8	2.8393956e-08
78	0x3b165bb0	0.0022942834
79	0x3883ad93	6.2788975e-05
80	0xb6af9c03	-5.2335686e-06
81	0xb4a6d69a	-3.1076053e-07
82	0x3dcb9fdc	0.099426
83	0x3e01bd05	0.12669761
84	0xba04c34d	-0.00050645025
85	0xb76e9220	-1.4219928e-05
86	0xb408636a	-1.2702154e-07
87	0xb889124e	-6.5360786e-05
88	0x30e2e7cb	1.6509544e-09
89	0x3b1700a3	0.002304115
90	0x3dcc7f4f	0.0998522
91	0xb753ac97	-1.2616764e-05
92	0x3b11b80e	0.002223495
93	0x3557afcd	8.0349565e-07
94	0x3b1796e4	0.002313071
95	0x32ed247b	2.760702e-08
96	0xb50bfeed	-5.21525e-07
97	0x3b02f5a0	0.001998283
98	0xb2a10cce	-1.874869e-08
99	0xb66df92b	-3.5460787e-06
100	0xb257ac32	-1.25538e-08
101	0xb9097cf2	-0.00013111884
102	0xb276ce2a	-1.4365961e-08
103	0x3d988c18	0.07448596
104	0x3aa05fe4	0.0012235609
105	0xb7b3c860	-2.143177e-05
106	0xb7fa0513	-2.9804685e-05
107	0xb73156e7	-1.0570256e-05
108	0xb3045737	-3.0812966e-08
109	0x351c6f1f	5.827623e-07
110	0x3b1a1727	0.0023512335
111	0xb54a280e	-7.530915e-07
112	0xb1ebe5cc	-6.865525e-09
113	0x3d9e2791	0.077223904
114	0x3b19ba89	0.002345713
115	0xb6980a4b	-4.5311513e-06
116	0xb513a2ef	-5.4998867e-07
117	0x3dfa47e3	0.122207426
118	0x3635675d	2.7031267e-06
119	0xb80ca290	-3.353e-05
120	0xb82da7f9	-4.140285e-05
121	0x341f0d8b	1.4812956e-07
122	0xb990f916	-0.00027651404
123	0xb58684e4	-1.0022454e-06
124	0x348f41a5	2.6683588e-07
125	0xb1ed90d0	-6.914071e-09
126	0x3b073998	0.0020633694
127	0x3ac612ce	0.0015111805
128	0x328e8fd3	1.659638e-08
129	0x3b17e6bb	0.0023178298
130	0x363e0fd9	2.832143e-06
131	0x3d9e921a	0.077427104
132	0xb6007ac1	-1.9144939e-06
133	0x350b0389	5.178668e-07
134	0x356e3682	8.874123e-07
135	0xb583f156	-9.830499e-07
136	0xb4ea7e95	-4.3677997e-07
137	0xb71bb98a	-9.281919e-06
138	0xb0e7427c	-1.6826358e-09
139	0xb8baade5	-8.9015615e-05
140	0xb6f445aa	-7.2798766e-06
141	0x3756137b	1.275993e-05
142	0x33d9786c	1.01267545e-07
143	0x340a0cc3	1.2856894e-07
144	0xb559b609	-8.1103695e-07
145	0xb65583d2	-3.1816203e-06
146	0xba0e2800	-0.00054228306
147	0xb93d87df	-0.0001807506
148	0xb8d63f79	-0.00010216138
149	0x35381eeb	6.8590333e-07
150	0x3d28a5fc	0.04117392
151	0xb6b2869a	-5.320483e-06
152	0x3dcb7dbb	0.099360906
153	0xb5679729	-8.6274173e-07
154	0xb7d8da67	-2.5850908e-05
155	0xb5006a2d	-4.783822e-07
156	0x344c014d	1.8999454e-07
157	0xb5eaa634	-1.748273e-06
158	0x3ae81590	0.0017706621
159	0xb2ff29bf	-2.9704891e-08
160	0xb8c17af8	-9.225862e-05
161	0xb9b9cda1	-0.00035439155
162	0xb1ce19c0	-5.9983165e-09
163	0xb4227238	-1.5128978e-07
164	0xb31dc120	-3.6730057e-08
165	0xb4285971	-1.5678758e-07
166	0xb56a1f74	-8.7217563e-07
167	0xb323158e	-3.7971e-08
168	0x3ad49533	0.0016218781
169	0x3ac4e2f0	0.0015021246
170	0x379c850a	1.86586e-05
171	0xb2200b7d	-9.315838e-09
172	0xb09bcfce	-1.1336796e-09
173	0xb6b2c6ae	-5.3279427e-06
174	0xae16ed2c	-3.4316702e-11
175	0xb713d2db	-8.810976e-06
176	0x3ab279d7	0.0013616633
177	0xb92b54fb	-0.00016339489
178	0xb31c281e	-3.6358067e-08
179	0x3af20688	0.0018465081
180	0xb792dcd9	-1.7507396e-05
181	0xb7b09923	-2.1052145e-05
182	0x3b075a51	0.0020653198
183	0x334f9148	4.8328076e-08
184	0x3b163a2c	0.0022922857
185	0xb6a5e813	-4.9444e-06
186	0xb2685c85	-1.3525214e-08
187	0xb342364b	-4.5218524e-08
188	0x2e1094a5	3.2873832e-11
189	0xb73539ea	-1.0801925e-05
190	0x34b7f103	3.4261765e-07
191	0xb53c8617	-7.0230584e-07
192	0xb97ed739	-0.00024303504
193	0xb66058f6	-3.3430383e-06
194	0x3b0f0c48	0.0021827389
195	0x3ad8cada	0.0016539947
196	0x3b1b7a69	0.0023724085
197	0xaf57b5cf	-1.9618727e-10
198	0xb496795f	-2.8027986e-07
199	0xae50c47e	-4.7468245e-11
200	0x3ad489fe	0.0016215441
201	0x3886b54c	6.423387e-05
202	0xb515576c	-5.563404e-07
203	0x354398fc	7.286578e-07
204	0x3b18f84b	0.0023341354
205	0x318e10f4	4.1346713e-09
206	0x3b031d19	0.0020006357
207	0x3d479dbb	0.048734408
208	0xb3d7d043	-1.00496e-07
209	0x3d9bbd59	0.076044746
210	0xb856be6a	-5.1198913e-05
211	0x3d939114	0.07205406
212	0xb64619fa	-2.951942e-06
213	0x3d955501	0.07291604
214	0xb2205dc1	-9.334543e-09
215	0xb1855047	-3.879936e-09
216	0x3ae01bad	0.0017098092
217	0xb96e3684	-0.00022717757
218	0xb4c5fed5	-3.6879524e-07
219	0xb7eb2efb	-2.803606e-05
220	0x3d9967a0	0.07490468
221	0xb53d19cc	-7.0445526e-07
222	0x35ff6353	1.9027888e-06
223	0x3b177fde	0.0023116986
224	0xb656f92c	-3.2033522e-06
225	0x37a35d63	1.94746e-05
226	0x3adc8e5c	0.0016827094
227	0xb52c1217	-6.410132e-07
228	0x3b006a39	0.0019594564
229	0x3d9d4780	0.07679653
230	0xb7fb35e3	-2.9946625e-05
231	0x36a85eec	5.0178405e-06
232	0xb2488344	-1.16713785e-08
233	0x360f006c	2.1308906e-06
234	0x3b0883bd	0.0020830475
235	0xb948585b	-0.00019106401
236	0xb8104f2b	-3.4406006e-05
237	0x35421846	7.2305954e-07
238	0x3d78927a	0.060686566
239	0x39cb2598	0.00038747187
240	0x34240092	1.5273898e-07
241	0x3226e70d	9.715007e-09
242	0xb6d46a68	-6.3304797e-06
243	0x3873310d	5.7981397e-05
244	0xb304256a	-3.0767673e-08
245	0xb20d14fe	-8.212053e-09
246	0x3afd794a	0.0019338515
247	0xb2a22601	-1.8876564e-08
248	0xb491c809	-2.71539e-07
249	0xb41663ab	-1.4006098e-07
250	0xb67b03dd	-3.7404163e-06
251	0xb523d2d5	-6.1029033e-07
252	0x3b122c48	0.0022304226
253	0x3d82112b	0.06350931
254	0xb58bd140	-1.0417207e-06
255	0xb17af6d2	-3.652009e-09

linear_output.weight f4 [1, 256]
0	0xb64879a5	-2.9873129e-06
1	0xb6129d48	-2.1847245e-06
2	0xbd8c96d3	-0.06864705
3	0xb3dfcd84	-1.042163e-07
4	0x33af2f0f	8.1576324e-08
5	0x3e206247	0.1566249
6	0x3e0d99b5	0.13828166
7	0x32bc1ab4	2.1898224e-08
8	0x30507dfc	7.5848994e-10
9	0xb41e3a76	-1.4736165e-07
10	0xbde8c4cd	-0.11365662
11	0x3e23e149	0.16003908
12	0xb4901c04	-2.6842474e-07
13	0xb3736bc7	-5.667587e-08
14	0xb603a2e7	-1.9615343e-06
15	0xb9a6946d	-0.00031772573
16	0xb4f8c335	-4.6335632e-07
17	0xbc2c4234	-0.010513831
18	0xb532d3d0	-6.6618395e-07
19	0x37ef393a	2.8517668e-05
20	0x3329fc4a	3.9577834e-08
21	0xb387a6bb	-6.3167555e-08
22	0x3351dd41	4.8862834e-08
23	0x36ea5635	6.9837793e-06
24	0xb4d278f8	-3.9203564e-07
25	0xbdcc7333	-0.0998291
26	0xb4af2086	-3.2619954e-07
27	0x3236ee64	1.0647998e-08
28	0x342ba9a9	1.5987338e-07
29	0xb3735d3f	-5.6662653e-08
30	0xb8a55bc0	-7.884903e-05
31	0xb6cc437f	-6.0875313e-06
32	0xb509fb05	-5.140176e-07
33	0x34fff6a5	4.767691e-07
34	0xbe0c3655	-0.13692601
35	0x34be5988	3.54554e-07
36	0xb5716ba5	-8.993614e-07
37	0xb7a775b8	-1.9962768e-05
38	0x389025e1	6.8735106e-05
39	0xb7260cf2	-9.897385e-06
40	0x0000010f	3.8e-43
41	0xb6111dad	-2.1623957e-06
42	0xbe037c38	-0.12840354
43	0x33199705	3.576044e-08
44	0xbe6351a5	-0.22199114
45	0x34a5ce84	3.0883905e-07
46	0xbce422c9	-0.027848618
47	0xb232a70d	-1.0398947e-08
48	0x33ec1f21	1.0995269e-07
49	0x0b117758	2.8015768e-32
50	0xb70ca350	-8.382674e-06
51	0x34a177a2	3.007563e-07
52	0xb1a9cb90	-4.9416897e-09
53	0x362d5d4e	2.583332e-06
54	0x3503810d	4.8989097e-07
55	0x325f243c	1.2988547e-08
56	0xb53a00a3	-6.9291326e-07
57	0x305bc770	7.9955154e-10
58	0xadbe8776	-2.1660656e-11
59	0xb3383e98	-4.2897767e-08
60	0xb3810ea5	-6.0096944e-08
61	0x398115a3	0.00024620918
62	0xbe39596c	-0.18100518
63	0x37dba015	2.6181378e-05
64	0xbdc4f6b0	-0.096173644
65	0xb7b69348	-2.1764674e-05
66	0xb54e2ab5	-7.6803127e-07
67	0xb5484700	-7.4609125e-07
68	0xb91d2b15	-0.00014988736
69	0x33a11ea6	7.5027216e-08
70	0xbcd87471	-0.026422711
71	0x33495c22	4.6882754e-08
72	0x305edab1	8.107391e-10
73	0xbe6c6d7d	-0.23088641
74	0xbe4fe783	-0.20303158
75	0xbca326ef	-0.019916026
76	0xb350f005	-4.864707e-08
77	0xb3dad695	-1.0190448e-07
78	0xbe3a043e	-0.18165681
79	0x396c9a44	0.00022564182
80	0xb69cc459	-4.67202e-06
81	0xb56eac47	-8.8912606e-07
82	0x3e75079b	0.23928683
83	0x3e9abd55	0.30222574
84	0x3b0c75e1	0.0021432566
85	0x3786abb2	1.6053997e-05
86	0x341cf3e6	1.4617362e-07
87	0x37bbe970	2.240084e-05
88	0x32380b35	1.0712758e-08
89	0xbe3b4856	-0.18289313
90	0x3e760b68	0.24027789
91	0xb73e68c9	-1.134928e-05
92	0xbe279dba	-0.16368762
93	0xb5e04c0b	-1.6711432e-06
94	0xbe3ddf58	-0.1854223
95	0xb32fa199	-4.0892335e-08
96	0x332e2b18	4.0551726e-08
97	0xbe0accd7	-0.13554703
98	0xb3539abd	-4.9268e-08
99	0xb623cdc1	-2.4408657e-06
100	0xb204a93b	-7.72189e-09
101	0x399716b3	0.00028817877
102	0xb3c59355	-9.200327e-08
103	0x3e39b126	0.18133983
104	0xbd95f452	-0.07321991
105	0x36a9a9a1	5.05634e-06
106	0x3a07658a	0.0005164972
107	0x352269b3	6.0503515e-07
108	0x3493b5e4	2.7513227e-07
109	0xb57b497d	-9.3611726e-07
110	0xbe5bcba4	-0.21464401
111	0xb65a31bc	-3.251348e-06
112	0xb31d342f	-3.660187e-08
113	0x3e402cc1	0.18767072
114	0xbe59a2cc	-0.21253508
115	0x3688382e	4.059656e-06
116	0x33fb20ab	1.16940406e-07
117	0x3e956a3f	0.29182622
118	0x3683c344	3.926836e-06
119	0xb78e0ece	-1.6934613e-05
120	0xb9a07996	-0.00030608167
121	0x3157c807	3.140032e-09
122	0x388e212e	6.777268e-05
123	0xb7513e87	-1.2471929e-05
124	0xb5a9522a	-1.2615394e-06
125	0x328189f5	1.5080312e-08
126	0xbe19d1db	-0.1502146
127	0xbdbefa23	-0.093250535
128	0x349e5714	2.949315e-07
129	0xbe3c9d57	-0.18419395
130	0xb646d7b4	-2.9629855e-06
131	0x3e40af51	0.18816878
132	0x355e229a	8.2751797e-07
133	0x32738d02	1.4176523e-08
134	0xb5e3bb37	-1.6967305e-06
135	0x34662946	2.1435434e-07
136	0x353ee6b2	7.111622e-07
137	0xb697c67d	-4.5232578e-06
138	0xb3be38cd	-8.8578965e-08
139	0x390f8776	0.00013688006
140	0x370140d3	7.704092e-06
141	0xb7e8204a	-2.7671591e-05
142	0xb4d007c9	-3.8748684e-07
143	0xb55c6433	-8.2102196e-07
144	0xb60168bd	-1.9283464e-06
145	0x3329b479	3.9512518e-08
146	0xb97c4d1f	-0.00024061323
147	0xb852f499	-5.02957e-05
148	0xb92dfb3e	-0.0001659216
149	0xb574883b	-9.1095325e-07
150	0x3dd09f54	0.101866394
151	0xb4a090e1	-2.9907736e-07
152	0x3e74df11	0.23913218
153	0xb5082cbf	-5.072906e-07
154	0x35bae216	1.392388e-06
155	0xb541d220	-7.2203875e-07
156	0x348d4cc2	2.6319145e-07
157	0x35de0e2d	1.6544415e-06
158	0xbddcdd8b	-0.107844435
159	0x31f54edf	7.139405e-09
160	0x392ac32a	0.00016285168
161	0xb920c842	-0.00015333391
162	0xb1ac9b79	-5.023534e-09
163	0xb422f9d4	-1.5178313e-07
164	0xafaec972	-3.179355e-10
165	0xb4326572	-1.6614447e-07
166	0x3452d0b7	1.9633704e-07
167	0xb3fcd4e9	-1.17733926e-07
168	0xbdcae00a	-0.09906013
169	0xbd7b61b7	-0.061372485
170	0xb7fc6063	-3.0085625e-05
171	0xb273238f	-1.4152547e-08
172	0xad9e8e71	-1.8025777e-11
173	0x36079cba	2.0207794e-06
174	0x3139898f	2.6999236e-09
175	0x368fd94b	4.2870283e-06
176	0xbda5ff55	-0.08105341
177	0xb91618e0	-0.00014314381
178	0xb3850092	-6.193399e-08
179	0xbddddc64	-0.10833052
180	0xb5946932	-1.1057475e-06
181	0xb6f7404d	-7.368659e-06
182	0xbde32c3b	-0.11092421
183	0x34d52a2f	3.9705034e-07
184	0xbe3bd8da	-0.18344441
185	0x37b88b45	2.1999362e-05
186	0xb15bbd34	-3.1976244e-09
187	0xb240cdbb	-1.1222649e-08
188	0xafaaac7b	-3.1045375e-10
189	0xb6fb0f0a	-7.4821337e-06
190	0xb798f1f6	-1.8232484e-05
191	0xb4bcebd8	-3.5189328e-07
192	0x39017e4a	0.00012349445
193	0x35feb800	1.8978026e-06
194	0xbdf7767f	-0.12083148
195	0xbdf3cc7c	-0.11904237
196	0xbe5ed35e	-0.21760318
197	0xafbec9ba	-3.4704134e-10
198	0x34734328	2.265557e-07
199	0xb03bf99f	-6.8384937e-10
200	0xbd612bea	-0.05497352
201	0xb89bd6ed	-7.431009e-05
202	0x35413bd7	7.198518e-07
203	0x360d1a66	2.1026003e-06
204	0xbe5a3144	-0.21307856
205	0xb101e5e0	-1.890264e-09
206	0xbe0b86eb	-0.13625686
207	0x3df667e0	0.12031531
208	0x3401586b	1.2046227e-07
209	0x3e3d5f83	0.18493466
210	0xb69830ec	-4.5356483e-06
211	0x3e33e71b	0.17568628
212	0x3484ebde	2.4758532e-07
213	0x3e35e1da	0.17761937
214	0xb32dda0e	-4.047802e-08
215	0xb32abeaa	-3.9754617e-08
216	0xbdd3f058	-0.10348576
217	0x3841635d	4.6107325e-05
218	0xb63b7ca0	-2.7937713e-06
219	0x359c620e	1.1651443e-06
220	0x3e3ab974	0.18234807
221	0xb5baf7af	-1.3930165e-06
222	0xb677e1d5	-3.693732e-06
223	0xbe5edca4	-0.21763855
224	0xb604c016	-1.9781342e-06
225	0x37063618	7.999617e-06
226	0xbdf6e226	-0.12054853
227	0x35ac21d4	1.2824844e-06
228	0xbe0a1081	-0.13482858
229	0x3e3f2e08	0.18669903
230	0xb769c3f1	-1.3933503e-05
231	0xb7703893	-1.4318287e-05
232	0x32e8e2e8	2.711154e-08
233	0xb5bcf5f7	-1.4078677e-06
234	0xbe15a382	-0.14613155
235	0xb8fdf799	-0.00012110099
236	0x37a38096	1.9490992e-05
237	0xb5bfcb60	-1.4289799e-06
238	0x3e187625	0.14888819
239	0x3ab98814	0.0014154934
240	0xb481330f	-2.4065272e-07
241	0x3414b1a8	1.3848205e-07
242	0x371cb446	9.340298e-06
243	0xb85d6c61	-5.279144e-05
244	0x34ae9153	3.2515763e-07
245	0x321d04cf	9.139696e-09
246	0xbe085655	-0.13314183
247	0xb21fdaba	-9.304751e-09
248	0xb5dbe9f1	-1.6384857e-06
249	0xb56635da	-8.576004e-07
250	0xb5f0c5fa	-1.7939012e-06
251	0x35bfdc77	1.4294773e-06
252	0xbe2c6f12	-0.16839245
253	0x3e1f54b9	0.15559663
254	0xb53c46ab	-7.0138293e-07
255	0xb1f29a7b	-7.0606894e-09

exp_avg f4 [256, 17]
0	0x3a04266a	0.00050411245
1	0xbad90adf	-0.0016559026
2	0xb9feb3c3	-0.00048580588
3	0x392ba8f2	0.00016370768
4	0x39d2cae2	0.0004020548
5	0xbae1211f	-0.0017176009
6	0xb9f51ff2	-0.00046753843
7	0x392cd1e4	0.00016481389
8	0x3915511d	0.00014239964
9	0xbb05574b	-0.002034622
10	0xb9f33c02	-0.0004639328
11	0x39289e21	0.00016080636
12	0x3a6ec13a	0.00091077725
13	0xbb76b737	-0.0037645826
14	0xba5615a8	-0.0008166679
15	0xbac2117d	-0.0014806237
16	0xbad9f3e8	-0.0016628476
17	0x2ffaa37c	4.5590898e-10
18	0x30296c83	6.1636046e-10
19	0xb15df0b6	-3.229656e-09
20	0xaf0bbb8a	-1.2708604e-10
21	0x3001499b	4.7034526e-10
22	0x303cce55	6.8687217e-10
23	0xb15c1782	-3.2027576e-09
24	0xaf0c9191	-1.2784641e-10
25	0x3013edae	5.381605e-10
26	0x304cedec	7.4552875e-10
27	0xb159529d	-3.1624616e-09
28	0xaf0b58a7	-1.2673472e-10
29	0x30b10ba4	1.2881753e-09
30	0x30957be4	1.0876389e-09
31	0x3110bd20	2.1062263e-09
32	0x30e85e5c	1.690704e-09
33	0x301455f3	5.396423e-10
34	0xb8afb004	-8.377436e-05
35	0x384c80c7	4.8757323e-05
36	0x397376e2	0.00023218573
37	0xb805e657	-3.192419e-05
38	0xb8aaf52c	-8.1518985e-05
39	0x385f72cc	5.3274256e-05
40	0x39760d5d	0.00023465366
41	0xb80597a4	-3.1850897e-05
42	0xb8a32bda	-7.780614e-05
43	0x3875701d	5.8516966e-05
44	0x3977ce1c	0.00023632537
45	0xb805f36a	-3.1936368e-05
46	0xb91a536f	-0.00014717666
47	0x387774e3	5.899825e-05
48	0xb7f085f6	-2.867261e-05
49	0x368d8245	4.217293e-06
50	0x389781b4	7.2244e-05
51	0xb43a3176	-1.7340594e-07
52	0xb294fac4	-1.7343503e-08
53	0x372acc5e	1.0180373e-05
54	0xb32fcc7e	-4.0931347e-08
55	0xb42a6ff5	-1.5873213e-07
56	0xb3225274	-3.7793555e-08
57	0x3728685d	1.0037879e-05
58	0xb3332406	-4.170945e-08
59	0xb408928f	-1.2719305e-07
60	0xb33686e7	-4.249787e-08
61	0x371fd948	9.527728e-06
62	0xb3314bcb	-4.1279957e-08
63	0xb6210224	-2.3992116e-06
64	0x33f32a8f	1.13233106e-07
65	0xb431f8ef	-1.6574971e-07
66	0xb3fff13a	-1.1918242e-07
67	0x324004eb	1.1176989e-08
68	0xb1f92f95	-7.2522632e-09
69	0x311bfbdb	2.2698632e-09
70	0xb28b1fe4	-1.6196232e-08
71	0xb2118b8b	-8.471839e-09
72	0xb1dbe75d	-6.400042e-09
73	0x30c527f7	1.4344995e-09
74	0xb2858475	-1.5543472e-08
75	0xb211c73e	-8.485413e-09
76	0xb1b465b1	-5.2502505e-09
77	0x2faf718f	3.1913003e-10
78	0xb27bd14a	-1.465771e-08
79	0xb210e027	-8.4328695e-09
80	0x323c1389	1.0947482e-08
81	0xafbb523f	-3.407354e-10
82	0x30c8e7bb	1.4617777e-09
83	0x3102185a	1.8931332e-09
84	0xb1e338a7	-6.61301e-09
85	0xb263f620	-1.3269101e-08
86	0x324f31f3	1.2060343e-08
87	0x3296a9a1	1.7539437e-08
88	0xb1a32062	-4.747606e-09
89	0xb237ec0a	-1.0705671e-08
90	0x3195e90f	4.3629664e-09
91	0x324505d9	1.1468239e-08
92	0xb19f6f80	-4.640185e-09
93	0xb1fc241c	-7.3382704e-09
94	0xb1c16b82	-5.6292615e-09
95	0x31b62d1d	5.302026e-09
96	0xb19f0c58	-4.6289124e-09
97	0x31a4ce8d	4.7965103e-09
98	0xaff7cc6f	-4.5074297e-10
99	0x31eec3f8	6.9489907e-09
100	0x320c79f7	8.176804e-09
101	0xb22a27e7	-9.904375e-09
102	0xb256972a	-1.249081e-08
103	0x2aa36fd0	2.9032202e-13
104	0x3687d5d5	4.048207e-06
105	0xaa238ee1	-1.4526879e-13
106	0xb2a72237	-1.9456918e-08
107	0x2c25e3f1	2.3574443e-12
108	0x366898a1	3.4659536e-06
109	0xaa23d403	-1.4550865e-13
110	0xb324d875	-3.8381092e-08
111	0x2fdb09cd	3.9842832e-10
112	0x3636f2a0	2.726134e-06
113	0xaa21fd22	-1.4387496e-13
114	0xb60cd05f	-2.0982914e-06
115	0xb4ba5573	-3.4707372e-07
116	0xb5dde698	-1.6532895e-06
117	0xb6395365	-2.761569e-06
118	0x341b602c	1.4470487e-07
119	0x3983c3ad	0.00025132057
120	0x3a7520ef	0.0009350916
121	0xbb2c1877	-0.00262597
122	0x397e1d4e	0.00024234244
123	0x398be83c	0.00026685174
124	0x3a8edc48	0.0010899389
125	0xbb235c04	-0.0024926672
126	0x3980b3c7	0.00024548007
127	0x39c7f1cf	0.000381364
128	0x3aac8c2e	0.0013164335
129	0xbb1a2636	-0.002352131
130	0x398117f9	0.00024622658
131	0x3aa9bdc7	0.0012950235
132	0x3a927c76	0.0011176008
133	0x3ab78495	0.0014001305
134	0x3aaca2c7	0.001317107
135	0x3977b21f	0.00023622111
136	0xb02d3ba2	-6.3021777e-10
137	0xae5850e5	-4.9184563e-11
138	0x30ca6a3f	1.4727631e-09
139	0xae1c3d6f	-3.5524857e-11
140	0xb03603a0	-6.6216366e-10
141	0xaf86e283	-2.4535404e-10
142	0x3096a90f	1.0961986e-09
143	0xae0df076	-3.227326e-11
144	0xb056a868	-7.8092066e-10
145	0xb02d9db0	-6.316112e-10
146	0x3023522d	5.9415833e-10
147	0xae0fc2ee	-3.2687568e-11
148	0xb09a9304	-1.1246759e-09
149	0xb05b4a22	-7.9777085e-10
150	0xb07eb8e1	-9.266739e-10
151	0xb0801f8a	-9.32219e-10
152	0x30a7e12f	1.221485e-09
153	0x2c07e50f	1.9311807e-12
154	0x2da57ce5	1.8813793e-11
155	0x2e0b6755	3.1696718e-11
156	0xac313817	-2.518435e-12
157	0x2c22d59d	2.3140164e-12
158	0x2db559d8	2.0617216e-11
159	0x2df892c6	2.8259516e-11
160	0xac311fe8	-2.5170924e-12
161	0x2c80a8cb	3.6567186e-12
162	0x2dc11828	2.1952287e-11
163	0x2de2e8fb	2.579669e-11
164	0xac2ef246	-2.4861376e-12
165	0xadfa1488	-2.8430827e-11
166	0x2d693997	1.3257304e-11
167	0xac83082c	-3.724151e-12
168	0xad080b80	-7.7332585e-12
169	0x2d9030ef	1.6392636e-11
170	0x2c0a565e	1.9658923e-12
171	0xacbc879e	-5.358338e-12
172	0x2ea212e1	7.3702607e-11
173	0x2c567477	3.047588e-12
174	0x2ade6b31	3.95095e-13
175	0xad2494e6	-9.355383e-12
176	0x2eae48ab	7.925512e-11
177	0x2c50e846	2.9687515e-12
178	0xac692969	-3.3134279e-12
179	0xad80a52b	-1.4625265e-11
180	0x2eb5ef5c	8.273446e-11
181	0x2c4e7656	2.934005e-12
182	0x2b628e91	8.048918e-13
183	0xae116e4b	-3.3067143e-11
184	0xad934ab4	-1.674514e-11
185	0xadd2e44c	-2.397562e-11
186	0x2dc7ae15	2.2700989e-11
187	0xb1d2b27d	-6.132096e-09
188	0x30f0684f	1.7491945e-09
189	0x357ed687	9.493455e-07
190	0x3037298b	6.663405e-10
191	0xb1dc83ef	-6.417842e-09
192	0x3102908e	1.899966e-09
193	0x35756869	9.142155e-07
194	0x30380cf0	6.6957195e-10
195	0xb1d9478a	-6.3236643e-09
196	0x3138ef44	2.691153e-09
197	0x355d1ff2	8.23754e-07
198	0x303615bc	6.62421e-10
199	0xb4517a85	-1.9509214e-07
200	0x3044006f	7.1305e-10
201	0xb38b2f9f	-6.481354e-08
202	0xb2a05f67	-1.8669835e-08
203	0x341ae722	1.4426453e-07
204	0xb2c273ad	-2.2637176e-08
205	0x32b80031	2.1420506e-08
206	0xb3eee8a4	-1.1125056e-07
207	0xb38361f5	-6.117981e-08
208	0xb290d60f	-1.6861149e-08
209	0x32a7c5a6	1.9531239e-08
210	0xb3e1b81a	-1.0510867e-07
211	0xb383c7bb	-6.1364936e-08
212	0xb2315236	-1.0321449e-08
213	0x32892038	1.596355e-08
214	0xb3da9f92	-1.0180442e-07
215	0xb382fbfc	-6.0994324e-08
216	0x33b1c0da	8.277284e-08
217	0x32c4f4f6	2.2928798e-08
218	0xb28311e3	-1.5258541e-08
219	0xb2169335	-8.76462e-09
220	0xb329634e	-3.9438696e-08
221	0xb864cb95	-5.4549037e-05
222	0x37d71eec	2.5644396e-05
223	0x392c8d9b	0.0001645595
224	0xb7d2689d	-2.5082665e-05
225	0xb8598bd1	-5.1867046e-05
226	0x37f1583f	2.8770532e-05
227	0x392e039e	0.0001659528
228	0xb7d14933	-2.4948828e-05
229	0xb84a636d	-4.825315e-05
230	0x3805fe8d	3.194674e-05
231	0x392efc88	0.00016688008
232	0xb7d1dc9c	-2.501747e-05
233	0xb908074e	-0.00012972692
234	0x38810746	6.152554e-05
235	0xb829f844	-4.0523955e-05
236	0xb78b8d19	-1.6635795e-05
237	0x387d6458	6.0413353e-05
238	0x35ca212d	1.5059828e-06
239	0x35b619d5	1.3567575e-06
240	0xb8061546	-3.1967902e-05
241	0xb6ab8b4f	-5.112415e-06
242	0x361287e7	2.18348e-06
243	0x35c9c7c8	1.5033811e-06
244	0xb8034bd4	-3.1303454e-05
245	0xb6acc2d3	-5.14868e-06
246	0x366ab4f3	3.4974044e-06
247	0x361aaae4	2.304726e-06
248	0xb7fe2204	-3.0295e-05
249	0xb6aaf3e9	-5.0947897e-06
250	0x374aa76e	1.2079121e-05
251	0x3723b450	9.757539e-06
252	0x37d1df33	2.5018677e-05
253	0x37b2ceb7	2.1315513e-05
254	0xb6fe396c	-7.5764747e-06
255	0xace5da8a	-6.532834e-12
