src/scripts/weights/resnet128_20hz_sf0.5_3state/actor.pth (torch, 143183 bytes, 8 tensors)

linear0.weight f4 [128, 12]
000000 77 8c 7a be eb 79 85 be 58 90 ab bc 7b 15 55 bd
       -0.24467646 -0.2606958 -0.020942852 -0.05202244
000010 51 4a 9d 3e 5a 0d a2 3d 4b 03 cf 3d 76 b4 89 be
       0.3072076 0.07912703 0.1010805 -0.26895493
000020 3b ff f9 bc 60 45 1f 3e 73 f8 7a be 60 6d 36 3d
       -0.030517211 0.15553808 -0.24508838 0.044537902
000030 2a 82 10 be 7d 00 58 bd b2 cd 2e 3e 0a b0 d0 3d
       -0.14112154 -0.05273484 0.17070654 0.10189827
000040 3c 26 7c 3e 57 5f 80 bd f9 30 d8 3e 62 fe 86 3e
       0.2462396 -0.06268185 0.42224863 0.26365954
000050 ba 46 9e 3d a5 d4 fd bc 48 4b 97 3e 21 79 a1 3e
       0.07728334 -0.030985186 0.29549623 0.31537727
000060 39 bf 38 3c a9 c6 cd 3e ea 29 3b bd 6a 69 ca 3e
       0.01127606 0.40190628 -0.04569427 0.3953355
000070 68 8c 92 3d 61 9f 13 3f 6d a2 2f be f8 02 b8 3e
       0.071556866 0.5766507 -0.17151804 0.35939765
000080 a9 c1 d6 be e9 f5 00 3f 82 c8 59 3e 46 c1 77 3e
       -0.41944626 0.5037523 0.21267894 0.24194822
000090 45 d4 82 3b 54 ab 9f 3d b0 b3 31 3e 0f ab 07 3e
       0.0039925897 0.0779635 0.17353702 0.13248847
0000a0 3d 29 9f 3e b0 52 71 3e 02 27 4f be 75 e1 1c 3e
       0.3108615 0.23566699 -0.20229724 0.1532038
0000b0 f2 95 56 3e 42 ce 82 bd 88 46 4a be 75 04 07 3e
       0.20955637 -0.06386997 -0.19753468 0.13185294
0000c0 32 6c 04 bf 38 26 86 3e d8 ff a7 3d a4 2a fc 3c
       -0.5172759 0.26201034 0.08203095 0.030782051
0000d0 26 9e c4 be b2 4d ba 3d c3 ca 66 bd bf a3 03 be
       -0.38401908 0.090968505 -0.056345712 -0.12855433
0000e0 57 71 75 bd f4 13 70 3c f1 ee ab be fb a8 b7 be
       -0.059922542 0.014653195 -0.33580735 -0.3587111
0000f0 e0 ba 37 be f9 08 11 be a6 42 5b 3d 12 64 d7 3e
       -0.17942381 -0.14163579 0.053530358 0.42068535
000100 4b a2 9f be 42 a7 7e 3e 01 4d 7a 3d 00 04 be 3e
       -0.31178507 0.24868491 0.061108593 0.37112427
000110 78 c8 ae be ee c9 c4 3d 6a 0c 80 be d9 d9 b2 3d
       -0.3413732 0.096088275 -0.2500947 0.087329574
000120 15 88 5c be 60 2c 3d bd 32 08 e4 bd de 38 bc 3e
       -0.21536286 -0.046184897 -0.11134376 0.36762136
000130 80 3d 31 be 06 24 a2 3e 45 eb f7 3d 84 54 c5 3d
       -0.17308617 0.3166811 0.12105421 0.09635261
000140 19 04 37 be d2 7c 49 3e b4 6c d9 bd ff 11 fe bd
       -0.17872657 0.19676521 -0.106164366 -0.12405776
000150 cf 98 83 be da f6 c0 3d 4e 32 83 be ee a3 57 3d
       -0.2570252 0.09422083 -0.25624317 0.05264657
000160 1b 50 03 3e a7 c5 a8 3d 29 e5 df bd 21 62 64 3d
       0.12823527 0.08240824 -0.10932381 0.055757646
000170 ad b2 27 be 9a 37 c9 3c 8e 4b 23 3d c8 f8 6c be
       -0.16376753 0.024562646 0.039866976 -0.23141778
000180 72 bf 9d be 9f 9e c5 bc 72 e1 29 be 9f b1 0f 3e
       -0.30810124 -0.024123488 -0.16589907 0.14032601
000190 0e 41 c8 be a5 69 21 3e f7 e0 3c bc 1e cb 7c 3e
       -0.39112133 0.15762956 -0.011528245 0.24686858
0001a0 8c 1b 21 bf 7c aa 93 3e aa 91 fa 3d 58 99 f2 3d
       -0.6293266 0.28841007 0.122348145 0.11845654
0001b0 8c 20 4c be 29 05 66 bb bb 38 17 3e f5 62 3e 3e
       -0.1993429 -0.003509829 0.14767735 0.18592437
0001c0 ed d0 e6 bd b5 5c dd bc 50 0a 20 be de df b3 bd
       -0.11270318 -0.027021745 -0.15628934 -0.08782934
0001d0 1b 4c 46 be 75 e7 99 3e 1b 92 92 be b5 88 a0 3b
       -0.1936497 0.300594 -0.28627095 0.0048991092
0001e0 d3 a8 7b 3e 27 33 91 be 37 6e 8a bd e4 9d 81 bb
       0.2457612 -0.2835934 -0.06759303 -0.0039555896
0001f0 62 a7 25 bc 8b d0 a7 be 29 4f 26 3e ac 80 86 3e
       -0.010110708 -0.32776293 0.16241135 0.26270044
000200 e3 fa e5 3d 2b 2e 52 bd 47 c6 db bc ab 8d 9d 3c
       0.112294935 -0.05131356 -0.026827944 0.019232592
000210 79 1a 99 3e cb 2f 59 3d 64 a0 1f 3e 4a 84 5a be
       0.2990301 0.053024095 0.15588528 -0.21339527
000220 d2 2b 96 3e a9 7c 0a 3d 89 54 aa 3d 1c 1d 35 3e
       0.29330307 0.03381029 0.08316905 0.17686886
000230 cb 0d ba 3e 8d c6 60 3e 26 4d 35 be 70 ec 70 be
       0.36338648 0.21950741 -0.17705211 -0.23527694
000240 98 3d da bd 19 39 39 bd b6 e9 b2 3d 7b 51 52 be
       -0.10656279 -0.04522047 0.08735983 -0.20538895
000250 c3 c1 94 3d 5d cf a6 3d 4e 11 51 3e d1 a1 8d be
       0.072635196 0.0814502 0.20416757 -0.2766252
000260 a0 df b7 3c c6 19 b7 3d ca c3 95 be f9 d0 7a bd
       0.0224455 0.08940463 -0.29250938 -0.061234448
000270 91 7e 0c be 29 73 15 3e a3 4f b0 be 43 65 32 3e
       -0.13720156 0.14594711 -0.34435758 0.17421441
000280 5c bd 62 be 38 0f fc bd cc 79 36 3e f8 a7 65 be
       -0.22142547 -0.1230759 0.178199 -0.22427356
000290 96 b5 5e be d8 61 b1 be 2c 32 0d 3e 4e 56 a5 3e
       -0.21748957 -0.3464496 0.1378867 0.32292408
0002a0 82 07 1b be 69 e8 22 be 9f d4 36 3d c2 23 4f 3e
       -0.15139583 -0.1590897 0.044636365 0.20228484
0002b0 b8 51 88 3e 35 40 97 3e 58 56 16 3e c9 b9 9d bc
       0.26624846 0.29541174 0.14681375 -0.019253628
0002c0 02 df 26 be e3 d0 33 be ba b4 cd 3c 03 f6 2c bd
       -0.16296008 -0.17560153 0.025110591 -0.042226803
0002d0 59 ea d8 bd bd a9 08 3e c8 38 b8 bc 3b 9e 85 3d
       -0.10591573 0.13346 -0.022488013 0.06524321
0002e0 ac 28 c0 3c 03 79 ce bd 55 92 8a bd b1 e3 00 be
       0.023456894 -0.10081675 -0.06766192 -0.12586857
0002f0 8f 5c 12 3d 76 48 3c bc d4 54 52 be 57 2f 19 3d
       0.035732802 -0.011491885 -0.20540172 0.037398662
000300 f2 8e 8f 3c 70 f3 53 3e 2b d3 47 3e dc 44 7e be
       0.017524216 0.20698333 0.19514148 -0.24830955
000310 fd 6b a8 3c c3 1d 9b 3e ee 1b 6a be 65 1c 95 bd
       0.020559305 0.30296144 -0.22862217 -0.072808065
000320 da 43 c1 be df f1 93 3d e0 eb 2e be ef cb ea 3d
       -0.3774708 0.072238676 -0.17082167 0.114646785
000330 6f 00 40 be 3e 3e 0a 3e 28 49 34 be 2b fd 5c 3e
       -0.18750165 0.13500306 -0.17606032 0.21580951
000340 ec 8e 9e 3e ac 63 b0 3d 16 48 75 3e 43 17 33 be
       0.30968416 0.08612761 0.2395328 -0.17489342
000350 40 0a 56 3e d0 af 2f 3e 9d 8b 27 3e 03 52 8d bd
       0.20902348 0.17156911 0.16361852 -0.06900408
000360 25 8c c5 bd 02 56 72 3e bc aa 75 be ab d8 70 be
       -0.09645871 0.23665622 -0.23990911 -0.23520152
000370 a2 37 86 bc 4b 25 1b be 9f 32 92 be f9 68 c7 3d
       -0.01638395 -0.15150945 -0.28554246 0.09736819
000380 57 85 04 bc a7 76 3d 3e 92 51 3c 3d 3c 93 13 3e
       -0.008088431 0.18502294 0.04597623 0.14411634
000390 df bc 30 3e 56 06 8a bd 79 de 0c 3e bb 0c 38 3b
       0.17259549 -0.0673949 0.13756742 0.002808376
0003a0 69 9c a0 3e 70 0e b0 bd 50 79 50 3d f4 b5 3a be
       0.3136933 -0.08596504 0.050896943 -0.18233472
0003b0 4d 34 16 3e 22 1e e1 ba df e9 84 be be 1d 8e be
       0.14668389 -0.0017175118 -0.2595968 -0.27757066
0003c0 f6 f9 78 bd 1a f6 6c be 25 c5 63 3d 70 8a 87 bd
       -0.060785256 -0.23140755 0.055607934 -0.06618202
0003d0 94 fe ff bd 82 06 0d 3d f5 ff 85 bd 67 90 94 3d
       -0.12499729 0.034430034 -0.065429606 0.07254105
0003e0 08 2a 51 3e cd 38 01 3e 9f 9a 51 3d cb 68 51 3e
       0.2042619 0.12619324 0.05117285 0.20450132
0003f0 97 18 9a 3d 7e 3b d9 bd a3 6f 17 3e 75 70 a3 be
       0.075242214 -0.1060705 0.1478868 -0.31921735

linear0.bias f4 [128]
000000 5a aa ea bd fe 25 60 be d3 e3 88 bd 66 34 9c be
       -0.11458273 -0.21889493 -0.06684079 -0.30508727
000010 38 e0 9a be 39 bc 9d 3e ef 02 8a 3e c8 21 23 be
       -0.3024919 0.30807665 0.26955363 -0.15930855
000020 9f 6a 95 be 13 27 3b bd 1c 99 25 bd f8 73 79 3d
       -0.29182908 -0.04569156 -0.04042922 0.060901612
000030 9e 2d 39 3e 9e 52 8c 3e 9a 16 9f 3e aa 27 8b bd
       0.18083808 0.27406782 0.3107193 -0.06794675
000040 36 36 c7 bd 45 df ac 3e 2b f8 8e 3e 10 d2 09 be
       -0.09727137 0.3376409 0.27923712 -0.13459039
000050 19 06 34 bd 11 81 fa 3d 66 ed 9a 3e c3 12 52 3e
       -0.043951128 0.12231649 0.30259246 0.2051497
000060 fe 79 8a be 7a d8 80 3e 9b 4d 17 be ca 53 29 3e
       -0.27046198 0.2516516 -0.14775698 0.16535869
000070 60 b7 33 3e 89 bf 4a bd 50 f1 77 be e5 d7 1d be
       0.17550421 -0.04949907 -0.24213147 -0.15414388
000080 a3 24 8e 3e 38 15 bc bb 00 7e c0 3c 6a 3d b9 3e
       0.27762327 -0.005739834 0.023497581 0.36179668
000090 9c bf 8a 3e 6c 9a 8c 3d e6 62 50 3e d7 7d 30 be
       0.2709931 0.06865391 0.20350227 -0.17235504
0000a0 45 d2 36 be 40 33 f4 3d 6f df 1c be fc 05 a5 be
       -0.17853649 0.11923838 -0.15319608 -0.32231128
0000b0 c8 0a 46 be f0 86 bc 3d 35 47 51 3e 05 1e bb bd
       -0.1934005 0.09205425 0.2043732 -0.09136585
0000c0 18 cb d4 3e 22 e2 8d 3d ce e9 54 3e e3 8b a8 3c
       0.41561198 0.06927897 0.20792314 0.020574516
0000d0 0a 81 e6 bd 4e 2c 3a be c1 a4 80 3e eb bb 73 3e
       -0.11255081 -0.18180963 0.25125697 0.23802154
0000e0 44 05 ac bc f1 47 00 3e 83 81 91 3c 6d 44 6d 3e
       -0.020998605 0.12527443 0.017761951 0.23170634
0000f0 27 63 8e bd 60 6b 34 3e 38 86 6b 3d ee 0c ad 3e
       -0.069525056 0.17619085 0.057501048 0.33798927
000100 c9 c4 0d 3e 3f e9 c7 3d 4a 5a e6 bd 7b de 7c be
       0.13844599 0.09761285 -0.1124769 -0.24694245
000110 38 e9 e3 bd 38 48 5c 3e 27 d2 ff bd 1b d1 07 3e
       -0.11128467 0.21511924 -0.12491255 0.13263361
000120 d8 36 2a be fc 43 8a 3e 97 68 bf bd b8 ed 65 be
       -0.16622484 0.27004993 -0.09346121 -0.22453964
000130 11 00 93 3d bf bd 18 3e 66 a4 81 3d 33 b1 4a 3d
       0.07177747 0.14916132 0.06330185 0.049485397
000140 49 61 c7 3d 96 dd 02 be aa 30 ea bd 88 02 99 3e
       0.097353525 -0.12779841 -0.11435063 0.29884744
000150 2a 4b 83 3e e9 ba 86 3d d5 58 82 be 96 ba de bd
       0.25643283 0.06578619 -0.25458398 -0.10875432
000160 f7 15 bf 3e d9 f4 8b be 05 4d 8c be 93 9a 5a be
       0.37321445 -0.2733524 -0.2740251 -0.21348028
000170 bc e8 a8 bd ca 01 51 3e bd f2 c1 3e 25 58 f4 bc
       -0.082475156 0.20410839 0.37880507 -0.029827187
000180 a3 df a0 be 00 fa 67 be c7 75 6f be 73 97 62 3e
       -0.3142062 -0.22653961 -0.23384772 0.22128086
000190 97 75 c1 bd ec 82 6f bc 76 6e 72 bd 9a d5 6b 3e
       -0.094462566 -0.014618617 -0.059187375 0.23030701
0001a0 81 a9 3b bd 1b f6 09 3e 0d 3a 42 be e8 ab 5a be
       -0.04581595 0.13472788 -0.18967457 -0.2135464
0001b0 59 8c c2 3e e5 95 41 3e 63 a5 12 3e d3 86 68 3d
       0.37997702 0.18904836 0.14320903 0.056769203
0001c0 88 4e 03 be 79 b9 c9 bd 9f ea 41 3d 6e 9e aa 3d
       -0.12822926 -0.09849829 0.047342893 0.08330999
0001d0 52 e7 1f be 95 85 f0 3d 09 eb 6c bd 07 f0 66 bd
       -0.15615585 0.11744229 -0.057841334 -0.05638125
0001e0 14 b3 60 3e 65 89 7f 3e 8f 62 b5 3e b1 6c 9d 3d
       0.21943313 0.24954756 0.35426757 0.07686747
0001f0 a6 76 fd bc d6 6b 83 3e c7 c4 68 bd 92 17 f8 3c
       -0.030940365 0.2566821 -0.056828286 0.030284677

linear1.weight f4 [128, 128]
000000 f3 d2 9b bd b1 bf 35 3e a2 04 84 3e a7 dc a1 3c
       -0.07608595 0.17748906 0.25784785 0.019758536
000010 3f 16 cf be 57 e2 6a bc f4 eb 68 bd 53 29 57 3d
       -0.4044666 -0.01433619 -0.056865647 0.052529644
000020 bd 31 1e be 0c d4 a3 3d d9 92 06 be 89 a2 46 3e
       -0.15448661 0.07999429 -0.13141955 0.1939794
000030 16 67 3f 3d b1 87 0d 3e 7c 26 d6 3c 22 2e 9c 3d
       0.04672917 0.13821293 0.026141398 0.07625987
000040 33 95 56 3d ab 14 22 3e 3c 6a fe 3b 4e 1a b0 3c
       0.05238838 0.15828197 0.007764129 0.021496918
000050 a3 9e 5a 3d e6 a8 c9 3d de 4a 65 bd bc 93 95 3d
       0.053373944 0.09846668 -0.055979602 0.07303569
000060 20 30 02 3e 50 2a 79 3d 1e ae 11 3e 62 d5 32 3d
       0.1271367 0.060831368 0.14226577 0.04366053
000070 30 d1 71 3e cc 01 fb 3e 0e 7e ab 3d 08 68 bb 3b
       0.23614955 0.49024808 0.083736524 0.0057191886
000080 13 a7 2f 3e f4 e4 fb 3d f8 3e 07 3e d8 03 d8 39
       0.17153578 0.12299529 0.13207614 0.00041201594
000090 0a 0e 89 3d 97 7a 0f 3c 39 80 12 bd b7 a5 5b bd
       0.06692131 0.008757255 -0.035766814 -0.053624835
0000a0 92 74 34 bd 77 91 0f 3d 60 56 90 3d a8 36 2e 3e
       -0.044056483 0.035050835 0.07047725 0.17013037
0000b0 1d 77 37 3e 44 8c 8c bd 25 89 14 bd 14 44 59 bd
       0.17916532 -0.06862691 -0.036263604 -0.05304344
0000c0 2a e1 16 3e 5d 81 44 3e ea 87 8c bc 2f 6f 46 3b
       0.14734331 0.19189973 -0.017154653 0.0030278673
0000d0 85 10 7d bb 7d 24 89 3d be 4f 9d 3e f0 f7 bd 3d
       -0.0038614583 0.06696413 0.307249 0.09275806
0000e0 4f 31 64 3d d3 68 bd bc 36 96 37 3d 65 1a ec 3c
       0.055711087 -0.023121273 0.044820987 0.02882118
0000f0 ee a7 a2 bc b1 2a 37 bd ac 94 af bd ed bd d4 3d
       -0.019855466 -0.044718448 -0.08573279 0.10387788
000100 ef 15 62 bd 3f 32 06 be f3 22 0f 3d c6 11 1a bc
       -0.0551967 -0.13105105 0.03494544 -0.009403652
000110 0f 33 a2 bd e1 38 89 3d 7d 15 ac 3c d1 9e 19 bd
       -0.07919895 0.06700302 0.02100634 -0.037504975
000120 da 7d 8b 3e 8a d8 7c bd c8 b0 be 3e 6d 9c db bd
       0.27244455 -0.061729945 0.37244248 -0.10723195
000130 54 bb 34 bd 9b 39 4d 3d 53 cc 6e 3d cb 80 c6 bd
       -0.044123963 0.050103765 0.058300328 -0.09692534
000140 c9 23 0a 3d b2 73 91 bd cb e2 82 3d ff 9d 70 be
       0.033725534 -0.07102145 0.063909136 -0.2349777
000150 9e 14 4a bd 57 a4 a4 bb 7a 75 8d 3d 21 e0 02 bd
       -0.04933607 -0.0050244736 0.069071725 -0.031952027
000160 f1 79 a1 3d 4d 2b 75 3d db 83 e1 3c 19 22 eb bb
       0.078845866 0.059855748 0.027528694 -0.0071756956
000170 ae 91 c5 bd 37 38 27 3e b1 45 1d be 56 8c 32 3b
       -0.09646927 0.16330038 -0.15358616 0.0027244291
000180 eb a0 ad 3d 6b 0e aa b9 2b 51 47 3d 6b 22 9d bb
       0.08477958 -0.0003243567 0.048661392 -0.0047953627
000190 8c 92 66 3d 8a fb f4 bd 47 51 4d bc 9b a4 94 bd
       0.0562921 -0.1196204 -0.012531585 -0.072579585
0001a0 c9 4a 0b 3e 94 28 92 bd 39 19 a2 3c cf 36 75 bd
       0.13602747 -0.07136646 0.019787418 -0.059866723
0001b0 ba 37 07 3e c1 66 a9 bd c6 13 34 bd 2d 7b 77 bd
       0.13204852 -0.08271552 -0.04396417 -0.060420204
0001c0 0e 41 1b bd 0e 01 69 3d f1 8a 16 bd c3 4f a7 3d
       -0.037903838 0.05688577 -0.0367536 0.0816951
0001d0 ff 76 3a bd ab c3 13 3e c0 f3 d0 bc b4 ed 47 bd
       -0.04552364 0.1443011 -0.025506854 -0.048810676
0001e0 25 74 9c 3d ca 78 af bd 35 8c 53 3e 7b 64 d1 3c
       0.0763934 -0.085679606 0.20658953 0.025560608
0001f0 a8 28 10 3c 9d 3e 93 bc 86 ed a3 3d 18 5e 18 3e
       0.008798756 -0.017974192 0.080042884 0.14879644
000200 9a f7 e2 ba e3 64 21 be 61 64 0f 3e 2a 5c b3 3d
       -0.0017316223 -0.15761141 0.14003135 0.08757813
000210 ba a3 3c bd 8c 28 8b be e9 b5 67 bc b3 6b 12 bd
       -0.04605458 -0.27179372 -0.014142492 -0.03574724
000220 93 43 4b be 25 7c 0b be a0 a2 1f bd 67 e9 86 3e
       -0.19849996 -0.13621576 -0.03897345 0.26349947
000230 1e f7 71 bd 4c 9c 55 be a6 fa 91 3d c9 54 98 3c
       -0.05907356 -0.20860404 0.071278855 0.018595116
000240 bb 7f dc bd c8 49 fa 3d 84 83 f7 bc 60 7d 24 3e
       -0.1076655 0.12221104 -0.030214079 0.16063452
000250 1a a6 87 bc 0c 24 22 bd b8 01 75 3c 70 10 2f be
       -0.016558696 -0.03958516 0.014954023 -0.17096114
000260 ac c4 0c be ee cf c2 3d 6b 08 9e bd ac 3c ab 3b
       -0.137469 0.09512316 -0.07716449 0.0052257385
000270 19 8d c2 3d 8b 95 65 be 36 02 0a 3e 85 dd ff bc
       0.094995685 -0.22420327 0.13477406 -0.031233558
000280 73 11 60 3d e3 77 c9 bd 0b 98 15 3e bc 81 4a 3c
       0.05470414 -0.0983732 0.14608781 0.012360033
000290 60 42 8f 3d ca fe 6e 3d a2 a7 93 bd 1d eb 64 3d
       0.06995082 0.058348455 -0.07209708 0.055888284
0002a0 7d a1 03 bd 86 75 64 bd 23 b4 fd 3d 48 48 87 3d
       -0.03213643 -0.05577614 0.12387874 0.066055834
0002b0 34 69 12 3e 68 9a ce bc 27 0b 1a be c8 b3 2f bd
       0.14297944 -0.025220111 -0.15043317 -0.042896062
0002c0 2b d4 90 3b ba ab 29 3e 68 40 9e 3d e1 61 0c bd
       0.0044198236 0.16569415 0.07727128 -0.034273032
0002d0 7c 08 18 3c 9f 17 c7 bc 0f 68 1c 3e 70 1c 39 3e
       0.009279367 -0.024303256 0.1527407 0.18077254
0002e0 64 ee cf 3c 9c 6c 08 3c 69 96 b7 3c f1 6f f5 3c
       0.025382228 0.008326676 0.022410588 0.029960604
0002f0 ea ac 8b bd fe bb 2c 3c 82 09 d6 bd 2e 5c 17 bd
       -0.0682009 0.010542868 -0.10451032 -0.036953144
000300 85 e9 85 3d a7 a5 a4 bd 6e 21 aa be a3 9b b8 bc
       0.06538681 -0.08039408 -0.3322863 -0.02253515
000310 64 a3 cd bd e3 a3 13 be da 4c d8 3d b4 77 0e 3d
       -0.1004093 -0.14417987 0.10561533 0.034782127
000320 31 8c 0a 3e 02 7b ca 3c 27 ed 85 bc 05 9f fd bd
       0.13530041 0.024716858 -0.016348435 -0.12383846
000330 57 d0 b6 bd c6 2b 5e 3e 22 72 8e bc 72 37 06 be
       -0.089264564 0.21696386 -0.017388407 -0.13107088
000340 b0 8d ee bd 7b 86 91 bc 87 c3 c5 3d c8 2a 18 be
       -0.116481185 -0.01776432 0.096564345 -0.1486007
000350 f7 73 2f bd 2f 04 c3 3c c8 90 61 3b 1a 6a aa bd
       -0.042835202 0.023805706 0.0034418572 -0.083210185
000360 a6 96 25 be ea e5 35 3e 08 9d c1 3b 69 ab 19 bc
       -0.16170749 0.17763487 0.005908612 -0.009379246
000370 2a f0 38 3c 7f 9b 9c 3d aa 72 11 3d 95 37 94 bd
       0.011287728 0.07646846 0.035509743 -0.07237164
000380 44 3c 6f bd 4d 01 1a bc f2 21 30 3e fd 86 e6 ba
       -0.058407083 -0.009399724 0.17200449 -0.0017587837
000390 8e c7 0e bd 29 72 7e 3d 77 14 f7 bd 1d 50 33 3c
       -0.03485828 0.06212059 -0.1206445 0.010944393
0003a0 d8 23 52 bd 46 90 a8 bd f2 d5 8b bd 13 cd 90 3c
       -0.051303715 -0.08230643 -0.06827916 0.017675912
0003b0 84 b1 14 be a3 f6 f2 bd 60 f1 a1 bd 08 b9 8e bd
       -0.14520842 -0.118634485 -0.07907367 -0.06968886
0003c0 89 1b 0d bd 13 cd ae 3d ab e9 1e bc 79 95 da bd
       -0.034450088 0.085352086 -0.0096992655 -0.10673041
0003d0 4e 26 8b bc e9 92 b7 bd 99 ae 85 3d cd 89 f1 bd
       -0.016986039 -0.08963568 0.065274425 -0.117938615
0003e0 c5 1d 8c bd 06 4d 6a 3c d5 8d 22 3e 77 69 65 3d
       -0.068416156 0.01430059 0.15874417 0.056008782
0003f0 f9 9d 82 3d 46 e0 99 bb 31 25 14 3e 38 4e 3c 3e
       0.06377787 -0.004695925 0.14467312 0.18389213

linear1.bias f4 [128]
000000 eb eb a2 3c 87 53 b2 bb 67 ac 11 bc bc 67 a6 3d
       0.019887885 -0.005442086 -0.008891202 0.081252545
000010 77 f5 b1 bc c9 b4 91 3d 79 f7 cc 3c c5 ea fb 3d
       -0.021723492 0.0711456 0.025020348 0.12300638
000020 91 f8 11 bd 18 9d 50 bc 4a bb 83 3c 03 4d ce 3d
       -0.035637442 -0.012732767 0.016080517 0.100732826
000030 eb a3 38 3d 4f cc af bd 10 be 8e 3d 13 32 1f bd
       0.0450782 -0.08583891 0.06969845 -0.038866114
000040 3f 53 96 bd 7d 56 07 3d 55 d9 2b 3d e8 1e 95 3d
       -0.07340097 0.033041466 0.04195531 0.072812855
000050 67 af 17 bd e2 f3 a5 bc 92 1e 20 bd 10 1f d8 3d
       -0.03703251 -0.020257894 -0.039091654 0.105528
000060 85 dd a5 bd 67 44 d6 3c 97 10 55 3d 03 72 b6 3d
       -0.08098892 0.026155664 0.052017774 0.08908465
000070 9d 29 69 3d 15 c6 d8 3d 98 4c a7 3c af fb a9 3d
       0.05692445 0.10584656 0.020422265 0.08299958
000080 15 da 61 3d 84 12 b5 3d 08 b6 9d 3d 03 21 f6 3c
       0.05513962 0.08841422 0.07700735 0.030045038
000090 64 77 eb 3b 1f fb 0c 3d 98 c1 05 3e b0 c0 2d bd
       0.0071858633 0.034419175 0.13062131 -0.04242009
0000a0 ff d1 da 3c 09 69 12 3d 97 fb 1c 3c fb 4c 07 3d
       0.026711462 0.0357447 0.009581468 0.0330324
0000b0 a1 bf e6 bb e4 59 ad bc 50 1f ad bd ae cd b8 3d
       -0.007041887 -0.021161027 -0.08453238 0.09023605
0000c0 e8 af 87 3d 9e bf af bc 9a fa 81 3d 23 f6 ca 3c
       0.06625348 -0.021453675 0.063466266 0.02477557
0000d0 60 d4 c4 bc b2 eb f7 bc 6d 21 68 3d 67 23 67 bd
       -0.02402705 -0.030263755 0.056672502 -0.056430247
0000e0 ff ec 1f 3c e6 bb 81 bd c2 f0 a2 bd db e3 d3 3c
       0.009761094 -0.06334667 -0.07956077 0.025865486
0000f0 38 f2 45 3d f8 26 28 3d 9f b3 72 3d e3 cc e8 3d
       0.0483267 0.04105279 0.05925333 0.11367204
000100 a5 1e 3d bd 6f ba 85 3d 53 6f a6 bc 9c 2c 01 bd
       -0.046171803 0.065297 -0.020316755 -0.031536683
000110 7e 0e bc bd 65 11 90 bc c2 a2 24 bd 9b b6 2e bd
       -0.09182452 -0.01758642 -0.04019428 -0.042654615
000120 09 33 de bc 24 22 1b 3d 96 33 10 3e 94 ee 84 bd
       -0.027123945 0.037874356 0.14082178 -0.06490818
000130 13 24 2f 3d 02 e9 30 bd 0c db 75 3d 9b 0e 90 3c
       0.042759012 -0.043190964 0.060023353 0.01758509
000140 e2 9e fb 3c de 7f b3 3d c8 90 f7 3b b6 bc c1 bc
       0.03071541 0.08764623 0.007555101 -0.023649555
000150 74 a4 5a 3d 0c 76 fa 3a 71 93 da bb 0f 60 90 3d
       0.05337949 0.0019108667 -0.0066704084 0.07049572
000160 c6 d7 4e 3d 9c 4c 86 3d d8 11 86 bd 24 de da 3d
       0.050498746 0.06557581 -0.06546372 0.10686901
000170 8e 55 88 bd 36 2f 9d bd fe 84 82 bb 72 17 5a bb
       -0.06656943 -0.076750204 -0.003983139 -0.0033278135
000180 11 6a a3 bd 2d 69 38 3d 56 45 95 bd 02 32 5b bd
       -0.07979215 0.04502218 -0.072886154 -0.053514488
000190 10 fa 9d 3d 20 51 86 3d 60 5f 80 bb 0e a0 df bb
       0.07713711 0.06558442 -0.0039176196 -0.0068245
0001a0 59 3f a1 3c d6 97 3e bc 8a cf a0 3d b6 ef a9 bc
       0.019683527 -0.01163288 0.07852085 -0.020744186
0001b0 8b 33 b9 3d 4e c2 b1 3d 4b d5 71 3d 43 38 b4 3c
       0.09043034 0.08679639 0.059041303 0.021999484
0001c0 aa 52 1b bd 49 c8 bd 3b ac 65 bc bc 5c dd e1 3d
       -0.03792063 0.005791698 -0.0229977 0.11028549
0001d0 8f f4 19 3d 35 4a 55 bd 09 16 f6 bc 52 3a 60 bc
       0.037586745 -0.052072722 -0.030039804 -0.01368578
0001e0 5d 5b 33 3a 01 83 1c bc b0 64 2d 3d 00 7a 9f 3d
       0.00068419223 -0.009552718 0.04233235 0.077869415
0001f0 2b f5 96 bd c1 20 fb 3c 46 b5 fe 3d 68 af 4d bd
       -0.07370981 0.030655267 0.12436919 -0.05021611

linear2.weight f4 [128, 128]
000000 ba 03 f7 3d db 77 95 3e ac 2d ba bc 02 51 94 3d
       0.12061258 0.29193005 -0.022726856 0.072420135
000010 bb 3d fa 3d 61 b3 29 3d 1d ff ac 3c b2 0f a4 bd
       0.122188054 0.041430835 0.021117741 -0.08010806
000020 70 54 be 3d 5c 7c d6 3d bd 2b c0 3c 73 0b 11 3c
       0.09293449 0.104729384 0.023458356 0.008852827
000030 da 48 0d 3e df 05 ae be 03 9f 2a bd 01 5f 37 3d
       0.13797322 -0.33988854 -0.04165555 0.044768337
000040 93 cc 52 3e ad 14 d3 3d b0 c1 1e 3d 9a 7c 00 be
       0.20585851 0.10306678 0.038758934 -0.12547532
000050 f8 a0 dc 3d e5 4f 1f bd b9 c0 c2 bb 58 a4 49 bd
       0.1077289 -0.038894553 -0.0059433845 -0.049228996
000060 1b 62 b6 bc 69 9a df 3a f9 de 99 3c ec f5 e1 3c
       -0.022263577 0.0017059568 0.01878308 0.027583085
000070 fa 89 89 bd 11 ba 98 3d 48 de 91 3d 3a 22 df bc
       -0.0671577 0.07457364 0.07122475 -0.027238
000080 62 7e ec bd 5e 3c 6f 3d c7 10 0b bd 63 55 12 bd
       -0.11547543 0.05840718 -0.033951547 -0.035725962
000090 62 d4 91 bd 5e 3f 81 bc 77 fa e6 bc 85 ee 39 3d
       -0.07120587 -0.015777286 -0.028195603 0.045393486
0000a0 d8 0f ac 3d 85 d3 56 3d 81 ff 3a bd 3a 6c dd bd
       0.084014595 0.052447814 -0.045653824 -0.10811658
0000b0 6c 6b 1e bd 43 0a 4a 3d db 06 24 3e 1c 66 ad 3d
       -0.038676664 0.049326193 0.1601824 0.084667414
0000c0 4f 67 c3 3c e6 15 7c 3d 72 c6 d4 3b 7d 52 c5 bc
       0.023852972 0.06154432 0.006493383 -0.024087185
0000d0 f0 0e 35 3c be 3d b0 3d ae fe 55 bc f5 8a 00 bc
       0.011050925 0.086055264 -0.013061209 -0.00784563
0000e0 b5 cf 1f 3e a2 02 dd 3c e1 9a 97 bb 88 31 e4 bd
       0.15606578 0.026978794 -0.0046266173 -0.1114226
0000f0 2e f9 93 3d 3a c2 ed 3c bf b4 84 3d 43 a4 a1 3d
       0.07225262 0.029023279 0.06479787 0.078926586
000100 e0 66 09 3e f2 7b f8 bd 47 d6 e7 b8 b6 47 80 3e
       0.1341815 -0.12133016 -0.000110548506 0.2505471
000110 0c f7 15 3c 4b 56 8d 3d a9 98 8c bd a2 06 80 3d
       0.009153139 0.06901225 -0.06865055 0.06251265
000120 70 4c 92 bd 9f 1e 6f bb b8 22 bc 3a 9c f8 b7 3c
       -0.071434855 -0.0036486757 0.0014353609 0.022457413
000130 be b0 36 bd 54 1c a0 bb 8d fa c3 bc 4c 42 13 bc
       -0.04460215 -0.0048861895 -0.023923183 -0.008987974
000140 06 9c b6 3c ff 50 97 3c 84 88 ee 3d 9e d5 f3 3d
       0.022291195 0.01847124 0.11647132 0.119059786
000150 0b 76 5e bb 13 be 36 bd ee 03 23 3d ef 71 36 be
       -0.003394487 -0.044614863 0.03979867 -0.178169
000160 c5 0a c1 3d 60 48 96 bd 20 c9 45 ba ab f9 8a bd
       0.09425882 -0.07338023 -0.00075449236 -0.06785902
000170 a0 cc 64 3d 03 5b 3e bd dd eb 13 3e a3 34 61 bd
       0.055859208 -0.046473514 0.14445443 -0.05498184
000180 02 1c 8d bd b7 bf 5a bc ef 19 f2 bb 17 35 24 bd
       -0.06890108 -0.013351372 -0.0073883454 -0.040089693
000190 f5 57 6e 3d 78 18 6a bd 3e 17 bb bc 9c 04 32 bd
       0.05818935 -0.05715224 -0.022838231 -0.043461427
0001a0 4a ec b0 3d b0 4b 72 bd 4f e8 e2 bd d5 8b a8 bc
       0.086388186 -0.059154212 -0.110794656 -0.02057449
0001b0 bd 1c 54 bd 53 5f 08 be f8 b6 a5 3d 0c 0b e8 bb
       -0.05178522 -0.13317613 0.08091539 -0.007081395
0001c0 ef 2c ba bb b2 32 b6 bc f4 53 0a bd bf f5 aa bd
       -0.005681626 -0.02224097 -0.03377147 -0.083476536
0001d0 28 85 a5 3b f3 95 4a bd 3b fc d4 bd c5 6d 8d bd
       0.005051274 -0.04945941 -0.10399672 -0.069057025
0001e0 7c 0e e4 3d 72 ec d2 3d 72 5f d8 3c 47 de f3 bc
       0.11135575 0.102990046 0.0264127 -0.029769076
0001f0 ab 3a f5 bd 66 fd bd 3c e6 46 63 3c fa 72 53 3d
       -0.11974081 0.023192119 0.013871884 0.051623322
000200 f2 3e 91 bd 9c ab 9d be 61 13 66 bd a1 49 92 3b
       -0.07092084 -0.3079499 -0.056170825 0.0044643437
000210 f8 7d df bc b9 7e 15 bd 8b d2 15 bd 90 98 f3 bc
       -0.027281746 -0.036497805 -0.036577743 -0.029735833
000220 53 25 37 3e 39 78 28 3d 61 45 e6 bd 92 97 bf bd
       0.17885332 0.04113028 -0.11243702 -0.093550816
000230 61 cd 11 3e b6 b6 17 3e dd 17 0a 3d bf 58 08 3d
       0.14238502 0.14815792 0.033714164 0.03328776
000240 16 8a e5 3c 4e 86 94 3d cb 68 34 bd 84 5d 1a bd
       0.028019946 0.07252179 -0.04404525 -0.03768684
000250 9c b4 c1 3c 42 8f c9 3c 06 e3 30 bb a0 2b c1 bd
       0.023645692 0.024604443 -0.0026990785 -0.09432149
000260 b0 b8 8f bc df 14 7e 3d 93 a3 64 3d c5 62 47 3d
       -0.01754412 0.062031623 0.05582006 0.04867818
000270 6a 92 53 3c cf 54 ca 3c 20 7a 45 3d d6 41 85 bb
       0.012913326 0.024698643 0.04821217 -0.004066686
000280 c9 44 8a bc 10 8a e8 bd d3 64 7f bd aa 06 3d 3d
       -0.016878502 -0.11354458 -0.062352013 0.046148933
000290 2e cd 9e bc c6 f9 c5 3c 2f 45 95 bd 26 17 e6 bd
       -0.019384947 0.024166953 -0.07288586 -0.11234884
0002a0 6f 20 1b 3e 58 cf ba bc b4 9b c7 3d d7 5a b6 be
       0.15149091 -0.022803947 0.09746495 -0.3561618
0002b0 6a d7 9f 3d bd 0a e9 3d de d7 49 3d a9 02 b1 3d
       0.07804759 0.11379001 0.049278133 0.086430855
0002c0 81 ed f2 3d d6 70 ed 3c 41 ae a2 be 99 72 84 bd
       0.118617065 0.028984468 -0.3177357 -0.0646717
0002d0 14 87 ad bd 32 b1 4d 3e a3 04 cc bc a2 d2 10 3d
       -0.0847303 0.20087126 -0.024904555 0.035357125
0002e0 63 c9 c4 3c e0 7a ec 3c bb 3e a9 bc d1 9f 15 be
       0.02402181 0.028867185 -0.020659795 -0.14611746
0002f0 30 7a 39 bd 4b c7 83 3d 20 13 50 3d 71 fd e7 bc
       -0.045282543 0.064344965 0.05079949 -0.028319092
000300 c4 44 5b 3d c5 06 f4 bd 06 e8 b2 3d f4 88 49 3d
       0.053532377 -0.11915354 0.08735661 0.049202874
000310 70 b9 4b 3b cf 49 db 3c 31 53 49 bc 69 dc d0 3c
       0.003108587 0.026768593 -0.012287901 0.025495725
000320 ea de 63 3d e0 b8 d3 bc f1 df a5 bd c3 63 d4 3d
       0.05563251 -0.025844991 -0.08099354 0.103705905
000330 59 f4 67 bc 46 f6 59 3c 4f 41 00 3d 2d d8 e5 bb
       -0.014157378 0.013303345 0.031312283 -0.0070142956
000340 e1 2c c0 3d 1e f0 d8 3d d0 07 14 3d 79 3c 9c bc
       0.0938356 0.10592674 0.036140263 -0.019071804
000350 0e 21 9c bb 28 38 d6 3b 78 50 ad bb d9 8c f8 bd
       -0.0047646826 0.006537456 -0.0052891336 -0.121362396
000360 95 6a c1 bb 15 ed 85 ba 92 83 d1 3c d1 80 91 3d
       -0.005902598 -0.0010217751 0.025575433 0.07104648
000370 a9 ee a6 3d 23 e9 92 3d e8 e4 ca 3d c0 02 c4 bd
       0.081509896 0.071733736 0.09906942 -0.09570837
000380 fe 80 11 3d 7d 62 0d 3c 2a 78 ee 3c d7 f9 bc 3d
       0.035523407 0.0086294385 0.029110033 0.09227341
000390 56 09 c4 bd 90 f9 92 bd 0c a8 3b bd 44 ab 80 be
       -0.09572093 -0.071765065 -0.04581456 -0.25130665
0003a0 04 2b 17 3d 24 dd c4 bd 65 06 88 3d 09 d8 26 bc
       0.036906257 -0.09612492 0.06641845 -0.010183343
0003b0 57 49 9d bc 17 46 f2 3c 98 81 36 3d 3b 31 84 bd
       -0.01920001 0.029574437 0.044557184 -0.064547025
0003c0 98 0f 91 3d 5d 0f 8b bd 1d d3 d7 bd 28 56 6d bd
       0.070830524 -0.0679004 -0.105383135 -0.057943493
0003d0 76 2a d3 be 74 85 6e bc 96 87 8f 3d 97 ff 07 bd
       -0.41243333 -0.014558185 0.07008283 -0.033202734
0003e0 52 ee 51 3d d7 d8 a1 3d 68 5b 80 b7 5d c4 da be
       0.05125267 0.07902687 -1.5301353e-05 -0.42727938
0003f0 a9 5b 3a be 1c 90 c3 3c 1c 32 9c bd 8e 67 94 3d
       -0.18199028 0.023872428 -0.07626745 0.07246314

linear2.bias f4 [128]
000000 a8 d0 99 3d 09 16 32 bd 02 fb 31 bd 75 71 ee 3c
       0.07510501 -0.043478046 -0.04345227 0.029106835
000010 dc ef b8 bd 8f b5 92 3c fb a0 e7 3a 4c 3e b0 3d
       -0.090301245 0.01790884 0.0017671877 0.08605632
000020 b5 e0 8c 3d fa b0 1a bd da b5 6f 3d fd 67 87 3d
       0.06878797 -0.037766434 0.058523037 0.06611631
000030 5c a1 11 bd f6 1b 84 3d 8a f8 24 bb e9 84 f0 bc
       -0.035554275 0.064506456 -0.0025172555 -0.029360252
000040 e2 a2 86 bd 29 53 e1 3d f4 60 8d 3d a3 c3 ef bc
       -0.06574036 0.1100219 0.06903258 -0.029268092
000050 df 9a 2f 3d a6 e8 36 bd f5 7f 7d bd 77 4d 07 bd
       0.042872306 -0.044655465 -0.061889607 -0.03303286
000060 8d 88 48 bd af 53 ea 3c 30 f7 e2 3d b7 f6 f8 bb
       -0.04895835 0.028604357 0.110823035 -0.00759777
000070 df 0b 01 3d ff 5e 95 3d 3c a0 2e bd f0 7e 01 be
       0.03150546 0.0729351 -0.04263328 -0.12646079
000080 6d dd 48 bd 8e fc ef 3b a2 c9 0e 3d 37 2e cb 3d
       -0.049039293 0.007323808 0.03486026 0.09920924
000090 f2 35 42 3d ff 9f 8c bc ca 16 45 bd 9f 4e 21 bd
       0.047414728 -0.017166136 -0.048117436 -0.03938162
0000a0 22 54 02 3d 6e cd 29 3d 80 60 1f bd 06 a5 e5 3a
       0.031818517 0.04145568 -0.03891039 0.0017520494
0000b0 38 8c a6 bd 90 4a 7e 3c 18 6f 55 3d e1 42 00 be
       -0.08132213 0.015520707 0.0521079 -0.12525512
0000c0 4b f6 80 3d 3a 28 59 3d 59 29 69 3d 28 87 8e bd
       0.06296977 0.05301688 0.056924198 -0.06959373
0000d0 cd 42 54 3d d1 de c2 3d 21 4e 62 3d a2 c1 5e bd
       0.05182152 0.09515155 0.05525029 -0.05438388
0000e0 3c b0 82 bd be 2e b7 3d 65 ec 2b 3d c0 f3 24 3e
       -0.0638127 0.08944462 0.04197349 0.16108608
0000f0 18 b0 00 3e ca 24 dc 3c 29 b7 85 3d 54 1a 90 3c
       0.12567174 0.026873011 0.06529076 0.01759068
000100 84 c3 2f bd 6b 72 96 bd 8d 21 75 3c 18 bb 47 3d
       -0.042911068 -0.07346042 0.014961612 0.04876241
000110 59 dd 8a bd e9 7d 6e 3d d6 c1 59 3d 7b 1b 70 3d
       -0.067805 0.058225546 0.053163372 0.058619957
000120 95 d2 1b 3d de 9e 46 bc e4 3b 00 3c 36 fd b9 bc
       0.038042624 -0.012122838 0.007826779 -0.022703748
000130 d9 8b a8 bd bf 16 11 bc 6f a7 83 bd af c8 ad bd
       -0.08229799 -0.008855521 -0.0642842 -0.08485543
000140 b3 bf 9f bd 3c b6 d9 bd 5b 4c 15 3e 11 ba 8c bd
       -0.078002356 -0.106304616 0.14579909 -0.06871427
000150 31 be 29 bd 25 5a 68 3d ff 58 bf bd 9c 16 62 3d
       -0.041441146 0.056726594 -0.093431465 0.055197343
000160 bc b0 8b bc 28 b4 7b bb c8 19 69 3d 0b 87 81 bd
       -0.017052047 -0.0038406942 0.056909353 -0.063245855
000170 63 7b 4d bd 1d 29 c7 bd 70 3c 39 bd cd ed 50 3c
       -0.0501665 -0.097246386 -0.045223653 0.012752009
000180 c4 b7 da bc 3a 61 75 3d 56 96 5f bc 8c ae a0 3d
       -0.026698954 0.059907176 -0.013646683 0.07845792
000190 c9 9a 06 3e e2 a4 e5 bc ff d1 b9 bc d6 3b fc bc
       0.13144983 -0.028032724 -0.022683142 -0.03079025
0001a0 45 f8 1b 3d 2d 63 a0 bd 3c 44 88 3d a5 4c 8f bd
       0.038078565 -0.07831416 0.0665364 -0.06997041
0001b0 77 11 e1 3d 94 67 a1 bb f9 13 a3 bc aa b7 e1 3c
       0.10989659 -0.0049256776 -0.019906985 0.027553398
0001c0 9d 08 a0 3b 55 a0 97 bd 01 a2 27 3c bc 2c ee 3d
       0.0048838393 -0.07403628 0.010231496 0.11629626
0001d0 bf ba e7 3d 26 c7 84 3c 4e 07 84 3d 85 9a 4c 3d
       0.11314916 0.016208243 0.06446706 0.04995205
0001e0 7b 7f 32 bc d3 7b 7f 3d 40 f1 55 bc 6c 7c 97 bc
       -0.0108946515 0.062373947 -0.013058007 -0.018491946
0001f0 4c d7 bd 3d 71 21 dc 3d 08 8d d3 bc 47 3d 18 bb
       0.0926958 0.10748566 -0.025824085 -0.0023229884

linear3.weight f4 [4, 128]
000000 71 0d 56 3d 6d f7 0e 3f f9 12 84 bd 9a 9a 57 3d
       0.052258912 0.5584629 -0.06448931 0.052637674
000010 ee 2d db 3f 8f 29 be 3d 98 74 aa bc ea 1d cd bd
       1.7123392 0.092852704 -0.02080755 -0.10015471
000020 7e 06 cc 3f 42 38 85 3d 73 23 d9 3e d2 0d 4b be
       1.5939481 0.06504871 0.42409858 -0.19829491
000030 44 f5 86 3d 3c 01 ab be ff 52 35 3d 69 df 94 bd
       0.065897495 -0.3339938 0.044268604 -0.072691746
000040 4f c5 33 be 1c 59 af bd 8a 6f 41 bd 0c 7f 84 bc
       -0.17555736 -0.08561918 -0.047225513 -0.016173862
000050 45 e9 97 3d 87 f5 2f 3d f3 48 e0 be 8a ff 0f be
       0.074175395 0.042958762 -0.43805656 -0.14062324
000060 7e ae de 3d ed b7 04 3d 2d 05 44 3c 10 4f 65 3d
       0.108731255 0.032401968 0.011964125 0.055983603
000070 8c 71 9e 3d b9 97 a4 bd c8 af 00 3d 97 23 aa bd
       0.07736501 -0.08036751 0.031417638 -0.083075695
000080 0d 93 5f 3f 0d 95 ef b8 63 f6 47 3d a5 9a 28 be
       0.87333757 -0.00011424171 0.048818957 -0.16465242
000090 08 18 6c 3d 3f 39 f9 bd e8 06 e0 3c f3 97 2e be
       0.057640105 -0.12169122 0.027347043 -0.17050152
0000a0 f7 18 8d bd 79 ee 71 bd 64 8b 06 be 42 b2 78 3d
       -0.06889527 -0.059065316 -0.13139111 0.060716875
0000b0 c6 4c e1 be 9b f9 0a 3d 3f 66 e5 3c d6 92 91 bd
       -0.44003886 0.03392945 0.028002856 -0.07108085
0000c0 b2 3b 0a 3c a1 b0 61 3d 4a cf ab bd 5a bd 1b be
       0.008437084 0.055100087 -0.083891466 -0.1520895
0000d0 c1 04 a6 3f db cb d2 bd 91 f8 8c be 3e 24 d9 bd
       1.2970201 -0.102927886 -0.2753339 -0.10602616
0000e0 92 be a7 3d 9a 3b 58 bd 92 5e 0d be 71 56 d2 be
       0.08190645 -0.052791215 -0.13805607 -0.41081575
0000f0 a4 ea 6e 3d 41 ea e8 bd cf 05 dc 3c 6b 73 c0 3d
       0.05832924 -0.113728054 0.026858239 0.09397014
000100 d4 cb c7 3d c9 c8 88 be cd b4 ed 3d 8a f1 07 bf
       0.09755674 -0.26715687 0.11606751 -0.53102934
000110 91 c1 9d 3d 4c 43 c9 3c 70 2d e7 bd 9d 44 51 bd
       0.077029355 0.024568222 -0.112879634 -0.051090825
000120 23 39 b5 39 c6 d8 9f 3c ac 2e b6 3c 76 b8 f3 3d
       0.0003456558 0.019512545 0.022239052 0.119004175
000130 ce 4a 79 3d f5 b2 f7 3c 07 c7 ff ba f9 27 88 bd
       0.060862355 0.0302367 -0.0019514271 -0.06648249
000140 df 86 9b bd f0 17 5a bd b5 82 08 bf ef 52 3e be
       -0.07594084 -0.053245485 -0.53324443 -0.18586324
000150 de 2a b9 bd 01 33 58 3d 98 6e 0e be e8 d4 b8 bc
       -0.090413794 0.052783016 -0.13909376 -0.02256246
000160 33 88 db 3f 92 4f d6 3b 39 d0 bd 3c de f6 72 bd
       1.715094 0.0065402472 0.023170577 -0.059317462
000170 f4 52 a4 3d ab a9 84 3d ae a7 8d be e2 f6 bd 3c
       0.080236346 0.06477674 -0.27666992 0.023189012
000180 17 c1 73 be 33 b2 88 3b de 00 51 be 65 bb c1 3b
       -0.23804127 0.0041716336 -0.20410487 0.0059122317
000190 41 87 c8 bd 05 4a 52 be 8d 92 30 3b b9 e4 4d bd
       -0.09791423 -0.20536049 0.002694282 -0.050266955
0001a0 0a 12 c4 be 24 e4 b4 bc 16 6f e7 3d 93 b4 5a 3d
       -0.38295013 -0.022081442 0.11300485 0.053394865
0001b0 e9 59 5b 3d ea f8 17 bd 6e 67 b7 bd 0f 4a 67 3b
       0.053552542 -0.037102617 -0.089552745 0.0035291945
0001c0 bd 51 51 3d b4 9d e0 be 2a aa 09 be 67 76 ac 3d
       0.051103342 -0.43870318 -0.13443819 0.08421021
0001d0 c2 47 d6 3d 52 b3 ee bc c4 8a 91 3c 52 89 8d bc
       0.104629055 -0.029138241 0.017766364 -0.017277393
0001e0 c2 3e 0e 3e 2d 07 07 be 70 64 0c bd 00 70 9c bd
       0.13891128 -0.13186331 -0.034275472 -0.0763855
0001f0 a4 06 18 3d 20 a8 24 be b7 15 ca bd 92 ad fc 3c
       0.037115708 -0.1607976 -0.09867423 0.030844484
000200 9f 98 42 3d b9 89 a9 bd e2 df 85 3d 05 23 80 3e
       0.047508832 -0.08278222 0.06536843 0.25026718
000210 e7 d0 09 be d1 97 66 3e 2a 5c b5 3e ca d1 e0 bc
       -0.13458596 0.22518851 0.35421878 -0.027443785
000220 e4 ce 2a be e6 94 0d be 1c 33 52 3e 0a 36 2b be
       -0.16680485 -0.13826331 0.20527309 -0.16719833
000230 dc b9 3c 3c b2 1e 9b 3b f5 6d 99 3e 3e 17 1e 3d
       0.011518922 0.004733884 0.29966703 0.038596384
000240 fa 7f 9a bd 60 2e 7e 3d bf c6 4e 3d 12 2b 1c 3e
       -0.07543941 0.062055945 0.050482508 0.15250805
000250 69 df 0c 3b 66 cb 7d 3e 6d a7 e8 bd c2 9b 41 3e
       0.0021495468 0.24784622 -0.11360059 0.18907073
000260 7d 8c b7 bd f0 f2 ea 3e 81 75 ad 3e 0a 3f 4a 3e
       -0.08962343 0.45888472 0.3387871 0.1975061
000270 3a a8 c8 3d 2a e2 b9 3b b4 48 3f 3e c8 27 43 bf
       0.09797712 0.005672713 0.18680078 -0.76232576
000280 42 ef 83 3e e5 14 dc 3d 73 ce cd 3e 2a e2 e7 bd
       0.25768477 0.10746173 0.4019657 -0.11322434
000290 8e 07 ca 3e 7b b3 fc bd 32 dd 12 3f 31 f3 70 3e
       0.3945889 -0.12338921 0.5736877 0.2353027
0002a0 43 de 87 3e 88 37 09 3e 3f 43 e1 bd 84 a9 62 3e
       0.2653676 0.1340009 -0.10999154 0.22134978
0002b0 cc af 84 bd f6 2a bf bc 8f 77 74 3d 0b f5 8a be
       -0.06478843 -0.023335915 0.059684332 -0.27140078
0002c0 8c cf 8f 3e 7e 82 fe 3e bb 80 85 3d 8c a3 1b bc
       0.28088033 0.49708933 0.06518694 -0.009499442
0002d0 6f f6 db 3d 04 22 d6 3b 2f 08 bc 3d 74 3e 13 bd
       0.10740363 0.0065348167 0.091812484 -0.03594823
0002e0 e3 c4 16 3e 88 5e 8f bc de 0f 6a 3d 23 a1 db 3d
       0.14723544 -0.01750113 0.05714404 0.10724094
0002f0 b2 3f 19 3f c0 36 2c 3d bc 47 2c 3d eb 86 60 bd
       0.59862816 0.0420444 0.0420606 -0.054816168
000300 22 f9 3e 3d cc cd ba bd bc 0a 21 be fb 16 73 bd
       0.04662431 -0.09121284 -0.15726751 -0.059348088
000310 32 c7 19 3f e4 1c 04 bd 5b 49 ec bd b5 d8 54 3d
       0.6006957 -0.032254115 -0.11537429 0.05196448
000320 13 69 21 3e 6d 84 42 3f 87 88 e1 bd 27 d5 81 3e
       0.15762739 0.75983316 -0.11012369 0.25357935
000330 50 bc ef 3d 77 0c 0e bc ab e8 b1 3d 27 ee 34 bd
       0.1170584 -0.008669964 0.08686956 -0.044172432
000340 3f 76 1e bb c1 ea 00 be 43 14 b9 3c 55 c1 03 be
       -0.0024179367 -0.12589552 0.02259267 -0.12866719
000350 62 04 f2 3d ac 3f a6 3e 49 87 62 bc 7a 0f bf 3c
       0.11817242 0.32470453 -0.0138262 0.02332281
000360 fe 29 e4 bd 21 c1 3e 3d fd 47 b5 3e 21 2e 94 3d
       -0.11140822 0.0465709 0.35406485 0.07235361
000370 10 48 29 3e 83 da 74 be 1b c5 05 be 41 69 7f 3e
       0.16531396 -0.2391148 -0.13063471 0.24942495
000380 7e c2 b6 bd d8 d2 60 3d 7b 08 ee 3d 1f 34 65 3f
       -0.08923815 0.054888576 0.11622711 0.89532655
000390 c3 52 82 be d0 7b 26 be d7 d9 0e bd 88 a7 0a 3e
       -0.25453767 -0.16258168 -0.034875717 0.1354047
0003a0 d7 04 2d be 38 1b d0 3d 21 22 58 be 82 c3 08 3e
       -0.16896378 0.101614416 -0.21106769 0.1335583
0003b0 7e df c7 3e 5a f3 72 3e ec 32 76 3b 84 23 76 3f
       0.39037699 0.23725644 0.0037566973 0.9614794
0003c0 2a fa af 3c ff 53 97 bd 46 ed 34 3d 11 e6 67 be
       0.021481592 -0.07389068 0.044171594 -0.22646357
0003d0 aa d8 c9 39 c7 31 28 3e b0 a7 4b 3e 98 c6 0b 3e
       0.00038499135 0.16425239 0.19888186 0.13649976
0003e0 d3 14 81 3d 0e dd a7 bc 20 b8 45 be 13 74 e3 3d
       0.063028 -0.02049115 -0.1930852 0.11106124
0003f0 8a 9b 90 3e bc 47 40 be 7e 77 be 3c 16 c0 08 3e
       0.28243667 -0.18777364 0.023250338 0.13354525

linear3.bias f4 [4]
000000 44 e5 7b bd 04 7f b3 3d 80 12 f0 3d 94 a0 18 3d
       -0.06149794 0.08764461 0.117222786 0.037262514
