src/scripts/ddpg/weights/resnet64_20hz_sf0.5_3state/critic.pth (torch, 40271 bytes, 7 tensors)

linear0.weight f4 [64, 16]
-0.08625005 -0.005118619 -0.13330537 0.06933544 0.011655172 -0.108771354 0.11308481 -0.007194413
0.15955433 0.09339055 0.10822069 -0.07471265 0.23445387 -0.04497947 -0.13433157 -0.2680471
0.13023905 0.0038593134 0.047239732 -0.088232376 -0.0014584545 -0.006097353 -0.117859416 -0.0395534
0.04807875 -0.03578378 0.097879335 -0.006306964 -0.009558452 0.00087254954 0.020580888 -0.048883565
0.12628771 -0.22569059 0.11871691 -0.004469463 0.25013715 -0.19185443 -0.09967032 -0.055534594
0.022188623 -0.24668063 -0.17930336 -0.18345168 0.09691602 -0.103182115 -0.17382719 -0.14260812
-0.043513253 0.08800875 -0.03267671 0.094186 0.12262125 -0.099661194 -0.07237547 -0.011455854
0.11358864 0.0870829 0.11265367 0.02374943 -0.21253929 -0.16616245 -0.159366 0.22411327
0.15943882 0.023820253 0.02385671 0.15003215 -0.034786474 0.07717513 0.06775842 0.068867475
0.015210005 -0.024761785 0.22273567 0.033838253 -0.07042699 0.22554296 0.13781096 0.05258
-0.09991295 0.110415004 -0.014882003 -0.06094922 0.16081801 -0.1066044 0.17994484 0.08032601
-0.15389334 0.034450117 -0.13541417 0.1525411 0.25633717 0.0011943616 0.2523479 0.23865104
0.099079385 0.0590923 0.24578221 -0.27882543 0.24912201 -0.13259068 -0.18083903 -0.16595574
0.23941864 -0.32599145 -0.2099438 -0.031882863 -0.07496875 0.05756635 -0.047671877 0.03438011
0.15674292 -0.04102726 0.017097969 -0.032085616 -0.006411995 -0.012374038 0.08218492 0.14432861
-0.047993734 -0.09977338 0.056192406 -0.05179502 0.23185419 0.06882487 -0.09884524 0.21370871
-9.43829e-05 -0.00011465446 0.0005295375 -0.000118579155 -0.014603525 -0.00017215275 0.0019148389 0.022840554
-0.12867557 0.048618328 0.0041046944 -0.00011865035 -0.00047146317 -0.00047146317 -0.00047146317 0.0003550642
0.14732945 0.015622391 0.18783778 0.1520447 0.1390991 0.10719491 -0.061181024 0.14917585
-0.03263679 0.07927398 0.20349553 0.21447907 0.1278979 0.016134921 0.14807433 0.00377575
0.27144125 -0.017118905 0.02204992 -0.046010356 0.0026776667 -0.07606018 0.22499327 -0.03166514
-0.19534718 0.12170033 -0.050045807 0.06130972 -0.15251835 0.26975533 0.29294273 0.041418843
0.11532988 0.022742381 -0.21004196 -0.15448001 -0.019575786 0.08873226 0.028730227 0.19702812
-0.108780295 0.2566761 -0.20019048 0.029800432 -0.14653772 -0.0025605024 -0.047958937 -0.05280532
-0.0024958649 0.0009322466 0.009739243 -0.0004903015 0.00066370924 0.00095772697 0.023588615 -0.016941337
-0.0012038723 0.00072382775 0.0059741647 -0.0004891032 -0.08022362 -0.0036391907 -0.0021677623 -0.0058173887
-0.21081822 0.11409358 0.001481544 0.12841254 0.14551637 -0.124027714 -0.0432381 0.1379344
0.22827396 -0.05816314 0.12893267 -0.1363875 -0.21695416 -0.11214645 -0.08687078 0.20495464
-0.24143958 0.019491268 -0.090523735 -0.25668082 0.10155674 0.06536033 -0.13138203 -0.014537887
-0.017315105 -0.10981016 -0.29656857 0.010604407 0.0755997 -0.03195312 -0.18668392 -0.015342996
-2.402e-42 7.505e-42 0.017672084 1.1145e-41 1.8951013e-15 -5.151e-42 -5.5735636e-16 5.045e-42
2.7050427e-15 2.8298158e-29 -4.95e-43 3.4e-44 -4.08e-43 -6.219e-42 -2.5848212e-15 -3.22e-43
00000000: dea3 b0bd 17ba a7bb 3481 08be bdff 8d3d
00000010: 56f5 3e3c 84c3 debd 0299 e73d 1cbf ebbb
00000020: 3662 233e 8b43 bf3d cfa2 dd3d f202 99bd
00000030: ad14 703e 653c 38bd 378e 09be 783d 89be
00000040: 635d 053e 89ec 7c3b 737e 413d 2db3 b4bd
00000050: 9d29 bfba 4ecc c7bb 4760 f1bd bf02 22bd
00000060: 39ee 443d 0392 12bd f674 c83d a6aa cebb
00000070: 0e9b 1cbc cfbb 643a 4099 a83c 223a 48bd
00000080: 9151 013e 6f1b 67be da21 f33d 9374 92bb
00000090: fa11 803e 7d75 44be f41f ccbd 3e78 63bd
000000a0: eac4 b53c d999 7cbe 4d9b 37be c2da 3bbe
000000b0: e87b c63d 2551 d3bd c1ff 31be dd07 12be
000000c0: f43a 32bd ee3d b43d 04d8 05bd 97e4 c03d
000000d0: da20 fb3d 2b1b ccbd 9739 94bd 56b1 3bbc
000000e0: 29a1 e83d 8558 b23d f8b6 e63d 2a8e c23c
000000f0: e6a3 59be 7d26 2abe d730 23be f37d 653e
00000100: ee43 233e b122 c33c 266f c33c 07a2 193e
00000110: 437c 0ebd ff0d 9e3d edc4 8a3d 640a 8d3d
00000120: 6333 793c 3ad9 cabc d214 643e fb99 0a3d
00000130: 073c 90bd bcf4 663e 511e 0d3e 205e 573d
00000140: 299f ccbd 4321 e23d a5d3 73bc e4a5 79bd
00000150: 7aad 243e 6853 dabd 7643 383e f781 a43d
00000160: 3796 1dbe 911b 0d3d 03aa 0abe bc33 1c3e
00000170: a03e 833e 208c 9c3a be33 813e f060 743e
00000180: 22ea ca3d c40a 723d 55ae 7b3e 35c2 8ebe
00000190: d719 7f3e dac5 07be de2d 39be 4df0 29be
000001a0: 292a 753e 5ae8 a6be 82fb 56be 9b97 02bd
000001b0: 3789 99bd b1ca 6b3d 9643 43bd 29d2 0c3d
000001c0: 3781 203e 330c 28bd 0a11 8c3c 356c 03bd
000001d0: b61b d2bb 7abc 4abc 9150 a83d e1ca 133e
000001e0: 1495 44bd fc55 ccbd 022a 663d 0427 54bd
000001f0: 2f6b 6d3e 0ef4 8c3d 606f cabd 75d6 5a3e
00000200: 6fef c5b8 a572 f0b8 a9d0 0a3a b3ad f8b8
00000210: a043 6fbc e783 34b9 55fb fa3a 1d1c bb3c
00000220: 87c3 03be 0324 473d ac80 863b ecd3 f8b8
00000230: b72e f7b9 b72e f7b9 b72e f7b9 e927 ba39
00000240: 88dd 163e 0ff5 7f3c 8c58 403e 9bb1 1b3e
00000250: ff6f 0e3e 0189 db3d f498 7abd 8ec1 183e
00000260: 28ae 05bd 655a a23d 2261 503e 67a0 5b3e
00000270: abf7 023e 622d 843c cca0 173e 9372 773b
00000280: 59fa 8a3e f23c 8cbc 09a2 b43c 5b75 3cbd
00000290: cb7b 2f3b 71c5 9bbd a364 663e 4eb3 01bd
000002a0: 1709 48be 063e f93d d5fc 4cbd e71f 7b3d
000002b0: c52d 1cbe 5f1d 8a3e 97fc 953e cea6 293d
000002c0: 1232 ec3d 3b4e ba3c 3d15 57be 0230 1ebe
000002d0: 665d a0bc 42b9 b53d a75b eb3c bdc1 493e
000002e0: 34c8 debd 0d6b 833e bcfe 4cbe 0920 f43c
000002f0: fc0d 16be 1ace 27bb 9770 44bd 644a 58bd
00000300: aa91 23bb 0362 743a 5991 1f3c 9487 00ba
00000310: c6fc 2d3a f80f 7b3a e93c c13c 8fc8 8abc
00000320: 40cb 9dba 42bf 3d3a edc2 c33b 2937 00ba
00000330: 484c a4bd 7d7f 6ebb 0411 0ebb cb9f bebb
00000340: bbe0 57be e5a9 e93d 5e30 c23a 947e 033e
00000350: 3e02 153e 3e02 febd 6f1a 31bd ad3e 0d3e
00000360: a6c0 693e 793c 6ebd ed06 043e 2aa9 0bbe
00000370: 3b29 5ebe 0aad e5bd 4fe9 b1bd a1df 513e
00000380: f03b 77be 27ac 9f3c 8264 b9bd ab6b 83be
00000390: fbfc cf3d a3db 853d 0389 06be 5130 6ebc
000003a0: 68d8 8dbc 26e4 e0bd d6d7 97be 1bbe 2d3c
000003b0: 04d4 9a3d 46e1 02bd 122a 3fbe 3161 7bbc
000003c0: b206 0080 ec14 0000 0cc5 903c 111f 0000
000003d0: 738e 0827 5c0e 0080 a4a5 20a6 100e 0000
000003e0: 3beb 4227 1c7d 0f10 6101 0080 1800 0000
000003f0: 2301 0080 5611 0080 8941 3aa7 e600 0080

linear0.bias f4 [64]
0.06299448 -0.015880756 0.08009405 0.17775244 0.1918186 0.08651276 -0.26049358 0.14335023
-0.00047146317 0.036524702 -0.046755116 0.11984822 -0.0060699005 -0.0731618 -0.09266409 9.7383e-16
0.31309667 0.03673164 0.25935796 0.107465975 0.23353572 -0.117365256 -0.23753153 0.00013185681
-0.0003546682 0.045124676 -0.015421766 -0.10860724 -0.006818881 -0.058257394 -0.03402988 -0.012601891
-0.00055996736 0.2064822 1.01e-43 0.18499407 0.19251288 0.031880636 -0.20430715 -0.014299072
-0.17211242 5.44466e-16 0.12342802 0.16541278 0.21607417 -0.051725734 0.203941 -0.1031688
0.15888144 -0.034375153 -0.0028498915 -0.03808029 -0.16822001 -0.062235624 1.9999443e-25 0.053737164
0.11393719 -0.07344678 -0.16307852 0.22992282 0.010746346 -0.14960289 -0.2846764 0.0387714
00000000: 4003 813d 5c18 82bc 5908 a43d bc04 363e
00000010: 186c 443e 9a2d b13d 6a5f 85be 67ca 123e
00000020: b72e f7b9 ed9a 153d 4b82 3fbd fc72 f53d
00000030: 04e6 c6bb dbd5 95bd acc6 bdbd fc57 8c26
00000040: 354e a03e eb73 163d 91ca 843e 1f17 dc3d
00000050: fd23 6f3e 325d f0bd 773b 73be 0b43 0a39
00000060: c3f2 b9b9 a7d4 383d 93ab 7cbc 796d debd
00000070: eb70 dfbb 4e9f 6ebd ea62 0bbd 2978 4ebc
00000080: c6ca 12ba 1270 533e 4800 0000 166f 3d3e
00000090: 1922 453e 4595 023d e535 51be a846 6abc
000000a0: 3d3e 30be 80ee 1c26 d4c7 fc3d f861 293e
000000b0: 8c42 5d3e 5dde 53bd e9d5 503e 2a4a d3bd
000000c0: d1b1 223e f6cc 0cbd 3fc5 3abb 14fa 1bbd
000000d0: de41 2cbe c8ea 7ebd c494 7716 801b 5c3d
000000e0: e757 e93d 446b 96bd 0efe 26be e370 6b3e
000000f0: 7111 303c 8031 19be 1bc1 91be c2ce 1e3d

linear1.weight f4 [64, 64]
0.041267708 -0.0012316686 -0.08854072 -0.032858 0.019452931 0.10440004 -0.05551367 0.016217327
-3.7087912e-07 -0.0008481915 0.07068694 0.09530448 -7.453721e-07 0.058225203 -0.010292131 -1.1262733e-15
-0.0404481 0.031818625 0.17129557 -0.06699802 0.08780176 0.006165996 -0.016245678 0.0024098246
-3.5217985e-05 0.057101365 -0.022342175 -0.08381752 0.041483026 0.08412523 -0.052543953 -0.01503959
-0.00048918056 0.0007505711 5.2e-43 0.18017787 -0.13868803 -0.037269898 -0.09704679 0.09121245
-0.0021165553 -8.0122e-41 0.07435947 0.060690634 -0.03895925 0.021034053 0.07878184 0.083358765
0.031623956 -0.13075364 0.00027292082 -0.069165416 0.0025146578 0.041643154 -1.0726e-41 0.16823679
0.021835398 0.08749945 -0.058438588 0.018067924 -0.002250612 0.019865617 -0.124460645 -0.026307112
-0.015618848 0.00065683987 0.04698524 -0.091624685 -0.04198933 -0.12905614 -0.052700054 -0.015228705
3.9822194e-07 0.013811721 -0.05755672 0.10547805 -5.4474214e-08 -0.007899268 0.03246749 2.91e-43
-0.055014238 0.061426967 -0.026460733 -0.035283588 -0.113773726 0.021898976 -0.081872046 0.0016619818
-2.055251e-05 0.012088328 -0.00051666563 -0.08115038 -0.13245042 0.062118202 0.024827383 0.07220932
-0.0006672154 0.0009429478 1.1145e-41 0.008267308 -0.03351586 -0.14126715 0.016223326 -0.037004337
-0.010697393 6.404e-42 -0.057153445 0.077747405 0.042411357 0.008241172 0.10353213 0.119546875
-0.05418946 0.033649616 0.000316239 0.0403585 0.006629669 0.020644806 5.232055e-14 0.094164506
0.030014556 0.064954005 0.107508324 -0.038265035 -0.070944116 0.01513639 0.16571872 -0.045783244
-7.842e-42 7.505e-42 -2.1662573e-15 1.1145e-41 -2.12e-43 -0.03867143 -0.0052088476 -1.1145e-41
-1.0726e-41 1.1386e-41 5.17e-43 -7.871e-42 -4.67e-43 1.1145e-41 -2.402e-42 4.65e-43
-8.901e-42 -1.1145e-41 -5.31e-43 1.1055e-41 7.505e-42 -1.0726e-41 -1.1145e-41 2.73e-43
1.0726e-41 1.2314384e-14 6.219e-42 -4.885e-42 -1.1145e-41 1.0756448e-14 5.4099988e-14 -5.1e-43
-1.0173e-41 4.36e-43 2.402e-42 -1.0421e-41 -0.00046218027 -8.775e-42 8.108e-42 -5.38e-43
-5.500613e-16 -8.775e-42 -8.914e-42 -5.13e-43 -9.317e-42 -5.1792e-41 8.1e-44 -4.02e-43
-2.402e-42 -8.53e-42 -8.775e-42 -8.425e-42 -1.1145e-41 -8.025e-42 -9.787e-42 1.1145e-41
-4.08e-43 -1.18e-43 8.4e-44 2.402e-42 -8.775e-42 -1.4168595e-21 5.31e-43 1.1145e-41
0.016440816 -0.009764025 -0.13759279 0.022736086 0.09358004 0.08240615 -0.119697064 0.047365203
-2.4532017e-07 -6.672894e-05 0.15412445 0.06962072 -7.5373964e-07 0.087266535 -0.0062054056 1.1055e-41
0.020755703 -0.06418594 -0.021656904 0.016639045 -0.10587081 -0.050163645 -0.010150381 -0.00366506
3.758851e-05 -0.16584703 0.00053066656 -0.16159531 -0.09416689 0.023550255 -0.06475592 -0.09866179
0.0012975478 -0.0025751358 -1.0570413e-19 0.09874771 -0.07699637 0.13934459 0.058064662 0.17215902
0.055376586 1.0726e-41 -0.0008355048 0.0169314 0.01817519 -0.001933412 0.09682197 0.11079534
0.1474006 -0.049157504 -0.0009587155 0.05944575 -0.011887352 -3.4866374e-05 -8.901e-42 0.037516207
-0.012720707 -0.008326074 -0.09105474 -0.102836065 0.16315292 -0.19915283 -0.29130974 -0.055598978
00000000: 5408 293d f16f a1ba d654 b5bd 1c96 06bd
00000010: c15b 9f3c b0cf d53d 4d62 63bd 33da 843c
00000020: 3d1d c7b4 2b59 5eba 50c4 903d ff2e c33d
00000030: 9515 48b5 8d7d 6e3d 54a0 28bc 2750 a2a6
00000040: e8ac 25bd 3f54 023d 1b68 2f3e 4236 89bd
00000050: 69d1 b33d 200c ca3b a815 85bc 26ee 1d3b
00000060: 06b7 13b8 1fe3 693d f006 b7bc 85a8 abbd
00000070: 1bea 293d d949 ac3d 5438 57bd 9d68 76bc
00000080: 5a3c 00ba f9c1 443a 7301 0000 8c80 383e
00000090: 3c04 0ebe 52a8 18bd 78c0 c6bd 98cd ba3d
000000a0: e8b5 0abb 59df 0080 c749 983d be96 783d
000000b0: bc93 1fbd 9b4f ac3c 6058 a13d 00b8 aa3d
000000c0: 1f88 013d 48e4 05be d016 8f39 99a6 8dbd
000000d0: f5cc 243b 0392 2a3d e61d 0080 4446 2c3e
000000e0: 26e0 b23c e932 b33d 4d5d 6fbd 2f03 943c
000000f0: 017f 13bb 38bd a23c 39e5 febd 0382 d7bc
00000100: 32e6 7fbc c72f 2c3a 9873 403d b9a5 bbbd
00000110: 01fd 2bbd 4b27 04be 03dc 57bd d181 79bc
00000120: 35cb d534 8e4a 623c 98c0 6bbd e004 d83d
00000130: 08f7 69b3 ee6b 01bc a1fc 043d d000 0000
00000140: 9c56 61bd d89a 7b3d 2ec4 d8bc 8685 10bd
00000150: 3302 e9bd 7b65 b33c 88ac a7bd dbd6 d93a
00000160: 2e68 acb7 1f0e 463c d870 07ba 2c32 a6bd
00000170: 15a1 07be a86f 7e3d cc62 cb3c 7be2 933d
00000180: 11e8 2eba 2830 773a 111f 0000 9a73 073c
00000190: ed47 09bd 56a8 10be c8e6 843c dc91 17bd
000001a0: 1e44 2fbc da11 0000 bb19 6abd 083a 9f3d
000001b0: 88b7 2d3d fb05 073c a708 d43d fed4 f43d
000001c0: c4f5 5dbd 2ed4 093d e1cc a539 f44e 253d
000001d0: b23d d93b 4c1f a93c 7da1 6b29 52d9 c03d
000001e0: 16e1 f53c 9b06 853d 532d dc3d ccbb 1cbd
000001f0: 264b 91bd 9ffe 773c 2bb2 293e 3687 3bbd
00000200: dc15 0080 ec14 0000 6518 1ca7 111f 0000
00000210: 9700 0080 ef65 1ebd fbae aabb 111f 0080
00000220: e61d 0080 bd1f 0000 7101 0000 f115 0080
00000230: 4d01 0080 111f 0000 b206 0080 4c01 0000
00000240: d018 0080 111f 0080 7b01 0080 d11e 0000
00000250: ec14 0000 e61d 0080 111f 0080 c300 0000
00000260: e61d 0000 13d6 5d28 5611 0000 9e0d 0080
00000270: 111f 0080 5cc5 4128 0aa5 7329 6c01 0080
00000280: 5c1c 0080 3701 0000 b206 0000 0d1d 0080
00000290: c950 f2b9 7618 0080 9a16 0000 8001 0080
000002a0: 5c8b 1ea6 7618 0080 d918 0080 6e01 0080
000002b0: f919 0080 6090 0080 3a00 0000 1f01 0080
000002c0: b206 0080 c717 0080 7618 0080 7c17 0080
000002d0: 111f 0080 5f16 0080 481b 0080 111f 0000
000002e0: 2301 0080 5400 0080 3c00 0000 b206 0000
000002f0: 7618 0080 191c d69c 7b01 0000 111f 0000
00000300: e4ae 863c 4af9 1fbc 20e5 0cbe 0741 ba3c
00000310: e4a6 bf3d 8ec4 a83d bc23 f5bd 0402 423d
00000320: 8cb4 83b4 d4f0 8bb8 cdd2 1d3e 4f95 8e3d
00000330: 9854 4ab5 ccb8 b23d b756 cbbb d11e 0000
00000340: dd07 aa3c eb73 83bd d269 b1bc 9b4e 883c
00000350: ccd2 d8bd 6578 4dbd c94d 26bc 8131 70bb
00000360: 5ba8 1d38 ced3 29be 6e1c 0b3a 3e79 25be
00000370: 92da c0bd 77ec c03c c09e 84bd 310f cabd
00000380: 7b12 aa3a 9cc3 28bb 3a96 f99f 3d3c ca3d
00000390: 46b0 9dbd 59b0 0e3e 36d5 6d3d 744a 303e
000003a0: 8fd2 623d e61d 0000 c705 5bba b8b3 8a3c
000003b0: 23e4 943c 8b6a fdba 994a c63d abe8 e23d
000003c0: 2ff0 163e 6159 49bd 4f52 7bba 637d 733d
000003d0: 2bc3 42bc 7c3d 12b8 d018 0080 98aa 193d
000003e0: 836a 50bc 166a 08bc e87a babd b79b d2bd
000003f0: 8f11 273e b8ee 4bbe 8d26 95be c1bb 63bd

linear1.bias f4 [64]
0.040957596 0.104604 5.766e-42 0.11172455 0.042857353 -0.024095751 -0.022464236 0.08686824
0.036274217 -0.0014797758 0.09013716 0.0070524127 -0.012879159 0.07603972 -4.5e-43 -0.05713165
7.842e-42 -0.03585837 0.14440511 0.095010735 9.787e-42 0.07225264 0.09058952 -9.787e-42
-0.06795331 0.06100703 -5.6847416e-06 -0.054719493 0.08736197 0.018131126 -2.238754e-05 0.020598719
-2.66e-43 0.021082 0.044201482 -2.9597302e-10 0.0641725 0.053464588 -1.0833e-41 0.08350443
0.071413815 -0.122061 -0.08641031 0.004160466 0.11596387 0.106824405 -0.16035405 0.0007043341
0.058879197 -8.472052e-10 -0.05734024 0.023472412 0.06334937 -0.006997355 0.10028991 -0.05304724
0.12181299 0.006154492 0.00077652046 0.09928907 0.030770758 0.038047638 0.19500667 -0.015638461
00000000: 27c3 273d 9f3a d63d 1310 0000 d7cf e43d
00000010: 318b 2f3d 7464 c5bc eb06 b8bc fae7 b13d
00000020: 4694 143d 09f5 c1ba d599 b83d ed17 e73b
00000030: 1c03 53bc b6ba 9b3d 4101 0080 e102 6abd
00000040: dc15 0000 3ae0 12bd efde 133e fd94 c23d
00000050: 481b 0000 31f9 933d 0087 b93d 481b 0080
00000060: 1b2b 8bbd 82e2 793d 8fbf beb6 8c21 60bd
00000070: d5ea b23d ba87 943c e0cc bbb7 a5be a83c
00000080: be00 0080 29b4 ac3c 9d0c 353d 80b6 a2af
00000090: df6c 833d affd 5a3d 331e 0080 5f04 ab3d
000000a0: 6841 923d 1efb f9bd e3f7 b0bd 8554 883b
000000b0: 777e ed3d c1c6 da3d da33 24be 10a3 383a
000000c0: 502b 713d c4e0 68b0 99dd 6abd 3749 c03c
000000d0: 51bd 813d 114a e5bb cc64 cd3d 1048 59bd
000000e0: 1779 f93d 9fab c93b 688f 4b3a 1158 cb3d
000000f0: f512 fc3c d7d7 1b3d d4af 473e 3b1c 80bc

linear2.weight f4 [64, 64]
0.1700563 0.0010936295 -7.505e-42 -0.08101496 -0.0064941174 -0.09355672 -0.008331517 0.02531566
-0.046779823 -0.19038497 0.00029507076 0.04537948 0.0033793608 0.010781125 -9.787e-42 -0.024298739
0.22388394 -0.029380579 -0.106757924 0.026396535 0.26604187 -0.09278983 -0.011204145 0.03690531
0.00056100165 -0.06893264 -5.3914384e-05 0.010661018 -0.00017579786 -0.052698437 -3.3334932e-06 0.01882537
0.11003424 0.0041929916 0.0006780972 1.3540265e-12 0.0082054045 0.0039588492 0.32772958 0.0027124688
0.007755532 0.0003670554 0.009867901 0.003726935 -0.011601384 0.009808239 -0.056685034 0.0019480863
-0.0008149861 1.277386e-14 0.00878405 -0.016796254 0.010714715 0.0013300261 -0.021113727 0.0004573037
0.017754931 -0.0008108902 -6.404e-42 -0.028191945 -0.23281863 0.033272814 -0.16361885 -0.037895184
0.062557116 0.007879149 1.99e-43 0.053122327 0.026207402 0.053339828 0.022152435 0.008411047
0.0012096517 8.122628e-06 -0.080108695 -0.00387361 -0.07389872 0.013378782 2.58e-43 0.080721125
-0.16877751 0.051431328 0.041609515 0.0043474776 -0.2741387 0.06060138 0.11679953 -0.113474265
-0.05813833 0.004415 0.000103453705 -0.047141723 -0.027388144 0.026578424 3.935918e-06 -0.030477094
-0.021551559 -0.03841443 -0.0088165775 2.2580863e-12 -0.008369461 0.08682198 -0.068687186 -0.036442455
-0.013706748 -0.18818252 -0.047279578 0.038721144 0.0072893053 -0.089384675 0.08188793 -0.040732052
-0.009152299 -2.01424e-13 0.061938085 -0.022733437 0.0731151 -0.08413648 -0.028104147 -0.0038895828
-0.046467517 -0.0032631827 -0.0033992785 -0.053427503 0.05663302 -0.10293817 0.16099714 0.028466394
0.00080675195 -0.0060655368 1.44e-43 -0.19582336 -0.00045194908 0.00201909 -0.016315944 -0.0011748
0.0015063741 -1.8886452e-07 0.0043795337 -0.0003375738 0.0024410284 0.005174124 8.1e-42 0.00012316628
0.1909349 0.001344754 -0.27155742 -0.013131766 0.21286333 -0.14528316 0.0050691576 8.247523e-12
-0.011435982 0.0070248717 -0.000103891165 0.01930347 0.012577574 -0.0030632901 -4.8022514e-07 -0.00050350203
0.09566845 0.003837937 -9.667008e-06 -3.3563759e-15 0.006561004 -3.5513953e-05 0.13721135 -0.0033753563
0.0021095923 0.00058418437 0.0025334936 -0.0011131166 0.0108988015 0.0034796314 0.0018351141 -0.00012972188
0.008404916 -3.0365893e-13 0.00083520624 0.002200449 -0.021399057 0.12110845 0.0016351392 0.0019787606
0.016395425 0.0019039667 0.0015821817 0.0071075866 -0.22295 0.0041769478 -0.206602 -0.046474252
-0.039715786 -0.06579171 1.98e-43 0.057405878 -0.00026527623 0.12651587 0.0036344198 0.006318041
-0.017493378 0.0072505344 -0.008475059 -0.007877935 -0.030031815 -0.0063576596 1.1145e-41 0.034539483
-0.18278399 0.04729673 0.094976604 -0.031597998 -0.2915559 0.13573855 0.04045815 3.48e-43
-0.018228907 -0.007556641 9.186892e-05 -0.045451786 -0.024673192 0.09027255 1.7696126e-06 0.09509126
-1.19102195e-08 0.024958918 0.04530202 9.870778e-13 -0.022281729 -0.03225243 -0.117363974 -0.013046185
-0.013728695 -0.092199326 -0.004183233 0.05429163 0.10399159 -0.03140055 0.033706 -0.0031198224
-0.08438619 -1.743147e-13 0.037707333 0.07600769 0.09761613 -0.04457592 0.023898812 -0.0058245757
-0.09774155 -0.0029708326 -0.010813969 -0.0044083684 0.029332833 -0.10315651 0.17711549 0.07828788
00000000: 3d23 2e3e 1e58 8f3a ec14 0080 2ceb a5bd
00000010: 9bcc d4bb aa9a bfbd ea80 08bc c962 cf3c
00000020: 339c 3fbd 47f4 42be bab3 9a39 d5df 393d
00000030: 4478 5d3b 51a3 303c 481b 0080 260e c7bc
00000040: d541 653e 8aaf f0bc e6a3 dabd 8c3d d83c
00000050: a436 883e 9808 bebd 9791 37bc 062a 173d
00000060: 2f10 133a 8e2c 8dbd 2122 62b8 8dab 2e3c
00000070: 6156 38b9 51da 57bd fab4 5fb6 aa37 9a3c
00000080: a259 e13d 5d65 893b 55c2 313a f28f be2b
00000090: f66f 063c 3cb9 813b 2ccc a73e adc3 313b
000000a0: 1e22 fe3b 5871 c039 faac 213c 983f 743b
000000b0: bb13 3ebc bcb2 203c 912e 68bd ee56 ff3a
000000c0: cba4 55ba 081d 6628 faea 0f3c 4c98 89bc
000000d0: c68c 2f3c 4554 ae3a b2f6 acbc 43c2 ef39
000000e0: ca72 913c ec91 54ba da11 0080 cbf2 e6bc
000000f0: 0268 6ebe 1349 083d b38b 27be fb37 1bbd
00000100: f21d 803d 8c17 013c 8e00 0000 cc96 593d
00000110: e8b0 d63c dd7a 5a3d 0679 b53c 7dce 093c
00000120: 2d8d 9e3a 6c46 0837 0710 a4bd 64dc 7dbb
00000130: 3658 97bd ae32 5b3c b800 0000 1e51 a53d
00000140: 03d4 2cbe a8a9 523d bd6e 2a3d 4975 8e3b
00000150: e85b 8cbe 2739 783d 9834 ef3d 3265 e8bd
00000160: 7522 6ebd b4ab 903b 49f5 d838 ae17 41bd
00000170: 1a5d e0bc ffba d93c 4711 8436 19ab f9bc
00000180: e58c b0bc 7358 1dbd 6873 10bc 11e6 1e2c
00000190: 1020 09bc b9cf b13d deab 8cbd af44 15bd
000001a0: 4592 60bc ebb2 40be 3ba8 41bd 109a 1e3d
000001b0: 20db ee3b 500f b7bd dcb4 a73d a7d6 26bd
000001c0: 86f3 15bc 84c8 62aa cab2 7d3d 793b babc
000001d0: 5fbd 953d bf4f acbd ab3a e6bc 5fe8 7ebb
000001e0: b954 3ebd 1fdb 55bb 6ec6 5ebb ccd6 5abd
000001f0: 07f8 673d 3fd1 d2bd 6fdc 243e 5b32 e93c
00000200: 357c 533a 69c1 c6bb 6700 0000 eb85 48be
00000210: 94f3 ecb9 b652 043b 04a9 85bc bffb 99ba
00000220: 8771 c53a afca 4ab4 3182 8f3b 63fc b0b9
00000230: a9f9 1f3b b38b a93b 9416 0000 3226 0139
00000240: 7084 433e 7542 b03a 9309 8bbe 9e26 57bc
00000250: d8f8 593e 1cc5 14be 2d1b a63b 8b17 112d
00000260: fc5d 3bbc e530 e63b 25e0 d9b8 5022 9e3c
00000270: 2b12 4e3c 7bc1 48bb d2e8 00b5 73fd 03ba
00000280: d2ed c33d e685 7b3b 7c2f 22b7 35da 71a7
00000290: b1fd d63b d1f4 14b8 2281 0c3e 1535 5dbb
000002a0: 1641 0a3b f323 193a f808 263b ffe5 91ba
000002b0: e390 323c 870a 643b 3688 f03a f405 08b9
000002c0: c6b4 093c ddf1 aaaa bef1 5a3a 6835 103b
000002d0: 134d afbc b507 f83d 2b52 d63a 18ae 013b
000002e0: b34f 863c 858e f93a 3561 cf3a c2e6 e83b
000002f0: 014d 64be c7de 883b 7a8f 53be c95b 3ebd
00000300: 05ad 22bd cebd 86bd 8d00 0000 6d22 6b3d
00000310: c614 8bb9 608d 013e 722f 6e3b 9207 cf3b
00000320: 464e 8fbc e495 ed3b f9da 0abc 7412 01bc
00000330: 4805 f6bc ea53 d0bb 111f 0000 4679 0d3d
00000340: ba2b 3bbe 37ba 413d 1883 c23d e76c 01bd
00000350: d146 95be 0cff 0a3e 72b7 253d f800 0000
00000360: ca54 95bc b39d f7bb c0a9 c038 a72b 3abd
00000370: 6f1f cabc d1e0 b83d 6d83 ed35 35bf c23d
00000380: b39d 4cb2 a576 cc3c 9c8e 393d 3aeb 8a2b
00000390: 2c88 b6bc 201b 04bd 865c f0bd aabf 55bc
000003a0: 52ee 60bc 00d3 bcbd 8013 89bb e660 5e3d
000003b0: 8bf9 d43d dd9d 00bd 4d0f 0a3d ef75 4cbb
000003c0: abd2 acbd cb42 44aa 0173 1a3d eba9 9b3d
000003d0: f7ea c73d 3d95 36bd 71c7 c33c 15dc bebb
000003e0: b92c c8bd 4db2 42bb 132d 31bc 1374 90bb
000003f0: 694b f03c b843 d3bd c35d 353e 6555 a03d

linear2.bias f4 [64]
0.036020808 0.11296631 0.016713815 -0.07477932 -0.08650055 -0.09106372 -0.11342493 0.020690003
0.116418555 -0.045081392 0.05489798 0.054766044 -0.04271018 0.065797634 -0.07528066 -2.19e-43
-0.004568151 -0.0010947637 -0.027723966 -0.041061394 0.020637263 0.024902524 -0.003562912 0.06818004
1e-45 0.05054104 -1.89e-43 -0.07561857 -0.044787694 0.016052118 -0.053720787 0.053124018
0.09494395 0.06219224 9.787e-42 0.09278396 0.07909533 0.11983418 0.021664985 0.10768854
0.036674708 0.019146318 -0.027085649 -0.06811725 -0.008899295 0.06924111 0.06938824 0.07527868
0.014271745 0.10373261 7.505e-42 -0.088211805 0.08467324 -0.06886099 -9.787e-42 0.09123046
-0.08494501 0.05060288 -0.072903685 0.14727686 -0.05951317 8.775e-42 -0.063954525 -0.039152987
00000000: 8e8a 133d e15a e73d 69eb 883c e625 99bd
00000010: 3327 b1bd 9e7f babd 544b e8bd 157e a93c
00000020: da6c ee3d 44a7 38bd b4dc 603d 5c52 603d
00000030: dff0 2ebd e9c0 863d bf2c 9abd 9c00 0080
00000040: 6eb0 95bb 2d7e 8fba 5f1d e3bc fe2f 28bd
00000050: 7a0f a93c 6100 cc3c bf7f 69bb faa1 8b3d
00000060: 0100 0000 1f04 4f3d 8700 0080 e9dd 9abd
00000070: 4d73 37bd bb7f 833c 540a 5cbd 9298 593d
00000080: f971 c23d 4abd 7e3d 481b 0000 8405 be3d
00000090: bbfc a13d 9f6b f53d c47a b13c cf8b dc3d
000000a0: 3838 163d bdd8 9c3c b9e2 ddbc 0f81 8bbd
000000b0: 59ce 11bc 48ce 8d3d 6c1b 8e3d b52b 9a3d
000000c0: 0ad4 693c c371 d43d ec14 0000 64a8 b4bd
000000d0: 2a69 ad3d fe06 8dbd 481b 0080 09d7 ba3d
000000e0: a6f7 adbd f744 4f3d 874e 95bd bfcf 163e
000000f0: 15c4 73bd 7618 0000 97fa 82bd e25e 20bd

linear3.weight f4 [1, 64]
-0.44644904 0.21718909 -0.09698731 0.19567584 0.2375019 0.13646664 0.15309232 -0.1986202
0.28517374 0.22397517 -0.33848944 -0.12210633 -0.13081712 -0.21146859 -0.23944767 -0.45853028
-0.25208613 0.15274481 -0.29745486 0.27110812 0.13936915 -0.3046278 -0.19427128 -0.4540193
-0.31163976 0.15840693 -0.42082337 0.20580237 -0.25495693 -0.3902373 0.25166255 -0.28609228
0.31405565 -0.2874173 -0.07714187 -0.18938775 0.11846135 0.1687519 -0.230111 -0.40087187
-0.10625116 0.13219169 -0.33113536 -0.25445962 -0.35736552 0.18583727 0.15931918 0.17544809
-0.34774897 0.13431948 -0.4169566 0.20813297 -0.34254703 0.09533808 -0.3043924 0.14736016
0.067972474 -0.2679018 0.270755 -0.35993135 0.17520279 -0.15874551 -0.23450105 -0.2288297
00000000: f894 e4be d166 5e3e 48a1 c6bd 3f5f 483e
00000010: b333 733e e9bd 0b3e 3cc4 1c3e 1863 4bbe
00000020: 4b02 923e bf59 653e 7d4e adbe e212 fabd
00000030: ecf4 05be 398b 58be c531 75be 7bc4 eabe
00000040: 6f11 81be 2369 1c3e 014c 98be afce 8a3e
00000050: c9b6 0e3e 2df8 9bbe 0def 46be 3875 e8be
00000060: 3f8f 9fbe 6d35 223e 2976 d7be dbbd 523e
00000070: b789 82be 2fcd c7be ead9 803e b07a 92be
00000080: e7cb a03e 5c28 93be 8ffc 9dbd ddee 41be
00000090: dd9b f23d 4ccd 2c3e 38a2 6bbe 143f cdbe
000000a0: 359a d9bd 425d 073e 938a a9be 8848 82be
000000b0: 9df8 b6be 204c 3e3e 9124 233e aaa8 333e
000000c0: 270c b2be 0c8b 093e 567b d5be cf20 553e
000000d0: 5362 afbe 9c40 c33d 52d9 9bbe 95e5 163e
000000e0: 2735 8b3d 6d2a 89be 66a0 8a3e ec48 b8be
000000f0: 5c68 333e 2f8e 22be 0b21 70be 5552 6abe
