src/scripts/ddpg/weights/HER_VFC2L256_PFC2L64(curr best)/critic_best.pth (torch, 853167 bytes, 15 tensors)

linear_input.weight f4 [256, 17]
000000 05 da 1c bc 6c 57 21 3d 0a f3 79 3b ef 4e 19 3b
       -0.009573464 0.039390013 0.0038139247 0.0023392995
000010 0b 07 46 bc 95 e6 2c 3d fc 85 93 3b c8 9b 19 3b
       -0.01208664 0.042212088 0.004502056 0.00234388
000020 fa 3a 7e bc 12 62 34 3d a1 f3 b5 3b 51 ed 18 3b
       -0.015516991 0.04403884 0.0055527245 0.002333481
000030 28 19 20 bd 56 5d c4 bc 23 1e 81 3c 82 67 74 3c
       -0.03908649 -0.023970287 0.01576144 0.014917256
000040 06 c1 02 3c 65 b7 fd b5 24 0c a4 37 73 a4 8b 37
       0.007980591 -1.8903344e-06 1.9555977e-05 1.6646669e-05
000050 35 86 fc 34 18 4a 01 b6 11 17 a7 37 0a b7 87 37
       4.7036306e-07 -1.9265626e-06 1.9918692e-05 1.6178488e-05
000060 55 80 11 35 2e 9c f5 b5 ce 2a ac 37 e8 f7 82 37
       5.4203457e-07 -1.8299377e-06 2.052393e-05 1.5612648e-05
000070 20 f6 10 35 d2 f2 9b b7 e3 c5 2b b7 cf 6f 49 b5
       5.400234e-07 -1.8590512e-05 -1.0238468e-05 -7.504104e-07
000080 07 1d ee b3 23 95 90 35 da 55 b0 b6 80 c4 c1 37
       -1.1088019e-07 1.077224e-06 -5.255203e-06 2.3098895e-05
000090 84 28 26 38 0d 1f 8e b5 e9 11 b5 b6 d5 80 c8 37
       3.9615217e-05 -1.0588861e-06 -5.3963054e-06 2.390185e-05
0000a0 ca ef 1e 38 18 7e c8 b5 92 11 d3 b6 f7 65 cc 37
       3.7893456e-05 -1.4937859e-06 -6.2903355e-06 2.4366176e-05
0000b0 b0 41 1a 38 8b 23 8d b5 96 40 4a b8 8d 87 d6 b7
       3.6777637e-05 -1.0515663e-06 -4.8220703e-05 -2.5573909e-05
0000c0 76 5c d4 b6 10 1d 0c b7 d0 d6 87 37 7c 8b 4e 18
       -6.328856e-06 -8.351417e-06 1.6193284e-05 2.6695298e-24
0000d0 aa f6 db 98 46 a6 81 20 bf ac 6a 16 07 93 62 18
       -5.685924e-24 2.196348e-19 1.8956879e-25 2.9284045e-24
0000e0 1c ed cb 98 24 ba 1d 1f 3b b0 2b 97 05 d4 31 18
       -5.271369e-24 3.3400015e-20 -5.5475514e-25 2.2983756e-24
0000f0 44 0d a8 98 08 7a 60 a0 be ec 7f 16 6f d9 a3 18
       -4.3440377e-24 -1.9013915e-19 2.0673439e-25 4.2354064e-24
000100 91 7b 88 17 ed 1d 7e 18 ac 73 49 18 51 d7 e2 18
       8.819987e-25 3.284384e-24 2.603704e-24 5.8637045e-24
000110 9e 48 be b8 90 78 c9 39 de 07 ca 39 d1 82 d0 b7
       -9.073432e-05 0.00038427534 0.00038534304 -2.4856448e-05
000120 45 b8 c7 b8 7e fe cf 39 35 66 c3 39 0d 9d bd b7
       -9.523382e-05 0.00039671728 0.00037269449 -2.2603688e-05
000130 76 82 df b8 91 89 d3 39 1b da bb 39 61 de bb b7
       -0.00010657769 0.0004034755 0.0003582992 -2.239569e-05
000140 56 69 ce b9 a2 54 90 b9 49 a4 8e b8 4e 6c 69 b8
       -0.00039369863 -0.00027528877 -6.801688e-05 -5.5652396e-05
000150 a8 0c 28 39 f6 b0 39 bc ea 02 ad bc 86 53 d4 3c
       0.00016026443 -0.011333695 -0.021119554 0.025918733
000160 01 98 99 bc 08 34 85 ba 38 be 69 bd 00 d6 8d bc
       -0.018749239 -0.0010162601 -0.057066172 -0.017313957
000170 d5 29 97 bc bc 73 24 3c 67 cc da bd ac 5d 81 bc
       -0.018452564 0.010037359 -0.10683518 -0.015791737
000180 9f bc 97 bc 09 3a 70 3d d9 e2 79 bc 48 60 09 bd
       -0.018522559 0.058649097 -0.015251839 -0.033539087
000190 3d 37 53 bd 35 d6 a3 bd d2 2c 06 3d b0 15 cd bb
       -0.05156635 -0.07999841 0.032757588 -0.006258689
0001a0 c7 39 04 3c 9b 4f 49 39 29 01 16 3d fe 92 1f bc
       0.008070416 0.00019198509 0.0366222 -0.0097396355
0001b0 7a cd 2e 3c 28 ce a3 39 cc eb 21 3d d3 28 78 bc
       0.010669107 0.0003124338 0.039531514 -0.015146452
0001c0 e1 34 82 3b 52 79 9f 39 d9 3d 93 bc f5 59 79 3d
       0.003973589 0.00030417234 -0.017973827 0.060876805
0001d0 43 8e 2a bd f0 d3 a2 3c b0 31 c7 bb ed 43 f0 26
       -0.041639578 0.01987645 -0.0060789213 1.6671757e-15
0001e0 09 e2 9e 26 16 92 00 28 4e 25 fb a5 64 25 8b 24
       1.1024719e-15 7.137105e-15 -4.3566838e-16 6.034498e-17
0001f0 54 70 73 26 9e e0 fe 27 64 d0 41 a6 35 37 f4 26
       8.4459794e-16 7.0742693e-15 -6.724275e-16 1.6945865e-15
000200 27 a3 8a 26 6a d6 f5 27 7f 5a 94 26 f1 5a 0b a8
       9.619896e-16 6.823363e-15 1.0294092e-15 -7.73577e-15
000210 c7 39 54 25 94 f7 4c 25 b3 9b 6e 25 5d 67 19 27
       1.8407645e-16 1.7778062e-16 2.0695962e-16 2.1289049e-15
000220 2a d6 b5 b8 1e fe a2 3a 50 63 a4 3a 34 30 74 b8
       -8.670644e-05 0.0012435352 0.0012541804 -5.8219026e-05
000230 50 0f bf b8 5a d4 a5 3a 08 68 a2 3a b5 27 6c b8
       -9.110442e-05 0.0012651787 0.0012390623 -5.6303765e-05
000240 8b 8c 05 b9 2c 83 a7 3a 93 0c 9f 3a 71 cf 7c b8
       -0.00012736225 0.0012780181 0.0012134485 -6.0274677e-05
000250 ee 9b ab ba 0d f4 42 ba 30 a8 e5 b8 b8 c2 d1 b8
       -0.0013092735 -0.0007436879 -0.00010950898 -0.00010002166
000260 8a b9 c9 39 6f b5 d4 af 8b ea 95 30 c4 13 f4 30
       0.00038475945 -3.8691492e-10 1.0907838e-09 1.7758954e-09
000270 5a 63 16 2f 0b d1 e7 af 1e 15 98 30 81 92 f6 30
       1.3677717e-10 -4.216719e-10 1.1065457e-09 1.7940495e-09
000280 6d 67 1e 2f 38 f0 03 b0 0b 0a 99 30 dd bb fe 30
       1.440676e-10 -4.7998894e-10 1.113507e-09 1.8534326e-09
000290 d9 e0 1d 2f d4 90 d0 b0 4e ab b8 b0 ec 9a 64 af
       1.4358949e-10 -1.5175154e-09 -1.343645e-09 -2.0791519e-10
0002a0 20 69 ad af d5 59 f2 2f cf 54 73 23 3c 16 67 a4
       -3.1543212e-10 4.4083373e-10 1.3191015e-17 -5.0108974e-17
0002b0 91 5d 1b 26 33 9b 29 23 c9 7a 51 23 89 10 67 a4
       5.3903234e-16 9.194373e-18 1.13559135e-17 -5.0104146e-17
0002c0 95 4b 1a 26 10 8b c3 a3 e0 21 70 23 cc b9 4f a4
       5.3531916e-16 -2.1200838e-17 1.3017599e-17 -4.5043346e-17
0002d0 28 72 18 26 53 d6 3e a2 2f ec 33 a5 09 0a a5 24
       5.2890304e-16 -2.5863264e-18 -1.5605797e-16 7.1574344e-17
0002e0 db f3 a4 24 8d 84 a1 24 3e 66 a6 24 fe 3f 3c 29
       7.153677e-17 7.004717e-17 7.216423e-17 4.179989e-14
0002f0 d5 bd c7 2a 16 3b 5f 2d a9 23 f1 28 d3 bc 3d 29
       3.5481224e-13 1.2689202e-11 2.677184e-14 4.213021e-14
000300 f1 dc d0 2a 1e 95 54 2d 5c 8c ab 28 c8 3b 2d 29
       3.710153e-13 1.20839155e-11 1.9045685e-14 3.846557e-14
000310 1e 14 d3 2a b9 c5 4f 2d 46 96 f2 28 95 45 8b ab
       3.7495088e-13 1.1810491e-11 2.6932568e-14 -9.895857e-13
000320 76 7d 97 a9 85 38 14 29 93 19 5c 2a 1c 7f 0a 2a
       -6.727511e-14 3.2911624e-14 1.9548798e-13 1.2300962e-13
000330 92 46 56 3c 65 a3 18 bc 20 e8 0d bd 09 96 ab 3b
       0.013078349 -0.0093163 -0.0346452 0.0052363914
000340 66 d9 47 3c fa 5d fa bb 49 da 09 bd 15 11 aa 3b
       0.012197828 -0.0076405974 -0.03365544 0.0051900246
000350 9b a9 2f 3c d3 b0 7b bb 5e ad 05 bd e8 6a ab 3b
       0.010721589 -0.0038404956 -0.03263604 0.00523125
000360 f6 7c 94 b9 9e 59 32 bc cc cc 37 3c c5 db b5 3a
       -0.00028321863 -0.010885624 0.011218261 0.00138747
000370 41 f6 e4 bb 09 b9 6e bb 15 6e 37 bb af 1b 44 3a
       -0.0069873636 -0.0036426208 -0.0027989198 0.0007480932
000380 5c db 0e bb d2 e1 4e bb 11 c6 91 bb b4 e7 d7 ba
       -0.002179823 -0.0031567705 -0.00444866 -0.0016472251
000390 57 b2 0e bb 1b 32 61 bb 69 0c d9 bb cf 1d db bb
       -0.002177378 -0.003436214 -0.006623794 -0.006686903
0003a0 bf 42 11 bb 98 31 e1 3b b0 b1 ce 3b 75 4e a9 bc
       -0.0022165028 0.006872367 0.006307803 -0.020667294
0003b0 b1 8e 99 bc 71 ed a4 bc 40 5a 76 3a 8c 8f f0 ba
       -0.018744798 -0.020132752 0.00093976036 -0.0018353327
0003c0 a3 2d 76 bb ea 8c 83 3a de 10 53 3a ba b8 11 bb
       -0.0037563823 0.0010036502 0.00080515246 -0.002223535
0003d0 68 e8 1e bb 89 e0 82 3a 2c f4 8d 39 b3 53 d9 ba
       -0.0024247412 0.000998513 0.00027075538 -0.001658073
0003e0 9d bf 8b bb b7 2b 84 3a 47 34 6f bc f1 81 02 bc
       -0.0042647854 0.0010083829 -0.014599866 -0.007965551
0003f0 03 89 9b 3b e2 7d 9b ba 47 a4 39 bb 77 b9 1b 2b
       0.0047465577 -0.0011863078 -0.0028326677 5.5324446e-13

linear_input.bias f4 [256]
000000 ea d6 d7 3c 45 6e 89 35 3c 17 8d b6 a1 5c f2 18
       0.026347596 1.0239388e-06 -4.2048323e-06 6.2649065e-24
000010 1b 63 79 b8 14 89 a8 bd 94 b9 37 bc 86 e8 9c a7
       -5.9458525e-05 -0.082292706 -0.011213679 -4.35508e-15
000020 a1 5a 1e b8 77 14 2a af 99 75 af a4 d9 24 85 ab
       -3.775454e-05 -1.546868e-10 -7.609337e-17 -9.460446e-13
000030 67 15 d2 3c ec d9 81 bc 22 7c 55 3b 4d c8 cb ad
       0.025644971 -0.015850984 0.003257521 -2.316738e-11
000040 1f a2 07 b2 01 c2 0a bc 6e cc e2 3c 75 04 c2 bd
       -7.894896e-09 -0.008469106 0.02768537 -0.09473506
000050 44 22 09 3c 9b c5 1e bb c2 16 1b bb 8e 63 83 b7
       0.008369986 -0.0024226669 -0.0023664688 -1.5662776e-05
000060 46 27 79 3d 03 65 52 ba 11 72 d0 b4 e5 de 00 83
       0.06082847 -0.0008025916 -3.8826013e-07 -3.787169e-37
000070 02 97 7c ba d2 64 43 b9 b4 8a 52 3d d8 a6 93 3b
       -0.0009635539 -0.00018634208 0.05140181 0.0045059733
000080 5b 44 4e 94 1b 0e 9c ae 40 aa fc bc 6e 99 1c b0
       -1.0413823e-26 -7.096564e-11 -0.0308429 -5.6970506e-10
000090 47 84 ac 35 2d 9d 18 3a 68 ec cb 3b 5c a4 81 3b
       1.2853496e-06 0.0005821761 0.00622325 0.0039563607
0000a0 4c 8f 8f b5 9e 67 31 3b 49 ef 5f 3c bf 89 eb 3b
       -1.0696035e-06 0.0027069817 0.01366789 0.0071880515
0000b0 ad 59 9c a6 2a a5 0e 3c d8 14 1f b7 10 33 15 a9
       -1.0848981e-15 0.00870637 -9.481992e-06 -3.3128936e-14
0000c0 f9 e2 2e af e3 b0 ab b0 3a 6d 95 aa 01 11 db 34
       -1.5905845e-10 -1.2492162e-09 -2.6543508e-13 4.08043e-07
0000d0 1f 46 af b3 fc 82 71 bd fa 94 05 b4 62 2b 90 b0
       -8.1618275e-08 -0.058962807 -1.2440788e-07 -1.0489709e-09
0000e0 7e 92 da bd 61 1d 29 b6 3c 0c 97 b6 69 7c 2b b7
       -0.106724724 -2.5200063e-06 -4.501575e-06 -1.0221361e-05
0000f0 4a d9 c9 b6 af 24 ec bc 1b 14 85 b7 be 07 4e bd
       -6.0155626e-06 -0.028826086 -1.5864198e-05 -0.050300352
000100 a2 05 0a b2 6a 53 35 bc 88 c6 77 bd 78 ea 28 aa
       -8.033938e-09 -0.011067251 -0.06049207 -1.5002745e-13
000110 98 7d df a8 c3 be a1 ab b9 b2 fe 3c 89 47 17 be
       -2.4812441e-14 -1.1492685e-12 0.031091081 -0.14773382
000120 ea d0 74 a6 24 33 88 aa d2 6b 5a bc 9f e2 bb bd
       -8.4937637e-16 -2.419394e-13 -0.01333137 -0.09174084
000130 96 94 d3 b6 b0 4d 6d b1 49 50 16 bd e8 0f 85 ab
       -6.3055877e-06 -3.45322e-09 -0.03669766 -9.454633e-13
000140 34 92 e9 bc 96 35 8f 9d 07 41 b5 aa f7 24 b9 a6
       -0.028512098 -3.790719e-21 -3.219718e-13 -1.2846973e-15
000150 1c 23 20 bd d7 6c 4f ac 89 fe 67 bd ee c0 18 3d
       -0.039095983 -2.9476888e-12 -0.056639228 0.037293367
000160 11 a6 66 ad 88 07 04 bd b5 4f 87 b4 ab e7 68 bd
       -1.31108605e-11 -0.032233745 -2.5203704e-07 -0.05686156
000170 5a d1 33 a9 3a f7 4c bb 19 f8 1b b9 9c 0d a2 ac
       -3.9927568e-14 -0.0031275288 -0.00014874375 -4.605828e-12
000180 fc 10 b5 3c 64 56 a2 ac e9 2b 9d ad 13 a2 44 b2
       0.022102825 -4.613908e-12 -1.7868334e-11 -1.1445553e-08
000190 ff 49 76 bc 14 f1 10 bc 3b 47 91 bd 41 7c e0 af
       -0.0150322905 -0.00884654 -0.07093664 -4.083365e-10
0001a0 02 ae 71 32 5e 2f 44 a7 5d 2b 01 37 d1 77 ff 32
       1.4067611e-08 -2.7226142e-15 7.6990955e-06 2.9740393e-08
0001b0 13 a6 35 bd 52 68 0f bd 16 79 23 bd aa c9 1d 3a
       -0.044347834 -0.035011597 -0.0399104 0.0006019125
0001c0 1c b6 2f bd 20 8d cb b7 43 70 80 ad 50 d5 bb a9
       -0.042898282 -2.4265202e-05 -1.460177e-11 -8.341472e-14
0001d0 20 da c6 29 d6 a8 f1 3c b8 1f d3 af af 69 88 36
       8.830805e-14 0.029499453 -3.8403214e-10 4.065419e-06
0001e0 f0 25 cb 35 c1 9b 7c 34 52 fb 92 36 97 9d 51 bc
       1.513572e-06 2.3525992e-07 4.3803966e-06 -0.01279392
0001f0 85 ce f2 ae 7f de bf b8 f5 dd 69 3c 6a e7 37 bb
       -1.1041571e-10 -9.149033e-05 0.01427411 -0.0028061518
000200 83 5c 30 b7 80 48 4b 3d 50 7a 1f b2 9b 58 68 bd
       -1.0511957e-05 0.04962969 -9.282829e-09 -0.056725126
000210 7f 59 ae aa 47 f7 eb 37 7a 2d 38 b4 f8 07 2e bd
       -3.097071e-13 2.812933e-05 -1.715288e-07 -0.04248807
000220 e5 37 33 b9 a1 b6 a7 3c 9b 8f 02 b7 51 3c 96 bc
       -0.00017091593 0.020472826 -7.78204e-06 -0.018339308
000230 93 51 3d bd 43 e2 16 b3 60 e0 91 bc 4d b9 07 39
       -0.046220373 -3.513038e-08 -0.017807186 0.00012943633
000240 fb 46 8f b1 2b f0 af bc 17 a0 8b 3c cb 7e 79 af
       -4.1699173e-09 -0.021476826 0.01704411 -2.2691464e-10
000250 15 eb 6d bd 3b 88 48 bd 44 07 db 39 65 8d 03 bb
       -0.05808552 -0.048958044 0.00041776348 -0.0020073291
000260 f1 b3 bc b9 34 9f 73 3c ab 96 13 39 06 5c 56 3c
       -0.0003599222 0.0148695 0.0001407514 0.013083464
000270 f5 a4 12 16 8d e4 90 bb a1 01 68 b1 20 49 cc 31
       1.1845837e-25 -0.0044217766 -3.376137e-09 5.9454948e-09
000280 a4 52 bc 96 7e 3f a8 ab 5f d5 7f bd e5 e5 1d bd
       -3.0425192e-25 -1.1954741e-12 -0.062459346 -0.038549323
000290 7e 12 60 b2 5d 91 fd aa 4f 60 e8 3b 75 97 a8 34
       -1.3042721e-08 -4.5042694e-13 0.007091559 3.1402638e-07
0002a0 c9 da 9e a2 19 75 89 bc f5 4a 19 ba 59 d3 3a b4
       -4.3057634e-18 -0.01677947 -0.0005847656 -1.7399488e-07
0002b0 4c 3a 05 bb a8 0c b9 b4 3f bd 1e bd 23 01 1d b2
       -0.0020328937 -3.4468144e-07 -0.038754698 -9.138861e-09
0002c0 76 77 ab bd c2 ba e6 39 4c f5 03 a5 25 17 91 3c
       -0.08372395 0.00044008164 -1.1445549e-16 0.017711231
0002d0 3a 19 56 b0 3c 61 98 b7 d3 8b ca 3c f5 09 13 3a
       -7.7888596e-10 -1.816509e-05 0.024724877 0.00056090887
0002e0 c2 43 c1 a9 1b 63 de 35 80 b1 34 b5 e0 1b d2 8e
       -8.582676e-14 1.6569132e-06 -6.731352e-07 -5.179584e-30
0002f0 d6 18 0d be 68 f9 49 33 16 9a 8e bc 5b 8f 01 ab
       -0.13779005 4.7025793e-08 -0.017407458 -4.602895e-13
000300 ae f8 39 bb b4 ea 73 b1 5f a9 9b 2e de 4d 06 3d
       -0.0028376984 -3.5494567e-09 7.07867e-11 0.032789104
000310 31 97 4e bd ef 08 81 bb 93 6e b3 ad f1 f6 3f bd
       -0.050437156 -0.0039378325 -2.0399049e-11 -0.04686636
000320 15 c1 8e 2d 20 64 45 bc 66 99 93 3c 68 21 8c ae
       1.6229277e-11 -0.012047797 0.018017482 -6.372397e-11
000330 48 8a 9d bd c3 64 1d 2c 58 02 7f 3c 1b 98 46 af
       -0.07692391 2.2366976e-12 0.015564524 -1.8062034e-10
000340 70 b2 e7 bc aa ce 4f 3a 75 d3 3a b5 f8 99 60 37
       -0.028283328 0.00079272187 -6.959811e-07 1.3387289e-05
000350 34 ca ce bd f2 b0 52 aa 7a dd 3f b2 18 d0 8d ad
       -0.10097161 -1.8713137e-13 -1.1168021e-08 -1.6122256e-11
000360 a0 0b 6a ad a4 07 0e 3d c3 85 2d bb b5 e4 89 3d
       -1.3303941e-11 0.034675255 -0.0026477433 0.067330755
000370 10 e4 0e 3c 1c 22 db bb 14 78 ba ac 35 35 c7 3c
       0.0087213665 -0.0066874158 -5.2997693e-12 0.024317363
000380 8c a8 3f 3c ed 8f 62 bc d3 e5 24 3a 84 ac 95 bc
       0.0116979 -0.01382826 0.000629035 -0.018270738
000390 23 fc f7 b0 aa a3 27 b1 da d2 8a bc bb 0d e8 3a
       -1.8043277e-09 -2.439473e-09 -0.016946245 0.0017704287
0003a0 86 02 2a ab 6a f3 c1 bb 81 3f 73 bd a9 b7 1e 3b
       -6.0399635e-13 -0.00591891 -0.059386734 0.0024218357
0003b0 9c 46 0b 3a cc ec 08 ac 9d 3e 9d bb 63 d6 84 3d
       0.0005312951 -1.945821e-12 -0.004798724 0.064862035
0003c0 74 5e 86 b1 da e9 14 b8 96 d1 72 b6 2e 3a 43 b5
       -3.9106514e-09 -3.550374e-05 -3.6182805e-06 -7.2727823e-07
0003d0 0c 88 8c bd 50 82 0c b9 da 7c 10 b8 74 db ea b0
       -0.068618864 -0.00013399986 -3.4448552e-05 -1.7088113e-09
0003e0 18 52 cd 94 a2 7d ca 3c 40 02 a8 b1 a4 6a 1f 3d
       -2.073209e-26 0.02471811 -4.8896993e-09 0.03892006
0003f0 f5 cf 98 bd ea ff 9a bb 8a 21 d1 bc f2 40 6e b8
       -0.0746154 -0.0047302144 -0.025528688 -5.6804107e-05

linear_hidden.0.weight f4 [256, 256]
000000 ed 4f d9 3b 02 10 3f 36 dc 75 9b 36 e1 13 cd 98
       0.0066318423 2.8470536e-06 4.6330806e-06 -5.301133e-24
000010 95 89 0f 38 b3 e7 70 3c bb ef f4 3b 41 0f 13 26
       3.422199e-05 0.014703679 0.007474867 5.1021543e-16
000020 be 6a 0a 39 ee 76 e3 2e 7e 58 37 a3 67 73 e2 29
       0.0001320047 1.0343891e-10 -9.939189e-18 1.0056435e-13
000030 cf 94 31 3b 5a 34 21 3b 6d 3d 27 3a 43 f5 b9 2a
       0.0027096753 0.0024597854 0.00063796976 3.3032786e-13
000040 1e 0a 8f 30 13 f2 67 3c 93 91 9c 3b d3 95 a5 3c
       1.0407495e-09 0.014156836 0.004778096 0.020213043
000050 d5 87 90 bb 79 5a 36 3b 6f d3 af b7 59 ad 45 b6
       -0.0044107237 0.0027824922 -2.0960082e-05 -2.945619e-06
000060 a9 ef 88 3c 15 3c d9 b6 92 67 b1 b3 44 42 ac 03
       0.016715841 -6.4740984e-06 -8.261044e-08 1.0124465e-36
000070 66 6b b5 39 f2 85 31 37 04 6d 48 3c 83 27 12 bb
       0.00034603028 1.0581209e-05 0.012233023 -0.0022301383
000080 27 ae 13 93 b3 e1 76 2c 36 9c b3 3b de 33 85 2e
       -1.8639872e-27 3.508399e-12 0.0054812683 6.057353e-11
000090 f2 4c 90 34 55 e0 97 38 a8 2a 40 3a b4 3e b3 3a
       2.6878075e-07 7.242026e-05 0.0007330575 0.0013675303
0000a0 06 6a d0 ac 79 94 3c ba 4b 3f a5 bb 21 51 68 bb
       -5.9234865e-12 -0.0007193755 -0.0050429455 -0.0035448747
0000b0 fa 84 09 a6 f6 ae 55 3a 9a c7 d3 38 24 88 94 82
       -4.771164e-16 0.00081513764 0.00010098443 -2.1824786e-37
0000c0 d8 db 5a ac f1 6f 39 30 38 7f 5d a8 60 53 b7 34
       -3.11017e-12 6.7461686e-10 -1.2295551e-14 3.414707e-07
0000d0 4f e0 81 33 d4 9f 8c 3c c2 51 ad 31 a9 41 01 af
       6.047832e-08 0.017166056 5.0442575e-09 -1.1755809e-10
0000e0 f3 ed 96 3c 72 b1 eb 33 71 ad ab 35 20 ba 12 b3
       0.01842401 1.09753174e-07 1.2790971e-06 -3.4162554e-08
0000f0 6a 4c c1 35 d0 1f 3a 3c e4 1f c7 32 1b 0b 47 3c
       1.440186e-06 0.011360124 2.3181151e-08 0.012148644
000100 55 24 8d 30 09 94 1b 3c b1 01 35 3c 86 6b 23 28
       1.0269426e-09 0.009495744 0.011047767 9.071633e-15
000110 d4 00 00 80 d5 7c 03 28 73 a8 20 3c 66 21 e9 3c
       -2.97e-43 7.2990294e-15 0.009805786 0.028458308
000120 5c 3f 08 a4 9f 6a 9c 28 93 3f e3 3b 60 74 8a 3c
       -2.9543967e-17 1.7365719e-14 0.006935069 0.016901195
000130 82 b2 ac 36 6a 61 6b 31 29 b2 20 3c e3 85 1c 27
       5.1467805e-06 3.4252374e-09 0.009808102 2.172193e-15
000140 7a 1d 13 3c db cf d5 1c af 3a 94 2c 6a e1 9e 25
       0.008979196 1.4148887e-21 4.212928e-12 2.7561377e-16
000150 dc fc e1 3b d0 87 a8 a9 88 6a 32 3c ab 03 d1 37
       0.0068965983 -7.4842584e-14 0.010889657 2.491645e-05
000160 89 3a b3 2c 4a 2d 36 3c 01 a9 93 32 b5 82 39 3c
       5.0939847e-12 0.011119196 1.7189906e-08 0.011322667
000170 30 13 6a 28 3c 20 1f bc 1f e0 50 38 98 7d 6f 2c
       1.299377e-14 -0.009712275 4.9799793e-05 3.4033661e-12
000180 59 17 2c 3b bb 5b aa aa d9 82 91 2d 26 d0 12 31
       0.0026259033 -3.0261717e-13 1.65427e-11 2.1364115e-09
000190 9c 63 82 3b ed 96 2e 3b 76 f0 54 3c b9 68 0b 30
       0.0039791595 0.0026640252 0.0129967835 5.0716725e-10
0001a0 8e 20 af 34 c4 ea 4f 24 70 01 97 36 a8 51 97 b2
       3.2619977e-07 4.5084824e-17 4.500318e-06 -1.7615847e-08
0001b0 10 65 28 3c 8d e3 1b 3c 82 19 70 3c 4e 36 b2 39
       0.010278001 0.009514702 0.014654519 0.00033991266
0001c0 58 f0 02 3c 15 50 ab 37 97 1a 33 ac f6 0f 7d 29
       0.007991873 2.042208e-05 -2.545219e-12 5.619113e-14
0001d0 b4 d3 a4 a9 d9 d4 2d 3b 88 39 21 2f 15 7f 1a 36
       -7.319788e-14 0.0026524572 1.4663304e-10 2.302176e-06
0001e0 1d ec 4f 35 57 5e ba 35 f8 0a 5a 35 9a 1c ed bb
       7.74571e-07 1.3885536e-06 8.122729e-07 -0.0072360756
0001f0 16 d2 c2 2c 74 73 dd 37 7c 79 70 3c dc 03 36 bc
       5.537136e-12 2.6399015e-05 0.014677402 -0.011109319
000200 61 19 5b 37 f2 d1 31 3b 91 c7 17 b1 e1 8b 12 3c
       1.3059326e-05 0.0027133194 -2.2086832e-09 0.008944483
000210 32 fe 06 a9 60 9b 1b 38 95 8d a8 32 4e d2 fd 3b
       -2.9974456e-14 3.7099584e-05 1.9622158e-08 0.0077460175
000220 64 06 38 36 af 26 ea bb 02 ba 7a 37 5a 6d 19 3c
       2.7421856e-06 -0.0071457247 1.49444695e-05 0.00936445
000230 48 c3 0b 3c d9 5c e4 b0 c6 b8 3e 3b d5 4b 93 38
       0.008530445 -1.6615572e-09 0.0029101833 7.023631e-05
000240 72 c7 1b 31 26 fd 63 3b ec 40 14 3b 03 31 0e 2d
       2.266884e-09 0.003478834 0.0022621704 8.082648e-12
000250 55 9d 64 3c 13 0a 20 3c f7 3d b0 39 95 9d f3 35
       0.0139535265 0.009768027 0.00033615503 1.8150773e-06
000260 96 7a 83 36 ac c1 2e 3b 8c 0a 3c 38 85 89 d5 3a
       3.918375e-06 0.002666573 4.4832515e-05 0.0016291594
000270 51 6d 8f 15 57 f8 ac 3c a7 ea 81 2f f9 13 1a af
       5.792971e-26 0.021114511 2.3631694e-10 -1.4013314e-10
000280 88 13 86 95 a0 4b 4e 2a 3d 8b 0a 3c 7f c9 2b 3c
       -5.4152984e-26 1.8322713e-13 0.008456049 0.010485052
000290 ed 83 f2 2f 45 2e cc 29 d4 25 34 3c 8d 35 93 34
       4.4113282e-10 9.0674464e-14 0.010995347 2.7419847e-07
0002a0 09 b6 37 20 9f e2 41 3b b3 40 c6 39 22 06 8a 34
       1.5560933e-19 0.002958454 0.00037813708 2.5708965e-07
0002b0 71 d0 bb 38 40 11 6f 33 c5 eb 96 3c 7e d3 4d b0
       8.95568e-05 5.5662213e-08 0.01842297 -7.4879114e-10
0002c0 04 f8 68 3c fe d6 b8 3a 41 75 da 23 78 dc c4 bb
       0.014219288 0.0014102159 2.3685266e-17 -0.0060077272
0002d0 6e c6 34 30 0a b1 ba 37 02 6f 04 3c 7b 7f c2 3a
       6.5765604e-10 2.2255368e-05 0.008083107 0.0014839018
0002e0 f8 13 a3 9d 36 f3 85 35 ae 0d fb 33 19 fa 59 8c
       -4.3166388e-21 9.980056e-07 1.16905866e-07 -1.6792333e-31
0002f0 cb a1 c4 3c b6 b5 52 34 c0 85 39 3b ff 31 41 28
       0.02400293 1.962388e-07 0.002830848 1.0724493e-14
000300 c8 4b 18 bc 78 0f ea af 21 a8 56 2d f6 66 3f bc
       -0.009295411 -4.2575343e-10 1.2201824e-11 -0.011682263
000310 5b fe 18 3c 75 2a 03 bc 08 e3 ba 2a a1 96 18 3c
       0.009337987 -0.008005728 3.3197772e-13 0.0093132565
000320 50 20 2a 2d c0 c3 0c bc 5a 69 a6 bb e1 0c 1d 2d
       9.670556e-12 -0.008591592 -0.005078477 8.9272765e-12
000330 37 95 94 3c 0b f9 20 2e 95 1a b9 bb f5 b1 0e 2f
       0.018137557 3.6600983e-11 -0.005648921 1.2978048e-10
000340 58 88 a0 3b 2e 95 d1 39 95 c6 9f 34 b6 ca 80 36
       0.004899066 0.00039974734 2.9760545e-07 3.838296e-06
000350 2f d0 8f 3c fe 34 fc 28 b0 bf 60 33 cb cf 3a ac
       0.017555324 2.8000602e-14 5.2328403e-08 -2.6547538e-12
000360 73 8f 93 ad 09 89 05 3c d2 22 28 bc 6e 4c 7c 3c
       -1.677567e-11 0.0081503475 -0.010262208 0.015399082
000370 08 99 63 3c e5 63 e9 3b 01 46 d3 2a 44 b7 c7 3b
       0.013891466 0.007122504 3.7529704e-13 0.006094845
000380 ea 40 47 3b 7b 03 0a 3b 82 21 05 3a 36 11 80 3b
       0.0030403682 0.0021059203 0.00050785404 0.0039083017
000390 8b 04 10 31 dd 02 02 32 fe 94 91 3b 1e 0d 80 3a
       2.095734e-09 7.567647e-09 0.00444281 0.0009769534
0003a0 a3 16 f1 29 84 07 b7 3c 2b 0d 4a 3c 8f 2b ac 3a
       1.0706477e-13 0.02234245 0.012332241 0.001313554
0003b0 45 82 90 39 e9 0b 14 ab ac e0 1c 39 69 34 5e 3c
       0.0002756288 -5.259669e-13 0.00014961016 0.0135623
0003c0 8c ad a3 31 cc da f4 38 cf cb 44 35 c2 94 b9 35
       4.7636544e-09 0.00011675581 7.331227e-07 1.3826868e-06
0003d0 9d 5d 55 3c 4f 7a 58 38 de 5c 69 36 58 00 00 00
       0.013022807 5.1612322e-05 3.4773761e-06 1.23e-43
0003e0 c7 38 e4 93 79 33 12 3b 04 6c 2b 32 65 1a 43 3b
       -5.761128e-27 0.0022308512 9.97807e-09 0.002977037
0003f0 dd ee a1 3c ad 41 eb bb 79 2e 90 3b 92 11 49 36
       0.01976722 -0.00717946 0.004400071 2.9961561e-06

linear_hidden.0.bias f4 [256]
000000 35 e8 07 bb 82 d9 c9 b9 33 76 d8 92 a0 b1 76 ba
       -0.0020737771 -0.00038499763 -1.3660655e-27 -0.00094106235
000010 94 dd 96 ba 35 38 bd ba c6 6d de b9 05 13 8c 3d
       -0.0011510127 -0.0014436307 -0.00042424927 0.06839565
000020 e3 65 15 ba 26 df 9c ba 41 6c fb b9 74 17 3b 9b
       -0.0005699081 -0.0011968359 -0.00047955106 -1.5475856e-22
000030 02 1f a4 ba 2a d6 3b 06 ee 6d 17 85 80 8e 44 b6
       -0.0012521448 3.5328134e-35 -7.120177e-36 -2.9289222e-06
000040 4a 68 9b 3d 6e 0a 90 38 03 d7 95 ad 83 82 85 3d
       0.07588251 6.868398e-05 -1.7034823e-11 0.06519034
000050 1b 9d 99 3d c7 f4 e1 9d 26 5c 44 39 08 69 a5 ba
       0.075006686 -5.9810098e-21 0.00018726345 -0.0012619803
000060 02 fb 1c ba ed 88 4d 2b 18 e0 59 30 05 9b 78 b1
       -0.0005988331 7.3020653e-13 7.9262596e-10 -3.6176868e-09
000070 ac 07 ea b7 35 6f 86 ba 68 53 0c ba 98 02 40 ba
       -2.7898546e-05 -0.0010256531 -0.00053530047 -0.0007324605
000080 2e 4c 80 b8 1b c5 ee 94 9a 23 ae 2f 34 40 db ab
       -6.117705e-05 -2.4109603e-26 3.1675712e-10 -1.5578706e-12
000090 9b db 84 ba 13 ad e6 9f e3 a2 b1 a1 03 ca 26 ba
       -0.0010136248 -9.7695116e-20 -1.2037102e-18 -0.00063624996
0000a0 63 9a d9 34 95 03 76 b9 47 d6 9b 3d a1 90 49 37
       4.053173e-07 -0.00023461723 0.076092295 1.2014208e-05
0000b0 43 86 25 a8 a7 02 00 80 e7 88 9e ba 26 e9 2e bb
       -9.188453e-15 -9.51e-43 -0.0012095243 -0.002668926
0000c0 85 2b 1b b1 8d 8c 69 b9 5d f5 3f b7 e8 9b 1a ba
       -2.2580207e-09 -0.00022272971 -1.1441615e-05 -0.00058978656
0000d0 89 9f ea b8 33 86 df ba ed b9 70 0c 87 c6 01 8b
       -0.00011187705 -0.0017053544 1.8544877e-31 -2.4993852e-32
0000e0 87 79 83 b9 72 2f a2 ba 95 e9 a5 28 b1 25 ee ba
       -0.00025076812 -0.0012373759 1.841998e-14 -0.0018169192
0000f0 9e 10 b9 ba 72 c9 b2 b8 b5 38 9b ba 04 62 7a ab
       -0.0014119332 -8.5252235e-05 -0.0011842462 -8.8953866e-13
000100 ea 8c 9c a2 53 f1 0e b3 7f c2 3f a9 e4 02 14 3d
       -4.2433083e-18 -3.3281434e-08 -4.2579218e-14 0.03613557
000110 0c f6 88 ba 1d db 7a 37 f7 ac 1a ba 57 8c 15 80
       -0.0010449304 1.49521775e-05 -0.00059004076 -1.97889e-39
000120 57 47 38 39 ad a7 0c a2 80 e0 5d ba 6f 24 97 b9
       0.00017574184 -1.9062305e-18 -0.0008463934 -0.0002882811
000130 e0 49 7e 3d 35 bf 85 ba e3 ea 6a ba e7 aa 5d ba
       0.06208217 -0.0010204079 -0.00089613925 -0.00084559474
000140 56 71 d9 ba 72 7a f7 b9 4d 72 e2 33 e6 8a 0f 31
       -0.0016589563 -0.0004720274 1.0544736e-07 2.0888193e-09
000150 fb be 91 3d 59 fa 0c bb 60 8b 86 ba 71 f7 18 b9
       0.07116505 -0.0021511524 -0.0010264926 -0.00014588029
000160 19 1e d8 ba c9 1a a8 98 9f 71 a7 ba e3 44 d6 ae
       -0.0016488462 -4.345403e-24 -0.0012774951 -9.74383e-11
000170 77 0f 49 8a 54 fe 0a bb 38 07 be 37 e4 97 91 af
       -9.6807066e-33 -0.002120872 2.2653127e-05 -2.648327e-10
000180 5b 27 15 b3 36 9e a1 3d 74 99 40 b1 b5 97 1d ab
       -3.472756e-08 0.078915045 -2.8026905e-09 -5.598814e-13
000190 8e 8b f5 96 bf ac ac b4 ea 55 65 ba d3 c9 18 b1
       -3.9669956e-25 -3.2163186e-07 -0.0008748459 -2.2233635e-09
0001a0 1f 05 00 80 9c 66 bd 90 34 36 fa a1 aa 27 b1 ba
       -1.837e-42 -7.470545e-29 -1.6955006e-18 -0.0013515849
0001b0 31 ba 0a b9 b8 c4 8c 3d fb 6d 76 ba c0 29 7b a3
       -0.00013230067 0.068734586 -0.00094005436 -1.3615578e-17
0001c0 6e 81 c6 ba f7 32 87 3d e4 13 95 38 ac 78 70 ba
       -0.0015144774 0.06601518 7.1085786e-05 -0.0009173255
0001d0 f1 ad e6 a9 ed c4 9d ba 84 ec 89 ba e8 74 5d ba
       -1.0244226e-13 -0.0012036838 -0.0010522758 -0.00084479013
0001e0 e4 0e f0 ba 26 c4 b3 b3 23 84 95 3d 01 ae 48 ba
       -0.0018314985 -8.371016e-08 0.07300594 -0.0007655323
0001f0 d8 5e 17 bb d1 32 af ba 08 98 ed 99 87 a5 ba 33
       -0.0023097303 -0.0013366585 -2.456663e-23 8.691409e-08
000200 69 41 78 3d bd 48 77 a7 c9 f0 71 ad 28 6c b9 b3
       0.060609255 -3.4317567e-15 -1.3752729e-11 -8.634407e-08
000210 e6 dc b1 ba 56 c6 87 ba 15 19 44 a6 46 4c 97 3d
       -0.0013569861 -0.0010358791 -6.8035153e-16 0.07387595
000220 25 7a 97 30 0f 69 76 af df 12 df ad 3e e3 91 3d
       1.1021412e-09 -2.2410894e-10 -2.5360545e-11 0.07123421
000230 d9 00 00 00 6b e8 ac b4 6e 12 97 3d d9 81 b7 b2
       3.04e-43 -3.2206603e-07 0.07376562 -2.1363052e-08
000240 d5 75 26 1b b9 9a 7e 3d d5 ff 28 34 94 7e 03 bb
       1.3769272e-22 0.062159274 1.573929e-07 -0.002006446
000250 f4 24 f2 39 5a 12 50 a5 b6 53 1a a4 2d 11 ec ba
       0.0004618537 -1.8047342e-16 -3.3464333e-17 -0.001801049
000260 70 87 a5 ba 0b c1 a0 35 96 4e e3 ba be da bf 91
       -0.0012628864 1.1977112e-06 -0.0017342146 -3.0269297e-28
000270 8e 56 90 3d e8 a5 27 97 a1 ce c5 ba 76 72 8a a8
       0.07047759 -5.4170013e-25 -0.0015091487 -1.5370717e-14
000280 b0 d8 af 3d 01 39 73 b0 9b ed ed ba e6 19 8e 3d
       0.08586252 -8.848389e-10 -0.0018152477 0.069385335
000290 13 95 37 b9 22 6d c1 b1 de c9 07 bb 13 0d 13 b1
       -0.00017507774 -5.6294462e-09 -0.0020719687 -2.1398747e-09
0002a0 fd e3 87 95 89 23 7e 3d d7 88 27 37 29 f8 be b1
       -5.488577e-26 0.062045608 9.985836e-06 -5.5579403e-09
0002b0 e8 9c fb 21 c6 c7 9e b5 53 01 00 00 53 a0 86 ae
       1.7049954e-18 -1.1830059e-06 4.75e-43 -6.122094e-11
0002c0 a8 7d a7 33 21 6f 93 b3 66 06 bc 2b 5c 4e ef ba
       7.7994e-08 -6.865435e-08 1.3359979e-12 -0.0018257606
0002d0 46 a5 72 30 da c9 9e 3d 28 93 27 3d 49 11 e7 ba
       8.8273955e-10 0.07753344 0.040911824 -0.0017629053
0002e0 3f 08 da ba 60 2f 98 b9 a1 44 84 3d a3 d3 65 8e
       -0.0016634538 -0.00029026996 0.064584024 -2.8328329e-30
0002f0 e9 af 43 b3 f3 22 8e 3d 76 9c f2 16 01 6f 03 bb
       -4.5561965e-08 0.0694026 3.919595e-25 -0.0020055177
000300 b0 7e 3c ba 51 7e 02 28 ed 44 b0 ba 9c 3e be ba
       -0.0007190509 7.24384e-15 -0.0013448276 -0.0014514509
000310 3d 4f c5 ba 1e 8f 9a 3d 33 77 88 ba 78 aa a0 b4
       -0.0015053522 0.07546829 -0.0010411501 -2.9926355e-07
000320 06 87 c0 aa 90 08 14 a6 b2 5a 82 ad 51 d5 87 2a
       -3.4199743e-13 -5.135942e-16 -1.4819566e-11 2.4128835e-13
000330 f1 7c c4 ad 77 3e af 17 07 48 46 bb 20 e0 8c 1f
       -2.2338105e-11 1.1324878e-24 -0.0030255334 5.966309e-20
000340 c3 ce 2d bb 60 79 83 3d 3c fd 8d ba 91 4d 14 bb
       -0.0026520945 0.06419635 -0.0010832916 -0.002262924
000350 df 4f 8b 3d 36 4c 07 00 1c 64 87 37 8b 6b 8a ba
       0.068023436 6.70188e-40 1.6139871e-05 -0.0010560615
000360 57 e2 63 3d c9 2b 46 b6 ef af c1 b3 82 b8 be 8f
       0.055635776 -2.9529785e-06 -9.019265e-08 -1.8806516e-29
000370 60 a0 3f ba c5 e4 30 bb 42 3c 2e ba fd e4 24 ba
       -0.00073099695 -0.0026991826 -0.00066465524 -0.00062902254
000380 54 5c 7d ba 0b 60 b2 ba a9 f4 4f 90 3e db c7 b8
       -0.0009664942 -0.0013608945 -4.101203e-29 -9.5298965e-05
000390 04 0b 87 3d 04 c9 e8 b0 c1 c6 1a ba f7 35 4e 8c
       0.06593898 -1.6937354e-09 -0.00059042504 -1.5885902e-31
0003a0 ce ae 63 ba 50 02 69 2d ef a3 99 ba 5c c4 f0 a7
       -0.0008685411 1.324503e-11 -0.001172183 -6.6826275e-15
0003b0 50 8b 88 3d cc b3 55 ba 6e 5f 20 ad 7c 49 56 bb
       0.06667197 -0.0008152097 -9.116137e-12 -0.0032697609
0003c0 13 64 8b 3d 02 0a 22 ba 35 01 d5 ba 3f 23 fc 37
       0.06806197 -0.0006181301 -0.001625097 3.0057154e-05
0003d0 a7 73 5b ba 09 ac 23 91 a2 63 e4 ba ea 23 37 ba
       -0.00083714206 -1.2911445e-28 -0.0017424712 -0.00069862476
0003e0 9e a2 57 39 02 42 f8 3c ce 32 01 bb 09 b5 c0 b9
       0.00020564577 0.030304912 -0.001971412 -0.00036755975
0003f0 b1 63 c6 b1 6f 0f 00 80 ac ae f6 b9 60 bc 5c 3d
       -5.773892e-09 -5.537e-42 -0.00047050917 0.053890586

linear_output.weight f4 [1, 256]
000000 63 97 d5 bd 2e 0b d5 bc 2f af 8a 08 07 50 97 bd
       -0.10429265 -0.026006307 8.346758e-34 -0.07388311
000010 0b 5b 00 be 2e d5 13 be 09 51 f7 bd 28 d4 4c 3e
       -0.1253473 -0.1443679 -0.12076003 0.20002806
000020 58 79 d3 bd fb 59 25 be 0b be 3e bd 66 2f 00 00
       -0.10325879 -0.16147606 -0.046567958 1.7003e-41
000030 2a 27 fa bd a6 dc 15 86 1d a8 84 05 eb 9a d3 b6
       -0.12214501 -2.8185892e-35 1.2474975e-35 -6.306325e-06
000040 95 33 5e 3e d3 49 e6 b7 cd 4c 98 ad 77 de 47 3e
       0.21699364 -2.7452514e-05 -1.7314506e-11 0.19518457
000050 15 b3 5a 3e be 6f 0e 1f b4 18 82 38 56 a7 1b be
       0.21357377 3.01621e-20 6.2034844e-05 -0.15200552
000060 1e 13 1d bd 3d 9a 00 ab 11 9e fb 31 81 7c 6e 30
       -0.03834831 -4.5688784e-13 7.3230315e-09 8.6760826e-10
000070 14 4b 51 ba db c8 97 bd a3 64 0b bd 2c 26 fe bd
       -0.0007983905 -0.07411357 -0.03403152 -0.124096245
000080 f1 04 09 be 85 55 8e 14 0d 62 6e b0 32 45 59 2d
       -0.13380791 1.4372067e-26 -8.6723234e-10 1.2350386e-11
000090 41 cf 9c bd 61 64 e5 1e 5b 5e 2c 24 22 25 83 bc
       -0.07656718 2.4287834e-20 3.7376477e-17 -0.016008917
0000a0 ed 9c 99 b7 c5 f0 f1 bc ef 9d 71 3e 99 08 19 36
       -1.8312096e-05 -0.029533753 0.23595403 2.280378e-06
0000b0 84 65 2b 09 b5 00 00 00 18 4e 1d be 90 62 48 be
       2.0631109e-33 2.54e-43 -0.15361822 -0.19568849
0000c0 1a 5c b8 31 ee 0d 6d bb 98 4b 75 ba ae aa cd bc
       5.3655755e-09 -0.0036171633 -0.00093572726 -0.0251058
0000d0 5b 2f 65 3a df eb f0 bd 0a bb 8f 0c 1b 00 00 00
       0.0008742713 -0.11763739 2.2145209e-31 3.8e-44
0000e0 73 23 4a b9 85 59 1f be 65 83 15 27 e0 de d3 bd
       -0.00019277427 -0.15561493 2.0749133e-15 -0.103452444
0000f0 15 1e c8 bd 28 4f 8b b8 f3 e5 24 be e2 0b e0 aa
       -0.09771363 -6.6427805e-05 -0.16103344 -3.9798639e-13
000100 16 67 79 82 aa 88 02 a9 65 6f 6d 2a 54 2b cb 3d
       -1.8323215e-37 -2.8984336e-14 2.1088476e-13 0.099203736
000110 3f e8 ea bc f4 cb 54 38 94 dc f6 bc c9 77 06 00
       -0.028675197 5.0734685e-05 -0.030134477 5.93984e-40
000120 70 55 11 be b7 e1 80 89 ca a0 e3 bd e0 49 c8 b7
       -0.14192748 -3.102714e-33 -0.111146525 -2.3876259e-05
000130 58 3d 39 3e ed 6d d0 bd d9 7f ad 3a 66 2e ff bd
       0.18089807 -0.10177217 0.0013236954 -0.12460022
000140 1a 7e e2 bd df 08 2f bc ef e4 f7 b3 f9 c0 16 31
       -0.11059208 -0.010683267 -1.15434766e-07 2.1937565e-09
000150 00 00 5e 3e 23 73 c5 bd 90 55 93 bd 7e e6 2a bb
       0.21679688 -0.09641101 -0.07194054 -0.0026077325
000160 4f 61 1e be aa ef 3d 19 fa 23 26 be 7c 97 c2 9f
       -0.15466808 9.819471e-24 -0.16224661 -8.2412806e-20
000170 05 75 e4 0b 8c a8 25 be a6 69 10 b8 25 4b 38 a8
       8.7998477e-32 -0.16177577 -3.4430668e-05 -1.0230346e-14
000180 86 10 b3 b0 94 56 67 3e 2d 04 02 31 04 8b d2 ac
       -1.302866e-09 0.2259162 1.8919863e-09 -5.983993e-12
000190 ff b9 93 9b 90 7f 07 b6 66 f3 88 bd 6d bc 1f a4
       -2.4439307e-22 -2.0190819e-06 -0.066870496 -3.4637232e-17
0001a0 9c 0c 00 00 60 73 8e 12 78 7e 54 99 e4 b2 b8 bd
       4.523e-42 8.989902e-28 -1.0985683e-23 -0.09018496
0001b0 e3 d9 db 37 b1 d2 46 3e 7a 00 8e bd e9 0b 60 89
       2.6208296e-05 0.1941631 -0.06933685 -2.696862e-33
0001c0 e8 15 1d be df 77 47 3e 3d e7 bd b7 10 49 c8 bd
       -0.15340388 0.19479321 -2.2638234e-05 -0.097795606
0001d0 87 7d 73 10 48 46 09 be d8 78 f3 bd 02 77 cf bd
       4.8020003e-29 -0.13405716 -0.118882835 -0.10130121
0001e0 9f 78 1d be 11 14 38 ac 93 d0 64 3e 68 5c 04 bd
       -0.15378045 -2.6159112e-12 0.2234519 -0.032314688
0001f0 6c 61 29 be 12 84 1a be 21 bf 08 13 4e 7c 36 b4
       -0.1654107 -0.15089443 1.7259847e-27 -1.6995293e-07
000200 3b 0c 2f 3e 64 47 83 26 c7 d1 d1 2d 5d 80 2c ac
       0.1709451 9.109301e-16 2.3853709e-11 -2.4513926e-12
000210 48 13 ce bd d8 42 2a ba e1 61 da 28 7e bf 57 3e
       -0.10062271 -0.0006494946 2.424531e-14 0.21069142
000220 e1 86 94 b0 94 13 3e 31 8c 2c 52 2f e5 ee 4f 3e
       -1.0806752e-09 2.7659768e-09 1.9115215e-10 0.20305975
000230 67 00 00 00 c8 a5 38 b3 3d 47 56 3e 91 4b 82 32
       1.44e-43 -4.2991616e-08 0.20925613 1.5168355e-08
000240 c0 d9 10 9a 79 ad 33 3e 79 d1 89 b4 9d b0 36 be
       -2.99544e-23 0.17546643 -2.567065e-07 -0.1784081
000250 eb 88 92 b9 34 e3 93 25 5a 8b 3b 24 64 b3 28 be
       -0.00027949302 2.5654394e-16 4.0667197e-17 -0.16474682
000260 89 00 0c be 39 2c e5 b7 3f a3 a1 bd 03 b6 f9 10
       -0.13672079 -2.731952e-05 -0.07892465 9.8493616e-29
000270 81 e5 58 3e 73 01 00 80 d6 98 f5 bd 45 60 62 97
       0.21181299 -5.2e-43 -0.11992042 -7.314605e-25
000280 d1 09 8d 3e 83 43 70 30 e7 e5 bf bd a5 8c 49 3e
       0.27546552 8.740743e-10 -0.09370022 0.19682558
000290 14 10 77 bb d5 95 fd a2 19 1f 35 be c5 1a c3 2d
       -0.0037698792 -6.873443e-18 -0.17687644 2.2180821e-11
0002a0 cd ed 58 14 47 4c 33 3e 2c 05 be ba a9 a4 58 b0
       1.0952111e-26 0.17509566 -0.0014497391 -7.881434e-10
0002b0 da cd 84 a0 8e 27 13 35 c3 01 00 80 f0 4b 1e 2f
       -2.249789e-19 5.4819327e-07 -6.32e-43 1.4396995e-10
0002c0 c7 8f e7 b3 20 b2 03 b4 4e dc 30 2b 83 f0 d2 bd
       -1.0782929e-07 -1.2265127e-07 6.2833495e-13 -0.1029978
0002d0 02 3c 0a b0 28 3a 64 3e 70 65 e8 3d 9f 32 0f be
       -5.0289384e-10 0.2228781 0.11347473 -0.13984154
0002e0 50 13 c4 bd 4d b8 9a bc 2c d1 41 3e 42 98 4e 24
       -0.09573996 -0.01888671 0.18927449 4.4798097e-17
0002f0 4d 63 da ad 89 5d 49 3e 04 d8 bf 18 bd f6 be bd
       -2.4827829e-11 0.19664587 4.9590463e-24 -0.09324405
000300 fa c1 08 bd 21 ba 1f a8 4a 3b fe bd 88 c5 fd bd
       -0.033388115 -8.866633e-15 -0.12413652 -0.12391192
000310 57 ce 30 be ce af 5d 3e 8a 0c 11 be 8f 88 75 33
       -0.17266212 0.21649095 -0.1416494 5.7167707e-08
000320 af c1 a7 a4 fb 69 8b 26 18 cb 70 af 81 dd 45 aa
       -7.275282e-17 9.673789e-16 -2.1900026e-10 -1.7573964e-13
000330 3c cb 6a 2e ee 1a 9f 95 85 a5 44 be 13 2c 05 20
       5.338595e-11 -6.4262076e-26 -0.19203766 1.1280121e-19
000340 94 16 41 be c0 e1 41 3e 18 3a af bd 9f 24 da bd
       -0.18856269 0.18933773 -0.085560024 -0.10651516
000350 65 4e 4f 3e fc 8f 00 00 57 85 51 ba ab aa f1 bd
       0.20244749 5.1652e-41 -0.00079925865 -0.118001305
000360 44 f8 1f 3e 32 95 bf 35 1b 38 2e 34 dd e4 50 92
       0.1562205 1.427403e-06 1.6225424e-07 -6.5915323e-28
000370 56 1b 26 bd 98 37 57 be 1a e3 4a bd 6d 6a fb bd
       -0.040553413 -0.21017301 -0.049532987 -0.122761585
000380 dd 0e d6 bd 4a 2c 88 bd 95 6b 41 90 4d 6c 24 39
       -0.10452054 -0.066490725 -3.8145417e-29 0.00015680604
000390 53 60 4a 3e 46 b9 0a a9 b3 e6 5e bd f4 7a 9c 8b
       0.19763307 -3.0802855e-14 -0.05441923 -6.0274014e-32
0003a0 43 6d 17 bd 33 76 59 ad f2 06 11 be e9 08 2b 83
       -0.036969434 -1.2361267e-11 -0.14162806 -5.026261e-37
0003b0 85 75 49 3e ad 0e 47 bd 5c 38 23 ab b3 8e 57 be
       0.19673736 -0.04859798 -5.798745e-13 -0.21050529
0003c0 19 69 45 3e ac 07 1e bd 84 1a 31 be 04 42 60 b8
       0.19278373 -0.038581535 -0.17295271 -5.3467244e-05
0003d0 4b 14 da bd b5 39 1f 9f cf 58 e6 bd f4 f3 00 bd
       -0.10648402 -3.3717294e-20 -0.11247408 -0.03148265
0003e0 2c 33 0d be 59 54 a8 3d c1 e7 38 be 8b a8 d4 bd
       -0.13789052 0.08219213 -0.18057157 -0.103837095
0003f0 9b e0 fd b2 34 33 00 00 86 16 c3 bd 6e 7d 1a 3e
       -2.9555215e-08 1.8368e-41 -0.095257804 0.1508691

exp_avg f4 [256, 17]
000000 77 34 97 38 89 2d 25 39 50 f3 ad b9 9d 8c 79 b8
       7.2100134e-05 0.0001575259 -0.00033178413 -5.9497183e-05
000010 86 72 8a 38 73 6e 21 39 dc 01 cd b9 a4 59 71 b8
       6.6016844e-05 0.00015395302 -0.00039102032 -5.7542362e-05
000020 c9 ea 24 38 9c a5 fa 38 b4 63 e5 b9 5a a1 77 b8
       3.9319308e-05 0.00011951776 -0.00043752568 -5.903966e-05
000030 e8 1e 88 b9 93 a9 26 38 50 5e 91 b9 59 2a 30 ba
       -0.00025962968 3.9735412e-05 -0.00027726823 -0.00067201775
000040 96 e7 3b 39 9c 19 72 33 85 14 b0 33 b9 09 81 34
       0.00017919982 5.6368307e-08 8.199371e-08 2.4035197e-07
000050 b1 cc 90 b2 18 27 86 33 a5 34 a2 33 2e b1 77 34
       -1.685689e-08 6.2469724e-08 7.553289e-08 2.3068125e-07
000060 4d b4 8a b2 70 4b 96 33 ec 03 9d 33 82 ce 69 34
       -1.6147306e-08 6.998641e-08 7.3115956e-08 2.1774943e-07
000070 0c 1e 8a b2 1a 5f 6d b4 eb 9b e9 b2 f0 0e b0 b3
       -1.6078978e-08 -2.2106943e-07 -2.7195673e-08 -8.198356e-08
000080 5b ac 9d b3 6a 91 21 b3 43 e1 36 b2 64 6a 62 34
       -7.3422335e-08 -3.7617987e-08 -1.0645013e-08 2.1086595e-07
000090 2f 99 f3 34 9d 84 4a b3 b4 82 00 b2 9f 93 65 34
       4.5373733e-07 -4.71524e-08 -7.480299e-09 2.1380991e-07
0000a0 d3 24 e9 34 e4 99 51 b3 17 8f 54 b2 ed 21 64 34
       4.3426425e-07 -4.8801567e-08 -1.2372559e-08 2.1246497e-07
0000b0 cc 0c e2 34 84 20 4a b3 bf 8e f6 b4 73 d4 6e b4
       4.210509e-07 -4.7061363e-08 -4.5924932e-07 -2.2242766e-07
0000c0 d8 45 b1 b3 ad 5e f2 b3 43 17 c5 33 c8 18 e1 15
       -8.254909e-08 -1.12862246e-07 9.1777586e-08 9.0915874e-26
0000d0 b5 86 c3 14 5d fe 57 1d 12 14 18 94 3c 90 ec 15
       1.97431e-26 2.8586516e-21 -7.677997e-27 9.55472e-26
0000e0 87 00 0e 15 e2 cb 03 1c a8 09 36 94 b7 2a eb 15
       2.8677088e-26 4.3607776e-22 -9.190556e-27 9.4983136e-26
0000f0 ca e3 65 15 d6 48 3b 9d 86 8c 16 94 ed 4b 91 15
       4.6425876e-26 -2.47869e-21 -7.600778e-27 5.8684823e-26
000100 9a e0 86 15 32 e9 a2 15 28 f5 81 15 cf d6 d0 15
       5.447653e-26 6.5799196e-26 5.2489473e-26 8.434944e-26
000110 1e 59 40 b1 71 8b 2e 36 e9 93 9a 36 f7 64 3a b5
       -2.7990334e-09 2.6009186e-06 4.6067767e-06 -6.943732e-07
000120 a4 73 6c 33 41 16 31 36 33 cc 95 36 61 2b 38 b5
       5.5053206e-08 2.6388009e-06 4.464318e-06 -6.8608466e-07
000130 01 83 bb 32 be d0 2f 36 37 2c 8f 36 b9 44 38 b5
       2.1829239e-08 2.6198536e-06 4.2668794e-06 -6.8645346e-07
000140 1a 88 78 b6 dc ca d1 b5 6d ce b2 b5 72 b9 98 b5
       -3.7034101e-06 -1.5630753e-06 -1.3322111e-06 -1.1378854e-06
000150 5b 47 79 35 ad 4c 69 bb bd 1d bb 3a af fc 24 3c
       9.2863564e-07 -0.003559868 0.001427583 0.01007001
000160 a4 b4 95 ba b9 b1 73 bb 86 2b a2 3a 49 1a 23 3c
       -0.0011421633 -0.0037184788 0.001237259 0.009954997
000170 a2 f7 94 ba 73 0a 80 bb 63 b6 82 3a ce 19 29 3c
       -0.0011365304 -0.0039074956 0.0009972568 0.010321094
000180 3f 6f 95 ba d1 b8 9f bb 9e 9c 3d bb f3 5a c7 ba
       -0.0011400952 -0.0048743268 -0.0028932462 -0.00152096
000190 2f 86 60 39 0b 2b 15 3c 71 09 29 bb 09 db 62 3a
       0.00021412292 0.0091045005 -0.002579298 0.00086538546
0001a0 53 6b cf 3b 83 ac 47 ba 4c 3f 2e bb 60 cd 34 3a
       0.0063299327 -0.0007616954 -0.002658802 0.00068970583
0001b0 88 63 cf 3b fd cc 46 ba 92 dc 36 bb 86 d4 fd 39
       0.0063290037 -0.0007583646 -0.0027902466 0.00048414263
0001c0 ba 65 c9 3b 37 f6 46 ba e1 ed 26 bb 27 69 b9 ba
       0.00614616 -0.00075897895 -0.0025471377 -0.0014145718
0001d0 f6 db 92 ba d4 07 a5 ba d5 49 7f 3b ae 4d 85 a3
       -0.001120447 -0.0012590834 0.003895392 -1.4452788e-17
0001e0 53 a2 49 a3 33 83 c4 24 88 de 06 23 9a 02 f8 a3
       -1.0930605e-17 8.522371e-17 7.311277e-18 -2.6889316e-17
0001f0 1e 3a 8a a3 94 de c2 24 9a 39 ec 22 64 1b 8b a3
       -1.4986604e-17 8.451115e-17 6.4028916e-18 -1.508201e-17
000200 09 cc 8d a3 80 d9 bb 24 5f c7 b5 22 92 50 05 a5
       -1.5373663e-17 8.146678e-17 4.927124e-18 -1.156321e-16
000210 68 23 4d a3 e8 6b 0b a4 bd c6 a1 a3 84 bd 1a 24
       -1.112057e-17 -3.023222e-17 -1.7539824e-17 3.3553953e-17
000220 c4 28 95 b3 a4 3c 02 37 ee 15 73 37 1b 40 12 b6
       -6.9457684e-08 7.762723e-06 1.4489035e-05 -2.179301e-06
000230 f3 37 2a 32 24 f2 00 37 50 2c 6c 37 01 ba 10 b6
       9.908024e-09 7.685772e-06 1.40770135e-05 -2.156594e-06
000240 f1 2d aa b4 7b e1 f6 36 20 95 62 37 f2 40 11 b6
       -3.1698394e-07 7.3576207e-06 1.3505371e-05 -2.1644487e-06
000250 8f 95 56 b7 56 19 c9 b6 5b 3a 95 b6 16 c2 91 b6
       -1.2790216e-05 -5.9932163e-06 -4.4473395e-06 -4.3439313e-06
000260 4e 51 7e 36 0d 9e 9d ab 4a df dc 29 e5 9a be 2d
       3.7896275e-06 -1.1199389e-12 9.808697e-14 2.1669286e-11
000270 83 e8 00 ac 23 49 93 ab 7d f6 12 ab e2 d0 bb 2d
       -1.8318964e-12 -1.0465278e-12 -5.221169e-13 2.1352201e-11
000280 45 91 f8 ab 35 d4 b9 ab 09 d4 c2 ab 9f 85 bc 2d
       -1.766178e-12 -1.320394e-12 -1.3843381e-12 2.1432465e-11
000290 d1 30 f9 ab 6a c0 83 ad 0f d1 21 ad 3a ce 26 ad
       -1.7706063e-12 -1.4978425e-11 -9.198211e-12 -9.481799e-12
0002a0 d7 6e 3e ad 0c 0b 94 2c f5 d6 38 20 24 b9 fd a0
       -1.0824861e-11 4.2076394e-12 1.565653e-19 -4.2982383e-19
0002b0 e1 63 fc 22 6f 3e 56 20 2b 00 55 20 19 34 02 a1
       6.8410488e-18 1.8147163e-19 1.8041857e-19 -4.4114664e-19
0002c0 34 02 fb 22 94 78 87 1e 50 2a 30 20 49 ae f4 a0
       6.803602e-18 1.4343551e-20 1.492178e-19 -4.145054e-19
0002d0 dc 74 f8 22 53 7e 41 20 31 4d 4c a2 3c 08 0f 21
       6.7344264e-18 1.6389533e-19 -2.768802e-18 4.8461183e-19
0002e0 f8 b6 f8 1e 16 53 55 20 00 5a 9e 21 c0 17 94 26
       2.6333695e-20 1.8069293e-19 1.0730319e-18 1.0276e-15
0002f0 8e 75 63 27 e6 40 26 2a a6 e5 d3 25 a9 57 a7 26
       3.1566305e-15 1.4766278e-13 3.675828e-16 1.1611713e-15
000300 48 50 64 27 e9 6f 1e 2a bc bc 02 26 83 dc a2 26
       3.1684877e-15 1.4072046e-13 4.5358593e-16 1.1300778e-15
000310 fc 8b 4f 27 4b dd 1a 2a 68 6d cd 25 35 73 89 a8
       2.8802906e-15 1.3754724e-13 3.5635968e-16 -1.5260019e-14
000320 3a d7 c1 25 a0 60 d8 a6 4b 58 51 26 2e ae a2 27
       3.3626006e-16 -1.5014201e-15 7.26311e-16 4.515288e-15
000330 f5 79 0d 3a b4 42 9e b8 72 da 92 ba c3 b0 3a 39
       0.0005396896 -7.5464515e-05 -0.0011204018 0.00017804191
000340 a4 41 18 3a d7 08 2d b8 d7 4f 8c ba 1c 63 39 39
       0.0005808121 -4.1254647e-05 -0.0010704946 0.00017679896
000350 42 85 26 3a e3 d7 8e 37 a0 6e 86 ba d6 4a 3a 39
       0.00063522544 1.702825e-05 -0.0010256357 0.00017766221
000360 80 7e ce 39 62 42 5c 3a 27 e9 3c b9 0c 92 08 b9
       0.00039385632 0.0008402226 -0.00018015933 -0.00013024377
000370 fe f2 d1 ba 56 ba 31 ba 86 e8 c9 39 9d 23 df 3a
       -0.0016017852 -0.00067797804 0.0003851095 0.0017024163
000380 68 e6 5b b9 ce 2c 35 ba 82 26 ca 39 4b cf de 3a
       -0.000209713 -0.00069112785 0.00038557133 0.0016999034
000390 a6 f8 5a b9 95 48 3b ba e4 dc c6 39 1e 84 db 3a
       -0.00020882729 -0.00071442995 0.0003793008 0.0016747748
0003a0 e5 8e 5b b9 2a 6b 13 ba 6d 51 a5 b9 b9 57 37 b9
       -0.000209387 -0.00056235737 -0.0003153192 -0.00017484919
0003b0 fa 12 cc b8 5d b4 8f 3a 34 04 45 39 de c3 c0 b8
       -9.731013e-05 0.0010963787 0.0001878895 -9.1917565e-05
0003c0 50 a7 db b9 37 58 72 38 50 f3 53 39 f1 0e b3 b8
       -0.00041895593 5.7779453e-05 0.00020213169 -8.538168e-05
0003d0 ba 42 d1 b9 f5 a8 71 38 06 e4 60 39 6b 03 a0 b8
       -0.00039913302 5.761623e-05 0.0002144725 -7.630031e-05
0003e0 27 f6 d5 b9 98 01 72 38 61 4e c9 38 0b 41 50 39
       -0.00040809924 5.769878e-05 9.599026e-05 0.00019860656
0003f0 c5 9d d4 b8 a1 74 0f b9 d4 1d 8d b9 d1 33 f9 28
       -0.000101383346 -0.0001368099 -0.0002691584 2.7667025e-14
