src/scripts/ddpg/weights/FC128_1layer_20hz_sf0.5/critic.pth (torch, 10783 bytes, 3 tensors)

linear_input.weight f4 [128, 16]
000000 7d 81 03 bd 1f 57 28 bd e8 45 21 bc ec 15 48 3a
       -0.03210591 -0.04109871 -0.009843327 0.0007632661
000010 92 8c 96 bd 96 37 85 bd fd b9 0f be 96 d8 aa 3a
       -0.073510304 -0.06504743 -0.14035793 0.0013034518
000020 65 4a 0f be 6f 50 f6 bc fb ea 86 bd 95 30 19 3a
       -0.13993223 -0.03006765 -0.06587788 0.0005843726
000030 ec c4 21 bd 73 12 f7 bc eb 92 eb bd 6a 62 05 3e
       -0.03949444 -0.030160164 -0.11502632 0.13025823
000040 cb 42 31 3d 67 de 62 bd 99 75 3f 3d 8b e1 b8 b9
       0.04327659 -0.05538788 0.04674301 -0.00035263257
000050 30 f3 fa 3b 57 6e 85 bc 6c f4 82 bd 1c 19 a4 b9
       0.0076583847 -0.016287966 -0.06394276 -0.00031299226
000060 5d df b6 bd f9 8d 71 3d 98 d3 be bd b7 70 98 b9
       -0.08929322 0.058973286 -0.09317702 -0.00029075678
000070 3b 96 8a bc bb c5 a2 3d 71 fd ab 3d 74 c2 34 bc
       -0.016917339 0.0794787 0.083979495 -0.011032689
000080 db 54 9c 3b 4c 28 f8 3a 06 c8 17 bc 6e fc 55 bb
       0.0047708577 0.0018932908 -0.009263998 -0.003265168
000090 21 04 93 3c 50 0b a3 bc 7d c9 56 3b 4e 96 64 bb
       0.017946305 -0.019902855 0.0032773905 -0.0034879628
0000a0 12 d0 54 3d be ac 3c bd 22 69 aa bc 97 e3 60 bb
       0.051956244 -0.046063177 -0.020802084 -0.0034315342
0000b0 66 0f 05 3b 20 67 c5 b9 24 8a 4a bc b1 73 d2 3c
       0.0020303368 -0.00037651602 -0.012362037 0.025689932
0000c0 4b ef 32 3d ba d6 be bc 98 b8 9e bd 9c 44 27 3b
       0.04368524 -0.023295749 -0.07750052 0.0025523072
0000d0 13 3a 8e bd ee 95 44 3d 29 9a b8 bd b3 99 0e 3b
       -0.069446705 0.047994547 -0.09013779 0.0021759092
0000e0 28 6c 4f be a6 e8 3c 3e 3a 8b 62 3d e1 ef d3 3b
       -0.20256102 0.18448123 0.055308558 0.006467805
0000f0 20 63 d1 3d 5e 4a d7 3d 53 64 7a 3e 1d dd ed bd
       0.10223985 0.10512231 0.24452333 -0.1161444
000100 05 10 cc 3c 9f db 89 3d ed 57 dd bc 48 4e 18 3c
       0.024909982 0.067313425 -0.027019465 0.009296007
000110 ea 6e 3a 3d 65 e5 56 3d aa 5f f0 bc ad f0 13 3c
       0.045515932 0.05246486 -0.029342491 0.00902955
000120 84 be a9 3d 9d 54 35 3d bf 74 49 3b c7 8f 11 3c
       0.08288291 0.044270147 0.0030739752 0.008884377
000130 3f 49 0a 3d 7f 08 b4 bc d8 55 3d bc d5 6d 3e bd
       0.03376126 -0.021976708 -0.011556111 -0.046491463
000140 53 25 d6 bc 81 98 8c bd 35 05 f4 bc ae ec 1b 3c
       -0.026140844 -0.06865025 -0.02978764 0.009516878
000150 40 e5 63 bd 02 25 92 bd fe dd 12 bd 24 f2 1f 3c
       -0.05563855 -0.07135965 -0.03585624 0.009762321
000160 c2 4a 00 be d7 c8 16 bd a2 c7 58 bd 23 b2 1e 3c
       -0.12528518 -0.03681263 -0.05292476 0.009686026
000170 0e e3 3b bd 91 d4 0d b9 e0 5e 7e bd 05 be 4b 3d
       -0.045870833 -0.00013525995 -0.0621022 0.049741764
000180 5b bf 14 bd 98 81 1a 3d 6b 98 9e 3c 43 3c db 3b
       -0.036315303 0.037721246 0.019359788 0.0066905334
000190 ea 0b 12 bd d1 57 f9 3c 5a 07 13 3d 8c c7 d8 3b
       -0.035655893 0.030437382 0.035895683 0.0066155847
0001a0 30 f7 34 bd d7 12 3b 3d 99 46 f4 3c 3d 32 d7 3b
       -0.04418105 0.045672264 0.02981882 0.006567268
0001b0 a9 21 d5 bb 90 2c 86 3d 29 97 56 3d 3a 7c 63 bd
       -0.0065042567 0.06551468 0.05239025 -0.055538394
0001c0 ab 49 98 3b 63 0d 21 bd 84 73 64 3b 78 2f 78 b9
       0.004647454 -0.039319407 0.0034858892 -0.00023668807
0001d0 5a 2f 2a bd aa 57 2a bc b4 71 71 bd e9 8e c6 b8
       -0.041549064 -0.010396877 -0.058946326 -9.467995e-05
0001e0 33 e0 0f be 7b 83 3c 3d 7d c8 c6 bd f5 5a 86 b9
       -0.14050369 0.046023827 -0.09706209 -0.0002562624
0001f0 08 4f 77 bd 1c d3 08 3d 64 fc 6a 3d 10 bd 44 3d
       -0.060378104 0.033404455 0.057369605 0.048031867
000200 d2 ad 94 3d 9b e2 8c bd fd 5c 0e 3d 02 ea 91 bc
       0.07259716 -0.06879159 0.03475665 -0.017811779
000210 bc cb b2 3d b0 45 bf bd 32 56 5e 3d 9c 95 92 bc
       0.087302655 -0.09339464 0.05428142 -0.017893605
000220 76 28 12 3e 99 ea 02 be 31 53 00 3d c1 03 94 bc
       0.14273247 -0.12784804 0.031329338 -0.018068196
000230 cd fa 94 3d 6f e6 7e 3d 9c 38 fa 3d 9a 8c cd 3d
       0.07274399 0.062231477 0.12217829 0.10036583
000240 93 01 a6 bc d4 f2 2f 3c 6c 2c 85 bc a1 09 4e 3b
       -0.020264423 0.010739047 -0.016256534 0.0031438845
000250 59 65 7b bc e2 f3 ad 3a 35 79 9a bb 7b 82 4d 3b
       -0.015343987 0.0013271535 -0.004714156 0.003135829
000260 ca b3 8a 3c da 10 28 bd 21 33 2a 3c 0b 54 54 3b
       0.016931433 -0.041031696 0.010388167 0.0032398726
000270 b8 93 89 bd 3a dc 75 bd c5 64 2d 3c 95 4f cd 3c
       -0.06717628 -0.060024478 0.010583107 0.025062362
000280 46 7f 1e 3e b6 63 5e bd 17 1c c1 3d 84 ca 22 bd
       0.15478238 -0.05429431 0.09429186 -0.039743915
000290 fa 60 8f 3e 7a 91 26 be 33 f7 86 bc f6 43 3c bd
       0.28003675 -0.16266432 -0.016475296 -0.04596325
0002a0 0b b7 d6 3e 95 f8 a0 be 0d 2b ba 3c 43 ad 09 bd
       0.41936526 -0.31439653 0.022725606 -0.0336125
0002b0 21 8e ea 3d a9 94 0d bd 29 74 4d 3d bb 4d 40 bd
       0.1145289 -0.0345656 0.050159607 -0.04694913
0002c0 f5 25 e5 3b 58 fc 1b bd 76 3d a3 ba 9d bd 44 bb
       0.00699305 -0.03808245 -0.001245423 -0.0030020245
0002d0 c6 e9 30 bd 05 35 29 bb f4 d4 37 bd 46 7d 3c bb
       -0.043191694 -0.0025818956 -0.044880822 -0.0028761192
0002e0 1b 3c fd bd fa 7f 77 3d 88 9b 9c bd 07 72 3e bb
       -0.1236498 0.060424782 -0.07646853 -0.0029059665
0002f0 c4 3f 77 bc a8 5f 68 3d f8 24 6a 3d bb 20 68 3d
       -0.0150908865 0.05673185 0.057164162 0.05667184
000300 61 f6 ad bc b6 72 57 bd 2a 2a ea 3d 0b de 84 bc
       -0.021235647 -0.05259963 0.114338234 -0.01621916
000310 3c 21 10 3e 5d 17 b9 bd 23 62 8d 3d c4 6a 46 bc
       0.14075178 -0.09037659 0.06903484 -0.012110416
000320 50 2d 59 3e 49 d5 6b be 6a 8f 36 bd bd 24 28 bc
       0.21208692 -0.2303058 -0.044570364 -0.010262665
000330 d2 a8 ab 3a 42 58 1f bd fc a7 00 3e 8f 6c 3b 3d
       0.0013096577 -0.03890253 0.12564081 0.045757826
000340 fc c1 05 bb eb 4e 10 bd 1a ef 26 3d 9e fa 26 3a
       -0.0020409813 -0.035231512 0.04075537 0.00063697423
000350 16 b2 fd bc 11 47 2e bc c8 6f 08 be ae 09 40 3a
       -0.030968707 -0.010637061 -0.13323891 0.0007325661
000360 47 17 c4 bd 15 9d 32 3d 75 f5 88 bd 4b d7 96 3a
       -0.09574752 0.043606836 -0.06687442 0.0011508254
000370 b1 9c 4c bd e2 c5 4c 3d d0 c0 7e 3d 04 f6 94 3c
       -0.04995412 0.049993403 0.0621956 0.018183716
000380 92 0a 54 3d 61 46 1b 3d 58 80 46 3b 03 a7 87 3c
       0.051767893 0.037908915 0.0030288901 0.01655913
000390 b0 17 18 39 6d 8d bf 3d 13 88 07 3d e4 6a 83 3c
       0.00014504674 0.09353147 0.033088755 0.01604218
0003a0 76 65 75 bd 02 c5 2b 3e 0c cf 73 3d 19 69 88 3c
       -0.059911214 0.16774371 0.059523627 0.016651677
0003b0 21 04 a3 3d e7 a9 0c 3d 83 72 36 3e 61 77 2e be
       0.07959772 0.03434172 0.1781712 -0.17037727
0003c0 f8 67 38 bc 75 47 84 bd 06 72 0b 3c 23 9e e1 3b
       -0.011255257 -0.06458942 0.008511072 0.0068853064
0003d0 e1 90 69 bd 96 7c 04 bd 63 3c 82 3b f8 fb e0 3b
       -0.057022933 -0.032345377 0.003974484 0.0068659745
0003e0 f8 46 03 be b0 f2 d7 3c ef 7d 06 bb ca 9c e2 3b
       -0.12820041 0.02636084 -0.002052184 0.0069156634
0003f0 a8 67 08 bc 37 51 06 3d 7e 2f e7 3d 04 46 94 ba
       -0.008325495 0.032792296 0.11288355 -0.001131237

linear_input.bias f4 [128]
000000 de 44 8e bd 4c 3f a1 bb 5f d0 1a 3c 24 0d eb bd
       -0.06946729 -0.0049208757 0.009449094 -0.11477116
000010 bf f1 a5 3b d5 6c 12 3d 0a 9f 06 bc dd 37 00 3d
       0.005064219 0.03574832 -0.008216629 0.031303275
000020 77 31 66 bd 29 b1 cf 3c 91 03 18 be 9b 8f ba 3a
       -0.056199517 0.025353031 -0.1484511 0.0014233472
000030 d4 35 22 3d cb 0c 1b 3c d9 06 9d 3c 1f 7b 84 3c
       0.039602116 0.009463499 0.019168304 0.01617199
000040 19 f9 d1 3d 74 44 2e 3d 00 cd ea bd ff d1 0b bb
       0.1025259 0.04254575 -0.11464882 -0.0021334884
000050 15 01 fa bc 7c 83 01 be 15 f6 30 bc 0d 1b 23 3d
       -0.030518094 -0.12647814 -0.010800858 0.03982072
000060 0d da bb 3d 8b f3 23 3d 0c b5 58 bb 07 6d 9d bc
       0.09172449 0.040027183 -0.0033066897 -0.019217027
000070 1c 07 83 bd 1f 64 76 3b 47 80 18 3d 8c 87 f6 bc
       -0.063978404 0.0037596298 0.03723171 -0.03009393
000080 c2 77 d4 3d a4 d8 c5 bc 0c 43 13 3d d1 8b 37 bd
       0.103744045 -0.024151154 0.035952613 -0.044811074
000090 fd 4b 1f 3d 9b 00 e0 b9 ad a7 0e 3e 09 c5 ed bd
       0.038890827 -0.0004272506 0.1393115 -0.11609847
0000a0 65 28 8a 3a 09 71 42 3c f9 8d 38 bd 36 3e 17 3d
       0.0010540603 0.01186777 -0.04505727 0.036924563
0000b0 8c 00 64 bd e7 36 8b bc 02 2f 35 3e 34 22 81 ba
       -0.055664584 -0.016993953 0.17693713 -0.0009852112
0000c0 91 fa 2f 3d 69 d3 dd 3c 89 7b c5 3b a4 80 d1 3c
       0.042963568 0.027078347 0.0060266894 0.025574036
0000d0 fc d8 03 3d 6b 4c c0 3c 97 c7 1c bd f9 6d 25 3c
       0.032189354 0.023473939 -0.03827628 0.01009702
0000e0 01 a5 f5 bd b1 0f 29 3e 9a 1b a6 3d d5 d6 48 bc
       -0.119943626 0.16509892 0.08110733 -0.012258251
0000f0 fd 2d 95 3c 6a e8 0e bd b9 3e c5 bb 6b 23 72 3d
       0.018210405 -0.034889616 -0.00601944 0.05911581
000100 7c 70 1d 3d 11 08 5d bd d0 23 05 3d cd 98 d8 bc
       0.03843735 -0.05396277 0.032504857 -0.026440049
000110 db 93 0e 3d 97 5f ee 3a a5 81 34 3c b0 07 02 3d
       0.034808975 0.0018186447 0.011017238 0.031745613
000120 2f 13 05 3e 14 e8 75 3d 8a cc 5b bc 8c dd 89 bb
       0.12995599 0.06003578 -0.013415465 -0.0042073186
000130 2e 0c 53 3d e3 a8 7c 3c 87 42 50 3c bd 82 30 3b
       0.051525287 0.015421125 0.012711174 0.0026933395
000140 98 ce a1 3d 1e 9c ca bb 97 94 c4 3c be b9 a8 bb
       0.07900733 -0.0061831614 0.023996634 -0.0051490953
000150 39 b8 bd bd 83 31 32 3d 18 68 47 bb 1e 24 87 bc
       -0.09263653 0.04350425 -0.0030427035 -0.016496714
000160 d2 c9 95 bb ac 6e 09 bc da 16 f5 3c bc a6 08 3d
       -0.004571178 -0.008388203 0.029918123 0.033362135
000170 ec db 19 be dc f8 23 bc 0f 63 a3 3c 5f 6a 80 bd
       -0.150253 -0.010008063 0.019944696 -0.06270289
000180 a9 2d bb bb 37 b5 ae 3d 4e 45 ec 3d 90 83 16 bb
       -0.00571223 0.08530658 0.11536656 -0.00229666
000190 54 71 41 bb 40 95 c0 3c c1 dd 92 3d c0 01 cd bd
       -0.0029517012 0.023508668 0.071712025 -0.100100994
0001a0 92 97 48 bd 69 2a 38 bd bc eb 6d 3d 50 49 a8 bc
       -0.048972674 -0.04496232 0.058086142 -0.02054277
0001b0 0f dc fc bb a9 fc 1e 3b 01 a3 eb 3b 01 0c a4 3d
       -0.0077166627 0.0024259484 0.0071910624 0.08010102
0001c0 c6 f8 1b bb b3 e0 65 3c 92 94 0a bd c5 4b 99 bb
       -0.0023799404 0.014030623 -0.033833094 -0.004678222
0001d0 d3 ae e5 bd a6 0d 39 bc 59 04 43 be d9 d2 bf 3c
       -0.11214986 -0.011294758 -0.19044627 0.02341597
0001e0 3b 07 dd bb 0b 12 9c bd e0 66 27 bb a9 53 06 bd
       -0.0067452467 -0.07620629 -0.0025543496 -0.03279463
0001f0 70 af f5 bd a9 00 02 3d 95 12 dd bc f1 4e a3 3a
       -0.11996353 0.03173891 -0.0269864 0.001245944

linear_output.weight f4 [1, 128]
000000 a3 41 61 3e e5 7a 0d 3e 53 89 a6 bd 9d 32 c3 3e
       0.21997695 0.13816412 -0.08131661 0.38124552
000010 44 40 19 be aa 99 32 3e 36 90 fb bd 42 8d 01 3e
       -0.14965922 0.1744143 -0.122833654 0.12651542
000020 31 1d 8b be 7d 34 e4 bd 65 9c f8 be de c4 03 3e
       -0.2717071 -0.11142824 -0.4855682 0.12868068
000030 b1 98 9c be ec 09 ff 3d b0 03 a8 3e 68 5f 4e 3e
       -0.30585244 0.12453064 0.32815313 0.20153582
000040 31 2a 1d 3e d8 b1 90 bd 0a 39 94 3e 99 be d0 bd
       0.15348126 -0.07065171 0.28949767 -0.101926036
000050 2c eb 44 be 2c 37 8f 3e e6 1a f4 bd a7 a3 41 3e
       -0.19230336 0.2797178 -0.11919193 0.18910085
000060 c1 ed 0c be 58 08 5d 3e 25 7e 95 be 17 ae 2f be
       -0.13762571 0.21585214 -0.29197803 -0.17156254
000070 17 6d 3c 3e b6 a1 1d be 14 c1 8b be f0 1d 80 be
       0.1840099 -0.15393719 -0.27295744 -0.2502284
000080 c4 84 0e 3e dd 97 23 be 5e 77 18 3e cc 94 80 be
       0.13917834 -0.159759 0.14889285 -0.25113523
000090 ae b2 ee bd 7a 6d aa bd 9f de 46 be 0d d0 2f 3e
       -0.11655174 -0.08321662 -0.1942086 0.17169209
0000a0 ac 6f 57 3e dc d1 7c 3e 3c cc 40 3e ac 0e e5 3d
       0.21038693 0.2468943 0.18827909 0.11184439
0000b0 c3 e2 55 3e d6 8d 0f be 45 b7 99 be 1e 08 1e be
       0.20887284 -0.1401895 -0.30022636 -0.15432784
0000c0 b1 51 48 3e 1e c6 84 be b9 f9 3f 3e be 8a 1c be
       0.19562413 -0.259324 0.18747605 -0.15287301
0000d0 cb 55 23 3e 06 8e 5d 3e f8 fc 21 3e 29 2d d6 bd
       0.15950696 0.21636209 0.15819156 -0.10457832
0000e0 af bb a0 be 5a 9e 5a be a1 2e b0 3e 59 fb 17 be
       -0.3139319 -0.21349469 0.34410575 -0.14841975
0000f0 40 9b c2 be 3d 8c 0c 3e 89 46 e3 bd 00 2e bc 3d
       -0.3800907 0.13725372 -0.11097438 0.09188461
000100 09 ce 5f be ab e3 73 be 4a 42 3d 3e db 84 28 be
       -0.2185594 -0.23817317 0.18482319 -0.1645693
000110 44 e3 40 3e b7 07 e4 3d 78 c0 23 be 24 1e 50 3e
       0.18836695 0.11134284 -0.1599139 0.20323998
000120 8a 93 5a be 91 ff df 3d 43 fd 66 3e 8c 3c 22 be
       -0.21345344 0.10937417 0.22557549 -0.1584341
000130 3e 33 e1 3d b8 ef f7 3d d3 cb 4d 3d 0f dc 11 be
       0.10996102 0.121062696 0.05024321 -0.14244102
000140 dc c6 0c 3e 2d 5c 54 3e a0 04 22 3e ae 7b f7 3d
       0.13747734 0.20738287 0.15822077 0.12084137
000150 69 7b ec be 23 51 f8 3d 76 65 ba bd ca 29 75 3e
       -0.46187904 0.121248506 -0.091013834 0.23941723
000160 27 bd 18 3e 36 8f 14 3e 03 52 2c be b8 c3 4a be
       0.14915906 0.14507756 -0.1682816 -0.19801223
000170 de 88 d2 be cd 7d 0e 3e 63 14 41 be 45 b2 8a be
       -0.41120046 0.13915177 -0.18855433 -0.27089134
000180 5f 1b 77 be a5 2b 6f 3e dc c3 1f be 0e 77 72 bd
       -0.24131535 0.23356493 -0.15602058 -0.05919557
000190 23 21 fa bd a7 b8 fb bd 51 72 7a 3e b1 b8 e7 be
       -0.122133516 -0.12291079 0.24457671 -0.45258096
0001a0 74 7e 6f be 06 2f 6a 3e 2f 9f fa 3d 4f 0f 1a 3e
       -0.23388082 0.228695 0.12237393 0.15044902
0001b0 f0 fe ff 3d e7 ec 01 be 1e 1f 5c be 46 68 b1 3e
       0.12499797 -0.12688027 -0.21496245 0.34649867
0001c0 d8 8c 85 be 1f 6c d8 bd c6 8e c9 be 1b 51 18 be
       -0.26084018 -0.105674975 -0.3936674 -0.1487469
0001d0 fa 2b 6b be 5d 3d 3c be 8f dc 05 bf 43 b0 e0 3d
       -0.22965994 -0.18382783 -0.5228967 0.10971119
0001e0 b4 9d f6 bd 72 7a c7 be 1d 03 32 be aa 28 22 be
       -0.12041798 -0.38960606 -0.17384 -0.15835825
0001f0 29 34 90 be 4a f9 76 be 15 e8 44 be a4 bd be bd
       -0.28164795 -0.24118534 -0.19229157 -0.09313515
