src/scripts/ddpg/weights/FC64_4layer_20hz_sf0.5/critic.pth (torch, 57479 bytes, 9 tensors)

linear_input.weight f4 [64, 16]
0	0xbe15ca81	-0.1462803
1	0xbcb71ee8	-0.022353604
2	0x3e402bb5	0.18766673
3	0xbe081d83	-0.13292508
4	0xbbec8c9e	-0.0072189113
5	0xbe911f84	-0.28344357
6	0xbe3f510e	-0.18683264
7	0xbdf50e13	-0.11965575
8	0x3e4eb0f2	0.20184687
9	0xbe86111e	-0.26184934
10	0xbe91aae3	-0.2845069
11	0xbe1436c4	-0.14474016
12	0xbe82ef8a	-0.2557338
13	0x3d643983	0.05571891
14	0x3c41ff5e	0.011840669
15	0xbc38b0c1	-0.01127261
16	0xbd961409	-0.0732804
17	0x3e4d06ca	0.20022121
18	0x3e5b8c73	0.21440296
19	0xbdd4e72d	-0.10395656
20	0xbe1e0f2a	-0.15435472
21	0x3e734124	0.23755318
22	0xbe39b331	-0.18134762
23	0xbaee95ee	-0.0018202642
24	0xbdc505fa	-0.096202806
25	0xbe51f941	-0.20505239
26	0x3e533581	0.20625879
27	0x3b54bc7d	0.003246098
28	0x3bb5bd03	0.0055462136
29	0xbdf9eb25	-0.122030534
30	0xbe5c6415	-0.21522553
31	0x3e1a750e	0.15083715
32	0xbe216150	-0.15759778
33	0x3e72524e	0.23664209
34	0xbe1c779b	-0.15280001
35	0xbe83f24e	-0.257708
36	0xbcfaa886	-0.030597936
37	0x3d5ddffa	0.05416868
38	0xbe21280f	-0.15737937
39	0xbe80ca63	-0.2515441
40	0x3cbdf880	0.023189783
41	0x3e62a799	0.22134246
42	0x3e84985f	0.258975
43	0x3d629469	0.055317316
44	0xbd84b8e0	-0.064805746
45	0xbe31e277	-0.17371546
46	0x3d43af88	0.04777482
47	0x3e695d5e	0.22789523
48	0xbca7b3f0	-0.020471543
49	0xbd82dc65	-0.06389693
50	0x3dd45d40	0.103693485
51	0xbcd68b6a	-0.026189525
52	0xbdedd1dd	-0.11612294
53	0x3e43d378	0.19123638
54	0xbd9d9ec6	-0.07696299
55	0xbea79051	-0.32727292
56	0x3e0c9ef5	0.13732512
57	0x3a1cae5b	0.0005976909
58	0xbe6a7f5b	-0.22900145
59	0xbdb4f114	-0.088350445
60	0x3db49c36	0.08818857
61	0xbe489ed1	-0.19591834
62	0xbe1d6e08	-0.15374005
63	0xbdb0b703	-0.08628657
64	0x3e9c14f2	0.3048473
65	0xbd9ebff9	-0.0775146
66	0xbcff5cb5	-0.031172136
67	0x3d37b8c7	0.04485395
68	0xbdd6ae2e	-0.10482441
69	0xbe412d7b	-0.18865006
70	0xbe3a75cc	-0.18208998
71	0xbe863ad9	-0.26216772
72	0x3e46e03b	0.19421475
73	0xbcdf6461	-0.027269544
74	0xbdba5ff1	-0.091003306
75	0x39747bb3	0.00023315735
76	0x3d287b30	0.041133106
77	0xbe1acedd	-0.15117975
78	0xbe1e6dcb	-0.1547157
79	0xbeb32f27	-0.34996912
80	0x3e19c572	0.15016726
81	0x3d6001ae	0.054689102
82	0xbe49bdcd	-0.1970131
83	0xbe18fa88	-0.1493932
84	0x3e0968af	0.1341884
85	0xbe19a89d	-0.15005727
86	0x3e85936a	0.2608903
87	0x3e6730c3	0.22577195
88	0xbe06e2dc	-0.13172477
89	0xbe27621d	-0.16346021
90	0x3e89d3b2	0.26919323
91	0x3e4bd60a	0.19905868
92	0x3d8b1bf2	0.067924395
93	0x3e40da5e	0.188333
94	0x3e0712de	0.13190791
95	0x3e6cc94f	0.23123668
96	0xbe7cca48	-0.24686539
97	0xbe2561e3	-0.16150622
98	0xbd50c238	-0.05096647
99	0x3cb26461	0.02177638
100	0x3e2d28f6	0.16910157
101	0xbdce8eeb	-0.10085853
102	0xbd5a4799	-0.053290937
103	0x3e532ad6	0.2062181
104	0xbe94898c	-0.2901119
105	0xbdc6e15d	-0.097109534
106	0x3e508374	0.20362645
107	0x3daa96cb	0.08329543
108	0xbe79e4b3	-0.24403648
109	0x3e96f9bc	0.29487407
110	0x3e0f5c17	0.13999973
111	0x3e96e4a6	0.2947132
112	0x3e9b251b	0.30301747
113	0xbc47e19b	-0.012199785
114	0xbce74bcc	-0.028234385
115	0x3e81f9c7	0.25385877
116	0xbdb36eed	-0.08761392
117	0x3e4c4372	0.19947603
118	0xbe32d2c0	-0.17463207
119	0x3e3d6e35	0.18499072
120	0x3d122cfd	0.035687435
121	0xbe8690b5	-0.26282278
122	0x3c7d070b	0.015443574
123	0xbe21fd68	-0.15819323
124	0x3e794895	0.24344094
125	0xbe888119	-0.26660994
126	0xbe078efe	-0.13238141
127	0x3d7154c7	0.05891874
128	0xbe536531	-0.2064407
129	0x3e65071e	0.22365996
130	0x3e85651f	0.26053712
131	0x3d472343	0.048617613
132	0xbce2c4f4	-0.027681805
133	0xbda5ba25	-0.08092145
134	0x3d5f21f2	0.054475732
135	0x3e404d5c	0.1877951
136	0xbe420ec1	-0.1895094
137	0x3d92ba18	0.07164401
138	0x3e3f654c	0.18690985
139	0xbe39f871	-0.18161179
140	0x3de3e9b6	0.11128561
141	0x3e7f51f3	0.24933605
142	0xbd9fecdf	-0.078088515
143	0xbda98bd9	-0.08278627
144	0x3ddf1ad9	0.10893793
145	0xbe8c578e	-0.2741055
146	0xbe07a4c7	-0.13246451
147	0xbdce2863	-0.10066297
148	0xbe76b291	-0.24091555
149	0xbe97770f	-0.29583022
150	0xbd9c7cbe	-0.0764098
151	0xbddf7504	-0.10910991
152	0xbdc404b6	-0.09571211
153	0xbe8e2e47	-0.27769682
154	0xbdd2e544	-0.10297635
155	0xb9efb7b4	-0.00045722502
156	0xbdc7ee30	-0.097622275
157	0xbd6b2f97	-0.057418432
158	0xbe17345e	-0.1476607
159	0xbde89bb0	-0.1135782
160	0x3df3a676	0.11896984
161	0xbdd7073d	-0.104994275
162	0x3d422fce	0.04740887
163	0x3e193767	0.1496254
164	0xbebee5bf	-0.37284657
165	0x3e75ff4e	0.24023172
166	0xbd7b268c	-0.061316058
167	0x3e5dc6da	0.21657887
168	0xbd8a7e6c	-0.06762394
169	0x3e4de1b6	0.20105633
170	0x3e9e3f04	0.30907452
171	0x3e50aba9	0.20377983
172	0xbe0f027e	-0.13965794
173	0x3e9df75d	0.30852786
174	0x3e6d785d	0.23190446
175	0x3d19850a	0.03748039
176	0xbdc72bf3	-0.097251795
177	0x3c97f870	0.018551081
178	0xbe3b62a0	-0.18299341
179	0x3e841afe	0.25801843
180	0xbd16421a	-0.036684133
181	0x3e049393	0.1294692
182	0x3e0eff02	0.13964465
183	0xbd31e80f	-0.0434342
184	0xbe0fa26b	-0.14026801
185	0xbd56417c	-0.052308545
186	0xbe8e0d6f	-0.27744624
187	0x3db17551	0.086649545
188	0x3db50df8	0.08840555
189	0x3e05f935	0.13083346
190	0xbacb7023	-0.001552109
191	0xbcd60b66	-0.026128482
192	0xbe6ebe90	-0.23314881
193	0xbdb3672e	-0.08759914
194	0xbd1ced69	-0.03831235
195	0x3dd54f94	0.10415569
196	0xbda8ac1a	-0.08235951
197	0xbe58fd5c	-0.21190399
198	0xbe5a4d79	-0.21318616
199	0x3e8648e5	0.2622749
200	0xbe45f2d0	-0.19330907
201	0x3d9c8fd7	0.07644623
202	0x3da0ab61	0.07845188
203	0x3e4395ea	0.19100156
204	0xbe5d6e2a	-0.21624056
205	0xbd7fe692	-0.06247575
206	0x3cfd3bcf	0.030912308
207	0x3e750fc5	0.23931797
208	0xbe5aba49	-0.21360125
209	0x3e1f38ae	0.15548965
210	0xbe8e6d1c	-0.2781762
211	0x3e863d35	0.26218572
212	0xbe1d5d26	-0.15367565
213	0x3e4b4e5a	0.19854107
214	0xbdf58b6e	-0.11989485
215	0xbe02b317	-0.1276363
216	0xbdc21920	-0.094774485
217	0x3ed19ec7	0.4094145
218	0xbe2c432b	-0.16822498
219	0xbdd74899	-0.10511894
220	0x3d9e06f1	0.07716168
221	0xbdf1f902	-0.118150726
222	0xbe1e7501	-0.15474321
223	0xbe387ba5	-0.18015917
224	0xbd886d2f	-0.0666145
225	0xbd94cf53	-0.072661065
226	0xbd4bd292	-0.049761362
227	0x3d8cd3a9	0.068763085
228	0x3c4ae8ae	0.012384577
229	0xbc29615a	-0.010338152
230	0xbd858e3e	-0.06521271
231	0x3cb163c0	0.02165401
232	0xbdc44bb2	-0.0958475
233	0xbec5519b	-0.38538823
234	0xbe6a9661	-0.22908928
235	0xbe7b1e1c	-0.24523205
236	0x3db473b8	0.08811134
237	0xbd72cdd1	-0.059278313
238	0xbe0a7736	-0.13522038
239	0xbdacc86e	-0.084366664
240	0xbddb2633	-0.10700645
241	0x3e72ec79	0.2372302
242	0xbe51b262	-0.20478204
243	0x3e68c280	0.22730446
244	0x3e0e6b40	0.139081
245	0xbdedfa82	-0.11620046
246	0x3db50c27	0.088402085
247	0x3e91fef3	0.28514823
248	0xbd1ea7c6	-0.03873422
249	0x3e64c40a	0.22340408
250	0x3dbea7d9	0.09309358
251	0x3e975d98	0.29563594
252	0xbccdd723	-0.025127
253	0xbd2d82ae	-0.042360954
254	0x3e2dc809	0.16970839
255	0x3e1ba870	0.15200973

linear_input.bias f4 [64]
0	0xbe33c3b8	-0.1755513
1	0xbc5f209c	-0.0136186145
2	0x3e2c47bc	0.1682424
3	0x3d2514ea	0.04030315
4	0xbe9a5936	-0.30146188
5	0x3e4cca31	0.19999005
6	0xbe494269	-0.1965424
7	0xbe30f7f9	-0.17282094
8	0x3cde3957	0.027126951
9	0xbd0cdd9c	-0.03439103
10	0xbcea5751	-0.028606089
11	0xbe3ea4a9	-0.186175
12	0x3d491a4f	0.049097355
13	0x3da298d9	0.079393096
14	0xbe49fc08	-0.19725049
15	0x3e8787d5	0.2647082
16	0x3b90f8d4	0.004424194
17	0xbca44473	-0.02005217
18	0x3e90d0c2	0.2828427
19	0x3e0d53fb	0.13801567
20	0x3e13e288	0.14441884
21	0xbe890a32	-0.2676559
22	0xbe78f72f	-0.24313043
23	0x3e30b4bb	0.17256443
24	0xbdc830b1	-0.09774912
25	0xbbfde974	-0.007748777
26	0x3e408615	0.18801148
27	0xbd8759ac	-0.066089004
28	0xbe7b19ba	-0.24521533
29	0x3e375dd5	0.17906888
30	0xbdb28f6b	-0.08718761
31	0x3db9e0d1	0.090760835
32	0xbd9f56f5	-0.077802576
33	0x3d8126f4	0.06306258
34	0xbe5f2f07	-0.21795283
35	0xbe85c518	-0.26126933
36	0xbe3cea93	-0.18448858
37	0x3da9220c	0.08258447
38	0x3cc87e5b	0.024474313
39	0x3d2c3ba9	0.042049084
40	0x3d7a0e1e	0.06104862
41	0xbe3735a7	-0.1789156
42	0xbe02df67	-0.12780534
43	0xbe6ecfde	-0.23321483
44	0xbdb9db05	-0.09074978
45	0xbe9e2848	-0.30890107
46	0xbe8b10bc	-0.27161205
47	0xbe965bec	-0.29367006
48	0x3dd71f0b	0.10503968
49	0x3cd1fbb4	0.025632717
50	0xbe38c95c	-0.18045563
51	0x3dd009e0	0.101581335
52	0xbdfc0729	-0.12306053
53	0x3e7f4501	0.24928667
54	0x3cc72e93	0.0243142
55	0x3e85a616	0.26103276
56	0xbe34de78	-0.1766299
57	0xbc11ab19	-0.0088908905
58	0xbe25fc0c	-0.1620943
59	0xbc9f4c33	-0.019445514
60	0xbe0ff733	-0.14059143
61	0xbd619d5f	-0.05508172
62	0xbe3cda9c	-0.18442768
63	0x3e6534f5	0.22383483

linear_hidden.0.weight f4 [64, 64]
0	0x3d92688f	0.07148849
1	0xbdc86b8e	-0.097861394
2	0x3d976ee7	0.073942
3	0x3d9360b5	0.0719618
4	0xbd5c3392	-0.05376012
5	0x3d11d13c	0.035599932
6	0x3dd5a8e7	0.10432606
7	0x3ccc1cd0	0.024916083
8	0x3de41762	0.111372724
9	0xbe216ced	-0.15764208
10	0x3d823898	0.06358451
11	0x3e3414a5	0.17586
12	0x3da09f01	0.078428276
13	0x3e08984f	0.13339351
14	0x3e25f605	0.1620713
15	0xbd9d7144	-0.07687619
16	0xbea929c5	-0.3303968
17	0x3e5086da	0.20363942
18	0x3e4d01e2	0.2002025
19	0x3db8f9fa	0.09032054
20	0xbdd1b4d4	-0.10239568
21	0xbb8ccab8	-0.004296627
22	0xbe211152	-0.15729263
23	0x3cdf4134	0.027252771
24	0x3dce02bb	0.100591145
25	0x3d279e43	0.040922415
26	0xbd38a6bd	-0.04508089
27	0xbde6174b	-0.112349115
28	0x3dc68b94	0.09694591
29	0x3c9d6805	0.01921464
30	0xbd9aca3b	-0.07558104
31	0x3dedd774	0.1161336
32	0xbda979ea	-0.082752064
33	0x3cf11057	0.029426737
34	0x3d6730f1	0.05644316
35	0x3e1d76fe	0.15377423
36	0xbd8e5d04	-0.06951335
37	0xbdcbe5f4	-0.099559695
38	0x3e4f0c57	0.20219551
39	0x3d5e85b7	0.05432674
40	0xbdd94ef6	-0.10610764
41	0xbe391d95	-0.18077691
42	0x3db1e2cf	0.086858384
43	0xbd88e015	-0.06683365
44	0xbce5fad6	-0.02807371
45	0x3e27dc43	0.16392617
46	0x3c78c6b6	0.015184095
47	0x3cc26be3	0.023733085
48	0x3bd3f46e	0.0064683473
49	0x3e280cbd	0.1641111
50	0x3babe866	0.00524621
51	0xbdef61de	-0.116885886
52	0xbe23615d	-0.1595511
53	0xbd821ef0	-0.06353557
54	0x3da4eb1d	0.08052657
55	0x3e1d01ac	0.15332669
56	0xbe8b7d2b	-0.27243933
57	0x3cdd786b	0.027034959
58	0x3cfb7617	0.030695958
59	0x3dd66537	0.10468524
60	0xbdb4306b	-0.087982975
61	0xbdf9ea57	-0.122029
62	0xbc82dcc0	-0.015974402
63	0x3cd45ab1	0.025922151
64	0x3e46dca9	0.19420113
65	0xbd3de630	-0.046362102
66	0xbe2d3819	-0.16915931
67	0x3e3cca11	0.18436457
68	0x3e6c5255	0.23078282
69	0xbda5500d	-0.08071909
70	0x3d5bacff	0.05363178
71	0x3e33dcc0	0.17564678
72	0xbda73b16	-0.081655666
73	0x3dcbf92b	0.099596344
74	0xbed81a20	-0.42207432
75	0xbdacefef	-0.08444201
76	0xbd4f7736	-0.050650798
77	0xbd2553b4	-0.04036303
78	0x3e730b50	0.23734784
79	0xbe18267f	-0.14858435
80	0x3dabc21b	0.08386632
81	0xbdd3e7d0	-0.10346949
82	0xbd8cfd16	-0.0688421
83	0x3da24546	0.07923369
84	0x3dfbd123	0.12295749
85	0x3de00d18	0.109399974
86	0xbe536a40	-0.20646
87	0x3cbbdf43	0.022933608
88	0xbdacf472	-0.08445062
89	0xbd2fd332	-0.04292602
90	0x3d66b240	0.056322336
91	0x3bc234c5	0.005926701
92	0x3b8757a0	0.0041303188
93	0x3d1756bf	0.036947962
94	0x3dba360b	0.09092339
95	0xbca537d1	-0.020168217
96	0xbde94e11	-0.11391843
97	0x3c257147	0.010097808
98	0x3e2c8a6f	0.16849683
99	0x3ec20c63	0.37900075
100	0x3e5040cb	0.20337217
101	0x3da86d01	0.08223916
102	0xbd807806	-0.06272893
103	0xbd968033	-0.07348671
104	0x3dadf4e6	0.08493976
105	0x3d7ecb91	0.062205855
106	0xbb0db773	-0.0021624237
107	0xbe33e63e	-0.17568299
108	0xbe972376	-0.29519242
109	0x3e41c115	0.18921311
110	0x3d680f32	0.056655116
111	0xbc37e5a6	-0.011224186
112	0xbe57c31d	-0.21070524
113	0xbe028c16	-0.12748751
114	0xbe76cc99	-0.24101485
115	0x3d1eaa82	0.038736828
116	0xbda109c2	-0.07863189
117	0xbd062641	-0.032751326
118	0x3d090854	0.033455208
119	0x3bb941df	0.0056536044
120	0xbd9229b4	-0.071368605
121	0x3e003d6a	0.12523428
122	0xbc05acb2	-0.00815885
123	0xbcde36fc	-0.027125828
124	0x3e139e03	0.14415745
125	0x3d56f778	0.0524821
126	0xbd3fe955	-0.046853382
127	0x3d7587df	0.05994403
128	0xbbb68f7f	-0.0055713053
129	0x3de83a0b	0.11339196
130	0x3e063330	0.13105464
131	0x3dc6cd3c	0.09707114
132	0xbd951914	-0.07280174
133	0xbd9e4f64	-0.07729986
134	0xbe06cb2e	-0.13163444
135	0xbc8e9d81	-0.017409088
136	0x3db32c5c	0.08748695
137	0xbdc43a74	-0.095814615
138	0xbe2cbbca	-0.16868511
139	0xbde3dbaa	-0.11125882
140	0xbc0a60de	-0.0084459465
141	0x3cece9b2	0.028920028
142	0xbe26b769	-0.16280903
143	0x3d90c2b0	0.07068384
144	0xbdda7dc3	-0.106685184
145	0x3d96caae	0.07362877
146	0xbe33efdc	-0.17571968
147	0x3dcb82c9	0.09937055
148	0xbe517b7f	-0.20457266
149	0x3c8024ff	0.015642641
150	0x3d8ba79e	0.0681908
151	0xbd90ff08	-0.07079893
152	0xbedeedaf	-0.43540713
153	0x3d395f4a	0.04525689
154	0x3dd388dc	0.10328838
155	0xbdf7e8d3	-0.121049546
156	0x3d58e8d8	0.052956432
157	0xbca1096c	-0.019657813
158	0xbdefea94	-0.11714664
159	0xbd378dc3	-0.04481293
160	0xbdf814ec	-0.121133655
161	0x3e018d82	0.12651637
162	0x3e10af29	0.14129318
163	0xbd018d19	-0.0316287
164	0xbd7dc5e3	-0.061956298
165	0x3ba612cb	0.0050681583
166	0x3df030ec	0.11728081
167	0x3df3388f	0.11876022
168	0x3c3cfecc	0.011535358
169	0x3d8aeb66	0.0678318
170	0xbcdd2e40	-0.026999593
171	0xbd93f1d0	-0.072238564
172	0xbded4514	-0.11585441
173	0xbc674223	-0.014114889
174	0xbd0cb015	-0.034347612
175	0xbd16b1cb	-0.03679065
176	0xbeae3068	-0.34021306
177	0x3a565fc5	0.0008177723
178	0x3d51ed01	0.051251415
179	0x3db577b1	0.0886072
180	0xbcc35026	-0.023841929
181	0xbd80a468	-0.06281358
182	0x3d5b0d1b	0.053479295
183	0xbeb17619	-0.34660414
184	0xbd10f91b	-0.035393815
185	0x3c4c8a20	0.012484103
186	0xbdd98420	-0.10620904
187	0xbba65009	-0.005075459
188	0xbe072ee4	-0.13201481
189	0xbe1f47a3	-0.15554671
190	0xbdea493a	-0.11439748
191	0x3e0cd452	0.13752869
192	0x3da5bc66	0.08092575
193	0xbd2fc520	-0.042912602
194	0x3de67771	0.112532504
195	0x3ddeb2bf	0.10873937
196	0xbd6b0b74	-0.05738397
197	0x3cfa8571	0.030581208
198	0x3e1df045	0.15423687
199	0xbe5aa14a	-0.2135059
200	0xbc170d18	-0.00921943
201	0xbb802c6e	-0.0039115464
202	0xbde2c8f8	-0.11073488
203	0xbc69c89e	-0.014269022
204	0x3d72a5fe	0.059240334
205	0x3d7e26e3	0.062048804
206	0x3d720e1b	0.059095483
207	0x3d85acc2	0.065270916
208	0xbe3f429a	-0.1867775
209	0x3e909894	0.28241408
210	0x3d3a79bc	0.04552625
211	0x3a8ce4fe	0.0010749397
212	0xbdbc3fd7	-0.09191864
213	0x3db957fb	0.09049984
214	0xbdd0a653	-0.10187974
215	0xbd9fbab5	-0.077992834
216	0xbe67e1ae	-0.22644684
217	0x3aac796e	0.0013158747
218	0x3d2e709d	0.042587865
219	0xbe404860	-0.18777609
220	0x3cc23867	0.023708535
221	0xbd00979d	-0.03139459
222	0xbe33206f	-0.17492841
223	0x3c03827f	0.008026718
224	0xbd11590a	-0.035485305
225	0xbda2b378	-0.07944387
226	0xbd840385	-0.06445984
227	0x3d103451	0.035206143
228	0x3e13e593	0.14443044
229	0xbd1428ba	-0.036171652
230	0x3dd659e7	0.10466366
231	0xbd8cae78	-0.06869215
232	0x3d595202	0.053056724
233	0xbe6a03de	-0.22853038
234	0x3d8578e3	0.06517198
235	0xbdd48724	-0.103773385
236	0x3d226c52	0.039654084
237	0x3e23cf5d	0.15997072
238	0xbd733734	-0.059378818
239	0x3e1b654e	0.15175363
240	0xbeae6982	-0.3406487
241	0x3d213f03	0.039366733
242	0x3dc72353	0.097235344
243	0xbbbd770d	-0.005782014
244	0x3df3b52c	0.1189979
245	0xbd1eebdc	-0.03879915
246	0x3d1241cd	0.035707284
247	0xbe3189f2	-0.17337778
248	0x3c1451c0	0.009052694
249	0x3cb0d3b5	0.021585325
250	0xbe03870e	-0.12844488
251	0xbde0dfae	-0.109801635
252	0xbdecd077	-0.11563199
253	0xbb8aa5c3	-0.004231186
254	0x3db6c6a2	0.08924605
255	0x3df06af2	0.11739148

linear_hidden.0.bias f4 [64]
0	0xbdda3296	-0.1065418
1	0xbe053b52	-0.1301091
2	0x3e20a479	0.15687741
3	0x3d50ea96	0.05100497
4	0x3de1e25c	0.11029503
5	0xbde9dec6	-0.11419444
6	0xbdd18fca	-0.10232504
7	0xbdb340c1	-0.08752585
8	0xbdadbe7c	-0.08483598
9	0xbd9b1b34	-0.07573548
10	0xbdee84f6	-0.11646454
11	0x3d65ff2e	0.05615156
12	0x3e10683d	0.14102264
13	0xbdd7dcb7	-0.10540145
14	0x3e075d6c	0.13219231
15	0xbd01bd53	-0.031674694
16	0xbd8097e1	-0.062789686
17	0x3d672946	0.056435846
18	0xbbffb3d8	-0.0078034215
19	0xbd910632	-0.0708126
20	0xbdf02959	-0.117266364
21	0xbc04b4bb	-0.00809973
22	0x3d954dc8	0.07290226
23	0x3d5cc906	0.05390265
24	0x3dd0e925	0.10200719
25	0x3e08c96a	0.13358083
26	0xbd4e664b	-0.050390523
27	0xbcb1e539	-0.021715747
28	0xbcdc4050	-0.026886135
29	0xbd5aee16	-0.053449713
30	0xbd5e4e5b	-0.054273944
31	0x3e1587b6	0.14602551
32	0x3d04274b	0.032264035
33	0xbb553f6a	-0.0032539018
34	0x3da80498	0.08204001
35	0x3e1d57d4	0.15365535
36	0xbdc0e558	-0.09418744
37	0xbd30c4c2	-0.043156393
38	0x3db240a5	0.08703736
39	0x3ddc289e	0.107499346
40	0x3ca466a7	0.02006848
41	0x3d302e70	0.043013036
42	0xbd16f35a	-0.036853172
43	0xbdab1599	-0.08353729
44	0x3de300c4	0.110841304
45	0x3d7bcaa2	0.061472543
46	0x3dad01b9	0.08447594
47	0xbddd48db	-0.10804912
48	0xbd8f3362	-0.06992222
49	0x3df63dbb	0.12023493
50	0xbe0c1ce1	-0.13682891
51	0xbd1519ea	-0.036401667
52	0xbc2bb39e	-0.010479836
53	0xbe29708f	-0.16546844
54	0xbd00f00d	-0.03147893
55	0xbe098a51	-0.1343167
56	0x3e0950d9	0.13409747
57	0x3de6824f	0.11255323
58	0x3d6ae336	0.05734559
59	0x3df2f9ab	0.11864027
60	0x3d712fcc	0.058883473
61	0x3b2605c0	0.0025333017
62	0xbc126725	-0.008935724
63	0x3dfdacf5	0.123865046

linear_hidden.1.weight f4 [64, 64]
0	0xbdb88317	-0.090093784
1	0x3de09d40	0.10967493
2	0xbe14d972	-0.14536074
3	0xbdf7f7c7	-0.12107807
4	0x3dc1dedf	0.094663374
5	0x3cc77c8b	0.024351379
6	0xbc5f14fb	-0.013615842
7	0x3e8dfa2f	0.27729937
8	0x3e2ae75f	0.16689824
9	0x3e47616c	0.19470757
10	0xbdb3d0fc	-0.08780095
11	0x3c9e02ae	0.019288387
12	0xbb70c074	-0.0036735805
13	0xbc9a5930	-0.018841356
14	0xbbc25f31	-0.005931758
15	0xbd986762	-0.07441594
16	0x3e09fc2e	0.13475105
17	0x3e658feb	0.22418182
18	0x3d846e25	0.06466321
19	0x3d8929d3	0.066974305
20	0xbdf793f7	-0.12088769
21	0xb94e7585	-0.0001968947
22	0xbeef0f88	-0.46691537
23	0x3e0a6e29	0.13518585
24	0x3e831686	0.25603122
25	0xbe600bea	-0.21879545
26	0xbdecada8	-0.1155656
27	0x3db9bc6c	0.09069142
28	0x3e072043	0.131959
29	0x3dd98c64	0.106224805
30	0x3d22c4e5	0.039738555
31	0xbdeb9f61	-0.115050085
32	0xbd81ac50	-0.06331694
33	0x3d9e7792	0.0773765
34	0xbd7f4694	-0.062323168
35	0xbc9540ea	-0.01821943
36	0x3e081cfe	0.1329231
37	0x3cc74f84	0.024329908
38	0x3dcb7dc9	0.09936101
39	0x3ce63031	0.028099151
40	0xbcac5f62	-0.021041576
41	0x3d41e1cd	0.04733448
42	0x3dae5249	0.085117884
43	0x3e0ed8c8	0.13949883
44	0xbc7a96ff	-0.015294789
45	0x3c5f00a5	0.0136109935
46	0x3cb1ab88	0.021688238
47	0xbd9fae1f	-0.07796883
48	0x3da0b2ca	0.07846601
49	0xbc099101	-0.008396388
50	0xbdf7fab5	-0.121083654
51	0xbd956dcf	-0.07296335
52	0xbdb3525c	-0.08755943
53	0xbdfedbb7	-0.12444251
54	0xbe1a0b46	-0.15043363
55	0xbdc9f5c1	-0.09861327
56	0xbe966466	-0.29373473
57	0x3d1103c2	0.035403974
58	0x3dec1edb	0.11529323
59	0xbd886ee6	-0.06661777
60	0x3eaa2aaa	0.33235675
61	0xbb2870c0	-0.002570197
62	0xbdf7873c	-0.12086341
63	0x3e8b8fe9	0.27258232
64	0xbe59687d	-0.21231265
65	0xbe804ef4	-0.25060236
66	0x3d7cdae0	0.061732173
67	0xbd979a80	-0.074025154
68	0xbdb19f73	-0.08672991
69	0xbca9b6ca	-0.020717043
70	0xbe62fe2a	-0.22167268
71	0x3b80f274	0.0039351527
72	0xbcf04a11	-0.029332193
73	0xbe8b9f5e	-0.27270025
74	0x3dcd9bc2	0.10039474
75	0xbdf47ac0	-0.11937475
76	0xbcfb02a9	-0.030640917
77	0xbd5375fb	-0.051626187
78	0x3db6339c	0.088965625
79	0xbe8b7b0e	-0.2724232
80	0xbbe759f2	-0.007060283
81	0x3ccfa694	0.025347985
82	0xbc928519	-0.017885732
83	0xbea5e277	-0.3239934
84	0x3db5b1ba	0.08871789
85	0xbde78eec	-0.11306557
86	0xbd8fbddb	-0.07018634
87	0x3dd59a6e	0.10429846
88	0xbd2ca810	-0.042152464
89	0x3c8142ca	0.015778918
90	0x3d0b724c	0.03404455
91	0xbdc1e34f	-0.09467184
92	0xbdf45f76	-0.1193227
93	0xbe53f9ae	-0.20700714
94	0xbe315851	-0.17318846
95	0xbd9098f3	-0.07060423
96	0xbd568b32	-0.05237884
97	0xbe424cfd	-0.18974681
98	0xbe4afa90	-0.19822145
99	0x3c1b8e3c	0.009494361
100	0x3d1fb1c7	0.0389879
101	0x3d93c357	0.072149925
102	0xbe128bf2	-0.14311197
103	0xbe301276	-0.17194542
104	0xbe298383	-0.16554074
105	0xbebcf90d	-0.3690876
106	0xbe60323c	-0.21894163
107	0x3ccd9be7	0.025098754
108	0x3dee69f5	0.116413034
109	0x3ce98516	0.028505843
110	0x3db54701	0.088514335
111	0xbe66adaf	-0.22527193
112	0xbba63820	-0.0050726086
113	0x3ce12138	0.02748166
114	0x3d355f84	0.044280544
115	0xbb2287c0	-0.0024800152
116	0xbe29b05e	-0.16571185
117	0xbdfbe8b8	-0.12300247
118	0x3d99a24c	0.07501659
119	0x3dd4a6c2	0.10383369
120	0xbaeda17c	-0.0018129791
121	0xbcf9ccbf	-0.030493138
122	0xbdbecf7f	-0.093169205
123	0xbdd4f380	-0.103980064
124	0x3b9042a4	0.0044024754
125	0xbd7ef940	-0.062249422
126	0xbd2b1c13	-0.04177482
127	0xbe843da1	-0.2582827
128	0xbd8c60a4	-0.0685437
129	0x3db38b2b	0.087667786
130	0x3d1b734c	0.037951753
131	0xbe03b8a1	-0.12863399
132	0xbd8c9e7d	-0.06866167
133	0xbc0986d0	-0.008393958
134	0x3d816e6e	0.06319891
135	0xbce58029	-0.028015213
136	0xbdb256b8	-0.087079465
137	0x3c0da71a	0.008645797
138	0xbbbe5d20	-0.005809441
139	0x3cd4e450	0.025987774
140	0x3d887426	0.066627786
141	0xbde0ed5c	-0.10982773
142	0xbdddad8c	-0.10824117
143	0xbcf8229a	-0.030289937
144	0xbd46d0d5	-0.048539
145	0xbdb84b35	-0.089987196
146	0x3dc2b012	0.09506239
147	0x3e0558c5	0.13022144
148	0x3de179f2	0.11009587
149	0xbe93697b	-0.28791413
150	0x3e283ec9	0.164302
151	0x3d9d077a	0.07667442
152	0x3e00032f	0.12501214
153	0xbb1e8f26	-0.002419421
154	0xbd89e489	-0.06733043
155	0x3e23f95c	0.16013092
156	0x3d72d304	0.05928327
157	0xbe0374ee	-0.12837574
158	0x3e09bab1	0.13450123
159	0x3da158e8	0.07878286
160	0x3d39f9c5	0.045404214
161	0x3e2ce072	0.16882494
162	0xbd0945ad	-0.033513714
163	0xbc266acc	-0.010157298
164	0x3de3bf47	0.11120468
165	0xbe1aed0d	-0.1512949
166	0xbd8c757b	-0.06858345
167	0x3da5ae28	0.08089858
168	0x3dccfa4a	0.10008676
169	0xbe092e81	-0.13396646
170	0xbb1983f1	-0.002342459
171	0x3d9eb5c5	0.077495135
172	0xbe1ae31e	-0.15125701
173	0xbe525999	-0.20541991
174	0x3dcfd6ee	0.101484165
175	0xbe09ed57	-0.13469444
176	0x3def9b42	0.11699535
177	0xbd20f574	-0.039296582
178	0x3dd3c32c	0.103399605
179	0x3da8cdaa	0.08242352
180	0xbdcebca1	-0.10094572
181	0x3dd09d73	0.10186281
182	0xbd613c79	-0.05498931
183	0x3cbfdd80	0.02342105
184	0xbd31ac5e	-0.043377273
185	0x3e301442	0.17195228
186	0x3ce810fd	0.028328413
187	0xbe1bc45d	-0.15211625
188	0xbd253c1e	-0.040340535
189	0x3da04694	0.07825962
190	0xbe0908a5	-0.13382204
191	0x3e079107	0.13238917
192	0xbdd7192c	-0.10502848
193	0x3d72e0e0	0.05929649
194	0xbdab3622	-0.083599344
195	0xbd1cf061	-0.03831518
196	0xbd81670e	-0.06318484
197	0x3df067e7	0.11738568
198	0xbde1b9ea	-0.110217884
199	0x3ebe7f25	0.3720638
200	0xbdf9a04a	-0.12188776
201	0xbc19ddb8	-0.009391241
202	0x3c550c40	0.013003409
203	0xbcc37378	-0.02385877
204	0x3df53718	0.11973399
205	0xbc4124ae	-0.01178853
206	0xbdd6968f	-0.104779355
207	0x3dd9c305	0.106329
208	0xbdce3289	-0.100682326
209	0x3e68ced9	0.22735156
210	0xbd00ef8a	-0.031478442
211	0x3d31e486	0.043430828
212	0x3d7f68a4	0.062355652
213	0xbd7aee8e	-0.06126266
214	0xbead66c0	-0.33867455
215	0x3de3fb42	0.11131908
216	0x3e6722d6	0.22571883
217	0xbcdb6bee	-0.026784863
218	0xbdbcd660	-0.09220576
219	0x3e07708a	0.13226524
220	0xbde027d8	-0.109450996
221	0x3e30e016	0.17272982
222	0x3cfcaa76	0.030843
223	0xbe24023d	-0.16016479
224	0xbdcc88a3	-0.09986999
225	0x3e133e8d	0.1437933
226	0x3de72de2	0.11288048
227	0xbd10f2b3	-0.035387706
228	0xbae53dad	-0.0017489694
229	0x3db0033b	0.08594366
230	0xbd1946e1	-0.03742111
231	0x3cf00684	0.029299982
232	0x3d389656	0.045065247
233	0x3d56aba3	0.05240978
234	0xbda11504	-0.078653365
235	0xbc9f662a	-0.019457895
236	0xbdb4ce3e	-0.088284
237	0x3e1d9995	0.15390618
238	0x3d0c5f22	0.034270413
239	0xbaeff367	-0.0018306792
240	0xbd165764	-0.036704436
241	0x3e4d5749	0.20052828
242	0xbdec3b0b	-0.11534699
243	0x3db12c7d	0.086510636
244	0x3c270da4	0.010196123
245	0x3c96e9bb	0.018421998
246	0x3ced0ee1	0.028937759
247	0xbd2e1ef6	-0.042509995
248	0xbe58989e	-0.21151969
249	0xbd39a7d1	-0.045326058
250	0x3d86d16c	0.06582913
251	0x3d921f19	0.07134838
252	0x3e0ed676	0.13948998
253	0x3dd4431c	0.103643626
254	0x3dac6cf7	0.08419221
255	0xbd90b947	-0.07066589

linear_hidden.1.bias f4 [64]
0	0x3db1a34e	0.08673726
1	0x3d6270f3	0.055283498
2	0xbd4d2a19	-0.050088976
3	0x3df196bc	0.117963284
4	0xbd9368fb	-0.07197758
5	0xbc86ac55	-0.016439596
6	0x3e4ef763	0.20211558
7	0x3ddc377f	0.107527725
8	0x3e02b665	0.1276489
9	0xbddd1166	-0.10794334
10	0x3dab1466	0.083535
11	0x3d4d4120	0.050110936
12	0x3c9198af	0.017773
13	0xbdb4b535	-0.08823625
14	0xbd80b68a	-0.062848166
15	0x3d6162b6	0.05502578
16	0xbc0864f6	-0.008324852
17	0x3de6769a	0.1125309
18	0x3d165641	0.036703352
19	0x3c969621	0.018382134
20	0xbd8ec06a	-0.06970294
21	0x3e91375b	0.28362545
22	0xbdad567c	-0.08463761
23	0xbcdd5b74	-0.027021147
24	0xbdba5874	-0.09098902
25	0x3c31aa72	0.01084386
26	0xbddb31ba	-0.10702844
27	0x3dc3a7a6	0.09553461
28	0xbd94840f	-0.07251751
29	0xbd73c157	-0.059510555
30	0x3d61c522	0.05511964
31	0xbc57a3b9	-0.013161593
32	0x3dd1b04a	0.102387026
33	0xbd0c41fa	-0.034242608
34	0x3d7c7275	0.061632592
35	0x3d41b096	0.047287546
36	0xbe0aba46	-0.1354762
37	0x3db9a2e0	0.09064269
38	0x3e1b0a17	0.15140568
39	0xbdbf452c	-0.09339365
40	0x3da3be26	0.07995252
41	0x3bf66217	0.0075190174
42	0xbdd1a190	-0.10235894
43	0x3e2c3c12	0.1681979
44	0x3cae9a57	0.02131383
45	0x3dd04714	0.10169807
46	0xbde6c732	-0.11268462
47	0x3cab5a23	0.020917004
48	0xbd833251	-0.064060815
49	0x3d21df7f	0.039519783
50	0xbe1f51eb	-0.15558593
51	0x3cd7d5ff	0.026347158
52	0xbd791073	-0.060806703
53	0x3db32eed	0.08749185
54	0xbd2f480c	-0.04279332
55	0xbd94953c	-0.07255027
56	0x3d2e40e7	0.042542364
57	0x3de209cc	0.11037025
58	0xbd818686	-0.063244864
59	0xbd5c1a36	-0.053735934
60	0xbe10f6e6	-0.14156684
61	0x3d3a0628	0.045416027
62	0xbd2bdff7	-0.041961636
63	0x3da99ae6	0.08281498

linear_hidden.2.weight f4 [64, 64]
0	0x3d15142b	0.036396187
1	0x3cd05300	0.025430202
2	0xbdc3aab4	-0.095540434
3	0x3e0033b5	0.12519725
4	0xbd55c73c	-0.052191958
5	0x3e67103e	0.2256479
6	0xbd8a9185	-0.06766037
7	0xbd126e8c	-0.035749957
8	0x3d754efd	0.059889782
9	0x3e9baebd	0.30406752
10	0x3d70dfdf	0.05880725
11	0xbd836dce	-0.06417428
12	0xbe0b4914	-0.13602096
13	0xbc249528	-0.010045327
14	0xbe814bde	-0.25253195
15	0x3e119108	0.14215481
16	0xbeba54e0	-0.3639288
17	0xbc208fb6	-0.009799888
18	0x3e014eb0	0.12627673
19	0x3da07fa9	0.07836849
20	0x3bd322fd	0.00644338
21	0x3e3ba515	0.18324693
22	0x3dd165a1	0.10224462
23	0xbe316f65	-0.1732765
24	0xbe7591d5	-0.23981412
25	0xba75e563	-0.00093801896
26	0xbeec4152	-0.46143585
27	0x3e58ddd0	0.21178365
28	0xbd6ed548	-0.05830887
29	0x3d18799c	0.03722535
30	0x3e334df2	0.17510203
31	0xbe6116aa	-0.21981302
32	0x3dda5e9f	0.10662579
33	0xbe4ce75e	-0.20010135
34	0xbe9545d4	-0.29154837
35	0xbdcc7c03	-0.09984591
36	0xbe02d967	-0.12778245
37	0x3e3dd5dc	0.18538612
38	0x3d394882	0.045235164
39	0xbe35726f	-0.17719434
40	0xbcc72a3f	-0.024312137
41	0x3e455be8	0.1927334
42	0xbd7021c5	-0.058625955
43	0x3e5a968a	0.21346489
44	0x3e386a7f	0.18009375
45	0x3eba1e3a	0.36351186
46	0xbddf2a46	-0.10896735
47	0xbe0011fd	-0.12506862
48	0xbe06c02c	-0.13159245
49	0xbdf1b0b4	-0.118012816
50	0xbe110b42	-0.14164451
51	0x3d8d5e6b	0.069027744
52	0x3dc05ddf	0.093929045
53	0x3e000026	0.12500057
54	0x3dace992	0.084429875
55	0xbdad9d53	-0.08477273
56	0xbd48ddce	-0.049039654
57	0x3da291de	0.07937978
58	0x3e52c783	0.2058392
59	0xbd0e367c	-0.03471993
60	0xbe1bea45	-0.15226085
61	0x3da0bb12	0.07848181
62	0xbd7142ed	-0.058901716
63	0x3e3bc0ce	0.18335268
64	0x3e076db1	0.13225438
65	0xbd4df8fe	-0.050286286
66	0xbe8696b0	-0.2628684
67	0x3e028521	0.12746097
68	0xbedd5011	-0.43225148
69	0xbe02827e	-0.12745091
70	0x3e1111e8	0.14166987
71	0xbc711e4f	-0.014716699
72	0xbe002753	-0.12515001
73	0xbefdde11	-0.49583486
74	0x3dab4809	0.08363349
75	0x3ca6ae81	0.020346882
76	0x3da4d9e3	0.08049371
77	0xbdb01dd9	-0.08599443
78	0x3c64219d	0.01392403
79	0xbe04a100	-0.12952042
80	0x3e06ee1f	0.13176773
81	0xbd801abc	-0.06255099
82	0xbe57f550	-0.21089673
83	0xbd14e7af	-0.036353763
84	0xbeabc4e5	-0.33548656
85	0x3e101f64	0.14074475
86	0xbcaec36c	-0.021333419
87	0x3e1b39b8	0.15158737
88	0x3d92beb1	0.07165278
89	0x3e869669	0.2628663
90	0x3e3c2bee	0.18376133
91	0xbe45d9e3	-0.19321398
92	0xbc15c2f0	-0.009140715
93	0xbdadd777	-0.08488362
94	0x3d164a03	0.036691677
95	0x3e12ef9c	0.14349216
96	0x3d100292	0.0351587
97	0x3dcc439f	0.09973835
98	0x3e4f18b3	0.20224266
99	0x3eb71374	0.3575703
100	0x3da23899	0.079209514
101	0xbd6c3558	-0.05766806
102	0xbd94464d	-0.07239971
103	0xbc2d256f	-0.010568007
104	0xbe208463	-0.15675502
105	0xbe90b983	-0.28266534
106	0x3c292692	0.010324137
107	0xbe2828bf	-0.16421793
108	0xbdfe1b3b	-0.124075375
109	0xbe972244	-0.2951833
110	0xbd179d28	-0.03701511
111	0x3d6e31d7	0.058153
112	0x3e2cc22c	0.16870946
113	0x3ebf2456	0.3733241
114	0xbdaf1f11	-0.08550847
115	0xbe64a697	-0.22329174
116	0xbcba965c	-0.022776775
117	0x3e463b6a	0.19358602
118	0xbe18a8bd	-0.14908119
119	0xbd8ac94a	-0.06776674
120	0x3e00b346	0.12568387
121	0x3bb8b01e	0.005636229
122	0xbc87a042	-0.016555909
123	0x3e999d2a	0.3000272
124	0x3e12cd79	0.14336194
125	0xbd9f7988	-0.07786852
126	0x3e2e2f51	0.17010237
127	0xbe6fe481	-0.23427011
128	0x3db22096	0.086976215
129	0xbd0c63a0	-0.034274697
130	0xbc5d6ab3	-0.013514209
131	0x3d0329aa	0.032022156
132	0xbeafed4c	-0.3436073
133	0xbdf44fa8	-0.11929256
134	0x3dd205e7	0.10255032
135	0x3b0ba9c9	0.0021310917
136	0xbd947df8	-0.07250589
137	0xbf0bef7a	-0.5466229
138	0x3dae3e1d	0.08507941
139	0xbcbeb7af	-0.023280947
140	0x3e8e3f31	0.27782586
141	0xbdafb28e	-0.085789785
142	0xbc8efe7e	-0.017455336
143	0xbeda6e1b	-0.4266213
144	0x3dd8db03	0.10588648
145	0xbe324de6	-0.17412528
146	0xbe8c3c14	-0.27389586
147	0xbe20ea67	-0.15714417
148	0xbe997b07	-0.29976675
149	0x3df5e60f	0.12006771
150	0xbdf27096	-0.1183788
151	0x3e63d340	0.22248554
152	0x3db91806	0.09037785
153	0x3e46f60d	0.19429798
154	0x3e569dcf	0.20958637
155	0xbe72a014	-0.23693877
156	0x3df615be	0.12015866
157	0xb7e7bef7	-2.762627e-05
158	0xbde162f7	-0.11005204
159	0x3eae5d8a	0.3405574
160	0x3e418457	0.1889814
161	0x3e4f8078	0.2026385
162	0x3e5bebaa	0.21476617
163	0x3ee9a0e5	0.45630565
164	0x3d6ec14e	0.05828982
165	0x3d2dfc14	0.04247673
166	0xbe473407	-0.1945344
167	0xbe4bc340	-0.198987
168	0xbe5e101e	-0.21685836
169	0xbeb7fb7d	-0.35934058
170	0xbcba52b0	-0.022744507
171	0xbe1391b1	-0.14411046
172	0x3d2e42ff	0.04254436
173	0xbe3a6329	-0.18201889
174	0xbd24a17c	-0.040193066
175	0xbc714d50	-0.014727905
176	0x3e9dae17	0.30796883
177	0x3e92b1f6	0.28651398
178	0x3d4d5e94	0.050139025
179	0xbe87fa59	-0.26558188
180	0xbe0beb46	-0.13663968
181	0x3e7028a9	0.2345301
182	0x3d722142	0.05911375
183	0x3deef81c	0.11668417
184	0x3d1c0dd1	0.038099114
185	0xbeb2d7a3	-0.34930143
186	0xbe21f36d	-0.15815516
187	0x3e7369ed	0.23770876
188	0xbe134a61	-0.14383842
189	0xbe0d9267	-0.1382538
190	0x3e646e86	0.22307786
191	0xbe1e885c	-0.15481704
192	0xbd837756	-0.06419246
193	0x3e512772	0.20425203
194	0x3dfa909f	0.122346155
195	0x3dbc91c7	0.09207492
196	0x3d8ad446	0.06778769
197	0x3e4a8c2f	0.19780038
198	0xbc91d80c	-0.017803214
199	0xbd495d16	-0.04916104
200	0x3e2f0956	0.17093405
201	0x3e732b18	0.23746908
202	0x3d9fd1fc	0.07803723
203	0x3d42377c	0.047416195
204	0xbe87d711	-0.2653127
205	0x3b3d7e1d	0.002891428
206	0xbde6814b	-0.112551294
207	0x3c9d937b	0.019235363
208	0xbd53677b	-0.05161236
209	0x3da65446	0.08121543
210	0x3e409ff6	0.1881102
211	0xbd561d88	-0.052274257
212	0xbd8c99ca	-0.068652704
213	0xbcf378b4	-0.029720642
214	0x3e34665f	0.17617176
215	0xbe00046a	-0.12501684
216	0xbdd31f31	-0.10308684
217	0xbe0727a3	-0.13198714
218	0xbea2e645	-0.31816307
219	0x3e5a7404	0.21333319
220	0x3ca03cf8	0.019560322
221	0xbc8f1fb3	-0.01747117
222	0x3d85647c	0.065133065
223	0xbdb71631	-0.089397795
224	0x3df44aaf	0.11928307
225	0xbca851ad	-0.020546759
226	0xbe2d58c4	-0.16928393
227	0xbf0dad9c	-0.5534303
228	0xbd266091	-0.040619437
229	0x3d99b1c6	0.07504611
230	0x3c4547c0	0.012041032
231	0x3db6a89a	0.08918877
232	0x3c66c6cd	0.014085484
233	0x3d8ed256	0.06973712
234	0xbd9b3a58	-0.075794876
235	0x3e07be43	0.13256173
236	0x3e35552c	0.17708272
237	0x3e1dbf93	0.15405111
238	0x3da899be	0.08232449
239	0xbd2b684f	-0.041847523
240	0xbdf5915b	-0.11990615
241	0xbef63dc1	-0.4809399
242	0x3e82285e	0.25421423
243	0x3c912539	0.017717944
244	0xbce0a6da	-0.027423311
245	0xbd5c088c	-0.05371909
246	0x3d19a353	0.037509274
247	0xbb7e73b3	-0.0038826286
248	0x3da6db67	0.081473164
249	0xbc8e1c8d	-0.017347598
250	0x3e2c5292	0.16828373
251	0xbe9e9b02	-0.30977637
252	0xbe25711e	-0.16156432
253	0x3dc8b9c7	0.09801059
254	0xbd929c9b	-0.071587764
255	0x3e141327	0.14460431

linear_hidden.2.bias f4 [64]
0	0xbc47ca6b	-0.012194256
1	0xbdc28d2b	-0.09499582
2	0xbd478dfa	-0.048719384
3	0x3e1b76cb	0.15182035
4	0x3dd18727	0.102308564
5	0x3d077d76	0.033078633
6	0xbdda62d7	-0.106633835
7	0x3e487c80	0.19578743
8	0x3cb3dc47	0.021955622
9	0xbde2c426	-0.110725686
10	0xbd479e97	-0.048735227
11	0x3d9f98fd	0.07792852
12	0x3cf0c711	0.029391797
13	0x3d6cc7d4	0.05780776
14	0xbca6da7a	-0.02036785
15	0x3e2b8f0c	0.16753787
16	0xbdb68761	-0.0891254
17	0xbdd89308	-0.10574919
18	0xbdb09c26	-0.08623533
19	0x3dabb89a	0.08384819
20	0xbd22e524	-0.039769307
21	0xbd41fade	-0.047358386
22	0x3e44c598	0.19216001
23	0x3d7a09ed	0.061044622
24	0xbdd1062f	-0.102062576
25	0xbb3ebf7d	-0.0029105835
26	0x3d8ef41e	0.069801554
27	0x3c83992c	0.016064249
28	0xbdd404e6	-0.10352497
29	0xbd43ce9d	-0.047804464
30	0xbd0e0dee	-0.034681253
31	0xbda533d7	-0.08066528
32	0x3d280fcb	0.041030686
33	0x3d0b7b44	0.034053102
34	0xbd1e4ca2	-0.0386473
35	0x3e4e37ec	0.2013852
36	0xbd8c2e51	-0.06844772
37	0xbba08c7b	-0.004899559
38	0xbdf49af7	-0.1194362
39	0xbcd20a81	-0.025639774
40	0xbd4036fc	-0.046927437
41	0x3e506391	0.20350482
42	0xbd1ff4bc	-0.039051756
43	0x3de7d593	0.11320033
44	0x3d72e917	0.059304323
45	0xbd1e2f3b	-0.03861926
46	0x3c9538f9	0.018215643
47	0x3da2f5e0	0.07957053
48	0x3e34ccfa	0.17656317
49	0x3e4524bf	0.19252299
50	0x3df927e8	0.12165815
51	0xbd904f3e	-0.07046364
52	0x3d4808e3	0.0488366
53	0xbdadd008	-0.084869444
54	0x3ccce3d6	0.025010984
55	0xbdc92330	-0.098211646
56	0x3d3a7bd1	0.045528237
57	0x3d80772f	0.062727325
58	0x3da867f1	0.0822295
59	0x3d67d992	0.056603976
60	0xbd84755a	-0.064676955
61	0x3e14c257	0.1452726
62	0x3d23d4fc	0.03999804
63	0x3e104f66	0.14092788

linear_output.weight f4 [1, 64]
0	0x3e1e7a9f	0.15476464
1	0xbea6517e	-0.3248405
2	0xbef90cea	-0.48642665
3	0x3e4fa39a	0.20277253
4	0xbedd352e	-0.43204635
5	0x3e424bb8	0.18974197
6	0xbeabe8d7	-0.3357608
7	0x3e490cd9	0.19633807
8	0xbecb1d0e	-0.39670604
9	0xbd291b48	-0.041285783
10	0x3df4081c	0.11915609
11	0xbea2365d	-0.316821
12	0x3d6ef292	0.0583368
13	0x3e2531a9	0.16132225
14	0x3e452dbf	0.19255732
15	0x3e436f2d	0.19085379
16	0x3e34c39b	0.17652743
17	0xbcc34928	-0.023838595
18	0xbdb75384	-0.08951476
19	0x3e545b96	0.20738062
20	0xbe0e5e1d	-0.13903089
21	0xbea3857e	-0.31937784
22	0x3e5d3910	0.21603799
23	0xbeaad8b2	-0.3336845
24	0xbd473518	-0.04863462
25	0xbe85abc1	-0.261076
26	0xbed09a4f	-0.40742728
27	0xbef61c69	-0.4806855
28	0xbe9ddd34	-0.30832827
29	0xbdac82b6	-0.08423369
30	0xbd865001	-0.06558228
31	0xbdd4beb7	-0.103879385
32	0xbe9636b3	-0.29338607
33	0xbebc60fe	-0.3679275
34	0xba84e4db	-0.0010139005
35	0x3e12bf28	0.14330733
36	0x3dde32f8	0.10849565
37	0xbe89114a	-0.26771003
38	0xbdee14fe	-0.11625098
39	0x3d8eb7a7	0.06968623
40	0x3d561f80	0.052276134
41	0x3e69e360	0.22840643
42	0xbf101d04	-0.56294274
43	0x3e38b26b	0.18036811
44	0xbea0ea88	-0.31428933
45	0xbce8d3c5	-0.028421292
46	0x3e2651d3	0.16242151
47	0x3e103364	0.14082104
48	0x3e522ce1	0.20524932
49	0x3e422d21	0.18962528
50	0x3e761413	0.24031095
51	0xbe1a1d9c	-0.15050358
52	0xbec10e89	-0.37706402
53	0xbdc98a76	-0.098408625
54	0xbed3164c	-0.4122795
55	0xbd91e37c	-0.07123467
56	0xbef70027	-0.48242304
57	0x3e6e1857	0.23251472
58	0xbe92f78c	-0.28704488
59	0x3e1de6bb	0.15420048
60	0xbec9bacf	-0.39400336
61	0xbf0be193	-0.54641074
62	0xbecf75c2	-0.4051953
63	0x3e55a1e6	0.2086254
