src/scripts/ddpg/weights/actor_best.pth (torch, 69039 bytes, 18 tensors)

linear_input.weight f4 [64, 13]
0	0x3dbfad72	0.09359254
1	0x3dcebb32	0.100942984
2	0xbe7a036d	-0.2441537
3	0x3e870d06	0.26377124
4	0x3e9057f1	0.28192094
5	0x3da6d298	0.08145636
6	0xbd8789c9	-0.06618077
7	0x3e24f4ca	0.16109005
8	0xbdd8f177	-0.10592931
9	0x3e7762b4	0.24158746
10	0xbe13392f	-0.14377283
11	0x3c4826c9	0.012216278
12	0x3e3dceba	0.18535891
13	0x3e48e7b2	0.19619635
14	0x3e8b7121	0.27234748
15	0x3e2cab77	0.16862284
16	0x3c7c1bcd	0.015387488
17	0x3c7f18e8	0.015569903
18	0xbd19b04c	-0.037521645
19	0x3e699d0f	0.2281382
20	0x3dc476d6	0.09592979
21	0x3e7e4aac	0.24833173
22	0xbdc1498d	-0.09437857
23	0xbcf55044	-0.0299455
24	0x3df98659	0.12183828
25	0xbe562c07	-0.20915233
26	0xbd67b262	-0.056566603
27	0xbe3cd53d	-0.18440719
28	0x3dd82617	0.1055414
29	0xbdef3218	-0.116794765
30	0xbc00ab03	-0.007853272
31	0xbe0ff1c1	-0.14057066
32	0x3e835082	0.2564736
33	0x3e1e0867	0.15432893
34	0xbe5755c6	-0.21028814
35	0x3e4aa079	0.19787778
36	0x3d70d5ad	0.058797527
37	0x3d62bc28	0.05535522
38	0xbe8d1d72	-0.27561527
39	0x3e742d05	0.23845299
40	0xbe9c0396	-0.30471486
41	0xbe814196	-0.2524535
42	0xbe2b7d72	-0.16747072
43	0xbe0eb77f	-0.13937186
44	0xbe81e47d	-0.25369635
45	0x3aa8fc8f	0.0012892651
46	0x3e3a8412	0.18214443
47	0xbe76c9ab	-0.24100368
48	0xbd6c3a85	-0.057672996
49	0xbd58a9f9	-0.052896474
50	0x3df0ab76	0.117514536
51	0xbda679ed	-0.08128724
52	0x3e480cd2	0.1953614
53	0x3dfb1c20	0.12261224
54	0xbe75c86f	-0.2400224
55	0xbe23966b	-0.15975349
56	0x3bc2e2ef	0.0059474627
57	0xbd8f2cf9	-0.06991
58	0x3e69bc74	0.22825795
59	0x3e9ad088	0.30237222
60	0x3ded5205	0.115879096
61	0xbde932c1	-0.11386634
62	0xbe914f9f	-0.2838106
63	0xbc1ebae1	-0.00968811
64	0x3bacbed7	0.0052717733
65	0x3e532ccd	0.20622559
66	0x3e1c0fbd	0.15240379
67	0x3c6d102b	0.014469187
68	0x3e20e701	0.15713121
69	0xba6ac76f	-0.00089561095
70	0xbe10bd85	-0.14134796
71	0x3dbb62f4	0.09149733
72	0xbe4f0328	-0.20216048
73	0xbdd353b8	-0.103187025
74	0x3c2a3c13	0.010390299
75	0xbe45a61c	-0.19301647
76	0xbe191442	-0.14949134
77	0x3c3289d7	0.010897121
78	0xbe49ea75	-0.19718345
79	0xbdccb641	-0.099957
80	0x3d4d5ee5	0.050139327
81	0x3e2e4c40	0.17021275
82	0xbe7eb90b	-0.24875276
83	0xbe863250	-0.2621026
84	0xbe89b389	-0.26894787
85	0x3e13e85c	0.14444107
86	0x3d08ce11	0.033399645
87	0x3daddc3d	0.08489273
88	0x3e289d9f	0.16466378
89	0xbdffb0a9	-0.12484867
90	0x3d5dabe9	0.054119024
91	0xbe1bf0d0	-0.15228581
92	0xbcde640c	-0.027147315
93	0xba971f28	-0.0011529671
94	0x3c5cf856	0.013486942
95	0xbe8fae98	-0.28062892
96	0xbe3314ea	-0.17488447
97	0xbdf6e931	-0.120561965
98	0x3e34cec2	0.17656997
99	0xbc143bb3	-0.0090474365
100	0x3c06a2db	0.008217539
101	0x3d0d14cd	0.034443665
102	0x3da52689	0.080639906
103	0x3d86a146	0.06573729
104	0x3e5e644c	0.21717948
105	0x3e4b7f1a	0.19872704
106	0xbe261574	-0.16219121
107	0x3e80ea2d	0.25178662
108	0xbe1d6fdf	-0.15374707
109	0xbe174a43	-0.14774422
110	0xbd30572b	-0.04305188
111	0x3cd64020	0.026153624
112	0x3e75c63c	0.24001402
113	0xbe4a4ae4	-0.19755131
114	0x3df2fdd6	0.118648216
115	0x3e7a5499	0.24446334
116	0x3e98e7a6	0.29864234
117	0x3e58c429	0.21168579
118	0xbe75baee	-0.2399709
119	0xbe958fa7	-0.2921116
120	0x3cc8136f	0.02442333
121	0xbdf393b2	-0.11893405
122	0x3d131cdf	0.035916205
123	0x3e51d4c5	0.20491321
124	0x3e589a96	0.2115272
125	0xbd93c164	-0.07214621
126	0xbe3cbac3	-0.18430619
127	0xbda17b94	-0.07884899
128	0xbe47bf17	-0.19506489
129	0xbdfde29d	-0.12396739
130	0x3ddcefb1	0.10787905
131	0x3e8e82b8	0.27834105
132	0x3e40910d	0.18805332
133	0xbdee05c4	-0.116221935
134	0x3e7194f4	0.23591977
135	0xbe51cd6f	-0.20488523
136	0xbc8585f6	-0.01629923
137	0xbdd5a3d0	-0.104316354
138	0x3e4c4a8f	0.19950317
139	0xbdc9a462	-0.09845807
140	0xbe0176f0	-0.12643027
141	0xbd855a10	-0.06511319
142	0x3e6dd144	0.2322436
143	0x3e8d7511	0.27628377
144	0x3df5dd6a	0.12005122
145	0xbe4455b2	-0.19173315
146	0x3d8ba326	0.068182275
147	0xbe1aba3f	-0.1511011
148	0x3d386dda	0.045026638
149	0x3dca41d2	0.098758355
150	0x3e156455	0.14589055
151	0xbe4f6459	-0.20253123
152	0xbe925d79	-0.2858694
153	0xbdec8d09	-0.11550338
154	0x3e47bc98	0.19505537
155	0x3e5488a8	0.20755255
156	0x3e344c16	0.1760715
157	0xbcc06b00	-0.023488522
158	0xbdd16d83	-0.10225966
159	0xbe0d3adf	-0.13791989
160	0x3dbf4b46	0.09340529
161	0xbdefc643	-0.11707737
162	0x3d44b47d	0.04802369
163	0x3e92c557	0.28666183
164	0x3d99714d	0.074923135
165	0xbdcbbaeb	-0.09947761
166	0xbd4a5abb	-0.049402934
167	0x3e9b7fbf	0.303709
168	0xbdcc93dd	-0.0998914
169	0xbcbd926b	-0.023141107
170	0x3e353ae0	0.1769824
171	0xbe00bd6b	-0.12572257
172	0x3e60d7ce	0.21957323
173	0xbc1264ce	-0.0089351665
174	0x3e95c4ce	0.29251713
175	0x3e4bf1b0	0.19916415
176	0xbe05c378	-0.13062847
177	0x3e13798a	0.14401832
178	0x3e914806	0.28375262
179	0x3df9015f	0.12158465
180	0x3e855380	0.26040268
181	0x3dbd64a3	0.092477106
182	0xbe7edce3	-0.24888949
183	0xbe5caf49	-0.21551241
184	0x3dd8a59c	0.105784625
185	0xbd8d92c5	-0.0691276
186	0xbdf24438	-0.11829418
187	0x3e581625	0.21102197
188	0xbda20e29	-0.07912857
189	0xbdd00fa2	-0.10159232
190	0x3e81b65d	0.25334445
191	0x3e628707	0.22121821
192	0x3df5bd80	0.11999035
193	0xbd529808	-0.05141452
194	0x3dbbcd0f	0.09169971
195	0xbdc7ff1a	-0.09765454
196	0x3e261b16	0.1622127
197	0x3e25ea9a	0.16202775
198	0x3c856077	0.01628135
199	0x3e6972ca	0.22797695
200	0xbe6df128	-0.23236525
201	0x3d6d0fce	0.0578764
202	0x3caeb740	0.021327615
203	0x3d68c31f	0.056826707
204	0xbe98c9ef	-0.29841563
205	0xbe7b4c18	-0.24540746
206	0xbd90d425	-0.07071713
207	0x3e90329c	0.28163612
208	0x3d6d1067	0.05787697
209	0x3e4c92f0	0.19977927
210	0xbe058aa5	-0.1304117
211	0xbe403dee	-0.18773624
212	0xbe54ce33	-0.20781784
213	0xbd522280	-0.051302433
214	0x3e404af0	0.18778586
215	0x3d04ad4c	0.03239183
216	0x3e54037c	0.20704454
217	0xbdb2339b	-0.08701249
218	0x3e558862	0.20852807
219	0x3e1b9fac	0.15197629
220	0xbdf89886	-0.121384665
221	0x3c068a38	0.008211665
222	0xbe5daedb	-0.21648733
223	0x3e35fc44	0.17772013
224	0x3ac785df	0.0015222392
225	0xbde15eaa	-0.11004384
226	0xbe6f0a80	-0.23343849
227	0xbe8e00b3	-0.27734908
228	0xbd12e4fd	-0.03586291
229	0x3e7b4fcb	0.24542157
230	0x3e8005d0	0.25004435
231	0xba7c95c3	-0.00096353533
232	0x3e1b2a9d	0.15152974
233	0x3cd68b9b	0.026189616
234	0xba368156	-0.00069620216
235	0x3e5aa94b	0.21353643
236	0xbe40db28	-0.18833601
237	0x3e111d81	0.14171411
238	0xbd994711	-0.07484258
239	0xbe3cd195	-0.18439324
240	0xbe758303	-0.23975758
241	0x3e8e1869	0.27752998
242	0x3e4ac7e3	0.19802813
243	0xbd5257a5	-0.051353116
244	0xbaaa881b	-0.0013010533
245	0x3e9a0ebb	0.30089363
246	0xbdf83b12	-0.12120642
247	0x3de05b1f	0.1095488
248	0xbe6038be	-0.21896645
249	0xbe72236e	-0.23646328
250	0x3df10228	0.117679894
251	0xbdd31ddb	-0.10308429
252	0xbe5583ca	-0.20851055
253	0x3d9eaf50	0.07748282
254	0x3e135e4e	0.14391443
255	0xbdbc155e	-0.09183763

linear_input.bias f4 [64]
0	0xbdbda301	-0.09259606
1	0x3e83b768	0.25725865
2	0x3d8a571c	0.06754896
3	0xbe58571b	-0.21126978
4	0xbe5032fc	-0.20331949
5	0x3b371705	0.0027937305
6	0xbd5261e2	-0.05136288
7	0xbe040d95	-0.12895806
8	0x3e3cbf91	0.18432452
9	0xbd11a51e	-0.03555786
10	0x3d3f032a	0.046633877
11	0xbd599199	-0.05311737
12	0xbcf75cc4	-0.030195601
13	0x3e794a74	0.24344808
14	0xbe48cc3e	-0.19609162
15	0x3e891f4f	0.267817
16	0x3d200d08	0.039074928
17	0xbdb0b17b	-0.08627602
18	0x3e9c9c10	0.30587816
19	0x3e0022ea	0.12513319
20	0x3e08e48a	0.1336843
21	0xbded120f	-0.1157571
22	0xbe5a2660	-0.21303701
23	0xbe10e767	-0.14150773
24	0x3e3c937c	0.18415636
25	0x3d2a82e5	0.041628737
26	0x3cc35e62	0.023848716
27	0x3e24d867	0.16098176
28	0xbe3639bb	-0.1779546
29	0xbd696383	-0.056979667
30	0x3d084224	0.0332662
31	0x3dd86695	0.10566441
32	0x3da86467	0.08222275
33	0x3e8f261e	0.2795877
34	0xbe32d7ae	-0.17465088
35	0xbdcbcf6e	-0.099516734
36	0x3e8415ab	0.2579778
37	0xbdb554b4	-0.088540465
38	0xbe902181	-0.2815056
39	0x3ea541e4	0.32276833
40	0x3e3087aa	0.17239252
41	0xbd802480	-0.06256962
42	0xbe789f98	-0.2427963
43	0xbe3e755b	-0.18599455
44	0xbda3c9eb	-0.07997497
45	0x3dfe63d2	0.12421383
46	0xbc8373dd	-0.016046459
47	0xbe3b3b75	-0.182844
48	0x3e2eace8	0.17058146
49	0xbb6f16a8	-0.003648201
50	0x3e8e20d9	0.27759436
51	0xbda2f8a9	-0.079575844
52	0xbd84d547	-0.06485992
53	0x3e518f41	0.20464803
54	0x3d9bb838	0.07603496
55	0x3dadac09	0.08480079
56	0x3d188e24	0.03724493
57	0x3e5ac835	0.21365435
58	0xbc3f1059	-0.011661612
59	0x3e47cb86	0.19511232
60	0xbd8b26c2	-0.06794502
61	0xbe1c3930	-0.1525619
62	0x3e80bd75	0.25144544
63	0x3e8df94f	0.2772927

linear_hidden.0.weight f4 [64, 64]
0	0xbc7d726f	-0.015469178
1	0x3d82799a	0.0637085
2	0xbd150de0	-0.036390185
3	0xbbf33ad5	-0.007422785
4	0x3df67f28	0.12035972
5	0xbd286b85	-0.041118164
6	0xbd1a5092	-0.037674494
7	0x3a58a626	0.0008264504
8	0x3c972f9d	0.018455321
9	0x3d63062d	0.05542581
10	0x3c9a37e5	0.01882548
11	0x3e1faf73	0.15594272
12	0x3c44cef1	0.012012229
13	0xbc506f66	-0.012721872
14	0xbdbcfe44	-0.09228185
15	0x3e076387	0.1322156
16	0xbd4b30cb	-0.04960708
17	0x3dd41294	0.10355106
18	0x3c78efe9	0.015193918
19	0x3dbb3229	0.09140427
20	0x3c88a8c4	0.016682036
21	0x3d0fb54d	0.03508501
22	0x3d5a1929	0.05324665
23	0x3d5b173e	0.053488962
24	0x3db91c1c	0.090385646
25	0x3df5868e	0.11988555
26	0x3e2783c5	0.1635886
27	0x3db85ab1	0.09001673
28	0x3d56f807	0.05248263
29	0x3c07f258	0.008297525
30	0x3d83cecb	0.06435927
31	0x3cbbfe28	0.02294834
32	0xbc8a4ef0	-0.016883343
33	0x3d91f64d	0.07127056
34	0x3c7be6b3	0.015374827
35	0xbd96fbc3	-0.073722385
36	0x3df69d11	0.12041677
37	0xbdd4c415	-0.10388962
38	0xbd851ff3	-0.065002345
39	0x3e1d0a56	0.15335974
40	0x3cbab47e	0.022791144
41	0x3dc88d4f	0.097925775
42	0xbd7c8e0d	-0.061658908
43	0xbd4dd94b	-0.050256055
44	0x3d667730	0.05626601
45	0xbdc0fb83	-0.09422972
46	0x3df9d120	0.121980906
47	0x3e1ba743	0.15200524
48	0x3c247a1d	0.01003888
49	0x3d8922d3	0.06696095
50	0xbd35246c	-0.044224188
51	0x3d8ace3a	0.06777616
52	0x3d73cf87	0.059524085
53	0x3d3ebb0c	0.0465651
54	0xbd396985	-0.045266647
55	0x3d33ac53	0.043865513
56	0xbce3af40	-0.027793527
57	0x3e1d5c71	0.15367295
58	0x3da89b3e	0.08232735
59	0xbd7f820f	-0.062379893
60	0x3d9ce017	0.07659929
61	0xbdc81154	-0.0976893
62	0x3c67d9c2	0.014151039
63	0x3d85fecf	0.065427415
64	0xbda9e608	-0.08295828
65	0x3e031da3	0.12804274
66	0xbd2ead41	-0.042645697
67	0x3c4bd183	0.012440088
68	0xbdb167bc	-0.08662364
69	0xbd2d6a37	-0.042337622
70	0xbc12425e	-0.008926956
71	0x3cfa91e5	0.030587146
72	0x3dd40565	0.103525914
73	0xbd11e9b4	-0.035623267
74	0x3b2c6249	0.00263037
75	0x3d3bb8f2	0.045830674
76	0xbda818c5	-0.082078494
77	0xbd1ae0ed	-0.037812162
78	0x3dd86438	0.1056599
79	0x3e0f3947	0.13986693
80	0xbd19ab8e	-0.037517123
81	0x3d8cdf66	0.06878547
82	0x3df3f4d7	0.11911934
83	0x3db18429	0.08667786
84	0x3ab224f4	0.0013591335
85	0xbcf32166	-0.029679012
86	0xb9acad2f	-0.00032935428
87	0x3e1c0dd2	0.15239647
88	0xbcd7d2f2	-0.026345704
89	0x3da19099	0.07888908
90	0x3e1e437b	0.1545543
91	0x3e054e98	0.13018262
92	0x3d9b347f	0.07578372
93	0x3d9197e4	0.07109049
94	0xbd1004a5	-0.03516068
95	0x3cf00524	0.029299326
96	0x3d4ad905	0.049523372
97	0x3da53dbd	0.08068416
98	0x3dc5a7e6	0.09651165
99	0x3ca786a2	0.02044994
100	0xbbc77cf5	-0.006087894
101	0xbc64982d	-0.013952297
102	0x3d352fce	0.044235043
103	0x3ca97f72	0.020690653
104	0xbd01bbaa	-0.03167311
105	0x3de4efc1	0.11178542
106	0xbca3c1f2	-0.019989941
107	0xbcbb63a8	-0.022874668
108	0x3dd7f3d3	0.10544553
109	0xbd8cf2b4	-0.068822294
110	0x3df5d07e	0.12002657
111	0x3d5bd910	0.053673804
112	0x3b4e98e7	0.0031524242
113	0x3db36e0a	0.08761223
114	0x3cb174de	0.021662172
115	0x3de19931	0.11015547
116	0xbccb6684	-0.024829157
117	0xbd2c8152	-0.042115517
118	0x3c1758f7	0.009237519
119	0xbd12129d	-0.035662282
120	0xbd80bae6	-0.06285648
121	0x3d25d668	0.040487677
122	0x3e092cc1	0.13395979
123	0x3da43331	0.080175765
124	0x3d8206d7	0.06348961
125	0xbcf1325a	-0.029442955
126	0x3cca5fdd	0.024703914
127	0x3c509040	0.012729704
128	0xbd910394	-0.070807606
129	0x3d729560	0.059224486
130	0x3dc84846	0.0977941
131	0xbd2154ae	-0.039387397
132	0x3e1883c5	0.14894016
133	0x3e19ddab	0.15025966
134	0x3dac01b3	0.083987616
135	0x3e124dae	0.14287445
136	0xbd76e757	-0.060279217
137	0x3dec24eb	0.11530479
138	0xbc9356ac	-0.017985664
139	0xbc29fd38	-0.010375313
140	0xbd1c9e4c	-0.0382369
141	0x3e02692e	0.12735435
142	0x3dbb364f	0.09141218
143	0x3c38dd28	0.0112831965
144	0xbdbba70b	-0.0916272
145	0xbd0f2a75	-0.0349526
146	0x3e186f3f	0.14886187
147	0x3ddbd005	0.10733036
148	0xbca0091b	-0.019535592
149	0x3db0241d	0.08600638
150	0xbc2cbe4f	-0.01054342
151	0xbd37c9b6	-0.0448701
152	0x3db34d6f	0.08755004
153	0x3dd9d230	0.10635793
154	0xbd5b7d5b	-0.053586345
155	0x3e01bab6	0.12668881
156	0x3d4e2e36	0.05033704
157	0x3d3d6211	0.0462361
158	0x3dd9382f	0.10606419
159	0xbd3c0210	-0.045900404
160	0xbdaf0891	-0.08546556
161	0xbdc118ea	-0.0942858
162	0x3dd71627	0.10502272
163	0x3d04d8d8	0.03243336
164	0xbd124303	-0.03570844
165	0x3d087f98	0.033324808
166	0xbd1ed567	-0.038777735
167	0x3e0f7b70	0.14011931
168	0xbd1e3c3f	-0.038631674
169	0x3d5acb60	0.05341661
170	0x3d7a7723	0.061148774
171	0xbd9bc3aa	-0.07605679
172	0x3e1b341c	0.15156597
173	0xbc12c52f	-0.008958145
174	0x3d2c5051	0.042068783
175	0x3e0a5652	0.13509491
176	0xbd4a8bf0	-0.04944986
177	0x3de8c116	0.11364953
178	0x3e1f2f64	0.15545422
179	0x3ddd0834	0.1079258
180	0x3c9abb66	0.018888187
181	0xbc45fa27	-0.012083567
182	0x3e2706f6	0.16311249
183	0x3d5aca18	0.053415388
184	0x3de0c22f	0.109745376
185	0xbc067b5e	-0.008208124
186	0xbd709918	-0.05873975
187	0x3e0b80b4	0.13623315
188	0xbc942d66	-0.018088054
189	0x3de6ea80	0.11275196
190	0xbc618beb	-0.013766269
191	0x3d0718cf	0.032982644
192	0xbc8eb2bb	-0.01741921
193	0x3dbe5df3	0.09295263
194	0xbde65bcf	-0.1124798
195	0xbd891548	-0.06693512
196	0xbd9008fd	-0.070329644
197	0x3e12fdb8	0.14354599
198	0x3e1d7e4f	0.15380214
199	0xbcbbd3c6	-0.02292813
200	0x3e18a836	0.14907917
201	0x3ddc6531	0.10761488
202	0x3e17c79e	0.14822242
203	0xbd954293	-0.07288089
204	0xbaa9b135	-0.0012946489
205	0x3bb96704	0.0056580324
206	0xbca5afb6	-0.020225387
207	0x3e0f17eb	0.13973968
208	0xbc45c13a	-0.012069995
209	0xbd1df630	-0.03856486
210	0x3e23b123	0.15985541
211	0xbd30c326	-0.043154858
212	0xbd373aeb	-0.044733923
213	0x3c854641	0.016268851
214	0x3d9ae320	0.07562852
215	0x3db7644e	0.089546785
216	0xbd98ca00	-0.074604034
217	0x3bce75be	0.006300657
218	0xbbaf4943	-0.0053493096
219	0x3e078dce	0.13237688
220	0x3dd1c8ca	0.102433756
221	0x3cf79f17	0.030227227
222	0x3d89f80b	0.067367636
223	0xbda1de8f	-0.07903778
224	0xbd84a8b3	-0.06477489
225	0x3decb1fe	0.11557387
226	0x3dc2feb5	0.09521238
227	0x3b31c6d8	0.0027126577
228	0x3e2ec224	0.17066246
229	0x3c5981aa	0.013275543
230	0x3de88039	0.113525815
231	0xbd60d32b	-0.054888885
232	0xbc37446a	-0.011185745
233	0x3b9829da	0.004643661
234	0xbdae31f6	-0.08505623
235	0xbc9de9c3	-0.019276505
236	0x3d8b9529	0.068155594
237	0xbb2e131f	-0.002656169
238	0xbc40da0a	-0.011770735
239	0x3b478229	0.0030442572
240	0x3e245374	0.1604746
241	0x3d493260	0.049120307
242	0x3dd4151a	0.10355587
243	0x3c17773d	0.009244737
244	0x3db6bac1	0.08922339
245	0x3bc7d481	0.0060983305
246	0xbc34c600	-0.011033535
247	0x3bf7e294	0.007564852
248	0xbd285e4b	-0.04110555
249	0xbd09f4a5	-0.033680577
250	0xbd90a11d	-0.0706198
251	0x3d1c65ff	0.03818321
252	0x3e2a5d86	0.16637239
253	0xbc823daa	-0.015898544
254	0xbd6eab5e	-0.058268897
255	0xbd69b61d	-0.057058442

linear_hidden.0.bias f4 [64]
0	0x3c935e35	0.017989257
1	0x3e1d85fb	0.1538314
2	0xbd704716	-0.058661543
3	0x3d9322c2	0.07184364
4	0xbd513fb6	-0.05108615
5	0x3d4999ff	0.049219128
6	0xbdb93854	-0.09043947
7	0x3d079beb	0.03310768
8	0xbd0d3dd6	-0.0344828
9	0x3e20adbc	0.15691274
10	0xbdbd33be	-0.09238385
11	0x3d4b9eb8	0.049711913
12	0x3de7f32a	0.11325677
13	0xbc326c91	-0.010890142
14	0x3d0d5113	0.034501147
15	0x3e0d26a7	0.13784276
16	0xbcd9f392	-0.026605401
17	0xbcfa35c7	-0.030543221
18	0xbd939f24	-0.07208088
19	0xbd6c2daf	-0.057660755
20	0xbb5ffde9	-0.0034178442
21	0xbd28929d	-0.041155446
22	0xbcb84041	-0.022491576
23	0x3e0af11b	0.13568537
24	0x3ba0e17a	0.0049096914
25	0x3d6e255e	0.058141105
26	0x3de96763	0.113966726
27	0xb7d7c1cb	-2.572024e-05
28	0x3b70b57c	0.0036729267
29	0x3c273a12	0.010206716
30	0x3cf3170c	0.029674076
31	0x3c93ae87	0.018027557
32	0x3e0e324d	0.13886376
33	0x3e0e9581	0.13924219
34	0x3aada872	0.0013249053
35	0x3b4eeb4e	0.0031573358
36	0x3cdca6ca	0.026935
37	0x3c950110	0.018188983
38	0xbb64f59d	-0.0034936436
39	0xbd04eb61	-0.032451037
40	0x3cf33cc9	0.02969207
41	0x3dad1abe	0.08452366
42	0x3e0479d9	0.12937106
43	0xbdc0a7bc	-0.09406993
44	0x3d5c5ca6	0.053799294
45	0xbd93577b	-0.0719442
46	0xbccde170	-0.025131911
47	0x3db3c489	0.087777205
48	0xbbcb038e	-0.006195492
49	0x3da5543f	0.08072709
50	0x3dd67642	0.10471775
51	0xbcb3d2f7	-0.021951182
52	0xbd9fc8eb	-0.07801994
53	0xbd23e81e	-0.040016286
54	0x3dd086f1	0.10181988
55	0x3d981353	0.07425561
56	0x3d5b765c	0.053579673
57	0xbd416779	-0.04721782
58	0x3c9476ee	0.018123116
59	0xbd1bf1d5	-0.038072426
60	0x3b4072e4	0.0029365355
61	0x3d8e1db3	0.069392584
62	0x3d884b46	0.06654982
63	0x3dfdd2ae	0.123936996

linear_output.weight f4 [4, 64]
0	0xbcc659d8	-0.024212763
1	0xbca460b4	-0.020065643
2	0xbcadfefa	-0.021239746
3	0xbd12e983	-0.035867225
4	0xbcf3a20d	-0.029740358
5	0xbc964836	-0.01834498
6	0xba0bf657	-0.00053391367
7	0x3ce7d39e	0.02829915
8	0xbb503058	-0.0031767096
9	0xbc746afa	-0.014918083
10	0xbca2f3ff	-0.019891737
11	0xbc552a8b	-0.013010631
12	0xbc6a44de	-0.014298646
13	0x3c4d6a74	0.012537587
14	0xbc80e4e1	-0.015734138
15	0xbc921989	-0.017834442
16	0xbc71e817	-0.014764807
17	0xbcf62eea	-0.030051667
18	0x3b746a0a	0.003729465
19	0xbc7dbf7c	-0.015487548
20	0xbcad1f3c	-0.021133058
21	0xba05b5bd	-0.00051006285
22	0x3c246a30	0.010035083
23	0xbcd9efd1	-0.026603611
24	0xbcd998b0	-0.026562065
25	0x3835c292	4.333497e-05
26	0xbc8faaa5	-0.017537424
27	0xbcf98f4e	-0.03046384
28	0xbcaa59e6	-0.02079482
29	0xbca5ceba	-0.020240176
30	0xbc7e792c	-0.015531819
31	0xbcd270dd	-0.025688583
32	0xbc82cffb	-0.015968313
33	0xbc47e678	-0.012200944
34	0xbca699bf	-0.020336984
35	0xbccd8b04	-0.025090702
36	0xbc5358d4	-0.012899596
37	0xbc88b5d2	-0.016688261
38	0xbc70b36d	-0.014691216
39	0xbcbe35ba	-0.023218978
40	0xbc7bf414	-0.015378017
41	0xbc89b16b	-0.016808232
42	0xbcadcf5b	-0.021217039
43	0xbc9063e1	-0.017625751
44	0xbce7294c	-0.028217934
45	0xbc7df902	-0.015501263
46	0xbc8e9f49	-0.017409937
47	0xbc8ecac8	-0.017430678
48	0xbcbacb0d	-0.0228019
49	0xbca43406	-0.020044338
50	0xbc8dd2fe	-0.017312523
51	0xbcb5b9e1	-0.02218336
52	0xbcf410e7	-0.029793216
53	0xbcb1c3ef	-0.021699874
54	0xbc4cafaf	-0.012493058
55	0x3c45dea7	0.01207701
56	0xbc84e6e8	-0.016223386
57	0xbcba993e	-0.02277815
58	0xbc8fea4c	-0.017567776
59	0xbc9cee27	-0.019156529
60	0xbb81127c	-0.003938971
61	0xbcaf7657	-0.021418734
62	0xbc9af24d	-0.018914366
63	0xbc45cf94	-0.012073416
64	0x3d1dc54b	0.03851823
65	0x3d0550c7	0.03254774
66	0x3d28f3a9	0.041247997
67	0x3d200347	0.039065626
68	0x3d27f971	0.04100937
69	0x3cfaff95	0.03063945
70	0x3ce9c000	0.028533936
71	0x3ce1b9c2	0.027554397
72	0x3d1bfb9c	0.03808175
73	0x3cfda2bd	0.030961389
74	0x3d12b116	0.035813414
75	0x3d0ce5a2	0.034398682
76	0x3cede6f3	0.02904079
77	0x3aa20649	0.0012361492
78	0x3ce9120c	0.028450988
79	0x3d054cf8	0.032544106
80	0x3d0088ec	0.03138058
81	0x3d2934d9	0.041310165
82	0x3d2ff90c	0.04296212
83	0x3d2730c8	0.040818006
84	0x3d30c3cf	0.043155488
85	0x3b6b5898	0.003591096
86	0x3c993be4	0.018705316
87	0x3d1fa276	0.038973294
88	0x3d2e62aa	0.042574562
89	0x3b43fe61	0.002990626
90	0x3d15553b	0.036458235
91	0x3d2561e4	0.04037656
92	0x3d1605c2	0.036626585
93	0x3cfa55d0	0.030558497
94	0x3d022925	0.03177752
95	0x3d1733fe	0.036914818
96	0x3d121f6d	0.0356745
97	0x3d10539a	0.03523598
98	0x3d1406dc	0.036139354
99	0x3d253fb8	0.04034397
100	0x3d15b2f5	0.03654762
101	0x3d07aa67	0.033121493
102	0x3d37b9df	0.044854995
103	0x3d1b14e2	0.037861712
104	0x3cf61b32	0.030042265
105	0x3d0b41bd	0.03399824
106	0x3d194a37	0.037424292
107	0x3d1787f7	0.0369949
108	0x3d329aa7	0.04360452
109	0x3d08c779	0.033393357
110	0x3d0a8a7b	0.03382347
111	0x3d02ae9c	0.0319048
112	0x3d11b7db	0.03557573
113	0x3d2012e4	0.039080516
114	0x3d0e68c7	0.034767892
115	0x3d3a8173	0.04553361
116	0x3d375c1e	0.044765584
117	0x3d17b0d6	0.03703388
118	0x3d0b24b5	0.033970553
119	0x3b7963c8	0.003805386
120	0x3d0871c3	0.033311617
121	0x3d366959	0.04453406
122	0x3d2acad9	0.041697357
123	0x3d111567	0.0354208
124	0x3d280b66	0.041026495
125	0x3d0eecf7	0.034893956
126	0x3cfe83d8	0.031068727
127	0x3d0c70b7	0.03428718
128	0x3c967db5	0.018370489
129	0x3c9fd41b	0.01951032
130	0x3cc06d87	0.023489727
131	0x3c388c18	0.01126387
132	0x3ce45f99	0.027877616
133	0x3c988f27	0.018622948
134	0x3c85e71b	0.016345551
135	0x3c9d90aa	0.01923402
136	0x3ca8b23f	0.020592807
137	0x3c507b37	0.012724689
138	0x3cb113aa	0.021615822
139	0x3c4afcec	0.012389403
140	0x3c670450	0.014100149
141	0xbc201108	-0.009769686
142	0x3c63216d	0.01386295
143	0x3cad02cc	0.021119498
144	0x3c695e07	0.014243609
145	0x3cefb92d	0.029263103
146	0x3d000f01	0.03126431
147	0x3cc4f084	0.024040468
148	0x3ce56ac2	0.028005008
149	0x38deee22	0.000106301406
150	0x3b557ffe	0.003257751
151	0x3cc87b9f	0.02447301
152	0x3cd674d8	0.026178762
153	0xbbf02b6f	-0.0073293964
154	0x3c86b279	0.016442524
155	0x3cc5fcf4	0.024168469
156	0x3ca2424c	0.019807003
157	0x3c80b386	0.015710603
158	0x3c544f0c	0.012958299
159	0x3c9daf43	0.01924861
160	0x3ca89f4e	0.020583775
161	0x3cae1eb9	0.021254884
162	0x3cc31709	0.023814695
163	0x3cbe10c2	0.02320135
164	0x3c984366	0.018586826
165	0x3c7e8c2f	0.015536352
166	0x3ce08aa0	0.027409852
167	0x3cc2a0f6	0.023758393
168	0x3c79d2a6	0.015247976
169	0x3c978a41	0.018498542
170	0x3c8cc32b	0.017182907
171	0x3ccc30f3	0.024925685
172	0x3cb1c895	0.02170209
173	0x3c5a0300	0.013306379
174	0x3c8b0996	0.016972344
175	0x3c4142e8	0.011795737
176	0x3c9703e2	0.018434469
177	0x3cbaa558	0.02278392
178	0x3cb2268f	0.021746902
179	0x3cd75776	0.026286822
180	0x3cbda1ee	0.023148503
181	0x3cb56854	0.022144474
182	0x3c6c9d04	0.014441732
183	0xbc579454	-0.013157923
184	0x3ca9ef88	0.0207441
185	0x3cde1738	0.027110681
186	0x3cc7329d	0.024316126
187	0x3c8a10c5	0.0168537
188	0x3cbfbbc8	0.02340497
189	0x3c7cca9e	0.015429167
190	0x3c56df33	0.013114738
191	0x3c41b85e	0.011823742
192	0xbc5fd200	-0.013660908
193	0xbb8bf2dc	-0.0042708945
194	0xbb382225	-0.0028096524
195	0xbd2213fe	-0.039569847
196	0xbc120b6d	-0.008913857
197	0xbc024ed0	-0.007953361
198	0xbd13ff2d	-0.036132026
199	0x3d200224	0.03906454
200	0xbcc544c4	-0.024080642
201	0xba4dc07c	-0.0007848812
202	0x3b56b569	0.0032761937
203	0x38ba007b	8.869261e-05
204	0xbb4bb21b	-0.00310815
205	0x3c1610bb	0.009159262
206	0xbbb3cacb	-0.0054868213
207	0xba88fb53	-0.0010450877
208	0xbb57a117	-0.0032902414
209	0xbc342126	-0.010994231
210	0x3c5438b8	0.012952976
211	0x3c0a795d	0.008451787
212	0x3c17769e	0.009244589
213	0xbb5b0374	-0.0033418806
214	0xbc780b80	-0.015139461
215	0xbca16e4c	-0.019705914
216	0xbc56778a	-0.013090024
217	0xbc03e555	-0.0080502825
218	0xba995667	-0.0011698724
219	0xbcb757ce	-0.022380736
220	0xbbb752c1	-0.005594582
221	0xbc07f413	-0.008297938
222	0xbb343ccf	-0.0027502065
223	0xbc9b1440	-0.018930554
224	0xb9154b6d	-0.00014237846
225	0x3c159f6b	0.0091322465
226	0x3ae3980a	0.0017364037
227	0xbbff66bc	-0.0077942293
228	0xba045c3a	-0.0005049143
229	0xbb04e8e7	-0.0020280422
230	0x3cae3e2c	0.02126988
231	0x3b76f62f	0.0037683358
232	0xb983a76a	-0.00025111
233	0x39c80cd4	0.0003815653
234	0xba4e35f4	-0.0007866316
235	0x3c105447	0.008809156
236	0xbc79cf4d	-0.015247178
237	0x3a2e5e61	0.0006651637
238	0xbb88dbe4	-0.0041766036
239	0xbb5acda2	-0.0033386727
240	0xbc8db930	-0.017300218
241	0x3b6e08c7	0.003632115
242	0xbb8b2df7	-0.004247423
243	0x3c167b93	0.009184736
244	0xbbb7a9c5	-0.005604955
245	0xbc2e58d5	-0.010641296
246	0x3a4ed972	0.0007890678
247	0x3bd55163	0.006509946
248	0xbbe5641a	-0.0070004584
249	0x3ad528bb	0.0016262749
250	0x3c17d842	0.0092678685
251	0x3adba8f9	0.0016758732
252	0x3c4b0dfd	0.012393472
253	0xbc4ae05e	-0.012382595
254	0xbb226c4c	-0.0024783788
255	0x3a5fc64f	0.0008536325

linear_output.bias f4 [4]
0	0xbc56f9f5	-0.013121118
1	0x3cc845dc	0.024447374
2	0x3bf22d37	0.007390644
3	0xbb2340c5	-0.0024910432

exp_avg f4 [64, 13]
0	0xb792e6b9	-1.7511995e-05
1	0xb63adbe7	-2.784416e-06
2	0x38cc6e95	9.7480755e-05
3	0xb837912b	-4.37658e-05
4	0xb78c907d	-1.6756583e-05
5	0xb67bf3d3	-3.754384e-06
6	0x38cc65ed	9.746463e-05
7	0xb83795e6	-4.3770204e-05
8	0xb787a967	-1.6172138e-05
9	0xb69113cf	-4.3236428e-06
10	0x38cc6b30	9.747443e-05
11	0xb83798a6	-4.3772765e-05
12	0xb8d6d3a5	-0.00010243737
13	0xb72177f6	-9.624278e-06
14	0xb67d85a7	-3.7777734e-06
15	0x37b93fd2	2.2083437e-05
16	0xb75251c5	-1.2536014e-05
17	0xb71d902e	-9.391499e-06
18	0xb68e4568	-4.2400097e-06
19	0x37b8dc4d	2.2037095e-05
20	0xb7525bef	-1.253838e-05
21	0xb719fa96	-9.177855e-06
22	0xb69881e7	-4.5450756e-06
23	0x37b897b4	2.2005152e-05
24	0xb7525d5b	-1.2538711e-05
25	0x377296ed	1.4459464e-05
26	0x33920454	6.799442e-08
27	0xb5878cae	-1.0099227e-06
28	0x360b56fa	2.076324e-06
29	0xb5fc214c	-1.8785154e-06
30	0x341fcafd	1.4881876e-07
31	0xb599c91e	-1.1457921e-06
32	0x360b2f53	2.074016e-06
33	0xb5fc1f7f	-1.878463e-06
34	0x3468396a	2.1627571e-07
35	0xb5a68142	-1.2405583e-06
36	0x360b3f69	2.0749524e-06
37	0xb5fc1e46	-1.8784274e-06
38	0x36da7c3f	6.5113704e-06
39	0xb7a075cd	-1.9128342e-05
40	0x37e4edd1	2.729046e-05
41	0x39006258	0.00012243667
42	0xb8522ff7	-5.0112572e-05
43	0xb79d2a3b	-1.8735524e-05
44	0x37e2da76	2.7043028e-05
45	0x3900524c	0.00012237689
46	0xb8523282	-5.011494e-05
47	0xb79b07ce	-1.8481074e-05
48	0x37e1427b	2.6853048e-05
49	0x39004439	0.00012232446
50	0xb85236c8	-5.011892e-05
51	0xb896814f	-7.176643e-05
52	0xb7e93896	-2.7802114e-05
53	0x36c560a2	5.882307e-06
54	0x3900a501	0.000122685
55	0xb85bd947	-5.2416024e-05
56	0xb7e48f07	-2.724632e-05
57	0x36ac721d	5.139284e-06
58	0x39008fe2	0.00012260632
59	0xb85bdc94	-5.24191e-05
60	0xb7e1400d	-2.6851916e-05
61	0x369ec550	4.731737e-06
62	0x390083ef	0.0001225618
63	0xb85be109	-5.242325e-05
64	0xb8da5602	-0.0001041107
65	0xb755ee47	-1.2751268e-05
66	0x359eca50	1.1830798e-06
67	0x3803181f	3.12553e-05
68	0xb7523d0e	-1.2531191e-05
69	0xb7556834	-1.2720051e-05
70	0x358c2c42	1.0443694e-06
71	0x38031e69	3.1261156e-05
72	0xb75245a9	-1.2533194e-05
73	0xb754c33f	-1.2681644e-05
74	0x3584a079	9.88147e-07
75	0x380320cd	3.1263382e-05
76	0xb7524e73	-1.2535241e-05
77	0xb87f8f04	-6.092993e-05
78	0xb710c5b2	-8.629098e-06
79	0x37851287	1.5863463e-05
80	0x389da561	7.5171476e-05
81	0xb81012e9	-3.4349887e-05
82	0xb708ae1b	-8.146769e-06
83	0x37800a18	1.526349e-05
84	0x389d744f	7.5080075e-05
85	0xb810140a	-3.435094e-05
86	0xb7027698	-7.776216e-06
87	0x37799a63	1.48775025e-05
88	0x389d537a	7.501892e-05
89	0xb8101493	-3.4351437e-05
90	0xb9243ee5	-0.00015663689
91	0xb6bed6c2	-5.6874424e-06
92	0x36efa99d	7.1425006e-06
93	0x3909b220	0.00013131695
94	0xb872e35b	-5.7909037e-05
95	0xb6974717	-4.5084266e-06
96	0x36c57722	5.8849264e-06
97	0x3909ab30	0.0001312911
98	0xb872e583	-5.7911046e-05
99	0xb6773107	-3.6834406e-06
100	0x36ace86b	5.1530565e-06
101	0x3909ae7f	0.00013130343
102	0xb872e605	-5.791152e-05
103	0xb94c5dfc	-0.00019489968
104	0xb7d97686	-2.5923608e-05
105	0xb6359b47	-2.7061485e-06
106	0x38b71298	8.729583e-05
107	0xb836fb41	-4.362618e-05
108	0xb7d41c9e	-2.5285695e-05
109	0xb67b850f	-3.7479365e-06
110	0x38b6db6e	8.719308e-05
111	0xb837038f	-4.3633914e-05
112	0xb7cf498a	-2.4710567e-05
113	0xb6922cc1	-4.356349e-06
114	0x38b6bcae	8.7135806e-05
115	0xb83707f6	-4.3638014e-05
116	0xb9516e19	-0.00019972808
117	0xb8005241	-3.0594183e-05
118	0x381fce24	3.8100537e-05
119	0x39411621	0.00018414158
120	0xb8a49b4e	-7.849057e-05
121	0xb7fb0424	-2.992346e-05
122	0x381daf8b	3.7595204e-05
123	0x3940f3e2	0.000184014
124	0xb8a49e5a	-7.849625e-05
125	0xb7f71fe2	-2.9459541e-05
126	0x381c1454	3.721223e-05
127	0x3940dd3d	0.00018392965
128	0xb8a4a2bb	-7.85044e-05
129	0xb8dd2e83	-0.00010546765
130	0xb7181a79	-9.06607e-06
131	0xb646d10e	-2.9625985e-06
132	0x371787d1	9.031924e-06
133	0xb6f19d86	-7.200698e-06
134	0xb7163b70	-8.954536e-06
135	0xb65e16fa	-3.3093952e-06
136	0x3716eecf	8.996299e-06
137	0xb6f1b919	-7.203908e-06
138	0xb713e8e3	-8.816106e-06
139	0xb66bd5d9	-3.5142205e-06
140	0x3716a9a4	8.980194e-06
141	0xb6f1cc7e	-7.2061657e-06
142	0xb8baa3bd	-8.89967e-05
143	0xb7a390e5	-1.9498586e-05
144	0xb52ccce8	-6.437317e-07
145	0x38f40b41	0.00011636923
146	0xb861eec4	-5.3866548e-05
147	0xb79cf1ee	-1.8709306e-05
148	0xb5d4160c	-1.5801647e-06
149	0x38f3dc1f	0.00011628144
150	0xb861f425	-5.3871558e-05
151	0xb79804e8	-1.8122097e-05
152	0xb60c8152	-2.09369e-06
153	0x38f3c3d1	0.000116236166
154	0xb861f7fe	-5.387514e-05
155	0xb914fb5d	-0.0001420802
156	0xb7db0dab	-2.6113199e-05
157	0x375651bf	1.2774427e-05
158	0x3919f7af	0.00014683486
159	0xb8882d08	-6.493373e-05
160	0xb7d4be6f	-2.5361047e-05
161	0x37489f20	1.1957978e-05
162	0x3919e615	0.0001467693
163	0xb8882e37	-6.4935935e-05
164	0xb7d060d7	-2.4840627e-05
165	0x3740ca62	1.1491213e-05
166	0x3919dc96	0.00014673392
167	0xb88830c4	-6.494069e-05
168	0xb89e601d	-7.5519296e-05
169	0xb80935b3	-3.2713357e-05
170	0xb7ef692f	-2.854e-05
171	0x39018fa6	0.00012355912
172	0xb88149e4	-6.1649625e-05
173	0xb803f923	-3.146486e-05
174	0xb80048a1	-3.058522e-05
175	0x39016b5e	0.00012342396
176	0xb8814d0a	-6.165549e-05
177	0xb7ff3fa5	-3.0428006e-05
178	0xb8054b22	-3.1779644e-05
179	0x39015a5d	0.00012336062
180	0xb8814df2	-6.165718e-05
181	0xb920b94b	-0.00015327816
182	0x34e7bd87	4.3165002e-07
183	0xb662a2d8	-3.3771412e-06
184	0x361cf9ad	2.3391142e-06
185	0xb596e46b	-1.1242349e-06
186	0x3510ea9c	5.398558e-07
187	0xb66caec8	-3.5268476e-06
188	0x361c9b38	2.333616e-06
189	0xb596ffea	-1.1250352e-06
190	0x35276335	6.2356713e-07
191	0xb6731f84	-3.6228166e-06
192	0x361c90e2	2.3330144e-06
193	0xb596e21f	-1.1241681e-06
194	0xb663fb4e	-3.3971914e-06
195	0xb80fd40c	-3.429134e-05
196	0x36f8bb8f	7.4128106e-06
197	0x39006b73	0.00012247059
198	0xb87f3e7c	-6.085493e-05
199	0xb80d1eb3	-3.364561e-05
200	0x36d4ce4a	6.3421076e-06
201	0x3900485a	0.00012233984
202	0xb87f474b	-6.0863134e-05
203	0xb80ab478	-3.306984e-05
204	0x36bfbe6b	5.714411e-06
205	0x39003544	0.00012226874
206	0xb87f4e16	-6.086946e-05
207	0xb983deaa	-0.00025152165
208	0x33eb1a10	1.0947781e-07
209	0xb533c506	-6.6969403e-07
210	0x352131e4	6.0049774e-07
211	0xb54b6c5b	-7.578107e-07
212	0x34244e35	1.5302142e-07
213	0xb546e947	-7.410021e-07
214	0x352133f5	6.005278e-07
215	0xb54b657b	-7.5771067e-07
216	0x344a9085	1.8865292e-07
217	0xb554a75f	-7.921971e-07
218	0x3521a643	6.0219116e-07
219	0xb54b66c9	-7.5772965e-07
220	0x365a9f70	3.2577336e-06
221	0xb7b643d1	-2.172767e-05
222	0x3796ae35	1.7962515e-05
223	0x38eb8d71	0.00011232019
224	0xb84888aa	-4.7810994e-05
225	0xb7b2c81b	-2.1312435e-05
226	0x379375ca	1.7578615e-05
227	0x38eb72b2	0.00011227037
228	0xb8488b0b	-4.781321e-05
229	0xb7b06ff0	-2.103296e-05
230	0x379190e5	1.7352819e-05
231	0x38eb5f8f	0.000112234724
232	0xb8488ecb	-4.7816702e-05
233	0xb89c4e7e	-7.45328e-05
234	0xb7dd5a44	-2.6387286e-05
235	0xb5d6fc8c	-1.6017743e-06
236	0x392c1660	0.00016411534
237	0xb89f0585	-7.582739e-05
238	0xb7d2babe	-2.512091e-05
239	0xb65909d0	-3.2341231e-06
240	0x392bf99b	0.00016400816
241	0xb89f078b	-7.583116e-05
242	0xb7caae1f	-2.4161358e-05
243	0xb68ce58a	-4.199047e-06
244	0x392bed15	0.00016396151
245	0xb89f0a57	-7.583637e-05
246	0xb8f8d6c1	-0.000118655626
247	0xb7f0b255	-2.8693272e-05
248	0x37a61d59	1.9802408e-05
249	0x39223811	0.0001547041
250	0xb89216da	-6.966079e-05
251	0xb7ea9cd0	-2.7967995e-05
252	0x379faf73	1.9035977e-05
253	0x392218a4	0.00015458703
254	0xb89219c8	-6.966625e-05
255	0xb7e62586	-2.743561e-05

exp_avg_sq f4 [64, 13]
0	0x3080df90	9.376766e-10
1	0x2f01c4b1	1.180236e-10
2	0x323a07ef	1.0828429e-08
3	0x30ffd383	1.8613807e-09
4	0x307da2be	9.2272134e-10
5	0x2efdfcf4	1.15500415e-10
6	0x3239f9ec	1.0825243e-08
7	0x30ffe5d0	1.8619009e-09
8	0x307a98cc	9.116661e-10
9	0x2efc8aa9	1.1484264e-10
10	0x3239fb12	1.0825504e-08
11	0x30ffe58f	1.8618936e-09
12	0x31bf65a2	5.570386e-09
13	0x2da780ea	1.9042951e-11
14	0x2c82a972	3.7136344e-12
15	0x2e998f5d	6.983101e-11
16	0x2dc928e2	2.286921e-11
17	0x2da301e3	1.8531792e-11
18	0x2c939e76	4.195584e-12
19	0x2e995f6b	6.974584e-11
20	0x2dc945b1	2.2882004e-11
21	0x2d9e82d5	1.8020621e-11
22	0x2c9f73b7	4.5318987e-12
23	0x2e9947d8	6.9703965e-11
24	0x2dc94309	2.2880824e-11
25	0x2e455edb	4.4876863e-11
26	0x298c1b43	6.221978e-14
27	0x2a42df9e	1.7308244e-13
28	0x2ab154ae	3.1500274e-13
29	0x2a658e93	2.0388751e-13
30	0x298cb72d	6.249025e-14
31	0x2a5b4b1a	1.9477163e-13
32	0x2ab11d5d	3.146189e-13
33	0x2a657f34	2.0383418e-13
34	0x298d610e	6.278494e-14
35	0x2a6da88c	2.1108305e-13
36	0x2ab17b83	3.152722e-13
37	0x2a6580d2	2.038398e-13
38	0x2c544984	3.0167821e-12
39	0x30b4119e	1.3101731e-09
40	0x303448b2	6.5586925e-10
41	0x32941058	1.72369e-08
42	0x3138af5b	2.6875202e-09
43	0x30b296cc	1.2994064e-09
44	0x30323387	6.482925e-10
45	0x3293ffc4	1.7229361e-08
46	0x3138b713	2.687959e-09
47	0x30b1a5df	1.2925588e-09
48	0x30311ae1	6.443042e-10
49	0x3293f651	1.7225064e-08
50	0x3138ba94	2.6881581e-09
51	0x31c6dae1	5.787442e-09
52	0x30f181fa	1.7571999e-09
53	0x2f752680	2.2296298e-10
54	0x32a7b5e3	1.9524071e-08
55	0x315ab285	3.1824652e-09
56	0x30ee588c	1.7341946e-09
57	0x2f6d1be7	2.1564937e-10
58	0x32a7a901	1.9518213e-08
59	0x315ac0fe	3.1832879e-09
60	0x30ec14ea	1.7177204e-09
61	0x2f69f5e1	2.127858e-10
62	0x32a7a7c1	1.9517644e-08
63	0x315ac1c2	3.1833314e-09
64	0x3204ade7	7.722952e-09
65	0x2da2e14d	1.8517321e-11
66	0x2b9aa76b	1.0988826e-12
67	0x2efd5ba3	1.1521386e-10
68	0x2d8da80d	1.6104474e-11
69	0x2da2b768	1.8498716e-11
70	0x2b9d287a	1.1166755e-12
71	0x2efd6ca2	1.1524405e-10
72	0x2d8db7d3	1.6111478e-11
73	0x2da210e7	1.8424774e-11
74	0x2b9e310c	1.1240188e-12
75	0x2efd764f	1.1526124e-10
76	0x2d8db65d	1.611083e-11
77	0x2f6c361f	2.1483303e-10
78	0x2e6965ff	5.3068657e-11
79	0x2ede50a9	1.0109719e-10
80	0x30e497fb	1.6632379e-09
81	0x2fa9e847	3.0905964e-10
82	0x2e62f783	5.1606285e-11
83	0x2eda96c0	9.940271e-11
84	0x30e44b29	1.6610545e-09
85	0x2fa9e7bc	3.0905578e-10
86	0x2e5efaa1	5.069956e-11
87	0x2ed83f31	9.833768e-11
88	0x30e42a66	1.6601234e-09
89	0x2fa9e835	3.0905914e-10
90	0x313e0179	2.7649476e-09
91	0x2ecc86fd	9.300825e-11
92	0x2f14a853	1.3520322e-10
93	0x31a2b4f6	4.7353934e-09
94	0x306b27e4	8.554919e-10
95	0x2ec3fc32	8.912372e-11
96	0x2f0fe3ef	1.3086753e-10
97	0x31a2936e	4.7315813e-09
98	0x306b241e	8.554383e-10
99	0x2ebec4ff	8.675193e-11
100	0x2f0d6035	1.2858055e-10
101	0x31a28e91	4.7310285e-09
102	0x306b25d3	8.5546253e-10
103	0x31b0f196	5.1497393e-09
104	0x30b1990d	1.2921945e-09
105	0x2f34aceb	1.6432337e-10
106	0x326b6a42	1.37029605e-08
107	0x31260669	2.4159823e-09
108	0x30aee7bf	1.2726032e-09
109	0x2f3014e3	1.6014527e-10
110	0x326b4562	1.3694576e-08
111	0x31261362	2.4167197e-09
112	0x30acdbf2	1.2577159e-09
113	0x2f2eb7fb	1.5890571e-10
114	0x326b3a7e	1.36921e-08
115	0x31261241	2.4166555e-09
116	0x323e435e	1.1074773e-08
117	0x310c4a14	2.041479e-09
118	0x30a3804a	1.1896273e-09
119	0x32f6069d	2.8641177e-08
120	0x319a056c	4.4826063e-09
121	0x310af557	2.0221103e-09
122	0x30a194e2	1.1756607e-09
123	0x32f5d9ec	2.8620853e-08
124	0x319a0e49	4.483614e-09
125	0x310a0db0	2.0089423e-09
126	0x30a0733b	1.1674283e-09
127	0x32f5c011	2.8609096e-08
128	0x319a128d	4.484099e-09
129	0x31e441bb	6.643146e-09
130	0x2f798efc	2.2697216e-10
131	0x2e32f2c2	4.0688126e-11
132	0x30e3d8aa	1.6578003e-09
133	0x2f96dd20	2.744196e-10
134	0x2f791436	2.2653598e-10
135	0x2e33e7eb	4.0905872e-11
136	0x30e3d927	1.6578142e-09
137	0x2f96e8b3	2.7450184e-10
138	0x2f786a77	2.2593293e-10
139	0x2e34e042	4.1126443e-11
140	0x30e3da36	1.6578443e-09
141	0x2f96e6a7	2.744873e-10
142	0x30a35c2c	1.1886008e-09
143	0x30bdc4d7	1.3807505e-09
144	0x2f5d2882	2.0114224e-10
145	0x329244f9	1.7028002e-08
146	0x3146fe2e	2.8957277e-09
147	0x30bae4b2	1.359828e-09
148	0x2f57906c	1.9605445e-10
149	0x3292336a	1.7020017e-08
150	0x31470acd	2.896445e-09
151	0x30b8e4b7	1.3452767e-09
152	0x2f55b65e	1.9437027e-10
153	0x32922e31	1.7017642e-08
154	0x31470b43	2.8964713e-09
155	0x32118344	8.469957e-09
156	0x3126ffa6	2.4301499e-09
157	0x2fda6854	3.9728099e-10
158	0x32e5678a	2.6706193e-08
159	0x319bd15a	4.5348942e-09
160	0x31251499	2.4022369e-09
161	0x2fd37911	3.84667e-10
162	0x32e54fdd	2.6695426e-08
163	0x319bdb48	4.536023e-09
164	0x3123b746	2.38238e-09
165	0x2fd094e9	3.7940787e-10
166	0x32e54902	2.6692309e-08
167	0x319bdbaf	4.536069e-09
168	0x32230b90	9.490478e-09
169	0x30488396	7.294657e-10
170	0x2f3a619c	1.6951279e-10
171	0x3205b076	7.7817415e-09
172	0x30df5c67	1.6251648e-09
173	0x3040e27f	7.0171063e-10
174	0x2f54331d	1.9299447e-10
175	0x32059c53	7.777163e-09
176	0x30df69d1	1.625546e-09
177	0x303aff53	6.8029243e-10
178	0x2f62a25a	2.0612259e-10
179	0x32059c0d	7.777101e-09
180	0x30df6748	1.625474e-09
181	0x31ed16bb	6.900192e-09
182	0x2a41876c	1.7188827e-13
183	0x2c068d1e	1.9120881e-12
184	0x2b628a57	8.0483314e-13
185	0x2a51ca7c	1.863318e-13
186	0x2a57cb8a	1.9166453e-13
187	0x2c0f5703	2.0369823e-12
188	0x2b620d8b	8.0310124e-13
189	0x2a51b0cf	1.8624272e-13
190	0x2a6a055b	2.0785233e-13
191	0x2c14d3ae	2.114957e-12
192	0x2b620f82	8.031285e-13
193	0x2a51d7b2	1.8637763e-13
194	0x2bbeea69	1.3565374e-12
195	0x3186e912	3.9264103e-09
196	0x3036b6fb	6.6471245e-10
197	0x3326822a	3.876827e-08
198	0x31e6aa23	6.7132233e-09
199	0x31857f99	3.8853156e-09
200	0x3031d4b8	6.4694516e-10
201	0x33266c61	3.8748457e-08
202	0x31e6bd4b	6.715401e-09
203	0x31846a13	3.853765e-09
204	0x302fe73e	6.3993244e-10
205	0x3326653e	3.8741966e-08
206	0x31e6bf81	6.7156525e-09
207	0x32e1cb55	2.6285912e-08
208	0x292d7154	3.8512013e-14
209	0x29af5edb	7.788016e-14
210	0x297434c8	5.4224664e-14
211	0x2953aa71	4.6999246e-14
212	0x293500bc	4.019071e-14
213	0x29c0fb79	8.5701364e-14
214	0x297518e7	5.4422528e-14
215	0x29538499	4.6966422e-14
216	0x293a1042	4.1314398e-14
217	0x29cd2cdf	9.111613e-14
218	0x29770969	5.485318e-14
219	0x295395ef	4.6981458e-14
220	0x2b569066	7.6228466e-13
221	0x2f95a0b2	2.7217123e-10
222	0x2eec9da4	1.076004e-10
223	0x318dcdf2	4.1270534e-09
224	0x3041b59a	7.047106e-10
225	0x2f929a91	2.666707e-10
226	0x2ee3991b	1.0349962e-10
227	0x318db6ed	4.1244363e-09
228	0x3041c12e	7.0487516e-10
229	0x2f9092de	2.6297803e-10
230	0x2edeb253	1.0127068e-10
231	0x318dac2e	4.1232147e-09
232	0x3041c4a7	7.049245e-10
233	0x31034276	1.9100788e-09
234	0x3145ec55	2.8801612e-09
235	0x2fde15da	4.039709e-10
236	0x330b4073	3.2422076e-08
237	0x31c0ef60	5.6151492e-09
238	0x314326bd	2.8398255e-09
239	0x2fd8e5ab	3.945336e-10
240	0x330b2ff1	3.2407062e-08
241	0x31c0fc0b	5.6165894e-09
242	0x314120aa	2.8103764e-09
243	0x2fd747b5	3.9159223e-10
244	0x330b2bc9	3.2403282e-08
245	0x31c0fc54	5.616622e-09
246	0x326b5cc9	1.3699897e-08
247	0x316e72c5	3.4698797e-09
248	0x306c82e1	8.604229e-10
249	0x33260efe	3.8663522e-08
250	0x31df909c	6.5065944e-09
251	0x316bdc3e	3.4322194e-09
252	0x30668add	8.387085e-10
253	0x3325fb17	3.864542e-08
254	0x31dfa1b4	6.5085377e-09
255	0x316a0dcd	3.4059326e-09

exp_avg f4 [64]
0	0xb892f155	-7.006774e-05
1	0xb7a71c7c	-1.9921215e-05
2	0xb64a0563	-3.010348e-06
3	0xb8a7c548	-7.999927e-05
4	0xb8af835f	-8.36912e-05
5	0xb7a81ed2	-2.0041512e-05
6	0xb865b6ec	-5.4768214e-05
7	0xb8c2929d	-9.27795e-05
8	0xb891d5c2	-6.953954e-05
9	0xb9035c5b	-0.00012527539
10	0xb73f509b	-1.1403255e-05
11	0xb8b45eb3	-8.600708e-05
12	0xb8d99b8e	-0.00010376341
13	0xb8ce5747	-9.839102e-05
14	0xb5f1d23c	-1.8017085e-06
15	0xb8cb7c6d	-9.7029704e-05
16	0xb5a3c3d0	-1.2201435e-06
17	0xb8a02bfa	-7.637586e-05
18	0xb8fe1eeb	-0.00012117423
19	0xb8e93d53	-0.00011121728
20	0xb8a03e60	-7.641013e-05
21	0xb8ba0176	-8.869443e-05
22	0xb8b875f8	-8.795777e-05
23	0xb8c15177	-9.218131e-05
24	0xb916f640	-0.0001439685
25	0xb896de99	-7.1940194e-05
26	0xb8f6f111	-0.00011775096
27	0xb8ce34c7	-9.832676e-05
28	0xb6e31536	-6.7675965e-06
29	0x3437d6ed	1.7121393e-07
30	0xb8aeda42	-8.33762e-05
31	0xb89e87ee	-7.559346e-05
32	0xb8de1053	-0.000105888255
33	0xb6253b2c	-2.4621359e-06
34	0xb6979ac1	-4.5181664e-06
35	0xb8b835b0	-8.783804e-05
36	0xb8f1948b	-0.00011519444
37	0xb6ac29ca	-5.1308643e-06
38	0x334c6f02	4.7598412e-08
39	0xb8b87c97	-8.7970104e-05
40	0xb8a78606	-7.988144e-05
41	0xb7e616fc	-2.742884e-05
42	0x335cc770	5.140413e-08
43	0x3460dac3	2.0941211e-07
44	0xb86e8179	-5.6864203e-05
45	0xb5bd3ed1	-1.4099879e-06
46	0xb8b310a3	-8.538484e-05
47	0xb87de776	-6.0535465e-05
48	0xb8d6cd6b	-0.00010242577
49	0xb898a8e9	-7.279387e-05
50	0xb8ac27ba	-8.208999e-05
51	0xb6985d1e	-4.5407933e-06
52	0xb6eafbd8	-7.003062e-06
53	0xb8c0b750	-9.189418e-05
54	0xb888c1e5	-6.521101e-05
55	0xb83d0612	-4.5066765e-05
56	0xb8af5d12	-8.361986e-05
57	0xb8a5bbdd	-7.9028054e-05
58	0xb6577806	-3.210736e-06
59	0xb900a6be	-0.00012269148
60	0xb8c2168f	-9.254843e-05
61	0xb2c1c93a	-2.2559664e-08
62	0xb8d3fc09	-0.00010108209
63	0xb8f0a927	-0.00011475599

exp_avg_sq f4 [64]
0	0x31a3deb3	4.7692423e-09
1	0x2e7f1f35	5.8008005e-11
2	0x2b10d10c	5.144919e-13
3	0x31ec8351	6.883433e-09
4	0x320c0ecd	8.152438e-09
5	0x2e3558fe	4.1233676e-11
6	0x30598d7b	7.9145196e-10
7	0x3116e5cf	2.1958504e-09
8	0x31d46ab9	6.182145e-09
9	0x3244fe25	1.1466487e-08
10	0x304150a9	7.0327616e-10
11	0x31feba4d	7.413553e-09
12	0x324782e7	1.1613088e-08
13	0x318ec0bc	4.1546553e-09
14	0x2b06a803	4.7839526e-13
15	0x32939d2b	1.7184524e-08
16	0x2a0078ad	1.1410552e-13
17	0x30f7d647	1.8032517e-09
18	0x32770756	1.437896e-08
19	0x328f1db6	1.6660902e-08
20	0x31befe61	5.5586473e-09
21	0x321a23f5	8.9721555e-09
22	0x32696794	1.3585936e-08
23	0x319eb3d0	4.6188475e-09
24	0x32c14261	2.2498343e-08
25	0x32206175	9.335385e-09
26	0x3252933a	1.2257084e-08
27	0x32476103	1.1605382e-08
28	0x30198d18	5.586158e-10
29	0x29114f57	3.2265284e-14
30	0x32097a97	8.002323e-09
31	0x3123b34c	2.382154e-09
32	0x3258605a	1.2594763e-08
33	0x2b50eedd	7.4227934e-13
34	0x2c5de7b1	3.1534603e-12
35	0x31bf783f	5.572502e-09
36	0x327ce4cd	1.4720354e-08
37	0x2c60f339	3.196733e-12
38	0x2a01e861	1.1538124e-13
39	0x31331e0a	2.6065003e-09
40	0x319ef393	4.6260964e-09
41	0x2e9f5a45	7.246518e-11
42	0x298bf70d	6.2156965e-14
43	0x28dc7fc3	2.4480314e-14
44	0x31319a19	2.5844484e-09
45	0x2a12f642	1.3052843e-13
46	0x31ee78db	6.9404513e-09
47	0x312382d8	2.3793998e-09
48	0x32810cf8	1.5023474e-08
49	0x316859bd	3.3811454e-09
50	0x32228396	9.45956e-09
51	0x2bd1be2f	1.490313e-12
52	0x2cbb78d7	5.3282756e-12
53	0x31746d10	3.5568668e-09
54	0x31838328	3.8275125e-09
55	0x307aab33	9.119276e-10
56	0x31d47791	6.183605e-09
57	0x31cc50f6	5.9463856e-09
58	0x2b33bf2e	6.385889e-13
59	0x3278767d	1.4462441e-08
60	0x31ca73ee	5.8921534e-09
61	0x27d0e9a0	5.7984894e-15
62	0x31f92897	7.2514683e-09
63	0x32167860	8.758519e-09

exp_avg f4 [64, 64]
0	0xb83fb38d	-4.570517e-05
1	0xb65cd298	-3.2905136e-06
2	0xb48f753b	-2.6721122e-07
3	0xb67ef39e	-3.7990753e-06
4	0xb75141b6	-1.247267e-05
5	0xb61c279e	-2.3268872e-06
6	0xb6dcb3b3	-6.5774307e-06
7	0xb6fd05e5	-7.540674e-06
8	0xb8596797	-5.1833307e-05
9	0x35690df1	8.681955e-07
10	0xb7d2ebc7	-2.5143743e-05
11	0xb80c18fb	-3.3401866e-05
12	0xb70b9ddd	-8.321801e-06
13	0xb7b01f48	-2.0995401e-05
14	0xb4875df4	-2.521407e-07
15	0xb8207a0c	-3.8260638e-05
16	0xb11a88ce	-2.2487714e-09
17	0xb70d57a6	-8.424662e-06
18	0xb8062e89	-3.199143e-05
19	0xb8038363	-3.1355197e-05
20	0xb7c9f669	-2.407581e-05
21	0xb7b26815	-2.126772e-05
22	0xb827f37d	-4.004267e-05
23	0xb7ace714	-2.0611602e-05
24	0xb7d7a1e1	-2.5705378e-05
25	0xb7e53784	-2.7324779e-05
26	0xb79b7a37	-1.853435e-05
27	0xb7d69a72	-2.5582707e-05
28	0xb656a4a4	-3.1984318e-06
29	0x33779055	5.7640438e-08
30	0xb7ed3bb1	-2.8280398e-05
31	0x36965ff0	4.481517e-06
32	0xb840b52e	-4.5945104e-05
33	0x34b208e5	3.3161555e-07
34	0xb58319e4	-9.767796e-07
35	0xb7b3b8d9	-2.142454e-05
36	0xb8133de7	-3.5105182e-05
37	0xb5521b5f	-7.8270926e-07
38	0x33a8fb74	7.868849e-08
39	0xb6a8fea1	-5.036433e-06
40	0xb778f2a4	-1.4838446e-05
41	0xb641c59f	-2.8874272e-06
42	0x3414cd94	1.3858363e-07
43	0x34e5d218	4.2807437e-07
44	0xb80b51e1	-3.3216438e-05
45	0x34b9d028	3.461039e-07
46	0xb8386626	-4.396415e-05
47	0xb77c93f0	-1.5054815e-05
48	0xb7a2ace0	-1.9392406e-05
49	0xb6b76c9b	-5.4664683e-06
50	0xb7d22669	-2.5051837e-05
51	0xb5672656	-8.610999e-07
52	0xb654e07d	-3.172113e-06
53	0xb6f6f977	-7.360413e-06
54	0xb70f983d	-8.55891e-06
55	0xb7eaeaed	-2.800437e-05
56	0xb7fdc493	-3.0251487e-05
57	0xb7df0a8e	-2.6588586e-05
58	0xb569ef1d	-8.714722e-07
59	0xb7db5e73	-2.6150816e-05
60	0xb7309184	-1.0524298e-05
61	0x332f34b9	4.0793314e-08
62	0xb73ce576	-1.1259099e-05
63	0xb7934301	-1.7554967e-05
64	0xb82aa790	-4.0687213e-05
65	0xb6859347	-3.980854e-06
66	0xb589affb	-1.0258512e-06
67	0xb7121108	-8.7062435e-06
68	0xb7584893	-1.2891501e-05
69	0xb605d6aa	-1.9943495e-06
70	0xb6de6052	-6.6273287e-06
71	0xb6f674b6	-7.3449582e-06
72	0xb82c82fe	-4.112999e-05
73	0xb68d5277	-4.2117276e-06
74	0xb7853da0	-1.5883532e-05
75	0xb7eb094c	-2.8018512e-05
76	0xb7474ac4	-1.1878732e-05
77	0xb78e4575	-1.6960063e-05
78	0xb42ac3e4	-1.5903748e-07
79	0xb7ee96b0	-2.844198e-05
80	0xb4985c3e	-2.837932e-07
81	0xb7006a7e	-7.654189e-06
82	0xb82b4a87	-4.0838986e-05
83	0xb7dd1bba	-2.6358164e-05
84	0xb7a7eb92	-2.0017647e-05
85	0xb7c7f9f6	-2.3839046e-05
86	0xb8000c9b	-3.0529318e-05
87	0xb78af45d	-1.6564672e-05
88	0xb800a20e	-3.0668503e-05
89	0xb796c717	-1.7974102e-05
90	0xb7843322	-1.5759437e-05
91	0xb80a9cc3	-3.304776e-05
92	0xb68eef89	-4.2598153e-06
93	0x335a456c	5.082022e-08
94	0xb797c2c6	-1.8091301e-05
95	0xb6294c0b	-2.5227225e-06
96	0xb848850e	-4.7807633e-05
97	0x3471035a	2.2446093e-07
98	0xb5e10f18	-1.6768199e-06
99	0xb7a6d4cc	-1.9887833e-05
100	0xb7f3a96f	-2.9046756e-05
101	0xb58391e8	-9.802725e-07
102	0x33833723	6.110192e-08
103	0xb6f66ee4	-7.3442807e-06
104	0xb77998b8	-1.4877114e-05
105	0xb613197d	-2.1919543e-06
106	0x33cdb1ff	9.578434e-08
107	0x34c2c4dc	3.627855e-07
108	0xb7bf1b16	-2.2781587e-05
109	0x332bcb21	3.9998785e-08
110	0xb8211a4b	-3.840988e-05
111	0xb75e0d99	-1.3235397e-05
112	0xb79308b0	-1.7527811e-05
113	0xb7092bcb	-8.176033e-06
114	0xb7aeb934	-2.0828658e-05
115	0xb570d8bf	-8.9722374e-07
116	0xb623f8f6	-2.4433807e-06
117	0xb783e57b	-1.5723277e-05
118	0xb733bb83	-1.071289e-05
119	0xb799d0e9	-1.8336303e-05
120	0xb7e742ed	-2.756851e-05
121	0xb7c577f2	-2.3540084e-05
122	0xb5ac1c87	-1.2823301e-06
123	0xb7d82a4b	-2.57689e-05
124	0xb7363fe6	-1.0862923e-05
125	0x3319a967	3.577716e-08
126	0xb7d1c22e	-2.5005163e-05
127	0xb79198d6	-1.7356517e-05
128	0xb85a0599	-5.1980463e-05
129	0xb6b6ecd1	-5.4515917e-06
130	0xb5dd7ed4	-1.6502695e-06
131	0xb75bd534	-1.3103057e-05
132	0xb791b052	-1.7367453e-05
133	0xb625f5a3	-2.4729895e-06
134	0xb70b7f7b	-8.314727e-06
135	0xb718d240	-9.108859e-06
136	0xb8544215	-5.0606282e-05
137	0xb6fab4bb	-7.4716204e-06
138	0xb79057c2	-1.7207003e-05
139	0xb811f5df	-3.479968e-05
140	0xb7933b50	-1.7551385e-05
141	0xb7af2ead	-2.088336e-05
142	0xb44dfd50	-1.9184267e-07
143	0xb80df3fe	-3.3844255e-05
144	0xb5071df7	-5.0335024e-07
145	0xb726184d	-9.900029e-06
146	0xb87356e1	-5.8016627e-05
147	0xb8095d4a	-3.2750228e-05
148	0xb7d2d654	-2.5133755e-05
149	0xb80b71f9	-3.3246328e-05
150	0xb819ff0b	-3.671557e-05
151	0xb7a908d0	-2.0150474e-05
152	0xb83469db	-4.301393e-05
153	0xb7a942ec	-2.0177533e-05
154	0xb7a8cc58	-2.0122316e-05
155	0xb8461b91	-4.7232552e-05
156	0xb6c41361	-5.843511e-06
157	0x33600c58	5.216529e-08
158	0xb7a5d683	-1.9769423e-05
159	0xb6d0f13c	-6.2269664e-06
160	0xb8862fe2	-6.398537e-05
161	0x33c4d713	9.166083e-08
162	0xb61d996d	-2.3484129e-06
163	0xb7d98de3	-2.5934487e-05
164	0xb81902da	-3.64807e-05
165	0xb5a6b789	-1.242138e-06
166	0x337fc14a	5.954761e-08
167	0xb73b076d	-1.11477975e-05
168	0xb7a6c482	-1.9880248e-05
169	0xb627adaf	-2.4986036e-06
170	0x33b23d79	8.299953e-08
171	0x34c98e0f	3.754253e-07
172	0xb7dbf8e8	-2.622274e-05
173	0xb41e85f8	-1.4763634e-07
174	0xb84cf51e	-4.8865673e-05
175	0xb788030a	-1.6213879e-05
176	0xb7bcb339	-2.2494803e-05
177	0xb74a4b67	-1.2057694e-05
178	0xb7dde73e	-2.6452934e-05
179	0xb5a887e8	-1.2556529e-06
180	0xb64b288d	-3.027296e-06
181	0xb7ca2093	-2.4095445e-05
182	0xb77a3179	-1.491268e-05
183	0xb7a846f0	-2.0060193e-05
184	0xb817a300	-3.615301e-05
185	0xb7fb8cfe	-2.9987186e-05
186	0xb5e57fb3	-1.7098995e-06
187	0xb80e1ff7	-3.3885208e-05
188	0xb773ca7d	-1.4531074e-05
189	0x331d79d4	3.6665213e-08
190	0xb821e074	-3.859443e-05
191	0xb7c07eaf	-2.2947175e-05
192	0xb826372b	-3.9628863e-05
193	0x356eea88	8.9003197e-07
194	0x36387465	2.7485887e-06
195	0x3787c6e8	1.6185877e-05
196	0xb675e379	-3.6640251e-06
197	0xb622263a	-2.4162132e-06
198	0xb686b057	-4.01404e-06
199	0xb6b9ebaa	-5.5408645e-06
200	0xb8850428	-6.3427084e-05
201	0x37a45663	1.959055e-05
202	0xb8463e48	-4.7264883e-05
203	0xb8178b2c	-3.613082e-05
204	0x3737fb2c	1.09661305e-05
205	0xb7d14b2a	-2.4949743e-05
206	0xb4e32685	-4.2310072e-07
207	0xb86576bf	-5.4708446e-05
208	0x359531eb	1.1115893e-06
209	0xb6dc253f	-6.560847e-06
210	0x37ace5d2	2.0611016e-05
211	0xb80d71fe	-3.3723183e-05
212	0xb7d89340	-2.5817775e-05
213	0x3605a6ad	1.9915562e-06
214	0xb86415b9	-5.4379667e-05
215	0xb7d470ff	-2.5324987e-05
216	0x370fdecb	8.575337e-06
217	0xb8493ccd	-4.797876e-05
218	0xb7983383	-1.8143799e-05
219	0x379aa486	1.8434843e-05
220	0x360923cf	2.0435434e-06
221	0x33b32a97	8.343084e-08
222	0xb85b07e9	-5.2221036e-05
223	0x37f4a998	2.916604e-05
224	0xb7659ae8	-1.3685531e-05
225	0x35828edd	9.727333e-07
226	0x35f7db7a	1.846681e-06
227	0xb77bacda	-1.5001011e-05
228	0xb81f8456	-3.80318e-05
229	0x3380c825	5.9968706e-08
230	0x341623ab	1.3982815e-07
231	0x3703b666	7.850676e-06
232	0xb6cdd424	-6.1341725e-06
233	0xb6909d56	-4.3098507e-06
234	0x349dbdf2	2.9381732e-07
235	0x352cf99f	6.443824e-07
236	0xb864a826	-5.4516036e-05
237	0x35cca7c5	1.5248012e-06
238	0xb82a435d	-4.0593895e-05
239	0xb7802d3f	-1.5279858e-05
240	0xb784df2d	-1.583955e-05
241	0x370b7601	8.312521e-06
242	0xb7daa223	-2.6063126e-05
243	0xb4040a2d	-1.229716e-07
244	0xb686f2d9	-4.0217824e-06
245	0x37f03475	2.8634657e-05
246	0x3689837b	4.0982245e-06
247	0xb854cc04	-5.0734743e-05
248	0xb7b93d60	-2.2082299e-05
249	0xb7c600b5	-2.3603769e-05
250	0x3553cee8	7.8904714e-07
251	0xb761f8d8	-1.34689835e-05
252	0xb665c740	-3.4239638e-06
253	0x33800045	5.9605135e-08
254	0x384841f5	4.7745143e-05
255	0xb70fc69a	-8.569705e-06
