src/scripts/ddpg/weights/actor_best.pth (torch, 69039 bytes, 18 tensors)

linear_input.weight f4 [64, 13]
000000 6e 72 61 be cf d1 5c 3e c6 53 a5 bc 8f e1 a0 3d
       -0.22016308 0.2156441 -0.020181548 0.07855522
000010 21 cf c6 bd 3d 31 95 be 21 bc 89 be 5f 71 43 3d
       -0.097074755 -0.29139128 -0.26901343 0.04771554
000020 e2 c2 48 3e b8 b9 83 bd 0c 82 84 be de af e3 3d
       0.19605592 -0.064319074 -0.25880468 0.111175284
000030 3d e4 b3 be 3d 78 c6 bd 5d 0b e7 3d 4e cd a0 bd
       -0.3513507 -0.096909024 0.11281464 -0.07851659
000040 5e 05 45 be d3 d8 68 3c 1e 62 72 3d b1 d8 96 3d
       -0.19240329 0.014211851 0.059175603 0.07365549
000050 c3 62 72 3e 9c ca 94 3e d3 1f 85 3e f2 35 96 be
       0.23670487 0.2906083 0.26000842 -0.29338032
000060 e6 c6 8b bd 63 d2 df bd 0e 0f 5b be 59 02 91 3e
       -0.06825046 -0.109288 -0.21392462 0.28322104
000070 6d af 73 be 28 1b 87 be 50 db a1 be 4b a0 3d 3e
       -0.23797388 -0.26387906 -0.31612635 0.18518178
000080 90 21 92 3e 9e a3 88 3d cb 0e a5 3d 1a 3a 5e be
       0.2854123 0.066718325 0.08059462 -0.21701851
000090 72 42 1a be f6 5f 39 be af 7d 93 3e 02 a6 8b 3d
       -0.1506441 -0.18103012 0.28806826 0.06818773
0000a0 98 6d 83 3e 1c c1 48 be b8 b4 91 3e bd 7c b3 bd
       0.2566955 -0.19604915 0.2845819 -0.08764026
0000b0 36 77 5e be ad 7e 66 be f3 19 72 3d ad 59 2b 3c
       -0.21725163 -0.2250926 0.05910678 0.010458392
0000c0 77 91 8e 3e e8 6d af be ea 42 23 be 7b 15 92 3e
       0.27845356 -0.3426354 -0.15943494 0.28532013
0000d0 2a 19 e8 3c b7 d5 d9 bd d2 61 5a be 00 74 2b 3e
       0.028332312 -0.10636466 -0.21326378 0.16743469
0000e0 38 04 1e 3e 68 71 b1 3c a4 29 57 bc cd 90 00 3d
       0.15431297 0.021660522 -0.0131324865 0.031388093
0000f0 1f eb b7 bc 23 a7 3e bd f0 10 df bd b3 ad 25 be
       -0.022450982 -0.046546113 -0.108919024 -0.16179542
000100 40 f0 3c be b8 b9 4f bd a6 e4 0e bd bc f8 01 be
       -0.18451023 -0.050714225 -0.034886025 -0.12692541
000110 c0 d5 4c 3e 7e b5 41 3e c4 ee 67 3d 33 81 89 3e
       0.20003414 0.1891689 0.05662419 0.26856384
000120 e7 03 69 bd 42 dc 9d 3e 77 b2 d1 bd e4 98 c5 bd
       -0.056888487 0.30832106 -0.102391176 -0.09648302
000130 f5 9f 22 3e b5 9f c6 3d f2 3c 5f be 73 c1 ae be
       0.15881331 0.096984304 -0.21800593 -0.34131965
000140 60 9c 80 3e f1 00 b1 3e 4e f5 89 be a8 cb a7 be
       0.25119305 0.3457103 -0.26944965 -0.32772565
000150 25 08 e3 bd d8 e9 e2 bd d8 8f 2e bc fa 51 88 be
       -0.11085538 -0.110797584 -0.010654412 -0.26625043
000160 e1 ad 2f 3b 06 40 19 3e 90 a0 3e 3e 0b 28 6a 3e
       0.002680652 0.14965829 0.18615937 0.22866838
000170 df 5a bc 3e de 89 f7 bc a5 69 9a bd 1f c8 6b 3e
       0.3678808 -0.030217107 -0.07539681 0.23025559
000180 a0 b5 13 3e a8 f3 53 3d a9 5e 11 be d6 fa 64 3e
       0.14424753 0.05174604 -0.14196266 0.22361311
000190 c0 16 54 3e d9 19 90 be b7 bc db 3d af 6d 4d 3d
       0.20711803 -0.2814472 0.10729354 0.05015343
0001a0 d7 88 46 bc fb b5 77 3e 4e 1a 3d 3d fc 11 66 3e
       -0.012117586 0.24190514 0.046167664 0.22467798
0001b0 d2 d8 91 bc 1c 54 c3 3e 4c 8a f4 bd c3 b2 d6 3d
       -0.017803583 0.38150108 -0.119404405 0.10483315
0001c0 11 68 50 3e cb 2c c4 3c a4 06 63 be 8d 4b e8 3d
       0.20352198 0.02394714 -0.22170502 0.11342535
0001d0 65 15 83 be 21 bc bc bd 7d 75 82 be 4b ed 11 3e
       -0.2560226 -0.0921557 -0.2548026 0.14250676
0001e0 65 14 0a 3e 64 8c 9e 3e 74 44 00 be ec 5e 0a be
       0.13484342 0.30966485 -0.12526113 -0.13512772
0001f0 27 bb 59 be 53 d6 b9 3e 4d 1e 82 be c4 5f 0f bd
       -0.21262799 0.3629633 -0.25413743 -0.03500344
000200 a5 4f d4 3b 55 88 9b 3e 6a ae 45 be 19 a4 f6 3c
       0.006479221 0.3037745 -0.19304815 0.030107545
000210 4c b2 6d 3e 12 d4 cb 3d 69 91 56 3b 11 54 54 bd
       0.23212546 0.099525586 0.003274048 -0.051837984
000220 73 d8 f3 bd 7c 4b cb 3d 75 62 8c be 25 bd 33 3d
       -0.11906519 0.09926507 -0.27418867 0.043881554
000230 54 f3 7f be f2 13 0e 3d 3b 55 84 3d 07 f9 86 be
       -0.24995166 0.03468699 0.06461569 -0.26361868
000240 1b 5b 4f 3d b3 d0 8a be 65 de 5f 3e 69 43 4c 3e
       0.050623994 -0.2711235 0.2186218 0.1994759
000250 22 11 99 3e a8 3b 4b 3e ed be b4 3e 5d 4a 8e be
       0.29895884 0.19846976 0.35301915 -0.2779111
000260 a1 80 96 3e 94 d4 d9 bd c3 bc 6c 3d ac 5f 7d be
       0.2939501 -0.10636249 0.057797205 -0.24743527
000270 33 e6 ac 3e 4d 7c 5e bc b7 51 2f 3e ec 6c c3 3d
       0.33769378 -0.01357944 0.17121015 0.095422596
000280 c4 86 a1 3e 5c da cb bd 67 7f 27 be 40 53 31 3e
       0.3154813 -0.09953758 -0.16357194 0.17316914
000290 d7 27 ce bd 95 85 9b be ec 57 39 be 02 5d 06 be
       -0.100661926 -0.30375353 -0.18099946 -0.13121417
0002a0 18 9e a0 3e 85 69 00 be 33 5a 7d bd 9c a1 5e 3d
       0.31370616 -0.12540253 -0.0618536 0.05435334
0002b0 12 c6 49 be d1 a9 c6 bd 5e 3a 9b 3e 60 3d 2e 3e
       -0.19704464 -0.09700359 0.30317968 0.170156
0002c0 49 ff 95 3d 57 df 37 3e 62 b5 d4 3e 81 d7 91 be
       0.073240824 0.17956291 0.41544634 -0.2848473
0002d0 f1 2c 84 bd a4 8c 82 3e 33 10 1d 3e 08 74 f8 3d
       -0.064538844 0.25497925 0.15338211 0.12131506
0002e0 1d 24 24 be e0 ab 51 3e 3a 7a 2d 3e 72 e1 37 3e
       -0.16029401 0.20475721 0.16941157 0.17957094
0002f0 d4 53 9e bd 21 ba 97 3c f7 4c a0 be ca 02 28 3e
       -0.07730833 0.01852137 -0.3130872 0.16407314
000300 b7 a8 a6 3d c3 a3 0b 3e 09 3f 5b bd d9 eb 90 be
       0.081376486 0.13636689 -0.053526912 -0.28304937
000310 1b e7 d6 3d 60 f8 5d bd 68 18 1d 3e fa 46 40 be
       0.104932986 -0.054191947 0.15341341 -0.18777075
000320 d4 07 96 3e ae 00 4c be bd 8d 9f 3d 54 6c 36 3c
       0.29302847 -0.19922134 0.07790706 0.011134226
000330 44 bd 60 3e b3 6e 88 3d 5a a9 8c bc 3b 9a 46 3e
       0.21947199 0.06661739 -0.017170597 0.19394772
000340 69 ed 43 bd bc 51 f6 3c b0 8b ff bd 11 dd 45 3e
       -0.047833834 0.03006827 -0.12477815 0.19322611
000350 08 c3 24 be a4 06 09 3d 25 2e 23 be a5 2b ff 3d
       -0.16090024 0.0334536 -0.15935571 0.124594964
000360 48 60 3e bc cd 6f 99 3e f3 28 b3 bc 35 f9 86 3e
       -0.011619635 0.2996811 -0.021870112 0.26362005
000370 5e 5f 2b be 0f c1 05 3d 60 df 64 3e d8 c7 3f be
       -0.16735598 0.03265482 0.22350836 -0.18728578
000380 cd bf 83 3c 5c 58 4b 3e fc b5 83 be 8a 4e 9a be
       0.016082669 0.19857925 -0.2572478 -0.30138046
000390 22 d1 4d be 9f b1 c8 bd e1 6c 16 bd ae e3 8b be
       -0.20099309 -0.097995035 -0.03672493 -0.27322143
0003a0 59 e0 18 3e 06 03 21 3d a7 32 ac bd fc f5 40 be
       0.14929332 0.039309524 -0.08408099 -0.18843836
0003b0 8f 72 20 3e e0 d5 31 3e 21 e1 b5 3e f0 7b 6b 3d
       0.156687 0.17366743 0.35523322 0.057491243
0003c0 49 53 67 be cc 15 3d be d0 b7 49 bd 01 11 61 be
       -0.22590365 -0.18465346 -0.049247563 -0.21979143
0003d0 1c 89 0f 3e 94 79 12 be 41 01 54 3e 6d 55 8a be
       0.14017147 -0.14304191 0.20703603 -0.270183
0003e0 6f ca ba 3e 75 e9 17 3e 1a 54 09 3e fc bd 3b be
       0.3648257 0.1483515 0.13410988 -0.18334192
0003f0 82 c5 d8 3d a4 f9 25 be 02 3c 3c bc 2a a8 c8 bc
       0.105845466 -0.16208512 -0.011488916 -0.02449425

linear_input.bias f4 [64]
000000 43 f6 f4 bd dc 4d 99 bd a3 64 8d 3e 61 61 87 bd
       -0.11961033 -0.074855536 0.27615842 -0.066103704
000010 da 17 53 bd da 38 6f bc d6 a0 06 be fc b6 da bd
       -0.05153642 -0.014600957 -0.13147292 -0.10679433
000020 de d4 9d bd c3 28 0d 3d 53 df 65 3e 4d ab 96 3e
       -0.07706617 0.0344627 0.22448473 0.29427567
000030 25 0c a9 3e 99 36 93 3e 6b 16 0e 3e df cb af bd
       0.33017078 0.28752592 0.1387574 -0.08583807
000040 53 ce db bd e6 50 39 3e 4d 70 9a 3e a3 0a 7f 3e
       -0.107327126 0.18097267 0.30163804 0.24906401
000050 10 84 6a bc fd e2 27 3e 27 fd 47 be fd 8c 9e 3e
       -0.014313713 0.16395183 -0.19530164 0.3096694
000060 8f 14 0d be 14 70 30 be 76 3c 4a be af f7 5f 3d
       -0.13777374 -0.17230254 -0.19749627 0.05467957
000070 12 5b cd 3d 19 00 11 3d 94 2b 32 3e 09 be 73 3e
       0.10027136 0.035400484 0.17399436 0.23802961
000080 ad 31 7e bd bb f5 b0 3e b3 04 01 3e 8e fb 30 be
       -0.062059093 0.34562477 0.12599449 -0.1728346
000090 9f 80 81 3e 57 cc b4 3a b6 1a 56 3e f8 55 de 3d
       0.25293443 0.0013793808 0.20908627 0.10856241
0000a0 5f 31 a8 3e c9 03 9d 3e e7 11 81 3e ba 69 a2 bd
       0.32850167 0.3066695 0.2520897 -0.07930322
0000b0 59 0a 55 3b 53 6f 32 3e fd 2f 71 3e d0 b8 50 3e
       0.0032507388 0.1742528 0.23553462 0.20383
0000c0 61 a4 04 3e 7d 59 dd 3e 22 f6 7c 3e a9 13 30 bd
       0.1295333 0.43232337 0.24703267 -0.0429875
0000d0 17 63 49 be 9e 3d 1d 3d 7b b9 ad 3d ca b1 9b 3e
       -0.19666706 0.03838884 0.08482643 0.3040908
0000e0 2b 8f 26 be 41 18 7f 3e 3c 01 45 bd 7c 23 e4 bc
       -0.16265552 0.24911596 -0.04809688 -0.027848952
0000f0 76 c2 85 3e 10 93 58 bd 51 75 fd bd a7 1e cb 3d
       0.26124924 -0.052874625 -0.12375892 0.09917956

linear_hidden.0.weight f4 [64, 64]
000000 62 b7 0c 3e c0 36 f6 3d 85 97 21 be 15 e7 9c bd
       0.1374183 0.120221615 -0.15780456 -0.07661263
000010 28 c2 e9 3d 26 3b 9f bd 1b 5e 0c 3e 8a 09 89 3d
       0.114139855 -0.077749535 0.13707773 0.066912726
000020 ef a3 58 3e 2b c8 39 3d 2a b4 09 3d bb bb f6 3c
       0.21156286 0.04535691 0.033619083 0.030118814
000030 51 07 22 bb 79 52 74 bd 17 4d 3a 3d 1a 02 3a 3c
       -0.00247236 -0.059648965 0.045483675 0.01135304
000040 a3 ad 1a 3e 98 cd 19 3e 39 28 44 3d f6 ff 0e 3d
       0.151053 0.15019834 0.04788992 0.034912072
000050 92 b5 b3 3d c1 de 3b 3e b5 14 01 3e f6 11 c7 3d
       0.08774866 0.18346693 0.12605555 0.09720223
000060 53 7b 40 3d d5 9f 32 bd 80 4f 17 3e e3 e4 84 3e
       0.04699261 -0.04360946 0.1477642 0.25955877
000070 cb 4f 9d 3e d8 e5 44 3e cb 7d 9e bd e3 c8 bd bd
       0.3072494 0.19228303 -0.07738837 -0.09266832
000080 4a f9 1a 3e d1 64 a0 bd 56 b1 ac 3d 74 5c 69 bc
       0.15134159 -0.07831729 0.08432262 -0.014243234
000090 db a8 83 3c 1b de 1a 3e 5d e5 1b 3e 41 28 06 3e
       0.016071727 0.15123789 0.15224214 0.13101293
0000a0 8a f6 ad 3b 5c 32 27 3e a1 4c 13 3e 6a 92 19 3e
       0.0053089308 0.16327804 0.143847 0.14997259
0000b0 b2 c7 08 3e 4e 68 4a 3e 82 98 c8 3d 1e 7b f0 3d
       0.13357428 0.19766352 0.097947136 0.11742233
0000c0 91 16 a7 3e 66 12 74 3e b8 66 e9 bc fc b0 d8 bc
       0.32634404 0.23835143 -0.028491363 -0.02645158
0000d0 3d 43 a2 3d 32 14 46 3c 9e 88 a0 bd 68 7e de 3d
       0.07922981 0.012089776 -0.07838558 0.10863954
0000e0 ea 90 7b bd 7d 46 2d 3e 8b 71 0b bc 80 f4 b1 3d
       -0.061417498 0.1692142 -0.0085109575 0.08689213
0000f0 7f b2 b6 3d 4e 46 17 bd 91 6d f5 3d a3 95 79 3d
       0.08920764 -0.036932282 0.11983789 0.06093372
000100 92 c2 4a 3e 06 8c 48 3e c7 cb b1 bd 91 3d e9 3d
       0.19800785 0.19584665 -0.086814456 0.11388696
000110 84 13 0e 3e 92 27 aa bd 6e 0f 73 bd 11 a1 aa 3c
       0.13874632 -0.08308329 -0.059340887 0.020828756
000120 bc 4d 6d 3e e3 2f b3 3d fd 04 b7 3d 81 ab 9d 3e
       0.23174185 0.08749368 0.08936498 0.3079491
000130 94 49 a0 bd a1 3b 9a 3d 0a a4 76 3d 91 e8 dc 3c
       -0.07826534 0.075309046 0.060215034 0.026966365
000140 63 b8 df bc 01 8c d7 3d a4 3c 00 3d 1a 94 98 bc
       -0.027309602 0.105247505 0.03130783 -0.018625308
000150 34 7e 7f bd 91 99 fa 3d 3a 33 f9 3d 67 49 64 3d
       -0.062376216 0.12236322 0.12167974 0.055734064
000160 21 3f 5b 3c 72 fd 75 bd 39 2f 1f 3e f2 cc e0 3d
       0.01338175 -0.060056157 0.15545358 0.1097659
000170 29 77 88 3e a5 55 f7 3d 97 0a 7f bd 61 83 8d 3d
       0.26653412 0.12076882 -0.06226596 0.06909824
000180 cf a2 f3 3d d5 d5 8c 3d cf d0 88 bc bd 3a c7 3c
       0.11896288 0.06876723 -0.01670113 0.02432
000190 e6 0b 07 3b 85 39 5d 3e 2b d2 0e 3d d3 af 09 3e
       0.0020606457 0.21603973 0.0348684 0.13445978
0001a0 d2 e3 01 3d 33 a6 3c 3d a7 90 91 3d 19 d8 cd 3d
       0.031711407 0.046056937 0.07107668 0.10050983
0001b0 56 8a f3 3c 56 0b 63 bc c8 4c 34 3e 4e e5 63 3d
       0.02972905 -0.013857683 0.17607415 0.055638604
0001c0 16 7c 66 3e f8 38 56 3e 06 b8 b0 3c 26 2a 9e 3d
       0.22508273 0.2092017 0.021572124 0.07722883
0001d0 9c d8 5f bb a8 34 97 bd ea 06 82 bd 89 9e 9e bd
       -0.003415621 -0.0738309 -0.06348975 -0.07745082
0001e0 4f fc 5a 3d be aa 09 3d 3f aa 9b 3c cc 64 0a 3e
       0.053463276 0.033610098 0.019002078 0.13515013
0001f0 f0 0c 84 bd 82 cc b0 bc 29 ff 02 3e 6b db b4 3d
       -0.0644778 -0.021581892 0.12792648 0.08830913
000200 fd 6e 51 3d fd c6 b8 bb 45 46 e3 3d a8 13 22 3e
       0.051131237 -0.0056389556 0.11097387 0.15827811
000210 96 3d 47 3e 05 58 ca 3d 6c 6d 01 3d b9 4d 4b 3e
       0.19457087 0.0988007 0.031598493 0.19853868
000220 a4 4c 34 3e c4 10 b0 bd 7c 71 13 3e ca 60 93 3e
       0.17607361 -0.08596948 0.1439876 0.28784782
000230 4a e9 4d 3d 01 1c 58 3e 2e 27 40 3e 42 16 10 3e
       0.05027131 0.21104433 0.18764946 0.1407099
000240 be 13 12 3c 63 4c 7d bd 80 56 54 bd de e4 11 3e
       0.00891584 -0.061840426 -0.051840305 0.14247462
000250 5f ca 04 bd 21 8b ee 3d ca ab 1b 3e 93 58 91 bc
       -0.03241956 0.116476305 0.15202251 -0.01774243
000260 e9 d1 37 3e 1d 46 29 bd f0 e3 15 3d 2f bb 3d 3e
       0.17951168 -0.04132663 0.03659433 0.18528436
000270 93 85 ed 3d 19 48 e3 bc d9 27 c5 bb ac d3 a7 3d
       0.11597743 -0.02774434 -0.006016713 0.0819467
000280 d5 b6 d3 3d 02 d1 da bc 8e c3 ef 3d f4 49 06 3e
       0.10337607 -0.02671099 0.11707221 0.13114148
000290 0d 26 37 3e f0 f9 01 3e aa bc 0c 3e 5c 0a 4f 3e
       0.17885609 0.12693 0.13743845 0.20218796
0002a0 88 7a 2d 3e c5 c3 7a 3e 84 d1 47 3e 3e 71 21 3d
       0.16941273 0.24488743 0.19513518 0.039414637
0002b0 8f 7b f6 3b be 2c b3 3c e4 a5 69 3e a7 cf c2 bd
       0.0075220536 0.02187192 0.22817189 -0.09512263
0002c0 45 f1 a6 3e 01 7b a1 3e 86 b8 d4 3c 88 60 f9 bd
       0.3260595 0.31539157 0.025966894 -0.12176615
0002d0 89 6f aa bc 08 fe ff 3c 80 fe 10 bd cd bc 29 bc
       -0.020805137 0.031249061 -0.03539896 -0.010359955
0002e0 10 d7 be bd 3e 6c 38 3e 85 80 cc 3d 6a ec 9e 3d
       -0.09318364 0.18010041 0.09985451 0.07759936
0002f0 17 35 14 3e 85 fe 8c 3d 33 62 c2 3a 8d ef bf 3d
       0.14473377 0.06884483 0.0014830291 0.093718626
000300 b4 bd 1c bd a3 da ef bd 9e 97 c8 3d bd 26 dd bc
       -0.038266852 -0.117116235 0.09794544 -0.02699601
000310 0e 1c 8f bc 28 ef cf 3c 3e 98 d9 3d 65 3a d0 3b
       -0.017469432 0.025382593 0.10624741 0.0063546174
000320 70 a0 97 3d 44 53 f4 3c 25 dc 2d 3e 75 8e 50 3c
       0.07403648 0.02982486 0.1697851 0.012729277
000330 e3 7a 43 3d 91 0d 8c 3d 9e 47 44 3e ba f1 71 3e
       0.047724616 0.06838525 0.19167945 0.23627368
000340 85 c0 c3 3d fe 3b f1 3d 4e 2a 27 3e 81 25 d2 3d
       0.095582046 0.11779021 0.16324732 0.102610596
000350 ab 2c 71 3e af 24 a0 bd 8f 47 cf bc b1 d6 0e 3e
       0.23552196 -0.07819497 -0.025302676 0.13949086
000360 fe 2f 5c bd dd fa e4 3d fe 70 6b 3d 0e e0 24 bc
       -0.053756706 0.11180661 0.057480805 -0.010063184
000370 9d 93 50 3e 89 bc bf 3d 45 f5 1a 3d 27 a1 0b 3e
       0.2036881 0.09362132 0.037831564 0.13635693
000380 b9 2c 37 bd 6b c2 0f 3e 60 2e 5f 3e f5 b8 ae bd
       -0.044720385 0.14039008 0.21795034 -0.085313715
000390 86 d7 13 3e 6b 5b e3 3d 18 b7 e7 3d 28 ff 7d 3d
       0.14437684 0.11101421 0.11314219 0.062010914
0003a0 90 98 f9 bc dc a4 05 bc f9 e0 3b bd fc 9b fc bb
       -0.030468255 -0.008156981 -0.045868848 -0.0077090245
0003b0 f3 2b 1b 3e a5 69 cb bb 04 a8 8c 38 6f 1d 2d 3e
       0.15153484 -0.006207662 6.7070156e-05 0.1690576
0003c0 52 a2 36 3e 89 72 b7 3d 85 26 0b 3d f9 49 4a 3e
       0.17835358 0.08957393 0.033972282 0.19754781
0003d0 26 4e 54 bd 37 ac 22 3e ac 1d 19 3e 94 36 e8 3d
       -0.05183234 0.15886007 0.14952725 0.11338535
0003e0 e1 57 b1 3d 14 fd e6 3d f2 15 d1 3d db 9f a3 b8
       0.0865934 0.112787396 0.10209264 -7.802221e-05
0003f0 44 62 a6 3d 6e 34 49 3e e2 38 1f 3e 46 ec be 3b
       0.081242114 0.19648907 0.15549043 0.005826506

linear_hidden.0.bias f4 [64]
000000 f0 04 45 3d 22 8b d5 3d b6 a6 5f 3d 5c fb 87 bd
       0.048100412 0.10426928 0.054602347 -0.0663974
000010 17 60 20 3e 77 42 1a bd 74 e6 a2 3d f6 85 b8 3c
       0.15661655 -0.037661042 0.07954112 0.022524815
000020 88 aa 44 bd d8 96 2c 3e b1 84 43 3e e4 b5 a6 3d
       -0.048014194 0.16854417 0.19093587 0.08140162
000030 7d 81 00 3d ed 57 24 3e 2c 5d 80 bd cf 32 84 3c
       0.03137349 0.16049166 -0.06267771 0.016137509
000040 b1 a0 26 3d c4 ea 00 3e ce a0 28 3d 7b 31 b3 bd
       0.04068059 0.12589556 0.04116898 -0.08749672
000050 e8 c3 20 bd 56 8c 6c 3d f2 2d 11 3e 0f 00 20 bd
       -0.03924933 0.057751022 0.14177683 -0.039062556
000060 83 4e 5e 3c 46 5a 8b 3d 60 d7 09 3e 50 85 9a 3c
       0.013568523 0.06804328 0.13461065 0.018862396
000070 ef a7 63 bd 16 ea eb bc df c6 73 bd f2 83 a3 3d
       -0.055580076 -0.028798144 -0.05951583 0.07984151
000080 41 f7 36 3e 1e 92 8c 3d a0 60 6c bd 1f 85 1f 3c
       0.17867757 0.06863807 -0.057709336 0.009736328
000090 e5 6a be 3d bb bb bb bd 78 27 93 3d 79 11 80 3d
       0.09297732 -0.09166666 0.071852624 0.06253333
0000a0 7a f2 28 3e 60 91 5c bd 1b ac 92 3d fc d6 c6 3d
       0.16498747 -0.053849578 0.07161733 0.09708974
0000b0 4b fe 83 3c 63 fe 54 3d c5 e7 04 bd 6f 31 e4 3c
       0.016112467 0.052000415 -0.032447595 0.027855603
0000c0 9a d3 f3 3d 56 4b cc 3c f8 8a e4 bc 77 7b a0 3d
       0.11905594 0.024938267 -0.027898297 0.07836049
0000d0 90 5b 02 3e 31 3d 53 bd ef 1c 1a 3d 00 11 a2 3b
       0.12730241 -0.05157203 0.03762525 0.004945874
0000e0 8d d4 d1 bd 83 4d c2 3c ca d3 37 3e 5f 31 35 3d
       -0.10245619 0.023718601 0.17951885 0.044236537
0000f0 4b 6f 60 bd 9c 7b d0 3c aa 56 22 3d 34 a5 81 3d
       -0.054793637 0.025449567 0.03963343 0.06330338

linear_output.weight f4 [4, 64]
000000 94 6f 30 3d 37 42 0b 3d ec 02 73 3d fa a2 64 3d
       0.04307516 0.033998694 0.05932896 0.05581949
000010 bc 0c 8a 3d b8 94 7d 3d 19 9e 03 3d a7 c7 7c 3c
       0.0674071 0.061909407 0.032133196 0.01542846
000020 2b b0 3e 3c 4e 35 15 3d ce bd 5e 3d dd fd 8f 3d
       0.011638681 0.03642779 0.05438023 0.070308425
000030 03 6a 8e 3d d9 77 44 3d 38 1d 5a 3d 50 eb 0d 3d
       0.06953814 0.047965858 0.05325052 0.03464824
000040 9c 64 2d 3d 82 fb d4 bb 4f e4 ae 3d aa f0 ad 3c
       0.042332277 -0.0064997086 0.0853964 0.021232922
000050 03 48 4d 3d 16 18 46 3d b2 4e ab 3d 2d e7 30 3d
       0.050117504 0.048362814 0.08364619 0.043189216
000060 bc 84 66 3d 6d 0f ab 3d b4 83 2b 3d 51 0c af 3c
       0.05627893 0.083525516 0.04187365 0.021368178
000070 3b e3 1a bb f7 79 8d 3d 81 c4 5b 3d 94 bd 3f 3d
       -0.0023633975 0.069080286 0.053654198 0.046811655
000080 5b 85 78 3d ac 0e 6c 3d 27 50 dd 3a 1e 10 ac 3d
       0.060674053 0.05763118 0.0016884849 0.084015116
000090 3c ce 74 3d 91 7a 52 bc d6 13 21 3e da b7 7b 3c
       0.059766993 -0.012846605 0.15730223 0.015363658
0000a0 bf fd 7f 3d a7 4f 46 3c 60 06 4d 3d 1c d4 b9 3d
       0.06249785 0.012103952 0.050054908 0.0907366
0000b0 9d f6 36 3d 70 19 31 3d c7 44 8f 3d 6b 78 3f 3d
       0.044668783 0.04323715 0.0699554 0.0467457
0000c0 4c f7 4e 3d ee 38 f2 3c 6f 18 80 3d f1 ad 36 3d
       0.05052881 0.029568162 0.0625466 0.044599477
0000d0 63 2a 29 3d a1 76 22 3d ab db 59 3d e3 47 9d 3c
       0.04130019 0.039663915 0.053188007 0.019199317
0000e0 76 7d 83 bb 02 d9 25 3d dd 37 87 3d cc bb 49 3d
       -0.004012759 0.040490158 0.06602452 0.049251363
0000f0 8f 7b d4 3b 80 97 8e 3d cd 0d 70 3d 8e 12 cb 3c
       0.006484456 0.0696249 0.05860691 0.024789121
000100 37 68 5a 3d 8d da 0d 3d d8 d4 42 3d a1 b8 76 3d
       0.053322043 0.034632254 0.047566265 0.06023467
000110 c9 93 81 3d 07 17 33 3d ac 48 c3 b9 d9 24 50 3b
       0.06327016 0.043723132 -0.00037247443 0.0031760244
000120 1d 0f 8a 3b 06 8e 2e 3d 47 a0 63 3c ae cc 91 3d
       0.0042132274 0.042615913 0.013893194 0.07119118
000130 88 22 40 3d 31 94 3e 3d 04 1a 9c 3d b0 7a dc 3c
       0.04690793 0.046528045 0.076221496 0.02691397
000140 1d 12 49 3d 35 aa 64 3c 8a b5 dc bc 3a e2 99 3b
       0.04908954 0.013956596 -0.026942033 0.0046961578
000150 a2 fc 77 3d 31 68 44 3d 3c 36 2a 3c 7f 71 52 3d
       0.060543664 0.047950927 0.010388907 0.05137777
000160 96 48 aa 3d fe ce 46 3b 80 0a 0e 3d c1 07 37 3a
       0.08314626 0.003033578 0.034677982 0.00069820514
000170 ff 86 d7 3a 06 1a a3 3d 0c 5a 00 3d 75 f8 3c 3d
       0.001644343 0.07963948 0.031335875 0.046135385
000180 1c a9 65 3d 71 63 a9 3d 39 3d 09 bb f0 ab 80 3d
       0.05606948 0.0827092 -0.0020941033 0.062827945
000190 af 2e c9 3d d4 f8 15 3c 73 57 36 3e c5 f2 0d bb
       0.09823357 0.0091535635 0.17806797 -0.0021659594
0001a0 79 ce 91 3d 01 81 25 bc 44 94 84 3d f5 ae d1 38
       0.0711946 -0.010101558 0.06473592 9.998485e-05
0001b0 d0 19 22 3d 98 71 62 3c 06 d6 92 3d ec d2 07 bb
       0.039575398 0.013821028 0.07169728 -0.0020725084
0001c0 d3 ae 5e 3d bb 00 83 3c 43 08 82 3d 90 cb 40 3d
       0.054365944 0.01599156 0.06349232 0.047069132
0001d0 7e a7 1e 3d 10 d8 02 3d f6 4d aa 3d e9 d5 13 bb
       0.03873395 0.031944335 0.08315651 -0.002255792
0001e0 27 91 4a 3c 6d a2 2c 3d 69 23 9f 3d 52 ce 87 3d
       0.012363709 0.04214709 0.07770426 0.06631149
0001f0 2c 4e 75 3c f0 17 a3 3d e0 38 4f 3c 3a 10 c6 39
       0.014972251 0.0796355 0.012647837 0.00037777593
000200 30 8d 43 bd a0 86 e2 bc 8f 7f 63 bd 5a 63 6f bd
       -0.04774207 -0.027652085 -0.05554157 -0.05844436
000210 a2 f7 98 bd 0c 1e 14 bd cb 63 7f 3b 85 ff 75 3c
       -0.07469107 -0.036161467 0.0038969393 0.015014534
000220 33 8e 5c 3c 33 73 09 bd 17 6a 05 3a e0 16 94 bd
       0.013461637 -0.03355713 0.0005089356 -0.072309256
000230 54 88 a0 bd 70 2e 2e bd 1b d9 92 bd e3 3a 0e bc
       -0.078385025 -0.042524755 -0.07170316 -0.008681032
000240 6c 94 41 bd d8 58 a9 3b d4 e6 f8 bd 36 72 56 3b
       -0.047260687 0.0051680617 -0.12153402 0.0032721884
000250 1c 77 6d bd e7 50 60 bd 6a ae 13 bd 28 96 35 bd
       -0.05797492 -0.054764654 -0.036055006 -0.044332653
000260 c1 a2 96 bd e1 3f 2e bd fb 97 0e bd 68 04 86 3b
       -0.073552616 -0.04254139 -0.03481291 0.0040898807
000270 5a 61 17 ba aa db a2 bd 7c 3e 1d bd 48 2d 3c bd
       -0.00057746994 -0.07952054 -0.038389668 -0.04594162
000280 b2 8b 74 bd 20 0f 95 bd 03 d1 fd 3a cc 5e 95 bd
       -0.059703536 -0.072782755 0.0019364659 -0.07293472
000290 d9 e5 aa bd 9b d7 7c 3c 43 1e 0a be 28 9e 36 3c
       -0.08344621 0.015432264 -0.13488106 0.011146106
0002a0 3a b2 8f bd ac 9a ea 3c 62 4d 77 bd 4a 96 5b bd
       -0.07016416 0.028638206 -0.060376532 -0.053610124
0002b0 2b 3a 33 bd 5c 99 86 bb 63 ff 89 bd ec f0 f9 3b
       -0.043756645 -0.0041076373 -0.06738164 0.007627597
0002c0 ba b7 53 bd 79 0c 3d 3c ec f7 80 bd a2 87 2d bd
       -0.051688887 0.011538618 -0.06297287 -0.042365678
0002d0 9a 30 0f bd c4 14 63 bc cc ae a7 bd 0c 82 11 3c
       -0.03495846 -0.013859931 -0.08187637 0.008881103
0002e0 16 ff 0f 3c 72 78 2e bd db 3a be bd e7 73 73 bd
       0.008788845 -0.042595334 -0.092885695 -0.059436705
0002f0 08 b6 d2 3b 90 fc a0 bd bd e3 5e bc 3f d3 b1 3b
       0.006430391 -0.078606725 -0.013604102 0.005426794
000300 9f 09 01 bd 05 09 9d bc e2 74 0f bd 2f 5a 76 3d
       -0.031503316 -0.01916934 -0.035023578 0.0601446
000310 59 40 96 3b 37 35 71 3d 17 93 c4 bd f0 d2 ef 3d
       0.0045853076 0.05888864 -0.09598368 0.11710155
000320 8d 06 e8 bd f8 f7 97 bc df 97 82 bd ae b1 2f 3d
       -0.113293745 -0.018550858 -0.06376623 0.042894058
000330 a3 7b 7b 3d d5 97 a5 bc 25 a0 7a bc 95 21 ce 3d
       0.061397206 -0.020214 -0.0152969705 0.10064999
000340 b4 d5 97 3b 47 50 21 3e ed 1f b7 3d 5e 3d ac 3d
       0.0046336297 0.1575328 0.08941636 0.08410142
000350 99 b1 cd bc 80 50 07 bd 2e 32 8a bd 85 65 39 bc
       -0.0251091 -0.033035755 -0.06747852 -0.011315708
000360 1f 76 17 bc bd 8e b1 3d 1c 18 06 bd f8 bb d5 bd
       -0.009244471 0.08669803 -0.032737836 -0.10436243
000370 77 08 ae 39 bb 02 44 3d 4b a0 47 3d e4 28 27 bc
       0.00033194173 0.047854166 0.04873685 -0.01020262
000380 3e 08 cd bc 47 a2 39 bd e2 d9 a2 ba aa a3 49 3d
       -0.025028344 -0.045320775 -0.0012424553 0.049228348
000390 2e ed 5c bd 7a 1a bd 3a 51 48 3c bd 19 23 bb bd
       -0.05393713 0.0014427446 -0.045967404 -0.09137554
0003a0 34 f3 d1 bc 62 55 d7 3d 46 6b 1a bd 06 27 1f bd
       -0.025628664 0.10514332 -0.03769996 -0.038855575
0003b0 eb be bd bc 9f 8e db 3d 95 e6 83 3d ae e7 50 bd
       -0.023162326 0.10720562 0.064404644 -0.051002197
0003c0 2b f8 13 bd f2 bb b5 3d 9f f7 bf 39 0f 0e a7 bc
       -0.036125343 0.08873738 0.0003661485 -0.020392446
0003d0 e9 13 15 bd d4 06 9b 3d c1 77 d5 3c 90 1b a8 3d
       -0.03639594 0.07569662 0.02605808 0.08208382
0003e0 e6 27 ea 3d d2 6f 0c bd e1 06 04 3d a9 5f e3 bc
       0.11433391 -0.034286328 0.032233123 -0.027755575
0003f0 71 fc ea 3d 90 84 03 bd f7 e4 51 bd 00 2b d7 3d
       0.114739306 -0.032108843 -0.05124375 0.105062485

linear_output.bias f4 [4]
000000 ed b1 ff 3c e8 fe ae 3c 1e f7 9b bc 0e f7 8d bc
       0.031212771 0.021361783 -0.019038733 -0.017329719

exp_avg f4 [64, 13]
000000 24 66 48 b8 d6 c7 50 b8 d8 e2 64 39 56 0d bd b8
       -4.777884e-05 -4.9777176e-05 0.0002182828 -9.014706e-05
000010 60 c4 44 b8 39 c7 59 b8 a5 0e 60 39 19 83 bc b8
       -4.691293e-05 -5.1922372e-05 0.0002136776 -8.9889574e-05
000020 9a 44 3b b8 69 fa 4e b8 02 88 5d 39 2b 32 bd b8
       -4.4648164e-05 -4.934744e-05 0.00021126869 -9.021567e-05
000030 45 d3 dd 36 89 ed 0d 36 23 99 92 b7 e8 17 83 38
       6.6109083e-06 2.11489e-06 -1.7475866e-05 6.25102e-05
000040 04 94 f2 b7 92 60 32 36 db 68 97 b7 5c f1 7d 38
       -2.8917573e-05 2.6580278e-06 -1.804943e-05 6.0544684e-05
000050 6a 0f f1 b7 e4 1e 74 36 a5 65 8e b7 b8 7a 79 38
       -2.8736617e-05 3.6376814e-06 -1.6975051e-05 5.9480517e-05
000060 12 67 f1 b7 25 8a 2d 36 17 7b 17 39 1f f4 68 b7
       -2.8777435e-05 2.585942e-06 0.00014446337 -1.38851165e-05
000070 74 c7 ec b9 ac 3c 86 39 44 73 12 39 ad c8 92 b7
       -0.00045162032 0.00025603676 0.00013966585 -1.7498003e-05
000080 4b 3a e8 b9 57 05 86 39 69 6d 0b 39 8c 69 ef b7
       -0.0004429392 0.0002556245 0.00013296831 -2.854017e-05
000090 7d 72 e6 b9 fa d1 85 39 83 fe ce b7 8d b1 9f 37
       -0.0004395432 0.00025524182 -2.467563e-05 1.9036956e-05
0000a0 69 d1 06 37 1a e5 58 b8 9b d2 ec 37 79 53 9e 37
       8.0357795e-06 -5.171178e-05 2.8231463e-05 1.8873938e-05
0000b0 ad 81 0b 37 60 f7 53 b8 52 09 ec 37 73 fa 98 37
       8.315238e-06 -5.0536706e-05 2.8137732e-05 1.8236437e-05
0000c0 ce 49 ed 36 00 a4 51 b8 74 73 eb 37 28 13 91 b7
       7.0717424e-06 -4.998222e-05 2.8067945e-05 -1.7294267e-05
0000d0 1a 44 2a b8 2a 1e 2c b7 2e 16 11 39 5a c7 82 b8
       -4.0594583e-05 -1.0259022e-05 0.0001383654 -6.236015e-05
0000e0 1f 60 28 b8 9c 4b 38 b7 5b 82 0d 39 b9 25 82 b8
       -4.014384e-05 -1.0984859e-05 0.00013495369 -6.2059094e-05
0000f0 80 b1 21 b8 cc eb 07 b7 3b b1 0b 39 ec 00 82 b8
       -3.85507e-05 -8.101528e-06 0.00013322096 -6.199055e-05
000100 d0 67 0f 38 b8 da 5e 36 82 5a 90 37 ef 78 91 b8
       3.419054e-05 3.320789e-06 1.7208284e-05 -6.9366644e-05
000110 22 70 07 38 36 82 3e 36 61 89 93 37 f1 2c 8e b8
       3.229094e-05 2.8388e-06 1.7587738e-05 -6.7794586e-05
000120 9f c4 06 38 e0 d1 07 36 38 1e 8c 37 79 62 8c b8
       3.2131207e-05 2.023873e-06 1.6703372e-05 -6.694062e-05
000130 73 f7 06 38 4d 9e 20 37 db ff 19 37 c7 1b 04 38
       3.2178545e-05 9.5736e-06 9.179082e-06 3.1497122e-05
000140 33 4a 4c b8 50 36 01 38 db b9 0b 37 ee ef 06 38
       -4.8706494e-05 3.080658e-05 8.3283185e-06 3.217154e-05
000150 e2 15 4b b8 44 45 ff 37 aa 79 fe 36 e7 12 07 38
       -4.841935e-05 3.0430623e-05 7.5839534e-06 3.2204112e-05
000160 2f 03 4c b8 66 35 01 38 e4 43 af 36 e4 65 09 37
       -4.8640355e-05 3.0805728e-05 5.22331e-06 8.18956e-06
000170 62 ca fe b6 54 db 87 37 0c 04 14 b7 d1 65 0e 37
       -7.5933503e-06 1.6195387e-05 -8.82243e-06 8.4875655e-06
000180 4d 1f 03 b7 2e f5 81 37 3e ad 12 b7 7a be 14 37
       -7.815496e-06 1.5492169e-05 -8.742614e-06 8.865836e-06
000190 e6 72 ff b6 64 29 7d 37 1d 76 13 b7 3a 01 9e b6
       -7.612968e-06 1.5089612e-05 -8.789383e-06 -4.7089097e-06
0001a0 c0 05 cc b7 cd a4 53 b8 0d 31 7c 39 68 5f 10 b9
       -2.4321373e-05 -5.0459803e-05 0.00024050866 -0.00013768452
0001b0 5a 7c be b7 8c 53 5b b8 52 36 76 39 4b dc 0f b9
       -2.270767e-05 -5.2291478e-05 0.00023480624 -0.00013719608
0001c0 0b 9d a4 b7 c1 93 4b b8 11 11 73 39 cf de 0f b9
       -1.9623452e-05 -4.8536578e-05 0.00023180644 -0.00013720545
0001d0 4e 9a 8a b7 bd 94 12 37 d4 37 60 38 8c f7 4a b9
       -1.6522736e-05 8.736909e-06 5.3457756e-05 -0.0001935644
0001e0 25 c5 b2 38 5d e5 f3 36 0f f0 62 38 fd 82 45 b9
       8.5244224e-05 7.2686657e-06 5.410617e-05 -0.00018836181
0001f0 79 82 b1 38 32 b6 97 36 e7 a5 53 38 42 96 42 b9
       8.46432e-05 4.521361e-06 5.046083e-05 -0.00018557257
000200 67 b1 b1 38 6b 12 23 b6 70 7d 34 37 db 23 1d 37
       8.4730615e-05 -2.4299613e-06 1.0758042e-05 9.3662775e-06
000210 15 34 f4 b7 68 83 9c 37 91 4c 2a 37 05 c8 18 37
       -2.911132e-05 1.865784e-05 1.0150617e-05 9.106477e-06
000220 d0 88 ed b7 1e 25 9c 37 02 85 1d 37 3e e4 07 37
       -2.831631e-05 1.8613933e-05 9.3888975e-06 8.099769e-06
000230 0d 94 ea b7 35 8f 9c 37 85 aa 40 b6 cb 21 64 b8
       -2.7963915e-05 1.8663335e-05 -2.8709485e-06 -5.439091e-05
000240 02 74 af b8 f7 7a b7 39 4a 6f 4b b9 b3 70 5b b8
       -8.3662584e-05 0.00034996096 -0.00019401047 -5.2318628e-05
000250 28 69 b4 b8 ac a6 b3 39 56 a7 4a b9 5f f7 48 b8
       -8.602656e-05 0.0003426572 -0.00019326559 -4.7914098e-05
000260 4c 7b a8 b8 b1 a6 b1 39 d4 af 4a b9 5d db be b7
       -8.03383e-05 0.00033884266 -0.00019329722 -2.2751914e-05
000270 47 71 e1 36 dc fe 1f 38 a9 99 e1 b8 aa ab 55 38
       6.7187098e-06 3.814591e-05 -0.000107574575 5.0943032e-05
000280 90 6f c5 36 c3 d8 22 38 3a b6 db b8 91 78 54 38
       5.884045e-06 3.8825685e-05 -0.00010476676 5.0657025e-05
000290 d2 05 93 36 b9 5f 1b 38 b6 93 d8 b8 a3 b5 54 38
       4.381619e-06 3.704403e-05 -0.00010327196 5.07139e-05
0002a0 ec 66 3e 36 c1 22 90 38 2d 45 42 37 b5 10 51 b9
       2.8372115e-06 6.8729285e-05 1.1579407e-05 -0.00019938017
0002b0 c4 9b e6 38 63 50 8f 38 e5 58 4f 37 34 f2 4d b9
       0.00010996268 6.8337446e-05 1.2358859e-05 -0.00019640551
0002c0 77 20 e6 38 57 ef 8b 38 06 00 1b 37 7b 78 4c b9
       0.00010973302 6.672617e-05 9.238725e-06 -0.00019499839
0002d0 a1 be e5 38 38 18 39 b7 e6 72 b2 b5 45 a6 b2 b7
       0.00010955078 -1.1032498e-05 -1.3295473e-06 -2.1296679e-05
0002e0 e8 fd e1 38 56 1b 62 b8 9f a3 06 b5 12 63 b9 b7
       0.0001077613 -5.3908057e-05 -5.015699e-07 -2.2099852e-05
0002f0 ba f3 dc 38 30 12 61 b8 4c 4b 53 35 59 1a af b7
       0.00010535815 -5.366112e-05 7.8713197e-07 -2.0873895e-05
000300 5d 38 da 38 33 67 61 b8 88 98 9b b7 dc af 8e 38
       0.000104055485 -5.3740292e-05 -1.8548468e-05 6.803844e-05
000310 bb 1a 8d 37 37 c6 3d b9 75 11 d8 38 d1 12 8e 38
       1.6820957e-05 -0.00018098285 0.00010302934 6.7745925e-05
000320 fa ae 93 37 ed b5 3a b9 12 b0 d7 38 6c d1 8a 38
       1.7605245e-05 -0.00017806115 0.000102847946 6.619361e-05
000330 0d 28 72 37 73 43 39 b9 be 41 d7 38 96 62 9b b7
       1.4433649e-05 -0.00017668102 0.00010264244 -1.8523348e-05
000340 3a ed 8c b7 dc 48 3f b8 6d 2e 5e 39 f1 64 eb b8
       -1.6799768e-05 -4.5605804e-05 0.00021188865 -0.00011224475
000350 72 7b 80 b7 c3 05 46 b8 11 07 59 39 00 7c ea b8
       -1.5316273e-05 -4.7212245e-05 0.00020697365 -0.00011181086
000360 31 08 55 b7 c4 24 39 b8 77 4b 56 39 9f 8f ea b8
       -1.2697697e-05 -4.4141678e-05 0.00020436743 -0.00011184741
000370 a4 2d 88 b7 79 96 0a 37 eb 19 78 33 19 1d e7 b7
       -1.6233716e-05 8.260476e-06 5.7765572e-08 -2.7550896e-05
000380 d3 49 52 37 f1 f4 08 37 5a c3 2a 34 3f ac e3 b7
       1.2534164e-05 8.163262e-06 1.5903552e-07 -2.7140717e-05
000390 bb 86 51 37 45 fb 04 37 bc 6b 74 b4 0c ff e1 b7
       1.248874e-05 7.926316e-06 -2.2763464e-07 -2.6940856e-05
0003a0 75 60 51 37 5b 54 12 b6 a7 11 32 38 24 14 87 38
       1.2479829e-05 -2.1804797e-06 4.2454947e-05 6.441053e-05
0003b0 81 96 84 b9 33 26 fc 38 c6 48 2a 38 f2 e2 87 38
       -0.00025289136 0.000120234115 4.0598934e-05 6.4795735e-05
0003c0 d6 a6 81 b9 19 dd fa 38 96 8a 1c 38 49 6c 7c 38
       -0.000247291 0.000119621116 3.7322367e-05 6.018233e-05
0003d0 1e 1d 80 b9 6e 7e fa 38 4c 42 2e 37 5c f8 bc 38
       -0.00024435756 0.00011944478 1.0386644e-05 9.010799e-05
0003e0 7f 55 df 37 1b d3 77 b9 1d 36 0c 39 d6 53 bc 38
       2.6623484e-05 -0.00023634399 0.00013371599 8.980154e-05
0003f0 b9 e6 e7 37 5d a0 73 b9 f3 f2 0b 39 66 00 b8 38
       2.7644784e-05 -0.00023234026 0.00013346579 8.773878e-05

exp_avg_sq f4 [64, 13]
000000 99 a8 b9 32 1a 4d 31 32 11 fa 2b 34 f2 d0 d2 32
       2.1613504e-08 1.0320287e-08 1.601659e-07 2.4542235e-08
000010 0e b1 c3 32 c9 e0 3f 32 cd 48 2c 34 56 ed d2 32
       2.2781503e-08 1.11687735e-08 1.6045233e-07 2.4555145e-08
000020 78 68 cb 32 cd 60 48 32 d1 47 2c 34 ce df d2 32
       2.3679817e-08 1.1663542e-08 1.6044875e-07 2.4548992e-08
000030 bb 4f 3d 33 78 02 0a 32 dc 5c 81 31 ce 66 6f 33
       4.4077506e-08 8.0332185e-09 3.764951e-09 5.5740024e-08
000040 ac 05 16 32 3c 31 12 32 19 99 8e 31 70 f6 6f 33
       8.732439e-09 8.509513e-09 4.150149e-09 5.5870657e-08
000050 bd 15 16 32 d6 8e 18 32 1e b4 95 31 e9 17 70 33
       8.736092e-09 8.880042e-09 4.3569477e-09 5.59011e-08
000060 39 11 16 32 f8 22 0e 33 b0 8e b1 33 c1 3d 6e 33
       8.735065e-09 3.3093755e-08 8.2681595e-08 5.5469858e-08
000070 64 d5 3b 35 8e b3 fb 33 fa fb b8 33 84 3b 85 33
       6.997345e-07 1.1720759e-07 8.614002e-08 6.204121e-08
000080 9d fd 3b 35 8e b5 fb 33 c5 cc be 33 31 38 8e 33
       7.0031984e-07 1.1721123e-07 8.884812e-08 6.6226114e-08
000090 83 f8 3b 35 86 b3 fb 33 55 70 8f 34 81 69 c1 30
       7.002456e-07 1.17207534e-07 2.6717558e-07 1.4072584e-09
0000a0 56 30 95 30 73 a8 42 32 a2 87 f1 30 b7 05 cc 30
       1.0854915e-09 1.1330587e-08 1.7573607e-09 1.4844578e-09
0000b0 52 0e a6 30 3f 09 43 32 b2 96 f1 30 61 0c d4 30
       1.208216e-09 1.1352596e-08 1.7577888e-09 1.5428548e-09
0000c0 9a cd af 30 77 12 43 32 2a 94 f1 30 8e 98 7b 31
       1.2791361e-09 1.1354692e-08 1.7577169e-09 3.6612025e-09
0000d0 67 30 9d 32 71 6c 6b 32 10 ce 0f 34 dc 8a ae 32
       1.8299216e-08 1.3703457e-08 1.3392878e-07 2.0319412e-08
0000e0 ed b3 a7 32 70 3d 84 32 5c 2a 10 34 c2 9b ae 32
       1.952318e-08 1.5394761e-08 1.3426455e-07 2.0327096e-08
0000f0 d4 92 af 32 12 db 8b 32 b9 38 10 34 96 97 ae 32
       2.0439451e-08 1.6281351e-08 1.343168e-07 2.03252e-08
000100 16 52 81 33 c5 46 19 31 89 c5 27 31 66 fe 53 32
       6.021962e-08 2.2304658e-09 2.4413984e-09 1.233966e-08
000110 7d 86 08 31 c2 bf 24 31 03 1f 3e 31 f7 34 54 32
       1.9867052e-09 2.3974143e-09 2.7666267e-09 1.2352067e-08
000120 59 b7 08 31 46 f1 2c 31 b2 c6 48 31 3e 24 54 32
       1.9894826e-09 2.5166442e-09 2.9216776e-09 1.2348265e-08
000130 42 a2 08 31 52 dc 88 31 9e 2b ac 32 9e fd 23 32
       1.9882838e-09 3.9831685e-09 2.004327e-08 9.545515e-09
000140 15 ac 3c 34 fb 79 fa 32 16 14 ad 32 7a b0 25 32
       1.7571467e-07 2.91593e-08 2.0148985e-08 9.64439e-09
000150 49 b3 3c 34 a0 af fa 32 51 d1 ad 32 61 82 26 32
       1.7574088e-07 2.9183695e-08 2.0235037e-08 9.692116e-09
000160 0b bb 3c 34 c5 94 fa 32 f7 46 0c 33 c8 a9 28 32
       1.757691e-07 2.9171483e-08 3.2660832e-08 9.817491e-09
000170 5d af 19 32 6b 7a 7e 33 4a 8c 1c 32 e0 bf 36 32
       8.945645e-09 5.9250322e-08 9.112293e-09 1.0637422e-08
000180 5d c2 31 32 3d 30 7f 33 b9 8c 1c 32 74 f3 40 32
       1.0346949e-08 5.9415687e-08 9.112392e-09 1.1231226e-08
000190 1f 9b 3c 32 35 72 7f 33 e7 a1 1c 32 4e 6c 80 33
       1.0978311e-08 5.9475685e-08 9.117207e-09 5.980165e-08
0001a0 3b ed 2c 33 99 06 a6 32 05 c3 9c 34 42 62 47 33
       4.026263e-08 1.9327944e-08 2.919916e-07 4.6422663e-08
0001b0 95 9c 36 33 ec a7 b4 32 ed 0f 9d 34 32 80 47 33
       4.2517588e-08 2.103112e-08 2.9255116e-07 4.644989e-08
0001c0 86 1e 3e 33 be 2c bd 32 e7 16 9d 34 d5 74 47 33
       4.4265583e-08 2.2022842e-08 2.9260192e-07 4.6439556e-08
0001d0 89 da ee 33 75 f1 d0 32 fc 1d 23 32 c4 74 2a 34
       1.112249e-07 2.4324189e-08 9.494666e-09 1.5874963e-07
0001e0 e8 88 d8 32 98 b4 dc 32 3d 53 2e 32 58 b1 2a 34
       2.5207967e-08 2.5693495e-08 1.0147059e-08 1.5897001e-07
0001f0 9d bb d8 32 a6 cc e5 32 7e e7 34 32 96 ad 2a 34
       2.5231026e-08 2.6752172e-08 1.0530014e-08 1.5895634e-07
000200 44 98 d8 32 96 6c 3c 33 d1 48 ed 31 fd e0 9d 31
       2.5214952e-08 4.387092e-08 6.905886e-09 4.5948796e-09
000210 7e f4 70 33 eb 9a 1c 32 4d c5 fa 31 5f 6e b2 31
       5.610172e-08 9.115619e-09 7.298388e-09 5.1930296e-09
000220 b8 61 71 33 d0 93 1c 32 88 a3 02 32 49 18 bd 31
       5.620106e-08 9.114004e-09 7.604179e-09 5.503385e-09
000230 76 82 71 33 96 ae 1c 32 29 80 55 33 8e b9 7f 33
       5.623084e-08 9.120091e-09 4.9709488e-08 5.9540575e-08
000240 d9 69 03 33 a0 fb fb 34 ff f9 a5 33 a7 a4 85 33
       3.0597082e-08 4.6935475e-07 7.728885e-08 6.223245e-08
000250 ac b8 0f 33 bd 3b fc 34 66 1e a6 33 ce 17 8a 33
       3.346274e-08 4.6982123e-07 7.735507e-08 6.430456e-08
000260 49 65 17 33 74 2b fc 34 34 0a a6 33 5e f1 04 34
       3.5249546e-08 4.6970274e-07 7.731833e-08 1.2381267e-07
000270 e3 01 13 32 16 40 c9 31 f5 b8 57 33 4a 27 06 32
       8.556955e-09 5.8571556e-09 5.0226806e-08 7.80876e-09
000280 ac 8d 1d 32 15 35 e0 31 d1 22 58 33 9b 47 06 32
       9.170815e-09 6.5252928e-09 5.0323084e-08 7.816108e-09
000290 d8 58 25 32 a0 aa eb 31 b2 24 58 33 9e 3b 06 32
       9.624465e-09 6.858798e-09 5.0324793e-08 7.813382e-09
0002a0 0d 63 64 32 af ff 39 32 3d 32 f3 31 8b 1d b7 33
       1.3293868e-08 1.0826553e-08 7.0779422e-09 8.5269754e-08
0002b0 ac 3f 76 32 65 f7 42 32 1b f5 07 32 64 3b b7 33
       1.4333562e-08 1.1348537e-08 7.913765e-09 8.532405e-08
0002c0 ce 4a 76 32 89 b8 49 32 a6 a9 10 32 c7 2c b7 33
       1.4336093e-08 1.1741698e-08 8.420477e-09 8.5297465e-08
0002d0 bc 39 76 32 9a fd ca 32 e2 b9 dd 31 73 5c b3 31
       1.4332212e-08 2.363122e-08 6.453079e-09 5.220096e-09
0002e0 1d 15 0b 33 8b 95 a5 31 1c 7a ef 31 fa 88 cc 31
       3.2382662e-08 4.819133e-09 6.9696977e-09 5.952754e-09
0002f0 42 6b 0b 33 7a cb a5 31 a0 3d fc 31 98 80 d9 31
       3.246101e-08 4.8252646e-09 7.3411712e-09 6.3301506e-09
000300 d5 71 0b 33 33 cb a5 31 22 2e 01 32 11 66 fc 31
       3.246699e-08 4.825233e-09 7.519278e-09 7.345769e-09
000310 c8 b3 a3 31 33 2f 76 33 55 6d 13 32 5d 25 05 32
       4.764363e-09 5.7319266e-08 8.581385e-09 7.750114e-09
000320 ee f9 b4 31 5e 80 76 33 ed 79 13 32 d9 47 0a 32
       5.267103e-09 5.7393088e-08 8.584249e-09 8.0489935e-09
000330 fe df bf 31 1d 66 76 33 20 74 13 32 42 c1 7b 32
       5.5842966e-09 5.736921e-08 8.58293e-09 1.4654065e-08
000340 58 c9 bc 32 9b 31 31 32 9e 68 2d 34 5c c1 de 32
       2.1977641e-08 1.0314035e-08 1.614994e-07 2.5932131e-08
000350 e6 68 c6 32 47 45 40 32 af b2 2d 34 f2 ef de 32
       2.3097936e-08 1.1191623e-08 1.6176885e-07 2.5953316e-08
000360 62 f7 cd 32 32 6d 49 32 52 b4 2d 34 db d9 de 32
       2.3977638e-08 1.1724568e-08 1.617748e-07 2.594327e-08
000370 c4 5f 4c 33 dd 00 95 2f 26 28 d0 2f 61 85 05 31
       4.758455e-08 2.7103556e-10 3.7863507e-10 1.9429864e-09
000380 0d d8 a9 2f 26 b7 a0 2f 2b b9 ed 2f 74 ab 05 31
       3.0894434e-10 2.9233965e-10 4.324162e-10 1.9451507e-09
000390 97 e0 a9 2f a2 df a8 2f cc a4 fb 2f ef aa 05 31
       3.0900502e-10 3.0717923e-10 4.577373e-10 1.9451212e-09
0003a0 f1 e8 a9 2f a0 6a 40 30 9d 8a 0b 33 89 6c 54 32
       3.0906436e-10 7.0000716e-10 3.2489528e-08 1.2364702e-08
0003b0 ec c0 6e 34 f6 2a 19 33 54 7c 13 33 bb 66 65 32
       2.2235662e-07 3.566216e-08 3.433918e-08 1.33529126e-08
0003c0 fe 17 6f 34 cc 41 19 33 cb a2 19 33 54 4c 6f 32
       2.2267338e-07 3.568293e-08 3.5771148e-08 1.3928986e-08
0003d0 aa 12 6f 34 1f 2e 19 33 ac 29 8d 33 c9 e0 c1 32
       2.22654e-07 3.5665035e-08 6.573404e-08 2.2570378e-08
0003e0 b3 b1 6d 32 3d b2 3c 34 da c8 f1 32 5e 74 cb 32
       1.383562e-08 1.7573707e-07 2.814743e-08 2.3685228e-08
0003f0 cf 42 84 32 7c 0a 3d 34 50 d4 f1 32 c5 cf d2 32
       1.5397204e-08 1.7605811e-07 2.8152641e-08 2.45417e-08

exp_avg f4 [64]
000000 17 55 19 b9 3d 5e 43 b8 63 8d d6 39 97 73 3d 38
       -0.00014622915 -4.657939e-05 0.00040922602 4.5168763e-05
000010 28 2b d2 b8 5e f5 5a 38 30 e8 56 38 f2 26 70 b7
       -0.00010021619 5.2203766e-05 5.1237817e-05 -1.4314182e-05
000020 88 d5 67 b9 1b a4 10 39 2f 54 fc 37 f2 56 a3 b9
       -0.00022109423 0.00013794044 3.0079942e-05 -0.00031154562
000030 dd 1f ad 38 54 6a 38 39 4f c7 b6 b8 74 c0 2c 39
       8.255218e-05 0.00017587218 -8.7155604e-05 0.00016474893
000040 f6 0f 3d b9 4f 66 a9 37 3a c0 4a 39 13 2c 60 39
       -0.0001803039 2.0194011e-05 0.00019335831 0.00021378724
000050 3b 02 20 39 bd 4f b9 b8 6e 1f c6 37 3b ee 7a 38
       0.0001525962 -8.83634e-05 2.3618075e-05 5.9826514e-05
000060 d8 a2 6c b8 13 76 3b 39 b0 55 0e b9 4b 92 2e b9
       -5.6418445e-05 0.00017877696 -0.00013574096 -0.00016648431
000070 dc b0 62 b7 f0 fe fc b8 32 92 3d 39 6d 78 76 39
       -1.3511828e-05 -0.00012063782 0.00018078907 0.0002350525
000080 30 ee 0d b8 79 a6 8e b8 7e 1a 2a 39 96 f8 30 b6
       -3.383885e-05 -6.8020956e-05 0.00016222332 -2.637074e-06
000090 a8 3e 04 b9 93 bc 78 b8 77 9e 84 b9 4b 12 45 b9
       -0.00012611842 -5.930343e-05 -0.00025295067 -0.00018794199
0000a0 48 c1 e3 b8 22 54 d0 b7 18 0e 68 b9 95 e0 da b8
       -0.00010860205 -2.483471e-05 -0.00022130494 -0.00010436882
0000b0 ec 59 ae b6 0c f4 33 b9 13 89 86 b9 f4 09 80 39
       -5.1960724e-06 -0.00017161685 -0.000256606 0.00024421478
0000c0 0e 22 6c b8 7b cc 91 b8 96 d7 de 38 e8 0d 9b b7
       -5.62985e-05 -6.952226e-05 0.00010625941 -1.8483915e-05
0000d0 8e 8d d1 b8 71 41 c5 39 52 29 19 39 52 e1 4e 39
       -9.992263e-05 0.00037623526 0.0001460661 0.0001972963
0000e0 e1 d7 5a 39 66 3c 5a 36 49 f9 9b 39 22 f5 d7 b8
       0.00020870521 3.2519688e-06 0.00029749636 -0.000102976584
0000f0 07 60 9c b8 25 34 4b 38 96 ae d1 37 54 d3 1d b9
       -7.456546e-05 4.8447535e-05 2.499604e-05 -0.00015051413

exp_avg_sq f4 [64]
000000 fc 71 87 33 e3 b7 c0 32 1c 8f a1 34 51 1b 9b 31
       6.307161e-08 2.2435364e-08 3.0092713e-07 4.5141992e-09
000010 f7 19 60 33 a8 e8 ae 31 10 be a0 33 fa cb c8 32
       5.217768e-08 5.0905165e-09 7.485153e-08 2.3375822e-08
000020 d5 14 00 34 e5 f4 8a 33 3e 50 c9 32 8a 41 55 34
       1.1928508e-07 6.470672e-08 2.343597e-08 1.9861014e-07
000030 57 40 ac 32 b7 19 1e 33 38 d6 54 32 9b 51 bd 32
       2.0052694e-08 3.681063e-08 1.2388732e-08 2.2039606e-08
000040 fb 1b 8f 33 ab dc 59 30 5c b5 c4 33 4f 3e 9b 33
       6.664046e-08 7.925773e-10 9.15995e-08 7.229084e-08
000050 17 69 63 33 e1 fa 34 33 5d 0e 97 31 89 8b de 32
       5.2948135e-08 4.213769e-08 4.3963113e-09 2.5907655e-08
000060 24 ba b7 32 93 42 ca 33 1d ba 8c 33 28 fe 8d 33
       2.138865e-08 9.418468e-08 6.553112e-08 6.612055e-08
000070 c0 dd 79 30 d7 10 50 33 f3 ab 1f 34 04 4a 3b 34
       9.09008e-10 4.844409e-08 1.4870584e-07 1.7442659e-07
000080 a0 b0 cc 32 a2 30 41 32 dd fb 56 33 f2 92 df 30
       2.3829045e-08 1.1245136e-08 5.0054826e-08 1.626715e-09
000090 a8 07 91 33 87 25 49 31 b0 e5 27 34 60 7c 56 34
       6.753481e-08 2.9270681e-09 1.5636647e-07 1.997555e-07
0000a0 7b 7c f0 32 6c fc d0 30 c9 06 d2 33 71 02 22 33
       2.7996284e-08 1.5205734e-09 9.780121e-08 3.7720785e-08
0000b0 2c 85 c5 31 62 cc d6 33 e8 03 4c 34 c8 1c ed 33
       5.7485945e-09 1.00023286e-07 1.9000402e-07 1.1041408e-07
0000c0 b0 44 25 31 e8 e9 30 31 24 d9 27 33 f5 8a 88 33
       2.4049704e-09 2.5744331e-09 3.9080206e-08 6.3582696e-08
0000d0 09 60 83 33 c2 f0 83 34 11 a3 b9 33 02 29 06 34
       6.1176316e-08 2.4575826e-07 8.6443954e-08 1.2494641e-07
0000e0 21 97 59 34 67 e7 be 31 09 bd 65 34 f3 6a 6c 33
       2.026468e-07 5.556035e-09 2.1396058e-07 5.50453e-08
0000f0 c6 38 7a 32 c1 d4 1f 32 db 3c 49 32 42 ad 4e 33
       1.4564824e-08 9.303393e-09 1.1713577e-08 4.812069e-08
