src/scripts/ddpg/weights/actor.pth (torch, 69039 bytes, 18 tensors)

linear_input.weight f4 [64, 13]
0	0xbecef308	-0.40419793
1	0x3eb45729	0.35222748
2	0xbe1d7c7b	-0.15379517
3	0x3ee20f0c	0.44152105
4	0xbec9e1e9	-0.39430168
5	0xbc043dcd	-0.008071375
6	0x3e06626e	0.13123485
7	0x3ed27eea	0.41112453
8	0xbe890b03	-0.26766214
9	0x3e81b9ba	0.2533701
10	0xbe2f6bbf	-0.17130946
11	0x3e827a5a	0.25483972
12	0x3e4adc92	0.19810703
13	0xbe93db10	-0.2887807
14	0xbda66953	-0.08125558
15	0xbd2f06a6	-0.04273095
16	0x3b46ad6c	0.003031577
17	0xbeaafc15	-0.33395448
18	0xbe00668f	-0.12539123
19	0xbe2913da	-0.16511479
20	0xbe0fc660	-0.14040518
21	0xbed68e0e	-0.41905254
22	0x3ea99c36	0.33126992
23	0xbd25781b	-0.040397745
24	0x3e3c7c4f	0.18406795
25	0x3ececc6f	0.40390345
26	0x3eaf40cd	0.34229127
27	0x3e6f1fd2	0.23351982
28	0x3ea66aad	0.32503262
29	0xbe66ab9a	-0.22526398
30	0xbe0cded5	-0.13756879
31	0x3e79266d	0.24331065
32	0x3dd30ce2	0.103051916
33	0xbdc341d2	-0.095340386
34	0x3c5adceb	0.013358335
35	0xbd21253f	-0.03934216
36	0xbe13f7e8	-0.14450037
37	0xbe1e0d0c	-0.15434664
38	0x3ea718f9	0.3263624
39	0x3e8281d6	0.25489682
40	0x3e56af23	0.20965247
41	0x3e2b2a9a	0.1671547
42	0x3da1a643	0.0789304
43	0xbc5fc979	-0.013658875
44	0x3e81a8f9	0.25324228
45	0xbcfccea9	-0.030860262
46	0x3e1e1049	0.154359
47	0xbd96bc02	-0.073600784
48	0x3e3818e4	0.17978245
49	0x3c9bbde2	0.019011442
50	0xbe53de37	-0.20690237
51	0x3f0e098b	0.5548331
52	0xbe22cda6	-0.15898761
53	0x3e170eea	0.14751783
54	0xbd7b76df	-0.06139266
55	0xbe9af248	-0.3026297
56	0x3ec48d14	0.38388884
57	0xbe6dfe02	-0.23241428
58	0xbe6bcf02	-0.23028186
59	0xbe516ce6	-0.20451698
60	0x3e98335d	0.29726687
61	0x385acf18	5.216812e-05
62	0xbe85fe6a	-0.26170665
63	0xbe42944c	-0.19001883
64	0x3d01e63e	0.031713717
65	0x3e07352a	0.13203874
66	0x3e96393f	0.2934055
67	0x3d9a144d	0.07523403
68	0x3d727362	0.05919207
69	0x3d189963	0.037255656
70	0xbd0bfe91	-0.03417832
71	0x3e4cc25e	0.1999602
72	0x3d50caad	0.050974537
73	0x3e85c46a	0.26126415
74	0x3ec19440	0.37808418
75	0x3e5939fa	0.21213523
76	0x3e951d04	0.291237
77	0x3ea2192a	0.31659824
78	0x3ea67d6b	0.3251756
79	0x3e847234	0.2586838
80	0x3d2496d8	0.04018292
81	0xbd651ea3	-0.05593742
82	0x3e51300b	0.20428483
83	0x3e60464b	0.21901815
84	0xbe8d6498	-0.2761581
85	0xbc1bfe95	-0.009521146
86	0x3d566435	0.05234166
87	0xbe2aaf1a	-0.16668358
88	0x3e00364c	0.12520713
89	0xbe5fe7e6	-0.21865806
90	0x3e3b5f05	0.18297966
91	0x3d6e16c4	0.05812718
92	0xbe319e14	-0.17345458
93	0x3e52f74c	0.20602149
94	0x3c8bce33	0.017066097
95	0xbe25de0b	-0.16197984
96	0x3bd4b94c	0.0064918157
97	0x3db6103a	0.08889814
98	0x3ebbfca2	0.3671618
99	0x3e5a29d2	0.21305016
100	0x3ebebee8	0.37255025
101	0x3df10e70	0.11770332
102	0x3e81098b	0.25202593
103	0x3e6755f0	0.22591376
104	0xbe412cef	-0.18864797
105	0xbc94e7bf	-0.018176911
106	0x3dcce0f6	0.100038454
107	0x3eb910df	0.36145684
108	0x3e500ddc	0.20317787
109	0xbe69e457	-0.22841011
110	0xbe05b69d	-0.13057943
111	0x3eac8572	0.3369556
112	0xbdb53147	-0.088472895
113	0x3ca58715	0.020206014
114	0x3e1d1414	0.1533969
115	0x3e11d043	0.14239602
116	0xbeaf3eb7	-0.34227535
117	0x3e963ef9	0.2934492
118	0x3d888f96	0.06668012
119	0xbc84ae16	-0.016196292
120	0xbdac3158	-0.08407849
121	0xbdac6dae	-0.08419357
122	0xbe162eae	-0.14666244
123	0x3db7c8f4	0.08973876
124	0x3e86ccda	0.26328164
125	0x3e391ec4	0.18078142
126	0xbed088d9	-0.40729406
127	0xbd94cbc9	-0.072654314
128	0x3dd3987f	0.10331821
129	0xbf195ea3	-0.5991003
130	0x3e828deb	0.254989
131	0x3e4cf0fa	0.200138
132	0x3e26c19e	0.16284797
133	0xbde818e0	-0.113328695
134	0xbd9bb6d0	-0.07603228
135	0xbe3cd3df	-0.18440197
136	0xbe5889f0	-0.21146369
137	0x3dde2cf2	0.108484164
138	0xbe3c7c83	-0.18406872
139	0xbdee15db	-0.11625262
140	0xbe42bc6f	-0.19017194
141	0xbe2f073a	-0.170926
142	0xbf0a017a	-0.53908503
143	0x3dcb74a2	0.09934355
144	0x391812e1	0.00014502883
145	0xbd6cf083	-0.057846557
146	0x3e1c4ffb	0.15264885
147	0x3eb8eb4e	0.36117023
148	0x3d25235a	0.040316917
149	0x3d9dd3ed	0.07706437
150	0xbe9691a3	-0.29407987
151	0x3ed5c50f	0.41751906
152	0xbec9f6a0	-0.39445972
153	0xbe9c3949	-0.30512455
154	0xbe8cc91e	-0.2749719
155	0x3eaaf28f	0.33388183
156	0x3f0fc452	0.56158936
157	0x3e6132e5	0.21992071
158	0x3e2e52d7	0.17023788
159	0x3d0e8284	0.03479244
160	0x3dcfd174	0.10147372
161	0x3f0b32bf	0.5437431
162	0x3cb64210	0.022248298
163	0x3e955d48	0.2917273
164	0x3ccb4990	0.02481535
165	0x3f30f10a	0.69117796
166	0x3e846e92	0.25865608
167	0x3ee432a4	0.44569886
168	0x3e0dbc4f	0.13841365
169	0xbd87d1fc	-0.06631848
170	0xbdb50495	-0.088387646
171	0xbe3f9ced	-0.18712206
172	0x3e0c2373	0.13685398
173	0x3e0c89d8	0.13724458
174	0xbe225ce7	-0.15855752
175	0xbe23f853	-0.16012697
176	0x3e568cdc	0.20952171
177	0x3e09f4a2	0.13472226
178	0x3c4f82b8	0.012665443
179	0xbde8810d	-0.113527395
180	0xbe800687	-0.2500498
181	0x3ec1d08a	0.37854415
182	0x3d021410	0.031757414
183	0xbda44ae7	-0.08022099
184	0xbdd041fa	-0.10168834
185	0xbe3dac81	-0.18522836
186	0xbdcaadd0	-0.09896433
187	0xbdda6e51	-0.106655724
188	0x3e68c371	0.22730805
189	0x3e58741f	0.21138047
190	0x3d6194c2	0.055073507
191	0x3df48d6d	0.11941037
192	0x3e42de2a	0.19030061
193	0xbbeee902	-0.0072909603
194	0x3f048286	0.5176166
195	0x3e887bc6	0.26656932
196	0x3e8c64b4	0.2742058
197	0x3e339104	0.17535788
198	0x3e0deb93	0.13859396
199	0x3e880f8f	0.2657437
200	0x3e58a8dd	0.21158166
201	0x3eb05651	0.34440854
202	0x3dfd8031	0.12377966
203	0x3de561aa	0.112002686
204	0x3e1a735e	0.15083072
205	0x3e8ab6f9	0.27092722
206	0x3ed0341c	0.40664756
207	0x3e86e410	0.26345873
208	0x3e72156e	0.23640987
209	0x3e600965	0.21878584
210	0xbe713b34	-0.2355774
211	0x3d912c0f	0.07088482
212	0x3d019536	0.03163644
213	0x3e4c7f62	0.19970468
214	0x3de2371e	0.11045669
215	0x3bf7617f	0.0075494642
216	0x3eca66b4	0.3953148
217	0x3e4999ff	0.19687651
218	0x3d924119	0.07141323
219	0x3e083edb	0.13305227
220	0xbe0d5daf	-0.13805269
221	0x3e57abae	0.21061584
222	0xba5cfea2	-0.0008430277
223	0xbe8056ee	-0.25066322
224	0xbe09e685	-0.13466842
225	0x3e218596	0.15773615
226	0xbe4392d0	-0.19098973
227	0x3e24214b	0.16028325
228	0x3e89fad0	0.26949167
229	0x3d2a87cc	0.041633412
230	0xbe6f694a	-0.23380008
231	0xba4a11f9	-0.00077083666
232	0x3e0a2f42	0.1349459
233	0xbf2b1f63	-0.6684477
234	0xbe47ab34	-0.19498903
235	0x3deda937	0.11604541
236	0xbe71160f	-0.23543571
237	0xbe8fbc72	-0.2807346
238	0x3e829198	0.25501704
239	0x3ea74b59	0.32674673
240	0x3d6da5ea	0.058019556
241	0xbe5de34a	-0.21668735
242	0xbe0f8715	-0.14016373
243	0x3ea6b8c0	0.32562828
244	0x3d390f32	0.045180507
245	0x3ca0c99e	0.019627389
246	0x3e8eb926	0.27875632
247	0xbdb6df24	-0.089292794
248	0xbdda1a4b	-0.10649546
249	0x3e38886f	0.18020795
250	0xbd7ee583	-0.0622306
251	0xbe63ff30	-0.22265315
252	0xbe6dae98	-0.23211133
253	0xbea4861f	-0.32133576
254	0x3e2219cd	0.15830155
255	0xbdc909ba	-0.09816308

linear_input.bias f4 [64]
0	0xbda9676d	-0.0827168
1	0x3d8147d0	0.06312525
2	0xbead5f11	-0.33861592
3	0xbd9b0bed	-0.07570634
4	0xbe9a7046	-0.30163783
5	0x3f080db0	0.53145885
6	0xbe526bd0	-0.2054894
7	0xbd791066	-0.060806654
8	0x3ea60547	0.324259
9	0xbd35ba71	-0.044367258
10	0x3dd6799a	0.104724124
11	0xbe92daca	-0.28682548
12	0x3d85c177	0.06531041
13	0xbd5bf136	-0.053696834
14	0x3e7f2c2a	0.24919191
15	0x3e2955c0	0.16536617
16	0x3dfc2a1b	0.123127185
17	0xbe4d8522	-0.20070317
18	0xbe1daf1a	-0.15398827
19	0xbdc9f783	-0.09861662
20	0x3e5b78df	0.21432827
21	0xbe14172d	-0.14461966
22	0xbb252223	-0.002519735
23	0x3e2fe681	0.17177774
24	0x3e829e59	0.25511435
25	0x3e6b8d81	0.23003198
26	0x3dde5a86	0.1085711
27	0xbe83d030	-0.25744772
28	0x3ea45d1f	0.32102296
29	0xbe37dec7	-0.17956077
30	0x3b917094	0.004438469
31	0xbd047e38	-0.032346934
32	0xbddafd18	-0.10692805
33	0x3e8e3042	0.27771193
34	0xbddbeb8c	-0.107382864
35	0xbe5ae493	-0.21376257
36	0x3ea034eb	0.31290373
37	0x3ead5e00	0.3386078
38	0x3d235a63	0.03988112
39	0x3ead3ccb	0.33835444
40	0x3e326a70	0.17423415
41	0xbe2c6bb1	-0.16837956
42	0x3c8eaeaf	0.01741728
43	0xbdbe66e6	-0.0929697
44	0xbd602ac2	-0.054728277
45	0x3ddacefc	0.106840104
46	0xbe4a9856	-0.19784674
47	0x3e5382f3	0.20655422
48	0x3ec9f048	0.39441133
49	0xbe8a72ca	-0.27040702
50	0xbe7a6648	-0.2445308
51	0xbd04fb82	-0.03246642
52	0x3d2c3d4b	0.04205064
53	0x3d94501a	0.07241841
54	0x3e6c1ac8	0.23057091
55	0x3ec9bdef	0.3940272
56	0xbe1ab85a	-0.15109387
57	0x3d907f6f	0.07055556
58	0x39abbc5f	0.0003275601
59	0x3ead82df	0.3388891
60	0xbe32689d	-0.1742272
61	0x3e4e5bfe	0.2015228
62	0xbe09210c	-0.13391513
63	0xbe10547f	-0.14094733

linear_hidden.0.weight f4 [64, 64]
0	0x3f161ad4	0.58634686
1	0x3e57c601	0.21071626
2	0xbd90a335	-0.07062379
3	0x3df24853	0.11830201
4	0xbe78290f	-0.24234413
5	0x3e20709c	0.15667957
6	0xbce55f4e	-0.027999546
7	0x3d8a9336	0.067663595
8	0x3cefdf31	0.02928123
9	0xbd287a16	-0.041132055
10	0xbc1fa298	-0.009743355
11	0xbafbdf92	-0.001921641
12	0x3f056061	0.5210019
13	0xbd153365	-0.036425967
14	0x3e1969da	0.14981785
15	0x3e9b2137	0.30298778
16	0x3ddcb401	0.107765205
17	0xbdb1b07b	-0.08676239
18	0xbdc97bbf	-0.09838056
19	0x3b5ed0bc	0.0033998927
20	0x3d9cc8a1	0.076554544
21	0xbe134399	-0.14381255
22	0xbdb3cb35	-0.08778993
23	0x3ed1a3cf	0.4094529
24	0x3dd1127c	0.10208604
25	0x3dac39bc	0.084094495
26	0x3dfedc9f	0.12444424
27	0xbe2a4311	-0.16627146
28	0x3e1c3116	0.152531
29	0x3ee67da5	0.45017734
30	0x3e30810f	0.17236732
31	0x3e3fe308	0.1873895
32	0x3da6e7bf	0.08149671
33	0x3ec8fb13	0.39254054
34	0x3d53f76e	0.05174964
35	0x3da78186	0.081790015
36	0x3eca7717	0.39543983
37	0x3e4ea13b	0.20178692
38	0xbdcf4f52	-0.10122551
39	0x3ea810d9	0.32825354
40	0x3e20bd74	0.1569727
41	0xbdb963c2	-0.090522304
42	0xbc6173f4	-0.013760556
43	0x3eb8565c	0.36003387
44	0x3cc4fb5e	0.024045642
45	0x3e564df1	0.2092817
46	0x3d199a47	0.037500646
47	0xbd31cb9b	-0.043407064
48	0x3d6449ed	0.055734564
49	0x3e9c8e23	0.30577192
50	0xbdc31065	-0.095246114
51	0x3cf848b7	0.03030811
52	0x3e1042d8	0.14087999
53	0x3dad2c2a	0.08455689
54	0x3e9e4fba	0.30920202
55	0x3dc8d39e	0.09805988
56	0xbdb71012	-0.08938612
57	0xbd6fc43f	-0.058536764
58	0x3bf170e3	0.0073681935
59	0x3e5bbbb1	0.21458317
60	0xbe4777cb	-0.19479291
61	0x3ed646e2	0.41850954
62	0x3c07c46f	0.0082865795
63	0xbf04fc57	-0.5194754
64	0x3e03076a	0.12795797
65	0x3d972ce3	0.07381608
66	0xbf4fcb4a	-0.8116957
67	0xbee43249	-0.44569615
68	0x3df0a7c3	0.11750748
69	0x3e50670f	0.20351814
70	0xbd34540e	-0.044025473
71	0x3da7cade	0.08192991
72	0x3db3507f	0.08755588
73	0x3c806a81	0.015675785
74	0x3d8ab7e9	0.06773359
75	0xbdc15fc7	-0.09442096
76	0x3efbc384	0.49172604
77	0xbda6910c	-0.08133134
78	0x3b83f37d	0.004026829
79	0x3ea62c58	0.32455707
80	0x3dead848	0.114670336
81	0xbc44c9e0	-0.012011021
82	0xbdb8d690	-0.090252995
83	0x3d9943e9	0.07483656
84	0x3bb4cd64	0.0055176485
85	0x3e536673	0.2064455
86	0xbe51f6f6	-0.20504364
87	0x3dc48fe1	0.09597755
88	0x3f2cef34	0.67552495
89	0x3e39d7ea	0.18148771
90	0x3d899c52	0.06719269
91	0x3d9a0a1d	0.0752146
92	0xbd5307ae	-0.051520996
93	0xbee3947d	-0.44449225
94	0x3df726b2	0.120679274
95	0x3ce4eed5	0.027945915
96	0xbdc6471c	-0.09681532
97	0x3eb7c308	0.35890985
98	0x3e44429c	0.19166034
99	0xbdec5f31	-0.11541594
100	0x3dd63e9b	0.1046116
101	0x3ed1b8b1	0.4096122
102	0xbda46125	-0.08026341
103	0x3ddc74b6	0.10764448
104	0x3da777b1	0.08177126
105	0xbb68211d	-0.0035420128
106	0xbd11a866	-0.035560988
107	0xbdcd86ef	-0.10035502
108	0xbc911edd	-0.017714912
109	0x3eb2f6f2	0.3495403
110	0xbbc9504d	-0.006143606
111	0x3d0ae44e	0.033909135
112	0x3e04fa29	0.12986054
113	0xbec3c9f9	-0.3824003
114	0xbd55d516	-0.052205168
115	0x3d718e47	0.058973577
116	0x3dba863e	0.09107636
117	0x3cb1743f	0.021661876
118	0x3d3cddc1	0.04610992
119	0xbd5c3959	-0.05376563
120	0x3df0f98b	0.117663465
121	0x3de27a88	0.11058527
122	0xbd9252b5	-0.07144681
123	0x3e8fa826	0.28057975
124	0xbdb87528	-0.09006721
125	0x3e822808	0.25421166
126	0x3d1ef1b7	0.038804736
127	0xbe244df7	-0.16045366
128	0xbdbf1b2b	-0.09331354
129	0xbcab2f36	-0.020896535
130	0x3e10910b	0.1411783
131	0x3d2dbdcb	0.04241733
132	0x3d3fdbc4	0.046840444
133	0xbde76d09	-0.11300094
134	0xbd937245	-0.071995296
135	0x3e439d00	0.1910286
136	0xbcd5dc26	-0.026105952
137	0x3dfeaa06	0.12434773
138	0xbc988e44	-0.018622525
139	0xbda74a73	-0.08168497
140	0x3e0e5bdf	0.13902234
141	0x3d804b82	0.06264402
142	0xbcdf283c	-0.027240865
143	0x3e7cdd9b	0.24693911
144	0x3bc8a242	0.0061228583
145	0x3d1c3b8e	0.038142733
146	0xbe0191ee	-0.12653324
147	0x3d89ad3b	0.06722494
148	0xbc84c3be	-0.016206618
149	0xbed64e2b	-0.41856512
150	0x3df01a53	0.11723771
151	0x3db58fc1	0.088653095
152	0xbe92b72c	-0.28655374
153	0xbd932e8d	-0.07186613
154	0xbb9c3d54	-0.004768053
155	0x3d1ce1e4	0.038301364
156	0x3e3daef3	0.18523769
157	0x3f8207dc	1.0158648
158	0x3e0747de	0.13211009
159	0x3d2db4db	0.042408805
160	0x3dceb80b	0.10093697
161	0xbd6d82e7	-0.057986166
162	0x3d6c998e	0.05776363
163	0x3e410098	0.18847883
164	0x3e8b83e4	0.27249062
165	0xbe3ccb66	-0.18436965
166	0x3e192f1a	0.14959374
167	0x3daacfce	0.08340417
168	0x3e070345	0.13184841
169	0x3d8e0c4c	0.06935939
170	0x3d455222	0.04817403
171	0x3e863616	0.2621314
172	0x3d8e39f4	0.069446474
173	0xbdc63417	-0.09677904
174	0xbe0387d0	-0.12844777
175	0x3dab5c78	0.083672464
176	0xbd2f4da4	-0.042798653
177	0x3e75b6e2	0.23995546
178	0x3e1e1ac4	0.15439898
179	0x3d9bed0b	0.07613572
180	0x3e2696e4	0.16268498
181	0x3e008a02	0.12552646
182	0x3de60cb0	0.11232889
183	0x3db1c00e	0.0867921
184	0x3e5d510f	0.21612953
185	0x3b822a68	0.0039723404
186	0xbcec2cdc	-0.028829984
187	0x3eaeee31	0.341661
188	0x3e28fe20	0.16503191
189	0x3df23f8d	0.118285276
190	0xbdef36c0	-0.116803646
191	0xbdfd8efc	-0.12380788
192	0x3e66e45d	0.22548051
193	0x3e9c8b25	0.3057491
194	0x3e95d247	0.2926199
195	0x3e2bc121	0.16772892
196	0x3e062be3	0.13102679
197	0xbe3f4e19	-0.18682136
198	0x3ebdddf1	0.3708339
199	0x3e6b2c02	0.22966006
200	0xbe320331	-0.1738403
201	0xbdb8eae5	-0.090291776
202	0x3e380687	0.1797124
203	0x3e9780ac	0.29590356
204	0xbc394ce7	-0.011309839
205	0x3e996811	0.2996221
206	0x3e7d15f4	0.24715406
207	0xbdff657e	-0.1247053
208	0x3defbca1	0.117059
209	0x3e11865e	0.14211413
210	0x3e526bf6	0.20548996
211	0x3ee73dc7	0.4516432
212	0xbc4d0f1e	-0.012515811
213	0x3f05a62f	0.522067
214	0xbc459b28	-0.012060918
215	0x3eb5335b	0.35390744
216	0x3e08d491	0.13362338
217	0x3e92da22	0.28682047
218	0x3e5c6a58	0.21524942
219	0x3ecf6f88	0.4051478
220	0x3cd9a905	0.026569853
221	0xbd27ff84	-0.041015163
222	0x3d522ac2	0.05131031
223	0xbd89034a	-0.066900805
224	0xbd0c1ad7	-0.034205284
225	0xbe760dbf	-0.24028681
226	0x3e4788e4	0.19485813
227	0x3e471f68	0.19445574
228	0xbe798ec5	-0.24370869
229	0x3d99936c	0.074988216
230	0x3e8e1538	0.27750564
231	0x3d1f2959	0.03885779
232	0x3df56a49	0.11983163
233	0x3e977725	0.29583088
234	0x3e3746c7	0.17898093
235	0x3e802e02	0.250351
236	0x3e5b32e6	0.21406135
237	0x3e144de5	0.1448284
238	0x3ee904c4	0.45511448
239	0xbd482462	-0.048862822
240	0x3de9639a	0.113959506
241	0x3eda8131	0.4267669
242	0x3f028acf	0.50993055
243	0xbd6ec1f6	-0.058290444
244	0xbe89f744	-0.2694646
245	0x3d9e1e1e	0.07720588
246	0xbd87a4b9	-0.06623215
247	0xbdeb493d	-0.114885785
248	0x3f10d821	0.56579787
249	0x3e8b4119	0.27198103
250	0x3ea73231	0.3265548
251	0xbf194419	-0.59869534
252	0x3d07be2f	0.033140358
253	0xbebe4aa4	-0.3716632
254	0x3e9ce9e6	0.306472
255	0xbe4243cf	-0.1897118

linear_hidden.0.bias f4 [64]
0	0x3e9d980f	0.30780074
1	0x3db60d1f	0.088892214
2	0x3dd3b1e0	0.10336661
3	0xbdd4e0b2	-0.1039442
4	0x3e19ceaa	0.15020242
5	0xbd50e82d	-0.05100267
6	0x3dd5ce5a	0.10439749
7	0x3d8ae48d	0.06781874
8	0x3c1f6f33	0.009731102
9	0xbdb3e040	-0.08783007
10	0x3d08fdfe	0.03344535
11	0x3e090da5	0.13384111
12	0x3ce6435b	0.02810829
13	0x3c85dc10	0.016340286
14	0xbe039da9	-0.12853111
15	0x3e13665d	0.14394517
16	0xbdb236b6	-0.087018415
17	0xbd3ff142	-0.04686094
18	0xbd223a27	-0.03960624
19	0xbeaac952	-0.3335672
20	0xbd307987	-0.043084648
21	0xbd10b824	-0.03533186
22	0xbd45f306	-0.04832747
23	0x3e360874	0.17776662
24	0x3da8eb4f	0.082480066
25	0x3d88f726	0.06687765
26	0x3da8403d	0.082153775
27	0x3dbcc5ae	0.09217392
28	0x3e7a6505	0.24452598
29	0x3e22bb2d	0.15891714
30	0xbccc8fe7	-0.024970962
31	0xbb79d757	-0.0038122737
32	0x3e4399ed	0.19101687
33	0x3e3f3ca7	0.18675481
34	0x3c9aae25	0.018881867
35	0xbd9b4f5c	-0.07583496
36	0xbdc78968	-0.09743005
37	0xbe2dcba1	-0.1697221
38	0x3d918010	0.07104504
39	0x3db1bd5f	0.08678698
40	0x3e35c042	0.17749122
41	0xbd859a54	-0.065235764
42	0x3e0f9330	0.14020991
43	0xbda1d703	-0.07902338
44	0xbdf76336	-0.1207947
45	0xbd0eed2f	-0.034894165
46	0xbdab833d	-0.08374641
47	0x3c75d505	0.015004401
48	0x3e8eed22	0.27915293
49	0x3c8de5dd	0.017321521
50	0x3d4a5981	0.049401764
51	0xbdb465cc	-0.08808479
52	0x3d882f05	0.06649593
53	0x3e4de9f2	0.20108774
54	0x3e89d549	0.26920536
55	0xbd438214	-0.047731474
56	0xbc5bfe80	-0.013427377
57	0xbd8254a2	-0.06363799
58	0xbe294238	-0.16529167
59	0xbc2ce20f	-0.010551943
60	0x3d3ca57f	0.046056267
61	0xbd7dcb98	-0.06196174
62	0x3e425c5e	0.18980548
63	0x3e1756ec	0.14779252

linear_output.weight f4 [4, 64]
0	0x3e61018a	0.21973243
1	0x3e4eac0f	0.20182823
2	0x3da79046	0.08181815
3	0xbe27774a	-0.16354099
4	0x3c956d7c	0.018240683
5	0xbc113369	-0.008862355
6	0xbbd08757	-0.00636379
7	0x3e12164b	0.14266317
8	0xbd684144	-0.056702867
9	0xbe48caa1	-0.19608547
10	0x3e0776af	0.13228868
11	0x3d19c5f7	0.03754231
12	0x3d0fc9fb	0.035104733
13	0xbb18f3e1	-0.0023338723
14	0xbe976a8e	-0.29573482
15	0x3dd35b5e	0.10320161
16	0xbea5d33f	-0.3238773
17	0x3e053de4	0.1301189
18	0xbdbc5cc0	-0.09197378
19	0x3ed23307	0.41054556
20	0xbe571b9d	-0.21006627
21	0x3dad2bbe	0.08455609
22	0xbe863c34	-0.26217806
23	0x3e0a0c69	0.13481297
24	0xbd9b3d6b	-0.07580074
25	0xbd97a2bc	-0.07404086
26	0xbc27bfba	-0.010238582
27	0x3d2f79ce	0.04284077
28	0x3e330c52	0.17485169
29	0x3f07f6ad	0.5311077
30	0x3ddb2177	0.10699742
31	0x3cb5cb71	0.022191735
32	0x3f04e394	0.51909757
33	0x3d9f4823	0.07777431
34	0xbd7ec543	-0.062199842
35	0x3c99415e	0.018707927
36	0x3e7de5ee	0.24794742
37	0xbdc98be6	-0.09841137
38	0x3d59cf33	0.053176116
39	0x3ec99ddf	0.3937826
40	0x3ecfc0b2	0.40576702
41	0xbe194fcb	-0.14971845
42	0x3d4a462a	0.04938332
43	0xbdfa2ced	-0.122156
44	0xbd4587c5	-0.048225183
45	0xbd8d288d	-0.068925
46	0x3cad3bd2	0.021146689
47	0xbe3ccaec	-0.18436784
48	0x3e87c779	0.26519373
49	0xbc710f41	-0.0147131095
50	0x3db88f44	0.09011701
51	0x3cdcbf1a	0.026946593
52	0xbe07a448	-0.13246262
53	0x3e97ca43	0.296465
54	0x3ee25c6f	0.44211146
55	0xbd364e27	-0.044508126
56	0xbd1a5b5d	-0.037684787
57	0xbc9b9038	-0.018989667
58	0xbe896384	-0.26833737
59	0xbce6f42e	-0.028192606
60	0xbe1ec643	-0.15505318
61	0x3ba6094c	0.0050670262
62	0x3ef11baf	0.47091433
63	0x3e88050c	0.2656635
64	0x3e9f9cbe	0.31174272
65	0x3e408a7d	0.18802829
66	0x3e8cb5d3	0.2748247
67	0x3e805b66	0.2506973
68	0x3dd53c88	0.10411936
69	0x3dfe1183	0.12405684
70	0x3dfadfd8	0.12249726
71	0x3e0c1b8c	0.13682383
72	0x3dfc539a	0.12320633
73	0x3df04543	0.117319606
74	0x3f37dcdc	0.7182138
75	0x3e35617d	0.1771297
76	0x3e2e5706	0.17025384
77	0xbb0f8968	-0.002190197
78	0x3db11308	0.08646208
79	0x3e19809d	0.14990468
80	0x3d95acca	0.073083475
81	0x3ddf5649	0.109051295
82	0x3dce9b3e	0.10088204
83	0x3db8706b	0.09005817
84	0x3dc2e162	0.095156446
85	0x3dc96f98	0.09835738
86	0x3dbfc0d1	0.09362949
87	0x3df623b4	0.120185286
88	0x3e20efbb	0.1571645
89	0x3e17eee3	0.14837222
90	0x3e50d9f5	0.20395644
91	0x3e9bb6cd	0.30412903
92	0x3e170a04	0.14749914
93	0x3ded2b3c	0.11580512
94	0x3e190ec7	0.14947043
95	0x3e1cc0bd	0.15307899
96	0x3e43efc8	0.19134438
97	0x3de3119f	0.11087345
98	0x3e5807d5	0.21096738
99	0x3e63f75e	0.22262332
100	0x3e2beeb3	0.16790275
101	0x3df856dd	0.12125943
102	0x3df898e3	0.12138536
103	0x3e08e693	0.13369207
104	0x3e84cb40	0.25936317
105	0x3ded4621	0.11585642
106	0x3e0aef64	0.13567883
107	0x3e1aa326	0.15101299
108	0x3eb32ef4	0.3499676
109	0x3de8d408	0.11368567
110	0x3e1d7070	0.15374923
111	0x3e88b246	0.26698512
112	0x3f831927	1.0242051
113	0x3ded8955	0.1159846
114	0x3e73e9cb	0.23819654
115	0x3e27bde6	0.16381034
116	0x3e5006a8	0.20315039
117	0x3e22cab4	0.15897638
118	0x3e04fcce	0.12987062
119	0x3e01b300	0.1266594
120	0x3e8b48b4	0.27203906
121	0x3e409f9e	0.18810889
122	0x3e9ee1bb	0.31031594
123	0x3dbb37d6	0.09141509
124	0x3e5b2ed1	0.21404578
125	0x3e16de8c	0.14733332
126	0x3df74b4a	0.12074907
127	0x3df4e576	0.11957829
128	0x3d7f8da3	0.062390935
129	0x3d24d816	0.040245138
130	0x3d49b463	0.049244296
131	0x3f2900ca	0.6601683
132	0xbe316569	-0.17323841
133	0x3d837829	0.06419403
134	0xbe324359	-0.17408504
135	0x3b226b01	0.0024783018
136	0xbda89631	-0.08231772
137	0xbe2fd318	-0.1717037
138	0xbcd80234	-0.026368238
139	0x3d800f3e	0.06252907
140	0x3d8a42f0	0.067510486
141	0x39f213f0	0.00046172692
142	0xbe3d0d7f	-0.1846218
143	0x3d4ac50f	0.049504336
144	0xbe59166d	-0.21199961
145	0x3d2741cf	0.040834244
146	0x3d3d4b3c	0.046214327
147	0xbf127d53	-0.5722248
148	0x3e02f4f9	0.12788762
149	0x3d4a7235	0.049425323
150	0xbe712d73	-0.23552494
151	0xbd2b4f52	-0.041823693
152	0x3dd7fc2b	0.10546144
153	0x3d9f5dae	0.0778154
154	0x3dd30c19	0.10305042
155	0x3da9ddf0	0.08294284
156	0x3c7e8d1f	0.015536576
157	0xbd4d3782	-0.050101765
158	0x3d67c440	0.056583643
159	0x3d8d2931	0.06892622
160	0xbcd63f18	-0.026153132
161	0x3cebd64f	0.028788714
162	0x3e844086	0.25830477
163	0x3e034061	0.12817527
164	0xbe46771b	-0.19381373
165	0xbdf2e32d	-0.118597366
166	0x3da3ec50	0.080040574
167	0xbc76f7d2	-0.015073733
168	0xbd5daa54	-0.054117516
169	0x3e547a1c	0.20749706
170	0x3d01a4da	0.031651355
171	0x3de1eb97	0.11031263
172	0x3f006639	0.5015598
173	0x3d88e8be	0.06685017
174	0x3da96947	0.08272033
175	0x3e41e560	0.18935156
176	0xbd8865d0	-0.06660044
177	0x3dba4f3c	0.09097144
178	0x3d9388fa	0.072038606
179	0x3da3c4ce	0.07996522
180	0x3e2c0a4f	0.16800807
181	0xbda304fd	-0.07959936
182	0xbdd89071	-0.10574425
183	0x3da4b34e	0.08042012
184	0x3ead5e33	0.3386093
185	0x3f133cb2	0.5751449
186	0x3ecca841	0.39972118
187	0x3d7fa30f	0.062411364
188	0x3e93388b	0.28754076
189	0x3d0b01c7	0.033937242
190	0xbd765773	-0.06014199
191	0xbd5f2a74	-0.054483846
192	0xbd46d85a	-0.048546173
193	0x3e0e4b6a	0.13895956
194	0xbdc5b2b7	-0.09653228
195	0x3d93826e	0.07202612
196	0xbcf65524	-0.030069895
197	0xbd17a17e	-0.037019245
198	0x3da23ef6	0.07922165
199	0x3ddd1e2a	0.10796769
200	0x3d849412	0.06473555
201	0x3e8f9dc0	0.2805004
202	0xbdea569d	-0.114423014
203	0xbd48e5b5	-0.04904719
204	0xbd9fa61a	-0.07795353
205	0x3acf9a68	0.0015838863
206	0x3ddbf9c6	0.10741
207	0xbd1fb5de	-0.0389918
208	0x3e81e9ef	0.2537379
209	0xbd4cca68	-0.049997717
210	0x3dcbcb55	0.09950892
211	0x3e21b721	0.15792514
212	0xbde7056c	-0.11280331
213	0x3d852480	0.065011024
214	0xbe71b57b	-0.23604386
215	0x3de89435	0.11356393
216	0xbdb92b0a	-0.09041412
217	0xbdd809ca	-0.10548742
218	0x3d5140dd	0.05108725
219	0x3da4bd3f	0.08043908
220	0xbdc4d358	-0.09610623
221	0xbc8e03f0	-0.017335862
222	0xbd9b0b24	-0.07570484
223	0xbd6d857d	-0.057988632
224	0xbdc8796c	-0.097887844
225	0xbdcfa5ae	-0.10139023
226	0x3da41fff	0.08013915
227	0x3c72d641	0.01482159
228	0xbf584d19	-0.8449264
229	0x3e93b995	0.28852525
230	0xbd93fe09	-0.07226188
231	0xbda59975	-0.0808591
232	0xbdfb8a65	-0.12282256
233	0xbda5e841	-0.081009395
234	0xbd381f42	-0.044951685
235	0xbd538b13	-0.051646303
236	0x3d80a23c	0.06280944
237	0xbe121020	-0.14263964
238	0xbd84aeef	-0.064786784
239	0x3e2537d8	0.16134584
240	0x3e01b74d	0.1266758
241	0xbdc3a4d7	-0.09552925
242	0x3c93fc12	0.018064532
243	0xbd8684aa	-0.065682724
244	0x3e0cc37e	0.1374645
245	0xbdb58283	-0.08862784
246	0x3b64f1c3	0.003493414
247	0xbdf76f13	-0.120817326
248	0x3cf2fbef	0.029661147
249	0x3d70af72	0.058761068
250	0x3e0e3205	0.13886268
251	0xbe158754	-0.14602405
252	0x3e2eadcf	0.1705849
253	0x3d4a725b	0.049425464
254	0x3b68cf4f	0.0035523956
255	0xbde85c01	-0.11345673

linear_output.bias f4 [4]
0	0x3dfb844d	0.12281094
1	0x3db58c4f	0.08864652
2	0x3c38a9f4	0.011270989
3	0xbdc5d2de	-0.0965936

exp_avg f4 [64, 13]
0	0xb80ba4ec	-3.3293778e-05
1	0x37643ef3	1.36045155e-05
2	0x38b9ac6e	8.853605e-05
3	0xb8247474	-3.9209102e-05
4	0xb80f054a	-3.4098783e-05
5	0x37494136	1.1995717e-05
6	0x38b5ff69	8.6783264e-05
7	0xb8248310	-3.922271e-05
8	0xb81395c5	-3.5187015e-05
9	0x3726f970	9.952448e-06
10	0x38b23e6f	8.4993306e-05
11	0xb8248cad	-3.923166e-05
12	0xb8a4a515	-7.850878e-05
13	0xb8d9ded2	-0.0001038887
14	0x3828b022	4.0218358e-05
15	0x39838900	0.0002508834
16	0xb9060ad4	-0.0001278327
17	0xb8d65ed6	-0.0001022198
18	0x380a0e87	3.2915294e-05
19	0x397c1418	0.00024040078
20	0xb9060a77	-0.00012783134
21	0xb8d142b4	-9.978321e-05
22	0x37bee87c	2.2758024e-05
23	0x39712df8	0.00023000676
24	0xb9060b35	-0.00012783411
25	0xb96306f5	-0.00021650999
26	0x38344770	4.2981876e-05
27	0x381518da	3.5547513e-05
28	0xb7ec010f	-2.8133885e-05
29	0x379edab3	1.8936908e-05
30	0x3845a093	4.7118006e-05
31	0x3830a8a3	4.2118725e-05
32	0xb8092024	-3.269328e-05
33	0x37a5f33e	1.9782801e-05
34	0x38584037	5.1558218e-05
35	0x384d7f8d	4.89946e-05
36	0xb81911a6	-3.649448e-05
37	0x37a417ef	1.9561468e-05
38	0x37a47807	1.9606216e-05
39	0x38c2d73b	9.290731e-05
40	0xb78ff048	-1.7158818e-05
41	0xb9511b20	-0.00019941898
42	0x389c2314	7.4451935e-05
43	0x38e1dffc	0.000107705564
44	0xb6aea248	-5.204496e-06
45	0xb953a3ba	-0.00020183521
46	0x389e0018	7.5340446e-05
47	0x39021ce6	0.00012408532
48	0x36c3a511	5.830669e-06
49	0xb955b4a1	-0.00020380552
50	0x389da73a	7.517492e-05
51	0x3906275f	0.00012793903
52	0xb7803380	-1.528277e-05
53	0x37d8f2e4	2.5862311e-05
54	0x38abaa90	8.185685e-05
55	0xb80789d2	-3.2314863e-05
56	0xb702ec9b	-7.803693e-06
57	0x380e4385	3.391832e-05
58	0x38b1a31c	8.470399e-05
59	0xb80594f1	-3.1848384e-05
60	0x35732990	9.0585036e-07
61	0x3831446f	4.2263822e-05
62	0x38b86895	8.7932836e-05
63	0xb80625df	-3.198336e-05
64	0xb8a9d18a	-8.097578e-05
65	0x36817b82	3.858878e-06
66	0xb8014690	-3.0821713e-05
67	0xb8755e56	-5.850041e-05
68	0x380c5132	3.345422e-05
69	0xb751446f	-1.2473304e-05
70	0xb83b9684	-4.4724453e-05
71	0xb8766921	-5.874888e-05
72	0x380866cd	3.2520667e-05
73	0xb804e7eb	-3.1687243e-05
74	0xb8746332	-5.8266516e-05
75	0xb87b31da	-5.988949e-05
76	0x3809b827	3.283485e-05
77	0x39036e6d	0.0001253427
78	0xb7dfba3b	-2.6670392e-05
79	0x37db04a6	2.6108999e-05
80	0x38d84511	0.00010312547
81	0xb8523636	-5.011839e-05
82	0xb7862458	-1.5990969e-05
83	0x3811e38d	3.4782617e-05
84	0x38d7e759	0.00010295091
85	0xb84f149b	-4.9371836e-05
86	0xb66cb3b7	-3.5271348e-06
87	0x38351847	4.3176373e-05
88	0x38d8a998	0.00010331272
89	0xb84fdcef	-4.9558406e-05
90	0xb905f9d5	-0.00012776938
91	0x36228e8e	2.422286e-06
92	0xb67fab00	-3.8097496e-06
93	0xb7816bd0	-1.5428202e-05
94	0x34d21585	3.9131206e-07
95	0x36915fe9	4.332502e-06
96	0xb635c2ea	-2.7084557e-06
97	0xb78ad5c9	-1.6550433e-05
98	0x351c5048	5.8231353e-07
99	0x36db5eb3	6.537733e-06
100	0xb5e90254	-1.736053e-06
101	0xb7944b5c	-1.7678067e-05
102	0x3510fbcb	5.401059e-07
103	0xb638d025	-2.7539293e-06
104	0x38462c01	4.724786e-05
105	0xb84b80a0	-4.8518763e-05
106	0xb931cf5a	-0.0001695728
107	0x38a02c69	7.6376666e-05
108	0x382b5197	4.0845563e-05
109	0xb860025a	-5.340795e-05
110	0xb92f9ddb	-0.00016748106
111	0x38a007e1	7.630862e-05
112	0x380e154e	3.387528e-05
113	0xb8713379	-5.7506815e-05
114	0xb92d9f97	-0.00016558018
115	0x389fee71	7.626124e-05
116	0x3924bb48	0.00015710026
117	0x373fc84d	1.1431123e-05
118	0xb61566bc	-2.226253e-06
119	0xb7d835d8	-2.577428e-05
120	0x374bac5c	1.2139873e-05
121	0x3761d298	1.3460078e-05
122	0x3530ae77	6.581899e-07
123	0xb7c1102f	-2.3014929e-05
124	0x374bd396	1.2149007e-05
125	0x3784f7bf	1.5850992e-05
126	0x36838705	3.9198226e-06
127	0xb7a95b92	-2.018901e-05
128	0x374bdae0	1.2150704e-05
129	0xb50bd07d	-5.2084926e-07
130	0x35b1a469	1.3235377e-06
131	0x34d2eae2	3.9286448e-07
132	0xb6a803af	-5.007219e-06
133	0x368743b5	4.0311957e-06
134	0x360dc174	2.1123242e-06
135	0x35e93504	1.7375282e-06
136	0xb679ee30	-3.7242535e-06
137	0x368692c5	4.0105974e-06
138	0x364def1a	3.0686556e-06
139	0x3654a829	3.1688344e-06
140	0xb62602c3	-2.4737535e-06
141	0x36831ce9	3.90747e-06
142	0xb6aabb9f	-5.088237e-06
143	0xb4bf08ef	-3.5583022e-07
144	0x379b0df5	1.848394e-05
145	0x3807fddf	3.2422944e-05
146	0xb7d885e6	-2.5811558e-05
147	0x375a9e9e	1.30307435e-05
148	0x37f0fb8a	2.8727361e-05
149	0x37ff4166	3.0428822e-05
150	0xb7d14367	-2.4946128e-05
151	0x37f044fa	2.864235e-05
152	0x3821269f	3.842136e-05
153	0x37f4a6ff	2.916483e-05
154	0xb7d392d9	-2.5221541e-05
155	0xb8b61002	-8.681418e-05
156	0x380a0eff	3.291573e-05
157	0xb7033c1b	-7.822203e-06
158	0xb89c96b5	-7.466731e-05
159	0x380381f7	3.1353873e-05
160	0x37fa3cfc	2.983072e-05
161	0xb7470f37	-1.1864867e-05
162	0xb8a5fcd3	-7.914905e-05
163	0x38020e29	3.1007603e-05
164	0x37d830c1	2.577191e-05
165	0xb7872698	-1.6111226e-05
166	0xb8afa99a	-8.376241e-05
167	0x38026b0f	3.109412e-05
168	0x38feae38	0.000121441146
169	0xb7e70532	-2.7539765e-05
170	0x3714672d	8.84551e-06
171	0x385a9506	5.211404e-05
172	0xb8172cae	-3.6042817e-05
173	0xb7a9e22b	-2.0251688e-05
174	0x376b616c	1.4029774e-05
175	0x3857c150	5.144003e-05
176	0xb8145653	-3.5366345e-05
177	0xb73d189c	-1.1271008e-05
178	0x379f2c64	1.8974948e-05
179	0x38568c7f	5.1152423e-05
180	0xb8151a9c	-3.554915e-05
181	0xb8c9816e	-9.608535e-05
182	0x3726e431	9.947501e-06
183	0xb435752f	-1.689957e-07
184	0xb79d4086	-1.8745905e-05
185	0xb53330e9	-6.675387e-07
186	0x379233a2	1.74286e-05
187	0x36bb9ac4	5.5910514e-06
188	0xb79edc8c	-1.8937768e-05
189	0xb39868d8	-7.0971225e-08
190	0x37dbab41	2.618658e-05
191	0x37383181	1.0978781e-05
192	0xb79d9623	-1.8785771e-05
193	0xb3da0b01	-1.0153418e-07
194	0xb7b5a271	-2.1652524e-05
195	0x3841abcc	4.6174784e-05
196	0xb799d3f6	-1.8337723e-05
197	0xb8d2426f	-0.000100259545
198	0x382cc057	4.1187126e-05
199	0x38459e16	4.711569e-05
200	0xb7a7929a	-1.9976218e-05
201	0xb8dfd84c	-0.00010673757
202	0x382c5284	4.1084844e-05
203	0x3847c391	4.7627433e-05
204	0xb7ba3dc5	-2.2201692e-05
205	0xb8ed5cfe	-0.00011318362
206	0x382c46bd	4.1073876e-05
207	0x3927b3de	0.00015993367
208	0x3881c074	6.1870465e-05
209	0xb810388f	-3.438495e-05
210	0xb93cfc64	-0.000180231
211	0x3894d5f2	7.09704e-05
212	0x388b67ff	6.647407e-05
213	0xb7ff7ad4	-3.0455565e-05
214	0xb93d0cb6	-0.0001802918
215	0x38957603	7.126855e-05
216	0x389709b2	7.202047e-05
217	0xb7dcd088	-2.6323149e-05
218	0xb93cda8d	-0.00018010494
219	0x38954ff1	7.119764e-05
220	0x39059ce0	0.00012742309
221	0x3760973b	1.33866515e-05
222	0xb6544dda	-3.1635777e-06
223	0xb7c30de1	-2.3252274e-05
224	0x377da824	1.5119123e-05
225	0x378e7ff6	1.6987306e-05
226	0x360d1909	2.102521e-06
227	0xb7939658	-1.7593775e-05
228	0x377e2e05	1.51502945e-05
229	0x37b1db08	2.1202039e-05
230	0x3705d6ea	7.977456e-06
231	0xb745f7d8	-1.1799821e-05
232	0x377e5fde	1.5161901e-05
233	0xb684611e	-3.9452125e-06
234	0xb73f7af1	-1.1413112e-05
235	0x3692c9e9	4.3746445e-06
236	0x37f7cc0b	2.953971e-05
237	0xb771ad00	-1.4404999e-05
238	0xb7382547	-1.0975934e-05
239	0x3693de35	4.4068097e-06
240	0x37f6ff3e	2.9444342e-05
241	0xb76debdb	-1.4181215e-05
242	0xb732c10c	-1.0654574e-05
243	0x368868e0	4.065325e-06
244	0x37f62f6d	2.934757e-05
245	0xb76ea903	-1.4225257e-05
246	0xb85570ba	-5.0888142e-05
247	0xb8bac1c1	-8.9052606e-05
248	0x3858ac1b	5.16587e-05
249	0x397b35cb	0.00023957265
250	0xb8e3d2f0	-0.00010863494
251	0xb8bdcd65	-9.05048e-05
252	0x38427577	4.6362602e-05
253	0x3970e868	0.00022974762
254	0xb8e3d218	-0.000108633365
255	0xb8c17b62	-9.225939e-05

exp_avg_sq f4 [64, 13]
0	0x334df49d	4.7952756e-08
1	0x329b20b3	1.8059245e-08
2	0x34eafbfa	4.3769234e-07
3	0x33a0f166	7.494491e-08
4	0x334d7f76	4.7846207e-08
5	0x329e86b5	1.8454879e-08
6	0x34eb1a78	4.379142e-07
7	0x33a0fb88	7.496334e-08
8	0x334d4a6e	4.7797975e-08
9	0x32a30bd9	1.8981085e-08
10	0x34eb5231	4.3831963e-07
11	0x33a103a8	7.497812e-08
12	0x344e80da	1.9232121e-07
13	0x3301d3f7	3.0227934e-08
14	0x32170f33	8.792813e-09
15	0x3470a5cb	2.2412057e-07
16	0x3339d173	4.3264162e-08
17	0x330b6532	3.2455496e-08
18	0x321377e1	8.5837835e-09
19	0x3466a7fc	2.1481532e-07
20	0x3339d22a	4.3264812e-08
21	0x3317d7f5	3.535384e-08
22	0x322007a0	9.3149595e-09
23	0x345dce17	2.0657204e-07
24	0x3339d297	4.32652e-08
25	0x340e4d91	1.3252999e-07
26	0x32c6f960	2.3163636e-08
27	0x325a68f4	1.2713134e-08
28	0x331d041a	3.655814e-08
29	0x323d3530	1.1013341e-08
30	0x32e0e2c9	2.6180162e-08
31	0x3289414f	1.5978598e-08
32	0x331846fe	3.5454825e-08
33	0x323eef66	1.11138885e-08
34	0x32fca712	2.9412636e-08
35	0x32aab6dc	1.987376e-08
36	0x33163f7f	3.4982346e-08
37	0x323ff75a	1.11739045e-08
38	0x3356c8f4	5.0008524e-08
39	0x33c186a8	9.011757e-08
40	0x32f8132a	2.8879715e-08
41	0x351e8e0f	5.906631e-07
42	0x33eefd3f	1.1128804e-07
43	0x33cfc9a8	9.67587e-08
44	0x330c68df	3.269167e-08
45	0x351bdb13	5.8060795e-07
46	0x33ef4a43	1.1142813e-07
47	0x33e1b0ea	1.05095594e-07
48	0x332ae32c	3.978782e-08
49	0x3519e4a9	5.7329686e-07
50	0x33ef61b4	1.1147077e-07
51	0x34d07cfb	3.8833954e-07
52	0x3338c0c6	4.3016165e-08
53	0x32877f36	1.5773917e-08
54	0x3496edd6	2.8112726e-07
55	0x335fe9b5	5.213379e-08
56	0x33467f2b	4.6216126e-08
57	0x329804ba	1.7697278e-08
58	0x34943fab	2.7613473e-07
59	0x336010d0	5.2169355e-08
60	0x3357c8bf	5.0241166e-08
61	0x32b5aee6	2.1150708e-08
62	0x34923f80	2.7240822e-07
63	0x3360453a	5.2217025e-08
64	0x341b1f2c	1.444684e-07
65	0x33d12e91	9.740791e-08
66	0x330f8eb0	3.3424556e-08
67	0x3505be4e	4.982329e-07
68	0x33d4ed86	9.9152246e-08
69	0x33ea34a1	1.0906047e-07
70	0x33337ecc	4.1792006e-08
71	0x3502a30b	4.866603e-07
72	0x33d530a9	9.927437e-08
73	0x34050fb3	1.2392302e-07
74	0x3372b640	5.651077e-08
75	0x3500cfe6	4.798625e-07
76	0x33d56c25	9.938257e-08
77	0x347ac29d	2.3353864e-07
78	0x3352dfcc	4.9097977e-08
79	0x32a8d830	1.9656085e-08
80	0x34625227	2.1077777e-07
81	0x333e9d08	4.438064e-08
82	0x337009b5	5.5888183e-08
83	0x32cbd2bb	2.372814e-08
84	0x34591305	2.0216619e-07
85	0x333f014a	4.4471825e-08
86	0x338a0122	6.426332e-08
87	0x3303e77e	3.0711355e-08
88	0x34522b7d	1.9573595e-07
89	0x333f624b	4.456005e-08
90	0x33fea101	1.1857083e-07
91	0x320d799b	8.23493e-09
92	0x31830186	3.812775e-09
93	0x334e9530	4.8098798e-08
94	0x32172812	8.798468e-09
95	0x3214e939	8.6677625e-09
96	0x3190a4d2	4.2096895e-09
97	0x334dc5be	4.7910127e-08
98	0x32177784	8.8165315e-09
99	0x321d3652	9.150954e-09
100	0x31a23d81	4.7218127e-09
101	0x334d8505	4.7851263e-08
102	0x321797fb	8.823913e-09
103	0x32d2a696	2.4522972e-08
104	0x33232564	3.79854e-08
105	0x3257f776	1.2570913e-08
106	0x3498e538	2.8478985e-07
107	0x335eef16	5.190585e-08
108	0x332dabf5	4.0436095e-08
109	0x326af146	1.3675452e-08
110	0x3496b985	2.807466e-07
111	0x335ef109	5.1907623e-08
112	0x333b0886	4.3547082e-08
113	0x32893bea	1.5976145e-08
114	0x34950786	2.7758887e-07
115	0x335f1315	5.193859e-08
116	0x342204db	1.5089192e-07
117	0x3289658f	1.5995083e-08
118	0x31bd9e45	5.518617e-09
119	0x34136dcf	1.373039e-07
120	0x32ce9f7b	2.405408e-08
121	0x328cf38e	1.6408901e-08
122	0x31bfd24a	5.5827387e-09
123	0x34121cfd	1.3607855e-07
124	0x32ce9df9	2.4053394e-08
125	0x3291a8a1	1.6956905e-08
126	0x31c9b41e	5.870347e-09
127	0x34110d68	1.3509054e-07
128	0x32cea2e8	2.4055637e-08
129	0x335058bb	4.8509474e-08
130	0x31b18f48	5.167667e-09
131	0x31214627	2.346846e-09
132	0x32f31f3c	2.8303127e-08
133	0x31b9506c	5.3933515e-09
134	0x31be510a	5.538941e-09
135	0x313847c7	2.6816325e-09
136	0x32f1e15e	2.8158578e-08
137	0x31b97816	5.397861e-09
138	0x31ccbf03	5.958897e-09
139	0x3155e82c	3.1127554e-09
140	0x32f14a63	2.808992e-08
141	0x31b9a5ac	5.4030433e-09
142	0x323dfd4c	1.1058841e-08
143	0x33723f2c	5.640247e-08
144	0x32b028eb	2.0507704e-08
145	0x3432b526	1.6643443e-07
146	0x33337707	4.178494e-08
147	0x339031c1	6.714573e-08
148	0x32e2e3de	2.6413485e-08
149	0x3423369f	1.5200429e-07
150	0x33340c24	4.1920558e-08
151	0x33aceb29	8.0521495e-08
152	0x331fe2d4	3.722637e-08
153	0x3417b0a9	1.412724e-07
154	0x3334982c	4.2047915e-08
155	0x33cac5c9	9.442335e-08
156	0x329a836c	1.7987723e-08
157	0x3232f69b	1.0417035e-08
158	0x33a5504c	7.698017e-08
159	0x328ce6e0	1.6403135e-08
160	0x32a9b0e4	1.975463e-08
161	0x32439389	1.13840395e-08
162	0x339948fa	7.137892e-08
163	0x328d2561	1.6431558e-08
164	0x32bb939e	2.1836794e-08
165	0x325c40bf	1.2820407e-08
166	0x338f457e	6.671597e-08
167	0x328d6543	1.6460609e-08
168	0x33f00fe6	1.1178763e-07
169	0x332b625a	3.990349e-08
170	0x32c26c61	2.2633857e-08
171	0x3399ae7c	7.156356e-08
172	0x32ae50a9	2.0292946e-08
173	0x3345c88b	4.605003e-08
174	0x32e91e50	2.7138555e-08
175	0x338aa1c9	6.455554e-08
176	0x32af856b	2.0433353e-08
177	0x336498e9	5.3224458e-08
178	0x33100d62	3.3539784e-08
179	0x337db6a1	5.9072253e-08
180	0x32b05343	2.052696e-08
181	0x335fbee6	5.2094855e-08
182	0x32d5dd5f	2.4897131e-08
183	0x32577551	1.2541322e-08
184	0x339e6842	7.376413e-08
185	0x329ae105	1.8030287e-08
186	0x32faa6c7	2.9179672e-08
187	0x3278d9c7	1.4485017e-08
188	0x338e716c	6.6330216e-08
189	0x329ba90e	1.8121252e-08
190	0x331372f6	3.433066e-08
191	0x32999fe2	1.788425e-08
192	0x33810065	6.0071024e-08
193	0x329c2b00	1.8180344e-08
194	0x33144b45	3.4527393e-08
195	0x329d3e40	1.8305514e-08
196	0x321107b9	8.441867e-09
197	0x3411b329	1.3569355e-07
198	0x32e1351b	2.6217597e-08
199	0x32a06862	1.867392e-08
200	0x320f0d96	8.326785e-09
201	0x340a1ee7	1.2863494e-07
202	0x32e12756	2.6211335e-08
203	0x32a4e25a	1.9195046e-08
204	0x32103436	8.393775e-09
205	0x3403e0b8	1.2282078e-07
206	0x32e129b6	2.6212415e-08
207	0x34806ec8	2.3922462e-07
208	0x33372790	4.264399e-08
209	0x327b00a1	1.4610266e-08
210	0x34b71933	3.410474e-07
211	0x3381d330	6.0454454e-08
212	0x333b0848	4.3546862e-08
213	0x32814bd1	1.5052054e-08
214	0x34b56935	3.3790425e-07
215	0x3381e221	6.048163e-08
216	0x333fb819	4.463809e-08
217	0x3287fbe7	1.583062e-08
218	0x34b3ed1e	3.3513874e-07
219	0x3381e6ea	6.0490336e-08
220	0x345635fb	1.9949941e-07
221	0x3304b062	3.0894064e-08
222	0x32461a20	1.1531057e-08
223	0x348a5ecc	2.5773477e-07
224	0x3341bf30	4.51102e-08
225	0x3309d794	3.2093865e-08
226	0x3256b768	1.2498141e-08
227	0x34898a65	2.5618934e-07
228	0x3341c016	4.5111015e-08
229	0x3310f776	3.3752677e-08
230	0x3276b020	1.4359131e-08
231	0x3489225b	2.5543235e-07
232	0x3341ccae	4.512247e-08
233	0x339f9e91	7.4328575e-08
234	0x324b22a1	1.1824029e-08
235	0x31c942b8	5.857455e-09
236	0x3359ee63	5.074106e-08
237	0x3234db04	1.0527177e-08
238	0x325f9bdb	1.3015746e-08
239	0x31e20b4f	6.5787513e-09
240	0x33508253	4.8547303e-08
241	0x32355f39	1.0557238e-08
242	0x32771420	1.4381868e-08
243	0x320229dc	7.576514e-09
244	0x334878ff	4.6676174e-08
245	0x3235afe6	1.0575581e-08
246	0x33380172	4.2842153e-08
247	0x3306e835	3.1410497e-08
248	0x323714b2	1.06567075e-08
249	0x3494bc51	2.7704166e-07
250	0x33507866	4.8538276e-08
251	0x3306c635	3.1379574e-08
252	0x3233a0ce	1.0455734e-08
253	0x349333c0	2.7418537e-07
254	0x3350776d	4.853739e-08
255	0x3306b16a	3.1360663e-08

exp_avg f4 [64]
0	0xb8835081	-6.261562e-05
1	0xb956c7d3	-0.0002048307
2	0x3800ae9a	3.068019e-05
3	0x38fae23b	0.00011963068
4	0xb856d714	-5.1221883e-05
5	0x385d002a	5.269066e-05
6	0xb8a69f96	-7.945222e-05
7	0x35865436	1.0008287e-06
8	0x390024d0	0.00012220745
9	0x37a37094	1.9483537e-05
10	0x36d729ba	6.412357e-06
11	0xb829dc95	-4.0498173e-05
12	0x384ea0d3	4.9264007e-05
13	0xb86c4bb2	-5.633728e-05
14	0xb4c0f6a2	-3.5942236e-07
15	0x38891010	6.535661e-05
16	0x38ef7914	0.00011418961
17	0x37cc5743	2.435933e-05
18	0xb7bf0167	-2.2769627e-05
19	0xb936874a	-0.00017407272
20	0x3632b6bf	2.663044e-06
21	0xba19ebd0	-0.00058716256
22	0x38d06951	9.9378296e-05
23	0xb88d002f	-6.723438e-05
24	0xb8d9c3f6	-0.00010383867
25	0xb92029e3	-0.00015274393
26	0xb78da98d	-1.6887463e-05
27	0xb895abb1	-7.136854e-05
28	0x391b7587	0.00014825734
29	0xb6c91346	-5.9925105e-06
30	0x38a2c9fd	7.762385e-05
31	0x38ed4c00	0.00011315197
32	0x38ae9405	8.324537e-05
33	0xb5fcb926	-1.8829348e-06
34	0xb8ab6ae8	-8.173828e-05
35	0x389704b9	7.201121e-05
36	0x39d88390	0.00041296752
37	0xb8dc41f9	-0.00010502706
38	0xb7b59898	-2.1647938e-05
39	0x3843db2a	4.6695735e-05
40	0x35fb3d29	1.8718757e-06
41	0xb83ec86a	-4.548618e-05
42	0x36b0da5e	5.27063e-06
43	0xb88d9f59	-6.753085e-05
44	0x380c04a6	3.338293e-05
45	0xb8d2fe6b	-0.00010060969
46	0xb8e0a343	-0.00010711562
47	0x391b88b8	0.00014832884
48	0x38f9533e	0.0001188875
49	0xb63219c3	-2.6539062e-06
50	0xb95c1f15	-0.00020992414
51	0x36a1f83a	4.8270713e-06
52	0xb82a8695	-4.0656498e-05
53	0x38dd8432	0.000105627245
54	0x38c665e9	9.460358e-05
55	0x39659cbb	0.00021897528
56	0xb9349b70	-0.00017224043
57	0xb8f5a8d7	-0.00011713959
58	0xb8381821	-4.389149e-05
59	0x39cb32f9	0.00038757155
60	0x3714dd16	8.872963e-06
61	0x39a86c2d	0.00032124054
62	0xb96f1a0f	-0.00022802524
63	0x35da47e2	1.6263186e-06

exp_avg_sq f4 [64]
0	0x344eac73	1.9247982e-07
1	0x33ee8b93	1.1108127e-07
2	0x32f1703d	2.8107133e-08
3	0x34994ea2	2.8555684e-07
4	0x340f887f	1.336757e-07
5	0x34886015	2.5401883e-07
6	0x33f41256	1.1365471e-07
7	0x32c1bf1e	2.2555067e-08
8	0x340f1082	1.3323918e-07
9	0x3384a1bb	6.1761476e-08
10	0x326d6f4a	1.382052e-08
11	0x33e581ce	1.0687255e-07
12	0x33349424	4.204425e-08
13	0x335df8af	5.168175e-08
14	0x33462fd3	4.6143963e-08
15	0x33908cee	6.7311575e-08
16	0x3426a219	1.5518926e-07
17	0x33f8b855	1.158193e-07
18	0x32e7bc49	2.6977562e-08
19	0x3405d24a	1.2463093e-07
20	0x3389708e	6.400033e-08
21	0x3638a749	2.751551e-06
22	0x34015a31	1.2046873e-07
23	0x32e79932	2.6961605e-08
24	0x358edcc7	1.0644079e-06
25	0x3453a156	1.97096e-07
26	0x331a17c1	3.5877523e-08
27	0x33b92fa2	8.623398e-08
28	0x34874bb7	2.52008e-07
29	0x314de38e	2.9960776e-09
30	0x33b19876	8.269937e-08
31	0x33ebc9d1	1.09797504e-07
32	0x32289475	9.812642e-09
33	0x34238ccc	1.523178e-07
34	0x33c091be	8.967207e-08
35	0x33bb05c9	8.7089184e-08
36	0x34abde8a	3.201315e-07
37	0x3493407c	2.7427802e-07
38	0x334de046	4.7934257e-08
39	0x3266615a	1.3409897e-08
40	0x3268900e	1.3536932e-08
41	0x339ca9d1	7.2952055e-08
42	0x32a2face	1.8973335e-08
43	0x3363a2fb	5.3000786e-08
44	0x33410502	4.494087e-08
45	0x3431a764	1.6545306e-07
46	0x33e665b4	1.0728709e-07
47	0x344fc9f0	1.9351842e-07
48	0x34231d56	1.519123e-07
49	0x32a83a81	1.9584379e-08
50	0x33eaec43	1.093945e-07
51	0x3086b322	9.800696e-10
52	0x32cb801a	2.3690564e-08
53	0x34286e0c	1.5686254e-07
54	0x3433bb11	1.6738728e-07
55	0x34e7f457	4.3204884e-07
56	0x3519ceb6	5.7297746e-07
57	0x335e2413	5.1721212e-08
58	0x32f6dc3d	2.8738322e-08
59	0x355ff9d3	8.3437516e-07
60	0x331b9f24	3.6233487e-08
61	0x35b31209	1.3341788e-06
62	0x34999c92	2.861239e-07
63	0x30ce27a3	1.4999738e-09

exp_avg f4 [64, 64]
0	0x35d84799	1.6114092e-06
1	0x363ba60f	2.796183e-06
2	0xb4036d94	-1.224019e-07
3	0x36280820	2.503868e-06
4	0x37462fc9	1.18128455e-05
5	0x37176bb4	9.025378e-06
6	0x36b419e8	5.367434e-06
7	0x34dd382d	4.120533e-07
8	0x36ac9d04	5.1442785e-06
9	0x353a995d	6.951357e-07
10	0x342565e5	1.5403891e-07
11	0x3785d782	1.595519e-05
12	0x36eede01	7.1187974e-06
13	0x37ae8f05	2.0809015e-05
14	0x35ff94ee	1.9042325e-06
15	0x35b389bb	1.3376624e-06
16	0x37607240	1.3378041e-05
17	0x355ffa4c	8.3438204e-07
18	0x34bff8e8	3.5757625e-07
19	0x36f2a070	7.2308394e-06
20	0x3425ebce	1.5452608e-07
21	0x3698d37c	4.554573e-06
22	0x373645f3	1.0864332e-05
23	0x36e43ce8	6.80202e-06
24	0xb6c14919	-5.760358e-06
25	0x3696f35a	4.498678e-06
26	0x37174b7e	9.017878e-06
27	0x36be76af	5.676258e-06
28	0x37186d81	9.085402e-06
29	0xb4b8dbc4	-3.443257e-07
30	0x363afeec	2.7864544e-06
31	0x3778f3b0	1.483869e-05
32	0x3710be01	8.627308e-06
33	0x36587b05	3.2258115e-06
34	0x3679e580	3.7237478e-06
35	0x3767e98e	1.3823052e-05
36	0x363f5755	2.8512052e-06
37	0x35f87512	1.8511512e-06
38	0x372af618	1.0190088e-05
39	0xb692aa6c	-4.370979e-06
40	0x361336a1	2.1936505e-06
41	0x37b0d309	2.1079106e-05
42	0x379c9206	1.8664647e-05
43	0xb4f1edbc	-4.5062723e-07
44	0x373893e7	1.1001691e-05
45	0x37117f61	8.672331e-06
46	0x35da016a	1.6242677e-06
47	0x376ffc53	1.4304259e-05
48	0x37ac892b	2.0567872e-05
49	0xb33ca60a	-4.3923173e-08
50	0x363eeff9	2.8451889e-06
51	0xb3704465	-5.594156e-08
52	0x364a3aaa	3.0134493e-06
53	0x370f7c3d	8.552391e-06
54	0x37004c48	7.647155e-06
55	0x3760a184	1.3389046e-05
56	0x35259b9f	6.169375e-07
57	0x3625e2f2	2.4719016e-06
58	0x37344d64	1.0746855e-05
59	0x36c4148e	5.843648e-06
60	0x34a97a5f	3.156774e-07
61	0x376fca02	1.4292544e-05
62	0x36bcc1b8	5.6253884e-06
63	0xb543cd19	-7.294162e-07
64	0xb7dec781	-2.6557364e-05
65	0xb7c87974	-2.3898414e-05
66	0xb34ca19b	-4.764443e-08
67	0xb79105fa	-1.728813e-05
68	0xb7bfefb9	-2.2880604e-05
69	0xb7ca80e8	-2.4140303e-05
70	0xb73cc1e5	-1.1250818e-05
71	0xb5b8ac40	-1.37592e-06
72	0xb77ca98a	-1.5059844e-05
73	0x35000971	4.7697455e-07
74	0x35084168	5.0759127e-07
75	0xb84d8bd5	-4.9006037e-05
76	0x36aa579c	5.076594e-06
77	0xb8a49598	-7.8479934e-05
78	0xb7e0c76b	-2.6795742e-05
79	0x3616edd5	2.2490178e-06
80	0xb762117c	-1.3474721e-05
81	0x3587bd08	1.0113299e-06
82	0xb41665a2	-1.4006812e-07
83	0xb7f18c2f	-2.8794717e-05
84	0x34d8b097	4.036162e-07
85	0xb804cbc4	-3.1661024e-05
86	0xb7c6eb3a	-2.3712975e-05
87	0xb7150110	-8.881339e-06
88	0xb72a1139	-1.01368e-05
89	0xb79ac159	-1.8448265e-05
90	0xb7c9b7dd	-2.4046685e-05
91	0xb79e47b8	-1.8868464e-05
92	0xb7a4719b	-1.9603225e-05
93	0xb46e9e65	-2.2223101e-07
94	0xb737e5ea	-1.0961181e-05
95	0xb71f14f2	-9.482015e-06
96	0x36232217	2.4308736e-06
97	0xb6fbd57e	-7.5052367e-06
98	0xb77c6fdb	-1.5046414e-05
99	0xb80b7071	-3.32449e-05
100	0xb80153ef	-3.0834166e-05
101	0xb5efbf45	-1.7862554e-06
102	0xb7dcc5bc	-2.6318121e-05
103	0xb5ef1e6b	-1.781574e-06
104	0x36124c2b	2.180003e-06
105	0xb886b32a	-6.42299e-05
106	0xb8599651	-5.1876825e-05
107	0x3437760f	1.7086153e-07
108	0xb7a3182f	-1.9442376e-05
109	0xb6d904ce	-6.4676633e-06
110	0xb70b0a68	-8.2874685e-06
111	0xb79621eb	-1.7897188e-05
112	0xb7cf0ccd	-2.4682284e-05
113	0x34ca97d1	3.7735893e-07
114	0xb78ee005	-1.7032036e-05
115	0xb3d34f8f	-9.839925e-08
116	0x36033604	1.9551962e-06
117	0xb7938110	-1.7583865e-05
118	0xb6dc9952	-6.5743598e-06
119	0xb7939969	-1.7595203e-05
120	0xb7131781	-8.767355e-06
121	0xb7866467	-1.6020798e-05
122	0xb7df6893	-2.6632368e-05
123	0xb749c21b	-1.2025727e-05
124	0x34e84c96	4.326909e-07
125	0xb792f3b9	-1.7518048e-05
126	0xb8025515	-3.1073654e-05
127	0xb29728ad	-1.759721e-08
128	0x373821a2	1.0975085e-05
129	0x373d9d11	1.1301848e-05
130	0xb3dc656b	-1.0262996e-07
131	0x3712cb4f	8.749615e-06
132	0x37a82f21	2.0049107e-05
133	0x3794a890	1.7721468e-05
134	0x371e93e3	9.451966e-06
135	0x35815aac	9.637638e-07
136	0x372f6fa3	1.0456805e-05
137	0x351f3f28	5.932402e-07
138	0x32160df0	8.734318e-09
139	0x380c6803	3.347547e-05
140	0x36b9bc29	5.5353344e-06
141	0x384c59f1	4.8721155e-05
142	0x37401dfc	1.1451073e-05
143	0x352d3cd2	6.453603e-07
144	0x3799864e	1.8301562e-05
145	0x3513d553	5.5072195e-07
146	0x34ef4156	4.4564757e-07
147	0x37928f40	1.7471262e-05
148	0x339212de	6.802087e-08
149	0x3784e26c	1.5841062e-05
150	0x37a28ee0	1.9378436e-05
151	0x3728aa51	1.0053235e-05
152	0xb60fe909	-2.1444305e-06
153	0x3738d922	1.101781e-05
154	0x3793bd29	1.761185e-05
155	0x3750818b	1.2427928e-05
156	0x3787090e	1.609747e-05
157	0xb4917256	-2.7091545e-07
158	0x36df065b	6.6466578e-06
159	0x379a2cfb	1.8379176e-05
160	0x37057007	7.953501e-06
161	0x36c4874a	5.857005e-06
162	0x37176b86	9.025336e-06
163	0x37d7ec5d	2.5740062e-05
164	0x376616de	1.37143925e-05
165	0x3627e3b1	2.5017473e-06
166	0x37a46889	1.9599001e-05
167	0xb67c43d2	-3.7590403e-06
168	0x35c99341	1.5018524e-06
169	0x38387f0e	4.3987347e-05
170	0x381bde56	3.7161946e-05
171	0xb508f6b8	-5.102297e-07
172	0x379711ec	1.8008948e-05
173	0x37397cd2	1.1055921e-05
174	0x369beb41	4.646747e-06
175	0x37ae4413	2.0774116e-05
176	0x37f7533f	2.9483459e-05
177	0xb432c4db	-1.6649157e-07
178	0x3715daa4	8.931998e-06
179	0x311727a5	2.1995927e-09
180	0x36206f7e	2.3906755e-06
181	0x377978c4	1.48696745e-05
182	0x3728966a	1.0048601e-05
183	0x37a592dd	1.9737921e-05
184	0x367e6889	3.7909797e-06
185	0x370959ef	8.186776e-06
186	0x37aa7980	2.0322157e-05
187	0x372b3f32	1.0207108e-05
188	0x3463e5de	2.1224648e-07
189	0x37ad47ca	2.0656636e-05
190	0x378be591	1.6676991e-05
191	0xb5444012	-7.3108924e-07
192	0xb896455a	-7.165475e-05
193	0xb84fba88	-4.9526367e-05
194	0xb5a1cc31	-1.2054862e-06
195	0xb81325f7	-3.508289e-05
196	0x37dd9013	2.6412343e-05
197	0xb7d713c1	-2.5639196e-05
198	0x36d686b4	6.3933785e-06
199	0xb6fbee53	-7.5081275e-06
200	0xb7d72b14	-2.5650057e-05
201	0x3336ac66	4.2531973e-08
202	0x325d90d0	1.289682e-08
203	0xb7b33919	-2.1365051e-05
204	0x38306817	4.205861e-05
205	0xb8a5ce7a	-7.9062724e-05
206	0xb88fedb8	-6.86305e-05
207	0xb5e63dd5	-1.7154331e-06
208	0x3827b184	3.9981227e-05
209	0x36137e15	2.1978096e-06
210	0x35e4d913	1.7050501e-06
211	0xb7f618f8	-2.9337112e-05
212	0xb6119325	-2.1692333e-06
213	0xb8749122	-5.83093e-05
214	0xb5cda371	-1.5321258e-06
215	0x3734ba6b	1.077224e-05
216	0xb8a7cc08	-8.001184e-05
217	0xb7b25a34	-2.1261258e-05
218	0xb69f25ee	-4.742985e-06
219	0xb7556cdb	-1.2721134e-05
220	0xb72414dd	-9.780019e-06
221	0xb6bdd3d6	-5.6573e-06
222	0xb7b3b8f3	-2.1424587e-05
223	0x387b3dab	5.9900496e-05
224	0x3881e725	6.1942534e-05
225	0xb7537afd	-1.26052155e-05
226	0xb7972561	-1.8018009e-05
227	0xb6f5941f	-7.3188125e-06
228	0xb8a9f206	-8.103628e-05
229	0xb546b54f	-7.4024587e-07
230	0xb4dae10a	-4.0769402e-07
231	0xb84d161a	-4.8896392e-05
232	0x3721eed9	9.651959e-06
233	0xb80afd5b	-3.313772e-05
234	0xb7db9385	-2.6175529e-05
235	0xb64de5db	-3.0681174e-06
236	0x378a5fdc	1.649552e-05
237	0x3810480a	3.4399367e-05
238	0xb732e827	-1.0663679e-05
239	0x380f11bb	3.411037e-05
240	0x384776e8	4.7556037e-05
241	0x359fbe92	1.1901886e-06
242	0xb7ec52cd	-2.817195e-05
243	0xb51d7af4	-5.866598e-07
244	0x37a09b44	1.9145788e-05
245	0x35361894	6.783605e-07
246	0x377b1e5d	1.4967835e-05
247	0x37b5c448	2.1668282e-05
248	0xb7a93635	-2.0171612e-05
249	0xb7eab1a3	-2.7977692e-05
250	0xb65cd9ca	-3.2909325e-06
251	0xb7720660	-1.4425808e-05
252	0x34aa3d36	3.1709504e-07
253	0x37a7ccab	2.0003257e-05
254	0xb84db53c	-4.9044596e-05
255	0xb6f370a7	-7.255079e-06
