src/scripts/ddpg/weights/actor_best.pth (torch, 69039 bytes, 18 tensors)

linear_input.weight f4 [64, 13]
0	0xbec87816	-0.39154118
1	0x3ebb4111	0.3657308
2	0xbe2380ec	-0.15967149
3	0x3ee3b8ca	0.4447692
4	0xbec3bcfa	-0.38230115
5	0x398c78bb	0.00026792832
6	0x3dfbbfb5	0.122924246
7	0x3ed41728	0.41423917
8	0xbe839222	-0.25697428
9	0x3e8239d2	0.25434738
10	0xbe3a7987	-0.18210422
11	0x3e840e65	0.25792232
12	0x3e595a61	0.21225883
13	0xbe75df1c	-0.2401089
14	0xbddcb04c	-0.107758135
15	0xbdaedcff	-0.085382454
16	0x3d1bcf2a	0.038039364
17	0xbe8e009a	-0.27734834
18	0xbe099112	-0.13434246
19	0xbe54715b	-0.20746367
20	0xbdd7da8c	-0.105397314
21	0xbeb54c26	-0.3540966
22	0x3eaf9b0c	0.3429798
23	0xbda886e7	-0.082288556
24	0x3e60455b	0.21901457
25	0x3ed9cf2c	0.42540872
26	0x3ec633bb	0.38711342
27	0x3e8de2d0	0.27712107
28	0x3e95e040	0.29272652
29	0xbe435d5a	-0.1907858
30	0xbdb43155	-0.08798472
31	0x3e95902d	0.2921156
32	0x3d8517e5	0.06498698
33	0xbd7d4c10	-0.061840117
34	0x3d8b5fca	0.0680538
35	0x3c610bb5	0.013735701
36	0xbe40e322	-0.18836644
37	0xbdf956bc	-0.121747464
38	0x3ebb9ca4	0.36642945
39	0x3e7033aa	0.23457208
40	0x3e5a11ce	0.21295854
41	0x3e31008a	0.17285362
42	0x3d6ce760	0.057837844
43	0xbd065f80	-0.03280592
44	0x3e7c7572	0.24654177
45	0xbcf75850	-0.030193478
46	0x3e083251	0.13300444
47	0xbdb9c4d5	-0.09070746
48	0x3e26a2f9	0.16273107
49	0x3c6f5008	0.014606483
50	0xbe69fbef	-0.22850011
51	0x3f0b1cb9	0.543407
52	0xbe2aa365	-0.16663893
53	0x3de1b79d	0.110213496
54	0xbd9a8375	-0.07544605
55	0xbe942ad4	-0.28938925
56	0x3ec136e3	0.37737188
57	0xbe855d50	-0.26047754
58	0xbe775f34	-0.24157411
59	0xbe444310	-0.19166207
60	0x3e96237c	0.29323947
61	0xbc60675e	-0.01369652
62	0xbe8a5877	-0.27020618
63	0xbe35cc1e	-0.17753646
64	0x3d013846	0.031547807
65	0x3dca9b96	0.09892957
66	0x3e925d91	0.2858701
67	0x3dc728b6	0.09724562
68	0x3d045bff	0.032314297
69	0xbb35e51b	-0.0027754966
70	0xbd7447d8	-0.059638828
71	0x3e5c012c	0.21484822
72	0x3cc9d4ee	0.024637666
73	0x3e5a1fa8	0.21301138
74	0x3eaa9f93	0.3332487
75	0x3e6045a6	0.21901569
76	0x3e8804a1	0.26566032
77	0x3eadefbb	0.33971962
78	0x3e9e9b47	0.30977842
79	0x3e83992b	0.25702795
80	0x3d2c20b7	0.042023387
81	0xbd8c0fcf	-0.06838953
82	0x3e4559d3	0.19272546
83	0x3e61bc45	0.22044475
84	0xbe8d630f	-0.27614638
85	0xbcb908dc	-0.022587232
86	0x3d3d5be9	0.04623023
87	0xbe21a46d	-0.1578538
88	0x3dfc6c78	0.12325376
89	0xbe6dd2e5	-0.23224981
90	0x3e176257	0.14783607
91	0x3d943755	0.07237116
92	0xbe6a971b	-0.22909205
93	0x3e259fb2	0.161742
94	0x3d0bb572	0.034108587
95	0xbe195fb5	-0.14977916
96	0xbd8acbdc	-0.06777164
97	0x3d106928	0.035256535
98	0x3ec4779e	0.3837251
99	0x3e63f40d	0.22261067
100	0x3e8e4d9b	0.27793583
101	0x3d5f1609	0.054464374
102	0x3e896547	0.2683508
103	0x3e7a8213	0.24463682
104	0xbe300cb2	-0.17192343
105	0xbcf82150	-0.030289322
106	0x3db626da	0.08894129
107	0x3ec1642c	0.37771738
108	0x3e5edabd	0.2176313
109	0xbe773213	-0.24140196
110	0xbe0ffd1c	-0.14061397
111	0x3eb4ee88	0.35338235
112	0xbd9e4b7f	-0.077292435
113	0x3b86540d	0.004099375
114	0x3e13e811	0.14443995
115	0x3e22c4c8	0.15895379
116	0xbe98de31	-0.2985702
117	0x3eaa57ae	0.3327002
118	0x3d19d53b	0.037556868
119	0xbd48f036	-0.049057208
120	0xbd3ee7f1	-0.046607915
121	0xbd1f6578	-0.038915128
122	0xbe1fc708	-0.15603268
123	0x3d7bc9a0	0.06147158
124	0x3e99fcde	0.30075735
125	0x3e6e8cbb	0.23295872
126	0xbec9053f	-0.39261815
127	0xbdc4e2fa	-0.09613605
128	0x3e1020e9	0.14075054
129	0xbf101b4a	-0.5629164
130	0x3ea1462f	0.31498858
131	0x3e533698	0.20626295
132	0x3df3430d	0.11878023
133	0xbd6a4ac1	-0.057200197
134	0xbc3aab63	-0.011393401
135	0xbe257249	-0.16156878
136	0xbe80ed1b	-0.25180897
137	0x3e28849b	0.16456835
138	0xbdea27c4	-0.11433366
139	0xbd9cd8ae	-0.07658516
140	0xbe683248	-0.22675431
141	0xbdebd386	-0.11514954
142	0xbf018ecf	-0.50608534
143	0x3dad2ab3	0.0845541
144	0x3cc0fa6f	0.023556916
145	0xbd526a1d	-0.05137073
146	0x3e0a7c4a	0.13523975
147	0x3eb41b8f	0.35177276
148	0x3d8e5639	0.069500394
149	0x3da65419	0.08121509
150	0xbe9fe2ec	-0.31227815
151	0x3ed4864f	0.4150872
152	0xbeb679ef	-0.35639903
153	0xbe9b6e14	-0.3035742
154	0xbe96784f	-0.29388663
155	0x3e9c486e	0.3052401
156	0x3f0f14e6	0.55891263
157	0x3e852b86	0.26009768
158	0x3e3e5de9	0.18590511
159	0xbabd9f1b	-0.0014466973
160	0x3dc3ffa6	0.095702454
161	0x3f0e75eb	0.5564868
162	0x3c9adeb1	0.018905016
163	0x3e834ef2	0.25646168
164	0x3c674253	0.014114934
165	0x3f2adcd1	0.6674319
166	0x3e705aee	0.23472187
167	0x3ed27f6e	0.41112846
168	0x3df6eb53	0.12056603
169	0xbe1186c3	-0.14211564
170	0xbe5ff331	-0.21870114
171	0xbe55be07	-0.20873271
172	0x3de6582d	0.11247287
173	0x3d842f2d	0.064543106
174	0xbe9139bf	-0.2836437
175	0xbe3db04c	-0.18524283
176	0x3e3c2f4a	0.18377414
177	0x3d88940c	0.06668863
178	0xbdc87116	-0.097871944
179	0xbe11f1bc	-0.1425237
180	0xbe8da4ff	-0.27664945
181	0x3eadd650	0.3395257
182	0xbb691102	-0.0035563116
183	0xbe511e0d	-0.2042162
184	0xbe0959ec	-0.13413209
185	0xbe42513d	-0.18976302
186	0xbe0ba4f7	-0.13637148
187	0xbe786ce3	-0.24260287
188	0x3e42034a	0.18946567
189	0x3e52bc9c	0.20579761
190	0x3c850126	0.0162359
191	0xbcbd1914	-0.023083247
192	0x3e166146	0.14685544
193	0xbc5d19ae	-0.013494892
194	0x3efadff0	0.48998976
195	0x3e7d898d	0.24759503
196	0x3ea417cb	0.32049403
197	0x3e460206	0.1933671
198	0x3db4f01c	0.0883486
199	0x3e7ce975	0.24698432
200	0x3e63192e	0.22177574
201	0x3eb05922	0.34443003
202	0x3d9776f6	0.07395737
203	0x3dbe0355	0.09277979
204	0x3de7df12	0.11321844
205	0x3e807c39	0.25094774
206	0x3eb6de8f	0.35716674
207	0x3e8a00ab	0.26953635
208	0x3e65d5fc	0.2244491
209	0x3e5fff58	0.2187475
210	0xbe6ed10a	-0.2332193
211	0x3d6e8a65	0.058237452
212	0x3ca4db4c	0.0201241
213	0x3e4525a8	0.19252646
214	0x3ddf5b35	0.10906068
215	0xbbacea35	-0.005276943
216	0x3ec4f731	0.38469842
217	0x3e3a0846	0.18167219
218	0x3d87ab74	0.06624499
219	0x3df5ef10	0.12008488
220	0xbe0e30bc	-0.13885778
221	0x3e8472d7	0.25868866
222	0x3bfd9977	0.0077392417
223	0xbe8b3380	-0.2718773
224	0xbdc8cbe5	-0.09804515
225	0x3e59a14a	0.21252933
226	0xbe256740	-0.16152668
227	0x3e1535a0	0.14571238
228	0x3e9cbeda	0.30614358
229	0x3dd50c32	0.10402717
230	0xbe3a81d1	-0.18213584
231	0xbc0bc0a2	-0.008529814
232	0x3e2f995d	0.17148347
233	0xbf21631e	-0.63041866
234	0xbe2b9de0	-0.16759443
235	0x3db610a2	0.08889891
236	0xbe89bdc8	-0.26902604
237	0xbe809084	-0.25110257
238	0x3e9071af	0.28211734
239	0x3e997871	0.29974702
240	0x3cbe07f6	0.023197155
241	0xbe40247d	-0.18763919
242	0xbde7c428	-0.11316711
243	0x3e9ae4aa	0.30252582
244	0x3c11f9f2	0.008909689
245	0x3d45a435	0.048252303
246	0x3e8b8091	0.27246526
247	0xbda800b7	-0.08203261
248	0xbdebc7bb	-0.11512705
249	0x3e34df74	0.17663366
250	0xbd5a6d83	-0.053327095
251	0xbe5dbb30	-0.21653438
252	0xbe755657	-0.23958717
253	0xbea55c24	-0.3229686
254	0x3e2b3713	0.16720228
255	0xbdbfa1de	-0.093570456

linear_input.bias f4 [64]
0	0xbda2798a	-0.07933338
1	0x3dc8fd3b	0.09813925
2	0xbe9b4c7a	-0.30331784
3	0xbdc5aa8c	-0.0965167
4	0xbe937666	-0.28801268
5	0x3f010496	0.5039762
6	0xbe5e743e	-0.2172403
7	0xbd30a386	-0.043124698
8	0x3eae455c	0.34037292
9	0xbbe3361d	-0.006933941
10	0x3e248169	0.16064991
11	0xbe9b52b6	-0.3033654
12	0x3ce42f94	0.027854718
13	0xbd9c2302	-0.07623865
14	0x3e7bdaee	0.24595234
15	0x3dea9602	0.11454393
16	0x3de2b687	0.110699706
17	0xbe2827e3	-0.16421466
18	0xbdfd473b	-0.12367102
19	0xbdb7bb4d	-0.08971272
20	0x3e87b800	0.26507568
21	0xbe1f1380	-0.15534782
22	0xbc19b3d4	-0.009381253
23	0x3e326f44	0.17425257
24	0x3e9c4cbc	0.30527294
25	0x3e77306e	0.24139568
26	0x3de5912f	0.11209332
27	0xbe91a407	-0.28445455
28	0x3ea12d1b	0.31479725
29	0xbe151034	-0.14556962
30	0x3c7842d6	0.015152654
31	0xbd215ff5	-0.039398152
32	0xbdfcd476	-0.12345211
33	0x3e921279	0.2852972
34	0xbdb2c6b3	-0.08729305
35	0xbe6471b6	-0.22309002
36	0x3e878603	0.2646943
37	0x3eab9b78	0.3351705
38	0x3d48c383	0.04901458
39	0x3e93b5f9	0.28849772
40	0x3e2bd24d	0.16779442
41	0xbe29ee73	-0.16594867
42	0x3d0516ba	0.032492377
43	0xbda8a0b1	-0.082337745
44	0xbd66983d	-0.05629753
45	0x3dc69b74	0.09697619
46	0xbe5deb9a	-0.21671906
47	0x3e500ebd	0.20318122
48	0x3ec7071c	0.38872612
49	0xbe7613e4	-0.24031025
50	0xbe8c76f1	-0.27434495
51	0xbc8220b1	-0.01588473
52	0x3aef6f8f	0.00182675
53	0x3d7a259b	0.06107102
54	0x3e64425c	0.22290939
55	0x3ec597b3	0.385923
56	0xbe41838b	-0.18897836
57	0x3db30e80	0.08743
58	0xbc387534	-0.011258412
59	0x3e91f93c	0.28510463
60	0xbdebb7fd	-0.11509702
61	0x3e4dea50	0.20108914
62	0xbdfc570e	-0.12321292
63	0xbdea964a	-0.114544466

linear_hidden.0.weight f4 [64, 64]
0	0x3f16d2e7	0.5891556
1	0x3e6f5def	0.23375677
2	0xbd55a806	-0.052162193
3	0x3e28c9a7	0.16483174
4	0xbe5ce815	-0.21572907
5	0x3e14f0b0	0.1454494
6	0xbbb076df	-0.0053852643
7	0x3d978a73	0.07399454
8	0x3a75bfed	0.00093746075
9	0xbc05f18e	-0.008175267
10	0xbb0a6179	-0.0021115227
11	0x3cbbae11	0.02291015
12	0x3f033959	0.5125938
13	0xbcbac358	-0.022798225
14	0x3e18853e	0.14894578
15	0x3e8d2d82	0.27573782
16	0x3defe5f9	0.11713786
17	0xbce210d6	-0.027595919
18	0xbd440e31	-0.047865096
19	0x3cc69f44	0.024245866
20	0x3da197e6	0.078903005
21	0xbdd7e359	-0.1054141
22	0xbda2d7b7	-0.079513006
23	0x3ed55771	0.41668275
24	0x3e0d419a	0.13794556
25	0x3da40d86	0.08010392
26	0x3e0a38d7	0.13498245
27	0xbe030f18	-0.12798727
28	0x3e1fac7a	0.15593138
29	0x3ef5aede	0.47984976
30	0x3e2469b5	0.16055949
31	0x3e422516	0.1895946
32	0x3dcfede9	0.101528
33	0x3ebbb43b	0.36660942
34	0x3d1cad52	0.03825123
35	0x3dbb8e5a	0.09158011
36	0x3e3390e4	0.1753574
37	0x3e8580f3	0.26074943
38	0xbda47a70	-0.080311656
39	0x3e838f11	0.25695089
40	0x3e16ffe8	0.14746058
41	0xbda08988	-0.07838732
42	0x3a2c349a	0.00065691175
43	0x3ea1bd81	0.31589893
44	0x3d34c962	0.044137366
45	0x3e63c378	0.22242534
46	0x3e0b32df	0.13593625
47	0xbd24b594	-0.04021223
48	0x3d778447	0.060428884
49	0x3e8f45e2	0.27983004
50	0x3a637776	0.0008677164
51	0x3d1fe0b2	0.039032646
52	0x3e416e0a	0.18889633
53	0x3dbe1205	0.09280781
54	0x3e9daa7f	0.3079414
55	0x3dbdee06	0.09273915
56	0x3d65d52b	0.056111496
57	0xbd1f1995	-0.038842756
58	0x3ca46030	0.020065397
59	0x3e29548c	0.16536158
60	0xbe2bff69	-0.1679665
61	0x3ed0596c	0.40693223
62	0x3d00832f	0.031375106
63	0xbf132d60	-0.5749111
64	0x3e086342	0.13319114
65	0x3db523ba	0.08844705
66	0xbf4e6031	-0.80615526
67	0xbee72d82	-0.45151907
68	0x3e0d2c37	0.13786398
69	0x3e43b9de	0.19113871
70	0xbbde4936	-0.00678363
71	0x3daa4c3e	0.08315323
72	0x3dbeea51	0.09322036
73	0xbca2d5b9	-0.019877302
74	0x3d78dce0	0.060757518
75	0xbda554af	-0.08072793
76	0x3f00f8e4	0.50379777
77	0xbd8beff4	-0.06832877
78	0x3ccc6056	0.02494828
79	0x3ea723d0	0.3264451
80	0x3df37711	0.118879445
81	0xbd7aa736	-0.06119462
82	0xbdf773b4	-0.120826155
83	0x3dbdd7f4	0.092697054
84	0xbc1b7964	-0.009489391
85	0x3e6dd025	0.23223932
86	0xbe4cb1a0	-0.19989634
87	0x3de317af	0.11088502
88	0x3f20b6b6	0.62778795
89	0x3e4eb5f0	0.20186591
90	0x3da49740	0.08036661
91	0x3dde371a	0.108503535
92	0xbd40f6fc	-0.047110543
93	0xbed53893	-0.41644725
94	0x3e01c59c	0.12673038
95	0x3d0e4b07	0.03473952
96	0xbc09c264	-0.008408163
97	0x3ead03cc	0.3379196
98	0x3e57bc14	0.2106784
99	0xbde35900	-0.1110096
100	0x3dda5d1e	0.10662292
101	0x3eaff0ff	0.34363553
102	0xbd82b1bd	-0.06381557
103	0x3dec9ba3	0.11553123
104	0x3d8b2512	0.0679418
105	0x3c330274	0.010925878
106	0xbcdec1c3	-0.027192002
107	0xbe2c7996	-0.16843256
108	0xbc64318e	-0.01392783
109	0x3ea4ad9b	0.321637
110	0xbd1ca4cb	-0.038243096
111	0x3d32b073	0.043625306
112	0x3e102521	0.14076664
113	0xbec93f84	-0.3930627
114	0xbc5350be	-0.012897668
115	0x3da1734a	0.07883318
116	0x3e0e7913	0.13913374
117	0x3ca3291c	0.019917063
118	0x3d41f6c6	0.047354482
119	0xbd38db53	-0.04513104
120	0x3c9bdcdb	0.01902621
121	0x3e089fb2	0.13342169
122	0xbd666833	-0.056251716
123	0x3e90ddd9	0.28294256
124	0xbdd0c317	-0.101934604
125	0x3e880c9f	0.2657213
126	0x3d6439fb	0.055719357
127	0xbdfd96b6	-0.123822615
128	0xbdc5d451	-0.09659637
129	0xbca0f236	-0.019646745
130	0x3e2de36c	0.16981286
131	0x3d902bac	0.0703958
132	0x3d4d8e30	0.05018443
133	0xbde5e9cf	-0.11226236
134	0xbda16551	-0.07880653
135	0x3e45a74f	0.19302104
136	0xbd2d98b8	-0.042381972
137	0x3e2a3f27	0.16625653
138	0xbc0af5bc	-0.008481439
139	0xbd9bf976	-0.0761594
140	0x3e0cd711	0.13753916
141	0x3d80b990	0.06285393
142	0xbd2a0dd2	-0.041517086
143	0x3e69760e	0.2279894
144	0x3c2dc233	0.010605383
145	0x3dd5c1c6	0.1043735
146	0xbd9101c6	-0.070804164
147	0x3d897f0f	0.06713688
148	0xbaf8c1de	-0.0018978675
149	0xbed5352c	-0.4164213
150	0x3df3d8e3	0.11906602
151	0x3dadefbc	0.08492991
152	0xbe79c62f	-0.24392007
153	0xbdac2e0f	-0.084072225
154	0xbbb6335f	-0.005560323
155	0x3d1ec0a0	0.03875792
156	0x3e3c99b9	0.18418016
157	0x3f85a37b	1.0440515
158	0x3e01942c	0.1265418
159	0x3d284eeb	0.041090887
160	0x3da6eb32	0.08150329
161	0xbd6a783e	-0.057243578
162	0x3d2f117c	0.042741284
163	0x3e43dd65	0.19127424
164	0x3de9456c	0.11390194
165	0xbdc29a80	-0.09502125
166	0x3e1b21e0	0.15149641
167	0x3c857c5e	0.016294654
168	0x3e0a5164	0.1350761
169	0x3d8aec82	0.067833915
170	0x3d50a819	0.05094156
171	0x3e923f74	0.28564036
172	0x3da19d1f	0.078912966
173	0xbd8b0026	-0.06787138
174	0xbcfffa3f	-0.031247256
175	0x3da49ffc	0.08038327
176	0xbd3d1f28	-0.04617229
177	0x3e6d0496	0.2314628
178	0x3e4ada13	0.19809751
179	0x3d91bbaf	0.07115876
180	0x3e57b0c3	0.21063523
181	0x3e067a8d	0.13132687
182	0x3de449d4	0.11146894
183	0x3da1f04f	0.07907163
184	0x3eb3680f	0.35040328
185	0xba9b9bdb	-0.001187201
186	0xbcf79682	-0.030223135
187	0x3e9bc06c	0.30420244
188	0x3e3f8201	0.18701936
189	0x3dd51b52	0.104056016
190	0xbded1109	-0.11575515
191	0xbe4dd7f6	-0.20101914
192	0x3e2df2c1	0.16987135
193	0x3e8baae3	0.27278814
194	0x3e8fb5b2	0.2806831
195	0x3d8ea1f2	0.06964482
196	0x3e3f9705	0.18709953
197	0xbe89bdae	-0.26902527
198	0x3ea91d98	0.3303039
199	0x3e1de5cc	0.15419692
200	0xbe4ccad5	-0.1999925
201	0xbd8aa459	-0.06769628
202	0x3e41a346	0.1890994
203	0x3e8749cf	0.264235
204	0xbd546851	-0.051857296
205	0x3e8fe626	0.28105277
206	0x3e20a7c5	0.15688999
207	0xbe4c0308	-0.19923031
208	0x3db0f2b8	0.08640045
209	0x3e1cbe4a	0.15306965
210	0x3e180a45	0.14847668
211	0x3edc7a57	0.43062088
212	0x3ca156ee	0.019694772
213	0x3ef20506	0.47269458
214	0xbd952b82	-0.07283689
215	0x3ea92d2f	0.33042285
216	0x3ca23ca9	0.019804316
217	0x3e8ed498	0.2789657
218	0x3e4cc4b9	0.19996919
219	0x3ea91661	0.33024886
220	0xbd09cdf9	-0.033643696
221	0xbda54157	-0.08069103
222	0x3d898a0b	0.06715783
223	0xbdade35e	-0.084906325
224	0x3c644539	0.01393252
225	0xbe3ca5e1	-0.18422653
226	0x3e4dcde9	0.2009808
227	0x3e0c10e2	0.13678315
228	0xbf023353	-0.50859565
229	0x3e313a2b	0.17307346
230	0x3e90af88	0.2825892
231	0xbdbf5913	-0.093431614
232	0x3d25df4c	0.040496156
233	0x3e8e0987	0.27741644
234	0x3e178994	0.14798576
235	0x3e3d20d3	0.18469553
236	0x3e325744	0.17416102
237	0x3e38f890	0.18063569
238	0x3ebe37c8	0.37151933
239	0xbd807d21	-0.062738664
240	0x3dc3bf69	0.09557993
241	0x3ef6a6b0	0.48174047
242	0x3ecaf663	0.39641103
243	0xbd13255d	-0.035924304
244	0xbe85016e	-0.25977653
245	0x3c855cda	0.016279627
246	0xbddb8b75	-0.10719959
247	0xbe195347	-0.14973174
248	0x3ec3c2d0	0.38234568
249	0x3e5f0ca4	0.21782166
250	0x3e919db4	0.2844063
251	0xbf2e2766	-0.6802887
252	0x3da2de7f	0.07952594
253	0xbed8c535	-0.42337957
254	0x3e877b9d	0.26461497
255	0xbe687b12	-0.22703198

linear_hidden.0.bias f4 [64]
0	0x3e9b5822	0.30340677
1	0x3dd4a43a	0.10382886
2	0x3dbda925	0.092607774
3	0xbe18c528	-0.14918959
4	0x3e1ab86e	0.15109417
5	0xbd65fcaa	-0.056149162
6	0x3e063da3	0.1310945
7	0x3da2273f	0.07917642
8	0x3d0a771d	0.033805
9	0xbde5e14e	-0.11224614
10	0x3ca90304	0.02063132
11	0x3e04fa81	0.12986185
12	0x3c9aecd9	0.018911766
13	0x3c85dc10	0.016340286
14	0xbe1ae11f	-0.1512494
15	0x3e1263fb	0.14295952
16	0xbdffbe92	-0.1248752
17	0xbd830ea3	-0.06399276
18	0xbcffd7d1	-0.031230839
19	0xbe98f539	-0.2987459
20	0xbd79b2de	-0.060961597
21	0xbccdddd2	-0.025130186
22	0xbd9f2346	-0.077704
23	0x3e43efff	0.1913452
24	0x3d90f694	0.07078281
25	0x3d63c6d8	0.055609554
26	0x3dc939fe	0.09825514
27	0x3def485e	0.11683725
28	0x3e6ff16f	0.23431943
29	0x3e116e4a	0.14202228
30	0xbd26946f	-0.0406689
31	0xbc3e5a8d	-0.011618269
32	0x3e51f0ef	0.20502065
33	0x3e35a57d	0.1773891
34	0x3d375712	0.04476077
35	0xbd168be3	-0.0367545
36	0xbde75fe2	-0.11297585
37	0xbe405757	-0.18783318
38	0x3d739752	0.059470482
39	0x3dd0fc27	0.10204344
40	0x3e2a4100	0.16626358
41	0xbd362aa2	-0.04447425
42	0x3e105f86	0.1409894
43	0xbdb6d1ea	-0.08926757
44	0xbdc85ea2	-0.09783675
45	0xbd37f075	-0.044907052
46	0xbdc2b796	-0.095076725
47	0x3cbae673	0.022814965
48	0x3e992bb8	0.29916167
49	0x3bed7fbd	0.0072478936
50	0x3da38586	0.07984452
51	0xbdc8c225	-0.09802655
52	0x3d9b6d50	0.07589209
53	0x3e359693	0.17733221
54	0x3e6c4559	0.23073329
55	0xbd7263f2	-0.059177347
56	0x3c579652	0.013158398
57	0xbd1d94e1	-0.03847206
58	0xbe3a69a3	-0.1820436
59	0xbca84067	-0.020538522
60	0x3d60c801	0.05487824
61	0xbd25718b	-0.040391486
62	0x3e0af50c	0.1357004
63	0x3df97202	0.121799484

linear_output.weight f4 [4, 64]
0	0x3e5271aa	0.20551172
1	0x3e4c3098	0.19940412
2	0x3d4cd588	0.050008327
3	0xbd16e290	-0.03683716
4	0xbda13c21	-0.07872797
5	0x3c6fb524	0.01463059
6	0xbc8734f9	-0.016504752
7	0x3dfae017	0.12249773
8	0x3ce1aabe	0.027547237
9	0xbe45329b	-0.19257586
10	0x3d7be378	0.061496228
11	0x3d95d442	0.073158756
12	0x3d28dd58	0.041226715
13	0xbb18f3e1	-0.0023338723
14	0xbe9af86f	-0.30267665
15	0x3de1cdaf	0.11025559
16	0xbea63219	-0.32460096
17	0x3cf3a584	0.02974201
18	0x3cb5b319	0.022180127
19	0x3ed249f9	0.41072062
20	0xbeabe80c	-0.33575475
21	0x3df9311a	0.121675685
22	0xbe6d2d74	-0.2316187
23	0x3dbed65a	0.09318228
24	0xbd434b0f	-0.047679003
25	0xbd7b90ab	-0.061417263
26	0x3d982996	0.07429807
27	0x3df31f29	0.11871178
28	0x3df68cca	0.12038572
29	0x3eafc497	0.34329674
30	0x3d884926	0.06654577
31	0x3d299df7	0.041410413
32	0x3ec90127	0.39258692
33	0x3d464c77	0.048412766
34	0x3d05a5fc	0.032629
35	0x3dbb3791	0.09141458
36	0x3db98035	0.09057657
37	0xbdcbb40f	-0.09946453
38	0x3d1de617	0.03854951
39	0x3e98ab8e	0.29818386
40	0x3e83abaa	0.25716907
41	0xbe88248b	-0.2659038
42	0x3d9b0726	0.07569723
43	0xbd8d93da	-0.06912966
44	0x3d125e04	0.03573419
45	0xbd6119c2	-0.054956205
46	0x3c0882a6	0.00833193
47	0xbd978e1e	-0.074001536
48	0x3e983f00	0.29735565
49	0x3bcc7f9c	0.006240798
50	0x3e155386	0.14582643
51	0x3d069f06	0.0328665
52	0xbcb9c5b6	-0.022677284
53	0x3e1394aa	0.1441218
54	0x3e7a2d9c	0.24431461
55	0xbd2a40e1	-0.04156578
56	0x3cff1c52	0.031141434
57	0x3d636579	0.055516694
58	0xbe06c198	-0.13159788
59	0xbc878a53	-0.01654545
60	0xbd454def	-0.048170026
61	0x3daa8276	0.08325665
62	0x3e878c99	0.26474455
63	0x3de2d833	0.11076393
64	0x3e7142f7	0.23560701
65	0x3e04b9e7	0.12961541
66	0x3e5254a8	0.20540106
67	0x3dca6498	0.09882468
68	0x3d986263	0.07440641
69	0x3dced259	0.100987144
70	0x3db018b6	0.08598463
71	0x3def63ce	0.11688958
72	0x3db8234d	0.08991108
73	0x3de65d92	0.11248316
74	0x3f1aac53	0.60419196
75	0x3e01d2e3	0.12678103
76	0x3e0082de	0.12549922
77	0xbb0f8968	-0.002190197
78	0x3daae8fd	0.0834522
79	0x3df899a7	0.12138682
80	0x3d8b9446	0.0681539
81	0x3dc82b5e	0.09773897
82	0x3d90ebe1	0.0707624
83	0x3db8706b	0.09005817
84	0x3d8a5df8	0.06756204
85	0x3d95a5e4	0.07307032
86	0x3dbf7c15	0.09349839
87	0x3dd5315d	0.10409806
88	0x3df59d90	0.11992943
89	0x3de6cdd0	0.11269724
90	0x3e11a8e4	0.14224583
91	0x3e4ed7e6	0.20199546
92	0x3df4340a	0.11923988
93	0x3de9496a	0.11390956
94	0x3e0193b2	0.12653998
95	0x3df88f6c	0.121367306
96	0x3e21553a	0.15755168
97	0x3db81bd2	0.08989681
98	0x3e00be1c	0.12572521
99	0x3e14a511	0.14516093
100	0x3e2b3a55	0.1672147
101	0x3de8a54b	0.11359652
102	0x3dcb7b1f	0.09935593
103	0x3ddfb67a	0.109234765
104	0x3e525680	0.2054081
105	0x3d91140a	0.070839
106	0x3ddcd1b4	0.10782185
107	0x3dbca495	0.09211079
108	0x3e487547	0.19575988
109	0x3da28e8c	0.07937345
110	0x3dfec8c6	0.12440638
111	0x3e09730b	0.13422792
112	0x3f4e0c37	0.8048739
113	0x3d9e6a36	0.07735102
114	0x3e3c4874	0.18387014
115	0x3e061844	0.13095194
116	0x3decaf41	0.115568645
117	0x3e052082	0.13000682
118	0x3ddce747	0.107863
119	0x3dbe377f	0.09287929
120	0x3e2e40f7	0.1701697
121	0x3dd34b29	0.1031707
122	0x3e2c978d	0.16854687
123	0x3d6adc6d	0.05733912
124	0x3dec3ada	0.115346625
125	0x3dd6b1bc	0.10483119
126	0x3dcfc562	0.1014507
127	0x3dcb1340	0.09915781
128	0x3d82a4f3	0.06379118
129	0x3d32c2c8	0.04364279
130	0x3d681c96	0.056667887
131	0x3f218eaa	0.63108313
132	0xbe3d2608	-0.18471539
133	0x3db4f662	0.08836056
134	0xbe4bb3a8	-0.19892752
135	0x3b8a3b37	0.0042184847
136	0xbdbfe312	-0.09369482
137	0xbe3cb2a5	-0.18427522
138	0xbcb7d151	-0.022438677
139	0x3da69a4b	0.08134898
140	0x3da6c5b9	0.08143181
141	0x39f213f0	0.00046172692
142	0xbdf3693e	-0.11885308
143	0x3d76cf2c	0.06025617
144	0xbe5f1765	-0.21786268
145	0x3d46ff06	0.048583053
146	0x3d7d19ab	0.061792057
147	0xbf0eb50a	-0.55744994
148	0x3e860324	0.2617427
149	0x3d7bc8f4	0.06147094
150	0xbd43e1c3	-0.047822725
151	0xbd4ca018	-0.049957365
152	0x3df119b5	0.11772481
153	0x3dba5ea5	0.09100083
154	0x3dc228e9	0.09480459
155	0x3dbd33e1	0.09238411
156	0x3ca2ab1c	0.019856982
157	0xbd509e38	-0.05093214
158	0x3d8c9416	0.06864183
159	0x3db2d872	0.0873269
160	0xbcf40cf5	-0.029791335
161	0x3d1feed0	0.03904611
162	0x3e319982	0.17343715
163	0x3defc06e	0.11706625
164	0xbe485923	-0.19565253
165	0xbe036133	-0.12830047
166	0x3dbd892e	0.092546806
167	0xbc87aab5	-0.016560892
168	0xbd5751cc	-0.052568242
169	0x3eb307e9	0.34966972
170	0x3d5a0fe2	0.053237803
171	0x3e099fb3	0.13439827
172	0x3ed61d30	0.41819143
173	0x3da01875	0.07817165
174	0x3dcd46bc	0.10023257
175	0x3cf437fd	0.029811854
176	0xbd822477	-0.06354611
177	0x3dde2044	0.10845998
178	0x3da267ba	0.079299405
179	0x3dc73b97	0.09728163
180	0x3d3e3239	0.046434615
181	0xbd9a6cea	-0.07540305
182	0xbdd4ffd4	-0.10400358
183	0x3dc0c659	0.09412832
184	0x3e8dc140	0.276865
185	0x3f08a9fa	0.53384364
186	0x3e56a09e	0.20959708
187	0x3d99094a	0.07472475
188	0x3e017957	0.12643944
189	0x3d1aa431	0.03775424
190	0xbd6652c7	-0.056231286
191	0xbd4f1c16	-0.050563894
192	0xbd4d2647	-0.050085332
193	0x3e214938	0.15750587
194	0xbdd6f958	-0.10496777
195	0x3d93ec99	0.07222862
196	0xbcd091dc	-0.025460176
197	0xbd4dd73b	-0.050254088
198	0x3dca754d	0.098856546
199	0x3dfc6c8d	0.12325392
200	0x3da8fe0d	0.08251581
201	0x3df8ecb2	0.12154521
202	0xbdf2aa63	-0.11848905
203	0xbd584686	-0.05280163
204	0xbdad7ed4	-0.08471456
205	0x3acf9a68	0.0015838863
206	0xbcc4772a	-0.023982603
207	0xbd351988	-0.0442138
208	0x3dbb9ac8	0.091603816
209	0xbdb1bc2f	-0.08678471
210	0x3dc05466	0.09391098
211	0x3e511215	0.20417054
212	0xbe24cecc	-0.16094512
213	0x3daef498	0.08542746
214	0xbcac133b	-0.021005264
215	0x3e072d01	0.13200761
216	0xbdc785f8	-0.097423494
217	0xbde80f3d	-0.113310315
218	0x3d69a60d	0.057043124
219	0x3dac6e97	0.08419531
220	0xbdc68b2b	-0.09694513
221	0x3d69ba62	0.057062514
222	0xbdb221b7	-0.08697837
223	0xbd8c7f0c	-0.0686017
224	0xbd99ca84	-0.0750933
225	0xbdd60f59	-0.10452146
226	0x3dab0d79	0.08352179
227	0x3c72d180	0.0148204565
228	0xbf50097d	-0.8126448
229	0x3e39956a	0.18123403
230	0xbdb33ddc	-0.08752033
231	0xbd82a4ce	-0.0637909
232	0xbdfc97c9	-0.12333638
233	0xbde6881d	-0.1125643
234	0xbd3efcd1	-0.046627823
235	0xbd6a6f13	-0.057234835
236	0x3d8c9192	0.06863703
237	0xbe13d425	-0.14436395
238	0xbdabe9c5	-0.083941974
239	0x3e2623e6	0.16224632
240	0x3e068ef5	0.13140471
241	0xbdc8b920	-0.09800935
242	0x3c859d5d	0.016310388
243	0xbd9785e3	-0.07398584
244	0x3e0fcae2	0.14042237
245	0xbdc209cb	-0.09474524
246	0x3c7ae6eb	0.015313844
247	0xbe019d09	-0.1265756
248	0x3d13de96	0.036100946
249	0x3d81be05	0.063350715
250	0x3e13bc6a	0.14427343
251	0xbe183812	-0.14865139
252	0x3e2f3ae7	0.17112313
253	0x3d760179	0.06006
254	0x3c626ee7	0.0138203865
255	0xbdf7ff22	-0.121092096

linear_output.bias f4 [4]
0	0x3e284599	0.164328
1	0x3d784155	0.06060918
2	0x3ae70a73	0.0017627015
3	0xbdb197c4	-0.08671525

exp_avg f4 [64, 13]
0	0x35d14ca9	1.5594024e-06
1	0xb79d7664	-1.8770988e-05
2	0xb832cb61	-4.262792e-05
3	0x37496f72	1.20064815e-05
4	0xb49f7c0a	-2.9706308e-07
5	0xb7aa9e0a	-2.0339172e-05
6	0xb82ea1e3	-4.16356e-05
7	0x3749466d	1.1996931e-05
8	0xb610b476	-2.1562714e-06
9	0xb7b33c2d	-2.1366484e-05
10	0xb82af719	-4.0761286e-05
11	0x3747668e	1.1885202e-05
12	0x37813672	1.5403351e-05
13	0xb7845bbc	-1.5778343e-05
14	0xb82e8423	-4.1607895e-05
15	0xb85df74f	-5.292083e-05
16	0xb61feb17	-2.3829687e-06
17	0xb7910119	-1.7285858e-05
18	0xb837d925	-4.383283e-05
19	0xb84bb40f	-4.8566664e-05
20	0xb620adc8	-2.3943012e-06
21	0xb7a08f2e	-1.914016e-05
22	0xb83b2dfe	-4.4627108e-05
23	0xb83c9f00	-4.4970773e-05
24	0xb66f5b6f	-3.5666997e-06
25	0xb89be040	-7.432746e-05
26	0x36aed6d6	5.2106143e-06
27	0xb81680e4	-3.5882826e-05
28	0xb8b1aa18	-8.4717e-05
29	0x37a58c6d	1.9734924e-05
30	0xb508a8e8	-5.090974e-07
31	0xb83af1aa	-4.4570923e-05
32	0xb8b6537a	-8.693985e-05
33	0x37a35517	1.9470737e-05
34	0xb6ec42e8	-7.041137e-06
35	0xb85fc981	-5.335501e-05
36	0xb8bcd653	-9.0044596e-05
37	0x3799d237	1.833691e-05
38	0x390d856b	0.0001349651
39	0xb9178511	-0.00014450053
40	0x37ba3136	2.2195843e-05
41	0x39981c08	0.00029012584
42	0xb924b5e8	-0.00015708024
43	0xb924d9b9	-0.00015721367
44	0xb6c8e95b	-5.9876306e-06
45	0x3988d187	0.0002609605
46	0xb924c019	-0.00015711821
47	0xb933f7fa	-0.00017163149
48	0xb81eb42a	-3.7837926e-05
49	0x39729b07	0.0002313667
50	0xb9251116	-0.00015741991
51	0xb9061d3d	-0.00012790128
52	0x378aa3ad	1.65271e-05
53	0xb7cc12f0	-2.4327514e-05
54	0xb894d89f	-7.097539e-05
55	0x38064893	3.201568e-05
56	0x379dd775	1.8816188e-05
57	0xb79ac05d	-1.8447807e-05
58	0xb880e95e	-6.146984e-05
59	0x38054fdb	3.1784042e-05
60	0x37b5d2e6	2.1675089e-05
61	0xb7445329	-1.1701873e-05
62	0xb85ca178	-5.2602467e-05
63	0x38014a6f	3.082532e-05
64	0xb724f0a3	-9.831189e-06
65	0xb8284401	-4.0117655e-05
66	0x37881e43	1.6226555e-05
67	0x3893d23a	7.048664e-05
68	0xb819b312	-3.6644815e-05
69	0xb84c872d	-4.8763282e-05
70	0x35e8d711	1.734794e-06
71	0x384bd879	4.8600577e-05
72	0xb8182c36	-3.62808e-05
73	0xb8725708	-5.777835e-05
74	0xb77645cf	-1.4678996e-05
75	0x37e7a780	2.7615344e-05
76	0xb811e20d	-3.478122e-05
77	0x3803a04f	3.1382133e-05
78	0xb6376281	-2.7326462e-06
79	0xb7b02eac	-2.1002568e-05
80	0xb8012302	-3.07886e-05
81	0x368daf68	4.2225474e-06
82	0xb632d632	-2.6648745e-06
83	0xb7b0e27f	-2.1086305e-05
84	0xb7e0967e	-2.677296e-05
85	0x368598ac	3.981482e-06
86	0xb638b7f4	-2.7525211e-06
87	0xb7af4fd0	-2.0898791e-05
88	0xb7c4fa62	-2.3481614e-05
89	0x364631d5	2.9533305e-06
90	0xb8323556	-4.248818e-05
91	0xb7e5bca0	-2.7386763e-05
92	0xb6a9bfb5	-5.05891e-06
93	0x38049bb6	3.161627e-05
94	0xb7c0dc6e	-2.299083e-05
95	0xb800c84d	-3.0704123e-05
96	0xb73bcc24	-1.1193599e-05
97	0x37d72f58	2.5652043e-05
98	0xb7c133cf	-2.3031518e-05
99	0xb80fda2c	-3.4297045e-05
100	0xb79692b4	-1.7949707e-05
101	0x37a39017	1.9498211e-05
102	0xb7c2dac0	-2.3228466e-05
103	0xb79e4b1b	-1.8870041e-05
104	0x3767dd03	1.3820131e-05
105	0x37a08f14	1.9140112e-05
106	0x3798de7b	1.8223413e-05
107	0x36ae128d	5.1877637e-06
108	0x378ee464	1.7034072e-05
109	0x37ce2a97	2.4576946e-05
110	0x37b06ef3	2.10325e-05
111	0x36b18968	5.2910073e-06
112	0x37acf1b0	2.0616542e-05
113	0x37fdca9a	3.0254294e-05
114	0x37cbf080	2.4311477e-05
115	0x36c52e6d	5.876462e-06
116	0x380cdddb	3.358522e-05
117	0x386634ec	5.488556e-05
118	0x35f8ce5f	1.8537502e-06
119	0xb8682154	-5.534415e-05
120	0x383de364	4.5272885e-05
121	0x3890ac90	6.898597e-05
122	0x37dd0380	2.6346883e-05
123	0xb7ea984f	-2.7965898e-05
124	0x383de556	4.5274697e-05
125	0x38b0c611	8.429227e-05
126	0x3861ba88	5.38179e-05
127	0xb4a64c26	-3.0975315e-07
128	0x383de822	4.5277302e-05
129	0x37e519a4	2.7310867e-05
130	0x376a37e6	1.3960502e-05
131	0x3626833f	2.4812323e-06
132	0xb7631078	-1.3534089e-05
133	0x37787a30	1.4810401e-05
134	0x37a38246	1.9491777e-05
135	0x37535313	1.2595922e-05
136	0xb69e9c3a	-4.726954e-06
137	0x37780656	1.4783427e-05
138	0x37d6f014	2.5622583e-05
139	0x37c62b01	2.3623465e-05
140	0x36877cd4	4.0378454e-06
141	0x3770ff48	1.4364552e-05
142	0xb61deb7e	-2.3531898e-06
143	0x3591cc1d	1.0862747e-06
144	0xb779d94a	-1.4892148e-05
145	0xb78a3623	-1.6476091e-05
146	0x35bbb0d6	1.3984052e-06
147	0x362ea7ce	2.6025696e-06
148	0xb762578b	-1.3491032e-05
149	0xb72cf0d9	-1.0308076e-05
150	0x3595ba4f	1.1155588e-06
151	0x368359ea	3.9145716e-06
152	0xb74624bf	-1.1810275e-05
153	0xb6a5aae2	-4.9372766e-06
154	0xb393f5fb	-6.8899645e-08
155	0xb8767913	-5.876373e-05
156	0x3615ceee	2.232318e-06
157	0x36e04297	6.6834723e-06
158	0x370d13ba	8.408848e-06
159	0x355586f4	7.9545066e-07
160	0x364b68ba	3.0310316e-06
161	0x36ce4246	6.1469937e-06
162	0x368c3d76	4.17948e-06
163	0x35751fbc	9.131579e-07
164	0x36859ec5	3.982192e-06
165	0x3698861c	4.5455654e-06
166	0x34ab1244	3.1864522e-07
167	0x35c1c6de	1.4437499e-06
168	0x3856f813	5.1252613e-05
169	0xb7c84585	-2.387423e-05
170	0xb821425b	-3.844719e-05
171	0xb7cf2311	-2.4692652e-05
172	0xb7085eb9	-8.128286e-06
173	0xb7c983bf	-2.4022416e-05
174	0xb8216bad	-3.8485672e-05
175	0xb799c6c0	-1.8331571e-05
176	0xb7087c7c	-8.1352155e-06
177	0xb7c9d1f8	-2.4058842e-05
178	0xb81c80c0	-3.7313206e-05
179	0xb75c862e	-1.3144263e-05
180	0xb71fb56a	-9.519377e-06
181	0xb8a29826	-7.753102e-05
182	0xb7cc0c0e	-2.4324308e-05
183	0xb7225136	-9.674861e-06
184	0x37aad4b7	2.0364632e-05
185	0xb7ad4288	-2.0654188e-05
186	0xb7e9ba10	-2.7862407e-05
187	0xb7885268	-1.6250837e-05
188	0x37855581	1.5894651e-05
189	0xb7adac93	-2.0703568e-05
190	0xb80589d8	-3.1838048e-05
191	0xb7c2cf82	-2.322323e-05
192	0x3737154c	1.0912609e-05
193	0xb7b24c27	-2.1254715e-05
194	0xb8433c2b	-4.654766e-05
195	0xb8091b48	-3.2688753e-05
196	0x373c678a	1.122978e-05
197	0x388408b6	6.295873e-05
198	0xb8260db9	-3.9590264e-05
199	0xb820c38f	-3.83291e-05
200	0xb6613c3b	-3.3562671e-06
201	0x382ed41e	4.1682382e-05
202	0xb8259b57	-3.9483737e-05
203	0xb83c623e	-4.4914188e-05
204	0xb7b0849c	-2.1042586e-05
205	0x37acd085	2.0601097e-05
206	0xb823cd48	-3.905341e-05
207	0x384c644c	4.87308e-05
208	0xb7583fcf	-1.288946e-05
209	0x371073d6	8.610039e-06
210	0x38537a69	5.0420324e-05
211	0xb7bbca73	-2.238641e-05
212	0xb7344f55	-1.0747307e-05
213	0x37246bcc	9.80026e-06
214	0x385b5f16	5.2302225e-05
215	0xb7bd33a2	-2.25546e-05
216	0xb7136c50	-8.787101e-06
217	0x37325585	1.0629538e-05
218	0x386174fd	5.3753134e-05
219	0xb7c2d4d5	-2.322571e-05
220	0xb7ef48b6	-2.8524879e-05
221	0x39127715	0.00013968007
222	0xb6adb118	-5.176418e-06
223	0xb9687a23	-0.00022170744
224	0x390458ee	0.0001262163
225	0x3923529f	0.0001557567
226	0x37b00044	2.0980959e-05
227	0xb94ca79f	-0.000195174
228	0x390453b6	0.00012619686
229	0x3934f10f	0.00017255939
230	0x384ca6c9	4.879272e-05
231	0xb930914e	-0.00016838798
232	0x39045d27	0.00012623203
233	0x3930faf0	0.0001687815
234	0x362cafef	2.5732404e-06
235	0xb79be65a	-1.8584706e-05
236	0xb823b147	-3.902733e-05
237	0x370edb0e	8.514862e-06
238	0x35b9d5f0	1.3845838e-06
239	0xb7ac2fb7	-2.0526217e-05
240	0xb81d3152	-3.747765e-05
241	0x370c6a2e	8.369372e-06
242	0xb36f5ce3	-5.5731004e-08
243	0xb7baa2aa	-2.2248674e-05
244	0xb818b57c	-3.6408645e-05
245	0x37017412	7.716024e-06
246	0xb7c1e16c	-2.3112363e-05
247	0x378f4c63	1.7082499e-05
248	0xb722ccd0	-9.703639e-06
249	0xb848e1ea	-4.7894115e-05
250	0x37baa65f	2.22504e-05
251	0x3786da55	1.6075714e-05
252	0xb71b0bfc	-9.24151e-06
253	0xb83d645a	-4.515457e-05
254	0x37baa4be	2.2249642e-05
255	0x37794192	1.4856823e-05

exp_avg_sq f4 [64, 13]
0	0x328b7772	1.6236047e-08
1	0x31c413b8	5.7065925e-09
2	0x34068835	1.2529274e-07
3	0x32c2f068	2.2693897e-08
4	0x3290fb4e	1.6878086e-08
5	0x31c8d294	5.844706e-09
6	0x34043a8c	1.2314757e-07
7	0x32c32220	2.2716506e-08
8	0x32978a1c	1.7641518e-08
9	0x31d4b34f	6.190397e-09
10	0x34023298	1.21256e-07
11	0x32c3278f	2.2718977e-08
12	0x33141a62	3.448293e-08
13	0x33015215	3.0109806e-08
14	0x320daa60	8.246019e-09
15	0x3416b567	1.4035832e-07
16	0x330fb45f	3.345883e-08
17	0x3317508f	3.5230695e-08
18	0x3224476d	9.562297e-09
19	0x3407e9cc	1.265791e-07
20	0x330fca37	3.3478695e-08
21	0x33331cfa	4.170304e-08
22	0x32666281	1.3410159e-08
23	0x33f76add	1.1521272e-07
24	0x330fdee9	3.3497518e-08
25	0x33a9710b	7.890238e-08
26	0x339bfdab	7.263892e-08
27	0x32a85e0f	1.9600547e-08
28	0x3510f942	5.40069e-07
29	0x33dc70ff	1.0265102e-07
30	0x33a7ebbc	7.819423e-08
31	0x32b92398	2.155302e-08
32	0x350dee2a	5.287317e-07
33	0x33dc77cf	1.02663414e-07
34	0x33b78a40	8.546749e-08
35	0x32e77f28	2.6949763e-08
36	0x350ba2b0	5.2018277e-07
37	0x33dc7a1b	1.0266759e-07
38	0x349d77be	2.9330653e-07
39	0x34386baf	1.717551e-07
40	0x3371dd85	5.6313656e-08
41	0x35c94fbf	1.4998876e-06
42	0x348dbfdc	2.6402893e-07
43	0x343b2813	1.7430311e-07
44	0x3379e7e6	5.818574e-08
45	0x35c85a0c	1.4927368e-06
46	0x348dbf8e	2.640267e-07
47	0x343f245e	1.7801491e-07
48	0x3386ed37	6.2830104e-08
49	0x35c7c088	1.4882689e-06
50	0x348dbd97	2.640124e-07
51	0x352835ff	6.266345e-07
52	0x3282b08b	1.5214274e-08
53	0x32060961	7.801959e-09
54	0x338811e7	6.33625e-08
55	0x326b36b9	1.3691243e-08
56	0x3295d24e	1.7441518e-08
57	0x32160fc7	8.7347365e-09
58	0x337f634a	5.9462117e-08
59	0x326ba2e1	1.3715835e-08
60	0x32ace7f6	2.0128919e-08
61	0x32351b34	1.0541772e-08
62	0x3372aacd	5.6500358e-08
63	0x326bd857	1.372799e-08
64	0x3329ba96	3.9518078e-08
65	0x33494d6c	4.6869374e-08
66	0x329e0d97	1.83998e-08
67	0x33f77b17	1.1524224e-07
68	0x331d4810	3.661995e-08
69	0x33753f92	5.7101325e-08
70	0x32bd05e7	2.200518e-08
71	0x33c73ef1	9.2781086e-08
72	0x331da13d	3.6701056e-08
73	0x3395a6ef	6.968718e-08
74	0x3301770a	3.014342e-08
75	0x33a0a4b3	7.480539e-08
76	0x331dc4fc	3.6733567e-08
77	0x33bb9f90	8.73689e-08
78	0x322cabee	1.005081e-08
79	0x31848f13	3.8579713e-09
80	0x3344643f	4.572598e-08
81	0x322f0a2b	1.0188653e-08
82	0x3240e8a2	1.12287655e-08
83	0x319e56ff	4.6082955e-09
84	0x333c100c	4.3786756e-08
85	0x322f4d3f	1.0203904e-08
86	0x32596e14	1.2656091e-08
87	0x31c9286a	5.8544645e-09
88	0x333594c3	4.2277644e-08
89	0x322f866f	1.0216907e-08
90	0x32b5003f	2.1071285e-08
91	0x31c9dced	5.8749863e-09
92	0x3103decb	1.9189652e-09
93	0x33350f21	4.2156106e-08
94	0x32086edf	7.941451e-09
95	0x31d9383b	6.321924e-09
96	0x310e29a2	2.0687385e-09
97	0x3330503e	4.1051173e-08
98	0x32087ca2	7.94458e-09
99	0x31ecac34	6.888081e-09
100	0x31291773	2.4606066e-09
101	0x332c7b72	4.0159144e-08
102	0x32088286	7.9459195e-09
103	0x329f15ab	1.851989e-08
104	0x321d0813	9.140439e-09
105	0x311eeb14	2.3125653e-09
106	0x33867065	6.260306e-08
107	0x3257f7d6	1.25709985e-08
108	0x322b2474	9.9617985e-09
109	0x312d6291	2.5230842e-09
110	0x33815237	6.0219854e-08
111	0x32580a4d	1.2575197e-08
112	0x323d8dd3	1.1033495e-08
113	0x315e25b9	3.2326695e-09
114	0x337a6417	5.8298692e-08
115	0x32582043	1.258019e-08
116	0x32c871d8	2.3334835e-08
117	0x328dd9c5	1.651359e-08
118	0x318656fb	3.909802e-09
119	0x33e47221	1.0637837e-07
120	0x32bcac3b	2.1964402e-08
121	0x32a0b11f	1.8706997e-08
122	0x318cdfa1	4.09996e-09
123	0x33d652c9	9.98021e-08
124	0x32bcabfb	2.1964288e-08
125	0x32b98fcd	2.1602228e-08
126	0x31c3354e	5.681307e-09
127	0x33cb564a	9.46862e-08
128	0x32bcb0de	2.196651e-08
129	0x3303a4fe	3.0650874e-08
130	0x325b5277	1.2766228e-08
131	0x3221ccc4	9.417992e-09
132	0x32f062f6	2.798468e-08
133	0x31f1ff89	7.043074e-09
134	0x3279e3a1	1.4545464e-08
135	0x32422fd3	1.130316e-08
136	0x32ea2814	2.725941e-08
137	0x31f338d8	7.078693e-09
138	0x328e45e7	1.6562764e-08
139	0x326b9af3	1.3714032e-08
140	0x32e7e4aa	2.6995924e-08
141	0x31f3b3a4	7.0926536e-09
142	0x323ffa3c	1.117456e-08
143	0x32c9dec5	2.3500784e-08
144	0x320e860f	8.295969e-09
145	0x33b1449b	8.254684e-08
146	0x32b746b5	2.1336158e-08
147	0x32efb316	2.79047e-08
148	0x32250a20	9.606566e-09
149	0x339c5094	7.278973e-08
150	0x32b78d5f	2.1368292e-08
151	0x330f1c4c	3.3320518e-08
152	0x325d1ba1	1.2870175e-08
153	0x338b7b42	6.4951124e-08
154	0x32b7ac51	2.1382364e-08
155	0x3341b874	4.5104073e-08
156	0x329cf5aa	1.8272505e-08
157	0x324ea19e	1.2027526e-08
158	0x339627fd	6.992193e-08
159	0x326e64a9	1.3876311e-08
160	0x32ac78d2	2.0078378e-08
161	0x3272030b	1.4086946e-08
162	0x33962706	6.9920176e-08
163	0x326ee81c	1.3906199e-08
164	0x32bd6d64	2.2052241e-08
165	0x328e14b1	1.6540385e-08
166	0x339710a5	7.034513e-08
167	0x326f59ce	1.393205e-08
168	0x33704ca7	5.594907e-08
169	0x31c27f12	5.6605893e-09
170	0x30c89f77	1.4597238e-09
171	0x3298c540	1.7784828e-08
172	0x31b7023a	5.326254e-09
173	0x31ea4cf8	6.8190467e-09
174	0x3102f6ed	1.905785e-09
175	0x32839e03	1.5322263e-08
176	0x31b73469	5.3319593e-09
177	0x320e239d	8.273585e-09
178	0x3145a2ef	2.875989e-09
179	0x32658150	1.3358957e-08
180	0x31b79f30	5.3440985e-09
181	0x32a382ed	1.9035236e-08
182	0x313bfcc7	2.7355769e-09
183	0x306cce9f	8.6149926e-10
184	0x3295a2bb	1.7419884e-08
185	0x316b7de8	3.426857e-09
186	0x314c20ee	2.9704625e-09
187	0x30880586	9.896872e-10
188	0x32923df1	1.7024805e-08
189	0x316b938a	3.4280867e-09
190	0x3160a4f6	3.269006e-09
191	0x30ab0aa5	1.2444913e-09
192	0x328fd0a1	1.6742264e-08
193	0x316ba94a	3.429323e-09
194	0x31d6cc63	6.251456e-09
195	0x32b2f4c8	2.0833241e-08
196	0x322579da	9.63197e-09
197	0x341322c0	1.3703084e-07
198	0x32dcccf5	2.5704574e-08
199	0x32bfd668	2.2332827e-08
200	0x323c2eab	1.0953651e-08
201	0x3410bea0	1.3480394e-07
202	0x32dce055	2.5713385e-08
203	0x32cfd081	2.4192788e-08
204	0x32647cf4	1.3299758e-08
205	0x340f9463	1.3371896e-07
206	0x32dcf591	2.5723041e-08
207	0x340d10ca	1.3137756e-07
208	0x32bbf29f	2.1879996e-08
209	0x320b7a31	8.118648e-09
210	0x3428b576	1.5712234e-07
211	0x32f65e1f	2.868097e-08
212	0x32c35872	2.2741208e-08
213	0x32168b09	8.762762e-09
214	0x3427ba30	1.5620822e-07
215	0x32f679e3	2.8693597e-08
216	0x32cbdfbb	2.3734051e-08
217	0x3225caeb	9.650402e-09
218	0x3426f8b3	1.5550431e-07
219	0x32f68812	2.8700047e-08
220	0x33988dcf	7.1038464e-08
221	0x33014d11	3.0105245e-08
222	0x3217b73e	8.831021e-09
223	0x341f72f2	1.4849846e-07
224	0x330e64a1	3.3153473e-08
225	0x33170cca	3.516906e-08
226	0x32336fde	1.0444607e-08
227	0x34126e70	1.3637487e-07
228	0x330e83c9	3.318181e-08
229	0x33328c93	4.1571706e-08
230	0x327b1d3b	1.4616769e-08
231	0x3407dc58	1.2653015e-07
232	0x330e861e	3.318393e-08
233	0x333ce4bb	4.398019e-08
234	0x31828270	3.798327e-09
235	0x30755b87	8.926055e-10
236	0x32605f81	1.3060231e-08
237	0x3174a0d1	3.5598087e-09
238	0x319e2f8c	4.6038107e-09
239	0x309709b8	1.0989458e-09
240	0x3240c775	1.1221222e-08
241	0x3174e99b	3.5639462e-09
242	0x31c0de3f	5.613202e-09
243	0x30e65022	1.6757478e-09
244	0x3226b7f6	9.7043e-09
245	0x31752f65	3.5679133e-09
246	0x3231f02d	1.0357366e-08
247	0x320df67e	8.263326e-09
248	0x31439f93	2.8466942e-09
249	0x33a06446	7.46882e-08
250	0x325ca0bc	1.2842232e-08
251	0x320d4de0	8.224987e-09
252	0x3142225b	2.8250244e-09
253	0x33a04bda	7.464378e-08
254	0x325ca265	1.284261e-08
255	0x320c8ca5	8.181051e-09

exp_avg f4 [64]
0	0x37a150b4	1.9230276e-05
1	0xb67e6f13	-3.7913603e-06
2	0x38071dcc	3.221426e-05
3	0xb983f2ca	-0.0002516716
4	0x38596a19	5.1835643e-05
5	0xb879c340	-5.9548067e-05
6	0x36f52503	7.3058777e-06
7	0xb81a2601	-3.6751855e-05
8	0x3706fe8f	8.046291e-06
9	0x389822e3	7.254423e-05
10	0x37c7f0a0	2.3834698e-05
11	0x364135a1	2.8790457e-06
12	0x358a32a4	1.029654e-06
13	0xb759c7e6	-1.298075e-05
14	0xb80a85c5	-3.3026347e-05
15	0xb8858ab8	-6.3677726e-05
16	0xb814ccde	-3.5476747e-05
17	0x395416d0	0.00020226394
18	0x376a3b3d	1.3961279e-05
19	0x38158b58	3.5654142e-05
20	0x391325f5	0.00014033153
21	0x392c7af4	0.00016449002
22	0xb84d3033	-4.8920698e-05
23	0x38365f37	4.3480857e-05
24	0x397b160c	0.00023945438
25	0x38956375	7.123399e-05
26	0xb60203a9	-1.937364e-06
27	0x3765be6b	1.3693799e-05
28	0xb885b174	-6.3749874e-05
29	0xb5055b4e	-4.9679227e-07
30	0x38bf9cc4	9.1367896e-05
31	0xb81d9ae6	-3.7575977e-05
32	0x382c24de	4.104233e-05
33	0x391685c2	0.00014354943
34	0x38a75fcd	7.981025e-05
35	0xb8480691	-4.768983e-05
36	0x37cf351d	2.4701056e-05
37	0xb7c8b2db	-2.3925144e-05
38	0x37bd82b9	2.2591428e-05
39	0xb756bcb1	-1.2799327e-05
40	0xb7fa7ac0	-2.9859482e-05
41	0x37b04c2e	2.1016309e-05
42	0xb6a04c5a	-4.77726e-06
43	0xb90210e1	-0.00012404054
44	0xb7a8c5dc	-2.0119296e-05
45	0x39317403	0.00016923253
46	0xb8ba78dd	-8.891684e-05
47	0xb81773de	-3.6109115e-05
48	0xb788a173	-1.6287644e-05
49	0xb892f8b8	-7.00815e-05
50	0x368ca148	4.1911007e-06
51	0x375b46d6	1.306991e-05
52	0x3784bce2	1.5823582e-05
53	0xb8831d01	-6.251969e-05
54	0xb8098bcf	-3.2793552e-05
55	0xb8924c86	-6.976076e-05
56	0xb9266e97	-0.00015872192
57	0x380adcfa	3.3107564e-05
58	0xb5cfdbf1	-1.5486713e-06
59	0xb7fc3916	-3.0067324e-05
60	0x390f69c4	0.00013676943
61	0xb8bf7600	-9.129569e-05
62	0x384ea841	4.9270926e-05
63	0xb7024152	-7.763812e-06

exp_avg_sq f4 [64]
0	0x337a337b	5.8254482e-08
1	0x33b82e0d	8.576544e-08
2	0x348d7c79	2.6353862e-07
3	0x3535f9d4	6.77913e-07
4	0x33169ecb	3.5069018e-08
5	0x33c95f9b	9.3771824e-08
6	0x32e04a2b	2.611076e-08
7	0x32af0cd9	2.0378524e-08
8	0x330a9d56	3.2273725e-08
9	0x33722393	5.637737e-08
10	0x329a2e2f	1.7948961e-08
11	0x336aeb29	5.4696248e-08
12	0x331825fd	3.5424808e-08
13	0x326aa5df	1.3658307e-08
14	0x32171d70	8.79605e-09
15	0x338d850c	6.590025e-08
16	0x339e09c0	7.359222e-08
17	0x33b6cdfa	8.512502e-08
18	0x321cb7f3	9.12222e-09
19	0x330da163	3.29759e-08
20	0x34136add	1.3729318e-07
21	0x34c94100	3.748646e-07
22	0x340b8170	1.2992473e-07
23	0x33675c54	5.386785e-08
24	0x357ad110	9.3436483e-07
25	0x34714b40	2.247225e-07
26	0x32f99899	2.9056809e-08
27	0x31a7226b	4.8642526e-09
28	0x340d459a	1.3156969e-07
29	0x3312fb07	3.4221582e-08
30	0x33b599f2	8.456472e-08
31	0x3335fe22	4.237348e-08
32	0x32e19cce	2.6264754e-08
33	0x34cf659f	3.8630694e-07
34	0x344dd8a6	1.9170929e-07
35	0x33cfe9d0	9.681719e-08
36	0x33fc0468	1.1735466e-07
37	0x3465f889	2.1417704e-07
38	0x32ef4579	2.7854854e-08
39	0x31aabbcc	4.969001e-09
40	0x32e9a969	2.7201809e-08
41	0x32b10117	2.0606008e-08
42	0x32af0a4b	2.0377362e-08
43	0x3457ad17	2.0086405e-07
44	0x338dce80	6.603386e-08
45	0x3492fcea	2.7378638e-07
46	0x32fcc363	2.9425513e-08
47	0x33c7b179	9.298942e-08
48	0x331d5b22	3.6637296e-08
49	0x3490c284	2.696362e-07
50	0x328de426	1.651831e-08
51	0x3267a182	1.3482692e-08
52	0x32a2f849	1.897219e-08
53	0x3415daee	1.3956353e-07
54	0x32fc722d	2.9388582e-08
55	0x3429750e	1.5781936e-07
56	0x3429e42c	1.582236e-07
57	0x32c8c6fb	2.337355e-08
58	0x328d3377	1.6437964e-08
59	0x340dc32a	1.3202649e-07
60	0x33ce4570	9.605253e-08
61	0x34cbf70f	3.7991455e-07
62	0x33d09a1b	9.7137864e-08
63	0x32d28cef	2.4511307e-08

exp_avg f4 [64, 64]
0	0xb6c268a4	-5.7938323e-06
1	0xb6a72bd2	-4.982089e-06
2	0x348f1373	2.6649977e-07
3	0xb583f0ce	-9.830344e-07
4	0xb6386360	-2.747598e-06
5	0xb63d06ad	-2.816708e-06
6	0xb4392567	-1.7243075e-07
7	0xb645874b	-2.9434038e-06
8	0xb650af90	-3.1096606e-06
9	0x3471430d	2.2469267e-07
10	0xb5bcaecd	-1.4057965e-06
11	0xb64c36d7	-3.043029e-06
12	0xb553b277	-7.8863326e-07
13	0xb6df311b	-6.6516345e-06
14	0xb6972344	-4.504256e-06
15	0xb554809c	-7.9163306e-07
16	0xb5350fe7	-6.7450895e-07
17	0x35f264f0	1.8059782e-06
18	0xb5f88257	-1.8515374e-06
19	0xb5f2c50f	-1.8087757e-06
20	0xb61a65ef	-2.3007121e-06
21	0xb5651452	-8.533872e-07
22	0xb5c1de21	-1.4444269e-06
23	0xb64da700	-3.0644587e-06
24	0xb6ce7329	-6.152685e-06
25	0xb63b3311	-2.7894896e-06
26	0xb62ac547	-2.5446805e-06
27	0xb5a2cd3e	-1.2129674e-06
28	0xb61aea57	-2.3084192e-06
29	0x359d9d56	1.1743202e-06
30	0xb6100028	-2.1457763e-06
31	0x341b348c	1.4454616e-07
32	0x362aea32	2.5468294e-06
33	0xb480ba15	-2.397725e-07
34	0xb685d412	-3.988397e-06
35	0xb648cf4c	-2.9922985e-06
36	0xb5d2effd	-1.5716065e-06
37	0x32d9ee8c	2.5370603e-08
38	0xb638f11e	-2.7558485e-06
39	0xb5fd8c18	-1.8890742e-06
40	0x3403a4aa	1.226023e-07
41	0xb6d43345	-6.324061e-06
42	0xb701210c	-7.6966935e-06
43	0xb1cdd5af	-5.9905783e-09
44	0xb5fe5476	-1.8949056e-06
45	0x360caa88	2.0960888e-06
46	0x355be23c	8.191307e-07
47	0xb593fceb	-1.1025962e-06
48	0xb646639c	-2.956228e-06
49	0x351b3ce3	5.78306e-07
50	0x355a432c	8.1309076e-07
51	0x34d6aa64	3.9984582e-07
52	0x36380f03	2.7426875e-06
53	0xb5af7d01	-1.3074897e-06
54	0xb5a2fdbb	-1.2143786e-06
55	0xb5d420d8	-1.580479e-06
56	0x3538fdb7	6.8914545e-07
57	0xb6315ae2	-2.6427956e-06
58	0xb639e1aa	-2.7698502e-06
59	0xb4809a5f	-2.3954178e-07
60	0xb4bab0c9	-3.4773828e-07
61	0xb5ed0fd4	-1.7662483e-06
62	0xb5ed4acf	-1.7679648e-06
63	0xb4962527	-2.796671e-07
64	0x36bd9dad	5.650995e-06
65	0x36bb937c	5.5902037e-06
66	0xb67c386a	-3.7583764e-06
67	0xb76e38e2	-1.41991495e-05
68	0x36d98b8a	6.4833484e-06
69	0x3656ecb8	3.2026273e-06
70	0xb51d72ce	-5.865412e-07
71	0x367c33cd	3.7581078e-06
72	0x379506e5	1.7765395e-05
73	0xb679a36b	-3.7199013e-06
74	0x35c54496	1.4697605e-06
75	0x3648ecd5	2.9940177e-06
76	0x36c666f9	5.9128474e-06
77	0x37858f7d	1.5921652e-05
78	0x34afedb2	3.2769236e-07
79	0xb5af84f9	-1.3077216e-06
80	0x37650ef9	1.365295e-05
81	0xb70b0d3b	-8.288126e-06
82	0xb5917523	-1.0837433e-06
83	0x365fedc4	3.3367987e-06
84	0x36aa6bf2	5.0789613e-06
85	0xb6aefa32	-5.2147307e-06
86	0x371f1425	9.481829e-06
87	0x3715c76f	8.927526e-06
88	0xb6efd42d	-7.1474556e-06
89	0x36f79764	7.378798e-06
90	0x370b281e	8.294386e-06
91	0xb58e88ce	-1.061964e-06
92	0x373dfa7f	1.1323601e-05
93	0x354e5244	7.686069e-07
94	0x3731a117	1.0587529e-05
95	0x37855eec	1.5899037e-05
96	0x362da618	2.5875688e-06
97	0x36dddc3f	6.6119533e-06
98	0x372d93ab	1.0345985e-05
99	0x373d8b77	1.129775e-05
100	0x34569a5f	1.9986463e-07
101	0xb440a465	-1.79412e-07
102	0x3706068f	7.988549e-06
103	0xb63a612b	-2.777272e-06
104	0x3642d020	2.9029397e-06
105	0x378cd80d	1.6789907e-05
106	0x37ab2c53	2.0405429e-05
107	0xb6c770e3	-5.943804e-06
108	0x370865c1	8.129923e-06
109	0x36904622	4.299699e-06
110	0xb70bd5a8	-8.334791e-06
111	0x3792df79	1.7508619e-05
112	0x37dbb8b6	2.6192847e-05
113	0xb6b7764e	-5.4675975e-06
114	0xb6594244	-3.2374091e-06
115	0x34895161	2.557745e-07
116	0x35fd51d6	1.8873786e-06
117	0x36ed4df8	7.072227e-06
118	0x374f33d2	1.2350227e-05
119	0x379788ab	1.8064244e-05
120	0xb6d3a162	-6.3070775e-06
121	0x35668c6e	8.588603e-07
122	0x36c118a9	5.754719e-06
123	0x3614cc5b	2.217267e-06
124	0x369ce820	4.676185e-06
125	0x37b31509	2.1348258e-05
126	0x35c56872	1.4708041e-06
127	0xb4fd6578	-4.719875e-07
128	0xb7097946	-8.1940725e-06
129	0xb6f58196	-7.316655e-06
130	0x35c2ccb4	1.4513703e-06
131	0x3655a797	3.1837023e-06
132	0xb69d6db6	-4.6917366e-06
133	0xb68ea63f	-4.2512834e-06
134	0xb381d081	-6.044957e-08
135	0xb696cae9	-4.49397e-06
136	0xb70d3ad4	-8.417952e-06
137	0x360eec96	2.129736e-06
138	0xb5ba3ce3	-1.38758e-06
139	0xb6899bab	-4.1010403e-06
140	0xb632b055	-2.6626706e-06
141	0xb7466072	-1.1824175e-05
142	0xb6ae2053	-5.189367e-06
143	0xb4f8d5c0	-4.6349123e-07
144	0xb6a09820	-4.7860813e-06
145	0x36ad0994	5.156917e-06
146	0xb5e930ab	-1.7374017e-06
147	0xb63b12e8	-2.7876176e-06
148	0xb65e139b	-3.309199e-06
149	0x34df4522	4.1587288e-07
150	0xb6918ac9	-4.3374935e-06
151	0xb6cc4c23	-6.0885372e-06
152	0xb6a14ae1	-4.806891e-06
153	0xb6a9ccd2	-5.0604367e-06
154	0xb6abec66	-5.1237175e-06
155	0xb58aa6c5	-1.0330338e-06
156	0xb6c6088c	-5.901855e-06
157	0x359567d2	1.1131581e-06
158	0xb6a9733b	-5.050007e-06
159	0xb695e652	-4.467359e-06
160	0x36089f19	2.0358186e-06
161	0xb60a9309	-2.0649188e-06
162	0xb6eee057	-7.1190693e-06
163	0xb6ddc0f0	-6.608774e-06
164	0xb5ece114	-1.7648877e-06
165	0x343af113	1.7410302e-07
166	0xb6ae8e56	-5.202174e-06
167	0xb5a3df2f	-1.2209401e-06
168	0xb554b882	-7.924465e-07
169	0xb7437d25	-1.1652043e-05
170	0xb7731fa4	-1.4491296e-05
171	0x35f5a5c1	1.8302163e-06
172	0xb6937e04	-4.3956115e-06
173	0x35a40d7b	1.2222876e-06
174	0x366acfd0	3.498968e-06
175	0xb6ce7903	-6.153366e-06
176	0xb736ff4d	-1.0907487e-05
177	0x361bf489	2.3239138e-06
178	0x36025e38	1.9426352e-06
179	0x34cf9741	3.8666806e-07
180	0x362394b7	2.4375456e-06
181	0xb66d13cb	-3.5327273e-06
182	0xb6a8f18c	-5.03491e-06
183	0xb6e9df26	-6.969919e-06
184	0x3635db2f	2.7098683e-06
185	0xb65c7330	-3.2849603e-06
186	0xb6a4082b	-4.8885317e-06
187	0xb57e47f1	-9.472706e-07
188	0xb59dbb6e	-1.1751961e-06
189	0xb7095438	-8.185445e-06
190	0xb6178ee5	-2.258393e-06
191	0xb42152f6	-1.5024474e-07
192	0xb77a7734	-1.4928915e-05
193	0xb748b711	-1.1963552e-05
194	0xb8321986	-4.2462278e-05
195	0xb8a7bf4a	-7.998811e-05
196	0x36173305	2.253045e-06
197	0xb88a6eae	-6.6009685e-05
198	0xb8103039	-3.4377186e-05
199	0xb7e082e3	-2.676383e-05
200	0x381c9817	3.7334943e-05
201	0x36a8e063	5.032912e-06
202	0x3680909e	3.831533e-06
203	0xb7e75c80	-2.758042e-05
204	0xb8c0b423	-9.1888265e-05
205	0x376063da	1.3374689e-05
206	0xb7975d7c	-1.8044135e-05
207	0xb8a209c9	-7.7265846e-05
208	0xb7a567be	-1.9717841e-05
209	0x34119acf	1.3560496e-07
210	0xb82d3288	-4.1293475e-05
211	0x3567fa80	8.641873e-07
212	0x372ac193	1.017786e-05
213	0xb7ba6510	-2.2219989e-05
214	0xb7a28246	-1.9372568e-05
215	0xb841bd18	-4.6190893e-05
216	0xb8b209ba	-8.489513e-05
217	0x36ab2bc2	5.101291e-06
218	0xb6b5a4c4	-5.4134016e-06
219	0xb7dfe46c	-2.6690039e-05
220	0xb7d39176	-2.5220896e-05
221	0xb775e026	-1.4655327e-05
222	0x37ed8801	2.8315933e-05
223	0xb71f60c8	-9.499672e-06
224	0xb7ac37ad	-2.0529924e-05
225	0x37dd4674	2.637806e-05
226	0x36f8c2a3	7.4136346e-06
227	0xb7b5177e	-2.158782e-05
228	0xb5916702	-1.0833321e-06
229	0x35b4c4a8	1.346828e-06
230	0xb7082029	-8.11372e-06
231	0xb80dcfb2	-3.381045e-05
232	0xb7f69f0d	-2.9399549e-05
233	0x35a6ba08	1.2422106e-06
234	0xb7f51dc7	-2.9220142e-05
235	0xb78ba443	-1.6646582e-05
236	0xb7e4e64b	-2.7286957e-05
237	0x36f6e11d	7.357578e-06
238	0xb8322899	-4.2476317e-05
239	0x3601cf33	1.9343104e-06
240	0xb7849e02	-1.5809204e-05
241	0xb75185ea	-1.248855e-05
242	0xb5b88b56	-1.374962e-06
243	0xb36370f7	-5.2955297e-08
244	0xb7e3be0e	-2.714901e-05
245	0xb76271f8	-1.3497185e-05
246	0xb78c2ffe	-1.6711649e-05
247	0xb6a85425	-5.016586e-06
248	0xb7a4e9ee	-1.9659255e-05
249	0xb77ef75c	-1.5197173e-05
250	0xb82d0eed	-4.1260315e-05
251	0xb8305fad	-4.2050775e-05
252	0x37b77369	2.1869042e-05
253	0xb7b01190	-2.0989013e-05
254	0xb6a4c22f	-4.910187e-06
255	0xb3e18d12	-1.05030395e-07
