src/scripts/ddpg/weights/actor_best.pth (torch, 68975 bytes, 18 tensors)

linear_input.weight f4 [64, 13]
0.08919828 0.37350568 -0.17374147 0.23819982 0.38727224 0.1770698 -0.034299992 0.52616876
0.34797585 0.21091563 0.05371552 0.1084528 -0.39369026 0.32112706 -0.09124128 -0.07752667
0.09660447 0.27373832 -0.10072536 -0.1903741 -0.13465485 0.19641495 -0.3305744 0.19842568
0.1879362 -0.45620114 -0.044084605 0.13474438 0.25892627 0.4931225 0.05480281 -0.09962108
0.046703313 0.3768027 0.27086705 0.010877251 0.44584924 0.05227577 0.10709154 0.1986433
0.043513443 0.017434172 -0.053745948 0.014104272 -0.09326316 -0.060733687 -0.16210154 0.06755659
-0.21229059 0.063669935 -0.14473397 0.16431537 -0.2153674 -0.059333123 0.2962061 -0.14071397
-0.30677074 0.35084492 -0.023512684 -0.023573259 0.09891006 0.47061485 0.09454302 -0.0067944108
0.45283085 -0.4293947 -0.030967928 -0.26440415 0.32346156 -0.28702444 -0.15820698 -0.032675117
0.2667959 -0.5921134 0.10918555 -0.1943123 0.06682071 -0.016804107 0.048995048 -0.045328133
0.018218968 0.09319969 -0.14822084 0.17590114 0.15166481 -0.018470125 -0.08749405 0.34234768
0.20294404 0.36391017 0.14317536 -0.16164562 0.5562723 -0.12699527 0.14530304 -0.13843016
0.5475525 0.17601374 0.06446773 -0.3120212 0.47998568 -0.07128737 -0.013116296 0.063869976
-0.13116723 0.20055506 -0.08483324 0.05102857 0.028933404 0.27400976 -0.39036393 0.17987412
0.06339341 0.180966 -0.031166835 0.00047793504 -0.48804864 0.32897907 0.37223363 0.14150964
-0.0662109 0.3906998 0.22005667 -0.026447743 -0.06658187 0.3889872 0.5202106 -0.15810354
0.37272468 -0.6482807 -0.10909763 0.17635363 0.22047985 0.36791602 -0.24600704 0.031668175
-0.16135955 0.24927072 0.08121777 0.39616385 0.26467994 -0.057717446 0.4162663 -0.16569732
0.38514417 -0.09736152 0.42992616 -0.04752261 0.5323278 0.10766628 0.103824675 0.21231565
0.34767216 0.0911799 0.41578662 0.36597195 0.28118205 0.08087043 0.20637856 0.056539275
0.28856838 -0.17857105 -0.030849885 -0.12296671 -0.15690936 -0.1432911 -0.0075819027 -0.2940582
0.2629519 -0.14552556 0.14651443 0.17953789 -0.22852004 0.09318273 -0.27882397 -0.23202688
0.21239105 0.31136233 -0.00294207 -0.040784273 -0.30643785 0.30259165 0.3848765 -0.17356244
0.08636541 0.34436408 0.06343416 0.08868899 0.35400116 0.18578617 0.25429535 -0.022609668
0.34909874 0.47337562 0.4794903 0.31945133 0.2710886 -0.050277654 0.164931 0.28181398
0.25290766 -0.089574344 0.2873312 0.06159601 0.3565348 -0.096021846 -0.038395677 -0.44926327
0.17432664 0.1400888 0.19420496 0.30368653 0.40682396 0.18778148 -0.12724875 0.10174296
0.4595457 0.38916525 0.016407331 0.16874175 -0.31688088 0.24753292 0.2891099 0.19373953
0.39079267 -0.2958513 0.17423835 0.19308843 0.04784163 -0.10510149 0.32878917 0.07483899
0.31105897 0.5400339 -0.06145884 0.08420092 -0.15656939 -0.12043795 -0.2597581 0.39953327
0.21790516 0.030165792 -0.45748967 0.3431521 -0.14484689 0.1285824 0.13340542 0.1264048
0.11328983 -0.039731614 0.24414513 0.29076585 0.17191851 -0.16775599 -0.09996508 0.20812345
00000000: 96ad b63d 233c bf3e 49e9 31be a7ea 733e
00000010: 8c48 c63e c951 353e 267e 0cbd ffb2 063f
00000020: e429 b23e 44fa 573e ce04 5c3d 801c de3d
00000030: c591 c9be c46a a43e b5dc babd 4ec6 9ebd
00000040: 90d8 c53d 6e27 8c3e 1949 cebd 6ef1 42be
00000050: f6e2 09be 0021 493e 0c41 a9be 1a30 4b3e
00000060: 5972 403e 3293 e9be 0f92 34bd 6efa 093e
00000070: fc91 843e 8d7a fc3e e978 603d 2306 ccbd
00000080: f94b 3f3d 49ec c03e 16af 8a3e 7f36 323c
00000090: 5a46 e43e 1e1f 563d cf52 db3d 2669 4b3e
000000a0: 273b 323d 1cd2 8e3c b624 5cbd 9b15 673c
000000b0: c100 bfbd e3c3 78bd f2fd 25be 1c5b 8a3d
000000c0: b462 59be 6265 823d 2435 14be 4a42 283e
000000d0: 4689 5cbe 4a07 73bd 53a8 973e 5317 10be
000000e0: 0e11 9dbe f2a1 b33e ac9d c0bc b51c c1bc
000000f0: 5c91 ca3d 6ef4 f03e c59f c13d a6a3 debb
00000100: 72d9 e73e 9fd9 dbbe 74b0 fdbc fb5f 87be
00000110: c19c a53e def4 92be 0301 22be 58d6 05bd
00000120: 7999 883e be94 17bf ac9c df3d cef9 46be
00000130: 4cd9 883d c4a8 89bc 08af 483d fea9 39bd
00000140: f23f 953c 7bdf be3d 34c7 17be 6e1f 343e
00000150: 054e 1b3e a94e 97bc 1530 b3bd 3248 af3e
00000160: 90d0 4f3e 6f52 ba3e 909c 123e 6e86 25be
00000170: dd67 0e3f 0c0b 02be 52ca 143e a3c0 0dbe
00000180: 672c 0c3f f23c 343e a807 843d 3ec1 9fbe
00000190: afc0 f53e 1dff 91bd bce5 56bc 43ce 823d
000001a0: b450 06be 4e5e 4d3e 0dbd adbd 5503 513d
000001b0: bf05 ed3c 024b 8c3e c8dd c7be ec30 383e
000001c0: 67d4 813d 274f 393e 9751 ffbc 5b93 fa39
000001d0: 83e1 f9be f26f a83e 6895 be3e e7e7 103e
000001e0: 9599 87bd ce09 c83e 8956 613e f0a8 d8bc
000001f0: 135c 88bd 5529 c73e 862c 053f e5e5 21be
00000200: c5d5 be3e b9f5 25bf 946e dfbd 0c96 343e
00000210: 78c5 613e 7d5f bc3e 45e9 7bbe 7db6 013d
00000220: 703b 25be d340 7f3e 8155 a63d fdd5 ca3e
00000230: 2184 873e 2169 6cbd db20 d53e 8fac 29be
00000240: 9e31 c53e 7a65 c7bd 481f dc3e 11a7 42bd
00000250: a246 083f 2380 dc3d 08a2 d43d 4669 593e
00000260: 1602 b23e 87bc ba3d fce1 d43e ad60 bb3e
00000270: 18f7 8f3e 659f a53d e754 533e ba95 673d
00000280: 3cbf 933e 54db 36be e6b8 fcbc f8d5 fbbd
00000290: d9ac 20be e7ba 12be 9c71 f8bb cc8e 96be
000002a0: a2a1 863e a704 15be e107 163e c8d8 373e
000002b0: 2801 6abe 96d6 be3d 04c2 8ebe 7498 6dbe
000002c0: 0a7d 593e e26a 9f3e becf 40bb 690d 27bd
000002d0: 6ce5 9cbe 4bed 9a3e 880e c53e 5aba 31be
000002e0: 59e0 b03d 7d50 b03e c5e9 813d 93a2 b53d
000002f0: a43f b53e bb3e 3e3e 0033 823e e937 b9bc
00000300: 12bd b23e 4a5e f23e c17f f53e 208f a33e
00000310: 20cc 8a3e f1ef 4dbd ace3 283e ec49 903e
00000320: 1d7d 813e c172 b7bd 131d 933e 194c 7c3d
00000330: bb8b b63e 1aa7 c4bd c944 1dbd d605 e6be
00000340: af82 323e 7073 0f3e aadd 463e cd7c 9b3e
00000350: 3b4b d03e ca49 403e 7f4d 02be 9d5e d03d
00000360: 9349 eb3e ab40 c73e ab68 863c a3ca 2c3e
00000370: 363e a2be 4579 7d3e 3606 943e a863 463e
00000380: fa15 c83e d279 97be 8a6b 323e f9b8 453e
00000390: 96f5 433d 733f d7bd 0e57 a83e 2f45 993d
000003a0: 1f43 9f3e a93f 0a3f 44bc 7bbd 8871 ac3d
000003b0: ba53 20be 2ca8 f6bd 04ff 84be a08f cc3e
000003c0: 8822 5f3e 401e f73c 163c eabe a2b1 af3e
000003d0: be52 14be 1bab 033e 6e9b 083e 4370 013e
000003e0: 8004 e83d 9ebd 22bd 2e01 7a3e 43df 943e
000003f0: 680b 303e 3ac8 2bbe 7eba ccbd 501e 553e

linear_input.bias f4 [64]
0.04025171 0.10642713 0.47172716 -0.06419617 0.34931016 -0.18595845 0.40805122 0.16590284
-0.03566068 -0.074855365 0.08175748 0.15310194 0.09295401 0.017332423 0.13885903 0.112340346
0.20714411 0.06471301 -0.021858428 0.074713595 0.16051361 0.28699094 0.06853871 -0.18780436
-0.18977007 -0.09429145 -0.32690236 -0.18752599 -0.0060346494 0.1276011 -0.06490189 -0.16812062
0.26498866 0.09184576 -0.19426185 -0.1731769 0.016481962 0.31352866 0.23667578 0.09553569
0.49986324 0.015085869 0.23955671 0.4907474 0.22060533 0.3371022 0.19098748 -0.13282606
0.17180844 0.15390435 0.112693034 -0.07706419 -0.037733313 0.09131955 0.17240033 0.21818614
0.12714784 0.14365079 0.13171011 -0.039329555 -0.04657131 0.22031678 -0.031213842 -0.13171898
00000000: fade 243d 78f6 d93d 3986 f13e 4879 83bd
00000010: c8d8 b23e e46b 3ebe 17ec d03e 6fe2 293e
00000020: ef10 12bd c54d 99bd 7770 a73d c1c6 1c3e
00000030: ac5e be3d bafc 8d3c 1031 0e3e b212 e63d
00000040: 961d 543e 4188 843d 7210 b3bc 7103 993d
00000050: ae5d 243e 7af0 923e 065e 8c3d c94f 40be
00000060: 1653 42be e01b c1bd bf5f a7be d006 40be
00000070: 4fbe c5bb dda9 023e 48eb 84bd d027 2cbe
00000080: 98ac 873e a119 bc3d 94ec 46be 4955 31be
00000090: 2e05 873c d486 a03e 235b 723e 37a8 c33d
000000a0: 13ee ff3e b82a 773c 5b4e 753e 3e43 fb3e
000000b0: 5de6 613e a998 ac3e 3992 433e 8e03 08be
000000c0: 8dee 2f3e 1a99 1d3e 9bcb e63d d4d3 9dbd
000000d0: 3f8e 1abd bf05 bb3d b689 303e 306c 5f3e
000000e0: 0b33 023e 3119 133e 04df 063e 0718 21bd
000000f0: 8fc1 3ebd b99a 613e 2cb4 ffbc 57e1 06be

linear_hidden.0.weight f4 [64, 64]
-0.099469624 0.15456007 -0.07655344 -0.102578506 -0.22885554 -0.0034742255 -0.16718861 0.10100738
-0.1425888 -0.3386671 -0.2626148 -0.9934836 -0.08551986 -0.08484216 -0.54735756 0.016883506
0.007010273 -0.23081075 -0.5096696 0.12367885 0.2015653 0.18433924 0.084671915 0.04784225
0.15903978 -0.048357833 -0.026894743 -0.057352804 0.062439904 0.10023191 0.07487047 -0.6219164
0.22158507 -0.23278879 0.14394714 0.20119739 -0.2427096 0.017742569 0.02734273 -0.22074836
-0.021498771 -0.04670613 -0.019612106 0.07627522 0.09094663 -0.4226792 0.17914708 0.3319669
0.2154016 0.071053766 0.24016853 -0.2861054 0.07214374 0.17895329 -0.22413094 -0.23784015
0.080805056 -0.23006326 -0.55498284 -0.14479908 -0.41098067 -0.16351508 0.17374755 -0.06631042
-0.2689047 -0.15481086 0.05107844 0.029363643 0.084818624 0.16205269 0.27591777 0.26513422
-0.15204516 -0.25937164 -0.040804338 0.20196074 0.006411629 -0.09414457 -0.3775333 -0.11634649
-0.1330145 -0.095704295 0.16197489 -0.072706014 -0.016096527 -0.29527375 -0.016764443 0.26979503
0.06368018 0.04750755 -0.10981417 0.07730657 -0.069767326 0.09450256 -0.06860304 0.3075383
0.08723896 0.08888959 -0.009997849 -0.039817475 -0.21166892 -0.11632997 -0.09672959 0.3412265
-0.24698627 -0.124625646 -0.24524607 0.06173266 0.05970502 0.15789749 -0.07268374 -0.15626359
0.056857415 0.04547589 -0.0057813097 0.12507576 0.11966694 -0.11652937 0.12223035 0.17688696
-0.13149935 0.23536934 0.4521977 0.21702814 0.012984169 0.029182864 -0.03035563 0.09420652
0.5381008 0.11027551 0.24267012 0.063612305 0.2424236 -0.00013339893 -0.06829787 -0.23819374
0.7900497 0.38645396 0.33162332 0.3142042 0.07729542 -0.0768924 0.5517152 0.20439917
0.22049943 0.109363556 0.20675257 0.12915644 -0.03196602 0.51114553 0.020542797 0.024819372
-0.0994125 0.051195495 -0.15004554 -0.061915502 0.18466622 0.050633684 0.41813922 -0.0019343313
0.2573139 -0.018605536 -0.01799204 -0.119654864 0.7707773 0.27147776 0.6094145 -0.015282613
0.7114672 0.73135644 0.61360276 0.51774657 0.16039366 0.28945562 0.075765304 0.113544755
0.17471983 0.0912663 0.3479231 -0.008262908 -0.099401936 -0.03994393 -0.018272806 -0.11187087
0.09219672 0.06741819 -0.028358746 0.08042792 0.08944271 0.1754715 -0.068041034 0.11150637
-0.41746792 -0.22554985 -0.022822352 -0.064258255 -0.17113197 0.19181943 -0.11198619 0.3524314
-0.6945126 0.2890357 -0.12032371 -0.11661497 0.13118096 0.14001499 -0.4871884 -0.34015524
-0.38189772 -0.3856426 0.042892415 -0.16271561 -0.03418235 -0.5956535 -0.11687569 0.09651872
0.065383464 0.03467382 -0.0067358934 0.15497199 -0.43222103 0.07604031 -0.47853628 0.31715074
-0.30121583 -0.04366945 -0.158685 -0.0949747 -0.47999775 -0.6568409 -0.6771761 0.12574689
-0.8364559 -0.60745186 -0.4997481 -0.69922525 -0.13761467 -0.13094431 -0.12674215 0.08668702
0.011246822 0.10070263 0.01409929 -0.16849828 0.12913117 0.1066855 0.09932211 0.15159668
-0.08477256 0.057091154 0.26346016 -0.29758194 0.046833813 -0.37533396 0.003659777 0.07676785
00000000: bbb6 cbbd ff44 1e3e 0dc8 9cbd ae14 d2bd
00000010: 1b59 6abe d5af 63bb 7e33 2bbe f5dc ce3d
00000020: cc02 12be c665 adbe 7275 86be f154 7ebf
00000030: 0925 afbd bac1 adbd a01f 0cbf 474f 8a3c
00000040: 6fb6 e53b a759 6cbe b579 02bf 564b fd3d
00000050: 2267 4e3e 6dc3 3c3e 7868 ad3d 3cf6 433d
00000060: 53db 223e dd12 46bd 5d52 dcbc c6ea 6abd
00000070: fcc0 7f3d 6346 cd3d b055 993d ea35 1fbf
00000080: 32e7 623e 2f60 6ebe e166 133e b006 4e3e
00000090: de88 78be dd58 913c dcfd df3c dc0b 62be
000000a0: 311e b0bc ed4e 3fbd 91a9 a0bc 2f36 9c3d
000000b0: 3a42 ba3d 6869 d8be 5572 373e 91f7 a93e
000000c0: 3d92 5c3e a384 913d bdee 753e 687c 92be
000000d0: 19c0 933d 883f 373e 9582 65be 5e8c 73be
000000e0: 1f7d a53d b495 6bbe 5b13 0ebf 3646 14be
000000f0: 0f6c d2be 7f70 27be e1ea 313e c2cd 87bd
00000100: e0ad 89be bd86 1ebe a037 513d 068c f03c
00000110: 63b5 ad3d 24f1 253e 1845 8d3e acbf 873e
00000120: bab1 1bbe 5ccc 84be 7322 27bd ccce 4e3e
00000130: a418 d23b dece c0bd 0b4c c1be 1247 eebd
00000140: f434 08be 9d00 c4bd bfdc 253e e4e6 94bd
00000150: dddc 83bc 1f2e 97be 9655 89bc 9322 8a3e
00000160: c16a 823d 4797 423d 40e6 e0bd e852 9e3d
00000170: 2ce2 8ebd 8f8a c13d c07f 8cbd a975 9d3e
00000180: 57aa b23d bf0b b63d 05ce 23bc a617 23bd
00000190: bdbf 58be 683e eebd 2a1a c6bd 3db5 ae3e
000001a0: f8e9 7cbe bb3b ffbd c921 7bbe 63db 7c3d
000001b0: 408d 743d e1af 213e 36db 94bd 9003 20be
000001c0: 52e3 683d ed44 3a3d 2471 bdbb dc13 003e
000001d0: f113 f53d f3a6 eebd e853 fa3d db21 353e
000001e0: c4a7 06be a904 713e 7586 e73e a03c 5e3e
000001f0: 8dbb 543c e710 ef3c 5fac f8bc 59ef c03d
00000200: f9c0 093f 20d8 e13d 847e 783e 2b47 823d
00000210: e43d 783e 01e1 0bb9 c1df 8bbd 0fe9 73be
00000220: b240 4a3f 4bdd c53e 88ca a93e 5fdf a03e
00000230: 104d 9e3d c379 9dbd 353d 0d3f 044e 513e
00000240: 9aca 613e 00fa df3d f2b6 533e 9641 043e
00000250: cdee 02bd 6fda 023f 5e49 a83c ff51 cb3c
00000260: c898 cbbd 5eb2 513d 8aa5 19be 1c9b 7dbd
00000270: 2419 3d3e 4465 4f3d 5816 d63e 6389 fdba
00000280: a6be 833e a36a 98bc 0b64 93bc 9c0d f5bd
00000290: a951 453f 22ff 8a3e 9702 1c3f ed63 7abc
000002a0: b722 363f 2d3a 3b3f 1215 1d3f 0a8b 043f
000002b0: 3c3e 243e 8733 943e d72a 9b3d 278a e83d
000002c0: c1e9 323e d3e9 ba3d fa22 b23e 2661 07bc
000002d0: 3e93 cbbd 3f9c 23bd dab0 95bc 8e1c e5bd
000002e0: a2d1 bc3d 8c12 8a3d 9a50 e8bc 65b7 a43d
000002f0: bd2d b73d cdae 333e 1959 8bbd 745d e43d
00000300: 5bbe d5be 8af6 66be f1f5 babc d599 83bd
00000310: 383d 2fbe 506c 443e 0459 e5bd e371 b43e
00000320: 94cb 31bf 7dfc 933e 476c f6bd d4d3 eebd
00000330: 4d54 063e 1760 0f3e c270 f9be d428 aebe
00000340: 1988 c3be f272 c5be f5af 2f3d ec9e 26be
00000350: cb02 0cbd bf7c 18bf 865c efbd 9bab c53d
00000360: c4e7 853d 2306 0e3d c5b8 dcbb fab0 1e3e
00000370: 134c ddbe 06bb 9b3d b502 f5be 9561 a23e
00000380: f638 9abe bdde 32bd 527e 22be 1882 c2bd
00000390: 44c2 f5be ba26 28bf 6a5b 2dbf cbc3 003e
000003a0: f921 56bf f781 1bbf fcde ffbe 6d00 33bf
000003b0: dcea 0cbe 4416 06be b2c8 01be f788 b13d
000003c0: 9744 383c 2e3d ce3d b500 673c d08a 2cbe
000003d0: f63a 043e ed7d da3d 6469 cb3d 293c 1b3e
000003e0: 3c9d adbd 6ad8 693d 40e4 863e a95c 98be
000003f0: d0d4 3f3d c62b c0be dfd8 6f3b 7638 9d3d

linear_hidden.0.bias f4 [64]
0.09164903 0.04041615 0.1326576 0.07134639 0.13895486 0.06863183 0.13165203 -0.08714833
0.007427452 -0.053501766 0.037984494 0.071441546 -0.072445594 -0.00654963 0.20070653 0.0313728
0.2241008 0.20154922 -0.0880245 0.11102998 0.009587816 0.26036975 0.15016614 -0.034536727
0.013341574 0.22570232 0.052994717 0.017981391 -0.02472043 -0.11560176 0.11051284 -0.0022879564
0.14998789 0.07829831 0.056601178 0.06493394 0.1637693 0.1371302 0.102088384 0.052807614
0.20133428 0.10529654 -0.1376357 -0.040414475 0.11890802 0.18930462 0.017422665 -0.09762096
0.074015744 0.19831347 -0.008195648 0.037743907 -0.14310512 0.062713206 -0.0034110623 0.035282988
0.09087513 0.21273229 -0.0464132 0.046045486 -0.003790124 0.1693555 0.07869506 -0.030968515
00000000: 7db2 bb3d 688b 253d 65d7 073e 0e1e 923d
00000010: 2f4a 0e3e d88e 8c3d cacf 063e d37a b2bd
00000020: fc61 f33b ab24 5bbd a195 1b3d f24f 923d
00000030: 5b5e 94bd 479e d6bb 0386 4d3e c480 003d
00000040: ae7a 653e eb62 4e3e 3046 b4bd b063 e33d
00000050: 3716 1d3c 2f4f 853e 27c5 193e 6276 0dbd
00000060: 9e96 5a3c 821e 673e fd10 593d b64d 933c
00000070: 8082 cabc 9ec0 ecbd 8e54 e23d 8af1 15bb
00000080: 6d96 193e dd5a a03d a3d6 673d 16fc 843d
00000090: 24b3 273e dc6b 0c3e b713 d13d cc4c 583d
000000a0: 932a 4e3e b6a5 d73d 5ff0 0cbe a689 25bd
000000b0: 0c86 f33d 12d9 413e fab9 8e3c 7fed c7bd
000000c0: 9195 973d b012 4b3e 0a47 06bc 5b99 1a3d
000000d0: 268a 12be c86f 803d 218c 5fbb e584 103d
000000e0: bd1c ba3d 7ed6 593e c51b 3ebd 319a 3c3d
000000f0: bb63 78bb 876b 2d3e e02a a13d afb1 fdbc

linear_output.weight f4 [4, 64]
-0.0014710911 -0.02450806 0.18541212 -0.14406137 -0.2390207 0.35054716 0.3295932 -0.2911146
-0.20529601 -0.25176904 -0.054711707 -0.28477353 -0.3496815 -0.055687536 0.3611589 -0.4562132
0.23498216 0.29423255 -0.18218929 -0.19998266 -0.38567197 0.34775335 0.22194259 -0.21382076
-0.33691442 0.33912024 -0.1452305 -0.15831092 -0.2840297 -0.0025372226 0.05272889 -0.035171796
-0.07092175 -0.25108892 0.47520882 -0.09806543 0.43758813 -5.587979e-05 -0.12743278 0.23834513
0.17184973 -0.26396352 -0.3752228 -0.19637677 -0.13647768 0.29397222 -0.09902722 -0.21821615
0.44889098 -0.051824696 -0.13524543 -0.09993263 -0.097357966 0.23137625 -0.17372115 -0.16743219
-0.31170088 0.32096833 -0.1272444 0.09236271 -0.35887736 0.25092545 0.016956262 -0.2808021
0.48038295 0.07937278 -0.039538577 -0.24622032 -0.34909976 -0.034097716 0.010338789 -0.39349928
0.7667305 -0.06507725 -0.020220539 -0.13949944 -0.21120049 0.06649811 -0.015878545 -0.06804068
-0.060000036 -0.023040574 -0.22445431 -0.019522356 0.17062236 0.037614893 -0.05521122 -0.19956878
-0.31765783 0.0542262 -0.1907084 0.17351623 0.28503457 0.002551072 0.4719998 0.6972732
-0.05766123 -0.059250638 -0.1554194 0.07077364 -0.08294817 0.11915343 0.16524401 -0.17741364
0.50757265 -0.46888337 0.2473857 -0.18236385 -0.19099449 0.71767974 0.13209732 -0.016927201
-0.091387056 0.072652526 0.20058475 -0.48958728 0.82611644 -0.04328863 0.6825193 0.13475311
-0.04506154 -0.04803059 0.5181183 0.14713657 -0.035971805 -0.049983263 0.6253611 -0.32783392
0.18906517 0.106935106 0.09372924 0.06647459 0.070560075 0.4839179 0.5793781 0.079230465
0.21297887 0.06818919 0.08244342 0.081823766 0.112463854 0.05850699 0.30997634 0.08314892
0.3605836 0.52669823 0.071733564 0.08346488 0.1918618 0.5331326 0.0709477 0.08282807
0.08808304 0.61865 0.07473691 0.14032353 0.1617564 -6.349826e-05 0.17201215 0.17588401
0.0704941 0.081055164 0.4457033 0.23918226 0.0728275 0.09272366 0.11169485 0.16001283
0.3033624 0.08222346 0.15888251 0.073089726 0.082520485 0.5103535 0.2703725 0.06671281
0.067769326 0.10584094 0.2622097 1.1697967 0.19209862 0.0866589 0.48143956 0.089160785
0.06358976 0.43280104 0.18040508 0.14418772 0.09243852 0.07713646 0.15487328 0.08773188
-0.27202168 0.14434123 -0.17601624 0.39958128 0.45364287 -0.28068677 -0.42339545 0.54700184
0.14171319 0.2485262 0.12587641 0.24789377 0.43510112 0.0050631 -0.45998532 0.2351275
-0.41126043 -0.394445 0.3713993 0.25732338 0.15961637 -0.36564434 -0.210962 0.24865867
0.4281532 -0.36760348 0.2440621 -0.1183025 0.20718192 0.0011566024 -0.26116398 -0.235188
0.18862392 0.2717513 -0.72064626 -0.025970675 -0.63006765 0.120984145 0.22546549 -0.6700029
-0.44554862 0.49920154 0.17444949 0.23688516 0.29329643 -0.07982444 -0.03239429 0.27036986
-0.62770176 0.15908575 -0.10451797 0.30421096 -0.043277893 -0.25207672 0.006508265 0.17802842
0.34602806 -0.3337122 -0.13851202 -0.3912577 0.2766751 -0.248979 -0.28228575 0.3903378
00000000: a0d1 c0ba 21c5 c8bc addc 3d3e d384 13be
00000010: d8c1 74be eb7a b33e 71c0 a83e f90c 95be
00000020: 1e39 52be dfe7 80be 6219 60bd d6cd 91be
00000030: 7409 b3be 9d18 64bd d2e9 b83e c794 e9be
00000040: 2a9f 703e a6a5 963e d48f 3abe 41c8 4cbe
00000050: cc76 c5be ba0c b23e eb44 633e d4f3 5abe
00000060: 0c80 acbe 2ba1 ad3e 4eb7 14be 421c 22be
00000070: 576c 91be 8847 26bb 40fa 573d 4d10 10bd
00000080: 6c3f 91bd ba8e 80be 924e f33e 87d6 c8bd
00000090: 8d0b e03e 7860 6ab8 bd7d 02be bf10 743e
000000a0: 60f9 2f3e 3a26 87be 341d c0be fe16 49be
000000b0: cec0 0bbe 8783 963e c8ce cabd 0e74 5fbe
000000c0: 0ad5 e53e 2246 54bd c77d 0abe 7ba9 ccbd
000000d0: 9d63 c7bd e5ed 6c3e f5e3 31be 5873 2bbe
000000e0: 4297 9fbe f655 a43e 5b4c 02be a928 bd3d
000000f0: c6be b7be 4d79 803e dce7 8a3c 4bc5 8fbe
00000100: c1f4 f53e 328e a23d 34f3 21bd 2e21 7cbe
00000110: 34bd b2be 0caa 0bbd 0664 293c bd78 c9be
00000120: 7348 443f 3947 85bd 8ba5 a5bc f1d8 0ebe
00000130: f144 58be 2930 883d b913 82bc e958 8bbd
00000140: 99c2 75bd 96bf bcbc 5ad7 65be 59ed 9fbc
00000150: a1b7 2e3e 1312 1a3d 2925 62bd c25b 4cbe
00000160: 0ca4 a2be 4b1c 5e3d 1049 43be 3dae 313e
00000170: 0df0 913e e32f 273b f5a9 f13e 7f80 323f
00000180: 2f2e 6cbd ccb0 72bd 4326 1fbe c5f1 903d
00000190: bbe0 a9bd b706 f43d ba35 293e ecab 35be
000001a0: 48f0 013f 7b11 f0be ad52 7d3e 97bd 3abe
000001b0: 0f94 43be dcb9 373f 8544 073e eaaa 8abc
000001c0: 2329 bbbd d9ca 943d 1766 4d3e 2fab fabe
000001d0: 5e7c 533f 6b4f 31bd 96b9 2e3f b8fc 093e
000001e0: 7392 38bd b9bb 44bd 67a3 043f f8aa 163e
000001f0: 2c57 13bd 40bb 4cbd aa17 203f d9d9 a7be
00000200: 4d9a 413e cb00 db3d 1ef5 bf3d d423 883d
00000210: cd81 903d 16c4 f73e 2052 143f 9543 a23d
00000220: 2217 5a3e c6a6 8b3d 19d8 a83d 3893 a73d
00000230: 7353 e63d 07a5 6f3d 38b5 9e3e fb49 aa3d
00000240: 6a9e b83e b2d5 063f 0ce9 923d a3ef aa3d
00000250: 6b77 443e 617b 083f 074d 913d c3a1 a93d
00000260: e264 b43d d95f 1e3f aa0f 993d f9b0 0f3e
00000270: 78a3 253e 5e2a 85b8 f423 303e f01a 343e
00000280: 365f 903d 4000 a63d 3933 e43e 32ec 743e
00000290: 9626 953d e7e5 bd3d 45c0 e43d 67da 233e
000002a0: 5152 9b3e c664 a83d 19b2 223e 11b0 953d
000002b0: 8000 a93d 87a6 023f 446e 8a3e baa0 883d
000002c0: a5ca 8a3d 22c3 d83d 5a40 863e e6bb 953f
000002d0: 80b5 443e 397a b13d 3f7f f63e ee99 b63d
000002e0: 593b 823d 1998 dd3e 1cbc 383e f2a5 133e
000002f0: 6850 bd3d b8f9 9d3d 1a97 1e3e c6ac b33d
00000300: 6d46 8bbe 30ce 133e 9a3d 34be eb95 cc3e
00000310: e143 e83e 2db6 8fbe 4ac7 d8be 5008 0c3f
00000320: 431d 113e a77d 7e3e bfe5 003e ddd7 7d3e
00000330: 93c5 de3e 5ce8 a53b 3283 ebbe 43c5 703e
00000340: ba90 d2be b2f4 c9be 0d28 be3e e4bf 833e
00000350: 7972 233e bc35 bbbe 6c06 58be 61a0 7e3e
00000360: e536 db3e 8636 bcbe 6aeb 793e 9548 f2bd
00000370: 7f27 543e 2399 973a 49b7 85be 20d5 70be
00000380: a126 413e fd22 8b3e 467c 38bf 74c0 d4bc
00000390: 1d4c 21bf 89c6 f73d 6de0 663e 4f85 2bbf
000003a0: f31e e4be 5897 ff3e e3a2 323e 0692 723e
000003b0: f32a 963e ff7a a3bd e0af 04bd eb6d 8a3e
000003c0: 10b1 20bf 60e7 223e 840d d6bd 8ac1 9b3e
000003d0: 2944 31bd 3310 81be 4943 d53b 154d 363e
000003e0: 972a b13e 53dc aabe 18d6 0dbe ee52 c8be
000003f0: 5ca8 8d3e 5af4 7ebe c287 90be 5bda c73e

linear_output.bias f4 [4]
0.18319522 -0.012223797 0.073293075 0.071336016
00000000: 8797 3b3e 5246 48bc ae1a 963d 9e18 923d

exp_avg f4 [64, 13]
0.00012573609 -0.00017031921 -0.0002788591 2.3314384e-05 0.0001175032 -0.00018852357 -0.0003125008 2.414173e-05
9.498325e-05 -0.00020325797 -0.00033989374 2.4123661e-05 0.00015528579 1.0191344e-05 -3.3643642e-05 -3.9347942e-05
7.5668368e-06 1.3825298e-05 -3.4360048e-05 -3.8492297e-05 7.924207e-06 1.4725083e-05 -3.389872e-05 -3.7625705e-05
7.968387e-06 9.170561e-05 3.109231e-05 -0.000107094864 -0.00024256592 4.215123e-05 2.5124515e-05 -0.000103189464
-0.0002248373 4.2573727e-05 1.36939825e-05 -0.00010262923 -0.00020318832 4.2089432e-05 0.00048945856 -7.8195895e-05
7.866318e-05 0.00031114835 -3.9447536e-05 -7.066001e-05 7.1867005e-05 0.00030500855 -3.9598646e-05 -6.245087e-05
6.652805e-05 0.00029353704 -3.9541388e-05 -0.00044325314 7.439464e-05 -9.3297436e-05 -0.0005450878 7.878032e-05
3.8854345e-05 -6.9159534e-05 -0.00050648634 7.899352e-05 -2.533179e-06 -4.477168e-05 -0.00046158984 7.89057e-05
0.0011294456 0.00013613385 -5.8448706e-05 -0.00037810236 4.0378607e-05 0.00013854985 -4.792029e-05 -0.00038072598
4.0265597e-05 0.00014696977 -4.1982752e-05 -0.00037585662 4.0292594e-05 0.000430173 3.2981094e-05 -3.5305537e-05
-0.00025926024 4.1197036e-05 1.786726e-05 -2.6219454e-05 -0.00023544233 4.131366e-05 1.0619406e-06 -1.3698101e-05
-0.00021294053 4.1255946e-05 0.0005462912 -8.8831934e-05 4.691648e-05 0.0005530516 -6.7934656e-05 -5.9152586e-05
1.717364e-05 0.00052738044 -6.807519e-05 -1.9780031e-05 -9.11405e-06 0.0004958774 -6.78876e-05 -0.00094222964
-0.00016468528 3.9264734e-05 0.0007148596 -8.5796324e-05 -0.00013565828 -9.955976e-06 0.00068998436 -8.6029424e-05
-0.000110212364 -3.7907597e-05 0.0006366908 -8.586634e-05 -0.0006987053 -2.164167e-06 -7.515049e-05 -2.5779867e-05
-4.380136e-06 -3.8216203e-06 -7.555793e-05 -4.2267126e-05 -4.361718e-06 -7.663341e-06 -7.8421275e-05 -5.3732147e-05
-4.3412624e-06 -4.2843203e-06 0.00012542892 -0.00029459942 -0.001035346 0.00015486602 5.815465e-05 -0.00025684029
-0.0009625295 0.0001556802 -1.6990174e-05 -0.00021469468 -0.00087705016 0.00015513643 0.0021388752 0.00013009786
-5.22327e-05 -0.0005137148 6.241082e-05 0.00011593084 -2.8532124e-05 -0.00050212134 6.244595e-05 0.00010197074
-4.4668955e-06 -0.00048111944 6.2426036e-05 0.00074304943 -7.124527e-05 0.00010441557 0.00038305912 -5.1740466e-05
-5.495753e-05 9.243118e-05 0.00036777838 -5.2021736e-05 -3.5947505e-05 8.173989e-05 0.000345906 -5.1932293e-05
-0.00066217093 -0.00014053659 0.00015818933 0.0006404171 -8.2747e-05 -0.00011776995 0.00013929926 0.0006218895
-8.310414e-05 -9.110083e-05 0.00012384713 0.0005920179 -8.29781e-05 -0.0010285014 0.0003119848 -0.0005060764
-0.0020488505 0.00028627616 0.00019632331 -0.0004292604 -0.0019414723 0.00028791837 5.450878e-05 -0.00035547832
-0.0018034327 0.00028730495 0.003922406 0.00012242307 -8.8413566e-05 -0.0004210578 4.7785237e-05 0.00010894579
-8.598354e-05 -0.000424002 4.8484806e-05 7.915077e-05 -8.458887e-05 -0.00042558828 4.8475675e-05 0.00042672022
2.035266e-05 -4.5604862e-05 3.7441438e-05 -6.9325597e-06 2.0744654e-05 -6.9549365e-05 2.336988e-05 -6.237603e-06
4.1653593e-06 -8.527826e-05 -1.8423805e-06 -6.3500465e-06 -4.088176e-05 8.916091e-05 -0.00019690316 -0.0009157597
0.0001358135 1.7094908e-05 -0.00015383084 -0.0008448589 0.00013633302 -6.7073466e-05 -0.00011055777 -0.00076140335
0.00013602339 0.0019891926 9.6270276e-05 -3.538775e-05 -0.00041653911 4.949634e-05 7.873388e-05 -1.214573e-05
-0.00040326596 4.94816e-05 6.069879e-05 9.087201e-06 -0.00038224543 4.9496484e-05 0.00068330445 1.9682064e-05
-2.3234841e-05 -0.000111712325 1.30124245e-05 1.2641192e-05 -1.788595e-05 -0.000110282715 1.31254255e-05 2.2085073e-06
00000000: 06d8 0339 b797 32b9 d633 92b9 4293 c337
00000010: 0d6c f638 69ae 45b9 26d7 a3b9 f883 ca37
00000020: be31 c738 a521 55b9 c433 b2b9 2b5d ca37
00000030: 36d4 2239 7dfb 2a37 961c 0db8 8809 25b8
00000040: a2e6 fd36 34f3 6737 d21d 10b8 ca72 21b8
00000050: 36f2 0437 c00b 7737 792e 0eb8 4bd0 1db8
00000060: f6af 0537 1352 c038 1d69 0238 1e98 e0b8
00000070: 4b59 7eb9 8acb 3038 7cc2 d237 6c67 d8b8
00000080: 4ec2 6bb9 3191 3238 35bf 6537 a63a d7b8
00000090: f30e 55b9 2f89 3038 024f 003a 1afd a3b8
000000a0: f9f7 a438 a021 a339 7874 25b8 4e2f 94b8
000000b0: 4eb7 9638 8ee9 9f39 b916 26b8 0ef8 82b8
000000c0: fa84 8b38 e0e5 9939 3ed9 25b8 6e64 e8b9
000000d0: 5104 9c38 aea8 c3b8 39e4 0eba dd36 a538
000000e0: 89f7 2238 be09 91b8 b9c5 04ba 53a9 a538
000000f0: afff 29b6 3ac9 3bb8 8a01 f2b9 2d7a a538
00000100: e809 943a 27bf 0e39 d226 75b8 0a3c c6b9
00000110: 335c 2938 b147 1139 05fe 48b8 2d9c c7b9
00000120: dbe2 2838 e61b 1a39 a316 30b8 9f0e c5b9
00000130: d8ff 2838 d888 e139 2e55 0a38 0815 14b8
00000140: 52ed 87b9 fbca 2c38 a6e1 9537 d9f1 dbb7
00000150: 12e1 76b9 3448 2d38 0088 8e35 e5d0 65b7
00000160: ca48 5fb9 3c0a 2d38 fb34 0f3a 484b bab8
00000170: 30c8 4438 aafa 103a 2478 8eb8 9b1a 78b8
00000180: 1c10 9037 e73f 0a3a 97c3 8eb8 4bed a5b7
00000190: 8ce8 18b7 c5fd 013a e15e 8eb8 f6ff 76ba
000001a0: 5eaf 2cb9 30b0 2438 6a65 3b3a 8ded b3b8
000001b0: 7e3f 0eb9 9708 27b7 11e0 343a b26a b4b8
000001c0: d021 e7b8 f9fe 1eb8 99e7 263a 2413 b4b8
000001d0: 5229 37ba 1b3c 11b6 1d9a 9db8 d841 d8b7
000001e0: 15f9 92b6 783b 80b6 db74 9eb8 fb47 31b8
000001f0: df5a 92b6 cd91 00b7 1a76 a4b8 745e 61b8
00000200: 29ab 91b6 08c2 8fb6 9285 0339 7774 9ab9
00000210: 72b4 87ba 8863 2239 14eb 7338 85a8 86b9
00000220: 4352 7cba 163e 2339 1f86 8eb7 aa1f 61b9
00000230: d7e9 65ba 1eac 2239 5f2c 0c3b e16a 0839
00000240: 6f14 5bb8 d1aa 06ba 8ee2 8238 e51f f338
00000250: 4558 efb7 cba0 03ba 6af5 8238 20d9 d538
00000260: 57e2 95b6 c23e fcb9 b9ea 8238 34c9 423a
00000270: 8369 95b8 aff9 da38 53d5 c839 e703 59b8
00000280: 3382 66b8 9dd7 c138 61d2 c039 ea31 5ab8
00000290: 57c6 16b8 c56b ab38 b85a b539 e0d1 59b8
000002a0: 8a95 2dba 015d 13b9 a0df 2539 aae1 273a
000002b0: 7588 adb8 43fb f6b8 dc10 1239 4c06 233a
000002c0: 3248 aeb8 630d bfb8 f6dc 0139 a631 1b3a
000002d0: 8704 aeb8 c8ce 86ba e491 a339 36aa 04ba
000002e0: 0246 06bb 5617 9639 23dc 4d39 5b0e e1b9
000002f0: 0079 feba c0f3 9639 5ba0 6438 7e5f bab9
00000300: 2961 ecba 6ba1 9639 8787 803b b15e 0039
00000310: ac6a b9b8 6cc1 dcb9 026d 4838 d379 e438
00000320: 1052 b4b8 964c deb9 2a5c 4b38 bffd a538
00000330: 4e65 b1b8 7e21 dfb9 5c52 4b38 6bb9 df39
00000340: 01bb aa37 d947 3fb8 700a 1d38 3c9e e8b6
00000350: ce04 ae37 08db 91b8 6f0a c437 9a4c d1b6
00000360: 2ac4 8b36 6bd7 b2b8 b647 f7b5 7c12 d5b6
00000370: 7578 2bb8 e6fb ba38 ca77 4eb9 980f 70ba
00000380: 2969 0e39 0967 8f37 a74d 21b9 8579 5dba
00000390: 9ef4 0e39 cba9 8cb8 40db e7b8 ea98 47ba
000003a0: 80a1 0e39 1d5d 023b b6e4 c938 4f6d 14b8
000003b0: ef62 dab9 4a9a 4f38 ee1d a538 83c5 4bb7
000003c0: 716d d3b9 778a 4f38 d496 7e38 3b75 1837
000003d0: 1d68 c8b9 729a 4f38 c91f 333a e91a a537
000003e0: 71e8 c2b7 1947 eab8 f04f 5a37 8215 5437
000003f0: c909 96b7 9547 e7b8 4635 5c37 de35 1436

exp_avg_sq f4 [64, 13]
4.891517e-07 1.5557205e-07 5.080804e-06 7.018315e-08 4.5404772e-07 1.343068e-07 4.983885e-06 7.016559e-08
4.1049918e-07 1.2167173e-07 4.7943e-06 7.0037025e-08 3.5241173e-06 1.1793129e-07 1.0942373e-07 1.1836562e-06
1.8384485e-08 1.09525345e-07 1.199873e-07 1.1516853e-06 1.8365768e-08 9.6277645e-08 1.3553914e-07 1.107519e-06
1.8346899e-08 9.206576e-07 1.6044256e-08 6.0124655e-08 2.7648795e-07 6.0407497e-09 1.4086261e-08 6.535054e-08
2.4700927e-07 6.0438463e-09 1.300354e-08 7.2804916e-08 2.153247e-07 6.0395475e-09 7.266131e-07 1.2281708e-08
1.1345393e-08 1.5467865e-07 2.4195177e-09 1.0775047e-08 1.128132e-08 1.4834677e-07 2.4193751e-09 9.061442e-09
1.1861473e-08 1.3870572e-07 2.4163578e-09 2.1859407e-07 9.9616734e-08 5.891594e-08 1.8990511e-06 2.9753851e-08
7.681697e-08 4.7985655e-08 1.755973e-06 2.9786051e-08 5.7233017e-08 4.8077457e-08 1.5780591e-06 2.9749243e-08
4.3229006e-06 3.174978e-08 1.3510489e-08 5.3857224e-07 8.08173e-09 2.56243e-08 1.1842747e-08 5.0287707e-07
8.0901295e-09 1.9788853e-08 1.2849494e-08 4.599439e-07 8.081451e-09 1.025677e-06 3.331826e-08 2.2610411e-08
6.158247e-07 9.843604e-09 2.59993e-08 1.961168e-08 5.6902655e-07 9.856173e-09 2.0062636e-08 2.020504e-08
5.096538e-07 9.844741e-09 1.277791e-06 4.731554e-08 3.2553655e-09 1.4061641e-06 2.1742586e-08 3.145428e-08
5.9771166e-09 1.2454509e-06 2.179737e-08 2.0775465e-08 1.8121803e-08 1.0878553e-06 2.1775444e-08 2.8678571e-06
7.3631946e-07 2.298784e-07 8.453694e-06 1.1617324e-07 6.656556e-07 1.826469e-07 8.2783545e-06 1.1619389e-07
5.958539e-07 1.6035798e-07 7.866597e-06 1.16029604e-07 5.7366115e-06 1.7506688e-08 8.6194705e-09 1.0456364e-07
1.8349251e-09 1.9236857e-08 9.429223e-09 9.6742625e-08 1.834157e-09 2.2437943e-08 1.1494285e-08 8.8601574e-08
1.8339947e-09 1.7932717e-08 2.8558827e-07 1.9931785e-07 5.573533e-06 8.819161e-08 2.186327e-07 1.661584e-07
5.1475013e-06 8.8295316e-08 1.6255518e-07 1.6553321e-07 4.6129207e-06 8.8182325e-08 1.2544356e-05 4.6312746e-08
1.3589946e-08 5.947893e-07 8.504467e-09 4.072417e-08 9.949685e-09 5.692969e-07 8.507955e-09 3.529859e-08
8.919944e-09 5.2930636e-07 8.49471e-09 1.0271327e-06 3.5628293e-08 3.6768004e-08 5.0826765e-07 8.163082e-09
3.039171e-08 3.6480806e-08 4.804851e-07 8.165184e-09 2.4820208e-08 3.8664083e-08 4.4358376e-07 8.155037e-09
8.3726576e-07 5.869233e-08 5.494503e-08 8.5285956e-07 1.3535004e-08 4.9604854e-08 5.356142e-08 8.0607765e-07
1.3539234e-08 4.0095237e-08 5.6389187e-08 7.424577e-07 1.35217855e-08 1.4366724e-06 1.1850431e-06 1.0721333e-06
2.1552838e-05 3.485361e-07 9.4349343e-07 1.0250051e-06 1.9897503e-05 3.4881458e-07 7.195728e-07 1.1062409e-06
1.7943346e-05 3.4840224e-07 4.5435423e-05 2.7347014e-07 8.1828794e-08 3.0544584e-06 4.2382638e-08 2.5034808e-07
6.69428e-08 2.9784646e-06 4.2407418e-08 2.2514764e-07 5.7356317e-08 2.8538288e-06 4.2318007e-08 2.1913563e-06
1.5075052e-07 4.6884352e-08 1.5277747e-06 2.1173673e-08 1.4241792e-07 4.0970953e-08 1.5007611e-06 2.117879e-08
1.3216327e-07 3.6431825e-08 1.4501485e-06 2.1138634e-08 1.0967515e-06 3.5790987e-07 1.9577416e-07 7.059234e-06
1.103417e-07 2.7387676e-07 1.5949107e-07 6.5048207e-06 1.1047266e-07 2.0285083e-07 1.6431115e-07 5.83264e-06
1.1033593e-07 1.5957272e-05 3.0223923e-08 7.656945e-09 4.958754e-07 7.011227e-09 2.333864e-08 3.9949395e-09
4.7060965e-07 7.0167574e-09 1.7065007e-08 3.492001e-09 4.2753672e-07 7.0069364e-09 1.032682e-06 1.2129975e-08
6.4330172e-09 1.4912982e-07 2.1929887e-09 1.0664217e-08 6.3266374e-09 1.4292385e-07 2.192546e-09 8.899147e-09
00000000: 404e 0335 520b 2734 c67b aa36 98b7 9633
00000010: d8c3 f334 f935 1034 3f3b a736 f1ad 9633
00000020: 9462 dc34 dfa4 0234 b9de a036 4367 9633
00000030: e07f 6c36 6a41 fd33 55fc ea33 1ede 9e35
00000040: e9eb 9d32 3234 eb33 dcd5 0034 9b93 9a35
00000050: c0c2 9d32 32c1 ce33 b788 1134 10a6 9435
00000060: 4299 9d32 1c23 7735 b1d1 8932 e11d 8133
00000070: 3770 9434 ff8e cf31 0800 7232 d756 8c33
00000080: b29c 8434 3caa cf31 2c66 5f32 ed58 9c33
00000090: 0134 6734 6c84 cf31 790c 4335 86ff 5232
000000a0: 91e9 4232 be15 2634 9b44 2631 281d 3932
000000b0: c5cf 4132 4049 1f34 1942 2631 a5ac 1b32
000000c0: 4fc7 4b32 23ef 1434 040d 2631 aeb6 6a34
000000d0: e1ec d533 c30a 7d33 e6e2 fe35 6995 ff32
000000e0: 93f6 a433 c918 4e33 c6ae eb35 38dc ff32
000000f0: 5ed0 7533 b97d 4e33 b3cd d335 478b ff32
00000100: 6f0d 9136 415d 0833 c21b 6832 6792 1035
00000110: d3d7 0a32 6e1c dc32 f474 4b32 73fd 0635
00000120: c4fc 0a32 26fc a932 acc0 5c32 35ee f634
00000130: 99d6 0a32 fea9 8935 d019 0f33 d238 c232
00000140: 274f 2535 a11c 2932 1155 df32 8a76 a832
00000150: 35bf 1835 e853 2932 3456 ac32 5a8f ad32
00000160: 24cf 0835 a121 2932 9080 ab35 fd37 4b33
00000170: ffb4 5f31 6ebb bc35 74c4 ba32 5918 0733
00000180: 465f cd31 5e29 a735 ec3c bb32 bb75 b232
00000190: 44aa 9b32 6c02 9235 b50c bb32 6975 4036
000001a0: 7da7 4535 7ed4 7634 57d4 0d37 ea7a f933
000001b0: 81af 3235 991d 4434 43e3 0a37 4486 f933
000001c0: c5f2 1f35 de2e 2c34 c7fa 0337 f32b f933
000001d0: 1e7d c036 9d61 9632 d514 1432 788c e033
000001e0: b030 fc30 4c3e a532 29fe 2132 d2c0 cf33
000001f0: aa15 fc30 8fbd c032 6678 4532 3b45 be33
00000200: f40f fc30 760a 9a32 f452 9934 1304 5634
00000210: 4904 bb36 da63 bd33 4dc1 6a34 4669 3234
00000220: b3b8 ac36 dd9c bd33 d48a 2e34 6cbd 3134
00000230: b0c8 9a36 bf5e bd33 9975 5237 67e9 4633
00000240: 3779 6932 9ca9 1f35 0b1b 1232 b3e8 2e33
00000250: 2def 2a32 c9d1 1835 622a 1232 369b 1733
00000260: 543e 1932 a815 0e35 21f0 1132 03dc 8935
00000270: b905 1933 d9ea 1d33 e36f 0835 9d3d 0c32
00000280: 0a88 0233 12af 1c33 affa 0035 dc46 0c32
00000290: 3734 d532 9c0f 2633 b025 ee34 3b1a 0c32
000002a0: 77c0 6035 e614 7c33 b3fc 6b33 10f0 6435
000002b0: 9487 6832 1d0d 5533 670b 6633 3c61 5835
000002c0: 2e9a 6832 2e35 2c33 9130 7233 4e4d 4735
000002d0: 714d 6832 b0d3 c035 c50d 9f35 38e6 8f35
000002e0: 5ecc b437 701e bb34 6044 7d35 e892 8935
000002f0: 90e9 a637 b644 bb34 ab28 4135 267a 9435
00000300: 0b85 9637 0a0c bb34 ea91 3e38 73d1 9234
00000310: dbb9 af33 32fb 4c36 3408 3633 9467 8634
00000320: 32c2 8f33 a2e1 4736 7323 3633 1dc0 7134
00000330: f057 7633 6884 3f36 24c1 3533 370f 1336
00000340: fddd 2134 e45d 4933 f00d cd35 66e1 b532
00000350: 8aeb 1834 0af8 2f33 c26d c935 a7ec b532
00000360: c3e8 0d34 3779 1c33 b9a2 c235 5994 b532
00000370: 1834 9335 c226 c034 fe35 5234 5cde ec36
00000380: fef4 ec33 5609 9334 9240 2b34 fc43 da36
00000390: fd3c ed33 36cf 5934 816d 3034 ffb5 c336
000003a0: d2f1 ec33 fbdb 8537 8ecf 0133 9a8b 0332
000003b0: 4c1c 0535 68e7 f031 367a c832 dc43 8931
000003c0: 19a8 fc34 0d18 f131 5996 9232 eef7 6f31
000003d0: 3388 e534 aac1 f031 af9a 8a35 3264 5032
000003e0: 6b09 dd31 7e20 2034 77b3 1631 b935 3732
000003f0: b161 d931 9c76 1934 adab 1631 dde2 1832

exp_avg f4 [64]
0.00013226748 4.1698477e-05 0.00024119607 -0.00022506752 0.0004522004 0.00022880481 0.00023636222 -0.00038998004
-0.0004905886 -2.5164256e-05 0.0008888164 0.00035697265 -0.00029579454 -0.00047275831 0.0016402692 0.00027289416
-3.9286053e-05 0.0007806947 0.00028272677 7.4274736e-05 -0.00021832561 0.0006609591 -0.00014018144 -2.5110143e-05
2.1749938e-06 -0.00034269155 -0.0005148786 -0.00032840596 7.894997e-06 2.7963188e-07 0.0004597109 -0.0004431678
7.245569e-05 -0.00048520177 -0.0002717491 -0.0003951358 -5.1446452e-05 0.00039010355 7.605142e-05 -0.00010869255
0.0005255528 -3.3477496e-05 0.0007538559 0.0016017228 9.1568705e-05 0.0009375531 -0.00012696777 -7.6005344e-05
0.00017260145 -0.00025328656 0.00018009088 0.00022738514 -0.0001253888 -0.00011574156 -0.00051072624 -0.00031240378
9.819473e-05 0.00024281188 -0.00056929543 5.1335574e-06 6.831674e-05 0.00010330366 -7.411303e-05 -7.563946e-05
00000000: 48b1 0a39 66e5 2e38 94e9 7c39 1a00 6cb9
00000010: 4f15 ed39 53eb 6f39 00d8 7739 3c76 ccb9
00000020: d89a 00ba d417 d3b7 75ff 683a 0f28 bb39
00000030: df14 9bb9 8cdc f7b9 4dfe d63a 3c13 8f39
00000040: 14c7 24b8 89a7 4c3a f23a 9439 f2c3 9b38
00000050: 56ee 64b9 3744 2d3a abfd 12b9 9fa3 d2b7
00000060: 1cf6 1136 48ab b3b9 ebf8 06ba e72d acb9
00000070: c174 0437 5020 9634 5a05 f139 fa58 e8b9
00000080: 5af3 9738 ae62 feb9 8c79 8eb9 3b2a cfb9
00000090: 35c8 57b8 d086 cc39 cc7d 9f38 def1 e3b8
000000a0: 40c5 093a 306a 0cb8 6a9e 453a e6f0 d13a
000000b0: 9308 c038 20c6 753a a722 05b9 0f65 9fb8
000000c0: 59fc 3439 8ccb 84b9 c7d6 3c39 3c6e 6e39
000000d0: cd7a 03b9 47ba f2b8 42e2 05ba 20ca a3b9
000000e0: e5ed cd38 519b 7e39 c53c 15ba ec40 ac36
000000f0: 4545 8f38 bba4 d838 216d 9bb8 a0a0 9eb8

exp_avg_sq f4 [64]
2.2755482e-06 5.9590985e-07 1.9657678e-07 7.8568384e-08 9.681513e-07 2.6281486e-07 3.2039262e-07 7.08609e-07
3.7700354e-06 5.9591414e-08 2.8699906e-06 2.762463e-07 2.6523682e-07 4.3982968e-07 1.1336096e-05 1.3750699e-06
6.864316e-07 3.5905125e-06 2.280885e-07 7.1182185e-08 6.843159e-08 5.3577483e-06 1.8130114e-08 6.3290604e-09
3.830615e-10 4.3635552e-07 5.297324e-07 4.8220727e-07 7.0850376e-07 1.7061508e-08 2.6522985e-06 1.6125437e-06
9.235431e-07 4.6020097e-07 8.9306376e-08 2.9137e-07 2.954328e-06 2.8652435e-06 5.3566337e-06 3.1521085e-07
1.04233695e-05 4.180856e-06 4.213206e-06 1.0123796e-05 6.521897e-08 1.6258265e-06 4.8220795e-07 3.7320746e-08
9.6844836e-08 2.2848567e-07 5.806112e-07 2.2931353e-07 1.2754802e-07 5.96204e-08 4.342314e-07 1.5438873e-07
3.8694616e-08 1.5868478e-07 1.4780161e-06 1.8378682e-08 1.195369e-07 1.3344696e-07 2.027292e-08 1.4035359e-08
00000000: 9fb5 1836 9df6 1f35 9d12 5334 6db9 a833
00000010: 6df1 8135 0019 8d34 6d02 ac34 3d37 3e35
00000020: b700 7d36 74f1 7f33 109a 4036 014f 9434
00000030: df65 8e34 bb21 ec34 2930 3e37 0b8f b835
00000040: 3843 3835 89f4 7036 7de8 7434 d2dc 9833
00000050: aaf4 9233 b5c6 b336 8bbc 9b32 0177 d931
00000060: 1d97 d22f 3f44 ea34 ef32 0e35 0871 0135
00000070: 0230 3e35 a78e 9232 24fe 3136 946e d835
00000080: 66e9 7735 8a11 f734 b3c8 bf33 966d 9c34
00000090: f842 4636 8248 4036 22bd b336 403a a934
000000a0: 08e0 2e37 4849 8c36 2a5f 8d36 5fd9 2937
000000b0: 820e 8c33 f936 da35 1471 0135 984a 2033
000000c0: 03f9 cf33 aa55 7534 4cdb 1b35 3939 7634
000000d0: 22f4 0834 a908 8033 4f20 e934 0dc6 2534
000000e0: 2e31 2633 f162 2a34 3f60 c635 26df 9d32
000000f0: 0e5a 0034 9f49 0f34 9f24 ae32 2920 7132

exp_avg f4 [64, 64]
-5.1428083e-06 -6.431587e-06 2.1999534e-07 2.6919898e-07 9.504635e-08 2.7660087e-07 6.4773195e-07 5.9087455e-08
-5.182904e-06 9.0285266e-07 1.653851e-08 2.3271773e-06 4.0832697e-07 -1.7868751e-06 1.3890821e-06 -5.855971e-06
-4.0560426e-06 5.993673e-10 1.7446636e-07 -8.1853e-06 -4.1302516e-07 -8.202571e-06 4.4347567e-07 -4.273971e-07
-2.8823406e-12 -6.6967896e-06 2.2515232e-07 -8.024989e-06 -2.750699e-06 -3.9314923e-06 -5.711603e-06 2.352976e-06
-4.8515176e-06 2.3637258e-06 -6.8931735e-07 -2.8258808e-06 -6.4760516e-06 -4.6467076e-06 -1.0047269e-05 5.8707897e-08
-6.6904026e-06 -9.531389e-06 -8.428095e-06 -2.5927488e-06 -5.00375e-06 1.2317162e-06 -9.527408e-06 -4.3362065e-06
-8.301366e-06 -5.4991447e-06 -3.5076512e-06 3.4626456e-07 -6.9643506e-06 -7.617147e-06 1.6015568e-06 6.469867e-07
-5.619538e-06 2.5357303e-07 3.6080985e-06 1.2295188e-11 3.3645629e-09 6.406175e-09 -4.324081e-06 -1.7745751e-07
3.6412246e-06 -1.4676049e-06 6.913229e-07 -1.0256349e-05 1.2424819e-06 -5.6544163e-06 3.0464105e-06 6.183198e-06
1.7814731e-06 3.941878e-06 4.4132935e-07 -2.0943226e-07 -1.5401363e-05 -2.0385445e-05 -9.547692e-06 3.857902e-06
3.939577e-06 2.5022223e-07 1.3146962e-06 -8.84849e-06 -1.2829992e-05 1.2850653e-07 -2.6768273e-06 -2.953257e-06
2.2512211e-07 -3.7058042e-05 -1.3143735e-05 -3.8704242e-05 1.7342895e-06 -1.3901554e-05 3.9596325e-06 -1.1325921e-05
1.866427e-06 -1.1451608e-05 -5.313825e-06 -1.541566e-05 1.7870359e-06 3.6932636e-06 1.8246214e-06 8.44497e-06
1.3967269e-06 2.4869596e-06 1.146918e-06 1.8600258e-06 -5.544514e-07 2.2378838e-06 -9.891983e-06 -8.726914e-06
-7.392424e-06 -3.7841164e-05 -6.7994606e-06 5.088645e-06 -2.9398216e-05 -2.3436418e-05 -9.144606e-06 -4.075307e-06
-8.091205e-06 2.4720682e-06 -1.0234759e-05 2.3008374e-06 4.796333e-06 4.128515e-06 -7.679396e-06 -2.7575284e-06
-2.1785488e-06 1.3236046e-06 2.537883e-06 3.3505185e-05 5.4048396e-05 2.535571e-05 1.8596545e-05 6.8563195e-06
-7.3820325e-07 -2.1162516e-06 4.65065e-05 6.9702444e-05 5.522123e-05 8.007098e-05 5.7567395e-05 -2.3664268e-06
-2.4832418e-06 5.7049936e-05 1.47979745e-05 1.3998082e-05 3.1379248e-05 -1.3479269e-07 7.05509e-06 9.180463e-06
-1.2888059e-07 0.00013029538 5.383596e-05 0.00014359238 -7.37248e-07 2.085065e-05 -2.3177085e-06 8.590826e-05
-8.0744036e-07 5.5016968e-05 2.4309491e-05 4.961091e-05 -5.383298e-07 -2.4084984e-06 -9.859552e-07 3.1228008e-06
-8.01726e-07 -1.4501607e-06 1.3778905e-06 -2.5470743e-07 2.0149735e-06 3.2697968e-05 6.481877e-06 6.990496e-06
1.4054986e-05 0.00013235069 1.6877839e-05 1.770533e-05 9.9501085e-05 7.881715e-05 4.385573e-05 4.4046697e-05
6.788518e-06 2.0048537e-05 8.650667e-05 -1.2126069e-06 4.5559761e-07 -2.2274617e-06 1.514819e-05 7.148235e-06
1.7590597e-06 -1.6233859e-06 -4.614668e-06 -6.4732776e-06 -3.6631827e-05 -2.6673444e-05 -2.0065583e-05 -1.4824821e-05
4.899831e-07 1.826329e-39 -3.138731e-05 -2.5135425e-05 -1.4654451e-05 -1.4374393e-05 -2.665922e-05 2.4166204e-06
1.2390292e-06 -3.828061e-05 -1.9527619e-05 2.2410197e-05 -5.628762e-06 -2.2062369e-07 -9.631789e-07 -1.0998926e-05
6e-45 -1.8213987e-05 -5.081951e-06 -1.3580195e-05 1.0901444e-09 -1.3718892e-05 2.5373581e-06 -2.9191693e-05
7.192062e-08 -9.4935185e-06 1.0874921e-05 2.9709315e-06 1.243637e-07 2.3255843e-06 1.8100945e-06 -9.2876635e-06
2.1913232e-07 2.2276147e-06 -1.6474924e-06 -9.807537e-07 -2.4246851e-06 -2.5075144e-05 1.0326223e-05 7.384053e-06
1.557018e-05 -2.491148e-05 -2.2162109e-05 -1.3771009e-05 -1.4522805e-05 2.3659175e-06 -1.4351536e-05 -2.6468211e-05
1.0539853e-05 -2.5097288e-05 -3.0959152e-05 3.456747e-07 -3.950514e-06 -9.72374e-08 1.6736978e-05 -9.426246e-06
00000000: 6390 acb6 e9ce d7b6 dc37 6c34 6d86 9034
00000010: 491c cc33 bc7f 9434 cddf 2d35 58c7 7d33
00000020: cee8 adb6 905b 7235 9110 8e32 9a2c 1c36
00000030: 0838 db34 90d4 efb5 7f70 ba35 687e c4b6
00000040: 2419 88b6 b9c0 2430 f354 3b34 9953 09b7
00000050: bfbd ddb4 c69d 09b7 d516 ee34 0375 e5b4
00000060: a2d3 4aac fcb4 e0b6 66c1 7134 11a3 06b7
00000070: a698 38b6 43eb 83b6 4ca6 bfb6 d2e7 1d36
00000080: 38ca a2b6 80a0 1e36 8709 39b5 43a4 3db6
00000090: dc4c d9b6 eaea 9bb6 b190 28b7 0426 7c33
000000a0: 1f7e e0b6 01e9 1fb7 6466 0db7 16ff 2db6
000000b0: e3e5 a7b6 7251 a535 e8d7 1fb7 bb7f 91b6
000000c0: 1846 0bb7 4b85 b8b6 fd64 6bb6 3de6 b934
000000d0: 51af e9b6 cb96 ffb6 13f5 d635 96ac 2d35
000000e0: 778f bcb6 d022 8834 a922 7236 9b4c 582d
000000f0: 0436 6731 501d dc31 9317 91b6 268b 3eb4
00000100: c35b 7436 85fa c4b5 5993 3935 af12 2cb7
00000110: 5ac3 a635 11bb bdb6 ef70 4c36 4479 cf36
00000120: f31a ef35 7944 8436 d8ef ec34 4de0 60b4
00000130: 2d32 81b7 6901 abb7 062f 20b7 2073 8136
00000140: b530 8436 4856 8634 9e74 b035 fa73 14b7
00000150: 6540 57b7 9bfb 0934 8ba3 33b6 9230 46b6
00000160: 18b9 7134 c56e 1bb8 e983 5cb7 5d56 22b8
00000170: bcc5 e835 b83a 69b7 fcdc 8436 7604 3eb7
00000180: f281 fa35 4820 40b7 694d b2b6 e150 81b7
00000190: 16da ef35 c9d9 7736 84e5 f435 dfae 0d37
000001a0: 2c77 bb35 a4e5 2636 cdef 9935 00a6 f935
000001b0: 9cd5 14b5 8d2e 1636 bef5 25b7 cf69 12b7
000001c0: 700c f8b6 a4b7 1eb8 ec26 e4b6 21bf aa36
000001d0: 309c f6b7 5399 c4b7 c96b 19b7 9fbe 88b6
000001e0: 76bf 07b7 cfe5 2536 f5b5 2bb7 1668 1a36
000001f0: 30f0 a036 ac87 8a36 c1d6 00b7 fa0d 39b6
00000200: 2f33 12b6 b5a6 b135 7f50 2a36 eb87 0c38
00000210: 06b2 6238 f9b2 d437 c7ff 9b37 560f e636
00000220: f128 46b5 ed04 0eb6 f90f 4338 372d 9238
00000230: 589d 6738 c8eb a738 8574 7138 e7ce 1eb6
00000240: c5a5 26b6 e748 6f38 d144 7837 4ed9 6a37
00000250: 369d 0338 88bb 10b4 c3ba ec36 ca05 1a37
00000260: 6d62 0ab4 e69f 0839 eccd 6138 4991 1639
00000270: 4ce7 45b5 6ee8 ae37 ee89 1bb6 a529 b438
00000280: e1be 58b5 05c2 6638 3cec cb37 4f15 5038
00000290: be81 10b5 b0a1 21b6 2a55 84b5 4f91 5136
000002a0: 3136 57b5 24a3 c2b5 f5ef b835 b9be 88b4
000002b0: fb38 0736 2d25 0938 e67e d936 e78f ea36
000002c0: b5cd 6b37 9ec7 0a39 e294 8d37 e885 9437
000002d0: 3dab d038 a34a a538 bbf1 3738 c8be 3838
000002e0: edc8 e336 e82d a837 ea6a b538 dbc0 a2b5
000002f0: dc98 f434 807b 15b6 fb24 7e37 dfda ef36
00000300: d518 ec35 1de3 d9b5 b2d7 9ab6 0835 d9b6
00000310: 20a5 19b8 c9c0 dfb7 8352 a8b7 1fb8 78b7
00000320: 6287 0335 10e3 1300 dea5 03b8 ead9 d2b7
00000330: 63dc 75b7 8c29 71b7 3da2 dfb7 392d 2236
00000340: b84c a635 7e8f 20b8 3ecf a3b7 88fd bb37
00000350: b3de bcb6 94e4 6cb4 9346 81b5 0788 38b7
00000360: 0400 0000 3dca 98b7 a085 aab6 7ed6 63b7
00000370: 0cd4 9530 312a 66b7 7b47 2a36 afe0 f4b7
00000380: c772 9a33 5a46 1fb7 6e73 3637 3760 4736
00000390: d588 0534 3c11 1c36 60f2 f235 36d2 1bb7
000003a0: a24a 6b34 217e 1536 681f ddb5 71a2 83b5
000003b0: c6b7 22b6 7658 d2b7 ca3e 2d37 88c4 f736
000003c0: b59c 8237 fff8 d0b7 c4e8 b9b7 090a 67b7
000003d0: f9a6 73b7 27c6 1e36 61c7 70b7 0d08 deb7
000003e0: 53d4 3037 0488 d2b7 23da 01b8 2b95 b934
000003f0: a88e 84b6 d3d0 d0b3 6366 8c37 6b25 1eb7
