src/scripts/ddpg/weights/actor_best.pth (torch, 68975 bytes, 18 tensors)

linear_input.weight f4 [64, 13]
0	0xbe2305d7	-0.15920196
1	0xbe7dfcb6	-0.24803433
2	0x3e913ce9	0.28366783
3	0xbeadf957	-0.33979294
4	0xbe079b78	-0.132429
5	0xbe0058e3	-0.12533908
6	0x3e04f071	0.12982346
7	0xbda9feb4	-0.08300534
8	0x3dbe9462	0.093056455
9	0x3e0b0265	0.13575132
10	0xbe09f755	-0.13473256
11	0x3e2c8d7e	0.1685085
12	0x3e988f02	0.29796606
13	0x3e3e4cf7	0.18584047
14	0xbddebb8d	-0.10875616
15	0xbe2c9ec5	-0.16857441
16	0xbe5ea6f9	-0.21743383
17	0x3e196d2c	0.14983052
18	0x3e2c3ed0	0.16820836
19	0x3e4e1529	0.2012526
20	0xbbe81c3e	-0.007083445
21	0x3e741581	0.23836328
22	0x3de83357	0.11337917
23	0x3ca7991b	0.020458749
24	0xbdb3ae84	-0.087735206
25	0x3d4cba1a	0.049982168
26	0x3e096093	0.13415746
27	0x3c8ba17a	0.017044771
28	0x3dc5f67b	0.09666153
29	0x3d57627d	0.05258416
30	0x3e788bb3	0.24272041
31	0xbe5f1964	-0.2178703
32	0xbde9c973	-0.114153765
33	0x3f0406be	0.5157279
34	0xbde8255f	-0.11335253
35	0x3d84b6f7	0.0648021
36	0xbdeb00cd	-0.11474762
37	0x3ef91773	0.48650703
38	0xbe9c4327	-0.30519983
39	0x3e58f9c9	0.21189035
40	0xbe2ef098	-0.17083967
41	0xbe6bee8b	-0.23040216
42	0xbe84408c	-0.25830495
43	0xbe664fca	-0.22491375
44	0xbde7497d	-0.11293314
45	0x3da35b1e	0.079763636
46	0xbcb4f0cd	-0.022087479
47	0x3e9e1a7b	0.30879578
48	0x3decffdb	0.11572238
49	0xbe7d6ba3	-0.24748091
50	0x3e6882da	0.22706166
51	0x3eaf6c6c	0.34262407
52	0x3e198d71	0.14995362
53	0xba8fd4d8	-0.0010973467
54	0xbe5363b3	-0.20643501
55	0xbe0f7fe1	-0.14013626
56	0x3cb389d9	0.021916317
57	0x3e07cfc9	0.13262857
58	0x3d42da9b	0.04757176
59	0x3d827304	0.06369594
60	0xbcb99a7a	-0.022656668
61	0x3cc9eae7	0.024648143
62	0xbe119068	-0.14215243
63	0xbdf48a53	-0.11940446
64	0xbe2dcba4	-0.16972214
65	0xbe20f24f	-0.15717433
66	0xbe8db01d	-0.27673426
67	0xbc363b92	-0.011122601
68	0x3d2b1cce	0.041775517
69	0x3e9e62c9	0.30934742
70	0xbe812781	-0.25225452
71	0xbe081be2	-0.13291886
72	0xbda26152	-0.079287186
73	0x3e844c9a	0.25839692
74	0xbe50dc53	-0.20396547
75	0xbeb1f819	-0.34759596
76	0x3e2aaa4f	0.1666653
77	0x3c4fee50	0.0126910955
78	0xbdb321c3	-0.08746674
79	0xbe5d583a	-0.21615687
80	0xbe46e64f	-0.19423793
81	0x3de846e1	0.11341644
82	0x3de89e7f	0.11358356
83	0x3e6e00c1	0.23242475
84	0x3d8ed784	0.069747
85	0xbe900e6a	-0.28135997
86	0xbde55783	-0.11198332
87	0x3e0812d6	0.13288435
88	0x3de365ff	0.111034386
89	0xbda5d50c	-0.08097276
90	0x3e9ba764	0.30401146
91	0x3e713c71	0.23558213
92	0xbd67c361	-0.056582812
93	0xbe914dc1	-0.28379634
94	0xbe5d2d82	-0.21599391
95	0x3e628a54	0.2212308
96	0xbddf7efd	-0.10912893
97	0x3e350c4c	0.17680472
98	0xbd23671a	-0.039893247
99	0x3e84a8f1	0.25910142
100	0xbdc5fb80	-0.096671104
101	0xbe993156	-0.29920453
102	0x3cd720d7	0.026260776
103	0x3e225163	0.15851359
104	0xbd1fe2aa	-0.039034523
105	0x3d8fbfcb	0.070190035
106	0x3d4ed825	0.0504991
107	0x3ed85783	0.42254266
108	0xbe4565bd	-0.19277091
109	0xbeba210f	-0.36353347
110	0x3e08ccbf	0.13359354
111	0x3e29efce	0.16595384
112	0xbe3daa1d	-0.18521924
113	0xbea01a73	-0.3127018
114	0xbe853739	-0.26018694
115	0x3ec7bd35	0.3901154
116	0xbd4ae72c	-0.04953687
117	0x3e562b0f	0.20914863
118	0xbe035cd1	-0.12828375
119	0x3e2359db	0.15952246
120	0xbeb05ff3	-0.34448203
121	0x3d45edf3	0.04832263
122	0xbe18cbc0	-0.14921474
123	0x3e0d7b8d	0.13816662
124	0xbc8f8ab2	-0.01752219
125	0x3e3ece5c	0.18633407
126	0x3e433df1	0.19066598
127	0xbe98b0bc	-0.29822338
128	0xbe80435e	-0.25051397
129	0x3e2d996f	0.16953062
130	0x3e8bf7eb	0.27337584
131	0xbe896e55	-0.2684199
132	0xbddc66a7	-0.10761767
133	0x3de06cbf	0.10958242
134	0x3d53dd66	0.051724814
135	0xbc114731	-0.008867071
136	0xbe4331ba	-0.19061938
137	0x3d8221a3	0.06354072
138	0xbdcbc690	-0.09949982
139	0xbe0840a3	-0.13305907
140	0x3e3763cf	0.17909168
141	0xbe73c917	-0.23807178
142	0x3e48390a	0.19553009
143	0x3e320924	0.173863
144	0x3e2d680e	0.16934225
145	0x3db7c806	0.08973698
146	0x3ec01e10	0.37522936
147	0x3eadceda	0.33946878
148	0xbe054b88	-0.13017094
149	0xbe6e7cab	-0.23289745
150	0x3ed7c8bf	0.42145345
151	0xbd523db1	-0.051328365
152	0x3e909980	0.2824211
153	0xbcc763f8	-0.024339661
154	0x3df94b1f	0.12172531
155	0xbe73d789	-0.23812689
156	0x3ea8948b	0.3292583
157	0x3daefcbe	0.085443005
158	0xbead1c86	-0.33810824
159	0x3e354680	0.17702675
160	0x3e32c841	0.17459203
161	0xbd911bb6	-0.070853636
162	0xbe9cd6f3	-0.30632743
163	0x3e750f4a	0.23931614
164	0xbe1a42b5	-0.15064509
165	0x3e2bca49	0.16776384
166	0xbe06e704	-0.13174063
167	0xbda1d1a8	-0.07901317
168	0x3dbff528	0.09372932
169	0x3e2bfbf3	0.1679533
170	0x3de71c7b	0.11284729
171	0xbe593f62	-0.21215585
172	0xbe37536a	-0.17902914
173	0xbe08a154	-0.13342792
174	0xbaa0a3a4	-0.00122558
175	0x3dd1c869	0.10243303
176	0xbe4ebbcb	-0.20188825
177	0xbe59777f	-0.2123699
178	0x3e849019	0.25891188
179	0xbc4c8f62	-0.012485357
180	0xbe43fb5f	-0.19138859
181	0xba0394b1	-0.000501941
182	0xbd02b9ed	-0.031915594
183	0x3dbd25e8	0.09235746
184	0xbd791305	-0.060809154
185	0x3dff4f30	0.12466276
186	0x3deebc12	0.11656965
187	0xbe14fb48	-0.14548981
188	0x3d6173c4	0.055042043
189	0xbe7ca79c	-0.24673313
190	0x3e4616a6	0.19344577
191	0x3e3ecc4f	0.18632625
192	0xbd6bbbdb	-0.0575522
193	0xbd3a24cf	-0.04544526
194	0x3e2705b5	0.16310771
195	0x3e4cc082	0.19995311
196	0xbcf51256	-0.02991597
197	0x3df76e73	0.120816134
198	0xbd03e54f	-0.032201108
199	0xbe1616b1	-0.14657094
200	0xbd77125c	-0.060320243
201	0xbe541bd5	-0.20713742
202	0xbda3076c	-0.079604
203	0xbde67b5a	-0.11253996
204	0xbe180b44	-0.14848047
205	0x3c21fd71	0.009887085
206	0xbe37ae70	-0.17937636
207	0x3ed3a77c	0.41338718
208	0xbe98ec5f	-0.29867837
209	0x3e18b0f5	0.14911254
210	0xbe68b630	-0.22725749
211	0xbeaa2dae	-0.33237976
212	0xbe5b95ae	-0.21443817
213	0x3e86030a	0.26174194
214	0x3d1eb72e	0.038748913
215	0xbd818afb	-0.063253365
216	0xbddb0d25	-0.106958665
217	0x3d8b90b6	0.06814711
218	0x3d447c55	0.047970135
219	0xbead4413	-0.33841
220	0x3e9a63bc	0.30154216
221	0x3e39c774	0.18142492
222	0xbe48d0d5	-0.19610913
223	0xbe006beb	-0.12541167
224	0xbe935a7b	-0.2877997
225	0xbd7d3557	-0.061818447
226	0xbe3aaab3	-0.18229179
227	0xbddbbf3a	-0.10729833
228	0xbd5cee75	-0.053938348
229	0x3aa3f991	0.001251029
230	0xbe85ace4	-0.26108468
231	0xbea551c7	-0.32288954
232	0x3c6adddc	0.014335122
233	0x3e8c95db	0.2745808
234	0x3e4f254a	0.20229068
235	0x3ed1e181	0.40992358
236	0xbc86c8ef	-0.016453234
237	0x3f1e96d8	0.6194892
238	0xbdd0b178	-0.101900995
239	0x3ec9af00	0.39391327
240	0xbe786f03	-0.24261098
241	0x3e39a648	0.18129838
242	0x3dbb806a	0.091553524
243	0x3e777560	0.24165869
244	0x3d28accb	0.041180413
245	0x3f130f3c	0.5744512
246	0xbe5814ce	-0.21101686
247	0xbe253887	-0.16134845
248	0xbd90324b	-0.070408426
249	0xbdb385ed	-0.08765779
250	0xbe5638d0	-0.2092011
251	0xbcf99370	-0.030465811
252	0x3d5e8b12	0.054331847
253	0x3e4e63a9	0.20155205
254	0xbe7e231c	-0.2481808
255	0x3d9d3f20	0.07678056

linear_input.bias f4 [64]
0	0x3d0213ff	0.03175735
1	0x3e722f90	0.23650956
2	0x3e21c3af	0.15797304
3	0x3e651d65	0.22374494
4	0xbdc4ddd1	-0.096126206
5	0xbe299e5c	-0.16564316
6	0xbdbc1028	-0.09182769
7	0xbe345027	-0.176087
8	0x3e4d46d8	0.20046556
9	0xbd19879d	-0.037482847
10	0xbd6c8911	-0.057747904
11	0x3e2de691	0.16982485
12	0xbe111c03	-0.14170842
13	0x3e55d168	0.20880663
14	0xbe533853	-0.20626955
15	0xbe4f367f	-0.20235632
16	0x3c819353	0.01581732
17	0x3e5880da	0.21142903
18	0x3dee4d9c	0.116358966
19	0x3cd6b894	0.02621106
20	0x3e8f3298	0.27968287
21	0x3d73c75e	0.059516303
22	0x3dff6c1b	0.12471791
23	0x3e86078d	0.26177636
24	0xbde180c0	-0.11010885
25	0x3d7484fa	0.05969713
26	0x3eadaf51	0.33922818
27	0xbd82121d	-0.06351111
28	0xbdafa22d	-0.085758545
29	0x3e49502c	0.1965949
30	0xbd85b811	-0.065292485
31	0x3dab67fa	0.08369441
32	0x3ebfdfdd	0.37475482
33	0x3e90d40d	0.28286782
34	0xbe87d542	-0.2652989
35	0xbcaa294f	-0.02077165
36	0x3e3f2f64	0.18670422
37	0x3e71a994	0.23599845
38	0x3e970f64	0.2950393
39	0xbe4b1344	-0.19831568
40	0xbd579410	-0.052631438
41	0xbd816af9	-0.063192315
42	0x3c8ae88a	0.016956586
43	0x3e8cf3e2	0.27529818
44	0x3ddd5ac2	0.10808326
45	0x3d477219	0.048692796
46	0xbe9d2d5b	-0.30698666
47	0xbe02229d	-0.12708516
48	0x3d908772	0.07057084
49	0x3e35070d	0.17678471
50	0xbddb0299	-0.10693855
51	0xbe9d72f5	-0.30751768
52	0x3e523142	0.20526603
53	0x3e81fbb7	0.25387356
54	0x3eec63f6	0.46170014
55	0x3ed328a4	0.41241944
56	0x3e6efaab	0.2333781
57	0xbe7a40c6	-0.24438772
58	0x3e445a53	0.19175081
59	0xbdc481a6	-0.09595041
60	0x3e3a7809	0.18209852
61	0xbea8e27b	-0.3298529
62	0xbe4d0322	-0.20020726
63	0x3ef0fa08	0.4706576

linear_hidden.0.weight f4 [64, 64]
0	0x3e3e5425	0.18586786
1	0xbc68d68d	-0.014211309
2	0xbe9dcccd	-0.30820313
3	0xbd78cc99	-0.060741995
4	0xbc3e8501	-0.01162839
5	0xbce0e268	-0.027451709
6	0x3e3f637e	0.18690297
7	0xbb469db5	-0.0030306403
8	0xbe05d709	-0.1307031
9	0x3dd941b0	0.10608232
10	0x3d4480ab	0.04797427
11	0xbe8c0719	-0.27349165
12	0x3e39b58b	0.1813566
13	0x3dca0a0d	0.09865198
14	0x3e51e05f	0.20495747
15	0x3e9326d5	0.28740564
16	0x3e535ae4	0.20640141
17	0xbd0420e1	-0.03225792
18	0xbef54f57	-0.47912094
19	0x3e5e4283	0.2170506
20	0xbdff2834	-0.1245884
21	0xbb4f6d93	-0.0031651005
22	0x3da266bd	0.07929752
23	0xbe173809	-0.1476747
24	0x3be75bd5	0.007060508
25	0x3d8fec70	0.07027519
26	0x3d391a00	0.04519081
27	0x3e42002f	0.18945383
28	0x3e2f6593	0.17128591
29	0xbe073361	-0.13203193
30	0xbd539967	-0.051659968
31	0x3e1e5588	0.15462315
32	0xbeaa9fcd	-0.33325043
33	0xbef169b4	-0.47150958
34	0xbc6ecdc1	-0.014575423
35	0xbe72feda	-0.2373003
36	0xbd8ca902	-0.06868173
37	0x3d84f736	0.06492464
38	0xbe0824d2	-0.13295296
39	0x3db38896	0.08766286
40	0xbdc3b6be	-0.0955634
41	0x3da6b596	0.081401035
42	0xbd8e3111	-0.069429524
43	0x3dca3ce5	0.09874896
44	0xbc943786	-0.018092882
45	0xbc8b1265	-0.016976545
46	0xba7f423f	-0.00097373495
47	0x3e3058c3	0.1722136
48	0xbd170ecb	-0.036879342
49	0xbd0afbb8	-0.033931464
50	0xbbf0918b	-0.007341569
51	0x3e254585	0.16139801
52	0x3d0ce45d	0.03439747
53	0x3c757a14	0.014982719
54	0xbe7a0696	-0.24416575
55	0xbc2d95a6	-0.010594761
56	0xbc2db1bd	-0.010601458
57	0x3d863435	0.065529265
58	0xbe0a1d01	-0.13487627
59	0x3dc37fab	0.09545835
60	0x3d7349e5	0.059396643
61	0x3e3e9150	0.1861012
62	0xbd67c0e3	-0.056580435
63	0xbf05a3cf	-0.5220308
64	0x3dc2c82e	0.095108375
65	0xbbd53a16	-0.0065071685
66	0xbe8c9639	-0.2745836
67	0x3daa51b6	0.083163664
68	0x3d5f4b61	0.054515246
69	0xbd848956	-0.06471507
70	0x3d2b9fbc	0.04190038
71	0x3d9d0c2b	0.076683365
72	0xbe8e0055	-0.27734628
73	0xbcfce8b7	-0.030872686
74	0xbd81c4a7	-0.063363366
75	0xbe28ade6	-0.16472587
76	0x3e2539a7	0.16135274
77	0xbdbf769c	-0.09348795
78	0x3e43d1ab	0.1912295
79	0x3d91521b	0.070957385
80	0x3e13341a	0.14375344
81	0x3d07ed20	0.033185124
82	0xbd3eeba9	-0.04661146
83	0x3e209787	0.15682803
84	0xbe76986e	-0.24081585
85	0x3e1e8966	0.15482101
86	0x3cd1f3c7	0.025628937
87	0xbdfc5e3e	-0.12322663
88	0x3e40df8f	0.18835281
89	0x3e11c0bf	0.14233683
90	0xbe24ab7e	-0.16081044
91	0x3e2c5edb	0.1683306
92	0x3e166b65	0.14689405
93	0xbe62da16	-0.22153506
94	0xbdafb72a	-0.08579858
95	0x3d51b434	0.051197246
96	0xbe738afa	-0.23783484
97	0xbf15e356	-0.5855001
98	0xbd40c2c7	-0.047060754
99	0xbe6841d1	-0.22681357
100	0x3d98a207	0.07452779
101	0x3b661832	0.0035109636
102	0xbe2af4e3	-0.1669498
103	0x3e808c61	0.251071
104	0xbe1b4599	-0.15163268
105	0x3d6b2af5	0.057414014
106	0xbe0946d4	-0.13405925
107	0xbe016b95	-0.12638696
108	0xbe17c2e8	-0.14820445
109	0x3dde6e32	0.10860862
110	0x3d8c93a6	0.06864099
111	0xbd888292	-0.06665529
112	0xbc4f31aa	-0.012646118
113	0xbe1a32e4	-0.15058476
114	0x3dce2f18	0.10067576
115	0x3cfb4fc2	0.03067768
116	0xbd383743	-0.044974577
117	0x3d2b30e6	0.04179468
118	0xbe063481	-0.13105966
119	0xbe1bdbe5	-0.15220602
120	0x3dcc6e84	0.09982017
121	0x3e1687ca	0.14700237
122	0xbcff23a3	-0.031144923
123	0xbb077b99	-0.0020673035
124	0x3d0b8686	0.03406384
125	0x3e395ab3	0.18101005
126	0x3d7e41b1	0.062074367
127	0xbe9557ed	-0.29168645
128	0x3e0eaf2f	0.13934015
129	0x3c388bf5	0.011263837
130	0xbe985210	-0.2975011
131	0x3ca690b8	0.02033268
132	0x3dc49d60	0.096003294
133	0x3da08d7b	0.07839485
134	0xbd1450e7	-0.036209967
135	0x3cc7b386	0.024377596
136	0xbeb7d9aa	-0.35908252
137	0x3d1610ef	0.036637243
138	0x3dc4b9ce	0.09605752
139	0xbe45f415	-0.19331391
140	0xbd6a5ee9	-0.05721942
141	0xbde58072	-0.112061396
142	0x3e46bd20	0.19408083
143	0x3de5024f	0.11182081
144	0x3e6dc7bc	0.23220724
145	0x3dc80349	0.097662516
146	0xbed912ac	-0.42397058
147	0x3d8a26dc	0.06745693
148	0xbe8a2f84	-0.26989377
149	0x3d84bc44	0.06481221
150	0x3ac9878c	0.0015375479
151	0xbe012e05	-0.12615211
152	0x3de8ac4a	0.113609865
153	0xbdc9507e	-0.09829806
154	0xbdb9e1f4	-0.090763
155	0x3d745a57	0.059656467
156	0x3db44e41	0.08803988
157	0xbe4c68b2	-0.19961813
158	0xbd9a271e	-0.07526992
159	0x3e064a3d	0.13114257
160	0xbe8ad560	-0.27115917
161	0xbf1e27ab	-0.6177928
162	0xbdb46896	-0.08809011
163	0xbe2bb6c8	-0.16768944
164	0x3d7e65ba	0.062108733
165	0x3dd52bb9	0.1040873
166	0xbe64690a	-0.22305694
167	0x3e1b4db2	0.15166357
168	0xbe29e2f4	-0.16590482
169	0x3d3b9d68	0.04580441
170	0xbdcdd81d	-0.10050986
171	0xbba65f1a	-0.005077255
172	0xbd147544	-0.036244646
173	0x3e03d623	0.12874655
174	0x3e3ba6e4	0.18325382
175	0xbd4843a6	-0.04889264
176	0x3da928ed	0.08259759
177	0xbe31e88b	-0.17373864
178	0x3df9b6bc	0.12193057
179	0x3d07f728	0.03319469
180	0xbe35f5e1	-0.17769577
181	0x3c8f3851	0.017482908
182	0xbe00f33c	-0.12592787
183	0xbe90e5e6	-0.283004
184	0xbd2d2b46	-0.042277597
185	0xbc94f63c	-0.01818382
186	0x3cd273df	0.025690017
187	0x3e30e4fb	0.17274849
188	0xbcf2c23a	-0.02963363
189	0x3c1d693b	0.009607608
190	0xbd4b9d83	-0.04971076
191	0xbeb81fe4	-0.3596183
192	0x3d73b6dd	0.059500564
193	0x3bd64757	0.006539266
194	0xbe241e1b	-0.1602711
195	0x3dea40fd	0.11438177
196	0x3d8ed4d3	0.06974187
197	0xbc51af48	-0.012798138
198	0x3d435010	0.047683775
199	0x3e37f3d3	0.17964105
200	0xbe843888	-0.2582438
201	0xbd711b20	-0.05886376
202	0xbc80cd1c	-0.015722804
203	0xbe3b9fd1	-0.18322684
204	0x3d2e8c50	0.04261428
205	0x3dcf5222	0.101230875
206	0x3e53876a	0.20657125
207	0x3e0d6f15	0.13811906
208	0x3e09f750	0.13473248
209	0x3e1cfd37	0.15330969
210	0xbd62bca0	-0.055355668
211	0x3e045df0	0.1292646
212	0xbd5fb695	-0.054617483
213	0xbd212e87	-0.039351013
214	0x3e42d1d4	0.19025356
215	0x3e04b33a	0.12958995
216	0x3e3cea02	0.18448642
217	0xbcefbebf	-0.02926576
218	0x3c7a7678	0.015287034
219	0x3d2cf378	0.042224377
220	0x3d1bfb8d	0.038081694
221	0xbd9b1da6	-0.07574014
222	0x3cc8b510	0.0245004
223	0xbd53462c	-0.051580593
224	0xbde8f95d	-0.11375687
225	0xbeb987c4	-0.36236393
226	0xbd76802a	-0.06018082
227	0xbdda9ab5	-0.10674039
228	0x3cca0f95	0.024665633
229	0x3d1f43ee	0.038883142
230	0xbdbcea95	-0.092244305
231	0x3e73e684	0.23818403
232	0xbe63dce0	-0.22252226
233	0x3e1e7ab0	0.15476489
234	0x3c8fd380	0.017556906
235	0xbdb043bf	-0.086066715
236	0xbde0c54d	-0.10975132
237	0x3d853023	0.06503322
238	0x3e2c1e19	0.16808356
239	0xbcc21d6d	-0.023695672
240	0xb80fa759	-3.424971e-05
241	0xbd58a19d	-0.0528885
242	0x3e1748da	0.14773884
243	0x3cd7310c	0.026268505
244	0xbe333f58	-0.17504632
245	0xbddbf0d4	-0.10739294
246	0xbe719cdd	-0.23594995
247	0xbe20214a	-0.15637699
248	0xbdc1218a	-0.09430225
249	0x3e09dc2d	0.13462897
250	0x3d358c47	0.044323232
251	0x3ded8448	0.11597496
252	0xbda06e1a	-0.078335
253	0x3dd8097e	0.105486855
254	0xbdaf8a3f	-0.0857129
255	0xbe29f550	-0.16597486

linear_hidden.0.bias f4 [64]
0	0xbd8aa5cd	-0.06769905
1	0xbdbb60d7	-0.0914933
2	0x3cbab533	0.02279148
3	0xbd9a1c55	-0.07524935
4	0x3d694b2c	0.056956455
5	0xbdf83e3c	-0.12121245
6	0x3b0fcf7c	0.0021943739
7	0x3e80c2ec	0.25148714
8	0x3cd3b6e2	0.025844041
9	0x3cf97784	0.030452497
10	0xbbe15979	-0.006877121
11	0xbdafa1b9	-0.08575768
12	0xbdcfa139	-0.10138173
13	0x3cdb7bba	0.026792396
14	0xbd8ead4c	-0.069666475
15	0xbdedfceb	-0.11620506
16	0xbcec2957	-0.028828306
17	0xbd166c78	-0.036724538
18	0xbe1876f3	-0.14889126
19	0x3b5b9ffb	0.0033512104
20	0x3d8d7dde	0.06908773
21	0xbe03045d	-0.12794633
22	0xbdc6322d	-0.09677539
23	0xbd612736	-0.054969035
24	0x3d96a6ef	0.07356059
25	0x3e381406	0.17976388
26	0xbd258c2c	-0.04041688
27	0x3d0e1eed	0.034697462
28	0xbdbde03d	-0.09271286
29	0xbe061be2	-0.13096574
30	0xbd169e43	-0.036772024
31	0xbe1c70dc	-0.15277427
32	0xbdeb12f3	-0.11478224
33	0x3cce921d	0.025216157
34	0xbe490d67	-0.19634019
35	0x3e21fb13	0.15818433
36	0xbcaf16ff	-0.02137327
37	0xbe1180f3	-0.14209346
38	0xbdc55e7a	-0.096371606
39	0x3cba5248	0.022744313
40	0x3d09fd22	0.033688672
41	0xbdbb1caf	-0.0913633
42	0x3dce5a41	0.10075808
43	0xbddcd7d7	-0.10783356
44	0x3d4cdc1c	0.0500146
45	0xbdfb9bfc	-0.12285611
46	0xbce97ec7	-0.028502835
47	0xbdd8eb83	-0.10591795
48	0xbd8d3470	-0.06894767
49	0x3ccb9d27	0.02485521
50	0xbd09754a	-0.03355912
51	0xbd94f6bd	-0.07273624
52	0xbe05ae4b	-0.13054769
53	0xbdd8c96b	-0.105852924
54	0xbe31b996	-0.17355952
55	0xbdf2109f	-0.118195765
56	0x3c4bb820	0.012434036
57	0xbcfac931	-0.030613514
58	0x3ca00c8e	0.019537237
59	0xbe0aaa3c	-0.13541502
60	0xbd8d73ec	-0.06906876
61	0xbda6cf06	-0.08144955
62	0xbcb19043	-0.021675235
63	0xbd0e41d3	-0.034730744

linear_output.weight f4 [4, 64]
0	0xbed3aead	-0.41344205
1	0xbda1a4b7	-0.07892745
2	0xbdc6467e	-0.09681414
3	0xbc0568ff	-0.008142709
4	0xbd9a7cff	-0.07543372
5	0xbe89ae91	-0.26890996
6	0xbe0660fe	-0.13122937
7	0x3d64c898	0.055855364
8	0xbebd071d	-0.3691949
9	0xbdfee0d9	-0.1244523
10	0xbe8e6775	-0.27813306
11	0xbedf0153	-0.43555698
12	0xbdaec3a6	-0.08533411
13	0xbe232d74	-0.15935308
14	0xbce0e6b1	-0.027453752
15	0xbea74af0	-0.3267436
16	0xbe0ab3c3	-0.13545136
17	0xb9fe8f58	-0.00048553455
18	0xbe9a2c90	-0.30112123
19	0xbd56af7d	-0.052413452
20	0xbb2224a3	-0.0024741075
21	0xbdfc62eb	-0.123235546
22	0xbee1f65f	-0.4413328
23	0xbdc3645c	-0.095406264
24	0x3dd7a0d7	0.10528725
25	0x3e3495bb	0.17635243
26	0xbdb4af86	-0.08822541
27	0xbdc5cebd	-0.09658573
28	0xbe44f027	-0.19232236
29	0xbda41bd0	-0.08013117
30	0xbdd42859	-0.10359258
31	0xbebfa033	-0.3742691
32	0xbe49f849	-0.1972362
33	0xbda441c8	-0.08020359
34	0xbed6ade3	-0.4192954
35	0x3ccc0c6c	0.024908267
36	0xbd15efa6	-0.0366055
37	0xbd8c7184	-0.06857589
38	0xbd875ecf	-0.0660988
39	0xbd5e8c9e	-0.05433332
40	0xbe0174a7	-0.12642156
41	0xbe65ac71	-0.22429062
42	0x3d7c7671	0.061636392
43	0xbe11a68f	-0.14223693
44	0xbda406c2	-0.080091015
45	0xbd709745	-0.058738012
46	0xbdd3e978	-0.10347265
47	0xbd225e2b	-0.039640587
48	0xbe08629d	-0.13318868
49	0xbdbc148a	-0.09183605
50	0xbdfdfa4a	-0.124012545
51	0xbd88ca36	-0.06679194
52	0xbba2e240	-0.0049708188
53	0xbdd871f7	-0.10568612
54	0xbdfc638e	-0.12323676
55	0xbdb40de0	-0.08791709
56	0xbd706084	-0.058685794
57	0xbd52a93d	-0.05143093
58	0xbd8118be	-0.06303547
59	0xbe1c588a	-0.1526815
60	0xbda43ce6	-0.08019428
61	0x3b33b09f	0.0027418507
62	0xbcb45f14	-0.022017993
63	0xbea58d8e	-0.3233456
64	0x3ecfb748	0.4056952
65	0x3d509e54	0.050932243
66	0x3d7e83ab	0.062137287
67	0x3d22de45	0.039762754
68	0x3dd225bb	0.10261103
69	0x3e646bb5	0.22306712
70	0x3d6ca7bd	0.057777155
71	0x3dc89ec6	0.09795909
72	0x3e595007	0.21221934
73	0x3d8adcee	0.0678042
74	0x3e28c018	0.16479528
75	0x3e9ceb53	0.30648288
76	0x3de9b57b	0.11411568
77	0x3d984e41	0.07436801
78	0x3da905e3	0.08253076
79	0x3ed2dc95	0.41183916
80	0x3d9b417a	0.07580848
81	0xbb3109a4	-0.0027013803
82	0x3e6943ae	0.22779724
83	0xbcad8a51	-0.021184118
84	0xbb069ff8	-0.0020542126
85	0x3d93525c	0.07193443
86	0x3e83eb93	0.25765666
87	0x3d66567d	0.056234825
88	0xbcc7de9f	-0.024398146
89	0x3e7d3d86	0.247305
90	0x3d792ea5	0.0608355
91	0x3d4eb71d	0.0504676
92	0x3dd03f28	0.10168296
93	0x3dc9842d	0.09839664
94	0x3d818ce7	0.06325703
95	0x3e07e749	0.13271822
96	0x3e3bb59e	0.18331
97	0x3d5dcae6	0.054148577
98	0x3e4c5303	0.19953541
99	0x3de15955	0.11003367
100	0x3da46d4b	0.080286585
101	0x3dcf1bb6	0.10112707
102	0x3dccfa4f	0.1000868
103	0x3d4a2736	0.0493538
104	0x3d82ef28	0.06393272
105	0x3dc89ee9	0.09795935
106	0xbdcf1c44	-0.10112813
107	0x3d9551d0	0.07290995
108	0x3d5893e5	0.05287542
109	0x3dc00858	0.093765914
110	0x3d48f7f7	0.049064603
111	0x3db0a4d1	0.08625186
112	0x3debf06b	0.115204655
113	0x3d5c9009	0.0538483
114	0x3e05824f	0.1303799
115	0x3db095ff	0.086223595
116	0x3d125853	0.035728764
117	0x3d6f31fe	0.058397286
118	0x3d8df05e	0.06930612
119	0x3d8deab9	0.069295354
120	0x3d552a0c	0.052042052
121	0x3dbee755	0.09321467
122	0x3da5b45b	0.08091041
123	0x3d9f1931	0.07768477
124	0x3d8a166b	0.06742557
125	0x3a0dd800	0.00054109097
126	0x3dae033a	0.08496709
127	0x3e10582f	0.1409614
128	0x3dcd5e37	0.10027736
129	0x3e0e2da8	0.13884604
130	0x3e1a38d0	0.15060735
131	0x3df38732	0.11891021
132	0x3dc0478d	0.09388647
133	0x3e106f7a	0.14105025
134	0x3e2df862	0.16989282
135	0xbd375db4	-0.044767097
136	0x3e09ad93	0.1344512
137	0x3e34ffa8	0.1767565
138	0x3d791a06	0.060815834
139	0x3dc2d567	0.095133595
140	0x3d8081da	0.06274767
141	0x3e32c26c	0.17456979
142	0x3ddc0752	0.10743584
143	0x3dbe974d	0.09306202
144	0x3e1f8af2	0.15580347
145	0x3995db54	0.00028582907
146	0x3d9ba138	0.075991094
147	0xbd5fc40c	-0.054630324
148	0xbb1eecb3	-0.002424997
149	0x3e37a9dc	0.1793589
150	0x3e002a92	0.1251624
151	0x3e163ffe	0.14672849
152	0xbd0a82ce	-0.03381615
153	0x3db358bc	0.08757159
154	0x3e208fb0	0.15679812
155	0x3e1cc8e8	0.15311015
156	0x3c9ce719	0.019153165
157	0x3d8117a4	0.06303337
158	0x3e205256	0.15656409
159	0x3e273d8d	0.16332074
160	0x3dbe29b1	0.09285296
161	0x3de1fb94	0.11034313
162	0x3e20c49d	0.15700002
163	0xbd7a92fc	-0.06117533
164	0x3d8dc5c8	0.069224894
165	0x3da5ec35	0.081016935
166	0x3dc06dae	0.0939592
167	0x3d8faaef	0.07015025
168	0x3e28b6c8	0.16475976
169	0x3e5d99d8	0.21640718
170	0x3c1a80e8	0.009430148
171	0x3e47c524	0.19508797
172	0x3e1049f0	0.14090705
173	0x3d857da9	0.065181084
174	0x3d9df0fe	0.07711981
175	0x3db44376	0.0880193
176	0x3da32844	0.079666644
177	0x3e053bb1	0.13011052
178	0x3b880786	0.0041512875
179	0x3da775df	0.08176779
180	0x3e053c9f	0.13011406
181	0x3e203e2c	0.15648717
182	0x3e294381	0.16529657
183	0x3e0c3b3a	0.13694468
184	0x3dbd23ab	0.09235319
185	0x3d888723	0.066664
186	0x3d3e9c6b	0.04653589
187	0x3e217481	0.15767099
188	0x3e4fcf4b	0.2029392
189	0xbab583ed	-0.0013848521
190	0x3d8c5745	0.06852583
191	0x3debea46	0.115192935
192	0x3d1e3aa2	0.038630135
193	0x3cc28b31	0.023748012
194	0x3d031921	0.032006387
195	0x3ca6fc5c	0.020384006
196	0x3c9abef6	0.018889885
197	0x3d0b7382	0.034045704
198	0x3ccb071c	0.024783663
199	0xbe8ce9ff	-0.27522275
200	0x3d1f3a1a	0.03887377
201	0x3ceb7ae9	0.028745132
202	0x3d15efd6	0.03660568
203	0x3d0cf3ca	0.034412183
204	0x3c707612	0.014676588
205	0x3cb7a0fc	0.02241563
206	0x3c9b2ed9	0.018943237
207	0x3cf3ac86	0.029745352
208	0x3d16f1cf	0.0368517
209	0xba17733b	-0.00057773635
210	0x3cb9a1cc	0.022660159
211	0xbf19a837	-0.600223
212	0xba8ffcdb	-0.0010985391
213	0x3d12e326	0.035861157
214	0x3cb3190e	0.021862533
215	0x3ce69d13	0.02815107
216	0xbf4c6b97	-0.7985167
217	0x3d12539e	0.035724275
218	0x3c9e9963	0.01936025
219	0x3cce829b	0.025208762
220	0x3c84e6aa	0.01622327
221	0x3c76dac8	0.01506681
222	0x3ce8c8ee	0.028416123
223	0x3ce1a7c0	0.02754581
224	0x3cbac87a	0.022800673
225	0x3caaabd5	0.020833889
226	0x3d123ae3	0.03570069
227	0xbe13de44	-0.14440256
228	0x3c9d9741	0.019237163
229	0x3ca220b1	0.01979098
230	0x3c931c31	0.017957779
231	0x3c9cd724	0.019145556
232	0x3cc96f88	0.024589315
233	0x3d41c0a9	0.047302876
234	0xbe918da6	-0.28428382
235	0x3cd2c501	0.025728704
236	0x3cb17a04	0.021664627
237	0x3c4f51f3	0.012653816
238	0x3c83a7e2	0.016071264
239	0x3c85e0c3	0.016342526
240	0x3c48c236	0.012253335
241	0x3cc5b614	0.024134673
242	0x3cbc6c98	0.023001
243	0x3c964dc8	0.018347636
244	0x3c6e614c	0.014549565
245	0x3cff85bd	0.031191701
246	0x3cde2f43	0.027122146
247	0x3ccb10b3	0.024788236
248	0x3c9e7c3d	0.01934635
249	0x3c81ab26	0.01582868
250	0x3c7dd253	0.01549204
251	0x3d0b1fac	0.03396575
252	0x3d0dca86	0.03461697
253	0xbab586ea	-0.0013849412
254	0x3c9836fa	0.018580902
255	0x3d175868	0.036949545

linear_output.bias f4 [4]
0	0x3d5fd11b	0.054642778
1	0x3c209737	0.009801677
2	0xbdb130c3	-0.08651879
3	0x3c11ef66	0.008907175

exp_avg f4 [64, 13]
0	0x382b963f	4.0909505e-05
1	0xb80c6d7e	-3.3480574e-05
2	0xb93ffab2	-0.0001830857
3	0x37ed1d93	2.8266373e-05
4	0x381e970d	3.7810813e-05
5	0xb803bd35	-3.1409047e-05
6	0xb9377651	-0.00017496316
7	0x37ecde9b	2.8237051e-05
8	0x380f0639	3.4099652e-05
9	0xb7fbae12	-3.000259e-05
10	0xb92ee6d9	-0.0001667993
11	0x37ecd2be	2.8231527e-05
12	0x396fdb4b	0.00022874509
13	0xb6021d4e	-1.9388567e-06
14	0x362cf068	2.5769932e-06
15	0x368d17e4	4.2049087e-06
16	0xb4cf09d9	-3.856392e-07
17	0xb60cd4ae	-2.0985422e-06
18	0x3626f08f	2.487595e-06
19	0x369295f5	4.3685964e-06
20	0xb4cc0c7e	-3.800705e-07
21	0xb60ea82f	-2.1257545e-06
22	0x3612e1be	2.1887095e-06
23	0x36931c5a	4.384242e-06
24	0xb4cd9d04	-3.829847e-07
25	0xb81d7564	-3.7541045e-05
26	0xbab6c369	-0.0013943735
27	0x3a405452	0.00073367835
28	0x3b8f20a7	0.004367906
29	0xba091334	-0.0005228997
30	0xbab5976c	-0.0013854331
31	0x3a39accd	0.0007082939
32	0x3b8dedb6	0.004331316
33	0xba08ffe0	-0.00052261166
34	0xbab4f44f	-0.001380572
35	0x3a316906	0.0006767664
36	0x3b8cd0fc	0.004297374
37	0xba090715	-0.00052271906
38	0xbb19b737	-0.0023455152
39	0x398c0d8e	0.0002671298
40	0xb8d71b55	-0.0001025709
41	0xba54b32c	-0.0008113857
42	0x38cf6fba	9.89134e-05
43	0x398b3aa3	0.00026555834
44	0xb8c5f8ba	-9.440021e-05
45	0xba526eaf	-0.00080273574
46	0x38cf5c4f	9.887723e-05
47	0x398b5285	0.00026573628
48	0xb8b21bc6	-8.4928746e-05
49	0xba504895	-0.0007945386
50	0x38cf66fc	9.8897115e-05
51	0x39fa22a2	0.0004770952
52	0xb8e13f0e	-0.00010740581
53	0x3858993b	5.164112e-05
54	0x39a957d1	0.0003229962
55	0xb828da11	-4.025741e-05
56	0xb8df6433	-0.00010652132
57	0x3850bbb9	4.9765895e-05
58	0x39a69971	0.0003177631
59	0xb828b8dd	-4.022649e-05
60	0xb8de5a8d	-0.00010602651
61	0x384a133c	4.8178466e-05
62	0x39a3eae8	0.00031264802
63	0xb828bf58	-4.0232524e-05
64	0xb836a0c5	-4.354191e-05
65	0x3a34ed23	0.0006901791
66	0xb9cbb304	-0.00038852554
67	0xbb0cfcdd	-0.0021513023
68	0x3987e315	0.00025918396
69	0x3a33fd65	0.0006866067
70	0xb9c6431b	-0.000378155
71	0xbb0bc771	-0.0021328593
72	0x3987cd2f	0.0002590208
73	0x3a339373	0.000685028
74	0xb9bf60e5	-0.0003650255
75	0xbb0aa484	-0.0021155188
76	0x3987d462	0.00025907444
77	0x3a8606d4	0.0010225424
78	0x39c12a20	0.00036843214
79	0xb90a0739	-0.00013163396
80	0xba966e80	-0.0011477023
81	0x39127a7a	0.00013969271
82	0x39bf9961	0.00036544635
83	0xb8f3a4b4	-0.00011617821
84	0xba948c10	-0.0011333246
85	0x3912682b	0.0001396245
86	0x39bf3168	0.0003646717
87	0xb8ccb8fc	-9.761934e-05
88	0xba92c8b3	-0.0011198729
89	0x39126eaf	0.00013964878
90	0x3a506862	0.00079501246
91	0x3a42490f	0.0007411399
92	0xb9cb4047	-0.00038767068
93	0xbb16c234	-0.0023003938
94	0x3990e613	0.0002763724
95	0x3a414402	0.00073724997
96	0xb9c422f7	-0.00037410084
97	0xbb1576d0	-0.0022806413
98	0x3990d14e	0.00027621764
99	0x3a40fabe	0.0007361582
100	0xb9bb6dcd	-0.00035749227
101	0xbb14426c	-0.0022622598
102	0x3990d7ea	0.0002762669
103	0x3a9474f8	0.0011326363
104	0xbabbe4ce	-0.0014335157
105	0x3a6a5d99	0.0008940339
106	0x3b97a088	0.004627291
107	0xba1327e0	-0.0005613547
108	0xbaba183a	-0.0014197894
109	0x3a65ad20	0.00087614544
110	0x3b964115	0.004585395
111	0xba1310a5	-0.0005610085
112	0xbab85ab8	-0.0014065122
113	0x3a604a51	0.0008555996
114	0x3b94f0e9	0.0045453203
115	0xba131acb	-0.00056115974
116	0xbb279cb2	-0.0025575575
117	0x3a68ed6c	0.0008885476
118	0xb9e9d05c	-0.00044596463
119	0xbb2be761	-0.0026230442
120	0x39a60a6a	0.00031669746
121	0x3a689a69	0.00088731066
122	0xb9e1c6a2	-0.00043063337
123	0xbb2a75d3	-0.002601017
124	0x39a5ef7f	0.0003164969
125	0x3a697107	0.0008905087
126	0xb9d75539	-0.0004107149
127	0xbb291943	-0.002580241
128	0x39a5f90b	0.00031656804
129	0x3ab0e32d	0.0013495438
130	0x393e4da5	0.00018148737
131	0xb8b2a5be	-8.518573e-05
132	0xba131b60	-0.0005611684
133	0x3890f087	6.911257e-05
134	0x393d15d0	0.0001803257
135	0xb8a99a06	-8.087237e-05
136	0xba116dee	-0.0005547692
137	0x3890de24	6.907832e-05
138	0x393cd7b5	0.00018009434
139	0xb89f3a3d	-7.5925585e-05
140	0xba0fd101	-0.0005486161
141	0x3890e344	6.9087866e-05
142	0x39a720e3	0.00031877225
143	0xba94e3c8	-0.0011359388
144	0x3a2118a3	0.0006145334
145	0x3b69d5f1	0.0035680498
146	0xb9e1983a	-0.00043028762
147	0xba93c370	-0.0011273455
148	0x3a1bd156	0.0005943974
149	0x3b67aecf	0.0035351997
150	0xb9e174b1	-0.00043002286
151	0xba930eda	-0.0011219636
152	0x3a15a531	0.00057085144
153	0x3b6597f8	0.0035033207
154	0xb9e18095	-0.00043011145
155	0xbaf48c1f	-0.0018657482
156	0x39f45b48	0.00046607316
157	0xb97cb91f	-0.00024101556
158	0xbac01f03	-0.001465768
159	0x393907ef	0.0001764593
160	0x39f2db51	0.0004632124
161	0xb972fa8d	-0.00023172256
162	0xbabe745a	-0.0014530525
163	0x3938f0c0	0.00017637294
164	0x39f24111	0.00046206315
165	0xb967b487	-0.00022097128
166	0xbabce434	-0.0014411272
167	0x3938f774	0.00017639791
168	0x3a3c24c9	0.0007177112
169	0xb5a44765	-1.2239731e-06
170	0x38101eb2	3.4360863e-05
171	0x38838692	6.2716324e-05
172	0xb706ca82	-8.034172e-06
173	0x355acda2	8.1510564e-07
174	0x38186ccb	3.6340945e-05
175	0x3882c76f	6.2360305e-05
176	0xb7066337	-8.010123e-06
177	0x3683bcf4	3.9261013e-06
178	0x38252126	3.9369937e-05
179	0x38820759	6.200252e-05
180	0xb70697b6	-8.022345e-06
181	0x38654b77	5.4668137e-05
182	0x3a90eacf	0.0011056307
183	0xb9ea6781	-0.00044709074
184	0xbb529852	-0.0032134247
185	0x39cb3ee2	0.0003876603
186	0x3a9123e4	0.0011073318
187	0xb9d8e849	-0.00041371796
188	0xbb50d48e	-0.0031864974
189	0x39cb20f3	0.00038743726
190	0x3a925d71	0.0011166764
191	0xb9c1ec78	-0.00036988012
192	0xbb4f3da4	-0.0031622434
193	0x39cb3443	0.00038758115
194	0x3b0410d5	0.0020151634
195	0x3ae41216	0.001740041
196	0xba7a9f20	-0.00095604546
197	0xbbb60715	-0.0055550435
198	0x3a318998	0.0006772517
199	0x3ae1d376	0.0017229158
200	0xba712431	-0.00091988133
201	0xbbb41c14	-0.0054965112
202	0x3a316aff	0.0006767958
203	0x3ae0008c	0.0017090007
204	0xba655d33	-0.00087495445
205	0xbbb23d18	-0.005439412
206	0x3a3179ff	0.0006770193
207	0x3b592d0c	0.0033138422
208	0x39faa35a	0.00047805422
209	0xb8a35dc6	-7.789912e-05
210	0xbada3065	-0.0016646503
211	0x3958efa7	0.00020688643
212	0x39f45e86	0.00046609732
213	0xb83713d2	-4.364906e-05
214	0xbad652a6	-0.0016351535
215	0x3958f014	0.00020688801
216	0x39f0059d	0.0004578055
217	0xb6cb58be	-6.0602024e-06
218	0xbad2de4b	-0.0016087977
219	0x3958e71a	0.00020685457
220	0x3ab58a91	0.00138505
221	0x39cdd318	0.00039257924
222	0xb94e5524	-0.00019677408
223	0xbaa0cda3	-0.0012268316
224	0x391c3710	0.00014897832
225	0x39cc7a7d	0.00039001173
226	0xb9459667	-0.00018843413
227	0xba9f3d9d	-0.00121491
228	0x391c2122	0.00014889662
229	0x39cc0024	0.00038910017
230	0xb93b8d94	-0.00017886452
231	0xba9dc033	-0.0012035429
232	0x391c25cf	0.00014891404
233	0x3a242af3	0.00062625034
234	0xbaeadfb4	-0.0017919452
235	0x3a63487c	0.0008670164
236	0x3bb25928	0.005442757
237	0xba2acc98	-0.0006515472
238	0xbaea2d1e	-0.0017866229
239	0x3a5a199a	0.0008319855
240	0x3bb0fa99	0.0054009673
241	0xba2ab376	-0.0006511727
242	0xbaea9eab	-0.001790007
243	0x3a4f13ec	0.0007899392
244	0x3bafaccf	0.0053611766
245	0xba2ac085	-0.0006513673
246	0xbb2e833a	-0.002662851
247	0x39c29525	0.00037113685
248	0xb92f71cc	-0.00016731693
249	0xba9529b6	-0.0011380229
250	0x39116993	0.00013867607
251	0x39c15988	0.00036878535
252	0xb925fa28	-0.00015828817
253	0xba93a0e5	-0.001126316
254	0x391157ed	0.00013861032
255	0x39c10a37	0.0003681944

exp_avg_sq f4 [64, 13]
0	0x32b42978	2.0973616e-08
1	0x32d6c681	2.5003148e-08
2	0x34590c7a	2.0214239e-07
3	0x3192d09b	4.272875e-09
4	0x32ad0d33	2.0145853e-08
5	0x32e254f3	2.6348493e-08
6	0x344f36e9	1.9298353e-07
7	0x3192df1e	4.2745247e-09
8	0x32a6fa82	1.9438861e-08
9	0x32f29fb6	2.8245136e-08
10	0x3445b861	1.8414131e-07
11	0x3192b1dd	4.26938e-09
12	0x349c950b	2.9165707e-07
13	0x323e6fe8	1.10849e-08
14	0x319a0e34	4.4836046e-09
15	0x33d99f40	1.0133817e-07
16	0x30bb56c2	1.3630699e-09
17	0x323da02f	1.10376694e-08
18	0x319d1178	4.5712873e-09
19	0x33d9d338	1.01432704e-07
20	0x30bb3f61	1.3624054e-09
21	0x323d2cd2	1.1011439e-08
22	0x31a09d5d	4.674503e-09
23	0x33d9e5a4	1.0146621e-07
24	0x30bb47bb	1.3626428e-09
25	0x3333c8a4	4.1859167e-08
26	0x3773c2ae	1.4529256e-05
27	0x36b0669a	5.257153e-06
28	0x390cfa6f	0.00013444734
29	0x35ea1e3b	1.7443157e-06
30	0x3772c585	1.4470313e-05
31	0x36afa72d	5.2348682e-06
32	0x390d2c68	0.0001346335
33	0x35e9f910	1.743234e-06
34	0x377205ca	1.4425672e-05
35	0x36ae70da	5.1987417e-06
36	0x390d3eb3	0.00013470165
37	0x35ea05c0	1.7436032e-06
38	0x3852eaec	5.028669e-05
39	0x34e98dbd	4.350276e-07
40	0x33ef4c14	1.1143143e-07
41	0x3685b621	3.9849115e-06
42	0x33615505	5.246422e-08
43	0x34e80e3e	4.322373e-07
44	0x33e757a6	1.0772719e-07
45	0x3685753a	3.977356e-06
46	0x3361327d	5.2432814e-08
47	0x34e782fc	4.3122407e-07
48	0x33de4329	1.0349897e-07
49	0x36853e89	3.970989e-06
50	0x33613f65	5.2444552e-08
51	0x35c9824f	1.5013592e-06
52	0x34ad65d3	3.2297848e-07
53	0x34036378	1.2236512e-07
54	0x3643bb81	2.9166406e-06
55	0x332378ac	3.8061145e-08
56	0x34ad09b0	3.223081e-07
57	0x3403f9e3	1.2291234e-07
58	0x36439aa0	2.9147268e-06
59	0x33234eb4	3.8022975e-08
60	0x34ad2e9b	3.225767e-07
61	0x34047f8f	1.2339864e-07
62	0x36430d76	2.90651e-06
63	0x3323699e	3.8047453e-08
64	0x350edc78	5.3219946e-07
65	0x36845707	3.944038e-06
66	0x35cb1dc6	1.5133344e-06
67	0x3816e24f	3.5973553e-05
68	0x34fe6565	4.738496e-07
69	0x3683d858	3.92929e-06
70	0x35cb7bdb	1.5160725e-06
71	0x3816e08f	3.5971923e-05
72	0x34fe3838	4.735209e-07
73	0x36837430	3.9176302e-06
74	0x35cbcc6c	1.5184173e-06
75	0x3816a618	3.5917474e-05
76	0x34fe4be3	4.7366402e-07
77	0x373ac929	1.11333e-05
78	0x3599b22f	1.1451247e-06
79	0x34a9acc8	3.1604418e-07
80	0x3736aa04	1.088763e-05
81	0x3421781e	1.5037992e-07
82	0x3596ffd4	1.1250327e-06
83	0x34a383c2	3.0456982e-07
84	0x37354a87	1.0805793e-05
85	0x34216b36	1.5033297e-07
86	0x3594268a	1.1038076e-06
87	0x349d250f	2.9270493e-07
88	0x3734116b	1.07328915e-05
89	0x34215f1b	1.5028893e-07
90	0x36cd8b40	6.125687e-06
91	0x368abf85	4.1350163e-06
92	0x35c4c01f	1.4659053e-06
93	0x381e90d4	3.7805017e-05
94	0x35056c98	4.9704386e-07
95	0x368a24b4	4.1169933e-06
96	0x35c3dd5e	1.4593058e-06
97	0x381e8611	3.7794995e-05
98	0x350554e2	4.966988e-07
99	0x3689bd13	4.1049293e-06
100	0x35c2bee4	1.4509683e-06
101	0x381e4b6d	3.774038e-05
102	0x35055e87	4.9683916e-07
103	0x3746cee5	1.1849891e-05
104	0x3796ed3c	1.7991864e-05
105	0x36fea711	7.589239e-06
106	0x39327ef7	0.00017022701
107	0x361500c0	2.2203167e-06
108	0x37961b46	1.7894094e-05
109	0x36fff269	7.6278125e-06
110	0x3932d594	0.00017054967
111	0x3614e72d	2.218828e-06
112	0x379530bb	1.7784876e-05
113	0x37007969	7.6576625e-06
114	0x3932f934	0.00017068238
115	0x3614ee60	2.219247e-06
116	0x388a8d08	6.606622e-05
117	0x36b3a8ff	5.3542894e-06
118	0x35ee43ae	1.7752079e-06
119	0x383fade9	4.5699915e-05
120	0x352141bd	6.0072836e-07
121	0x36b3ddaa	5.360421e-06
122	0x35ed14e6	1.7663958e-06
123	0x383fb68c	4.570796e-05
124	0x3521235b	6.002862e-07
125	0x36b48919	5.3803783e-06
126	0x35eacb2b	1.7493488e-06
127	0x383f8f7c	4.567158e-05
128	0x35212ec1	6.004521e-07
129	0x377aa081	1.4938531e-05
130	0x347edcc0	2.3735902e-07
131	0x33a7a6f9	7.806916e-08
132	0x36127081	2.1821181e-06
133	0x32fff5f9	2.9797762e-08
134	0x347c57ea	2.3501312e-07
135	0x33a546bc	7.696278e-08
136	0x3611b0f5	2.1709686e-06
137	0x32ffca2e	2.9777848e-08
138	0x347a03dc	2.3284468e-07
139	0x33a2dd0e	7.5839225e-08
140	0x3610d72f	2.1582925e-06
141	0x32ffd2bc	2.9781738e-08
142	0x35610a55	8.3834067e-07
143	0x3737354d	1.092006e-05
144	0x3680a62d	3.8340427e-06
145	0x38ce6069	9.840803e-05
146	0x35ac6c9e	1.284661e-06
147	0x3736b01b	1.0889048e-05
148	0x36806a2c	3.8270573e-06
149	0x38ce8c41	9.84897e-05
150	0x35ac5035	1.2838342e-06
151	0x37367bb1	1.08768445e-05
152	0x367fac82	3.8098374e-06
153	0x38ce7ea4	9.846434e-05
154	0x35ac5a79	1.284133e-06
155	0x3818d23f	3.643543e-05
156	0x35dc56e4	1.6416566e-06
157	0x351ab3a4	5.763088e-07
158	0x377bea27	1.5015284e-05
159	0x3453dc3e	1.973103e-07
160	0x35db6de6	1.6348756e-06
161	0x3519ec35	5.734067e-07
162	0x377bce47	1.50087935e-05
163	0x3453b1f2	1.9715642e-07
164	0x35dae227	1.6308085e-06
165	0x3518f25e	5.6977103e-07
166	0x377b658b	1.4984408e-05
167	0x3453c535	1.972265e-07
168	0x368ff920	4.290734e-06
169	0x33057fda	3.1082756e-08
170	0x32b5de71	2.1172328e-08
171	0x349233f8	2.723243e-07
172	0x3174a601	3.5601035e-09
173	0x33065db5	3.1284532e-08
174	0x32c58710	2.2995238e-08
175	0x3492fc6f	2.737829e-07
176	0x3174a464	3.5600118e-09
177	0x33074060	3.1490686e-08
178	0x32d9ae20	2.5341308e-08
179	0x34936c1b	2.745954e-07
180	0x3174a11d	3.5598255e-09
181	0x33ddd07c	1.03290375e-07
182	0x3724cff0	9.823576e-06
183	0x3628c959	2.515115e-06
184	0x38a85d18	8.028204e-05
185	0x358bf225	1.042678e-06
186	0x37260467	9.895396e-06
187	0x3623e6e4	2.4423289e-06
188	0x38a88c9a	8.037053e-05
189	0x358bdb77	1.042018e-06
190	0x37283969	1.0026947e-05
191	0x361d109d	2.3404493e-06
192	0x38a8c2c5	8.047143e-05
193	0x358be582	1.0423103e-06
194	0x3819b35d	3.6645088e-05
195	0x37decc47	2.6559586e-05
196	0x372942f9	1.0088778e-05
197	0x3987e7c3	0.00025921882
198	0x36674d79	3.4466777e-06
199	0x37dbf086	2.6218837e-05
200	0x3728c272	1.0058853e-05
201	0x3987ba61	0.0002588807
202	0x36672797	3.4444727e-06
203	0x37d893e2	2.581807e-05
204	0x37283543	1.0025981e-05
205	0x39876005	0.00025820747
206	0x36673293	3.445112e-06
207	0x38de19e9	0.00010590611
208	0x3580c313	9.593517e-07
209	0x345a3a7d	2.032411e-07
210	0x375854f0	1.2894379e-05
211	0x3434ba1b	1.6831511e-07
212	0x3573bf8a	9.080328e-07
213	0x34598d1f	2.026104e-07
214	0x3757abc0	1.2854987e-05
215	0x3434a7d9	1.6824869e-07
216	0x35664061	8.577536e-07
217	0x346256ca	2.1079464e-07
218	0x3757dccd	1.2866408e-05
219	0x34349f90	1.6821855e-07
220	0x3718e930	9.114199e-06
221	0x359b2511	1.1559188e-06
222	0x34d4f876	3.9668856e-07
223	0x37345538	1.0748678e-05
224	0x341896a2	1.4210903e-07
225	0x359a0ec6	1.1478194e-06
226	0x34d30f78	3.9313068e-07
227	0x373420e7	1.0736497e-05
228	0x34187cf4	1.4201561e-07
229	0x3599272a	1.1410787e-06
230	0x34d0ec95	3.8915155e-07
231	0x3733c3da	1.0714832e-05
232	0x341886db	1.4205163e-07
233	0x3664670c	3.4034629e-06
234	0x37d339f7	2.5180152e-05
235	0x3700499a	7.646531e-06
236	0x396a1479	0.00022323606
237	0x363fabe0	2.8561262e-06
238	0x37d37c62	2.521108e-05
239	0x36fd3abb	7.5468247e-06
240	0x396ae0da	0.00022399743
241	0x363f8b21	2.8542202e-06
242	0x37d4728f	2.5325715e-05
243	0x36f8bc85	7.4129225e-06
244	0x396b7e74	0.00022458454
245	0x363fa23b	2.8555648e-06
246	0x3894b5fd	7.091088e-05
247	0x35833b31	9.777488e-07
248	0x34a0bc29	2.9939227e-07
249	0x371ce6a9	9.352029e-06
250	0x340388ed	1.2250139e-07
251	0x35820225	9.686379e-07
252	0x349d759e	2.9329107e-07
253	0x371cdf02	9.350248e-06
254	0x340376f8	1.2243606e-07
255	0x3581016c	9.611663e-07

exp_avg f4 [64]
0	0x3928ee30	0.0001611046
1	0xb617a24e	-2.2595227e-06
2	0xbb435c45	-0.0029809636
3	0x3a13da2d	0.00056401157
4	0xb9707f0b	-0.00022935511
5	0x3ac1a867	0.0014774919
6	0x3a50cd88	0.0007965197
7	0x3ace7fdb	0.0015754657
8	0xbb51bb5a	-0.003200254
9	0x3aec9780	0.0018050522
10	0x39ce86b0	0.00039391732
11	0xbb20c09b	-0.0024528864
12	0x3a83d695	0.0010058457
13	0xb840566a	-4.5856847e-05
14	0x3b10d6b0	0.002210062
15	0x3b7d073d	0.003860905
16	0x3a9ac3b4	0.0011807592
17	0x3a5e98f8	0.0008491422
18	0xbb73699b	-0.0037141803
19	0x3a4f43ef	0.0007906546
20	0xbb09aad9	-0.0021006374
21	0x3a2cfac0	0.0006598644
22	0x39a086ef	0.00030618111
23	0xba803aaf	-0.0009783114
24	0x3b05b254	0.0020400481
25	0x3a070cb4	0.0005151734
26	0xba58582e	-0.0008252886
27	0x3af7b206	0.001889766
28	0x397929dc	0.00023762084
29	0xbb00f851	-0.0019679258
30	0x3a989c76	0.0011643309
31	0x3a2e547d	0.0006650163
32	0xbba65aee	-0.0050767576
33	0xb9b09e17	-0.00033687122
34	0x00000004	6e-45
35	0xbb08e23a	-0.0020886795
36	0x3abe4200	0.0014515519
37	0x3a046314	0.0005050164
38	0xbafd4f4e	-0.0019326003
39	0x3a8afc1e	0.0010603701
40	0xbb1126a4	-0.0022148276
41	0x3aec2bb1	0.0018018392
42	0x37f3aad0	2.9047398e-05
43	0x38fe1913	0.00012116334
44	0xba285cbb	-0.00064225093
45	0x3a642282	0.0008702652
46	0x3ae3ab2f	0.0017369742
47	0x3ad4f255	0.0016246537
48	0x3ab74bc6	0.0013984374
49	0xbaef8f33	-0.001827693
50	0x3abefdc5	0.0014571479
51	0x3b074c1e	0.0020644735
52	0xbaa05d90	-0.0012234915
53	0xb9fb1de5	-0.00047896724
54	0xbad381d9	-0.001613672
55	0xbb0327d3	-0.002001275
56	0x38020bb3	3.100531e-05
57	0x3a8324b6	0.0010005448
58	0xb977b71b	-0.00023623968
59	0x3ae37d63	0.0017356094
60	0xba8e6503	-0.0010863844
61	0x3b1c4aa8	0.002384821
62	0x3966a93b	0.00021997553
63	0xbbfe3fe7	-0.0077590826

exp_avg_sq f4 [64]
0	0x34150e2b	1.388186e-07
1	0x333e02de	4.424043e-08
2	0x386d5629	5.6585446e-05
3	0x35e47c65	1.7023527e-06
4	0x35a5b625	1.2346469e-06
5	0x3780f2f4	1.5371923e-05
6	0x36a3b711	4.8790903e-06
7	0x378743ca	1.612482e-05
8	0x38970966	7.201992e-05
9	0x37a37597	1.9485871e-05
10	0x3581bfd9	9.667084e-07
11	0x382ec9e9	4.1672876e-05
12	0x36d6c7ea	6.40097e-06
13	0x33f80eae	1.155107e-07
14	0x380dd9ed	3.381998e-05
15	0x38ea7eec	0.000111816305
16	0x36b76741	5.4658453e-06
17	0x369ab4db	4.610612e-06
18	0x38c24e28	9.2651986e-05
19	0x36855f50	3.9748047e-06
20	0x37e7ad6e	2.7618105e-05
21	0x36085dbf	2.0320147e-06
22	0x3514511e	5.525234e-07
23	0x36a40a9e	4.888817e-06
24	0x37e616a1	2.7428674e-05
25	0x35cba74e	1.5173371e-06
26	0x3691514c	4.330801e-06
27	0x37df0d18	2.6589769e-05
28	0x35aab31a	1.2718112e-06
29	0x37d44879	2.5306117e-05
30	0x371145ce	8.658926e-06
31	0x3668c802	3.4687114e-06
32	0x39309427	0.00016839859
33	0x36066424	2.0025846e-06
34	0x25786176	2.1543592e-16
35	0x3800a8eb	3.0674895e-05
36	0x37684e96	1.3846575e-05
37	0x3608e847	2.0400782e-06
38	0x37c4f1ab	2.3477556e-05
39	0x37360184	1.0848398e-05
40	0x3814fc53	3.5520945e-05
41	0x37b4812d	2.1517824e-05
42	0x3335aa08	4.229699e-08
43	0x349a6732	2.875982e-07
44	0x362dbb19	2.5887914e-06
45	0x369266da	4.3631126e-06
46	0x37976bf8	1.805088e-05
47	0x379bd23d	1.857534e-05
48	0x37628af1	1.35029995e-05
49	0x37c18855	2.3070877e-05
50	0x375f850e	1.3322815e-05
51	0x37d5df19	2.5495467e-05
52	0x37197413	9.146536e-06
53	0x35ac831a	1.2853154e-06
54	0x37676dcd	1.3794238e-05
55	0x37ce7f3e	2.4616365e-05
56	0x34214b6f	1.5021736e-07
57	0x36b90044	5.5134606e-06
58	0x34ce4563	3.8420976e-07
59	0x3791dc72	1.7388e-05
60	0x370693f7	8.021473e-06
61	0x381bc98f	3.7142596e-05
62	0x345f98ed	2.0824127e-07
63	0x39c798aa	0.0003806998

exp_avg f4 [64, 64]
0	0x3627583b	2.4936296e-06
1	0x37ac65ab	2.055134e-05
2	0x374fdfac	1.2390239e-05
3	0x38a57b5b	7.89079e-05
4	0x361a370c	2.297983e-06
5	0x384e007f	4.911469e-05
6	0x377f0cdf	1.5202181e-05
7	0x38523b94	5.0123388e-05
8	0x37bfc28c	2.2859567e-05
9	0x378c329c	1.6712867e-05
10	0x380e9eb0	3.4003227e-05
11	0x378673d7	1.6027987e-05
12	0x3885f4c1	6.387523e-05
13	0x36a891e4	5.023774e-06
14	0x370fbfc7	8.568116e-06
15	0x37f1712d	2.878214e-05
16	0x37011c10	7.695533e-06
17	0x38b26133	8.505806e-05
18	0x36a0b552	4.78948e-06
19	0x37bf1d5c	2.2782646e-05
20	0x379e4eaf	1.8871708e-05
21	0x37c1ee7d	2.3118448e-05
22	0x36636b67	3.3888152e-06
23	0x377f2a9c	1.5209105e-05
24	0x380ff34d	3.432045e-05
25	0x37ea277a	2.7913356e-05
26	0x3802beda	3.117216e-05
27	0x374fd303	1.23872915e-05
28	0x36125526	2.1805258e-06
29	0x37ca0d09	2.4086346e-05
30	0x38130497	3.5051806e-05
31	0x385e8f24	5.3062235e-05
32	0x378c0985	1.6693733e-05
33	0x3605e1e0	1.995002e-06
34	0x00000004	6e-45
35	0x37282800	1.0022894e-05
36	0x388d30ed	6.732517e-05
37	0x3833c377	4.2858966e-05
38	0x37ab90aa	2.0452153e-05
39	0x37167aca	8.969286e-06
40	0x36e6adee	6.8747822e-06
41	0x378dfee3	1.69272e-05
42	0x36c77acb	5.944957e-06
43	0x37e88899	2.7720163e-05
44	0x379f6e3d	1.900561e-05
45	0x38585125	5.1573985e-05
46	0x3823afc4	3.9025923e-05
47	0x381a482a	3.678367e-05
48	0x388fbdc1	6.854116e-05
49	0x374dc875	1.2265625e-05
50	0x382ae8f7	4.0748124e-05
51	0x37ef715d	2.854381e-05
52	0x37996ec2	1.8290597e-05
53	0x377d9763	1.5115223e-05
54	0x380dd21d	3.3812703e-05
55	0x37cb69fb	2.4248837e-05
56	0x382911ff	4.03095e-05
57	0x37891d13	1.6345211e-05
58	0x37e6ceb5	2.7514392e-05
59	0x3800029d	3.0520012e-05
60	0x37351444	1.0793159e-05
61	0x38149a37	3.5429573e-05
62	0x374ef80c	1.233631e-05
63	0x37e56682	2.7346661e-05
64	0x35f957ab	1.857746e-06
65	0x381b6f12	3.7058322e-05
66	0x37b78029	2.187498e-05
67	0x390a18be	0.00013169923
68	0x374331c4	1.1634493e-05
69	0x38a0e09c	7.671231e-05
70	0x37d8b4e2	2.5833437e-05
71	0x38b1bb9c	8.474963e-05
72	0x37f37484	2.9022114e-05
73	0x37e4acd6	2.7260201e-05
74	0x384ca46f	4.879053e-05
75	0x381a05fc	3.6722035e-05
76	0x38fe9a29	0.000121403784
77	0x378aa77f	1.6528878e-05
78	0x3796de61	1.7984947e-05
79	0x382a2833	4.0568597e-05
80	0x37afadf3	2.0942627e-05
81	0x390dc1ea	0.00013519046
82	0x3806a590	3.210228e-05
83	0x381e4e89	3.7743277e-05
84	0x3805ce00	3.1901523e-05
85	0x382ab082	4.0695544e-05
86	0x3746e464	1.1854896e-05
87	0x37eb3289	2.8037715e-05
88	0x385dccef	5.2881365e-05
89	0x387e51cf	6.063451e-05
90	0x3864da7b	5.4562912e-05
91	0x37b8c0ab	2.2024227e-05
92	0x356ad7c9	8.74858e-07
93	0x3852e114	5.0277522e-05
94	0x387cfb82	6.0315717e-05
95	0x38ac59d3	8.21833e-05
96	0x380a71ac	3.300763e-05
97	0x356e6dce	8.8821696e-07
98	0x00000004	6e-45
99	0x37adc8d0	2.0716718e-05
100	0x38f4d3d8	0.000116742856
101	0x38634fc9	5.4195323e-05
102	0x381be4c3	3.716793e-05
103	0x36fcfc17	7.5395324e-06
104	0x3731c3a1	1.05955705e-05
105	0x37ed2278	2.8268652e-05
106	0x36ddab95	6.606288e-06
107	0x384e3aa3	4.9168837e-05
108	0x38206bd0	3.824738e-05
109	0x38becc37	9.097944e-05
110	0x38877130	6.4583845e-05
111	0x3854ccef	5.0735598e-05
112	0x38e23dfe	0.00010788067
113	0x3827f44d	4.0043426e-05
114	0x38a06ef9	7.650065e-05
115	0x3851ad41	4.999084e-05
116	0x37cac461	2.4171723e-05
117	0x37e4e51c	2.7286405e-05
118	0x383398bf	4.281918e-05
119	0x381c6513	3.728743e-05
120	0x38723fc0	5.7756668e-05
121	0x37ca47f5	2.4113784e-05
122	0x38242084	3.913093e-05
123	0x385e6512	5.3023054e-05
124	0x37cf8d0c	2.4742003e-05
125	0x38830cbe	6.24894e-05
126	0x37cfa97c	2.4755245e-05
127	0x384596ec	4.7109017e-05
128	0x360d9eaf	2.1103003e-06
129	0x37166566	8.964305e-06
130	0x36ba721a	5.556515e-06
131	0x38175e24	3.608888e-05
132	0x35b09492	1.3156262e-06
133	0x37b1dc2a	2.1202566e-05
134	0x36f56641	7.313473e-06
135	0x37b35244	2.137677e-05
136	0x37427508	1.159055e-05
137	0x36e8009a	6.914209e-06
138	0x37801d3d	1.5272404e-05
139	0x36e76811	6.8964514e-06
140	0x37ef221b	2.8506902e-05
141	0x36402212	2.863006e-06
142	0x366a357d	3.4899851e-06
143	0x375f03ab	1.329269e-05
144	0x36a7b92d	4.998545e-06
145	0x38235d4b	3.8949114e-05
146	0x364a9514	3.018712e-06
147	0x37345407	1.07484e-05
148	0x370f0863	8.525417e-06
149	0x37337f15	1.069882e-05
150	0x3650d3b5	3.1117645e-06
151	0x3702760a	7.776087e-06
152	0x377bfb49	1.5019273e-05
153	0x374e1edb	1.2285741e-05
154	0x3774c6de	1.4589836e-05
155	0x36b6ecba	5.4515813e-06
156	0x36083717	2.0297646e-06
157	0x373c5912	1.12264115e-05
158	0x378285b1	1.5559463e-05
159	0x37cb4fcd	2.4236646e-05
160	0x37023122	7.760043e-06
161	0x3612caba	2.1873698e-06
162	0x00000004	6e-45
163	0x36ad32b6	5.1617053e-06
164	0x38018681	3.0881263e-05
165	0x37a10ccb	1.9198653e-05
166	0x372450b8	9.7939555e-06
167	0x36c52483	5.875308e-06
168	0x366d8205	3.5391433e-06
169	0x3700cac6	7.676606e-06
170	0x36614efa	3.3573583e-06
171	0x374c47b2	1.217604e-05
172	0x370b1343	8.28953e-06
173	0x37c684c1	2.3665258e-05
174	0x3792cc65	1.7499735e-05
175	0x3784dd5e	1.5838708e-05
176	0x3805b033	3.187377e-05
177	0x36bc2fb2	5.608389e-06
178	0x379bc89b	1.8570854e-05
179	0x3748a840	1.1960103e-05
180	0x370c7721	8.372387e-06
181	0x36ff7e11	7.6142683e-06
182	0x3781525a	1.5416346e-05
183	0x37398918	1.1058779e-05
184	0x37a665f8	1.9836225e-05
185	0x36f979bd	7.4349505e-06
186	0x37575037	1.2833675e-05
187	0x376daa1d	1.4165908e-05
188	0x36b22543	5.309151e-06
189	0x37787e38	1.48113395e-05
190	0x36abf400	5.1246025e-06
191	0x375e5756	1.3252566e-05
192	0x3659af7a	3.243766e-06
193	0x393e7a80	0.00018165447
194	0x392fab53	0.00016753124
195	0x3a1b4a6a	0.00059238693
196	0x38b8e66b	8.8167224e-05
197	0x39d53c48	0.0004067144
198	0x38869e78	6.419135e-05
199	0x39da3fe1	0.00041627794
200	0x391933fd	0.00014610584
201	0x38f7ef5a	0.000118224605
202	0x396423fd	0.00021757181
203	0x396ded5e	0.00022690507
204	0x3a195daf	0.0005850447
205	0x3889612a	6.550767e-05
206	0x388c3871	6.686233e-05
207	0x3904ef8f	0.00012677744
208	0x3822f4a4	3.885165e-05
209	0x3a24c07f	0.00062847877
210	0x3939c61b	0.00017716775
211	0x39062983	0.000127947
212	0x3950f5b0	0.00019927952
213	0x3938b22a	0.00017613979
214	0x37cab314	2.4163666e-05
215	0x38d3e098	0.00010103098
216	0x396a6355	0.00022352983
217	0x39ae6f41	0.00033270757
218	0x39a49eb8	0.00031398772
219	0x389293b9	6.989338e-05
220	0x3673d538	3.6333931e-06
221	0x398e05a9	0.00027088568
222	0x39a7043a	0.0003185587
223	0x39c63862	0.0003780751
224	0x395db69c	0.0002114423
225	0x36567702	3.1957757e-06
226	0x00000004	6e-45
227	0x3913298c	0.0001403449
228	0x3a054e23	0.00050851906
229	0x39799781	0.0002380293
230	0x394d36dd	0.00019570762
231	0x37844d2c	1.5771562e-05
232	0x38d37b71	0.00010084257
233	0x38de68db	0.00010605316
234	0x385b0817	5.2221203e-05
235	0x398df56d	0.00027076472
236	0x395d73e0	0.00021119369
237	0x39e219ed	0.00043125395
238	0x398aa779	0.00026446188
239	0x397eb643	0.00024291225
240	0x39fa737a	0.00047769753
241	0x39751abf	0.00023374984
242	0x39cee87b	0.00039464593
243	0x39815601	0.00024668875
244	0x39293b1e	0.00016139119
245	0x391caf4d	0.00014942624
246	0x396cef05	0.00022595756
247	0x39592a3d	0.00020710468
248	0x397571ae	0.0002340737
249	0x391c55a2	0.0001490922
250	0x397433e0	0.00023288978
251	0x3965591d	0.00021872339
252	0x391dd61f	0.00015052453
253	0x39a0635b	0.00030591604
254	0x394adf66	0.00019347444
255	0x39466fdd	0.00018924424
