src/scripts/ddpg/weights/critic_best.pth (torch, 853231 bytes, 15 tensors)

linear_input.weight f4 [256, 17]
0	0xac4f39cf	-2.944856e-12
1	0xabbb13c3	-1.3292634e-12
2	0x2dfb95ac	2.8601864e-11
3	0xab27f2f5	-5.966749e-13
4	0xaca08ccb	-4.5631047e-12
5	0xab8b26bd	-9.887296e-13
6	0x2dc748a1	2.2655934e-11
7	0xab1f6fe4	-5.6643427e-13
8	0xacefae58	-6.8121446e-12
9	0xaba06324	-1.1396201e-12
10	0x2d8ee407	1.6244795e-11
11	0xab1f6b73	-5.6637263e-13
12	0xae1369ba	-3.3517834e-11
13	0x299d66f3	6.9900594e-14
14	0xaccc21ef	-5.801796e-12
15	0xab8cc81f	-1.0003143e-12
16	0xab2c779e	-6.127268e-13
17	0xb1313955	-2.578948e-09
18	0xb16c6015	-3.4397136e-09
19	0x3177eb8a	3.607712e-09
20	0xaf2925a3	-1.5383832e-10
21	0xb131bc55	-2.5863944e-09
22	0xb16982da	-3.3980343e-09
23	0x3196f28c	4.393149e-09
24	0xaf4c042a	-1.8555171e-10
25	0xb129418b	-2.4629994e-09
26	0xb15d5249	-3.2206506e-09
27	0x31ba8f76	5.429622e-09
28	0xaf4cf6e0	-1.86414e-10
29	0x3237b879	1.0693946e-08
30	0xab4a99f4	-7.197847e-13
31	0xafc0da13	-3.5079548e-10
32	0x30ac8ff0	1.2555557e-09
33	0x2fa58133	3.0105127e-10
34	0xa993a372	-6.5564646e-14
35	0xa910d3bd	-3.2158077e-14
36	0x2a85a293	2.3738354e-13
37	0xa8fe5874	-2.8238025e-14
38	0xa99e549f	-7.031289e-14
39	0xa93fec09	-4.2615247e-14
40	0x2b610c40	7.995306e-13
41	0xa8fe083f	-2.8203241e-14
42	0xa9a780ce	-7.438634e-14
43	0xa9702f27	-5.3331603e-14
44	0x2bd94bc0	1.5439802e-12
45	0xa8fe0a9d	-2.8204268e-14
46	0xaae165b2	-4.0038594e-13
47	0xa93cd76a	-4.1931228e-14
48	0xa90947e8	-3.048248e-14
49	0xa8be8afe	-2.1154516e-14
50	0x29790e58	5.5301548e-14
51	0xb07afdb6	-9.1310015e-10
52	0xaf8a3653	-2.5140653e-10
53	0x304f8cf1	7.550645e-10
54	0xabf297d9	-1.723728e-12
55	0xb0849734	-9.647239e-10
56	0xaf8d9079	-2.5750405e-10
57	0x304c3ced	7.430135e-10
58	0x2cc56555	5.610327e-12
59	0xb08a2463	-1.0051163e-09
60	0xafad6b3f	-3.154472e-10
61	0x3044981f	7.152056e-10
62	0xadf929de	-2.8326615e-11
63	0xb0924e03	-1.064507e-09
64	0xb0287a00	-6.1291416e-10
65	0xb0055a33	-4.85133e-10
66	0x2f77c6fc	2.2535213e-10
67	0x30ef5b11	1.7415421e-09
68	0xbc57e8db	-0.013178076
69	0x3c405086	0.011737948
70	0x3cbd576f	0.02311298
71	0xbc70c0d4	-0.014694411
72	0xbc41628c	-0.011803281
73	0x3b868438	0.004105117
74	0x3c0aa048	0.008461066
75	0xbc62fd0d	-0.013854277
76	0xbc1e3dae	-0.00965826
77	0xbbed124a	-0.0072348462
78	0xbbd87dc5	-0.00660679
79	0xbc668c2e	-0.014071507
80	0x3ddd45b6	0.10804312
81	0x3c154ee8	0.009113051
82	0xbcac26dd	-0.021014625
83	0x3c021be9	0.007941225
84	0xbcff09e7	-0.031132651
85	0x3829f7a7	4.0523384e-05
86	0xb8c41514	-9.3499344e-05
87	0x385a7df8	5.2092568e-05
88	0xb51ed1d0	-5.9164904e-07
89	0x3896806c	7.176478e-05
90	0xb8e5efda	-0.00010964247
91	0x37ab79a5	2.0441434e-05
92	0xb5367738	-6.797377e-07
93	0x38f73de5	0.000117894066
94	0xb8ff7455	-0.00012181016
95	0xb78a29d4	-1.647036e-05
96	0xb595704f	-1.1134051e-06
97	0xb8a67d0a	-7.938787e-05
98	0xb7d4a87a	-2.5350822e-05
99	0xb897ffd7	-7.247895e-05
100	0xb81977d7	-3.6589652e-05
101	0xb88fdcec	-6.859921e-05
102	0xb5bb57a9	-1.3958098e-06
103	0xb5ca1e27	-1.5058948e-06
104	0x35db1b07	1.6324637e-06
105	0xb50bc8db	-5.207382e-07
106	0xb5ccc9f2	-1.5257958e-06
107	0xb5ea376e	-1.7450491e-06
108	0x35cca0c0	1.5245969e-06
109	0xb51047d4	-5.3748704e-07
110	0xb5db8ca7	-1.6357707e-06
111	0xb601f78c	-1.936659e-06
112	0x35bce035	1.4072344e-06
113	0xb518b5b6	-5.6888837e-07
114	0x349f73bc	2.9700266e-07
115	0xb5714f47	-8.989486e-07
116	0xb5aab24a	-1.2717876e-06
117	0xb603dfb9	-1.9650745e-06
118	0x352aaaa4	6.357825e-07
119	0xafd8ddb4	-3.94477e-10
120	0xafa444fc	-2.9880443e-10
121	0x308ec7c6	1.0388639e-09
122	0xaef69134	-1.1212578e-10
123	0xb01567df	-5.4353494e-10
124	0xaff6bfe2	-4.488348e-10
125	0x30be041a	1.3825485e-09
126	0xaef62c12	-1.1194613e-10
127	0xb0523a8c	-7.6480755e-10
128	0xb048f651	-7.3109613e-10
129	0x30fbead2	1.8329394e-09
130	0xaef60d5f	-1.118916e-10
131	0xaf6636a4	-2.093779e-10
132	0xaf085f5b	-1.2403005e-10
133	0xaeeeee88	-1.08653586e-10
134	0xaead0b51	-7.8691394e-11
135	0x2f0d8dc0	1.2874235e-10
136	0xad645708	-1.2979624e-11
137	0xacfed924	-7.2432216e-12
138	0x2c3e9ed5	2.7088793e-12
139	0xad217497	-9.177679e-12
140	0xad680f29	-1.3191039e-11
141	0xad159df4	-8.504742e-12
142	0x2bff2d71	1.8131452e-12
143	0xad203cd7	-9.108456e-12
144	0xad67152c	-1.3135531e-11
145	0xad24fc20	-9.378304e-12
146	0x2b7db63b	9.013655e-13
147	0xad22649f	-9.230976e-12
148	0xac914b57	-4.1295123e-12
149	0xad5e3ad2	-1.26323e-11
150	0xad3b169e	-1.0634741e-11
151	0x2cdb2453	6.228387e-12
152	0x2d15a665	8.506616e-12
153	0xb66f7536	-3.5682e-06
154	0x35220ac6	6.036538e-07
155	0x374c69b4	1.21839585e-05
156	0xb6ab7738	-5.110076e-06
157	0xb68092fc	-3.8318085e-06
158	0x34886eb5	2.5412524e-07
159	0x36bbb759	5.5943788e-06
160	0xb6acfc0f	-5.155343e-06
161	0xb689699e	-4.0952136e-06
162	0xb481f471	-2.4205977e-07
163	0xb54a8ad4	-7.5452886e-07
164	0xb6adf204	-5.183976e-06
165	0x369394b8	4.3982545e-06
166	0xb6405c43	-2.8663933e-06
167	0xb7166e90	-8.966439e-06
168	0x363966d9	2.7627013e-06
169	0xb6ec95f6	-7.050806e-06
170	0xaa299feb	-1.5065698e-13
171	0xaa36582a	-1.6195435e-13
172	0x2afec476	4.5255786e-13
173	0xa95bf52d	-4.8840425e-14
174	0xaa263ca3	-1.47648e-13
175	0xaa5735c4	-1.911449e-13
176	0x2ae32fe6	4.0356536e-13
177	0xa95be620	-4.882737e-14
178	0xaa24d0f4	-1.4638621e-13
179	0xaa87c8bd	-2.4120107e-13
180	0x2ad5c713	3.7974536e-13
181	0xa95bd9f7	-4.8816823e-14
182	0xaa5b7419	-1.9491387e-13
183	0xa9706581	-5.3378746e-14
184	0xa93cbf15	-4.1910123e-14
185	0xa8bf35fb	-2.122867e-14
186	0x29616ef1	5.0056262e-14
187	0xbb41b2d8	-0.0029556062
188	0x3ce17852	0.027523194
189	0x3c3310ab	0.010929267
190	0x3c09c86a	0.008409599
191	0xbc00afea	-0.007854441
192	0x3d0de3a1	0.034640912
193	0x3d286bd5	0.04111846
194	0x3b92b7f2	0.0044774944
195	0xbc53cf95	-0.012927909
196	0x3d3ad858	0.045616478
197	0x3d92b32e	0.07163082
198	0x3bd7a2f1	0.0065807034
199	0x3d081b95	0.03322943
200	0x3d87e1aa	0.06634839
201	0x3d06f836	0.032951556
202	0xbd796dfd	-0.06089591
203	0xbdbea20f	-0.09308254
204	0xac7df5a3	-3.6089818e-12
205	0xacc1a316	-5.503496e-12
206	0x2ca403d4	4.6615854e-12
207	0xabb9492b	-1.3165349e-12
208	0xac823061	-3.7001934e-12
209	0xaccfb56c	-5.9034357e-12
210	0x2cb4e015	5.140786e-12
211	0xabbe58db	-1.3524974e-12
212	0xac87553a	-3.846393e-12
213	0xacddba50	-6.3018826e-12
214	0x2cc01cae	5.4601523e-12
215	0xabc0a1c5	-1.3687321e-12
216	0xacdab332	-6.2158273e-12
217	0xab61c992	-8.0215793e-13
218	0xa93cb7f1	-4.190393e-14
219	0x2c785335	3.5289109e-12
220	0x2c6deb8d	3.3810483e-12
221	0xb38f55a8	-6.674537e-08
222	0xb10b8a50	-2.0305784e-09
223	0x33f79d43	1.15304395e-07
224	0x2f46ff13	1.8098616e-10
225	0xb4636243	-2.117677e-07
226	0xb23d93f9	-1.1034893e-08
227	0x34295136	1.5768896e-07
228	0x2f4be5e1	1.8544412e-10
229	0xb5095075	-5.115356e-07
230	0xb3a186bf	-7.521657e-08
231	0x344826e0	1.8640594e-07
232	0x2f5883a2	1.9691851e-10
233	0x3103c2fe	1.917385e-09
234	0x2cfdaff1	7.210226e-12
235	0xb009ec1b	-5.0175836e-10
236	0x302db75c	6.31976e-10
237	0xafc96c77	-3.6638756e-10
238	0x3716693f	8.965201e-06
239	0x394243e4	0.00018526573
240	0x3a70be6c	0.00091836485
241	0x38b7d70a	8.766174e-05
242	0xb8cdd68a	-9.815123e-05
243	0x39aca2e1	0.0003292775
244	0x3aa808eb	0.001282004
245	0x38c8fa7a	9.583398e-05
246	0xb9760242	-0.0002346123
247	0x3a0c98b6	0.0005363332
248	0x3ac9a53b	0.0015384326
249	0x38c8b433	9.570308e-05
250	0xbaf180a1	-0.0018425175
251	0xba8e860e	-0.0010873692
252	0x39df127e	0.00042547652
253	0x3ab8a53f	0.0014087333
254	0xba2a97ef	-0.0006507625
255	0xaec21259	-8.825358e-11

linear_input.bias f4 [256]
0	0xacd84bed	-6.1475187e-12
1	0xb012ec0a	-5.344992e-10
2	0xa90ac5f5	-3.0813856e-14
3	0xb0724f0a	-8.815141e-10
4	0xbca4c5db	-0.020113876
5	0xb7c9005c	-2.3961235e-05
6	0xb59b667d	-1.1578228e-06
7	0xaf04a6fd	-1.2064656e-10
8	0xad24af9d	-9.361315e-12
9	0xb7324e5b	-1.062787e-05
10	0xa9d26f8f	-9.345226e-14
11	0x3ca0309f	0.019554434
12	0xac28a3d2	-2.3965174e-12
13	0x30ba8aa3	1.3572684e-09
14	0x3a97f07b	0.0011592055
15	0x2d172ac0	8.592849e-12
16	0x2fef3bcd	4.3516338e-10
17	0xb4bac3f0	-3.4787763e-07
18	0xbcd64c11	-0.026159318
19	0xbcc229b7	-0.023701532
20	0xb3e328d9	-1.05779414e-07
21	0xbb08cf63	-0.0020875565
22	0xae962c4d	-6.82908e-11
23	0xb6f2c90d	-7.2355674e-06
24	0x3a5c82cf	0.0008411826
25	0xafd2cadc	-3.8342918e-10
26	0x3010f439	5.2733956e-10
27	0x3aa9f02c	0.0012965254
28	0x3b631a80	0.0034653246
29	0xbcb22146	-0.021744382
30	0xaf03f9da	-1.2003146e-10
31	0xab2c818f	-6.1286474e-13
32	0xacbe0b84	-5.4014033e-12
33	0xb532e347	-6.66409e-07
34	0xaf263a96	-1.5118426e-10
35	0xb663c1a7	-3.3938356e-06
36	0xabe40c0b	-1.6203717e-12
37	0xab45645d	-7.012774e-13
38	0x3dabd628	0.083904564
39	0xbd4b65e6	-0.049657725
40	0xb93f531f	-0.00018246144
41	0xa8b0a753	-1.961249e-14
42	0xbba4b155	-0.0050260224
43	0xad3333b2	-1.0186451e-11
44	0x3b479a67	0.0030457021
45	0xb9547274	-0.00020260533
46	0xb8b48a55	-8.608835e-05
47	0x3b7f0840	0.003891483
48	0xac6c8778	-3.3612817e-12
49	0xa0451e8f	-1.669666e-19
50	0xb8649355	-5.449665e-05
51	0xb7a98922	-2.0210227e-05
52	0xbacd6e0b	-0.0015673054
53	0x37894048	1.6361606e-05
54	0xbab1ec46	-0.0013574443
55	0x3b817111	0.003950246
56	0xac166e32	-2.1377453e-12
57	0xbcc1ec00	-0.023672104
58	0xb3d11af6	-9.737225e-08
59	0x2e0a1f5c	3.140542e-11
60	0xb99926d4	-0.00029211363
61	0xb61f0452	-2.369536e-06
62	0xbb828dab	-0.0039841733
63	0xb810e256	-3.4543067e-05
64	0xb0a1971a	-1.1757237e-09
65	0xb6b7eaf9	-5.4811794e-06
66	0x300d0fda	5.131803e-10
67	0xbaa5d079	-0.0012650631
68	0xbcdcc28e	-0.02694824
69	0xac5c10b1	-3.1273146e-12
70	0xbd34ffe4	-0.04418935
71	0x2d0091e2	7.30835e-12
72	0xb054f3f8	-7.747185e-10
73	0xbc34f9c7	-0.01104588
74	0x2a11cdde	1.2950012e-13
75	0xb0d8b807	-1.5768372e-09
76	0xad40e74f	-1.0965297e-11
77	0x3d8b4301	0.06799889
78	0xb2dc134e	-2.562015e-08
79	0x2cea9b5a	6.6679275e-12
80	0xb1eefe41	-6.955617e-09
81	0x3a993b02	0.0011690559
82	0xbba6b8cf	-0.005087949
83	0xb2387714	-1.0737285e-08
84	0xbc867bf6	-0.016416531
85	0xada31add	-1.8542884e-11
86	0x3b3c3c4e	0.0028722468
87	0xadb40a45	-2.0468191e-11
88	0xb8029d23	-3.114076e-05
89	0xbd3c4009	-0.045959506
90	0xbc9ecc93	-0.019384658
91	0xb0864407	-9.769118e-10
92	0x2f616354	2.0498919e-10
93	0xb31dcc7e	-3.6740396e-08
94	0x2c46cfb4	2.825279e-12
95	0xa62f65cd	-6.085329e-16
96	0xa93cc7f4	-4.1917817e-14
97	0x3a9a4ee4	0.0011772779
98	0x37e514c9	2.7308606e-05
99	0xb2a913a6	-1.9683124e-08
100	0xb7f9a15c	-2.9758252e-05
101	0xbad77cca	-0.0016440388
102	0xac6d6eb2	-3.3741174e-12
103	0x3241472e	1.1250263e-08
104	0xaf3d04d7	-1.719117e-10
105	0xab7d7e0e	-9.005859e-13
106	0xb5d4af84	-1.5846313e-06
107	0xbc448e4a	-0.011996815
108	0x2d8b32de	1.582506e-11
109	0x35241d7a	6.1137655e-07
110	0xb0052a1e	-4.844497e-10
111	0xbcbe10c7	-0.02320136
112	0xaf1453fe	-1.3490362e-10
113	0x2efc3374	1.1468773e-10
114	0xbc9af675	-0.018916348
115	0x3246a3de	1.1562376e-08
116	0x2d9b26ef	1.763875e-11
117	0xa9126594	-3.2506617e-14
118	0xaf9b7743	-2.8279076e-10
119	0xb0f3779d	-1.7714573e-09
120	0xbc98c972	-0.018650744
121	0xb832f006	-4.2662046e-05
122	0x3635e774	2.7105825e-06
123	0xb21e716c	-9.2226e-09
124	0xa88eff4e	-1.5875888e-14
125	0xac8724ce	-3.841017e-12
126	0xae62e074	-5.1585805e-11
127	0xb5d012c4	-1.5502669e-06
128	0xb95f9c84	-0.00021325244
129	0xac0d8223	-2.0109546e-12
130	0xac532c0f	-3.000936e-12
131	0xb7b32023	-2.1353428e-05
132	0x2f0160ee	1.1766918e-10
133	0xbcb6c943	-0.022312766
134	0xb489e4ff	-2.5684855e-07
135	0xb8139faa	-3.519623e-05
136	0x3cb9ae4b	0.022666117
137	0xaf3b3223	-1.7025363e-10
138	0xb5dcfc2e	-1.6464671e-06
139	0xb0d34a93	-1.5373466e-09
140	0xbd91721f	-0.07101845
141	0xbc43e9d9	-0.011957609
142	0xac54fe98	-3.026834e-12
143	0xbcc0fc53	-0.023557818
144	0xb1d57fa2	-6.213626e-09
145	0xb65b96d8	-3.2721346e-06
146	0xb0389e16	-6.7163464e-10
147	0xb1374997	-2.6671836e-09
148	0xba097c9c	-0.00052447035
149	0xae749cfd	-5.561861e-11
150	0xbb3ea088	-0.0029087383
151	0xbcd6eb93	-0.026235377
152	0x3032eb87	6.509073e-10
153	0xb8f25109	-0.00011554553
154	0xb43b6d77	-1.7455555e-07
155	0xb9c67fbf	-0.0003786068
156	0xb8e90c47	-0.000111125926
157	0xb410f09f	-1.3498583e-07
158	0xbca0791e	-0.019589003
159	0xb5768271	-9.183196e-07
160	0xb8d2ad34	-0.00010045842
161	0xafcad5d3	-3.6895517e-10
162	0xadb01bf1	-2.0021292e-11
163	0xbafea00d	-0.0019426361
164	0xb00c0b5f	-5.094786e-10
165	0xb5b6cbdd	-1.3619389e-06
166	0x35bc6704	1.4037073e-06
167	0xb0047f0f	-4.820188e-10
168	0x38950dea	7.107465e-05
169	0xb7293e0f	-1.0087634e-05
170	0xbdc6e476	-0.09711544
171	0xb2479f77	-1.1619583e-08
172	0xbcda586c	-0.026653491
173	0xbcaacf41	-0.02085078
174	0xbda3deee	-0.08001505
175	0xb8c56141	-9.411807e-05
176	0xb26e194a	-1.3859173e-08
177	0xb355cd39	-4.9779576e-08
178	0xad1b06c0	-8.812229e-12
179	0xb600fd75	-1.9221018e-06
180	0x352bfdff	6.4072077e-07
181	0x31186ad4	2.2179636e-09
182	0x37046e6a	7.893521e-06
183	0xbd523f54	-0.051329926
184	0x2eb11676	8.053018e-11
185	0x2e11df84	3.3167705e-11
186	0xb1137fb9	-2.1463917e-09
187	0x2cce865f	5.8697903e-12
188	0xb378b3e1	-5.79056e-08
189	0xb5d40f6c	-1.5799719e-06
190	0xbaf58f87	-0.0018734791
191	0x2fdc5436	4.0077602e-10
192	0xada47ac7	-1.8699165e-11
193	0xafa589ac	-3.0111147e-10
194	0xbc4bdac5	-0.012442295
195	0xb7ae48d8	-2.0776337e-05
196	0xbc3e7dbb	-0.011626656
197	0xbc8cf171	-0.017204972
198	0x2b04cbe1	4.717876e-13
199	0xbca69c68	-0.020338252
200	0x33af7091	8.169548e-08
201	0x3a1ac0e4	0.0005903377
202	0xb0af63c7	-1.2761284e-09
203	0x3269fa7c	1.36193385e-08
204	0xb40efe73	-1.3317349e-07
205	0xb06cf785	-8.6208046e-10
206	0xab25330a	-5.8690607e-13
207	0xb368b833	-5.4184238e-08
208	0xb22b4085	-9.96818e-09
209	0xba6fb7fd	-0.0009144543
210	0xa88dbe08	-1.5736558e-14
211	0xb501ad46	-4.830839e-07
212	0xb0cab68e	-1.474932e-09
213	0xadad86d9	-1.9727707e-11
214	0xb664d85a	-3.410058e-06
215	0x2e8d8a77	6.436534e-11
216	0xb07b0c00	-9.133032e-10
217	0xadc351ad	-2.2205205e-11
218	0xb2697dfe	-1.3591032e-08
219	0x3da3ff7c	0.08007714
220	0xb09c319a	-1.1364591e-09
221	0xbca206dd	-0.019778663
222	0x34bf4218	3.5624612e-07
223	0xbd7e05ad	-0.06201713
224	0xba6648b0	-0.0008784635
225	0xae518a87	-4.7644135e-11
226	0xb10f1061	-2.081855e-09
227	0x3cf656dd	0.030070717
228	0xb96b7f43	-0.00022458755
229	0xba146a43	-0.0005661586
230	0x3a154976	0.00056948455
231	0x3135c2a9	2.6449618e-09
232	0xbbd561ec	-0.0065119173
233	0xaf7ed45c	-2.317661e-10
234	0x39821b45	0.0002481585
235	0xbc3dcd4c	-0.011584591
236	0xb699da7a	-4.5851893e-06
237	0xb631bdc0	-2.6485504e-06
238	0xaf3ec8d3	-1.7351746e-10
239	0x2dd2e50c	2.3975953e-11
240	0xb8079455	-3.2324653e-05
241	0xafaa3bf9	-3.0965433e-10
242	0xad5b43ef	-1.2463793e-11
243	0xbcce1de5	-0.02516074
244	0x3b498f97	0.0030755752
245	0xb8c3566b	-9.314421e-05
246	0x358098be	9.581197e-07
247	0xbaeef0f0	-0.0018229764
248	0xb1204fe7	-2.3328484e-09
249	0xb1e4e93a	-6.662188e-09
250	0xaf9425e4	-2.6947966e-10
251	0xaf0beb64	-1.2725604e-10
252	0xbc2cd05d	-0.010547725
253	0xaaa200bb	-2.8777488e-13
254	0xb823dd12	-3.9068116e-05
255	0xb407508a	-1.2602155e-07

linear_hidden.0.weight f4 [256, 256]
0	0x199a98fe	1.598502e-23
1	0x9a0dca1d	-2.9321382e-23
2	0x150f64b5	2.8958064e-26
3	0x9f056d63	-2.8254328e-20
4	0x27a9e66c	4.7156747e-15
5	0xa3e13ee7	-2.4421189e-17
6	0x224e402e	2.7952182e-18
7	0x9e500070	-1.1011519e-20
8	0x94ce87ba	-2.0854219e-26
9	0xa2846f31	-3.58964e-18
10	0x93653371	-2.8929226e-27
11	0xa8173886	-8.39444e-15
12	0x9728314a	-5.434594e-25
13	0x21a48aed	1.1149846e-18
14	0x248e809f	6.1800576e-17
15	0x9ac34795	-8.0765757e-23
16	0x9e0bada6	-7.394508e-21
17	0xa1567ff0	-7.2675344e-19
18	0xa87239e8	-1.3446255e-14
19	0xa9327f66	-3.963444e-14
20	0x1ea59634	1.7532177e-20
21	0x27b5d631	5.046982e-15
22	0x1b1615f6	1.2414805e-22
23	0x23cc8935	2.2175834e-17
24	0xa8c2b83d	-2.1618227e-14
25	0x1b797c2d	2.063692e-22
26	0x1cacc64a	1.1433262e-21
27	0x2507b050	1.176912e-16
28	0x271aff91	2.1510336e-15
29	0xa9050a29	-2.9540745e-14
30	0x99dc1aaa	-2.2758236e-23
31	0x1a20ef5b	3.3280574e-23
32	0x989b4d35	-4.014452e-24
33	0x1f8eddc5	6.0506226e-20
34	0x1b9cf149	2.5963962e-22
35	0x21184815	5.1595003e-19
36	0x1d475179	2.6379551e-21
37	0x192711a2	8.6372586e-24
38	0x29893de7	6.0947605e-14
39	0x2778b623	3.451565e-15
40	0xa5a34953	-2.832568e-16
41	0x960a16f5	-1.1154795e-25
42	0xa7bd84dd	-5.260209e-15
43	0x9a832f9c	-5.425725e-23
44	0x25ff9d57	4.4342066e-16
45	0x260ec83c	4.9537515e-16
46	0x259fd1fc	2.7724394e-16
47	0xa5cbf40a	-3.5380254e-16
48	0x979438c0	-9.578602e-25
49	0x8d0d8f9d	-4.362185e-31
50	0xa573d2b4	-2.1148279e-16
51	0x248c1329	6.074778e-17
52	0x290d4cd6	3.1374934e-14
53	0x227df406	3.4417079e-18
54	0x2822fec4	9.04805e-15
55	0xa645e559	-6.865893e-16
56	0xa9262672	-3.689275e-14
57	0x2880af39	1.4286845e-14
58	0x1ebf4078	2.0249575e-20
59	0xa00b0960	-1.177686e-19
60	0x244069b1	4.1722888e-17
61	0xa208323d	-1.8458033e-18
62	0x25d5c9a8	3.7086258e-16
63	0x2362f83a	1.23040486e-17
64	0x1f0185e3	2.742756e-20
65	0xa239928d	-2.5149759e-18
66	0x9f895249	-5.8157886e-20
67	0xa52ac5ce	-1.4812168e-16
68	0x28178044	8.409997e-15
69	0x155175a1	4.2300007e-26
70	0xa723f42a	-2.2753156e-15
71	0x9ac18f53	-8.005448e-23
72	0x9b18450d	-1.2595457e-22
73	0x28c0d850	2.1410093e-14
74	0x1650817e	1.6842967e-25
75	0x9ca35582	-1.0808538e-21
76	0x9c86b3b5	-8.913829e-22
77	0x297c603f	5.603872e-14
78	0xa00cdad7	-1.1930869e-19
79	0x9b0c677e	-1.1613969e-22
80	0x9da507a9	-4.3683057e-21
81	0x268132b4	8.964916e-16
82	0xa7f6eb0b	-6.853355e-15
83	0x9da0fbe7	-4.261211e-21
84	0xa8368e56	-1.0133894e-14
85	0x1d87a681	3.5906363e-21
86	0x255a7979	1.8949642e-16
87	0x18373226	2.3677514e-24
88	0xa38af92b	-1.5067517e-17
89	0x28334cb0	9.953125e-15
90	0x2834d35a	1.0037837e-14
91	0x18dfbffe	5.783801e-24
92	0x9af7c91d	-1.0248172e-22
93	0x9b984df9	-2.519668e-22
94	0x9a44b4c4	-4.067787e-23
95	0x9205a45a	-4.216998e-28
96	0x18801080	3.3103885e-24
97	0x259bf12d	2.705164e-16
98	0xa8b62b9b	-2.022497e-14
99	0xa008585a	-1.1548881e-19
100	0xa1957504	-1.0127607e-18
101	0xa6a04a56	-1.1122379e-15
102	0x992aee29	-8.83689e-24
103	0x22995b1b	4.1567195e-18
104	0x1a74c229	5.061486e-23
105	0x15e83b60	9.379773e-26
106	0x23cedd93	2.2428405e-17
107	0xa8146622	-8.237797e-15
108	0x9c9376db	-9.758367e-22
109	0x23a1cca6	1.7542327e-17
110	0x1c1cd980	5.189718e-22
111	0xa9205e27	-3.56088e-14
112	0x9b18da50	-1.2643686e-22
113	0x9c73b76e	-8.0639033e-22
114	0x28a2c7d4	1.8072275e-14
115	0x9e9e7e94	-1.6781252e-20
116	0x1bca5973	3.3475902e-22
117	0x97c7985d	-1.2898535e-24
118	0x99751569	-1.2670527e-23
119	0x1b0855ef	1.1277423e-22
120	0xa8b01b55	-1.9551779e-14
121	0xa542c0a1	-1.6892083e-16
122	0xa3e5b8bd	-2.490647e-17
123	0x1e91d9c0	1.5442531e-20
124	0x162ed708	1.412346e-25
125	0x973ea52e	-6.1600797e-25
126	0x9ad37655	-8.745873e-23
127	0x22f558c1	6.6501355e-18
128	0x24d8fe4e	9.4105877e-17
129	0x98e6f831	-5.9704216e-24
130	0x975430a1	-6.8562273e-25
131	0x1f5b1ded	4.6399808e-20
132	0x9bd3a2e5	-3.501229e-22
133	0x278743b6	3.754344e-15
134	0xa393cdea	-1.602498e-17
135	0x242a9468	3.698858e-17
136	0xa9bcb86d	-8.38087e-14
137	0x18e5efd6	5.9437285e-24
138	0x1c3a7edd	6.1706205e-22
139	0x23fee9e0	2.7637785e-17
140	0xa84f4205	-1.1505124e-14
141	0xa824ea0f	-9.154582e-15
142	0x1b5bb023	1.8172168e-22
143	0xa72ad755	-2.370897e-15
144	0x203f52d6	1.6205737e-19
145	0x2285085d	3.6058577e-18
146	0x9f0f061d	-3.0286485e-20
147	0x18575da6	2.783538e-24
148	0xa6b41f0a	-1.2498422e-15
149	0x1afb6b89	1.039849e-22
150	0x28e55b79	2.5463777e-14
151	0x284df0af	1.1431976e-14
152	0x1eadbfcc	1.8396413e-20
153	0x220e67a6	1.929946e-18
154	0x9ed15264	-2.2162812e-20
155	0xa86b7546	-1.307055e-14
156	0xa41fa1ce	-3.4614683e-17
157	0xa25489c0	-2.8804282e-18
158	0xa91c6d45	-3.4733735e-14
159	0x20729fe6	2.0551103e-19
160	0xa66425c3	-7.9154567e-16
161	0x9c46df38	-6.580121e-22
162	0x1a7a28c3	5.1731715e-23
163	0x24297474	3.6744673e-17
164	0x9b82b590	-2.1624028e-22
165	0xa25d9ad4	-3.003305e-18
166	0x21266e56	5.6389016e-19
167	0x1e94a0aa	1.5736559e-20
168	0xa3d433d4	-2.3007036e-17
169	0x237e5f25	1.3789515e-17
170	0xa91b89f8	-3.4536583e-14
171	0x1eecdf17	2.507974e-20
172	0xa8f184ba	-2.6813936e-14
173	0x280601d4	7.438891e-15
174	0xa979e3ee	-5.5486804e-14
175	0x24b5e790	7.888852e-17
176	0x9dee05f5	-6.3004235e-21
177	0x1f171537	3.1993042e-20
178	0x99b6bab4	-1.8893768e-23
179	0x21188b96	5.1684344e-19
180	0xa440d10f	-4.1810443e-17
181	0x9c434047	-6.4603164e-22
182	0x21f2b2c0	1.6445873e-18
183	0x264b7df6	7.060048e-16
184	0x1c928794	9.696516e-22
185	0x9842e408	-2.5189039e-24
186	0x1e9126f6	1.5368586e-20
187	0x1a237a87	3.3806587e-23
188	0xa05eb55a	-1.8864136e-19
189	0x9fc61bbb	-8.390214e-20
190	0xa9b0070e	-7.817194e-14
191	0x9fd07c25	-8.8296806e-20
192	0x1b35b98e	1.5031925e-22
193	0x9c882239	-9.008571e-22
194	0x28bca7b5	2.0944924e-14
195	0xa142aae5	-6.5955934e-19
196	0xa887e972	-1.5089252e-14
197	0xa9462e5b	-4.400504e-14
198	0x9934168c	-9.310335e-24
199	0x28d598c1	2.3713997e-14
200	0xa2a6efd8	-4.5248335e-18
201	0xa8c73c01	-2.211946e-14
202	0x9ca2fc01	-1.0785402e-21
203	0x207cba8a	2.1406951e-19
204	0x2129fe46	5.7595955e-19
205	0x1a976177	6.26096e-23
206	0x177bf406	8.1410475e-25
207	0x9e42e389	-1.0317328e-20
208	0x1e4db3c6	1.0889786e-20
209	0x2856f9b6	1.1933534e-14
210	0x15cb68e5	8.215654e-26
211	0x1cc406a5	1.297191e-21
212	0x9c4a4d11	-6.69358e-22
213	0x9b326af1	-1.475837e-22
214	0x22b7833b	4.9741195e-18
215	0x9d3f24f7	-2.529775e-21
216	0x1bde200b	3.6747526e-22
217	0x9ab429ee	-7.4513996e-23
218	0x20d57356	3.6159926e-19
219	0x2985f25e	5.9484305e-14
220	0x9be19f94	-3.7326253e-22
221	0x28e17946	2.5032612e-14
222	0xa3401ac8	-1.0414012e-17
223	0xa91899a4	-3.3884042e-14
224	0x26cb9016	1.4125009e-15
225	0x1a2f095d	3.6196715e-23
226	0x2b8fda22	1.0221305e-12
227	0x27d3bdd2	5.877007e-15
228	0xa898c056	-1.6958802e-14
229	0x25cb45e0	3.5262236e-16
230	0x25ff5d44	4.4298648e-16
231	0x9e756ebf	-1.2993094e-20
232	0xa4d7f160	-9.365029e-17
233	0xa0000170	-1.0842497e-19
234	0x25b8ea56	3.2077704e-16
235	0x26be42b4	1.3201978e-15
236	0x239d5d5c	1.7061513e-17
237	0x2045606d	1.6718454e-19
238	0x1d4bd947	2.6979156e-21
239	0x9ba18126	-2.6718676e-22
240	0x259667bd	2.6091148e-16
241	0x9b0e0d07	-1.1750174e-22
242	0x1a9e090a	6.536187e-23
243	0xa89a6238	-1.714003e-14
244	0xa89a6e8d	-1.7145378e-14
245	0x23f52c51	2.6581722e-17
246	0xa0ac6156	-2.9202345e-19
247	0xa7ea3419	-6.500453e-15
248	0x192813bf	8.689384e-24
249	0x1f81f392	5.503658e-20
250	0x9e246222	-8.702381e-21
251	0x9a00cf2e	-2.6637138e-23
252	0xa821e35f	-8.986599e-15
253	0x19cd39fa	2.121992e-23
254	0xa4b60641	-7.894051e-17
255	0x21369a72	6.1868405e-19

linear_hidden.0.bias f4 [256]
0	0xa9aeda68	-7.76504e-14
1	0x3d9cd7a3	0.07658317
2	0xbabe863b	-0.0014535853
3	0x378f6572	1.7094168e-05
4	0x328a5170	1.6102348e-08
5	0x3db0fb54	0.08641687
6	0xb6422cec	-2.89344e-06
7	0x3db10c2f	0.08644902
8	0x34618327	2.1002471e-07
9	0x334c7fe1	4.7613756e-08
10	0xbac63031	-0.0015120563
11	0x3dd37874	0.10325709
12	0xb2a263d6	-1.8904682e-08
13	0x300092c5	4.67747e-10
14	0x3c6535dd	0.013989893
15	0x2f35963d	1.651523e-10
16	0xbb18cc5b	-0.0023315165
17	0xbae4b300	-0.0017448366
18	0xba52c6e5	-0.0008040502
19	0xb3e0215b	-1.043688e-07
20	0xb3a5a1da	-7.712852e-08
21	0x32164947	8.7478105e-09
22	0xb405904e	-1.2439088e-07
23	0xb181b618	-3.775096e-09
24	0xbab52985	-0.0013821578
25	0x3dd1ad5f	0.10238146
26	0x32c8b0b3	2.3363418e-08
27	0xacf2da02	-6.9022574e-12
28	0x3dc1bfb7	0.09460395
29	0xb8ef8d65	-0.00011422745
30	0x80000049	-1.02e-43
31	0xbb0053b8	-0.001958115
32	0x31b63538	5.3029474e-09
33	0x33f0be8c	1.1210531e-07
34	0xb9093535	-0.0001308516
35	0x98cbfdc7	-5.273052e-24
36	0xb48b8476	-2.5987146e-07
37	0x30b5c93c	1.3226678e-09
38	0xbae73dc7	-0.0017642312
39	0xb3115d6a	-3.3845403e-08
40	0x3689922d	4.0999353e-06
41	0xba242874	-0.00062621315
42	0xb63832f1	-2.7447788e-06
43	0xb1e90746	-6.7820194e-09
44	0xb7899096	-1.6399e-05
45	0xbb02cd5d	-0.0019958832
46	0x301a5a51	5.615322e-10
47	0xbac5c3e8	-0.0015088292
48	0xb305cc0b	-3.115205e-08
49	0x3d36e326	0.04465022
50	0xaee938fb	-1.0605735e-10
51	0xba26b091	-0.0006358708
52	0xbb0eb1ae	-0.0021773386
53	0x3d93df17	0.072202854
54	0x321c1373	9.084817e-09
55	0x0000035b	1.204e-42
56	0xbb10db5a	-0.00221034
57	0x000000e6	3.22e-43
58	0xb206c340	-7.844221e-09
59	0x327cc0f2	1.4712201e-08
60	0xb51ce999	-5.845446e-07
61	0xb11543e7	-2.1720952e-09
62	0x2ef7e83e	1.1273514e-10
63	0x3daa4d39	0.0831551
64	0xbadcf1a5	-0.0016856684
65	0x992741ca	-8.646984e-24
66	0x3dad95f7	0.08475869
67	0xb0821e5d	-9.467375e-10
68	0xb303b9d9	-3.0669842e-08
69	0xb394db7f	-6.931713e-08
70	0xaa8120df	-2.2937812e-13
71	0xbafe99b8	-0.0019424474
72	0xb8c9acad	-9.61659e-05
73	0xae98d024	-6.949133e-11
74	0xb3e008e3	-1.0432429e-07
75	0x099a542c	3.7153306e-33
76	0x30c66004	1.4433685e-09
77	0x35ac61f1	1.2843503e-06
78	0xae404570	-4.371742e-11
79	0x315ec474	3.2416922e-09
80	0x30f23ca7	1.7625056e-09
81	0x3da1abf3	0.07894125
82	0xb5949c85	-1.1072412e-06
83	0xb05188d5	-7.6228207e-10
84	0xb8202788	-3.818379e-05
85	0x35944815	1.1047838e-06
86	0xbb70af1c	-0.0036725467
87	0x3d8201aa	0.06347974
88	0x995a2775	-1.1278304e-23
89	0xbabf01be	-0.0014572663
90	0x2f80e02e	2.3442354e-10
91	0xb7933265	-1.7547232e-05
92	0xb789beaf	-1.6420467e-05
93	0x3da84b42	0.08217479
94	0xba2f6479	-0.0006690692
95	0xb10624e5	-1.9520539e-09
96	0x2f0f0088	1.3005963e-10
97	0xbaff30e0	-0.0019469522
98	0xbabb5e18	-0.001429501
99	0xb02df3c8	-6.328347e-10
100	0xace6e0a8	-6.561935e-12
101	0x3dbda31e	0.09259628
102	0xb1b5561f	-5.277584e-09
103	0x3d64bcd7	0.055844154
104	0xb9e9652a	-0.00044516596
105	0xb5a8746d	-1.255086e-06
106	0x99431a9c	-1.00866374e-23
107	0x2d09d21e	7.834204e-12
108	0x31cceda2	5.964197e-09
109	0xbb0c0455	-0.0021364887
110	0xaf989a65	-2.7758343e-10
111	0x2e1738e4	3.4383954e-11
112	0xbb293af1	-0.0025822485
113	0xba3c92d2	-0.0007193509
114	0x80000016	-3.1e-44
115	0xb9e32fca	-0.0004333242
116	0xb2ddcff0	-2.5822345e-08
117	0x3dc622fc	0.096746415
118	0xb953650b	-0.0002016017
119	0xb2befc9a	-2.2233781e-08
120	0x3db14784	0.08656219
121	0x3d39b6c0	0.0453403
122	0xb137951f	-2.671477e-09
123	0xb994b9c7	-0.00028367175
124	0xb4225c4f	-1.5121007e-07
125	0x308d5b19	1.0284992e-09
126	0xb31b58d9	-3.6169556e-08
127	0x9c028ebd	-4.3197877e-22
128	0xb66b5ce9	-3.507181e-06
129	0xba89066f	-0.0010454188
130	0x3dccb8dd	0.099961974
131	0xbaa0dc6a	-0.001227272
132	0xae440171	-4.456652e-11
133	0x3dae4ea1	0.08511091
134	0x3dcefd7d	0.10106943
135	0x3db9116f	0.09036528
136	0xb21eaa7f	-9.235577e-09
137	0x8000001a	-3.6e-44
138	0xb452b041	-1.9621895e-07
139	0x853db053	-8.919123e-36
140	0x35afea19	1.3106647e-06
141	0xa3e209b5	-2.450708e-17
142	0x3dd2c80e	0.10292064
143	0xb1527b30	-3.0629046e-09
144	0xb7118041	-8.672535e-06
145	0x3dcf59a9	0.10124523
146	0xb983957a	-0.00025097636
147	0xb3a764ea	-7.7949e-08
148	0x0001a807	1.52112e-40
149	0xb90fcc0a	-0.00013713553
150	0xb294926f	-1.7296058e-08
151	0x28a0556e	1.7800618e-14
152	0xba410147	-0.0007362556
153	0xb8f5d9bb	-0.00011723066
154	0xaf162a09	-1.3657354e-10
155	0xb4615cdd	-2.0988541e-07
156	0x30196552	5.580506e-10
157	0x31754601	3.5691985e-09
158	0xb449f50f	-1.8808736e-07
159	0x3d551dfd	0.052030552
160	0xb62b2f40	-2.5508489e-06
161	0xb920d9b3	-0.00015339888
162	0xba9bbc00	-0.001188159
163	0x8fc58457	-1.9476675e-29
164	0xb2f8ebbd	-2.8978201e-08
165	0xb3704333	-5.5940472e-08
166	0xbb06babe	-0.0020558084
167	0x33bfa556	8.924205e-08
168	0xa61a8ce8	-5.3620447e-16
169	0x3db502ef	0.0883845
170	0xb417af3a	-1.4126718e-07
171	0xb06f432d	-8.7043156e-10
172	0x2c8ab8c9	3.942711e-12
173	0xba4e399e	-0.0007866862
174	0xb4a2244f	-3.020127e-07
175	0xb61ecd6a	-2.3663401e-06
176	0x2fca30e6	3.677833e-10
177	0xb91d70a3	-0.00015014647
178	0x3d802fe8	0.062591374
179	0x9aafbde4	-7.268509e-23
180	0x800000bb	-2.62e-43
181	0xbb074be3	-0.0020644597
182	0x2e76929f	5.606415e-11
183	0x800000f2	-3.39e-43
184	0xb412220e	-1.3609699e-07
185	0x3d4f3065	0.050583262
186	0x2667cdc8	8.042311e-16
187	0xaeb400fc	-8.185627e-11
188	0xba6fc570	-0.0009146547
189	0x2cc27638	5.5269365e-12
190	0xb60b1c4e	-2.072909e-06
191	0xb963a14f	-0.00021708499
192	0x2f6b852b	2.1420436e-10
193	0x32272db3	9.73107e-09
194	0x800000e4	-3.2e-43
195	0xb0a6efb7	-1.2146221e-09
196	0xb0adeda2	-1.2654946e-09
197	0x996f55dc	-1.23733496e-23
198	0x3132b852	2.6007183e-09
199	0xb8de3405	-0.00010595474
200	0xb4987470	-2.8396926e-07
201	0x31995d33	4.4634816e-09
202	0x800001eb	-6.88e-43
203	0x00000086	1.88e-43
204	0xb9687f65	-0.00022172702
205	0xb7570dac	-1.2818182e-05
206	0xb0829438	-9.500871e-10
207	0x33cd5c1b	9.56281e-08
208	0xb9191875	-0.00014600328
209	0xb20e6d0d	-8.290283e-09
210	0xa2c9697e	-5.4592853e-18
211	0xb4aa0cef	-3.1674378e-07
212	0x3dd0cb9e	0.10195087
213	0x3dbd2736	0.092359945
214	0xb4183ca5	-1.4178165e-07
215	0xb29b4019	-1.8073523e-08
216	0xb0db8833	-1.5973057e-09
217	0x32dc7ecd	2.5669033e-08
218	0x3db18d3d	0.08669517
219	0x3dabff2f	0.08398282
220	0xbad6ff16	-0.0016402926
221	0x3db5fd0e	0.08886157
222	0xbadb0ad8	-0.0016711606
223	0xb6426509	-2.8967063e-06
224	0xb1e4e057	-6.661178e-09
225	0x34bcaf98	3.514549e-07
226	0xbaad1732	-0.0013205765
227	0x9eeb7b92	-2.49327e-20
228	0x30cbbae0	1.4823307e-09
229	0xb7686101	-1.3850863e-05
230	0xb86176dc	-5.3754877e-05
231	0xba8050d5	-0.0009789715
232	0xba89c5d1	-0.0010511224
233	0x309bdf11	1.1341134e-09
234	0x3707083e	8.048546e-06
235	0x959dc0e2	-6.371611e-26
236	0xac2fdfff	-2.4993339e-12
237	0xba69c6bd	-0.0008917859
238	0xb13655d0	-2.6533264e-09
239	0xba65a8a7	-0.0008760788
240	0x2e812f06	5.874594e-11
241	0xadf8180b	-2.8205013e-11
242	0x3d9c0a75	0.07619182
243	0xb64e4465	-3.0736203e-06
244	0x2cc69878	5.644426e-12
245	0xbb1cb8ce	-0.0023913863
246	0xb90db12f	-0.00013512814
247	0x329bdb21	1.8144023e-08
248	0x32a8f8a2	1.967084e-08
249	0x27402f83	2.6671109e-15
250	0x305e13a3	8.0791035e-10
251	0x3dbc8b0f	0.09206211
252	0x3dc19da2	0.09453894
253	0xb4646ae8	-2.1273047e-07
254	0xabd0a168	-1.4824088e-12
255	0xba0dfcca	-0.00054163917

linear_output.weight f4 [1, 256]
0	0xa9dffabf	-9.946687e-14
1	0x3e21e331	0.15809323
2	0xbcd37a8a	-0.025815267
3	0x37ad49e5	2.0657617e-05
4	0x31b9a18d	5.402575e-09
5	0x3e371639	0.17879571
6	0x37bffb83	2.2886094e-05
7	0x3e3722e2	0.178844
8	0x34859f56	2.4889113e-07
9	0xb5c18286	-1.4417608e-06
10	0xbcdd31c6	-0.027001273
11	0x3e5937bd	0.21212669
12	0x31dca05f	6.421075e-09
13	0xb311f2f4	-3.3981408e-08
14	0x3d0716d0	0.03298074
15	0x2ed02b4f	9.466438e-11
16	0xbd3869b0	-0.045022666
17	0xbd012c36	-0.031536303
18	0xbc5ed5c5	-0.013600771
19	0xb49a09be	-2.8691824e-07
20	0xb1c64352	-5.770212e-09
21	0x331c65d0	3.641418e-08
22	0xb5931ed7	-1.0961329e-06
23	0xb2909b92	-1.6834552e-08
24	0xbcc8462a	-0.02444752
25	0x3e575eae	0.21032211
26	0xb2121553	-8.503167e-09
27	0x2e6ce124	5.3860152e-11
28	0x3e471fe4	0.19445759
29	0xbaf4a7e0	-0.0018665753
30	0x800001d8	-6.61e-43
31	0xbd144d5b	-0.036206584
32	0xb26e0e6a	-1.3856701e-08
33	0x345d932d	2.0635771e-07
34	0xb8d9b709	-0.00010381459
35	0x800000e8	-3.25e-43
36	0x340e291c	1.3239736e-07
37	0x31a6728c	4.8442583e-09
38	0xbd034efa	-0.03205774
39	0xb2d8ae99	-2.5225107e-08
40	0x37b9ddee	2.2157063e-05
41	0xbc28b412	-0.010296838
42	0xb689f84a	-4.111823e-06
43	0xb25235a5	-1.2235806e-08
44	0x37ce8f63	2.4623883e-05
45	0xbd175ed1	-0.03695566
46	0x30b46b11	1.3127154e-09
47	0xbcdcb061	-0.026939573
48	0xb284fb7a	-1.548118e-08
49	0x3de45603	0.11149218
50	0xaea821d4	-7.6457646e-11
51	0xbc2b87e9	-0.010469415
52	0xbd280168	-0.041016966
53	0x3e194d67	0.14970933
54	0xb19c0a7b	-4.541389e-09
55	0x8000071a	-2.548e-42
56	0xbd2d819e	-0.04235994
57	0x800007ac	-2.752e-42
58	0x31d9b471	6.336045e-09
59	0x36402d0b	2.8636448e-06
60	0x323d8421	1.10312905e-08
61	0xb125f67f	-2.4150777e-09
62	0xaf7199b7	-2.1973433e-10
63	0x3e300f18	0.17193258
64	0xbcf7e539	-0.030260669
65	0x00000126	4.12e-43
66	0x3e339fd4	0.17541438
67	0x3009e145	5.0160437e-10
68	0x331480d5	3.4576107e-08
69	0xb4264aad	-1.5487122e-07
70	0x08c556db	1.1876926e-33
71	0xbd12eac3	-0.035868417
72	0xbaccfab0	-0.0015638676
73	0xaf42420c	-1.7667662e-10
74	0x34eb7023	4.385375e-07
75	0x87d58730	-3.2128134e-34
76	0x2f742e7e	2.2208188e-10
77	0x36520f36	3.1301292e-06
78	0x11b52f13	2.8585776e-28
79	0x31f47b08	7.1153217e-09
80	0x31827980	3.797311e-09
81	0x3e256f90	0.16155839
82	0xb62b3496	-2.5511595e-06
83	0xb112d9d3	-2.1369615e-09
84	0xba2e0ad1	-0.0006639185
85	0xb5bc4ac9	-1.4028857e-06
86	0xbd9cc617	-0.0765497
87	0x3e173460	0.14766073
88	0x00000171	5.17e-43
89	0xbcd42a23	-0.025898999
90	0x30ad733c	1.2620158e-09
91	0x36c422d5	5.84531e-06
92	0xb986d29b	-0.00025715385
93	0x3e2c6db3	0.16838722
94	0xbc350b2a	-0.011050025
95	0x32f7e212	2.885739e-08
96	0x30246b57	5.981539e-10
97	0xbd13359a	-0.03593979
98	0xbccede37	-0.025252445
99	0x31604b0e	3.2638954e-09
100	0x9064b03c	-4.5100838e-29
101	0x3e42b104	0.19012839
102	0x319d5468	4.5788973e-09
103	0x3e086c26	0.13322505
104	0xbbfaf6c1	-0.00765881
105	0xb5abf7fd	-1.2812667e-06
106	0x80000051	-1.14e-43
107	0x2ca78fad	4.7623767e-12
108	0x31dbbc32	6.395134e-09
109	0xbd2364cc	-0.03989105
110	0x31697ba2	3.397624e-09
111	0xaeaf98b6	-7.9852056e-11
112	0xbd4df7c5	-0.05028512
113	0xbc447ae7	-0.011992193
114	0x000000cf	2.9e-43
115	0xbbf522c5	-0.0074809515
116	0x3397deb1	7.071993e-08
117	0x3e4c700c	0.19964617
118	0xbb5e8a40	-0.0033956915
119	0x3265e627	1.3381885e-08
120	0x3e3760d3	0.1790803
121	0x3de8a5c7	0.113597445
122	0xb17c4231	-3.6708452e-09
123	0xbb96d3a3	-0.004602866
124	0xb4ec3b44	-4.4001547e-07
125	0x31af37b8	5.099505e-09
126	0x338f1455	6.662655e-08
127	0x000000bb	2.62e-43
128	0xb8580e13	-5.151152e-05
129	0xbc942e0c	-0.018088363
130	0x3e529fde	0.20568797
131	0xbcaebf2a	-0.021331389
132	0xb0dc530d	-1.6030711e-09
133	0x3e3470e4	0.1762119
134	0x3e547303	0.20746998
135	0x3e3e2634	0.18569261
136	0xb247fb60	-1.1640481e-08
137	0x80000818	-2.903e-42
138	0xb4261c05	-1.5470148e-07
139	0x038fc637	8.4502925e-37
140	0x363fef67	2.8600568e-06
141	0xa3d08046	-2.2605731e-17
142	0x3e58761c	0.21138805
143	0x32543047	1.2351001e-08
144	0xb75c3a61	-1.3126614e-05
145	0x3e550280	0.20801735
146	0xbb851513	-0.00406135
147	0x3314a713	3.461089e-08
148	0x8002da0c	-2.61891e-40
149	0xbb1681c0	-0.002296552
150	0xb358b88c	-5.0459263e-08
151	0xaac772af	-3.542908e-13
152	0xbc48f219	-0.012264752
153	0xbafbfb41	-0.001922466
154	0xb00f205b	-5.2069077e-10
155	0x32df37a4	2.598592e-08
156	0x305630b2	7.7921947e-10
157	0x31c95b1e	5.8602287e-09
158	0x334dc462	4.790889e-08
159	0x3e040c12	0.1289523
160	0xb81d14f2	-3.7451224e-05
161	0xbb2968c9	-0.002584981
162	0xbca80ba8	-0.02051337
163	0x0000020e	7.37e-43
164	0x32fbb2ba	2.9301521e-08
165	0x33bafa2a	8.7068045e-08
166	0xbd1d2036	-0.038360797
167	0x3346f1e1	4.6320455e-08
168	0xa4b10a05	-7.677849e-17
169	0x3e3b51f9	0.18292989
170	0xb2fc43da	-2.9367516e-08
171	0x301897b2	5.551285e-10
172	0xadbc1bea	-2.1385522e-11
173	0xbc599a8e	-0.013281478
174	0xb43e43da	-1.7719813e-07
175	0xb64cfd52	-3.054582e-06
176	0xb0ac9305	-1.2556433e-09
177	0xb9ce3fd1	-0.0003933893
178	0x3e152162	0.14563516
179	0x800001de	-6.7e-43
180	0x8000005d	-1.3e-43
181	0xbd1dbbe4	-0.038509265
182	0x2fa278eb	2.9553546e-10
183	0x00000013	2.7e-44
184	0xae90dac1	-6.5872204e-11
185	0x3e01759a	0.12642518
186	0x281c2bf5	8.669271e-15
187	0xadb1caaf	-2.021258e-11
188	0xbc7ff14d	-0.015621495
189	0x2db05369	2.0045925e-11
190	0xb5d2b73a	-1.5699545e-06
191	0xbb710d1d	-0.0036781498
192	0x2fe507c9	4.166039e-10
193	0xb24c497f	-1.1891074e-08
194	0x80000066	-1.43e-43
195	0x19945870	1.5338561e-23
196	0xb3bc32e2	-8.763688e-08
197	0x80000041	-9.1e-44
198	0xb249d179	-1.1747368e-08
199	0xbae343d0	-0.0017338935
200	0xb4ab3a3b	-3.18936e-07
201	0x327ab7f8	1.4593745e-08
202	0x80000447	-1.534e-42
203	0x80000a08	-3.599e-42
204	0xb9f33f8c	-0.00046395918
205	0xb71291d0	-8.736228e-06
206	0xb11e28f6	-2.301531e-09
207	0x341cbdb9	1.4597653e-07
208	0xb9a2baf4	-0.0003103834
209	0x33b4e759	8.423985e-08
210	0x00000119	3.94e-43
211	0xaffef1ed	-4.637423e-10
212	0x3e569658	0.20955789
213	0x3e42225b	0.18958418
214	0xb67eb61d	-3.7954953e-06
215	0xb3fcf4bc	-1.17791814e-07
216	0xafa3163b	-2.9665323e-10
217	0x343e2bb3	1.7711027e-07
218	0x3e37ac2a	0.17936769
219	0x3e31e3c1	0.17372037
220	0xbcf084a9	-0.029360132
221	0x3e3c4217	0.18384586
222	0xbcf5fc59	-0.030027555
223	0xb833ef7c	-4.2899963e-05
224	0xb400e901	-1.2005695e-07
225	0xb3926a60	-6.818004e-08
226	0xbcbe90af	-0.02326235
227	0x800001f3	-6.99e-43
228	0xaeafc20e	-7.99255e-11
229	0xb95ad579	-0.00020869625
230	0xba5b8656	-0.00083742046
231	0xbc88e229	-0.016709404
232	0xbc94f4a8	-0.018183067
233	0x309ac205	1.1260118e-09
234	0xb72c8970	-1.0283999e-05
235	0x800001bc	-6.22e-43
236	0x1dc2859c	5.148952e-21
237	0xbc78488c	-0.015154015
238	0xb06c7f25	-8.6036983e-10
239	0xbc74ac2e	-0.014933629
240	0xaed64a5f	-9.744804e-11
241	0xafc33c14	-3.5512981e-10
242	0x3e210997	0.15726314
243	0x3627097c	2.489046e-06
244	0xb03a17c2	-6.770017e-10
245	0xbd3d7938	-0.04625818
246	0xb8c90265	-9.584873e-05
247	0xb143c60d	-2.8488814e-09
248	0xb2959d44	-1.7417399e-08
249	0xa7d5746e	-5.924561e-15
250	0x30880bba	9.898635e-10
251	0x3e4227ce	0.18960497
252	0x3e478ac1	0.19486524
253	0xb4d5954c	-3.978297e-07
254	0x2b847a5a	9.413123e-13
255	0xbc0c4af4	-0.008562792

exp_avg f4 [256, 17]
0	0xa83ab9e9	-1.0365387e-14
1	0x28baf243	2.0755213e-14
2	0x2ae78c6f	4.1131288e-13
3	0x2891bbec	1.6179732e-14
4	0xa91d12b3	-3.4877222e-14
5	0x28dd96e6	2.460137e-14
6	0x2aba5875	3.3101617e-13
7	0x28947572	1.6482235e-14
8	0xa996ebf1	-6.7022675e-14
9	0x28a4379b	1.8231773e-14
10	0x2a89f9db	2.450946e-13
11	0x28947416	1.6481645e-14
12	0xab033196	-4.6609364e-13
13	0x28be2f58	2.111477e-14
14	0xa9ca6b3e	-8.9892056e-14
15	0x283eddc8	1.059521e-14
16	0xa8bc06e4	-2.0875181e-14
17	0xae0ba0d9	-3.1747802e-11
18	0x2ad5b697	3.7963098e-13
19	0x2ee7f0e9	1.0547458e-10
20	0xad9e41f7	-1.7991815e-11
21	0xadf85667	-2.8232706e-11
22	0x2ab7a3f2	3.262109e-13
23	0x2edf450e	1.01531325e-10
24	0xada0e5b8	-1.829191e-11
25	0xadc1b8cb	-2.2023624e-11
26	0xabaf72bd	-1.2466344e-12
27	0x2edd20ee	1.0055766e-10
28	0xada0afc6	-1.8267953e-11
29	0x2d3edc44	1.0849158e-11
30	0xae010967	-2.9339555e-11
31	0xadf5b175	-2.7932082e-11
32	0xae2dd633	-3.9525893e-11
33	0xadd2e58a	-2.3976172e-11
34	0xa61ae0b4	-5.373401e-16
35	0xa611546c	-5.0421394e-16
36	0x275641c6	2.9734122e-15
37	0xa5583f7f	-1.8756527e-16
38	0xa618c1e8	-5.2998386e-16
39	0xa61d5251	-5.4581877e-16
40	0x282d242b	9.611272e-15
41	0xa556e2f2	-1.8638433e-16
42	0xa610a865	-5.0188253e-16
43	0xa6245dde	-5.7026144e-16
44	0x28a56a05	1.8364659e-14
45	0xa556b487	-1.8622706e-16
46	0xa7aa60e6	-4.7289536e-15
47	0xa5b56fce	-3.1474257e-16
48	0xa55b8db6	-1.9043236e-16
49	0x258a166c	2.3954378e-16
50	0x259120f0	2.517581e-16
51	0xad441bfb	-1.1147523e-11
52	0xac46774a	-2.820371e-12
53	0x2d83443d	1.492328e-11
54	0xad1d2f58	-8.934929e-12
55	0xad4abf10	-1.1524795e-11
56	0xac785c2b	-3.5294083e-12
57	0x2d8230da	1.4800983e-11
58	0xad1d0eb3	-8.927681e-12
59	0xad4d4612	-1.166846e-11
60	0xaca725b9	-4.7506135e-12
61	0x2d809bca	1.46211e-11
62	0xad1dc20e	-8.9675056e-12
63	0xad83dbe7	-1.4990632e-11
64	0xad52e5bc	-1.1988129e-11
65	0xad58eb3f	-1.2330414e-11
66	0x2cfb240f	7.1378524e-12
67	0x2e086b45	3.1018094e-11
68	0x3affe565	0.0019523321
69	0x3844eb93	4.6949437e-05
70	0xbb32796f	-0.0027233025
71	0x3ac21090	0.0014805961
72	0x3b0281c0	0.0019913763
73	0x39163b95	0.00014327311
74	0xbb2823c0	-0.0025656074
75	0x3ac51fe2	0.0015039409
76	0x3b03c033	0.0020103573
77	0x3987e215	0.0002591765
78	0xbb1dbace	-0.0024067643
79	0x3ac8dfcf	0.0015325489
80	0x3b21c886	0.0024686172
81	0x3a5b9ae0	0.0008377265
82	0x3b0ca089	0.002145799
83	0x3b05aed0	0.0020398386
84	0xb96028ce	-0.00021377506
85	0x34e2e47e	4.226203e-07
86	0xb56769e0	-8.6208274e-07
87	0x350b0d41	5.180082e-07
88	0xb2b079b2	-2.0544437e-08
89	0x354b3782	7.570417e-07
90	0xb5861e6b	-9.992631e-07
91	0x34541df6	1.9754938e-07
92	0xb2baed4b	-2.1761158e-08
93	0x35a75c4e	1.2469334e-06
94	0xb5921a4f	-1.0885504e-06
95	0xb43d7ff3	-1.7648544e-07
96	0xb2e2acd8	-2.6388463e-08
97	0xb53bd00b	-6.996567e-07
98	0xb4c8d54e	-3.7408103e-07
99	0xb54bd2ed	-7.593033e-07
100	0xb52de674	-6.4782876e-07
101	0xb4b8df58	-3.4435175e-07
102	0xb078b5eb	-9.0480395e-10
103	0xb2203cd8	-9.32706e-09
104	0x328d4e4f	1.6450171e-08
105	0xb14e18f0	-2.999112e-09
106	0xb0b1b167	-1.2928866e-09
107	0xb226f0f5	-9.717259e-09
108	0x32985bdf	1.7736907e-08
109	0xb140bb52	-2.8046157e-09
110	0xb0bc218a	-1.3688333e-09
111	0xb223a772	-9.525921e-09
112	0x32a3ca65	1.9067736e-08
113	0xb1191a15	-2.2279256e-09
114	0x3224955a	9.580015e-09
115	0xb1c706ab	-5.7924203e-09
116	0xb21caebb	-9.120124e-09
117	0x3195a00c	4.354666e-09
118	0xb2ab939c	-1.9974145e-08
119	0xac2a4087	-2.4194273e-12
120	0xaba9d877	-1.2068253e-12
121	0x2d972811	1.7184506e-11
122	0xaaf24378	-4.3034651e-13
123	0xaca23c89	-4.6110377e-12
124	0xac6e91d3	-3.3902783e-12
125	0x2dbec9a3	2.1690044e-11
126	0xaaf1c20d	-4.294485e-13
127	0xad0784a2	-7.703312e-12
128	0xacff508e	-7.2564793e-12
129	0x2df174b7	2.745036e-11
130	0xaaf18132	-4.2899847e-13
131	0xac179fe1	-2.1547141e-12
132	0xaa7a8aac	-2.2252572e-13
133	0xaa235c58	-1.4509346e-13
134	0xaa6fd1c6	-2.1300244e-13
135	0x2a8773d8	2.40612e-13
136	0x2aee3e74	4.2320628e-13
137	0x2a9a8946	2.7451148e-13
138	0xaa32701a	-1.5848469e-13
139	0x2a95f82f	2.663993e-13
140	0x2b000690	4.548384e-13
141	0x2abbc10f	3.3351834e-13
142	0xa9d99be8	-9.663781e-14
143	0x2a960b71	2.6653292e-13
144	0x2b07082b	4.797297e-13
145	0x2ad65886	3.8075462e-13
146	0xa9254457	-3.6696635e-14
147	0x2a95e7fe	2.6628694e-13
148	0x2aa67c0d	2.95736e-13
149	0x2aee157f	4.229221e-13
150	0x2af1eab2	4.2973052e-13
151	0xaa90f4d8	-2.5749433e-13
152	0xaacc7db5	-3.6324906e-13
153	0xb3443732	-4.5685006e-08
154	0x321612f9	8.735463e-09
155	0x340caf63	1.3102321e-07
156	0xb3848a18	-6.171848e-08
157	0xb3526b12	-4.8991815e-08
158	0x3157c4ab	3.139841e-09
159	0x3381d92a	6.0465325e-08
160	0xb385b767	-6.226656e-08
161	0xb3606d3b	-5.225341e-08
162	0xb19d2355	-4.573318e-09
163	0xb2029f62	-7.603235e-09
164	0xb3867535	-6.261181e-08
165	0x3349f0bc	4.7017906e-08
166	0xb3147e60	-3.4573873e-08
167	0xb3da0419	-1.01521614e-07
168	0x3309a92a	3.2051652e-08
169	0xb3ae52a0	-8.117536e-08
170	0xa6cb8f78	-1.4124842e-15
171	0xa713f7af	-2.0534618e-15
172	0x27e50d5c	6.3574752e-15
173	0xa60c86fa	-4.8755185e-16
174	0xa6c3fcb7	-1.3599342e-15
175	0xa731f04d	-2.4693952e-15
176	0x27cfb759	5.7652827e-15
177	0xa60c21b0	-4.861791e-16
178	0xa6c0c60d	-1.3376358e-15
179	0xa7633bc0	-3.1534969e-15
180	0x27c548fe	5.4757622e-15
181	0xa60bfef9	-4.8570865e-16
182	0xa7217beb	-2.2410414e-15
183	0xa6193042	-5.314794e-16
184	0xa618ecbd	-5.3056434e-16
185	0xa41a24d4	-3.342462e-17
186	0x25cc861b	3.5479232e-16
187	0xbaee8fd2	-0.0018200821
188	0xbab7802f	-0.0013999994
189	0x3b5502f7	0.0032502988
190	0xba566942	-0.0008179137
191	0xbaeb3042	-0.0017943459
192	0xbac10c17	-0.0014728334
193	0x3b58dae5	0.0033089456
194	0xba5419d6	-0.0008091008
195	0xbae318b4	-0.0017326088
196	0xbacaceda	-0.0015473024
197	0x3b5ab7b0	0.0033373646
198	0xba652900	-0.0008741766
199	0xbb10baed	-0.0022084073
200	0xb9ee714d	-0.00045479313
201	0xba814948	-0.0009863758
202	0xb97441e2	-0.00023294197
203	0x3a2a8234	0.0006504387
204	0xa9aed22a	-7.76361e-14
205	0xa9fbd577	-1.11836694e-13
206	0xa8e2fe24	-2.5201256e-14
207	0x28065c2c	7.458481e-15
208	0xa9af6a78	-7.7900306e-14
209	0xaa030d6d	-1.1639795e-13
210	0xa8a0444a	-1.7793184e-14
211	0x2811f01c	8.101182e-15
212	0xa9b1303e	-7.868748e-14
213	0xaa08b47c	-1.2141845e-13
214	0xa85b2ce6	-1.2166678e-14
215	0x283334f1	9.947976e-15
216	0xa8c83da4	-2.2231193e-14
217	0xa8c14620	-2.1457716e-14
218	0xa88c3d5c	-1.5569733e-14
219	0x2932882f	3.964206e-14
220	0x2a076071	1.2023869e-13
221	0xb0897d0c	-1.0003602e-09
222	0xadefc4ef	-2.725861e-11
223	0x30ea947f	1.7067946e-09
224	0x2bd9bd06	1.5471242e-12
225	0xb14e3e7c	-3.0012464e-09
226	0xaf398383	-1.6872374e-10
227	0x311da7e7	2.2941948e-09
228	0x2c0dbca5	2.0142024e-12
229	0xb1efb2ed	-6.976157e-09
230	0xb095d0df	-1.0900542e-09
231	0x31382f22	2.6802316e-09
232	0x2c30dc54	2.513341e-12
233	0x2e2758ea	3.8050375e-11
234	0xaadaf007	-3.8891132e-13
235	0xad15a6a7	-8.506674e-12
236	0x2d357bb9	1.0316131e-11
237	0x2bbdcc67	1.3485991e-12
238	0x3505267f	4.960238e-07
239	0x361a881f	2.3027021e-06
240	0x37211464	9.601095e-06
241	0x358cd5ae	1.0493002e-06
242	0xb51dfeb7	-5.8857717e-07
243	0x36802681	3.8191797e-06
244	0x37607456	1.3378527e-05
245	0x359845e5	1.1345224e-06
246	0xb6048739	-1.9748243e-06
247	0x36c8bdb6	5.9825497e-06
248	0x3786bb10	1.6061153e-05
249	0x359816ca	1.1331515e-06
250	0xb79dbca3	-1.88037e-05
251	0xb7394efe	-1.1045251e-05
252	0x369a39c9	4.5962847e-06
253	0x37766193	1.4685461e-05
254	0xb6e7a977	-6.904065e-06
255	0xaacc375b	-3.627609e-13
