src/scripts/ddpg/weights/critic_best.pth (torch, 853231 bytes, 15 tensors)

linear_input.weight f4 [256, 17]
000000 e1 e2 30 3e 14 4c 3b be 31 93 2b 3e 1c 67 3c 3e
       0.17274047 -0.1829074 0.16755368 0.18398708
000010 11 a2 a9 bc b3 13 d8 bd ca 74 31 be 12 2b 07 3e
       -0.020707162 -0.10550632 -0.17329708 0.13200024
000020 0d e5 4d 3e 0f 94 54 3d c2 3c 47 3e 7e c1 99 bd
       0.20106907 0.051899012 0.19456771 -0.07507609
000030 58 a6 5d be c3 96 26 3e e6 55 5a 3e 81 b3 1a 3e
       -0.21645486 0.16268449 0.2132183 0.15107538
000040 33 32 ca ba 1d 51 9c bd bb 93 55 3d 2a f7 fa 3d
       -0.0015426337 -0.07632659 0.05214284 0.12254174
000050 34 db 04 be 09 af 64 bd 82 7a 3a 3d df 25 ee bb
       -0.12974244 -0.05583099 0.04552699 -0.007267698
000060 34 88 28 3e 5d c6 b5 bd e5 20 3a 3c b8 76 f3 bd
       0.16458207 -0.088757254 0.011360382 -0.11887878
000070 4d c2 01 be 15 7a d7 3d 7c 2e 82 bb 26 27 05 3e
       -0.12671776 0.10521332 -0.0039728265 0.13003215
000080 fb 6a 2f 3a ea 77 cf 3d f3 39 3e 3e fd 2b 00 3e
       0.00066916615 0.10130294 0.18576793 0.1251678
000090 57 1d ce bb 25 ef d8 bd f8 dc 8d bc 8b 55 55 3e
       -0.0062901187 -0.10592488 -0.01731728 0.20833413
0000a0 65 48 07 3d e2 18 d7 3d 4e 7d 27 be 1b 04 46 3e
       0.033028025 0.10502793 -0.16356394 0.19337504
0000b0 b8 07 02 3e 8e 69 98 3d 3f 38 87 3d bd 94 c7 3b
       0.12698257 0.07442008 0.06602525 0.006090729
0000c0 f0 6e a6 bd c9 1f c1 bc 1c 61 72 3d f6 f6 42 3b
       -0.081266284 -0.023574727 0.059174642 0.002974925
0000d0 28 78 61 3e 7e 0c 5a 3e f7 0e cd 3d c4 15 f1 3d
       0.22018492 0.21293828 0.1001262 0.117717296
0000e0 f4 28 5d be 2b 0d 9c 3c d4 5d 50 3e 6d 0a 15 3e
       -0.21597654 0.019049248 0.20348293 0.14554758
0000f0 18 a3 42 be 91 52 aa bd 0c 34 89 bc b2 c4 95 3d
       -0.19007528 -0.083165295 -0.01674845 0.07312907
000100 b0 6f 10 bc 59 a7 ab 3d a6 24 f8 bd 2b a4 3a 3e
       -0.008815691 0.083815284 -0.12116365 0.18226688
000110 62 b8 2d bd 62 8f 3a 3e 0c 61 46 be ea 47 32 3e
       -0.04241217 0.18218759 -0.19372958 0.17410246
000120 37 1a 11 bd 93 92 bf 3c 92 d5 53 bc d4 11 f9 3a
       -0.03542539 0.023385322 -0.012929337 0.0019002506
000130 99 1e 9d bc 75 a1 bd bd 09 75 58 bc 82 71 82 bd
       -0.01917963 -0.09259311 -0.013211497 -0.06369306
000140 6d 27 fd bd e4 62 04 be 93 ba 4e be 88 94 99 bb
       -0.123610355 -0.12928349 -0.2018836 -0.0046868958
000150 45 84 07 bb 84 50 3a 3d 56 cf 61 be 39 60 44 be
       -0.0020678204 0.045486942 -0.22051749 -0.19177331
000160 98 9f c8 3d fb da e9 bc 8e e6 22 3e 01 60 cc 3d
       0.09796065 -0.0285468 0.15908262 0.09979249
000170 9d 16 a8 3d 4b 31 ef 3b 54 ca 0d 3e de 3c 6a 3c
       0.08207438 0.0072995774 0.13846713 0.014296738
000180 5d bd 54 be 92 f3 18 be f3 12 dd 3d 71 63 4e be
       -0.20775361 -0.14936665 0.1079463 -0.20155121
000190 30 f7 c2 bd c8 e2 46 be db 53 f1 3d b1 16 24 3e
       -0.095198035 -0.19422448 0.11783572 0.16024281
0001a0 68 9d 08 be ac 00 e8 bd 61 2c 90 bd f8 92 22 ba
       -0.13341296 -0.11328253 -0.070397146 -0.00062017096
0001b0 63 8f 50 be b6 07 9b 3b e3 4f 50 3d f1 46 39 3c
       -0.20367198 0.004731144 0.050857436 0.011308418
0001c0 39 76 d9 3c d0 52 4e be 30 78 fd bd bf 47 32 be
       0.02654563 -0.20148778 -0.123764396 -0.17410181
0001d0 6f d7 10 3e eb 41 ea 3d ee 8a 55 3e e2 6b 60 3e
       0.14144681 0.11438354 0.20853779 0.21916154
0001e0 4e 32 2f 3e a0 18 fa bd f6 0f fd bd 9a 38 51 3e
       0.17109033 -0.12211728 -0.1235656 0.20431748
0001f0 50 8a 10 3e f2 21 a3 3d e6 47 30 3e 25 a6 3e be
       0.14115262 0.07965459 0.17214927 -0.18618067
000200 22 93 d5 3d d8 72 46 3d 97 c1 db bb b4 c4 0a be
       0.10428454 0.048449367 -0.0067064273 -0.13551599
000210 20 d1 46 3e 3a f3 3b bc 5a bc 2b 3e dc d3 6f 3d
       0.19415712 -0.011471564 0.16771069 0.058551654
000220 e6 30 54 be 34 2f 13 3d 8a d4 62 3d 76 5a 24 3d
       -0.20721778 0.03593369 0.055378474 0.040125333
000230 a2 45 23 be 18 ef 30 3e 20 28 0e 3e c6 92 a5 3d
       -0.15944532 0.17278707 0.13882494 0.080846354
000240 54 58 0e 3d a5 71 fd bd 48 16 25 be 71 c8 74 3d
       0.034752205 -0.123751916 -0.16121781 0.05976147
000250 05 c5 3a be 3f 63 9d bd f3 6c fa 3d 4e 4e b7 3d
       -0.1823922 -0.07684945 0.12227812 0.08950482
000260 ee 96 b1 bd 56 37 57 3d a5 18 51 3e eb a1 61 be
       -0.08671366 0.052543007 0.20419557 -0.22034423
000270 83 58 40 be dc 60 25 3e eb ce f7 3c 3b e4 0a 3e
       -0.18783765 0.1615023 0.030250033 0.13563626
000280 bc db aa bd ee a1 23 be ea 1e 33 3e 6f 63 60 3e
       -0.08342692 -0.1597974 0.17492262 0.21912931
000290 bc e8 aa bd 48 28 28 be e5 2a 56 be d2 bc 99 3b
       -0.08345172 -0.16421616 -0.209148 0.0046916986
0002a0 70 c2 8a bd bc a4 f3 3d b8 25 47 be 55 0b bb 3c
       -0.06775367 0.11896655 -0.19447982 0.022832552
0002b0 6f 37 b2 3d 03 08 c7 bd 70 53 21 3e 3f 77 12 bd
       0.08701979 -0.09718325 0.15754485 -0.035758253
0002c0 e8 11 59 be 1b 52 5d 3d 64 2f 61 3e 03 1e 0b 3e
       -0.21198237 0.05403338 0.21990734 0.13585667
0002d0 11 0a 0f 3d 89 ec 9a 3b c1 4a 9f bd 20 e8 1d 3e
       0.03492171 0.004727904 -0.0777793 0.1542058
0002e0 8f 41 4c be 4e 1f 52 be 05 af b8 3d 03 2b 2b bd
       -0.19946884 -0.20519754 0.09017757 -0.041789066
0002f0 e3 b1 23 3e 6e 5b 0e 3e 60 c9 d2 3d b1 d4 5f 3e
       0.15985827 0.13902065 0.102923155 0.21858479
000300 3f f0 4f be 46 b2 88 3c a1 5a 02 3e ed 4b 09 3e
       -0.2030649 0.01668657 0.12729885 0.1340787
000310 95 ea 1e be 09 03 47 bd 37 27 12 bd 4a 85 66 bb
       -0.15519173 -0.04858688 -0.03568193 -0.0035174661
000320 8b 59 9d bd 43 ed 00 be 6a b6 3a be 50 bf fd 3c
       -0.076830946 -0.12590508 -0.18233648 0.030975014
000330 f3 3c 0b be 38 23 4c be e1 84 25 bc 64 30 53 bc
       -0.13597469 -0.1993531 -0.010102482 -0.012889955
000340 1f c1 57 3e 5f 7a 4d be 09 8a 4e bd 74 14 40 3d
       0.21069764 -0.20066212 -0.05042461 0.046894506
000350 61 91 58 bd f0 9a 18 be e3 d4 81 3d 97 24 a9 3d
       -0.05287302 -0.14902854 0.06339433 0.08258932
000360 aa c7 07 3d 4e 6b 61 3e 0c b5 23 be 89 b0 9c bd
       0.0331494 0.2201359 -0.15987033 -0.07650859
000370 12 81 5f 37 20 04 06 bd 63 10 f9 3d 7a f8 ed 3d
       1.3321887e-05 -0.032718778 0.12161329 0.11619659
000380 78 60 0c bd f0 71 78 3d e0 12 11 3d ed 6c 68 3c
       -0.034271687 0.060655534 0.03541839 0.014186126
000390 0a 07 0f 3d c5 de 0d 3d ac 6f 23 be f7 b2 5e 3e
       0.034918822 0.034636278 -0.15960568 0.21747957
0003a0 2c ba 0d be d4 97 97 ba 6c 2b 50 3e 4c f3 94 3d
       -0.1384055 -0.0011565634 0.20329064 0.07272968
0003b0 04 ed 53 be 6e bc 7d bd 47 45 69 bd 55 70 ab bc
       -0.20695883 -0.06194728 -0.056950834 -0.020927588
0003c0 f4 09 3a be b6 06 ca 3b b9 78 0b bd 76 ab ef bd
       -0.1816786 0.006165351 -0.034050677 -0.117026255
0003d0 b0 83 4c be cc 71 b2 bd 90 4d 6f bb 85 f8 4a 3e
       -0.1997211 -0.08713111 -0.0036514737 0.19821365
0003e0 39 fd 56 bd 1b 78 2d 3e fa 62 ad b8 0e 5d 47 3e
       -0.052487586 0.16940348 -8.267719e-05 0.19469091
0003f0 a1 89 00 3d 0e 68 cc bb 2f 65 56 ba c0 f6 b7 bd
       0.031381253 -0.00623799 -0.00081785297 -0.08982611

linear_input.bias f4 [256]
000000 b2 88 60 3e a0 97 8e bd 29 43 e0 bd 65 03 97 bc
       0.21927145 -0.06962514 -0.1095031 -0.018434236
000010 58 cf d3 3b 1c 14 49 be 19 39 01 3c 66 09 9c 3c
       0.0064639263 -0.19636577 0.007887148 0.01904745
000020 a4 f1 09 3e 45 19 63 3c 64 cf e8 3c b6 65 80 3d
       0.13471085 0.013861005 0.028419204 0.062694
000030 75 d1 0d 3e f3 c7 13 3e d5 88 76 bc 96 60 70 bd
       0.13849433 0.14431743 -0.015047272 -0.05868586
000040 8a 13 e2 3d ab ea a6 3d d3 6d 35 be 9f 6f 05 3e
       0.11038883 0.08150228 -0.17717676 0.13030861
000050 34 ee c4 3d bd 44 3e bc 77 f6 d2 bd e7 d2 5c be
       0.09615746 -0.011613068 -0.10300916 -0.21564828
000060 ea 3b ba bd c2 f4 0b be 82 2c 2d 3d 80 89 2b be
       -0.09093459 -0.13667586 0.042278774 -0.16751671
000070 f0 ec ff 3b 3a e3 2b bd d9 86 67 3d d2 08 44 be
       0.0078102276 -0.041964747 0.056525085 -0.1914399
000080 e7 8b bb 3a 36 9e 76 3d ed 3a c4 bc 9f 10 3f bb
       0.0014308662 0.060209475 -0.02395388 -0.0029154194
000090 4d db 33 3d 0b c4 5c be 9b d1 0b 3e 2a 61 e1 bc
       0.043910313 -0.2155916 0.13654177 -0.027512152
0000a0 f0 15 11 be f7 34 28 be 7d ed 31 be ea d3 15 be
       -0.14168525 -0.16426454 -0.17375751 -0.1463162
0000b0 ef 93 c9 3d 39 21 2f 3e b3 0d 70 bb 1c cf e4 bd
       0.09842669 0.17102517 -0.003662926 -0.111723155
0000c0 d4 98 ef 3c 96 ad 87 bd d5 16 09 be 90 1e 1d be
       0.029247679 -0.06624906 -0.13387616 -0.1534369
0000d0 0a eb 58 be 37 68 c8 bd 66 c6 3f 3e 7f 4f 22 be
       -0.2118341 -0.097855024 0.18728027 -0.15850638
0000e0 12 ed 9d bd 01 60 68 bc 31 83 8f 3d 80 34 b1 3c
       -0.07711233 -0.014183045 0.07007445 0.02163148
0000f0 67 b1 66 bd ae 66 4a 3e 68 a8 42 3e b3 72 35 be
       -0.056321528 0.19765732 0.19009554 -0.17719536
000100 6d ce 01 3e 8f f2 08 bc da a0 51 be 19 5d 00 3e
       0.12676401 -0.008358612 -0.20471516 0.12535514
000110 ff 43 b9 bd a5 39 ba bd 41 c6 07 be 4f 62 ee bd
       -0.09046172 -0.09093026 -0.13259222 -0.116398446
000120 63 0d b5 bd 63 6b 3e 3e 70 5a e2 bc 2c d1 ab 3d
       -0.08840444 0.18595652 -0.027631015 0.08389506
000130 c8 3f 76 3d 9f 2b 16 be 16 73 94 3b 05 e7 3f be
       0.06011942 -0.14665078 0.004530321 -0.1874047
000140 49 22 1c 3e 9f 82 96 bd 2a fc 0e 3e 2e 01 39 be
       0.15247454 -0.07349133 0.1396338 -0.18066856
000150 70 9b a5 3c df 1b 70 bd 41 29 22 bb 99 72 24 be
       0.02021572 -0.05862033 -0.0024743828 -0.1605934
000160 ec 87 a2 3d fd a3 4e 3e c2 a9 a0 3c db fe 3f 3e
       0.07936081 0.20179744 0.019612197 0.18749563
000170 fd 4f a3 bd 37 db 05 be 9d d4 bf bd 6e 1d ec 3d
       -0.07974241 -0.13071905 -0.09366725 0.11529051
000180 1f a3 d2 3c 8e 1b 4d be ff ea 36 be 25 18 66 3d
       0.025712548 -0.20030043 -0.17863081 0.05617537
000190 f3 20 f4 ba 34 f4 0e 3e 17 fd fa 3a 10 d9 01 be
       -0.0018625542 0.13960344 0.0019148913 -0.12680459
0001a0 80 ee 09 3c 64 c5 c1 bd e1 bd a5 bd 2c fc 15 bd
       0.008418679 -0.094614774 -0.08092857 -0.036617443
0001b0 96 47 13 be 72 b1 7c 3d ec 02 52 be 7e af c9 bd
       -0.14382777 0.061692663 -0.20508927 -0.098479256
0001c0 ab 57 5b 3e 54 82 34 3e e0 8e d4 3d a9 9d 92 3d
       0.21420161 0.17627841 0.10378814 0.071589775
0001d0 92 cf a9 bc 0f e7 31 bd 8d 59 99 3d fd a5 45 be
       -0.02072886 -0.043433245 0.074877836 -0.19301601
0001e0 3a 06 2c 3e ea 39 36 be 80 f2 ad 3d 33 29 42 be
       0.1679925 -0.1779553 0.08493519 -0.18961029
0001f0 fb e0 3f be 34 35 72 bc 4b 04 86 3d d9 b8 44 3d
       -0.18738167 -0.014783192 0.065437876 0.048027847
000200 28 82 9b 3d 6f 2b 37 be aa 1d 59 3e 2f 93 2e be
       0.07593185 -0.17887662 0.21202722 -0.17048334
000210 01 6f 1a be c3 87 c6 3c 12 12 56 bb 36 01 a8 3d
       -0.15081407 0.024234658 -0.003266458 0.08203356
000220 49 a3 cc 3d d6 38 77 3b 2d a1 b6 3d 63 cc b0 3d
       0.09992082 0.0037723086 0.089174606 0.08632734
000230 a7 6e c8 bd f6 5d a1 bd b3 e2 93 bd 62 53 e5 3d
       -0.0978673 -0.0787925 -0.07220974 0.11197545
000240 17 33 5b be 63 d1 0a bc 7d 1f d8 3d 1d 9d 48 3e
       -0.21406208 -0.008472773 0.10552881 0.19591184
000250 35 f6 22 3d 5e ae 55 be 66 69 16 3c 5c b7 c8 bb
       0.039785583 -0.20867297 0.009180402 -0.0061253738
000260 e0 19 61 3e 43 06 7d bd 9b bc 21 3d bb 8b 49 3e
       0.21982527 -0.06177355 0.03948651 0.19682209
000270 53 65 10 be 0f 38 4b bc f8 4e 81 3d 45 73 15 3e
       -0.14101152 -0.012403502 0.0631389 0.14594753
000280 0b 5b 4d bd 3c 5f 8c bd 31 1b 60 3e 6e 27 03 3d
       -0.050135653 -0.06854102 0.21885373 0.032020025
000290 3b 0c 6f 3b d6 ec 09 bc 21 83 45 3d a0 05 21 3e
       0.0036475796 -0.0084182825 0.048220757 0.15724802
0002a0 75 bb c3 bb fe e0 42 3e d5 2f 3a 3e cb f4 d7 bc
       -0.0059732744 0.1903114 0.18182309 -0.026361844
0002b0 d3 09 30 3e 36 8b f0 bd 83 c5 56 be 4e f8 d0 3b
       0.17191248 -0.117453024 -0.20973782 0.0063772565
0002c0 ff ce 4a 3e 7b 31 12 3e 54 1b 3b 3e 05 58 03 3d
       0.19805525 0.14276688 0.18272144 0.032066364
0002d0 f9 42 bf 3d 8e 7a 90 bd ed 4e 4a be 5e a9 d5 3d
       0.09338946 -0.070546255 -0.1975667 0.10432695
0002e0 2e 93 e4 bd fa f8 46 bd ad 3f c8 3d 16 be 50 3e
       -0.11160885 -0.048577286 0.0977777 0.20385012
0002f0 c3 e9 49 bd 56 04 44 3e 65 7f 2c 3e 4d 28 17 be
       -0.0492952 0.19142279 0.16845472 -0.14761467
000300 eb 72 6d 3d 8b 44 56 3e 98 65 0c 3e 2b a5 57 be
       0.057970922 0.20924585 0.1371063 -0.210591
000310 d2 6a 0f 3e 21 71 5e be b8 ab 24 3e 1a 9a 96 3d
       0.14005592 -0.21722843 0.1608113 0.07353611
000320 c6 15 20 3d b5 fe ac bd ef 1b ad bd c8 bc e3 bd
       0.039083265 -0.08447019 -0.084525935 -0.111199915
000330 53 e2 c9 3d 1e 21 38 be dd ad 32 39 ec dd 27 3e
       0.09857621 -0.17981383 0.00017040172 0.1639325
000340 40 66 8e 3d 67 28 ea bd e6 4a 58 3e 4f 5c 06 be
       0.069530964 -0.114334874 0.21122321 -0.1312115
000350 74 0b 24 3e 9e ed 40 3c ea 10 42 3e 91 20 19 3e
       0.16019994 0.011775402 0.18951765 0.1495383
000360 d2 3c dd bd 9c 39 fd bc b9 30 29 3b f7 ce 9e ba
       -0.10802616 -0.03091126 0.0025816394 -0.0012116124
000370 89 42 00 be 60 ea 18 be 97 05 57 be ea c0 12 3c
       -0.12525381 -0.14933157 -0.20998226 0.008957127
000380 46 63 af 3d 63 5a 12 be fc 6a 29 3e d3 43 08 be
       0.08563857 -0.14292292 0.16544718 -0.13307123
000390 de a2 16 bd e9 0f 76 bd 4e 10 fe 3d 3c 5f 95 bd
       -0.036776416 -0.060073767 0.124054536 -0.07293555
0003a0 59 3b 06 3d 77 b2 07 be 9c 30 ff bd 6b e1 d4 3b
       0.032771442 -0.13251673 -0.124604434 0.0064965985
0003b0 eb 4e 35 3e a8 b6 10 3e 10 88 12 be 59 0d 98 bb
       0.17705886 0.14132178 -0.14309716 -0.004640263
0003c0 47 9d c9 3d 28 3f 4c 3b 41 a2 32 bb 88 b8 c8 bd
       0.098444514 0.0031165574 -0.0027257355 -0.098008215
0003d0 f2 28 80 bd 7c 73 13 bd 9b f3 32 3e c1 e8 b4 bd
       -0.0625781 -0.035998806 0.1747574 -0.08833457
0003e0 d5 ad 31 3c 45 c1 c5 3d 8c 76 f4 bd 58 22 0b bd
       0.010844667 0.09656004 -0.119366735 -0.0339683
0003f0 9d 6f 81 3b 73 ca 3e be 85 3d 22 3e 28 7f c1 bd
       0.003950073 -0.18631916 0.1584378 -0.09448081

linear_hidden.0.weight f4 [256, 256]
000000 60 33 1b 3d af 8d 35 bc 8f cd 6d 3b 84 8f 3c 3c
       0.037890792 -0.011081143 0.0036285853 0.011508826
000010 13 d1 8f 3b 8a e7 0c bd 85 7d 1c bd b0 8c 02 3b
       0.0043889373 -0.0344005 -0.038205642 0.0019920282
000020 c3 c3 12 bd 29 6d 11 bd 8d 1d 0a bb 8c 17 96 3b
       -0.035831224 -0.035504494 -0.0021074743 0.0045804437
000030 18 a6 8d 3c e3 68 96 bb dd c4 8d bc c1 47 76 3a
       0.017291114 -0.00459014 -0.017305786 0.00093948474
000040 3f 48 bd 3c c9 bd 1b 3d ae e7 29 b9 cf 64 7e 3c
       0.023105739 0.03802279 -0.00016203403 0.015526964
000050 91 e8 16 bc 5d a9 34 3c 33 91 99 bc 17 15 46 3c
       -0.009210722 0.0110267075 -0.018745994 0.012089989
000060 b9 7d c7 3c 6c 1b 17 bd 22 4a ca bc e5 ad ff 3c
       0.024351941 -0.036891386 -0.024693552 0.031210849
000070 79 9b f6 bc 4d a7 31 3c 31 aa ba bc 67 98 e2 3c
       -0.030103432 0.01084311 -0.022786232 0.027660562
000080 cd c2 e8 3c 0f 46 d5 bb ca 3e 03 bd 67 62 bd 3b
       0.0284132 -0.006508596 -0.032042302 0.0057795527
000090 8b 66 90 3c 35 3d 08 3d 5e 44 03 bd dc 48 68 39
       0.017627021 0.033261497 -0.032047622 0.00022152386
0000a0 02 21 be 3c 8a e4 ea bc 93 51 23 3d 2e 8d 95 3c
       0.023209099 -0.028673429 0.039872717 0.018255796
0000b0 1f de 3c 3c a6 73 e5 3c 84 50 95 3c 2f b9 f5 39
       0.011527567 0.028009247 0.01822687 0.00046868014
0000c0 c3 40 d8 3c f6 8c 09 bd c5 a5 19 3d 29 c5 c8 3c
       0.026398068 -0.033581696 0.037511606 0.024508076
0000d0 71 7c 8e 3c d8 70 65 3a ea 88 59 bc 0c 9c e5 37
       0.017393323 0.0008752472 -0.013277272 2.7371592e-05
0000e0 74 04 e9 38 5e 5a 9c 3c d0 b5 66 3c 19 df 97 3c
       0.00011111135 0.01908606 0.014081433 0.018538998
0000f0 c6 e2 7f 3b 7a c0 e2 bc 57 83 9e 3c ba c8 89 bb
       0.003904508 -0.02767967 0.019349737 -0.0042048367
000100 c7 0b a9 3b e4 c9 57 3a 12 d9 0a 3d ea 6c ce 3b
       0.0051588747 0.0008231683 0.03389842 0.0062996047
000110 41 4c 1e 3d 8d b1 73 bc 77 1a 09 bd 7e 1c aa 3c
       0.03864694 -0.014873874 -0.033472504 0.02076554
000120 39 99 a5 3b c8 c6 93 bb b1 f4 d3 3c a3 c4 b3 bc
       0.005053666 -0.0045097806 0.025873514 -0.02194435
000130 71 3c 77 3b ac 1b 17 bc b0 b2 21 bd 08 1f 2c 3d
       0.0037725235 -0.009222906 -0.03947705 0.04202178
000140 35 d9 1d bd 4d 27 03 bd 21 40 c8 3b c2 1e 84 3c
       -0.038537223 -0.032019902 0.0061111604 0.016127948
000150 ff b8 dc 3c d6 5a 1e bd e8 85 9e b9 1b aa 19 bc
       0.026943682 -0.038660847 -0.00030235876 -0.009378935
000160 7e 28 6a 3b 52 20 10 3b 70 0a d1 bc b3 cc b4 ba
       0.0035729702 0.002199192 -0.025517672 -0.0013793915
000170 ae cf e6 b9 fa 54 62 3b 6f af 91 bc 4d 63 c2 bb
       -0.00044023752 0.0034535513 -0.017783849 -0.0059322477
000180 56 b4 09 bc 91 79 be 3b 43 25 06 bd 98 76 01 3d
       -0.008404812 0.0058128317 -0.03275038 0.03160724
000190 b4 80 3a 3c db 3b ac 3c 6b 1b 16 3d d2 d6 21 3c
       0.011383224 0.021024635 0.03664724 0.009877877
0001a0 9d 6b 20 3b 5c c7 b7 bc 95 b0 d6 3c 68 d9 24 bd
       0.0024478205 -0.02243393 0.026207248 -0.040246397
0001b0 67 c7 bd 39 ed b9 be b8 4c be 71 bc b9 42 d0 3c
       0.00036197455 -9.0945374e-05 -0.014754843 0.02542244
0001c0 33 4d b8 bc a5 ae 1a bd 9b 85 30 3d 4b 46 bb 3b
       -0.022497749 -0.03776421 0.043096166 0.0057151667
0001d0 b0 48 aa 3b 01 48 1d 3b 48 d4 78 3c fb 68 3a bb
       0.0051966533 0.0023999217 0.015187331 -0.002844392
0001e0 2b 16 c6 3b d9 12 79 bb 77 a9 b1 bb de f9 03 bd
       0.006045123 -0.003800562 -0.005421813 -0.032220714
0001f0 06 c7 bc ba 79 4a 55 bc 7b ad 83 39 86 4a 93 3c
       -0.0014402575 -0.013018244 0.0002511552 0.017979871
000200 40 16 52 3c b7 a8 3e 3b f1 91 fc bb b9 54 36 3c
       0.012822688 0.002909226 -0.0077078273 0.011128598
000210 74 8e 97 ba 0f 4c d1 bb 3a 47 e3 bc 6c 42 29 3a
       -0.001156284 -0.0063872407 -0.027743924 0.0006456736
000220 8a 92 36 bc e9 d5 2f ba 58 5d a9 3a 42 49 dc 3c
       -0.011143336 -0.00067075953 0.0012921495 0.0268904
000230 4a 93 a9 bb 1c 43 9e 3c dd 57 df 3b a2 f2 d1 3a
       -0.005175029 0.01931911 0.006815894 0.0016017745
000240 6f ab d5 3b e1 ec 27 bb 34 45 fe bb c9 40 23 3d
       0.0065206806 -0.0025623369 -0.0077597145 0.039856706
000250 cd bd 2a bd 22 a8 33 bc b4 83 94 3c 70 a7 8d 3c
       -0.041684914 -0.010965379 0.018129207 0.017291754
000260 37 6b b3 39 ea 5a 29 3d 75 07 39 3c c6 8b 01 bd
       0.00034221422 0.041346468 0.011293282 -0.03162744
000270 7e b1 01 bc a2 d9 b3 3b 78 03 c8 3c 10 0a 2b bd
       -0.007915853 0.0054885903 0.024415717 -0.041757643
000280 f4 76 3b bc 0c c9 1f bd 9c 50 05 3a 09 62 3b bc
       -0.011441935 -0.039010093 0.0005085559 -0.011436948
000290 8d 78 c5 3b 25 02 3c bc 1d d7 8d bb 2c 15 17 3c
       0.0060263337 -0.011475121 -0.004328622 0.009221356
0002a0 2d 54 24 3d 2f 33 30 3b a9 fd 04 3d 57 b7 9f 3b
       0.04011934 0.0026885977 0.03246847 0.0048741507
0002b0 85 44 27 bd 98 47 6d bc 1f 7a b9 39 b2 d2 75 bc
       -0.04083683 -0.014482401 0.00035376937 -0.015003847
0002c0 3a 62 ea 3c 13 5d 0c 3d 00 61 30 3c e9 32 ee 3c
       0.028611291 0.03426845 0.010765314 0.02907701
0002d0 22 47 13 3d 74 30 1d 3c f9 f6 ce 3c 13 b3 dc 3a
       0.03595651 0.009594072 0.02526425 0.0016838036
0002e0 fa 58 0c bc 37 bd bd 3b 97 d2 27 3d 94 be f7 3c
       -0.008566136 0.0057903784 0.04097232 0.030242242
0002f0 44 85 78 bc 10 eb 22 bd b6 04 ec 3c 64 db 35 ba
       -0.015168492 -0.039774954 0.02881084 -0.0006937294
000300 b3 e3 fa 3c c8 87 e0 bc c9 35 e6 3c 7c 66 24 3d
       0.030626154 -0.027408496 0.028101819 0.0401368
000310 93 ab 4c bc 95 c0 01 bd 0c 04 4a bc b9 a0 08 bd
       -0.012492078 -0.0316778 -0.012330066 -0.033356402
000320 1e 33 f7 bc 37 12 b8 3c e6 df e2 38 ea 86 fb bb
       -0.030175742 0.022469623 0.00010818224 -0.007675995
000330 36 d1 4d b9 5a f7 84 bc 12 2c 9e 3b 4d a7 4f bc
       -0.0001962826 -0.016231228 0.004827031 -0.012674165
000340 5f ac 21 3c a9 d9 23 3c 30 bc 57 3c 02 a1 59 bc
       0.009867757 0.010000625 0.013167426 -0.013283016
000350 25 33 9a 3b 60 b5 a0 3c 97 d5 c9 bb 23 08 ac 3a
       0.004705804 0.019617736 -0.006159495 0.0013124984
000360 ad 65 9d bc 4c 58 01 3d 8a 4e 90 3c 69 74 6a b9
       -0.019213522 0.031578347 0.017615575 -0.00022359345
000370 46 fa 28 3c 45 4d 89 3c 1d 7c 19 bb 22 4a 80 3b
       0.010313576 0.016760478 -0.0023419925 0.0039150873
000380 c0 a8 a6 bc fa c5 b9 3b 8d 3d 31 bc 66 83 1b 3c
       -0.020344138 0.0056693526 -0.0108178975 0.009491777
000390 2f 19 2b 3b 1b ed 64 3c 57 af 1a 3c bf 10 0f 3a
       0.002610754 0.013972546 0.009441218 0.00054575125
0003a0 98 f5 87 3a fc 7d 84 3b c2 ca 0f bc 54 89 8a 3c
       0.0010372875 0.004043339 -0.008776369 0.016911186
0003b0 e1 2b cb 3c 47 94 b6 3a 05 31 a0 3b 16 fd 6f 3c
       0.024801197 0.0013929688 0.004888656 0.014647743
0003c0 49 87 d7 3c 2c 67 ec 3b fb 02 f2 3c ea 0b 1f bd
       0.026309626 0.0072144475 0.029542437 -0.03882972
0003d0 47 f5 c4 3c de de 20 3d 90 61 cc 3c b2 54 77 39
       0.024042739 0.039275043 0.024948865 0.00023587307
0003e0 9a 2e a7 3c 22 86 c5 3b a2 60 08 bd 6a 35 dd 3c
       0.020407964 0.006027953 -0.03329528 0.027003009
0003f0 29 ec 82 bc d9 7c 1b bd 75 8c 22 bd 45 0b 15 3c
       -0.01598175 -0.03796086 -0.03968473 0.009096925

linear_hidden.0.bias f4 [256]
000000 42 d2 f2 bc a6 5c 1b 3d 8b 7d d1 3a 1f 83 9c 39
       -0.029641274 0.037930153 0.0015982849 0.00029852331
000010 bb fc 39 3d 08 c5 e5 bc b5 9b a6 3c 78 41 47 bc
       0.04540704 -0.028048053 0.020337919 -0.012161605
000020 f7 50 e7 bc 7b 21 2d bb 7a 73 f8 bc 60 95 28 bb
       -0.02823685 -0.002641766 -0.030328501 -0.00257238
000030 4d 04 0f bd 99 0f b3 bc 10 88 07 bc a0 4d db 3c
       -0.03491621 -0.021858023 -0.008272186 0.026770413
000040 74 6d 0f bd ef 52 17 bc b1 3c 7c 3c 18 65 39 bc
       -0.035016492 -0.0092360815 0.015395329 -0.011315607
000050 12 e6 2b bc 65 c1 46 bc 4d 51 52 3c 3e c7 20 3d
       -0.010491865 -0.01213107 0.012836766 0.039252512
000060 45 ff 02 3d 64 55 29 3d d2 36 fc b9 62 a8 33 bd
       0.031981725 0.0413412 -0.0004810603 -0.043861754
000070 de cf 14 3b 3b 39 d6 3a ec bc 1e 3d e8 0d a0 bc
       0.0022706906 0.001634396 0.03875439 -0.019537881
000080 ea 52 5f b9 d6 a7 2d bc 9f 65 92 bc 34 6e ae 3c
       -0.00021297825 -0.010599097 -0.017870722 0.021292783
000090 05 ec 19 bc 18 ff ca 3a 9c de 27 3d 78 aa 07 bc
       -0.00939465 0.0015487401 0.04098378 -0.008280389
0000a0 5d 4a 29 bd a0 62 db 3b 6d 6b cc bc 5c fc 38 bd
       -0.041330684 0.0066951066 -0.024953568 -0.045162544
0000b0 77 14 97 bc 98 c1 0b bd 9c 80 91 bb c2 9c 38 3d
       -0.018442376 -0.034120172 -0.0044403803 0.04507137
0000c0 60 8f c0 3b 20 41 c0 bc 8c ca 53 3c e0 64 d0 3c
       0.0058764666 -0.023468554 0.012926709 0.025438726
0000d0 47 3e 9b 3a b2 74 ad 3b e3 42 b5 3a 07 e0 b6 bb
       0.0011844122 0.005293452 0.0013829138 -0.0055809054
0000e0 a8 bf 9d 3c 30 80 15 bd 73 59 27 bd cc 8e 26 3d
       0.019256428 -0.036499202 -0.04085679 0.040663525
0000f0 a3 8b 8a bc 8a fc 17 3d fe 6f ea 3a f6 b0 01 bd
       -0.016912287 0.037106074 0.001788616 -0.031662904
000100 a6 43 0e bd ff bb 0d bd ef c2 b6 bc 73 f9 9e bc
       -0.034732483 -0.034603115 -0.022309748 -0.019406056
000110 93 ea 0f 3c cc 41 e4 39 5a 66 9e 3c 58 11 38 bc
       0.008783954 0.0004353657 0.019335914 -0.011234604
000120 e8 7f 0d 3d 5f 1b 12 3d b5 a8 34 3a 9f 66 c2 bc
       0.03454581 0.035670634 0.00068915944 -0.023730574
000130 bf c6 96 bb d3 89 b3 3c 60 2f 29 3d 05 18 95 3b
       -0.004601329 0.021916306 0.041304946 0.0045499825
000140 76 0a 2d bd 49 33 b6 39 2b 4c 8b bc 51 30 bb 3c
       -0.042246304 0.00034751956 -0.017004093 0.022850187
000150 2e 5f 37 bd f8 18 00 3d 12 fa 83 3c 1b 37 74 ba
       -0.044768505 0.031273812 0.016110454 -0.00093160727
000160 08 97 02 bc f9 48 c5 bc 85 ce 04 bc 3c 38 20 3c
       -0.007970579 -0.024082648 -0.008105879 0.009779032
000170 39 3d 25 3c b2 85 92 bc 7a bc a3 bc c2 48 ce bc
       0.010085397 -0.017886017 -0.019987334 -0.025181178
000180 81 9e eb 3c 5b 70 28 bc 68 7e 0f bc 66 fd da bc
       0.028762104 -0.010280694 -0.008758165 -0.026732158
000190 92 ca c9 bc 84 78 2f bd 90 a7 bd 3c bc ec fd ba
       -0.024632726 -0.042839542 0.02315119 -0.001937292
0001a0 cc 08 8e 3c 9c 30 a4 3c fa 45 c6 bb 21 53 4a bb
       0.017338179 0.02004271 -0.0060508223 -0.0030872303
0001b0 92 51 55 3c b2 9a aa 3c b9 62 9f bc 05 44 c8 bc
       0.013019936 0.020825718 -0.019456254 -0.024446497
0001c0 54 5e a9 bc c2 ca d0 3a 21 f8 93 bc c1 93 ba bc
       -0.020674862 0.0015929567 -0.018062653 -0.022775533
0001d0 74 05 32 bb 72 8f 33 bd c7 8e e7 bc ce 53 d9 3a
       -0.0027163895 -0.043837972 -0.028266324 0.0016580762
0001e0 95 9e 5c 39 ea d1 f7 3c 6f 9a 41 bb 0d 9c 15 bc
       0.00021039911 0.030251462 -0.0029541512 -0.009131444
0001f0 48 63 7d bc 45 46 ba 3b d0 29 97 3c c2 1e 14 3c
       -0.015465565 0.0056846463 0.018452555 0.009040536
000200 18 d8 18 bd c6 7a c0 3b 4d 6a fe bc 47 bb 1b ba
       -0.037315458 0.0058740107 -0.031056548 -0.0005940687
000210 a4 8f 1f bd fe a2 79 bb 50 05 bd 3c b1 72 86 39
       -0.038955346 -0.0038091536 0.023073822 0.00025643923
000220 a4 59 45 bd 7e ea a9 bc b7 db 22 3d e7 2a 1d 3d
       -0.04818119 -0.020741697 0.039760318 0.038370993
000230 1f 4d 9c 3b 1d ce cb 3c ce 33 ee 3b 15 eb 0e bc
       0.0047699357 0.024878556 0.007269359 -0.00872304
000240 e5 2e 74 bc c8 a9 81 3a 02 76 44 bc c3 88 0e bd
       -0.014903759 0.0009892518 -0.011991026 -0.034798395
000250 f2 2c 18 3d 05 c6 ac bc d9 d7 d9 3c e6 0e 89 3c
       0.03715224 -0.021090517 0.026592182 0.016730737
000260 b2 8d 87 3c 3d 9e eb bc e0 c4 9d bb 0b a8 17 bd
       0.016547058 -0.028761977 -0.004814729 -0.037025493
000270 3f f7 ed ba 32 ec 42 bb 33 a5 af 3b 94 d8 42 3c
       -0.001815535 -0.0029742834 0.0053602695 0.011892457
000280 90 90 1a bc 91 f4 14 3d dc e3 53 3b 15 f1 28 3b
       -0.00943388 0.03636605 0.003233186 0.0025778462
000290 a0 cc 19 bc ab 85 34 bd f7 51 97 3b 56 17 20 3d
       -0.009387165 -0.04407279 0.0046179253 0.039084755
0002a0 98 b2 56 bc e2 d0 25 3a 64 8a 1c bd 3b 92 dd bc
       -0.0131041035 0.00063253765 -0.038217917 -0.027047267
0002b0 47 09 08 3d a0 d2 0a 39 cc 96 ac 3c b3 ae 60 3c
       0.033211973 0.0001323917 0.021068 0.013713527
0002c0 14 de 99 3b f7 20 16 3c ba 4b 00 3c c5 c8 10 bb
       0.004695663 0.009163133 0.007830555 -0.0022092324
0002d0 3f 06 21 3c 08 de 87 bc c8 29 06 bb ec 9e 81 bc
       0.009828149 -0.016585365 -0.002047168 -0.01582285
0002e0 b9 c4 95 bc a8 77 36 3c ab b5 36 3d 0f 65 10 3d
       -0.018282281 0.011136927 0.044606846 0.035252627
0002f0 75 f1 12 bd 5b 2b a6 3c b1 17 e0 3b 70 57 26 bd
       -0.035874803 0.020284345 0.0068387617 -0.04061073
000300 78 00 2b 3b 91 e9 98 3c ce b3 7b 3c a1 01 39 3b
       0.0026092809 0.01866606 0.015362693 0.002822973
000310 ac 1b 1b bd 98 b0 0d b8 68 91 56 3c 99 0c 98 3c
       -0.037868187 -3.3781485e-05 0.013096191 0.018560695
000320 1a 13 3d 3c 49 be 17 bd f9 6a 38 3c 27 14 09 3d
       0.011540199 -0.037046704 0.011255973 0.033466484
000330 b4 8a 65 3c e8 54 97 3c 62 82 b7 3c 85 e7 4e bc
       0.01401012 0.018473104 0.022401039 -0.012628441
000340 b9 8c 20 3d 0f bc f2 bc a8 4e 08 3d f2 12 8b ba
       0.039196704 -0.029630689 0.033278137 -0.0010610505
000350 02 10 38 bd fd c9 ba 3c 13 a3 05 bc 33 4d a0 bb
       -0.04493714 0.022801394 -0.008156556 -0.0048920154
000360 2f 63 7b 3c 7f 5d 5f 3c 38 94 ee bc 29 bc d1 ba
       0.015343471 0.013633131 -0.02912341 -0.0016001511
000370 cd 2b c2 bc eb 4e 28 3c 08 36 9f 3b 61 1a 16 bc
       -0.023702526 0.010272722 0.004858736 -0.009161563
000380 79 4b 22 bd d9 10 f0 bc 64 c3 b8 3c f1 2e 8e 3b
       -0.039622758 -0.029304909 0.022554107 0.004339092
000390 79 95 e5 bb 50 e5 ce 3c 5e b2 1d bd 2e d3 1a 3c
       -0.007006344 0.02525583 -0.038500182 0.009449763
0003a0 1b b4 ed 3b 76 34 ef 3b c1 fa 38 bd 78 67 fc 3c
       0.0072541363 0.007299955 -0.045161013 0.030811056
0003b0 2c cc 3f bd 08 28 f1 bb 20 16 a1 3c 86 cf 6f bc
       -0.046825573 -0.0073595084 0.01966387 -0.01463688
0003c0 0f 96 2d bc 90 d9 ee 3c c7 51 af bb bf f9 25 b9
       -0.010594859 0.029156476 -0.005350325 -0.00015828664
0003d0 f5 c3 52 3c 3e bf da bc 67 94 0e bd 72 6a c7 3b
       0.012864103 -0.02670252 -0.034809496 0.0060856873
0003e0 e0 5b 0c 3d b1 23 56 3c d8 4e cb 3b 9d b5 30 bd
       0.034267306 0.013070033 0.0062044673 -0.04314195
0003f0 9f 82 4e bc 17 b5 68 3a 28 fd 38 3d ee 62 90 bc
       -0.012604385 0.0008877082 0.045163304 -0.017625298

linear_output.weight f4 [1, 256]
000000 97 9f 05 bc cf e7 f3 bc ef b9 b6 ba f1 cb bf bc
       -0.008155725 -0.02977362 -0.001394091 -0.023412677
000010 74 ba e6 3c 0d a3 95 bc 22 1a 13 bc e9 07 c0 bb
       0.02816508 -0.018266225 -0.0089783985 -0.005860318
000020 d4 f3 2a 3b 9a f2 2f bc ae 6b b3 bc e4 71 32 bc
       0.0026085274 -0.010738993 -0.021901932 -0.010891411
000030 6f ec 16 bc bd d9 31 3a 0a fb a1 ba e1 c6 fc b8
       -0.009211644 0.00067844597 -0.0012358141 -0.000120533405
000040 1e 50 96 b9 d9 79 2f bc 8a 8e a9 bb 4e 6c aa bc
       -0.0002866992 -0.010710203 -0.0051744627 -0.020803597
000050 bc b2 d2 3c df 51 e6 bc b0 76 3d 3c 8d b0 80 ba
       0.025719993 -0.028115211 0.011563942 -0.0009818241
000060 fa 84 b4 bc f9 22 b5 bb e7 7d 72 bb d2 33 eb bb
       -0.022036064 -0.0055278507 -0.0037001313 -0.0071778083
000070 10 82 b9 bb 01 f3 5b ba 78 81 d2 bc 65 4d 2c bc
       -0.0056612566 -0.00083903974 -0.025696501 -0.010516499
000080 5e 76 43 bc 79 5f a0 3c 77 41 a5 bc df 3b 86 ba
       -0.011930076 0.019576775 -0.020172818 -0.0010241232
000090 03 17 b8 bc e1 88 99 3a fe 95 1f bc 9a 19 cb bc
       -0.02247191 0.0011713767 -0.009740351 -0.024792481
0000a0 a2 c0 a4 9a fe e3 d3 bc 32 e0 c9 ba aa c8 b9 bc
       -6.8140025e-23 -0.025865551 -0.0015401898 -0.022678692
0000b0 1a c6 15 bb 10 32 72 bc fd ac b2 bb 6c 91 b2 bc
       -0.0022853673 -0.014782444 -0.0054527507 -0.021797858
0000c0 31 51 b2 3b 51 dc d3 bb f6 c5 34 bc 47 e5 b4 bc
       0.0054418077 -0.0064654727 -0.011033526 -0.022081984
0000d0 56 12 1a bc 67 e3 ba bc fb 55 65 bc 2f f7 96 bb
       -0.009403786 -0.022813512 -0.01399755 -0.0046071033
0000e0 c8 6b 54 ba a8 16 15 bc de b0 d1 bb 91 d1 73 bc
       -0.0008103219 -0.00909964 -0.006399258 -0.0148815075
0000f0 33 b1 dc 3b 11 bc 07 bb 60 e9 60 39 08 e4 30 bb
       0.006734991 -0.0020711462 0.00021449244 -0.0026991386
000100 ef 5f 5a bb bd 0e 94 bc 93 55 8f bc e3 55 b3 3b
       -0.003332134 -0.018073434 -0.01749686 0.005472885
000110 4a 84 bc bc 15 12 0b bb 34 75 fd ba a7 00 c2 bb
       -0.0230123 -0.0021220495 -0.0019337297 -0.005920488
000120 81 fa 1d bc 9a a4 c3 bc a5 f6 fe bc aa 9d 93 bc
       -0.009642244 -0.0238822 -0.031123469 -0.018019516
000130 15 38 8b bc a9 11 40 bc ba 01 4f bc 38 c8 80 bb
       -0.016994515 -0.0117229605 -0.012634689 -0.003930118
000140 32 ff c1 bc 7b 6f 9b bc 3e b0 8b bb 44 30 01 bb
       -0.023681257 -0.018974056 -0.004262953 -0.0019712606
000150 af 60 b8 bb df e6 03 bb 23 0d 2e 3a 53 d8 77 bb
       -0.00562676 -0.0020126624 0.0006639531 -0.0037818148
000160 68 9a 07 bb 52 dc 00 bd 28 77 8a bb 5f d9 29 bc
       -0.0020691399 -0.031460114 -0.0042256303 -0.010366767
000170 86 2e 59 bb ee bd 5a bc d9 81 bc bc c0 43 d9 bc
       -0.0033139302 -0.013350947 -0.023011135 -0.026521564
000180 08 c5 c6 bb 77 47 1d bc 25 e8 8a bc 26 0b d2 bc
       -0.0060659684 -0.009599558 -0.016956398 -0.025640082
000190 93 97 48 bc 0b da e5 bc e8 02 22 bc a9 34 b0 bb
       -0.012243169 -0.028058073 -0.009888388 -0.0053773713
0001a0 64 71 86 3a c0 db 03 3d 7c da 5d bc f7 26 80 bc
       0.0010257182 0.03219199 -0.01354086 -0.01564358
0001b0 72 ec 3c bb 5b 11 11 b9 63 dd ca bc 30 94 e6 3c
       -0.0028827456 -0.00013834743 -0.024763769 0.028146833
0001c0 35 4a 88 bc 12 e1 2b bc 15 ae fe bb 28 36 b8 bc
       -0.016636947 -0.010490673 -0.007772217 -0.022486761
0001d0 7e d0 35 3b 9d 05 dc bc 27 7f b3 bc 1e c9 d1 bb
       0.002774268 -0.026858145 -0.021911217 -0.006402149
0001e0 1d b9 07 bb 62 00 d8 bc 40 e7 6f bb b9 ea 15 bc
       -0.0020709701 -0.02636737 -0.0036606342 -0.0091502005
0001f0 ca e4 56 bc 31 e8 6c 3b e7 89 73 3b 2c 08 0d 3c
       -0.013116071 0.003614914 0.0037161054 0.008607905
000200 43 d9 07 3c 49 6b 50 3b 26 70 ea 3a 41 02 8d b9
       0.008291545 0.0031802228 0.0017886206 -0.00026895295
000210 25 8b 98 bc dd 10 cf bc eb 90 84 bb 6d 8a f6 3a
       -0.018621037 -0.025276596 -0.004045596 0.0018809565
000220 6f c8 0a bc 64 f4 9e bc f3 9b 52 bc 47 64 a5 bc
       -0.008470639 -0.019403644 -0.012854564 -0.020189418
000230 31 12 9f bb ff c5 bd 3b c8 e2 7b bc 60 3b c3 bb
       -0.0048544635 0.0057914252 -0.015373893 -0.005958006
000240 6a 29 d0 bc 1b eb a3 3b e2 36 6f ba 2c c9 cc bc
       -0.025410373 0.005002392 -0.00091253046 -0.02499827
000250 ad e6 50 bc 45 81 21 3b 56 86 99 bc 3c 14 9b bb
       -0.01275031 0.00246437 -0.018740814 -0.0047326367
000260 ca 02 23 bc ab 02 8f bc e3 1a d7 38 e4 a2 45 3a
       -0.009949395 -0.017457327 0.00010257007 0.0007539226
000270 6d d2 0a b7 9d f0 a0 bc 48 eb d0 bc 1a e6 74 bc
       -8.274435e-06 -0.019645983 -0.025502816 -0.014947439
000280 3c 98 37 bb fb bb c2 3c f5 88 b2 3a 48 bb 28 bc
       -0.0028014323 0.023771277 0.0013621139 -0.010298558
000290 35 c1 46 bb 31 74 c3 bc 85 55 70 bc 52 38 f4 bc
       -0.0030327563 -0.023859115 -0.014668827 -0.029812012
0002a0 ae 26 0b bd b2 28 31 bb a1 c8 ba bc 81 ea d5 3a
       -0.033972435 -0.0027032313 -0.022800745 0.0016320498
0002b0 e5 c9 64 bb f0 e9 6f 3a 46 85 a4 bc 43 79 82 bc
       -0.0034910378 0.0009151986 -0.020083081 -0.015926963
0002c0 9a 1a bf bc 19 ae 3a bc 25 47 ab bc dd bc 2e bc
       -0.023328114 -0.011394047 -0.020907948 -0.010665146
0002d0 08 0d fc 3b d1 2e 2d bc 2c d5 ee 85 a3 db 91 bc
       0.007691983 -0.010570244 -2.245972e-35 -0.017804926
0002e0 e4 fe 99 bc 5a 05 9a bc ce 83 19 3c 4e 3b 8c 3b
       -0.0187983 -0.01880138 0.009369804 0.0042795306
0002f0 ca e8 1a bc 49 34 7c 3c 33 d9 5a bc 7c df 80 bc
       -0.009454915 0.015393325 -0.013357448 -0.015731566
000300 16 a8 d4 bc 1d a4 e0 bb 3b 8f 91 bb 84 1a bb bc
       -0.025959056 -0.0068555013 -0.004442123 -0.022839792
000310 f0 1a 1c bc ac 19 84 bc cb 25 c1 bb 03 2a 58 3b
       -0.009527907 -0.016125523 -0.005894398 0.0032984025
000320 d3 8b 6b bb 20 87 54 bb ec c6 de bb 2a 5f 4d bc
       -0.0035941496 -0.0032429174 -0.0067986157 -0.012534896
000330 c6 9f 27 bc a2 e3 92 bc 93 f7 a3 ba db 36 d8 bb
       -0.010230964 -0.01793081 -0.0012509696 -0.006598336
000340 f8 b1 25 3b e0 da 66 bb 6d 97 9c bc e5 c9 5c bc
       0.002528308 -0.0035225675 -0.019115174 -0.01347587
000350 64 4e a7 bc 32 f6 21 bc 8a 66 8c bc e6 4a 35 bc
       -0.020423122 -0.009885358 -0.017138738 -0.01106522
000360 58 20 a5 3c 7a da 82 ba 5f 3a 5e bc 50 15 eb bc
       0.020157024 -0.0009983324 -0.013563721 -0.028696686
000370 85 fd a9 bc c1 d9 9a 3c d8 36 a1 bc c9 50 7a bb
       -0.02075077 0.018902661 -0.019679472 -0.0038195124
000380 b4 d8 64 bc cd 47 83 bc 9e 97 35 3c d0 d3 8e bc
       -0.013967682 -0.016025448 0.011083512 -0.017434984
000390 36 6b a5 bb 05 7a 8b bb 7d 5c 21 1b 4c 27 67 bc
       -0.005048181 -0.004256489 1.3347492e-22 -0.01410849
0003a0 e1 a8 c0 3b f9 70 b8 3b 17 70 dc bc a2 80 8d bb
       0.005879507 0.0056287018 -0.026908917 -0.0043183127
0003b0 df 3c da bc 4d 30 50 bb 6f 48 fd 3a 08 12 0f bc
       -0.026640354 -0.003176707 0.0019323955 -0.008732326
0003c0 52 54 9e bc 20 8d 80 bc 55 4c cf bc 4c a3 19 bc
       -0.019327316 -0.015692294 -0.025304953 -0.009377312
0003d0 a3 52 e8 39 2e 85 cc bc 5b f8 ab bc 8c 61 4d bc
       0.00044312057 -0.024965849 -0.020992449 -0.012535464
0003e0 f0 80 1b 3c 71 03 29 3b 5a 70 b2 bc fb 41 9d bc
       0.00949119 0.0025789405 -0.021782089 -0.019196501
0003f0 3f 60 a3 bc d2 4f e2 ba 7c e7 cf bc 38 8c 84 bb
       -0.019943355 -0.001726622 -0.025378935 -0.0040450357

exp_avg f4 [256, 17]
000000 86 74 d4 3a 97 58 ee ba 84 b5 08 3b 63 ec d6 3a
       0.0016209043 -0.0018184361 0.0020860145 0.0016397353
000010 a9 05 a5 b9 b2 4d 89 ba 2b 1a ae ba 0a c0 92 3a
       -0.0003147547 -0.0010475426 -0.0013282945 0.0011196148
000020 a5 5b fa 3a 56 51 0b 3a 01 66 1a 3b 7a c2 7a ba
       0.0019100799 0.0005314549 0.0023559334 -0.00095657224
000030 fe 45 23 bb e1 8d e4 3a bb 0f 01 3b 39 cc c2 3a
       -0.0024913545 0.0017437303 0.0019693214 0.0014861888
000040 57 75 f2 b5 99 ce 2b ba 0a 5f 8e 39 16 b2 ba 3a
       -1.8064555e-06 -0.0006553918 0.0002715516 0.0014243748
000050 bb 4c bc ba b6 50 e8 b9 7d 17 4d 39 08 13 03 39
       -0.0014366129 -0.00044310623 0.00019559074 0.00012500223
000060 26 33 c6 3a e7 b1 48 ba 09 bc 23 b9 25 84 82 ba
       0.0015121445 -0.0007655904 -0.0001561494 -0.0009957595
000070 41 56 b8 ba e9 49 51 3a bb a0 d8 37 f2 ab a1 3a
       -0.0014063792 0.0007983731 2.5824052e-05 0.0012334569
000080 e8 d6 cb b7 b3 1e 90 3a 5f e5 f7 3a 6a 99 9e 3a
       -2.429956e-05 0.0010995477 0.0018912962 0.0012100164
000090 f6 16 8e b7 c1 ec 8f ba 85 2d 14 b9 bc 82 05 3b
       -1.6938411e-05 -0.0010980592 -0.00014131337 0.0020372113
0000a0 e1 b5 c6 39 32 48 85 3a 69 09 d2 ba e7 ff f6 3a
       0.00037901013 0.0010168611 -0.0016024533 0.0018844575
0000b0 2e dc ac 3a fc 4a 3a 3a 1a de 20 3a f9 b6 cf 38
       0.0013188177 0.00071065105 0.00061366113 9.9046105e-05
0000c0 cc de 5c ba 87 21 85 b9 fd 1f 20 3a 9e 5d 13 38
       -0.00084255333 -0.00025392717 0.0006108282 3.513472e-05
0000d0 36 4a 13 3b 50 f1 09 3b 4c 9f 82 3a cb 6a 9b 3a
       0.0022474653 0.0021048374 0.0009965687 0.0011857388
0000e0 c1 ee 0a bb 9f e2 2c 39 c7 0d 05 3b 27 f2 bf 3a
       -0.0021199437 0.00016487621 0.0020302401 0.001464431
0000f0 64 fa f3 ba 3f 00 62 ba 64 96 39 b9 af d2 0f 3a
       -0.0018614051 -0.00086212525 -0.00017699 0.00054864114
000100 29 3c e1 b8 5f fa 65 3a b3 8d a0 ba 1d 1f f0 3a
       -0.00010740042 0.0008772965 -0.0012249261 0.0018319819
000110 37 4a a4 b8 15 bd c5 3a da 68 ed ba b3 9a db 3a
       -7.833953e-05 0.0015086258 -0.0018112913 0.0016754478
000120 63 51 c6 35 99 9e c6 b8 67 87 8d b5 29 32 50 b8
       1.4775836e-06 -9.470917e-05 -1.0544726e-06 -4.963778e-05
000130 59 24 38 39 e8 33 a6 ba 5a 83 88 b6 f7 98 39 ba
       0.00017561148 -0.0012680264 -4.068407e-06 -0.00070799835
000140 d0 76 85 ba c2 87 ab ba d6 38 f5 ba fb f2 40 b7
       -0.0010182504 -0.0013086724 -0.0018708955 -1.1500665e-05
000150 b2 0b 2a 39 e8 eb de 39 6d 86 15 bb 0a 84 05 bb
       0.0001621682 0.00042518904 -0.002281572 -0.002037289
000160 97 9d 85 3a 21 28 a8 b9 10 6e c7 3a 2f b1 67 3a
       0.001019406 -0.00032073355 0.0015215296 0.0008838353
000170 06 94 61 3a 15 91 27 38 1d 9c ac 3a 16 67 df 37
       0.0008605126 3.995102e-05 0.0013169084 2.6631675e-05
000180 05 e8 05 bb e2 d8 cb ba 09 e8 88 3a c2 6a 05 bb
       -0.0020432484 -0.0015552307 0.0010445128 -0.0020357822
000190 4b 51 7a ba d2 d6 02 bb 10 97 81 3a 7f 4e e2 3a
       -0.0009548857 -0.0019964469 0.0009886939 0.0017265825
0001a0 04 2e 96 ba 89 cd a4 ba f8 bd 6c ba 51 03 00 39
       -0.0011457806 -0.0012573461 -0.0009030993 0.00012208267
0001b0 bf 41 f2 ba dd ef 9c b8 a5 e3 a1 39 de 61 82 39
       -0.0018482729 -7.483338e-05 0.0003087792 0.0002486845
0001c0 40 72 f0 39 a4 30 0c bb dc 93 96 ba fa a3 c5 ba
       0.0004586149 -0.0021391297 -0.0011488157 -0.0015078776
0001d0 6f b4 85 3a 32 c2 82 3a 76 1a 03 3b b1 05 12 3b
       0.0010200868 0.0009976088 0.0020004786 0.0022281224
0001e0 c6 aa be 3a df 25 61 ba fb 91 bf ba 9c 41 09 3b
       0.0014546744 -0.0008588712 -0.0014615649 0.0020943647
0001f0 23 b0 94 3a a1 6a 98 3a f2 b7 c4 3a 3a 4c ec ba
       0.0011343997 0.0011628458 0.0015008433 -0.0018028088
000200 a8 c0 44 3a 59 00 5f 3a 99 11 9a b9 c8 6b af ba
       0.00075055147 0.00085068267 -0.0002938628 -0.0013383562
000210 cc 42 0a 3b 4b 90 7b b9 44 1b d3 3a 1c 00 48 3a
       0.0021096943 -0.00023990979 0.0016106148 0.0007629411
000220 c4 ee d3 ba fb ec 84 b9 0d d5 51 3a b5 45 1d 39
       -0.001616918 -0.00025353566 0.00080044643 0.00014998655
000230 61 52 92 ba aa 38 8e 3a b7 37 d6 3a 90 30 12 3a
       -0.0011163467 0.0010850627 0.0016343509 0.00055766944
000240 ea b6 5f 3a e5 53 fa ba 0d c6 b3 ba f7 b9 b5 39
       0.0008534031 -0.0019098489 -0.001371564 0.00034661565
000250 6d bf c7 ba 15 46 29 ba 57 07 99 3a b5 09 6f 3a
       -0.0015239544 -0.00064572814 0.0011675161 0.0009118573
000260 94 1a 21 ba 6f b9 23 3a 5f 53 fb 3a 63 f9 0d bb
       -0.0006145623 0.00062455883 0.0019174627 -0.0021663539
000270 d9 57 ff ba a5 a4 e1 3a 42 2d 2c 39 9b 55 b7 3a
       -0.0019481137 0.0017215206 0.00016420058 0.0013987304
000280 49 f5 6c ba 9b 3c c3 ba a6 f2 d1 3a b5 61 12 3b
       -0.0009039236 -0.0014895381 0.001601775 0.002233607
000290 df 05 6d ba 5a bf c6 ba 06 88 03 bb b2 bb fb b7
       -0.00090417074 -0.0015163228 -0.002007009 -3.0008934e-05
0002a0 b4 85 3e ba 47 d1 a3 3a b1 cf 03 bb d7 ff df 39
       -0.0007267848 0.0012498283 -0.0020112807 0.0004272449
0002b0 79 da b7 3a f3 11 91 ba 3a 28 c7 3a 3c 81 32 b9
       0.0014026902 -0.0011067971 0.0015194484 -0.00017023546
0002c0 3a de d0 ba 46 91 d6 39 60 d9 0c 3b 18 3b ca 3a
       -0.0015935369 0.00040925498 0.002149187 0.0015428988
0002d0 15 fb 66 3a fc ef b7 b8 01 ef 5e ba e6 00 c0 3a
       0.0008811218 -8.7708206e-05 -0.0008504242 0.0014648705
0002e0 33 06 e4 ba 43 7a 01 bb 2d ca 97 3a ff cb ca b9
       -0.0017396867 -0.0019756712 0.0011580639 -0.0003868043
0002f0 8b 1b e4 3a de d2 a2 3a 45 e7 90 3a b1 76 11 3b
       0.0017403228 0.0012422462 0.0011055252 0.002219599
000300 54 e2 f7 ba 0f 9a 8f 37 1f d2 b0 3a 61 f5 b3 3a
       -0.0018912056 1.7118668e-05 0.0013490355 0.0013729745
000310 33 1a b9 ba f4 9a 27 ba 3b b3 95 b9 0d 66 a6 b9
       -0.0014122188 -0.0006393634 -0.00028553032 -0.0003173802
000320 4f e6 62 ba ab 0f 8b ba 64 f4 f0 ba a6 12 be 39
       -0.00086555345 -0.0010609528 -0.0018383381 0.00036253518
000330 66 59 93 ba de a0 dc ba c9 09 43 ba 79 83 2e 39
       -0.0011241853 -0.001683261 -0.0007440118 0.0001664291
000340 91 5c 19 3b e9 dd dd ba fe 8e 96 ba 37 a6 48 3a
       0.002340112 -0.0016927096 -0.0011486707 0.00076541625
000350 a6 cc 9e b9 4f 63 9a ba 7a 95 21 b7 a9 31 93 3a
       -0.00030288583 -0.0011778864 -9.6311505e-06 0.001123001
000360 49 42 e5 b8 ab e4 b8 3a 92 8a d5 b9 12 bc c8 b9
       -0.000109319175 0.0014106234 -0.0004072977 -0.00038287096
000370 1c fb 6d 39 3b 3a a5 b9 af c7 a0 3a b7 c4 98 3a
       0.00022695627 -0.00031514638 0.0012266542 0.0011655305
000380 ad ee af b9 72 6c 23 3a 17 fc be 39 41 79 17 39
       -0.00033556428 0.0006234116 0.00036427446 0.00014445653
000390 8c 3c bd 39 b1 53 be 39 14 8d d0 ba df c3 0e 3b
       0.00036094 0.0003630198 -0.0015911185 0.0021784229
0003a0 7b 8a b4 ba 52 0b 98 36 11 c2 05 3b bd 8c 3f 3a
       -0.001377418 4.531271e-06 0.0020409862 0.00073070434
0003b0 d7 81 07 bb 1a 6f 25 ba d5 2f fe b9 c5 0e 90 b9
       -0.0020676756 -0.0006310806 -0.00048482293 -0.00027476824
0003c0 bf 71 e3 ba eb 05 1b 38 a0 b3 84 b9 0b 68 a2 ba
       -0.0017352625 3.696039e-05 -0.00025310833 -0.0012390626
0003d0 16 24 fb ba e4 d9 6b ba 23 8a 6f 38 a7 3c fb 3a
       -0.0019160535 -0.0008997007 5.711069e-05 0.0019167856
0003e0 d2 58 e8 b9 59 08 db 3a 1f 07 27 b7 a7 94 fc 3a
       -0.00044316665 0.0016710862 -9.955634e-06 0.0019270376
0003f0 1c 40 cf 39 31 ec 15 37 15 35 18 38 10 61 8f ba
       0.00039529882 8.936085e-06 3.628906e-05 -0.0010938961
