src/scripts/ddpg/weights/critic_best.pth (torch, 853167 bytes, 15 tensors)

linear_input.weight f4 [256, 17]
000000 6e 62 d1 3b e8 f6 92 3b c1 4e 9a 3a e0 c0 f3 3b
       0.0063899076 0.004485 0.0011772738 0.007438764
000010 7e 04 99 3b af 8b 50 3c 8c 17 22 3c 76 c6 f3 3b
       0.004669725 0.012728616 0.009893309 0.00743943
000020 9f bd 85 3b ae a0 ba 3c 72 7a 98 3c a2 cc f3 3b
       0.0040814425 0.022781696 0.018613074 0.0074401656
000030 c1 ed 41 bd e9 8f 5d bc 9d 79 8c 3d fe d0 46 3d
       -0.04734588 -0.01352308 0.068591334 0.048539154
000040 ec 59 49 bd 4d 96 ad 3b 68 a6 05 ba 4d 80 c1 b8
       -0.04915802 0.0052974583 -0.0005098344 -9.226855e-05
000050 c5 e5 66 bb 6c 64 93 3b f6 1e bf bb 6f f0 e2 bb
       -0.0035232168 0.004498055 -0.0058325483 -0.0069256346
000060 8f 34 67 bb 98 80 1c 3b 83 d9 6d bc 22 c0 3d bc
       -0.003527913 0.0023880359 -0.014517191 -0.011581453
000070 8d 7c 68 bb 60 74 c6 bd 33 d7 08 bc f7 cf 46 bd
       -0.0035474629 -0.096901655 -0.008352089 -0.048538174
000080 a3 48 27 bd ba c7 3b bd 8a 18 af 33 02 65 61 32
       -0.040840756 -0.04584477 8.153536e-08 1.311969e-08
000090 a6 c2 8d 33 f3 f3 bd b2 05 7e 66 33 3e 73 90 b3
       6.6012305e-08 -2.2113431e-08 5.3665662e-08 -6.726485e-08
0000a0 4a 8b 12 b4 2c 94 e7 b2 c4 9a c2 32 a1 c6 1d b4
       -1.3647983e-07 -2.695932e-08 2.2654952e-08 -1.4694025e-07
0000b0 4c 01 a0 b4 59 d1 fc b2 b3 fc c8 b5 8a 07 cd b4
       -2.9803266e-07 -2.9431861e-08 -1.4974706e-06 -3.818971e-07
0000c0 08 c6 0b b5 45 00 d2 b4 11 65 1f b5 fb 6c 66 3c
       -5.206971e-07 -3.9115744e-07 -5.9379187e-07 0.014064069
0000d0 cc fd 3c bc 64 9c c1 bc 57 c5 1f 3a f9 fa 83 3c
       -0.011535119 -0.023634143 0.00060947746 0.016110884
0000e0 aa 7a 8b bc ae 86 b5 bc 13 74 1a 3a 02 33 92 3c
       -0.017026264 -0.022158947 0.000589193 0.017846588
0000f0 6e fe c0 bc 08 24 ea bc 7a b1 28 3a 21 67 82 3c
       -0.023558822 -0.028581634 0.00064351375 0.015918316
000100 e0 ea 8d 3c ac 89 6a bc 5e 42 46 bb 27 f1 27 bd
       0.017323911 -0.01431505 -0.003025196 -0.041001465
000110 f7 86 1b 3a 55 cf 9b 3b e6 3b 5f bc 93 c1 9e 3a
       0.0005932892 0.0047549405 -0.013625121 0.0012112133
000120 18 80 9e ba cc cc 19 3c 60 ac 4a bc 2a d8 a0 3a
       -0.0012092618 0.009387206 -0.012370199 0.0012271453
000130 d5 8d 15 bb 97 6c 85 3c 49 ce 46 bc 09 d1 99 3a
       -0.0022820134 0.016287131 -0.012134143 0.0011735271
000140 86 ee a9 bc 62 d3 04 bc d5 98 c0 3c 59 87 05 3c
       -0.02074362 -0.008107038 0.023510376 0.008149945
000150 bb 73 f8 3c e4 4e 98 3b fc a9 af bb d3 54 01 bb
       0.030328622 0.0046480764 -0.00536084 -0.0019734397
000160 25 45 c6 bb 1b 7e 5a 3b e6 c5 63 bc 7a 91 2b bc
       -0.006050723 0.0033339325 -0.013902163 -0.010471696
000170 af 23 c7 bb e7 ce 87 b9 89 22 e5 bc 57 17 9a bc
       -0.006077252 -0.0002590336 -0.02797057 -0.018809957
000180 f5 bb c6 bb 22 ec f2 bd 1f c5 93 bc 84 7d a2 bd
       -0.0060648867 -0.11861445 -0.01803833 -0.079340965
000190 c7 9e 90 bd e0 6e 88 bd a5 91 3d 9b 82 d9 97 19
       -0.070615344 -0.06661773 -1.5680774e-22 1.5700885e-23
0001a0 ff bc 37 1c 05 4f a5 98 46 43 ec 9a 2c 5f ff 16
       6.0793893e-22 -4.273129e-24 -9.7716e-23 4.1257534e-25
0001b0 d4 64 8b 18 bb b9 92 18 09 27 44 9a 81 5b a3 17
       3.603247e-24 3.7927655e-24 -4.0563382e-23 1.0556727e-24
0001c0 21 2f dd 19 35 cc 9e 99 5f b5 bb 9a 23 b4 82 19
       2.28699e-23 -1.6419296e-23 -7.763441e-23 1.3514442e-23
0001d0 d2 d9 ab 18 1a 7e a3 17 49 7d 7a 19 5c d7 88 a3
       4.4422406e-24 1.0565461e-24 1.2949998e-23 -1.4836358e-17
0001e0 5e 20 98 a4 c4 b2 f4 26 e3 16 f2 24 9a 1a 77 a5
       -6.5974324e-17 1.6979356e-15 1.0498954e-16 -2.1432848e-16
0001f0 01 44 a6 a3 95 43 1b 27 17 7a 44 24 94 4d 01 25
       -1.8026557e-17 2.1547207e-15 4.260414e-17 1.1215251e-16
000200 07 54 ee a4 a3 93 9d 26 74 4b ec a4 70 b5 89 24
       -1.03358395e-16 1.093408e-15 -1.0247651e-16 5.9721646e-17
000210 6e b3 be 25 70 f7 9c 23 df 34 81 25 f6 f7 23 26
       3.3081332e-16 1.7018348e-17 2.241376e-16 5.6888035e-16
000220 34 2b fe b9 e0 96 d9 39 4e 5c 84 b9 55 b3 8b b9
       -0.00048478844 0.00041501876 -0.00025245774 -0.0002664576
000230 fa ae 03 ba c5 69 d9 37 25 09 7f ba b3 69 8c b9
       -0.0005023327 2.5917669e-05 -0.00097288407 -0.00026781633
000240 85 8c 23 ba ba d0 0b ba c3 f9 d2 ba f1 15 8f b9
       -0.00062388956 -0.0005333532 -0.0016096163 -0.00027291433
000250 51 14 aa 3a dd 45 bf ba e4 2b b8 ba 77 26 a4 ba
       0.0012976025 -0.0014592964 -0.0014051166 -0.001252367
000260 bb 20 3a bb e8 3c 35 3c 01 79 03 3c 35 f2 0d bc
       -0.0028400857 0.011061884 0.008024455 -0.008663704
000270 a8 5a 54 3c 98 cc 08 3c 96 18 bb 3c d3 33 c1 3c
       0.012961067 0.00834956 0.022838872 0.023584282
000280 55 2a 54 3c c1 5b e7 3b 4a 36 27 3d c1 e7 ec 3c
       0.012949546 0.0070604985 0.04082326 0.028919103
000290 6d bf 54 3c 1c 69 b5 bd 43 34 c9 bc 0c 8b fc 3d
       0.012985093 -0.08857939 -0.024561053 0.123312086
0002a0 74 cf a3 3d 2a 33 b3 bd 33 e5 73 17 50 82 29 18
       0.07998553 -0.08749993 7.8806825e-25 2.190853e-24
0002b0 f5 8c 8b 94 8d 85 3b 13 cb 59 65 17 53 02 15 97
       -1.4091011e-26 2.3668564e-27 7.4107225e-25 -4.814743e-25
0002c0 67 76 99 96 eb d1 49 95 95 13 cb 96 92 3d 37 96
       -2.4793206e-25 -4.0757223e-26 -3.2808777e-25 -1.480205e-25
0002d0 a6 bb 97 1b 69 8f c9 16 d6 ed 13 15 ea 1f 1d 14
       2.510212e-22 3.2563806e-25 2.9874033e-26 7.932768e-27
0002e0 c0 84 b3 16 a6 a6 cd 96 d8 e5 88 97 92 ae da 3b
       2.9002787e-25 -3.3224706e-25 -8.846815e-25 0.0066736424
0002f0 f1 80 92 bb aa 4c 1e 3a 33 64 47 3a 6e 37 fb 3b
       -0.0044709374 0.00060386455 0.00076061784 0.00766652
000300 ef 66 b6 bb a9 fa 12 3b 4b 90 46 3a e6 70 14 3c
       -0.00556647 0.0022427237 0.0007574602 0.00906012
000310 70 34 f0 bb 16 96 96 3b b4 3f 48 3a c5 20 0d bc
       -0.00733047 0.0045955284 0.0007638887 -0.00861377
000320 93 3d 51 3c 2e 01 4f bb ec 90 5a 3c 3b df 90 b9
       0.012771028 -0.0031586397 0.013340216 -0.0002763214
000330 2d ff db bb 3e c2 84 3b 7e 68 e0 bb bf 34 63 bb
       -0.006713769 0.004051476 -0.006848394 -0.003466889
000340 a8 c8 e5 bb 0b d7 be ba 43 58 53 bc 7d 6d 64 bb
       -0.0070124455 -0.0014559937 -0.012899461 -0.00348553
000350 73 be 0c bc df 52 13 bc a1 39 9c bc a4 6e 63 bb
       -0.0085903285 -0.008991926 -0.019070448 -0.0034703398
000360 00 f6 84 3c a6 4c 8c bc 16 a8 60 bc 25 b2 ad bc
       0.016230583 -0.017126393 -0.01371195 -0.02120311
000370 11 55 3b bd aa 24 8d 3c 1d 3b 2e 3c 0b 8d d5 bc
       -0.045735423 0.017229397 0.010634211 -0.026068231
000380 a1 27 91 3c 8c 75 38 3c 2d 78 fc 3c ef 8c 11 3d
       0.017719092 0.011258494 0.030819023 0.035534795
000390 3a 1b 91 3c b4 ab 0b 3c f0 0f 61 3d f7 cc 3f 3d
       0.017713178 0.008524824 0.05494684 0.04682633
0003a0 21 96 91 3c f9 30 f5 bd aa 99 08 bd af 32 2b 3e
       0.017771782 -0.119722314 -0.03334967 0.16718553
0003b0 00 c7 de 3d 07 dc f3 bd 2e d9 b4 25 c2 7f ae a5
       0.108778 -0.11907201 3.137219e-16 -3.027076e-16
0003c0 59 f9 9a a4 19 3e 44 23 bf 29 16 a5 fd 85 82 25
       -6.7209265e-17 1.0638331e-17 -1.302457e-16 2.26422e-16
0003d0 78 e6 14 26 d6 8f a4 23 c9 50 2e a7 b0 d9 61 a5
       5.166016e-16 1.7841833e-17 -2.4191145e-15 -1.9589394e-16
0003e0 f3 77 ad a1 4e fb 70 a5 54 36 e7 24 63 b8 2b 23
       -1.1754686e-18 -2.0901827e-16 1.00272316e-16 9.308974e-18
0003f0 8a 5f 93 24 83 ba 40 25 4c 6d 7a a5 79 4e b7 24
       6.391294e-17 1.6716538e-16 -2.1721075e-16 7.949654e-17

linear_input.bias f4 [256]
000000 6c 1b 32 3d 59 fc a2 bc 0c 18 d8 b3 4e 14 4a 3b
       0.043483183 -0.01989572 -1.0062658e-07 0.0030834856
000010 a1 6d e8 3b 5a 2f 01 bd ff 86 9b 9c 31 30 4e 26
       0.007093147 -0.0315393 -1.0291935e-21 7.153592e-16
000020 55 a1 fd ba 67 14 95 3d 74 fb 13 97 6f bc 84 3b
       -0.0019350449 0.07279282 -4.781564e-25 0.0040507833
000030 89 eb 99 bc 1e 25 c0 3d 90 8c 9a a6 5a cd 90 25
       -0.01878907 0.093820795 -1.0723996e-15 2.511917e-16
000040 88 c5 a1 38 89 45 2f b9 f2 f0 57 2d 3f 94 89 b6
       7.713871e-05 -0.00016715204 1.2274836e-11 -4.1001763e-06
000050 14 ee 4a 22 52 74 a3 38 60 8f 1b 20 a8 63 27 1a
       2.7502142e-18 7.794112e-05 1.317645e-19 3.4615292e-23
000060 74 85 57 3c 84 97 1d ba b1 8f 12 b2 8b a7 50 3a
       0.013154376 -0.00060116523 -8.53099e-09 0.0007959536
000070 fd 04 eb bc 0e d5 c5 26 4e 6a 14 b8 08 66 87 bc
       -0.028688902 1.372737e-15 -3.5384954e-05 -0.016528144
000080 8b 1a 23 bd 38 cc 6d bd 7c 86 d6 bb 32 40 5a 3b
       -0.039820235 -0.058056086 -0.0065467935 0.0033302424
000090 3e 23 d8 3b 0f 5f b6 3d 51 70 2c b8 b4 1c b9 3b
       0.006595998 0.0890485 -4.11126e-05 0.0056491736
0000a0 25 5e c6 37 1b 0e c8 15 93 be f1 bc 6b 8a 9b 3d
       2.3647279e-05 8.080161e-26 -0.029509818 0.075947605
0000b0 9e f3 d3 3a f7 bc b0 3c 49 0f 2a 9d e8 d8 85 b1
       0.0016170626 0.02157448 -2.2507215e-21 -3.895469e-09
0000c0 eb 29 b9 b7 04 6b a9 bc ac cf 08 26 35 c8 11 bd
       -2.2073238e-05 -0.020680912 4.7465926e-16 -0.035591323
0000d0 5d 6a 5e bd 16 4a a5 39 1f 0b e5 2d 14 7d f3 25
       -0.054300655 0.0003152645 2.6039225e-11 4.2238537e-16
0000e0 11 00 00 80 df d7 eb 2c a9 d6 42 bd 76 1d 7f 3c
       -2.4e-44 6.7030682e-12 -0.047567997 0.015570989
0000f0 ca 01 2d 1a 27 1d df 1c 11 a9 e5 3a c6 59 1c bd
       3.5777007e-23 1.4764438e-21 0.0017521699 -0.038171552
000100 37 99 e0 1d e3 55 52 bd aa c3 a3 9c 09 df e5 3d
       5.9450727e-21 -0.05135144 -1.0837013e-21 0.11224181
000110 12 d8 6d 3d 65 0e f6 bc ce 4e be bc af 04 ab 38
       0.05806739 -0.03003616 -0.023230936 8.154788e-05
000120 28 4e 6f 37 38 9b cb bc 25 e5 50 16 c9 83 e7 15
       1.4263707e-05 -0.024854288 1.6874411e-25 9.350808e-26
000130 55 9d ad 9b 11 e5 84 3b e0 98 07 bd b1 bb 21 1f
       -2.8722123e-22 0.004055627 -0.033104777 3.424833e-20
000140 3a 80 8b 1e 30 2b a8 bc 75 1a 85 9e ae d6 fd aa
       1.477023e-20 -0.020528406 -1.4092865e-20 -4.5090792e-13
000150 18 94 25 39 71 92 3e bd c2 77 bc bb c0 6e 0a 3d
       0.00015790795 -0.046526376 -0.005751581 0.033797026
000160 98 62 c8 29 c9 2f 6b 97 a7 4c 0e bd 33 fb 29 9c
       8.8988875e-14 -7.599291e-25 -0.03474107 -5.6242077e-22
000170 99 f1 87 20 3f 65 9e 3d ac 6e cc 9e 98 df 94 20
       2.3029765e-19 0.07734155 -2.1645113e-20 2.5220137e-19
000180 b7 4d 11 b3 ce 11 c6 ae 7e 37 42 95 7b 23 d5 17
       -3.3831125e-08 -9.00716e-11 -3.9221764e-26 1.3773759e-24
000190 eb 15 b0 3c 8e 60 73 aa 89 ae 82 ba 40 cb e2 ab
       0.021494826 -2.1616235e-13 -0.0009970228 -1.6114679e-12
0001a0 b9 d5 d0 3b 1c 4c e5 3a 81 cb 25 3d b9 86 5f 24
       0.006373134 0.0017493996 0.04047728 4.846953e-17
0001b0 75 5e 45 bd 05 87 77 bc ac 94 bb 1a de ff d2 b5
       -0.048185784 -0.015107875 7.758158e-23 -1.5720686e-06
0001c0 43 b0 13 bd 03 f0 7d b9 94 9e b4 3b 8b 08 e4 30
       -0.03605677 -0.00024217372 0.005512068 1.6591611e-09
0001d0 1d 1a 70 b9 d2 38 d5 bc 27 e7 09 b0 ff 31 46 bd
       -0.00022897912 -0.02602807 -5.0168797e-10 -0.048387524
0001e0 db e2 2d b3 cd cc a2 3d f8 82 a0 b8 c8 f1 14 bd
       -4.0486025e-08 0.07949219 -7.653789e-05 -0.036363393
0001f0 d3 d6 82 3c 2c 70 41 bc 6b 10 e2 3b a2 53 fc bc
       0.015971577 -0.011806529 0.00689893 -0.030801598
000200 4a dd 5d 3d c4 de 56 0a 7d 33 e5 bc e6 ac 3d 38
       0.054166116 1.0345623e-32 -0.027978653 4.5222136e-05
000210 f6 f7 35 9c e5 82 57 3c 3c 46 05 3c d1 8b 95 3b
       -6.020836e-22 0.013153766 0.008134421 0.0045637866
000220 ef 6b b7 b9 5f 05 c1 16 d3 a5 9e 35 d3 8d 02 33
       -0.00034984897 3.1184221e-25 1.1820179e-06 3.0396972e-08
000230 45 51 28 3c c2 e1 1d 3c 2d ff f3 b8 d6 f5 de bc
       0.010273282 0.009636344 -0.00011634673 -0.027216833
000240 e1 d0 bb 38 02 7e 66 bb 61 9f 60 3c fc 45 01 24
       8.9557616e-05 -0.0035170321 0.013709874 2.8031695e-17
000250 c9 ac cf 1f 36 a8 9a ba 22 3b a4 98 6f d4 b0 94
       8.795376e-20 -0.0011799398 -4.2452715e-24 -1.7855249e-26
000260 72 af 9a 13 d8 3e 11 3b 18 b5 d2 2e 78 a8 1c ad
       3.9048068e-27 0.0022162702 9.581863e-11 -8.904981e-12
000270 7f 0b fb ba 23 ed a1 bc f3 14 7f 24 98 fb 2e 26
       -0.0019153206 -0.019766396 5.5312055e-17 6.070935e-16
000280 c7 b9 0a bc e1 cd 9a 3b 29 d2 9c b1 3a 89 0e 25
       -0.008467144 0.0047242497 -4.56409e-09 1.2363031e-16
000290 a9 43 81 3d f6 dd 45 bc b3 3a 03 2d 76 d6 ad 3c
       0.06311733 -0.012076845 7.459522e-12 0.021220427
0002a0 c2 c2 23 3d 0b 5b 35 bd 03 36 2d 3d 50 0e fc 39
       0.039980657 -0.04427628 0.042287838 0.0004807585
0002b0 2e ff ee 3b b9 fa ca b8 09 81 4a a1 d6 91 4f 3b
       0.0072936034 -9.678811e-05 -6.861104e-19 0.0031672618
0002c0 c9 fe 23 3b 0c c7 d2 21 4f 03 00 00 54 33 db bc
       0.002502369 1.4282841e-18 1.187e-42 -0.026757874
0002d0 13 9e 1c 9a 5c bf 12 3c 09 91 d7 b6 ed 55 45 ba
       -3.2387735e-23 0.008956756 -6.4243836e-06 -0.00075277576
0002e0 a8 4c 5d 9c 09 12 d2 3b e6 4f 37 3c e1 ee 33 2d
       -7.322184e-22 0.0064108414 0.011188483 1.0228014e-11
0002f0 1b 56 0b 39 06 37 d0 31 ac 4f 10 b3 a1 8c bb 27
       0.0001328815 6.059852e-09 -3.3600074e-08 5.2055397e-15
000300 29 8a e2 24 02 d1 20 3b f7 7e 70 bd 8e f6 a4 2e
       9.824593e-17 0.002453864 -0.058714833 7.5016535e-11
000310 6b bc 3e 32 40 20 6b b4 96 7f 2b bc ae 6c 85 b3
       1.1102297e-08 -2.1897813e-07 -0.010467431 -6.213064e-08
000320 49 55 70 3b f8 c4 56 97 8c 8a 79 bc 82 31 48 98
       0.0036671928 -6.939574e-25 -0.015230786 -2.587439e-24
000330 42 0c 51 a6 4d 1c ed 14 3d fb 18 22 90 9b 01 bd
       -7.2528054e-16 2.3942047e-26 2.0732846e-18 -0.031642497
000340 14 72 8f 3b f6 03 cb 21 9c 93 9f 38 be 3a b2 3b
       0.004377613 1.3756864e-18 7.609205e-05 0.0054391315
000350 7f df 6f 3d e5 66 64 3d 01 2a 21 9c 84 7e e9 23
       0.05856275 0.05576219 -5.332472e-22 2.5315492e-17
000360 4b e3 4d 9d bb 18 93 3d 8c e7 48 b8 62 bb 76 3c
       -2.7249032e-21 0.07182451 -4.789936e-05 0.015059324
000370 3a 4c 20 a7 91 fd 56 ba 71 76 08 3d 71 ba 8d b7
       -2.2245783e-15 -0.00082012365 0.03331608 -1.6895328e-05
000380 8c 28 a5 ac 4c 01 00 80 9e da 08 b5 45 00 00 00
       -4.6940837e-12 -4.65e-43 -5.098208e-07 9.7e-44
000390 fb e2 27 9c 44 63 12 b7 ed a6 59 3b 86 0a d1 bc
       -5.554903e-22 -8.72539e-06 0.0033211068 -0.025517713
0003a0 96 48 92 bc 57 01 8a 3c 19 75 31 a5 1b 1c 14 bb
       -0.017856877 0.016846342 -1.5391977e-16 -0.002259976
0003b0 0d 88 5e b9 72 52 f3 22 82 ce 10 b6 fa b0 b5 3b
       -0.00021222253 6.5952574e-18 -2.1577875e-06 0.005544779
0003c0 4f 4b cf 96 bc 60 77 b6 45 e8 fd bc e0 06 2d 3c
       -3.349018e-25 -3.6862175e-06 -0.030994544 0.010560721
0003d0 da a5 4b bd db 41 f0 bc ea ac d3 3d ce 10 df 26
       -0.049718715 -0.029328277 0.10335715 1.5478288e-15
0003e0 47 93 13 3c 0b c8 03 9a 4f f1 1d bd 99 d4 ef bc
       0.009007282 -2.725176e-23 -0.038560208 -0.02927618
0003f0 ce 64 48 9c 0e 55 00 3c 6e a1 84 bc 73 05 0c 3d
       -6.6304736e-22 0.007832779 -0.016190257 0.034184884

linear_hidden.0.weight f4 [256, 256]
000000 2e bc 27 3a 36 d1 a2 bb a6 4a b2 b3 f6 74 73 3b
       0.00063985854 -0.0049687875 -8.3023494e-08 0.0037148572
000010 6f 62 c1 39 11 d9 c8 bb bf ca 3b 98 1e 32 1c 22
       0.00036885167 -0.006129392 -2.4271544e-24 2.1168474e-18
000020 96 f8 ae b7 1a 3d a5 3a 96 47 c2 16 2e b1 3d ba
       -2.0858173e-05 0.0012606711 3.1387567e-25 -0.00072361797
000030 76 2f 88 38 1e a1 e5 3a 82 94 86 23 9a 44 38 a3
       6.493826e-05 0.001751933 1.4591205e-17 -9.989187e-18
000040 ea 53 97 3a f9 d9 5f 3a 0d 95 83 ad 9f e8 10 36
       0.0011545394 0.00085392554 -1.4959168e-11 2.1593075e-06
000050 9b 7e df a0 ad 24 34 b6 66 b0 ae 9f 89 06 85 99
       -3.786145e-19 -2.6843438e-06 -7.398369e-20 -1.3754517e-23
000060 fc 2c 19 bb ad ed 19 ba f9 e7 25 b1 0d a8 03 3b
       -0.002337276 -0.0005871903 -2.4142521e-09 0.002008918
000070 5f ee f4 ba d6 ff ab a5 c4 76 71 37 91 c8 76 bb
       -0.0018686763 -2.9837133e-16 1.4392372e-05 -0.0037656168
000080 7a 60 2c bb da a2 18 b9 89 c0 0d bb 7c eb 7b 3b
       -0.0026302622 -0.00014556517 -0.0021629652 0.003843992
000090 88 9e d7 3b 2f a2 9c 3a d5 65 4c 3a 06 1b b0 3b
       0.0065801777 0.001195019 0.00077971566 0.005374315
0000a0 83 e6 4c b5 a4 0f 8a 14 c9 39 15 3b 20 39 c2 3a
       -7.633136e-07 1.3940608e-26 0.0022770038 0.001481805
0000b0 01 0c 40 3b 4a d5 4f 39 0c 4a a5 97 1a db 37 b1
       0.002930403 0.00019820515 -1.0681567e-24 -2.675455e-09
0000c0 cd 46 af 36 19 3d 99 bb 38 ab 8c a5 4a 2b 3f 3b
       5.2236487e-06 -0.004676473 -2.440215e-16 0.002917009
0000d0 e9 f3 81 bb 92 56 ab b9 56 3b bf ac 99 bc eb a4
       -0.003965844 -0.00032680162 -5.435134e-12 -1.022345e-16
0000e0 36 02 00 80 dd 1d 17 aa cf ae 05 ba fb 2f 3c bb
       -7.93e-43 -1.3421855e-13 -0.0005099596 -0.0028715122
0000f0 47 f3 73 99 bf 24 a1 9b 09 70 94 b9 41 24 5b 3b
       -1.2611935e-23 -2.6658962e-22 -0.00028312232 0.0033438357
000100 49 1f 12 1e cc f1 4b b9 36 91 f7 18 14 e6 07 3b
       7.735645e-21 -0.00019449665 6.399463e-24 0.0020736502
000110 8f 52 82 3a 9f 10 f5 ba 64 25 ac bb 62 3c 83 b8
       0.0009942817 -0.001869697 -0.0052534807 -6.257814e-05
000120 1f a6 00 b5 0c ad df 3a 4d 5e e3 95 97 3f 20 15
       -4.7925454e-07 0.0017065122 -9.183335e-26 3.2361906e-26
000130 c4 cd 70 95 77 ab bb 3b 23 e0 09 bb b5 e7 36 9f
       -4.8629934e-26 0.0057272273 -0.0021038137 -3.8731663e-20
000140 83 50 da 9d a7 ba 93 bb 1d 7f a1 9c f6 97 b6 27
       -5.7787367e-21 -0.0045083347 -1.0686944e-21 5.0679904e-15
000150 d0 5b 88 b7 dd 33 52 bb a3 3f e9 ba 97 be 02 3a
       -1.6255217e-05 -0.003207437 -0.0017795454 0.00049875065
000160 2b 8e 09 27 df 64 62 96 66 ba 35 3b 56 f3 a3 9a
       1.9089639e-15 -1.8287964e-25 0.002772951 -6.780835e-23
000170 f6 47 9f 9f e5 62 81 3a a2 5f 42 9e 56 aa 41 9f
       -6.745817e-20 0.0009871392 -1.0290051e-20 -4.1010238e-20
000180 1a 5d f9 b1 ac d3 ae 2a 65 d2 78 93 82 35 89 15
       -7.257438e-09 3.1055486e-13 -3.1405733e-27 5.541828e-26
000190 04 b7 77 bb 37 1d 1f aa 00 50 c8 ba e7 2c 38 a6
       -0.0037798295 -1.4132173e-13 -0.0015282631 -6.389868e-16
0001a0 21 bd 9a ba 49 b8 37 3b 2b 78 0d 3a 49 da e4 a2
       -0.0011805632 0.0028033426 0.00053966296 -6.2030642e-18
0001b0 73 3e 37 bb 2a 9c 9b 38 ee 28 cf 99 c9 97 20 32
       -0.0027960807 7.420064e-05 -2.141983e-23 9.347738e-09
0001c0 ca 17 e0 bb 06 d2 e6 39 16 e4 85 39 32 f4 ce ae
       -0.0068387734 0.00044025498 0.00025537674 -9.411173e-11
0001d0 67 ee db 39 4b 27 af bb 8e 08 1e ad 07 30 5c bb
       0.0004194856 -0.0053452603 -8.98316e-12 -0.0033597962
0001e0 dc 63 fb 2f 40 ee b7 3a eb 64 38 36 18 d0 14 b9
       4.5727588e-10 0.0014032796 2.7476879e-06 -0.00014191901
0001f0 ae 79 f3 38 29 5e 1b 3a 70 42 a1 ba cb ee 1a 3b
       0.000116098076 0.0005926812 -0.0012303125 0.0023640867
000200 5d 9d 82 3a a6 9d 99 0b bc 1d 0c 3b 2f 02 b5 b6
       0.0009965111 5.917066e-32 0.0021380028 -5.3944746e-06
000210 66 26 05 8e 6d 22 4f 3a 0a 16 c4 ba e7 cd 50 ba
       -1.6412004e-30 0.0007901553 -0.0014960181 -0.0007965252
000220 b0 98 97 39 03 79 3e 95 58 f0 4b b4 fb 48 0c b1
       0.00028914725 -3.8465656e-26 -1.8993285e-07 -2.0414166e-09
000230 3f 2e ea ba 73 d2 5b bb 20 bf 83 38 57 90 f7 3a
       -0.0017866566 -0.0033542186 6.2821666e-05 0.0018887621
000240 4d 25 bb 3a d2 6b 1b 39 30 e2 2f 3a eb 44 bb a1
       0.0014278084 0.00014822118 0.0006709425 -1.2689855e-18
000250 25 bc 69 9b 9b 4c fc ba 9a 93 a6 16 3f 33 c3 95
       -1.9334101e-22 -0.0019248904 2.6911896e-25 -7.8840725e-26
000260 76 39 ed 12 26 6c 3b 3b f9 c4 75 2c 77 03 ef a9
       1.4970968e-27 0.0028598397 3.4925936e-12 -1.0614333e-13
000270 e3 95 66 b9 12 05 97 3a b1 54 b8 a1 c1 44 dd a4
       -0.00021990346 0.0011521897 -1.2490743e-18 -9.5959946e-17
000280 02 2b f4 b9 27 2b 5c ba bd 8e b2 b0 0e be fe a3
       -0.0004657135 -0.0008398764 -1.2991773e-09 -2.7619226e-17
000290 6f 28 32 3a 44 a2 9f 38 8b 24 0d ac d1 bb 84 3a
       0.0006796186 7.611935e-05 -2.005759e-12 0.0010126774
0002a0 8d e5 0a 3a 26 bb 45 bb 4d d6 16 3a b2 70 cd 3a
       0.0005298488 -0.0030171364 0.0005753979 0.0015673845
0002b0 9b 67 c4 39 8c b9 77 b4 8b a6 62 a0 20 1f 2e 37
       0.00037461225 -2.3071169e-07 -1.9198049e-19 1.0378455e-05
0002c0 98 15 e2 b9 91 a8 35 a2 24 15 00 00 86 7c 76 b7
       -0.00043122168 -2.4619312e-18 7.584e-42 -1.46917355e-05
0002d0 1b 2f a7 98 04 73 d9 ba f0 26 f0 34 e4 57 22 bb
       -4.3216053e-24 -0.0016590063 4.4731814e-07 -0.0024771625
0002e0 ce cb 35 9b 6f d6 99 ba 17 eb fd ba 02 a3 eb 29
       -1.5037822e-22 -0.001173688 -0.001937243 1.0464374e-13
0002f0 7a 30 cc 3a 46 2e 2e b3 98 14 ec af bf 65 03 a6
       0.0015578412 -4.0554617e-08 -4.2942783e-10 -4.5587647e-16
000300 a7 47 51 a3 58 71 c0 38 08 d4 8b bb a7 a0 44 2c
       -1.1345086e-17 9.176385e-05 -0.0042672195 2.7942455e-12
000310 47 34 00 b1 06 89 20 b2 d3 4b 0c 3a e3 ba 4a b2
       -1.8656168e-09 -9.344381e-09 0.0005351875 -1.1800441e-08
000320 5c 8c 93 3b 8b 01 00 80 9a 6d 55 3a 9b 02 00 00
       0.004502816 -5.54e-43 0.0008141637 9.35e-43
000330 1d 4a e9 a3 4d 6d 0e 95 ce bb ae a1 cc 90 05 bb
       -2.5293299e-17 -2.8762895e-26 -1.184041e-18 -0.0020380495
000340 7f 12 4b ba d3 4c 01 a0 b8 ed b4 b9 e0 98 c2 3b
       -0.00077465916 -1.0952144e-19 -0.0003450939 0.0059386343
000350 b4 de 5e 3a be 34 56 3a a4 00 00 00 4e fa 4e a3
       0.0008501813 0.00081713113 2.3e-43 -1.12202865e-17
000360 7c c3 d7 8d de d8 7e 3a e1 e9 63 37 ed 76 2b bb
       -1.3297459e-30 0.0009721647 1.35847085e-05 -0.0026163415
000370 08 3d 11 a5 aa bc 40 ba d2 22 fc 39 58 2d 7b 34
       -1.2597423e-16 -0.0007352332 0.0004809113 2.3392693e-07
000380 a9 aa a0 a8 69 00 00 80 c2 16 6e b3 50 02 00 80
       -1.783758e-14 -1.47e-43 -5.543439e-08 -8.3e-43
000390 85 b5 12 9b 7f 85 4e 36 91 3f 99 3b 64 c7 da 3a
       -1.2135489e-22 3.0774097e-06 0.004676767 0.0016691503
0003a0 fc 93 98 bb b5 e4 49 bb 0a 2a 8e a3 67 b7 bd b8
       -0.004656313 -0.0030806486 -1.5413475e-17 -9.046384e-05
0003b0 c3 71 91 ba 02 34 1a 22 b8 34 4b b2 c5 03 a7 3b
       -0.0011096526 2.0898425e-18 -1.1828142e-08 0.005096885
0003c0 5b 01 00 00 47 83 25 b3 c0 c1 52 b8 ea 84 1f 3a
       4.86e-43 -3.8536452e-08 -5.0248345e-05 0.00060851744
0003d0 93 6a 63 bb 87 70 ee ba 60 54 00 3b d0 b6 03 a6
       -0.0034700974 -0.0018191495 0.0019581541 -4.569751e-16
0003e0 90 76 0e 3a fb 95 4e 18 2f 8e a4 b8 37 ea cf bb
       0.00054345373 2.6700597e-24 -7.846613e-05 -0.0063450593
0003f0 0b 9d de 83 d8 be e7 3b 5b f5 8e bb 7d 22 ed 39
       -1.3084043e-36 0.007072311 -0.0043627447 0.00045229858

linear_hidden.0.bias f4 [256]
000000 8e 92 11 3c 76 2f 4b b3 67 f7 a1 38 2b 96 af b8
       0.008885039 -4.7307786e-08 7.7231605e-05 -8.372621e-05
000010 ec 4f 1f b9 7a 05 36 bb a2 98 3b 3b 5c 9b 21 3d
       -0.00015193195 -0.002777426 0.0028624912 0.039454803
000020 5a cb dc 3b d2 76 39 b6 d4 a2 a3 ba a9 1c 38 39
       0.0067381086 -2.763631e-06 -0.001248444 0.00017558284
000030 1e 92 00 bb e3 80 27 bb b3 36 ff bb c8 bc ed ba
       -0.0019618343 -0.0025559 -0.007788503 -0.0018137926
000040 39 5d ca ba 08 02 00 80 e2 48 45 b9 32 35 3b b9
       -0.001543916 -7.29e-43 -0.00018814535 -0.00017853527
000050 eb ea da ba b6 4e 28 3a 2d 75 27 1c 47 96 2a 3a
       -0.0016702091 0.000642042 5.540711e-22 0.00065073784
000060 70 25 3a b7 c0 f3 e2 b6 0e d1 3f 39 d6 32 c4 bb
       -1.10951805e-05 -6.763701e-06 0.00018293058 -0.0059875054
000070 f1 d1 2d bb 0b f1 c1 b7 86 57 a2 3b 74 67 9c a3
       -0.002652284 -2.3119637e-05 0.0049542813 -1.6957368e-17
000080 3a 8d 6e bb 53 38 6a b9 32 3b e8 bb 2e b7 65 2b
       -0.0036400096 -0.00022336961 -0.0070871348 8.1611356e-13
000090 61 32 89 38 76 db 57 ba 80 25 df 39 86 b3 62 3a
       6.542053e-05 -0.00082343013 0.00042561814 0.0008647967
0000a0 41 b7 05 bc bf c0 44 0f 5e 4c 92 ba 7f 8a ea 39
       -0.008161367 9.700668e-30 -0.0011161675 0.00044735146
0000b0 d7 db ef a8 4e e4 20 b7 0b 04 6c bb 8e a5 49 b6
       -2.662967e-14 -9.5898995e-06 -0.0036013152 -3.00477e-06
0000c0 f3 49 36 3c f9 7c e9 3b 0d 97 9f a9 12 a8 c7 bb
       0.011126029 0.0071254936 -7.0872216e-14 -0.0060930336
0000d0 59 f9 24 39 15 49 ae b0 09 c0 5f ba a1 c2 af 34
       0.00015733148 -1.2680937e-09 -0.00085353904 3.27379e-07
0000e0 e9 67 3d bb d8 93 6c 3b 0b 0c cd ba 1b a5 7f 3c
       -0.0028901047 0.0036098864 -0.0015643848 0.015603329
0000f0 2a f2 4e 3c 21 5b f0 b8 61 29 1e 3a d9 c8 ec ba
       0.012630979 -0.00011461066 0.00060333876 -0.0018065228
000100 29 81 b3 bb 70 4e b0 98 62 9c 45 b9 8f cc be 38
       -0.0054780436 -4.5574135e-24 -0.00018845641 9.098008e-05
000110 53 8b d3 b8 49 3c 39 b8 03 43 be bb 5b 99 07 bc
       -0.00010087215 -4.4163582e-05 -0.0058063283 -0.008276309
000120 11 e6 db ba fe 76 33 bb 99 00 7b bb 1e 74 12 bb
       -0.0016776939 -0.0027384157 -0.0038299917 -0.0022347043
000130 55 13 93 3c 69 13 9a 3b df 08 8c b9 8a 15 77 3c
       0.017953554 0.004702021 -0.0002670949 0.015080819
000140 d6 8f db bb a1 bd 44 b7 c6 96 62 3a e0 59 d8 3a
       -0.006700496 -1.1726662e-05 0.0008643683 0.0016506277
000150 a5 f6 28 a8 cb 89 5f ba 0d 98 47 b9 f2 2b 5d bb
       -9.379356e-15 -0.00085273077 -0.00019034762 -0.0033748117
000160 86 b4 94 3c a9 83 88 bb c1 10 76 39 96 a6 81 24
       0.018152487 -0.0041660857 0.0002346663 5.622704e-17
000170 67 c8 be 37 7e 52 cd bb 15 f9 2a 3c 65 9d 46 ba
       2.2743085e-05 -0.0062659374 0.010435362 -0.0007576554
000180 a1 84 b9 3c 23 6d 73 2d 74 63 a2 3b 17 23 c1 bb
       0.02264625 1.3837184e-11 0.0049557034 -0.0058940756
000190 9e 36 00 3a 9a 69 b4 3c 02 ba 92 3c 4d 3c 46 bb
       0.0004890951 0.022023011 0.017910961 -0.0030248344
0001a0 75 b4 1b bb b9 cb 09 ba c7 00 b2 b7 f7 22 ae ba
       -0.0023758684 -0.00052564923 -2.1219616e-05 -0.0013285567
0001b0 ac 0d 9e bb ce 40 6d 35 8a ec 33 b4 a9 b8 74 b7
       -0.004823407 8.8383683e-07 -1.6756726e-07 -1.4586528e-05
0001c0 24 f5 9b 3b a7 77 b4 39 d7 43 c2 8f c5 2d 95 ba
       0.0047594476 0.00034421423 -1.9156008e-29 -0.0011381438
0001d0 f0 aa 8b 3c 45 69 03 bb be b2 45 b9 8b de fb ba
       0.017049283 -0.002005176 -0.0001885397 -0.0019216103
0001e0 cb ee 59 34 7c d8 37 bb 92 66 da b3 c4 48 b3 b9
       2.0296572e-07 -0.0028052619 -1.01700735e-07 -0.00034195755
0001f0 96 51 ec bb 41 3b 9d ba b2 55 26 bb 62 65 a7 1c
       -0.0072118742 -0.0011995808 -0.0025380668 1.107734e-21
000200 ff 27 b3 ba 88 a1 c4 bb 78 61 03 3a f6 1b 0f 3b
       -0.0013668536 -0.0060007013 0.00050117774 0.0021836734
000210 3e af b3 37 d9 28 23 bb 00 80 90 bb a6 54 99 ba
       2.1420066e-05 -0.0024896173 -0.00440979 -0.0011698201
000220 76 16 20 ba 8c 26 c7 ba 92 3a e4 35 1a 0a 95 a5
       -0.00061068626 -0.0015193983 1.700437e-06 -2.5854225e-16
000230 47 55 11 b7 4d e0 39 ba 58 e5 72 3c 24 2c 95 34
       -8.662529e-06 -0.00070906134 0.014825188 2.778553e-07
000240 ed ce a3 3b a3 4a fe b8 5b 6e 38 bb d5 ed c4 bb
       0.0049990327 -0.00012125566 -0.002814195 -0.006009797
000250 02 18 01 2f d4 a4 f4 b8 b0 1b 0a 3a 83 b8 98 1b
       1.1741011e-10 -0.00011665528 0.0005268408 2.5265529e-22
000260 af 75 2f bb 19 82 14 b9 ba ff 80 3c e0 fe f1 bb
       -0.0026773026 -0.00014162845 0.01574694 -0.00738512
000270 67 c9 fd 25 35 df f3 b8 4e 7a 09 bb 7f e8 4a b9
       4.402498e-16 -0.000116287185 -0.002097744 -0.00019350833
000280 08 bb 53 ba 8b 01 00 80 42 51 18 b9 43 69 df 39
       -0.0008076881 -5.54e-43 -0.0001452612 0.000426123
000290 9d 24 b2 38 66 17 bc ab 7b 38 62 bb 4e d5 c9 3c
       8.494521e-05 -1.3364698e-12 -0.0034518528 0.024637844
0002a0 8f cb ec b9 15 15 23 ba 7a 17 80 3c 16 02 49 ba
       -0.0004516509 -0.0006221098 0.015636194 -0.00076678523
0002b0 62 f9 80 3c ff 70 c8 bb fc 4e c8 ba a9 93 6c ba
       0.015743915 -0.006116986 -0.0015282328 -0.00090246886
0002c0 c2 f4 7e bb 28 34 0a bc 84 ba ec 3c 2e d3 9f ad
       -0.0038903211 -0.008435287 0.028897531 -1.816999e-11
0002d0 ea 1b 02 bb 54 06 a3 bb 82 63 c8 b9 6d ac 99 38
       -0.0019853064 -0.0049751196 -0.00038221112 7.327725e-05
0002e0 c6 d5 8e 3c 10 c3 4b ba 63 4b 89 bb 96 c3 27 3d
       0.01743592 -0.0007772902 -0.004189895 0.04095801
0002f0 fb 77 15 bb f1 82 d1 ba cb 48 de 1c b1 c3 f6 3c
       -0.002280711 -0.0015984458 1.4709544e-21 0.03012261
000300 85 b0 aa bb dd 38 9f ba 8c bf 8a 38 1f 64 2b b9
       -0.005209031 -0.0012147684 6.616031e-05 -0.00016345129
000310 f7 e3 a9 ba 41 82 02 bb 50 6e 25 39 82 60 a8 ba
       -0.0012961616 -0.0019914063 0.00015776721 -0.0012846144
000320 4a 88 73 3c 01 6e dc ba fb 8f aa 3c 41 48 1a 3b
       0.014864037 -0.0016817452 0.020820608 0.0023541602
000330 2d c7 9a ba 19 82 cc bb e4 d1 24 b9 ce 0d ac ba
       -0.0011808627 -0.006241095 -0.00015718449 -0.0013126673
000340 82 20 af ba 16 65 e2 ba 63 09 2f bb 35 49 9f 8a
       -0.0013361129 -0.0017272558 -0.0026708476 -1.533868e-32
000350 7b 8c 73 3b 1f 76 9d ba de d6 0e 3a db c9 38 b9
       0.003716259 -0.0012013352 0.0005448888 -0.00017622804
000360 ef 83 75 bb 49 9b 36 28 6c 4a b5 b9 ba fe 42 b9
       -0.0037462672 1.0136702e-14 -0.0003457846 -0.00018596175
000370 28 48 a9 3c c6 f4 f9 3b c6 23 a3 ba a0 1d 1a 3a
       0.02066429 0.007628056 -0.0012446574 0.0005879048
000380 f7 49 69 ba 02 7a 21 39 6b db 01 a0 7c ab 21 bb
       -0.0008899266 0.00015399608 -1.0999324e-19 -0.0024668863
000390 31 1d 22 bb f2 04 25 a7 5a 07 b4 3b 73 77 82 88
       -0.0024736638 -2.290103e-15 0.0054940404 -7.852173e-34
0003a0 7e 84 c6 3a 51 72 f9 3c a1 17 d7 39 b1 47 e4 2c
       0.0015145687 0.030450018 0.000410256 6.488109e-12
0003b0 57 55 d4 ba d8 ca ce ba 80 94 bc bb ad e0 8d 32
       -0.001619975 -0.0015777005 -0.0057550073 1.6516731e-08
0003c0 6e 7d b1 ba 60 64 b0 ba 31 19 8d ba e6 c3 7c 36
       -0.0013541409 -0.0013457648 -0.0010764954 3.7664954e-06
0003d0 d0 be a5 b8 3a 99 da 3b e2 a1 04 3b 5c a8 66 3c
       -7.903355e-05 0.006671098 0.0020238091 0.014078226
0003e0 f6 8b 85 ba e7 fb e0 ba 28 a8 a7 bb ab 11 b2 ba
       -0.0010188806 -0.0017164916 -0.0051164813 -0.0013585588
0003f0 eb cb ae 3b b6 5f 89 14 d5 89 82 ba 8d 76 3d bb
       0.0053343675 1.3871216e-26 -0.000995929 -0.0028909773

linear_output.weight f4 [1, 256]
000000 85 85 f5 3c 43 d2 2f b3 72 e3 06 bc e0 fb a7 bc
       0.029970894 -4.0936595e-08 -0.008232938 -0.020505846
000010 5d 80 b3 bc ba 4a d2 bd 40 28 83 be b5 6a 0d 3e
       -0.021911794 -0.10268159 -0.25616646 0.13810237
000020 0b 81 b8 3c d3 e6 16 b6 4d 63 59 bd 94 48 62 bb
       0.02252247 -2.24861e-06 -0.053073216 -0.0034528123
000030 ad 6c a2 bd 88 32 c5 bd db 34 6c be 7c 0b 91 bd
       -0.079308845 -0.09628779 -0.23067038 -0.070822686
000040 0f 83 82 bd 36 0a 00 80 b0 2d c2 ba 4f d2 bd bc
       -0.06372654 -3.663e-42 -0.0014814641 -0.023171572
000050 cc e2 8b bd 70 79 ba bd 3d 97 4a 1e 6a 86 99 bd
       -0.068303674 -0.091051936 1.0725066e-20 -0.074963406
000060 4e 23 a4 b7 f4 ae f7 b9 4c 1e 29 bd 37 87 3d be
       -1.9566764e-05 -0.00047241861 -0.04128866 -0.18508612
000070 9d 0e c8 bd 12 6e e6 b9 18 0e 85 3c 26 d6 83 22
       -0.09768412 -0.00043951027 0.016242072 3.573436e-18
000080 04 eb 00 be a9 6f c1 bc 0f 64 59 be 44 cc 08 2c
       -0.12589651 -0.023612814 -0.21229576 1.9440153e-12
000090 8c 89 8f ba 1a b8 27 bd be 35 7e bd 36 c0 57 be
       -0.0010951026 -0.040947057 -0.06206297 -0.21069416
0000a0 4c 03 72 be 00 f9 18 0f b1 ff 50 bd a5 50 5c bd
       -0.2363407 7.542134e-30 -0.051025096 -0.053787846
0000b0 4c 87 68 a9 2f b3 5b b8 33 61 00 be b7 76 09 b6
       -5.16317e-14 -5.2380547e-05 -0.12537079 -2.0483692e-06
0000c0 92 d6 1a 3d 37 3c 57 be 33 3d 44 aa fd e6 70 be
       0.037802286 -0.21019064 -1.742953e-13 -0.23525615
0000d0 32 5b b4 bb eb 40 ba b0 c8 39 2d bd 1a 8b 6d 35
       -0.0055040354 -1.3551732e-09 -0.042291433 8.84918e-07
0000e0 77 55 e2 bd 6c 84 3f 3c a6 37 83 bd 8b b5 b0 bd
       -0.110514574 0.011689287 -0.064070985 -0.086283766
0000f0 79 12 31 3d 2f f1 83 bc 1d de f8 3a 87 a6 9d bd
       0.043230508 -0.016106216 0.0018987093 -0.07697778
000100 83 ba 3f be bb 20 fd 97 c4 77 c4 bc 32 7c 32 bc
       -0.18723492 -1.6358004e-24 -0.02398289 -0.010893868
000110 76 81 85 bc 5b c8 68 bc 3c 47 36 be d0 0b 74 be
       -0.016297083 -0.014207925 -0.17800611 -0.23832631
000120 bd e9 89 bd d8 36 cd bd 3e 01 0b be f5 4e ae bd
       -0.06734035 -0.10020226 -0.13574693 -0.085111536
000130 bf 06 ca bd 8f b3 21 be 94 a0 de bc d5 7d 53 3d
       -0.09864568 -0.15791152 -0.027176179 0.051633675
000140 84 cf 59 be de db 61 b7 8a af c1 bd 04 e9 a9 3b
       -0.21270567 -1.3462237e-05 -0.094573095 0.0051852483
000150 3c 36 af 28 66 b9 2b bd 86 98 8f bc a4 2b f2 bd
       1.9452423e-14 -0.041924857 -0.017528784 -0.1182473
000160 c7 30 7f 3d 62 a7 15 be ec 5e 23 bd d7 2f 2d a5
       0.062302377 -0.14614633 -0.039885446 -1.5021567e-16
000170 ea e4 51 bc 4f 88 41 be a7 21 11 3d 65 d9 23 bd
       -0.012810925 -0.18899654 0.035432484 -0.040002245
000180 78 c1 9f 3d 68 02 86 2f 63 22 35 be 07 df 38 be
       0.07800573 2.4376168e-10 -0.17688899 -0.18053828
000190 1e 5a 8e bd ea 54 9b 3d b2 27 cc bd 0b 33 e0 bd
       -0.06950782 0.075845554 -0.09968509 -0.10947236
0001a0 b3 6b b7 bd 7c d3 ff bc 43 0f 04 b8 05 6a 67 bd
       -0.08956089 -0.031228773 -3.1485466e-05 -0.056497592
0001b0 bd 4f 2b be 94 4f 99 34 37 fe 5a 36 03 91 03 37
       -0.16729636 2.8556371e-07 3.2632504e-06 7.841972e-06
0001c0 f5 a7 21 be 19 b5 58 bd 91 ee 03 90 2f 43 4f bd
       -0.15786727 -0.052907083 -2.601898e-29 -0.05060118
0001d0 29 25 c0 bd 3b 5e 9f bd e0 f7 a2 bc 1e 4c 9f bd
       -0.09382088 -0.07781645 -0.019893587 -0.0777819
0001e0 ea b1 25 35 29 79 d9 bd 56 d3 da 33 f5 d0 db bc
       6.172619e-07 -0.106188126 1.0189858e-07 -0.026833037
0001f0 96 c0 59 be 96 d5 56 bd 93 48 c4 bd 4f cb 90 9d
       -0.21264872 -0.052449785 -0.09584155 -3.83267e-21
000200 e6 3d 69 bd d7 d2 4e be a1 f3 ab bd 51 2b e2 3b
       -0.056943797 -0.20197617 -0.08396078 0.0069021364
000210 42 26 83 38 6a ed bf bd 90 9e 17 be e8 77 55 bd
       6.253693e-05 -0.09371455 -0.1480658 -0.052116305
000220 22 63 0f bd 2e 8e 81 bd 4f b6 3f 37 7c 70 4f a8
       -0.03500665 -0.06325947 1.1426934e-05 -1.15151995e-14
000230 d6 e4 18 ba f5 c4 1a bd a6 9e 4f 3d e8 5c 1d 35
       -0.0005832439 -0.03778549 0.05068841 5.8622254e-07
000240 e1 b8 86 3c 44 6b 5a bc cd 83 d4 bd 4c 5d 7e be
       0.016445579 -0.013331238 -0.103767015 -0.24840277
000250 1d b2 ad 2f c1 50 96 b9 73 72 61 bd 2f 7c 08 9e
       3.1595074e-10 -0.00028670396 -0.055040788 -7.225461e-21
000260 2c ba cd bd c8 7e 96 bc 9e 28 5d 3d e6 10 58 be
       -0.10045275 -0.018371 0.053993814 -0.21100196
000270 0d 25 1b 27 27 d8 88 bc 01 35 a6 bd 51 2a dc bc
       2.1530656e-15 -0.016704632 -0.081155784 -0.026875647
000280 50 a9 22 bd 0c 02 00 80 e9 b5 92 bc 10 89 ab 3a
       -0.03971225 -7.34e-43 -0.017909007 0.0013087112
000290 c1 70 2f bc 6d 56 dc 2d c5 a6 00 be fb 28 ae 3d
       -0.010708035 2.5049485e-11 -0.12563618 0.0850391
0002a0 1f 35 02 bd ec 77 11 bd dc 48 b1 bd f6 c1 1e bd
       -0.03178894 -0.035514757 -0.08656475 -0.038759194
0002b0 95 25 b5 bd 51 ad 54 be c9 06 84 bd 39 3a 2f bd
       -0.08845059 -0.2076924 -0.06446607 -0.042780135
0002c0 7f 94 0e be 91 50 74 be ae 7c cc 3d 1b e0 00 ae
       -0.13923834 -0.23858859 0.09984718 -2.9302876e-11
0002d0 aa 9b 9f bd fa 9b 3c be c3 50 f6 bc a7 57 57 bc
       -0.077933624 -0.18418875 -0.030067807 -0.013143457
0002e0 e7 ff c4 bd 74 b7 21 bd 2c 18 16 be f5 23 13 3e
       -0.09619122 -0.039481595 -0.14657658 0.14369185
0002f0 81 8d b3 bd ff a1 85 bd f2 5f f8 1c 2f fd d5 3d
       -0.08767224 -0.06525039 1.6436065e-21 0.104486816
000300 b1 f2 5d be 50 79 5d bd 80 f4 55 39 0d b3 c7 bc
       -0.2167461 -0.05407077 0.00020404346 -0.02437737
000310 e8 db 6c bd de 44 9d bd da b2 01 3a 67 da 67 bd
       -0.057826906 -0.07679151 0.00049476104 -0.05660477
000320 55 54 50 3d 4d ac 8f bd 96 c1 92 3d 17 fd 07 be
       0.050861675 -0.07015286 0.0716583 -0.1328014
000330 b1 73 5a bd 55 6f 43 be 9b a0 bb bc b3 9a 63 bd
       -0.05333299 -0.19085439 -0.022903731 -0.055567455
000340 eb 85 6c bd df 09 8d bd fa 7d ce bd 31 4a 4c 0a
       -0.0577449 -0.068866484 -0.10082622 9.8361966e-33
000350 71 70 44 3c 6a e0 5e bd 71 82 e0 bd 81 3c b5 bc
       0.011989699 -0.054413237 -0.1096238 -0.022123577
000360 c7 2d 0c be c8 88 f5 a8 73 df d2 bc 8c 5a d9 bc
       -0.13689338 -2.7259784e-14 -0.025741315 -0.026532434
000370 b9 a9 91 3d f6 24 b8 bd a0 72 60 bd 2d 2f 69 bd
       0.0711245 -0.08991425 -0.054796815 -0.056929756
000380 da 48 2d bd ce 85 0d bc 61 50 8f a0 1f fd bd bd
       -0.042305805 -0.008637859 -2.4278333e-19 -0.09276795
000390 63 f0 bc bd 74 56 39 a8 37 b0 94 3c e5 2c 25 09
       -0.09225538 -1.02883095e-14 0.018150432 1.9882262e-33
0003a0 06 e9 9c 3b cf dd d7 3d 2f 1d a6 3a f2 40 91 2e
       0.0047885207 0.105403535 0.0012673492 6.605373e-11
0003b0 20 77 89 bd 8a cf 82 bd 54 a3 53 be bf b2 55 33
       -0.067121744 -0.06387241 -0.20667773 4.9755496e-08
0003c0 e7 be 6a bd d0 2e 6d bd cd ab 48 bd 7a 0c 45 37
       -0.057310965 -0.057905972 -0.048991967 1.174502e-05
0003d0 7f 31 e2 ba df 92 b6 3c 7e c5 ae bd 59 8f 45 3d
       -0.0017257183 0.02228683 -0.085337624 0.04823241
0003e0 31 ea 40 bd 8a 89 90 bd 18 4c 35 be 5f 07 6c bd
       -0.047098342 -0.070574835 -0.17704809 -0.057624217
0003f0 2e 33 8f 3c 01 cd 32 15 f6 a6 3c bd a8 d3 d7 bd
       0.017480459 3.6108533e-26 -0.046057664 -0.10538417

exp_avg f4 [256, 17]
000000 e9 c9 30 39 08 84 97 b9 02 6b 16 ba df 3b c5 38
       0.00016859885 -0.00028899335 -0.00057379913 9.404844e-05
000010 47 c9 02 39 6c bc 9a b9 d7 8f 14 ba 66 26 c5 38
       0.00012472748 -0.00029513554 -0.0005667186 9.400844e-05
000020 84 d8 81 38 07 99 ad b9 e9 3f 0b ba a8 b8 c1 38
       6.1915285e-05 -0.00033111146 -0.00053119526 9.237352e-05
000030 74 89 c2 38 ed 35 4f ba 07 df 86 b9 35 64 1d 3a
       9.2762435e-05 -0.0007904459 -0.0002572464 0.0006004007
000040 f1 ce e4 b9 92 94 73 b8 a2 c3 fd b8 44 1a 95 b7
       -0.00043641732 -5.807408e-05 -0.000121004196 -1.7774415e-05
000050 1a 8a c4 36 d7 c6 13 b8 23 fa fe b8 d0 90 29 b8
       5.8573323e-06 -3.5232715e-05 -0.000121582554 -4.0427607e-05
000060 00 84 c6 36 46 d8 fb b6 83 fb d7 b8 db 38 8a b8
       5.9162267e-06 -7.5055605e-06 -0.000102988466 -6.590943e-05
000070 5a bb da 36 42 f6 26 39 34 63 22 3a 58 73 39 b8
       6.518717e-06 0.00015922732 0.0006194592 -4.421486e-05
000080 ca a1 0d ba 2d 21 2a 39 f1 da 52 b0 9f 85 98 b0
       -0.00054028316 0.00016224822 -7.670869e-10 -1.1097433e-09
000090 55 b6 9b 2f fe de 6b 2f 6e 1e da af c3 b4 9d b0
       2.832389e-10 2.1452348e-10 -3.967559e-10 -1.1474629e-09
0000a0 6f c7 c6 b0 ca aa 6b 2f a9 81 19 2f 79 3a 23 b0
       -1.4463079e-09 2.1433802e-10 1.3961333e-10 -5.938215e-10
0000b0 d1 cc 59 b1 31 97 86 2f c8 2a 47 30 62 a9 12 32
       -3.169408e-09 2.4481886e-10 7.2456574e-10 8.536832e-09
0000c0 47 d5 21 b1 d7 59 d3 b1 45 3e c7 31 fe cf 99 35
       -2.3549818e-09 -6.151122e-09 5.7987415e-09 1.1459922e-06
0000d0 e9 48 1d b8 ee 87 d5 b8 9a 47 fa 36 36 25 39 37
       -3.749962e-05 -0.0001018195 7.458916e-06 1.1035523e-05
0000e0 04 f1 64 b8 2c 93 9d b8 a3 3a fb 36 4a 4a a2 37
       -5.45839e-05 -7.513756e-05 7.487209e-06 1.9346498e-05
0000f0 6e af 91 b8 d8 b2 0a b9 88 aa 06 37 1d d3 48 39
       -6.946815e-05 -0.0001322733 8.026727e-06 0.00019152132
000100 c7 22 57 39 24 e5 82 b9 a4 f7 1f b9 31 93 62 39
       0.00020516953 -0.00024966255 -0.00015255675 0.00021607873
000110 3d a7 a9 b8 38 80 0d 38 b5 71 0d 39 ae e1 b8 b7
       -8.0896985e-05 3.3736433e-05 0.00013489167 -2.20396e-05
000120 2c fd c1 b8 f5 39 40 38 cb 29 18 39 ed 68 b9 b7
       -9.250114e-05 4.5830344e-05 0.00014511419 -2.2102578e-05
000130 29 2b d8 b8 8f 8c 76 38 2a 81 1a 39 99 c5 bd b7
       -0.00010307722 5.8781876e-05 0.00014734702 -2.262257e-05
000140 29 77 17 b9 d7 d4 48 b9 ce bb 6a 39 e2 59 27 39
       -0.00014444873 -0.00019152775 0.00022385942 0.00015959845
000150 06 ef dd b9 62 db 3d b8 67 2b 80 b7 85 d9 cf 38
       -0.0004233049 -4.5265428e-05 -1.5279e-05 9.911045e-05
000160 49 d3 80 b7 69 d8 85 35 ee 03 22 b7 53 49 95 38
       -1.5357176e-05 9.972256e-07 -9.656867e-06 7.118531e-05
000170 48 49 82 b7 fe d4 6d 38 a4 4e 85 37 64 ea 7b 37
       -1.5531332e-05 5.6703568e-05 1.5891455e-05 1.5015339e-05
000180 50 d8 72 b7 0c 8c 9e 35 3f 79 84 3a ac 9f ce b8
       -1.4474688e-05 1.1812676e-06 0.0010106935 -9.852587e-05
000190 00 0c 48 ba 59 9b 01 3a fe 6a 71 98 9f f0 b3 14
       -0.00076311827 0.0004944108 -3.1202537e-24 1.816929e-26
0001a0 93 5a 63 19 53 4a c3 94 8d bb 93 15 1a 1d 66 95
       1.1753916e-23 -1.9719284e-26 5.966873e-26 -4.6471087e-26
0001b0 1b c9 97 17 d1 5d 64 15 7a f2 43 96 7c 58 08 16
       9.808912e-25 4.611824e-26 -1.5828487e-25 1.1013913e-25
0001c0 19 54 b1 96 e8 7d 61 95 09 ee 67 95 0a 9e 98 16
       -2.8648965e-25 -4.553771e-26 -4.6837855e-26 2.465666e-25
0001d0 5d 6a 43 16 b6 d2 f9 14 c9 6d cc 95 10 98 16 22
       1.5785537e-25 2.5225686e-26 -8.2568154e-26 2.0409292e-18
0001e0 c3 05 d8 9f e3 bb 02 24 e4 1c 09 22 0a 7e a1 a2
       -9.148909e-20 2.8348403e-17 1.8582257e-18 -4.3772586e-18
0001f0 2b 98 cf 1f 95 64 13 24 de cf 2d a1 39 8f 48 20
       8.791965e-20 3.196074e-17 -5.888979e-19 1.6988047e-19
000200 7a df c3 a1 6f c6 c5 23 9d 69 29 a0 5d 62 07 a3
       -1.3272868e-18 2.1442823e-17 -1.4349801e-19 -7.339194e-18
000210 37 95 c3 22 ac a9 4e a1 1d 04 38 22 37 72 01 23
       5.3012843e-18 -7.0020074e-19 2.4938828e-18 7.01729e-18
000220 bf e0 d8 b6 e3 ec 85 36 35 79 44 37 3e b7 b5 b5
       -6.4634655e-06 3.991286e-06 1.1710731e-05 -1.3538881e-06
000230 64 8f b2 b6 7c dd 51 36 25 a0 09 37 97 6d b1 b5
       -5.3215063e-06 3.1272348e-06 8.203123e-06 -1.3219422e-06
000240 54 33 7b b6 9b 41 19 36 a5 86 9f 36 22 b3 ad b5
       -3.7431791e-06 2.2836964e-06 4.754244e-06 -1.2941639e-06
000250 7b db 5e 37 9c 47 d7 37 8c b3 6e b7 4f 9c 48 b7
       1.3283333e-05 2.5663343e-05 -1.42277095e-05 -1.1957322e-05
000260 6a 1b 27 37 69 e1 af 39 44 5c ec b9 d6 e4 a8 ba
       9.9603585e-06 0.00033546545 -0.0004508217 -0.0012885581
000270 0f 87 3a 39 27 95 85 39 a5 3d ef b9 85 0b 91 ba
       0.00017788656 0.00025478864 -0.0004563156 -0.0011066055
000280 4a ae 3a 39 6e c3 11 39 7f bb 05 ba c9 9d 96 ba
       0.0001780327 0.00013901081 -0.00051014865 -0.0011491115
000290 64 c4 37 39 d6 53 8c 39 a1 a5 c3 ba ad 1e ff b9
       0.00017525401 0.00026765344 -0.0014926681 -0.00048660245
0002a0 02 67 66 3a 46 7e 7f ba 8e f7 68 13 93 95 b3 93
       0.0008789153 -0.0009746294 2.940457e-27 -4.5333444e-27
0002b0 c9 35 e5 12 6d e2 13 93 40 93 da 13 a0 38 9a 92
       1.4465191e-27 -1.8665645e-27 5.5176136e-27 -9.7327255e-28
0002c0 f6 78 1f 12 15 51 05 93 36 1e 14 94 f3 52 70 13
       5.032065e-28 -1.6826937e-27 -7.4780486e-27 3.0333156e-27
0002d0 4a 62 90 18 24 e9 89 12 76 f6 8c 11 77 11 1d 12
       3.7322374e-24 8.703389e-28 2.2239999e-28 4.956199e-28
0002e0 e7 c7 08 14 c4 36 0f 93 91 ad a9 91 3f a8 ab 38
       6.905669e-27 -1.807614e-27 -2.6770467e-28 8.185254e-05
0002f0 03 4d 6a b8 8d 90 9d b9 ce a4 15 38 a8 a1 ae 38
       -5.586167e-05 -0.00030053072 3.5677855e-05 8.3270774e-05
000300 5e af 54 b8 27 ea 9e b9 95 86 15 38 30 88 b7 38
       -5.0708062e-05 -0.00030310565 3.5649708e-05 8.751487e-05
000310 55 d4 30 b8 65 64 9d b9 cc 91 14 38 b6 2b 4a 39
       -4.215942e-05 -0.00030020173 3.5421734e-05 0.00019280505
000320 5a ea 32 38 8b 58 3a b8 a1 bc 94 b8 e6 b9 08 39
       4.2656764e-05 -4.4428318e-05 -7.092325e-05 0.00013039223
000330 3c 56 d8 b7 a8 ad e4 37 d5 b0 01 38 13 35 2d b6
       -2.5789363e-05 2.7260583e-05 3.0920684e-05 -2.5809902e-06
000340 22 20 d6 b6 b6 b4 aa 37 fd e3 d3 37 98 6f 20 b6
       -6.3814377e-06 2.034973e-05 2.5259325e-05 -2.3906814e-06
000350 51 c0 c2 37 29 71 a8 37 20 87 ec 36 a9 e1 e0 b5
       2.3216156e-05 2.0079855e-05 7.0490787e-06 -1.6754976e-06
000360 71 e2 86 39 50 03 f5 39 6a 61 1f b9 2a d2 83 b9
       0.00025727184 0.0004673251 -0.00015199711 -0.00025142852
000370 72 cf 8f 39 b0 73 f9 39 65 ee 23 ba 67 69 fb ba
       0.00027429644 0.00047579175 -0.000625348 -0.0019181193
000380 53 70 7f 39 53 9c b3 39 59 0b 26 ba 2f ea c3 ba
       0.00024360539 0.0003425801 -0.00063340884 -0.0014947111
000390 00 bc 7f 39 6a c1 36 39 2c 83 3a ba b2 64 c6 ba
       0.0002438873 0.00017428925 -0.0007114883 -0.0015136211
0003a0 47 ec 7b 39 5c 66 c9 39 0d ab 06 bb 16 81 32 ba
       0.00024025246 0.0003841397 -0.0020548732 -0.00068093964
0003b0 56 b2 9a 3a 38 7e b3 ba 8d 3a 00 a2 d9 38 97 a2
       0.0011802416 -0.0013694232 -1.7378231e-18 -4.098882e-18
0003c0 a9 d5 41 a1 fa f2 32 20 9c 4d 0a a2 88 0b 4c 22
       -6.567372e-19 1.5157581e-19 -1.8743574e-18 2.765326e-18
0003d0 4b 31 89 a1 e4 2e 8a 20 c6 7a 24 a4 76 52 44 a2
       -9.296529e-19 2.340914e-19 -3.5665824e-17 -2.6606608e-18
0003e0 63 6d 87 21 ab f6 1d 21 89 c5 36 22 4f 4e f3 9e
       9.17691e-19 5.352013e-19 2.4770174e-18 -2.5761013e-20
0003f0 02 ec 20 22 be e7 53 9f ac ee 23 a2 b3 a4 2e 9f
       2.1808985e-18 -4.487268e-20 -2.2216971e-18 -3.698217e-20
