src/scripts/ddpg/weights/critic.pth (torch, 853231 bytes, 15 tensors)

linear_input.weight f4 [256, 17]
000000 29 a6 18 b4 91 af b0 b3 09 18 8b 33 76 2d 12 b3
       -1.4216552e-07 -8.227574e-08 6.477064e-08 -3.403462e-08
000010 dd 2f 01 b4 1b 7a a7 b3 9a dd 51 33 52 80 f5 b2
       -1.2031474e-07 -7.798754e-08 4.886315e-08 -2.8580107e-08
000020 26 2b d6 b3 00 83 9e b3 28 3a 47 33 7c 4b d0 b2
       -9.973e-08 -7.381277e-08 4.638619e-08 -2.4248713e-08
000030 c0 f5 7d b4 fc b1 dc b3 6c 94 c5 b3 e7 b9 1f 33
       -2.3651864e-07 -1.02769235e-07 -9.200525e-08 3.718915e-08
000040 3b 6a 95 33 b1 f5 3b b4 a9 c7 99 b4 3f 95 37 34
       6.9576764e-08 -1.7505114e-07 -2.8643743e-07 1.7097499e-07
000050 ed 23 77 32 8b d2 44 b4 e4 5d 81 b4 a0 96 2f 34
       1.4385461e-08 -1.8330518e-07 -2.4096437e-07 1.6352942e-07
000060 5f d5 19 32 1c 5b 52 b4 8f 7f 4d b4 77 b6 23 34
       8.954287e-09 -1.959092e-07 -1.9138518e-07 1.5246938e-07
000070 e6 93 6e 32 f1 17 32 b4 f0 38 aa b3 08 40 a4 b3
       1.38870515e-08 -1.6586252e-07 -7.926599e-08 -7.648492e-08
000080 fa fc 0c b2 b8 a5 0b 34 17 b3 48 30 63 a4 43 ae
       -8.206593e-09 1.3005672e-07 7.301408e-10 -4.448387e-11
000090 4d 68 de 2e 1d 06 08 30 e2 fb 3c 30 96 bd 05 ae
       1.0113919e-10 4.94852e-10 6.875195e-10 -3.0409085e-11
0000a0 a3 0a 87 2f e0 39 d8 2f 7a 53 41 30 5b ed 88 2e
       2.4563915e-10 3.9331294e-10 7.033162e-10 6.226727e-11
0000b0 93 a8 e6 2f 06 c8 af 2f 2b 75 9e b0 49 a6 9f 30
       4.1956535e-10 3.197444e-10 -1.1529314e-09 1.1616034e-09
0000c0 62 d7 b8 30 b2 62 ef 30 31 96 5d b0 57 e9 1d af
       1.3448977e-09 1.741759e-09 -8.0612766e-10 -1.4361966e-10
0000d0 14 d6 02 af 7e d9 21 2f 09 b6 36 af ff e4 45 af
       -1.1899487e-10 1.4720133e-10 -1.6617475e-10 -1.7998401e-10
0000e0 75 60 08 af 5a e9 4a 2f 36 6a 38 af 7f 5e 77 af
       -1.2403396e-10 1.8454696e-10 -1.6772436e-10 -2.2498091e-10
0000f0 5e 6d 06 af 2e 83 74 2f ab 47 35 af d1 e2 00 30
       -1.2226084e-10 2.2238275e-10 -1.6487316e-10 4.6888454e-10
000100 bf 89 28 af 91 0c 39 ae e3 90 a4 2f 05 84 10 2f
       -1.5328448e-10 -4.207529e-11 2.9934374e-10 1.3143626e-10
000110 80 7b 47 bb c4 db cc 3c a3 4e 03 3d 7a 05 5d bc
       -0.0030438602 0.025007136 0.032057416 -0.013490075
000120 f8 4c 13 bc 62 b5 c4 3b d8 a3 0f 3c e7 fb 54 bc
       -0.008990519 0.006003068 0.008767091 -0.012999511
000130 06 44 81 bc 20 af 95 bc fb 6e 74 bc 0b c2 58 bc
       -0.015779506 -0.018271983 -0.014919038 -0.013229857
000140 5c 5f d9 3d 88 97 8d 3b c3 f6 94 bc 59 c9 04 3c
       0.106138915 0.0043210424 -0.018184071 0.008104646
000150 51 60 8f bc c1 94 4f ae 4b 0b 05 ae 5c 87 2c 2e
       -0.017501982 -4.719847e-11 -3.025073e-11 3.9228495e-11
000160 64 e1 f8 ac c2 8d 59 ae 1a 26 11 ae b8 58 11 2e
       -7.0736073e-12 -4.9465994e-11 -3.3003024e-11 3.304798e-11
000170 fc d7 ff ac ac 41 60 ae 50 23 16 ae 9d 32 e9 2d
       -7.271515e-12 -5.099003e-11 -3.4137415e-11 2.651151e-11
000180 54 5f 01 ad b1 84 fb ad 6f f0 a0 ad f5 50 eb ad
       -7.353968e-12 -2.8594323e-11 -1.8296668e-11 -2.6752359e-11
000190 a9 7a 7d ad ac 58 0c 2e 94 2c eb ad cf 49 04 ae
       -1.4408621e-11 3.191107e-11 -2.6736204e-11 -3.007888e-11
0001a0 05 dc a9 2d e4 35 37 ac 4a 45 2e ae 4a 6c 57 ae
       1.9310784e-11 -2.603578e-12 -3.962456e-11 -4.898152e-11
0001b0 a5 23 ad 2d d4 5f 3f ac 68 7a 6f ae 12 dc 9b ae
       1.9683652e-11 -2.7195928e-12 -5.4451027e-11 -7.087676e-11
0001c0 63 a9 af 2d 14 0c 47 ac 8a d1 2f ae 15 9c bf ab
       1.997042e-11 -2.8286306e-12 -3.99765e-11 -1.3614688e-12
0001d0 5b 8d 50 2d e3 23 9d ab 3d 3b 4e ac 82 5b 49 b8
       1.1854818e-11 -1.1165482e-12 -2.9307245e-12 -4.8007358e-05
0001e0 68 0b 84 b7 9a 8f f8 37 42 51 81 b7 1f d1 53 b8
       -1.5740938e-05 2.9630773e-05 -1.5415837e-05 -5.050108e-05
0001f0 73 0c 86 b7 10 9a cf 37 54 8a 84 b7 26 1b 65 b8
       -1.5979842e-05 2.4748064e-05 -1.580004e-05 -5.462314e-05
000200 b1 44 9c b7 14 d8 b9 37 e2 64 85 b7 b5 ad 87 b8
       -1.8628636e-05 2.2154338e-05 -1.5901813e-05 -6.469657e-05
000210 72 9e 91 b7 3f 1f 5d b7 59 5d 06 38 8d 08 ce 37
       -1.7359129e-05 -1.31799015e-05 3.2035026e-05 2.4561095e-05
000220 08 07 46 37 18 44 28 38 79 4b 05 b8 29 64 1e 37
       1.1803357e-05 4.011774e-05 -3.177996e-05 9.440854e-06
000230 f4 a8 f0 b6 d5 ca d5 37 08 a7 02 b8 e3 c2 b3 36
       -7.172226e-06 2.548603e-05 -3.1149975e-05 5.3573035e-06
000240 4f 22 c9 b7 e3 ef 32 37 79 de d9 b7 40 2c 94 36
       -2.3977043e-05 1.066548e-05 -2.5972013e-05 4.415895e-06
000250 34 a5 ad b8 55 03 25 38 e9 d5 88 38 88 d6 bd 37
       -8.280054e-05 3.934217e-05 6.524829e-05 2.2630455e-05
000260 8d 33 1b b8 1f 04 8e b4 a6 8e 84 b4 d8 e7 89 35
       -3.700289e-05 -2.645256e-07 -2.4690706e-07 1.0274771e-06
000270 38 c6 b3 b3 97 5f a0 b4 f3 0e 88 b4 c2 93 89 35
       -8.371393e-08 -2.9871873e-07 -2.534285e-07 1.0250299e-06
000280 77 63 a1 b3 8d cc b7 b4 01 cd 8a b4 37 bd 8a 35
       -7.515239e-08 -3.4235237e-07 -2.5853663e-07 1.033687e-06
000290 af a4 a0 b3 7a 67 33 b6 8a c9 5e 33 06 b4 7c b4
       -7.4805364e-08 -2.673331e-06 5.18717e-08 -2.3534821e-07
0002a0 63 34 62 b4 03 91 ab 33 f9 ab cd b8 9e 1d 33 b8
       -2.1066948e-07 7.9891855e-08 -9.807194e-05 -4.270451e-05
0002b0 ad 91 7a 39 c7 38 37 39 f2 9b 06 b9 3a ef 92 b8
       0.00023896126 0.00017473391 -0.0001283733 -7.006382e-05
0002c0 93 bd 6f 39 84 13 38 39 49 1a 28 b9 bb 81 e6 b8
       0.00022863438 0.00017554878 -0.0001603152 -0.00010991419
0002d0 a0 99 65 39 2f f8 36 39 e4 e5 5c b8 85 9d 16 b8
       0.00021896372 0.00017449328 -5.266619e-05 -3.590949e-05
0002e0 43 a6 89 b8 cf e9 75 38 fe 19 24 b8 95 6e a3 bb
       -6.563638e-05 5.8630303e-05 -3.9124854e-05 -0.0049875476
0002f0 4d 74 4a 3c 41 07 8f 3a c2 52 9b 3b e8 4f d7 bb
       0.01235683 0.0010912196 0.00474009 -0.006570805
000300 bb 88 d0 3c 54 c7 00 3d f0 ce ef 3a a7 bf fc bb
       0.025455823 0.031440094 0.0018295925 -0.0077132764
000310 82 34 2e 3d 48 16 7f 3d 7d 83 31 3b d3 6f 70 3d
       0.042530544 0.06227711 0.002708643 0.058700394
000320 0b cf 0b 3d 7f c2 c8 3c b1 f1 84 bd 16 86 89 bd
       0.034133 0.024506805 -0.064914115 -0.06715028
000330 4c 10 d9 b0 b5 95 32 b1 88 f4 02 af 03 b5 af b0
       -1.579346e-09 -2.5987508e-09 -1.1910306e-10 -1.2784372e-09
000340 dd 74 d0 b0 a3 04 50 b1 70 ff 4d b0 dc 82 b5 b0
       -1.5167206e-09 -3.027062e-09 -7.4941564e-10 -1.3206676e-09
000350 1d 3a cf b0 b4 1c 78 b1 da 33 ce b0 bf fb aa b0
       -1.5077749e-09 -3.6105066e-09 -1.500321e-09 -1.2440678e-09
000360 82 f2 07 b1 5e 14 d2 b0 e6 49 1b b1 ce e0 13 b0
       -1.9782935e-09 -1.52853e-09 -2.2597475e-09 -5.3797755e-10
000370 71 ad 93 30 ff fe 95 ba 36 33 38 ba cd 14 89 ba
       1.0744953e-09 -0.0011443793 -0.0007026674 -0.001045847
000380 0c c1 17 ba 53 0f 8c ba e0 f5 ad b9 64 18 c0 b9
       -0.0005788959 -0.0010685719 -0.00033180322 -0.00036639266
000390 bc a3 16 ba 3a 7c 85 ba b8 1b da 38 7f 50 bd 39
       -0.0005746444 -0.0010184117 0.00010400213 0.00036108863
0003a0 7f 13 22 ba ed eb b3 3a 8a 67 b8 39 18 f2 5a 3a
       -0.0006182715 0.0013726928 0.00035172357 0.0008352115
0003b0 e3 b2 0c bb 2c 5e 5b bb 33 97 8d af 7b 32 d4 ac
       -0.002146893 -0.003347288 -2.5755184e-10 -6.031007e-12
0003c0 f7 c2 03 30 a2 82 41 af 3e 52 8d af 48 a6 31 2d
       4.7934584e-10 -1.7599658e-10 -2.5706187e-10 1.0098207e-11
0003d0 d2 92 00 30 e6 fa 37 af f8 8a 8c af cb 76 b5 2d
       4.6774773e-10 -1.673289e-10 -2.5564595e-10 2.0630072e-11
0003e0 2b b3 f9 2f e9 e4 36 af 8b b1 20 b0 04 ff 7e af
       4.5420143e-10 -1.6634129e-10 -5.8459965e-10 -2.3191765e-10
0003f0 7a 15 b8 af dd 2c ce af 9a df 27 af 74 58 5b b0
       -3.3484665e-10 -3.750306e-10 -1.5268001e-10 -7.9797435e-10

linear_input.bias f4 [256]
000000 65 8a 2e 31 61 bd ab b3 07 36 30 30 0f 7c 4e af
       2.5399e-09 -7.997256e-08 6.4105204e-10 -1.8779665e-10
000010 51 3b b9 bc 18 79 3f ae 71 6a 31 ad 68 9c 24 b7
       -0.022611292 -4.3535925e-11 -1.008492e-11 -9.811578e-06
000020 33 68 94 38 ef f2 d1 b4 05 67 2b 37 45 f8 99 3c
       7.0765986e-05 -3.910604e-07 1.021638e-05 0.018795142
000030 23 47 cd af d9 39 03 ba 96 17 b4 af 07 e7 ba ae
       -3.7339828e-10 -0.00050058734 -3.2758568e-10 -8.4993394e-11
000040 91 6d 22 2e b6 0c f4 ae c6 ba bb bc 30 63 4c 3a
       3.693185e-11 -1.1098093e-10 -0.022916209 0.00077967625
000050 69 43 f6 b0 d7 3a 19 b0 3c 0a a6 b0 56 05 43 2f
       -1.7918015e-09 -5.574469e-10 -1.2080998e-09 1.7737042e-10
000060 06 bd 38 39 cd bb a8 34 a6 74 7a af d1 60 c2 b3
       0.00017618024 3.1429082e-07 -2.277881e-10 -9.05144e-08
000070 ba 05 aa b9 7d df 06 bd 8d 91 7e b3 83 70 ab b6
       -0.00032429193 -0.03292798 -5.927136e-08 -5.109295e-06
000080 a6 e7 45 ae 07 e0 02 b4 5c 60 cf b1 9e 81 8c ae
       -4.499836e-11 -1.2188694e-07 -6.0354477e-09 -6.3894876e-11
000090 80 ab ca b7 2b 83 01 b1 62 1a 91 3d 68 62 41 bd
       -2.4160137e-05 -1.884653e-09 0.0708511 -0.04721299
0000a0 45 83 0d ae e0 bd 28 b5 2e 90 5c b7 2d 20 19 31
       -3.217628e-11 -6.286118e-07 -1.3146591e-05 2.228272e-09
0000b0 b7 20 10 ba 57 92 96 ad 60 db 84 af 6b 5e 10 b9
       -0.0005498039 -1.7118014e-11 -2.4166535e-10 -0.00013768084
0000c0 57 5c cc b9 9b 8d d7 b6 35 ec bf 30 66 fb f5 b1
       -0.0003897871 -6.4239844e-06 1.3964213e-09 -7.159019e-09
0000d0 9b 74 75 3a 9a 0c 13 af be 0a 2e b3 23 b0 1f b9
       0.0009363384 -1.3374049e-10 -4.0522302e-08 -0.00015229038
0000e0 8f 01 ce ae ba 20 19 bd 78 52 8b 31 25 01 08 36
       -9.368072e-11 -0.037384726 4.054808e-09 2.0266245e-06
0000f0 fe 06 63 b0 12 2b 11 ac f8 48 09 b6 85 ce 14 32
       -8.2592055e-10 -2.0629648e-12 -2.0457064e-06 8.661691e-09
000100 d3 1d d3 35 98 03 3a ae c5 65 9d b5 e5 fc 9f b2
       1.5729405e-06 -4.2294696e-11 -1.172703e-06 -1.862504e-08
000110 be ab cf bc d7 0f ba b4 d6 b1 3c bd 1b 0c d1 36
       -0.025350448 -3.4656725e-07 -0.046068035 6.2300946e-06
000120 41 a8 c9 ad a1 4d 81 bc 05 fe fa ad dc 23 8c af
       -2.2925774e-11 -0.015784087 -2.8534517e-11 -2.549133e-10
000130 d2 6b e4 b6 21 00 74 3d 2b 22 0e 30 8c ec 4a ad
       -6.8074814e-06 0.059570435 5.1707855e-10 -1.1534895e-11
000140 71 f5 cc b0 7a f1 1f b7 a8 47 8c 3c 1a 5a a1 ba
       -1.4912712e-09 -9.533362e-06 0.017124012 -0.0012310178
000150 0a a6 ff 3a 08 3f 9b ae 88 69 9c b4 3c 86 f7 af
       0.001950444 -7.0597805e-11 -2.9134048e-07 -4.5024418e-10
000160 95 14 02 b3 bd 41 4e bc b3 c4 06 ba d3 01 81 b4
       -3.0286703e-08 -0.012588915 -0.0005141005 -2.402945e-07
000170 49 7d 7c ae dc 9f 40 b4 1e e8 9c b9 1a d5 c6 2e
       -5.7409442e-11 -1.793955e-07 -0.0002992758 9.041852e-11
000180 7b 48 18 af b5 ec cd b1 49 f5 bf 38 b6 fa 69 b0
       -1.385007e-10 -5.9931957e-09 9.153278e-05 -8.512119e-10
000190 a1 36 09 b5 ad fa 3e 29 44 90 77 b0 7c 02 b7 b7
       -5.111597e-07 4.24059e-14 -9.006309e-10 -2.1816457e-05
0001a0 78 9c 33 38 0f 85 17 35 fc 5e 52 2f f5 fa 03 3b
       4.282265e-05 5.644551e-07 1.9133134e-10 0.0020138596
0001b0 58 8a 01 31 fc b5 bb ae 8a ef fe ad c4 19 a9 bc
       1.885061e-09 -8.5361024e-11 -2.8982833e-11 -0.020642169
0001c0 67 00 c0 2f 15 b4 22 b1 b3 86 9f bc 5a 3e 82 b1
       3.4924882e-10 -2.3676467e-09 -0.01947341 -3.7905865e-09
0001d0 67 84 26 b7 c2 3e 76 b6 07 4f 90 36 10 5a 19 b0
       -9.925198e-06 -3.6693386e-06 4.3007344e-06 -5.578906e-10
0001e0 87 1f 73 bc 02 b1 09 b8 73 79 18 ba 1a e8 4c b1
       -0.01483906 -3.2828197e-05 -0.0005816437 -2.9817842e-09
0001f0 99 aa 06 b3 7f 86 ac ae 57 71 9b 32 b7 26 8f 35
       -3.1354464e-08 -7.845546e-11 1.8095916e-08 1.0665598e-06
000200 8f bb ab 2e 3f 32 a4 b7 28 87 e9 b9 43 a5 cc 2f
       7.809497e-11 -1.9573721e-05 -0.00044541922 3.722481e-10
000210 17 d4 7b b0 fe 2d 21 bd ce bb ae ab b4 5e bf b4
       -9.1614666e-10 -0.039350502 -1.241557e-12 -3.5645428e-07
000220 df 4c d2 3c d6 af ac 33 23 a2 7b af 58 f4 cb ba
       0.02567142 8.0413585e-08 -2.288592e-10 -0.0015560491
000230 b0 cc 34 bd 94 9e 04 3b 69 b9 84 b7 5d 05 a9 39
       -0.044140518 0.0020236121 -1.5821965e-05 0.00032238188
000240 5e ba 00 ae ad d7 5d b6 99 91 50 bb a6 ac 3d ad
       -2.9269358e-11 -3.3057106e-06 -0.0031825064 -1.0781742e-11
000250 f8 a1 6b af 51 95 e6 b0 c5 ba f8 3a 28 4f ca bc
       -2.1430668e-10 -1.6777141e-09 0.001897656 -0.024695948
000260 94 13 ed ae 30 f9 3d b0 f0 44 f4 2d 95 43 cd b4
       -1.078099e-10 -6.9111916e-10 2.7770203e-11 -3.8233398e-07
000270 a2 ad c9 ad 9e 8f 3f b8 2d 0f cc bc 80 88 19 ae
       -2.2928163e-11 -4.5671703e-05 -0.02490958 -3.490941e-11
000280 53 cd 65 ac d7 7c 81 b5 2d a1 a9 32 a0 aa b5 b4
       -3.2656835e-12 -9.647582e-07 1.9747484e-08 -3.3838023e-07
000290 64 3f 1c af a5 70 25 b0 fd 77 c1 b0 e0 2e be b3
       -1.4210638e-10 -6.018673e-10 -1.4076701e-09 -8.856091e-08
0002a0 77 7e af b5 2c 27 5b b2 29 8d ae bd 66 e0 b3 b4
       -1.3075322e-06 -1.2756384e-08 -0.08523018 -3.350462e-07
0002b0 0f 96 e7 bc 22 69 36 ba f5 63 75 bd bb ba 05 b0
       -0.028269796 -0.0006958415 -0.05990978 -4.865048e-10
0002c0 c1 73 f9 33 b1 91 30 2f e3 b6 47 b0 ce 6e 4d b3
       1.16160216e-07 1.6058867e-10 -7.2655676e-10 -4.783106e-08
0002d0 73 e7 07 b0 03 f9 92 b1 d9 bf 16 b2 9d 89 fa bc
       -4.9441623e-10 -4.2774686e-09 -8.77477e-09 -0.030583197
0002e0 9e 39 d8 b1 c1 64 63 b0 6e c5 12 b9 a1 40 c8 ae
       -6.2929777e-09 -8.27253e-10 -0.00013997193 -9.1064274e-11
0002f0 38 6d 11 b2 b9 d3 fc 2e 91 2c 63 3b 02 bf 7d 31
       -8.464944e-09 1.1497243e-10 0.0034664015 3.692492e-09
000300 f7 84 18 b2 92 dc 3e b0 c7 f0 0c bc 42 2c 07 35
       -8.877797e-09 -6.9435047e-10 -0.008602328 5.035582e-07
000310 7f 96 48 bc 51 99 a0 bc 47 9f 7a af 07 b6 b5 bc
       -0.012242912 -0.019604357 -2.2793954e-10 -0.022181524
000320 0c e3 6a af 2e 3f 39 39 24 82 66 b2 ed a4 05 ae
       -2.1362839e-10 0.00017666511 -1.3417353e-08 -3.0387182e-11
000330 e9 73 c4 b0 21 19 a2 b9 de cc ab b9 07 bf 12 b6
       -1.4293821e-09 -0.0003091777 -0.000327683 -2.1866888e-06
000340 24 39 3a b1 7c 71 de ad d0 9c 28 b7 e9 68 cb 37
       -2.7099043e-09 -2.5288875e-11 -1.0050091e-05 2.4248338e-05
000350 a2 ed 81 af b9 3f 63 2f 7c 11 20 af 68 41 e2 b1
       -2.3633812e-10 2.0668169e-10 -1.4558127e-10 -6.5849015e-09
000360 54 32 9e ad 0b 3b 36 ac a1 ea d3 b5 03 01 8b 3d
       -1.798487e-11 -2.589653e-12 -1.5789011e-06 0.06787302
000370 bb 1e 15 b7 aa c8 a6 bc ef 4b 24 b2 61 63 7b bd
       -8.888247e-06 -0.020359356 -9.563322e-09 -0.061374072
000380 c5 4c b4 2f b0 71 2d b3 e6 ac 7e 32 64 41 00 3d
       3.2796357e-10 -4.03831e-08 1.4824058e-08 0.03131236
000390 48 31 e8 37 1d d1 c4 b6 06 37 32 b2 c0 92 83 b7
       2.7679504e-05 -5.865599e-06 -1.03734745e-08 -1.5684753e-05
0003a0 61 2c 82 b6 03 33 6f b1 ab 53 c6 ae 24 71 1f 3b
       -3.8794683e-06 -3.4808074e-09 -9.01886e-11 0.0024328912
0003b0 95 6c 05 2f 11 cf 52 b1 95 23 e2 b8 69 d0 88 b7
       1.2134856e-10 -3.0676726e-09 -0.000107831474 -1.6309512e-05
0003c0 b3 e0 b4 b2 c9 9b 07 af aa 2f bf b8 2d dc cd bc
       -2.105694e-08 -1.2333524e-10 -9.116468e-05 -0.025129402
0003d0 4c 9b 79 ba 4f f5 61 ad 31 6f 23 b2 8b ff 99 3c
       -0.0009521737 -1.2844239e-11 -9.513131e-09 0.01879861
0003e0 8e f9 0e af 82 0f d7 bb 2e d9 56 af 5d dd e2 ac
       -1.3003484e-10 -0.006563128 -1.9540344e-10 -6.4478826e-12
0003f0 59 0f 5f ba d2 18 a0 b7 5b 15 08 ad 15 02 52 3a
       -0.0008509062 -1.9085044e-05 -7.735447e-12 0.00080111745

linear_hidden.0.weight f4 [256, 256]
000000 b3 e3 fb aa 70 d3 8e 2a 5e e8 21 24 8f 19 70 26
       -4.4744555e-13 2.5370981e-13 3.5108133e-17 8.3301365e-16
000010 f0 6a 23 33 93 59 79 a3 89 8d ef 1f 85 90 f2 2d
       3.8048654e-08 -1.3517285e-17 1.0145459e-19 2.7576394e-11
000020 6e 14 94 ad a1 0b 17 2b 1d 21 26 b0 99 ff 0e 33
       -1.6834725e-11 5.3662115e-13 -6.0437505e-10 3.3294416e-08
000030 aa d4 fe b0 d4 5b c2 b4 98 27 da 24 da 97 51 2b
       -1.8541375e-09 -3.620213e-07 9.4609504e-17 7.446245e-13
000040 92 4b b8 a2 78 99 76 33 5a 30 e5 31 5d 11 1f 32
       -4.9953313e-18 5.7415917e-08 6.670274e-09 9.258966e-09
000050 8c 54 85 28 85 85 e0 26 c8 f9 49 27 f6 b3 c9 ae
       1.4802633e-14 1.5579313e-15 2.802976e-15 -9.172389e-11
000060 80 8e 53 2f 85 c0 79 32 44 e6 c3 af 1a 0d a6 a7
       1.9240964e-10 1.4537481e-08 -3.5633907e-10 -4.608846e-15
000070 dd 66 21 2f 91 f1 f8 31 bc a4 5f 37 a4 25 8b 2b
       1.4679409e-10 7.245213e-09 1.3330191e-05 9.886991e-13
000080 e7 19 99 a2 70 85 54 28 19 93 64 25 f2 04 26 22
       -4.149816e-18 1.1797299e-14 1.9825686e-16 2.2499813e-18
000090 61 4a 69 2b d4 54 2d a7 51 21 16 b3 e7 bb 93 31
       8.288145e-13 -2.4054558e-15 -3.4954898e-08 4.299625e-09
0000a0 04 93 50 a2 2f 0c 5a 2a 2d 22 79 ab 52 57 85 a7
       -2.8267086e-18 1.9366517e-13 -8.851e-13 -3.700959e-15
0000b0 91 ea 02 b0 bc 41 89 21 2c c6 80 25 cd 2b 31 2d
       -4.7627063e-10 9.300881e-19 2.2338747e-16 1.0071011e-11
0000c0 5d 57 bc 35 8f d9 47 ac bb b0 c6 b7 3b e7 0e a7
       1.4032518e-06 -2.840037e-12 -2.3685736e-05 -1.983181e-15
0000d0 8d c0 ff 31 4f d7 c3 a0 4b 90 fd 27 e3 a6 8a 2d
       7.4433673e-09 -3.3176764e-19 7.037805e-15 1.5762896e-11
0000e0 6d 38 10 b8 7a 0a 2c 32 cf 49 05 aa ec 9c 52 2c
       -3.4384826e-05 1.00141e-08 -1.183838e-13 2.9929904e-12
0000f0 4f 27 b5 b1 db 35 02 23 7c fe bd aa aa 22 a5 2d
       -5.272262e-09 7.0587185e-18 -3.3749728e-13 1.8773722e-11
000100 ee 0e 3f aa 0f ff 15 21 dc 14 b0 ad 21 2a 5c a6
       -1.6969388e-13 5.082073e-19 -2.0018147e-11 -7.638493e-16
000110 8a 50 10 32 23 73 18 ab 55 84 5c 31 1b bc 9e ad
       8.400216e-09 -5.416103e-13 3.2089436e-09 -1.8046056e-11
000120 bd 4a 1d a4 0b 0f cd b1 45 d2 60 a6 2e d9 8b 34
       -3.4107254e-17 -5.9679954e-09 -7.800058e-16 2.6048787e-07
000130 bf 7a 98 2c 7b 79 57 b3 fb 00 e7 24 11 d5 ef a0
       4.3337274e-12 -5.0169074e-08 1.0018194e-16 -4.062917e-19
000140 d9 94 bc 28 20 b8 db ac 37 88 05 b1 eb 12 e1 b1
       2.0936745e-14 -6.2447963e-12 -1.9431476e-09 -6.5505126e-09
000150 ab 72 47 31 bc 62 b8 33 4d 04 5d aa c8 fc 23 a5
       2.9023492e-09 8.5861274e-08 -1.9630235e-13 -1.4223642e-16
000160 e5 5a 14 af c2 50 c6 31 59 f0 d5 30 b3 07 10 ac
       -1.3492814e-10 5.7717395e-09 1.5566101e-09 -2.0467905e-12
000170 e9 29 72 27 7f f8 e5 a9 57 11 f2 b5 5a 0a 99 a4
       3.3606966e-15 -1.021275e-13 -1.8035452e-06 -6.637071e-17
000180 98 f5 1e a6 63 9c d5 25 0e 18 39 2f 6a 68 28 ae
       -5.5150103e-16 3.7055582e-16 1.6834198e-10 -3.8291516e-11
000190 1e ae 93 ab 25 32 1e a3 6d 4b ad a6 96 f4 8c 2d
       -1.0493305e-12 -8.575816e-18 -1.2024731e-15 1.6024775e-11
0001a0 17 4f 5f ae e0 36 08 2c 6c 24 3e a7 25 a6 83 31
       -5.0774576e-11 1.9357224e-12 -2.6387541e-15 3.8314902e-09
0001b0 40 32 5b b5 1c 86 eb b2 7c ee 1b a2 7e 4d cd 30
       -8.165698e-07 -2.7418587e-08 -2.113267e-18 1.4937738e-09
0001c0 0e 83 7c a5 63 1b 86 a8 7f bc 4a 33 5d 03 a1 a9
       -2.1901919e-16 -1.4888866e-14 4.7203226e-08 -7.15042e-14
0001d0 8b 77 9f b4 00 e4 12 af 25 eb ab 31 71 85 57 25
       -2.9703037e-07 -1.3359625e-10 5.003488e-09 1.8693489e-16
0001e0 ef 7d 3e b2 de c1 45 2f 65 e3 e9 ae 10 65 ea 25
       -1.108809e-08 1.7985921e-10 -1.0636007e-10 4.0661012e-16
0001f0 c0 c6 9c aa ee 78 63 23 45 79 17 29 34 24 24 2d
       -2.7849077e-13 1.23313025e-17 3.363392e-14 9.330359e-12
000200 18 a7 1f b4 18 7f 98 ae 35 d4 ed 2e 32 f9 8a 28
       -1.4868817e-07 -6.934736e-11 1.0815208e-10 1.5429149e-14
000210 50 fd 8c 28 03 ec eb 32 f3 17 9c b7 b3 2e d4 ac
       1.5652979e-14 2.7464926e-08 -1.8607801e-05 -6.030587e-12
000220 55 38 d1 32 ae ca 8b 30 81 d7 d4 34 ef ec 9d 34
       2.4356419e-08 1.0171186e-09 3.9644877e-07 2.941592e-07
000230 3b ae e9 31 63 e5 69 31 7e 5c 15 ae b3 4b cf b1
       6.801e-09 3.4036354e-09 -3.3960827e-11 -6.033099e-09
000240 db 38 d7 32 e6 de bb ac d3 8e ec b4 f3 4d 0c a2
       2.5055149e-08 -5.3396064e-12 -4.4062344e-07 -1.9014804e-18
000250 a2 a9 4d 9e a1 e7 b2 27 0d b8 45 2e b0 e1 c1 31
       -1.0887689e-20 4.9656057e-15 4.4956084e-11 5.642697e-09
000260 d3 e4 f0 26 d8 a9 9f a7 21 88 08 25 b3 78 95 ab
       1.6715368e-15 -4.431551e-15 1.1842242e-16 -1.0620588e-12
000270 fe af 94 a2 e9 ad ec 2e 1f 8f 94 b0 73 3f 05 a3
       -4.030182e-18 1.076293e-10 -1.0809095e-09 -7.22338e-18
000280 05 99 4a a2 0c 64 91 2c b0 f0 9b af 61 19 f8 b6
       -2.7457113e-18 4.1322553e-12 -2.8365355e-10 -7.3939304e-06
000290 9a a1 c5 a5 49 b5 e5 34 30 c7 13 a5 df ab a1 2b
       -3.4283558e-16 4.2786476e-07 -1.2817705e-16 1.1487442e-12
0002a0 96 ff a0 ab d2 a7 b2 b0 a9 d6 44 32 1e 2a c4 a9
       -1.1439623e-12 -1.2998902e-09 1.145751e-08 -8.711455e-14
0002b0 ac c5 36 33 df c6 4a 30 20 37 b6 b2 41 4f a8 a5
       4.255496e-08 7.3769785e-10 -2.1212657e-08 -2.919706e-16
0002c0 a3 61 0a 30 66 a3 35 20 73 93 3d a6 15 40 37 aa
       5.034286e-10 1.538536e-19 -6.577238e-16 -1.6275898e-13
0002d0 9f 12 48 33 03 2e 10 a7 e8 78 58 a8 44 10 13 33
       4.6583065e-08 -2.0008957e-15 -1.2016626e-14 3.4240898e-08
0002e0 05 7f 92 af 5b 0d a7 a4 0b 9e ed 2d 1d 0e e4 28
       -2.6647498e-10 -7.244733e-17 2.7013966e-11 2.5319206e-14
0002f0 79 27 35 a9 d0 38 0f a6 3c 6b 11 32 d6 33 9c 32
       -4.022431e-14 -4.9690087e-16 8.464493e-09 1.8184362e-08
000300 76 f2 57 a8 a0 dd 76 26 55 38 b0 32 0a b6 bc 2c
       -1.1987473e-14 8.5648753e-16 2.0514713e-08 5.3634918e-12
000310 96 04 34 b2 4c 90 b3 32 8c be 8a 27 c1 0c 32 33
       -1.0478422e-08 2.0903961e-08 3.8509286e-15 4.1455454e-08
000320 cc 0a 23 a4 af 93 12 ae 00 01 78 a6 95 7e 88 26
       -3.5354136e-17 -3.3327726e-11 -8.604364e-16 9.471206e-16
000330 22 98 93 34 30 70 97 2e cb 72 8b b0 4d 49 ab 2b
       2.7491575e-07 6.8866135e-11 -1.0146207e-09 1.2170626e-12
000340 b7 91 27 25 f3 2a ef 32 51 2c 9d a9 96 1b b8 2e
       1.4534311e-16 2.7842793e-08 -6.979888e-14 8.3722515e-11
000350 f6 17 f5 a5 4a d7 9c a6 80 56 08 23 d1 c4 08 a9
       -4.2516962e-16 -1.0883029e-15 7.390892e-18 -3.0368777e-14
000360 23 d3 40 a3 8b 5c ad a2 65 5e 40 ab e1 1d 28 b3
       -1.0453051e-17 -4.6989728e-18 -6.83431e-13 -3.9142723e-08
000370 ef 71 73 b0 b4 4c 56 33 c3 51 b8 2f 83 82 10 33
       -8.8564794e-10 4.989552e-08 3.35275e-10 3.3646312e-08
000380 b4 34 95 37 c9 97 20 aa 49 d4 8b 2b 1a fa d9 32
       1.7786726e-05 -1.4263516e-13 9.935465e-13 2.5375858e-08
000390 34 47 8e ac f5 e8 1b 2d 44 38 0a a5 d0 8a 29 2c
       -4.043788e-12 8.862457e-12 -1.1988656e-16 2.40934e-12
0003a0 d1 a8 a6 ac ea fe 51 a8 dc c6 91 a6 a1 a9 8a b1
       -4.736746e-12 -1.1657106e-14 -1.0115297e-15 -4.035613e-09
0003b0 54 50 87 a7 07 67 8b a9 29 08 6b b1 4a 1f 41 b5
       -3.755712e-15 -6.1907124e-14 -3.420164e-09 -7.1943634e-07
0003c0 f2 e2 2a aa ba c9 47 a4 43 05 03 af 6e 0d 60 33
       -1.517777e-13 -4.3322116e-17 -1.191625e-10 5.216628e-08
0003d0 40 5a 19 b0 2f 9f 94 20 0a 4b c7 26 b1 f5 45 b1
       -5.578933e-10 2.5177514e-19 1.3828738e-15 -2.8806932e-09
0003e0 49 05 04 a7 8f 5e 41 35 8b 38 7b a5 94 0e e8 23
       -1.8321545e-15 7.2035704e-07 -2.1789937e-16 2.5159664e-17
0003f0 f1 28 24 30 98 2b 74 2c 5a 88 c0 a4 3a 72 f9 b0
       5.9721034e-10 3.4698685e-12 -8.3497715e-17 -1.81496e-09

linear_hidden.0.bias f4 [256]
000000 b0 e4 95 b3 7e 2c 81 3d 5b a9 d5 35 bf be 48 b6
       -6.979951e-08 0.06307314 1.5919026e-06 -2.9913351e-06
000010 4d b4 8d 32 40 66 93 3d 01 b1 5b b4 ac 85 93 3d
       1.6496552e-08 0.07197237 -2.0460358e-07 0.0720323
000020 e0 21 16 36 45 dc 24 33 6c 40 05 36 88 fe c1 3d
       2.237146e-06 3.838456e-08 1.9856043e-06 0.09472376
000030 84 e2 65 b0 f8 e4 d1 b3 1b 81 2c 3b 61 e1 37 b5
       -8.363161e-10 -9.77397e-08 0.002632207 -6.850078e-07
000040 78 e7 ac 38 31 3e 0f 37 33 c1 b3 b1 6b 13 31 34
       8.2447135e-05 8.537944e-06 -5.23155e-09 1.6491474e-07
000050 98 fb ca 32 ab 9b 4d 37 97 95 fe 87 9d 96 a5 b4
       2.3630307e-08 1.2255196e-05 -3.8305593e-34 -3.084323e-07
000060 3a d3 88 35 53 44 bf 3d fa 5b 4f 33 59 e6 44 b3
       1.0194265e-06 0.09339204 4.8279595e-08 -4.5844306e-08
000070 c7 4e af 3d 25 f4 2b a8 ba 78 b9 b3 9c 6c b5 37
       0.085599475 -9.545347e-15 -8.636694e-08 2.1627457e-05
000080 d2 d0 d6 b2 04 74 fb b1 08 1e 22 3a 70 d2 8f b2
       -2.500784e-08 -7.318251e-09 0.00061842846 -1.6743087e-08
000090 08 4c 23 b0 6f a8 30 b6 27 b0 1a 37 b3 9b c6 b6
       -5.94071e-10 -2.6324085e-06 9.220129e-06 -5.9189856e-06
0000a0 2b 6f ea b5 1e 6c 46 b0 45 6a 7f 33 3d 72 0e 35
       -1.7466713e-06 -7.2185624e-10 5.9468466e-08 5.306536e-07
0000b0 37 54 67 33 a0 9b c8 37 ae 81 7a b6 19 3b 02 36
       5.386047e-08 2.3914326e-05 -3.7328386e-06 1.940591e-06
0000c0 fe 84 4d 34 2d 69 22 3d dd 52 30 b4 a8 6f 5c b0
       1.9140495e-07 0.039651085 -1.6421423e-07 -8.0194207e-10
0000d0 27 aa 3a 38 44 bc 68 3d aa 14 4b 33 f0 70 54 b3
       4.4504322e-05 0.05682017 4.7283415e-08 -4.9462813e-08
0000e0 4e 01 75 38 2d cc 0c b3 40 a8 27 b3 09 c7 76 33
       5.8413767e-05 -3.2781987e-08 -3.903574e-08 5.745736e-08
0000f0 0c 98 37 33 63 17 fb b2 98 9b 32 34 74 c8 8d 3d
       4.2746294e-08 -2.923088e-08 1.6634147e-07 0.06922999
000100 d4 81 c5 36 53 fa ea ae 10 1e 90 3d 45 cc 13 b4
       5.8861715e-06 -1.06855545e-10 0.07036984 -1.3764755e-07
000110 ff a6 4e 37 18 89 6a 33 f3 00 00 80 2d d8 90 37
       1.2317439e-05 5.4607057e-08 -3.4e-43 1.7266802e-05
000120 ea 06 46 a7 c9 14 d3 31 2d cc 16 34 b3 ad f6 30
       -2.7481768e-15 6.1432712e-09 1.4044117e-07 1.7948224e-09
000130 7d 10 54 b2 a6 2e 12 b4 37 00 00 80 90 ec 2b 35
       -1.2343773e-08 -1.361428e-07 -7.7e-44 6.404671e-07
000140 a9 49 14 35 05 a5 8c 3d 7d 4c 84 35 c5 8d 28 33
       5.5241486e-07 0.068674125 9.857027e-07 3.9244487e-08
000150 34 20 bc a2 13 c0 51 35 44 99 49 3a 67 e3 61 3d
       -5.09916e-18 7.813807e-07 0.000769038 0.05514851
000160 38 50 e7 b2 ae fc e9 35 5c 21 f4 35 e2 14 7e 34
       -2.6928419e-08 1.7433392e-06 1.8189126e-06 2.366319e-07
000170 50 32 ee 9e 11 3b 94 3d ef ca 99 b0 04 d7 b0 32
       -2.5220039e-20 0.072378285 -1.1189892e-09 2.0586874e-08
000180 a5 83 54 34 3d 13 9e 37 22 cc a7 35 e1 96 98 35
       1.979193e-07 1.8844026e-05 1.250188e-06 1.1368794e-06
000190 2a 07 00 80 78 bf aa 3d fc ce 6e 38 1e dd 4b 3d
       -2.57e-42 0.08337301 5.693639e-05 0.04977142
0001a0 60 ba 94 ae f4 72 56 35 e6 34 a5 b1 fc 4b 1a 33
       -6.7633676e-11 7.988849e-07 -4.808146e-09 3.5925027e-08
0001b0 d0 5d 5a b4 53 a3 28 38 38 68 0f b2 09 9a 8b 33
       -2.0336961e-07 4.020643e-05 -8.347392e-09 6.500711e-08
0001c0 4c 1c 20 39 19 80 24 b1 9f 06 35 b2 42 d0 33 ae
       0.0001526933 -2.3937956e-09 -1.0537092e-08 -4.0884858e-11
0001d0 e4 52 6d 35 56 09 b4 3d 2e 4b d6 a8 10 19 41 2e
       8.841e-07 0.08790843 -2.3791377e-14 4.390538e-11
0001e0 9e c1 93 3d 00 09 26 3d 35 ec b1 35 10 e5 62 aa
       0.07214664 0.040535927 1.3256273e-06 -2.0152304e-13
0001f0 3c 65 96 35 5c fd 98 34 40 7c a6 34 33 e6 83 af
       1.1205334e-06 2.849655e-07 3.1010313e-07 -2.3992328e-10
000200 57 ad 85 97 c6 4a 12 33 2d 39 bb 3d da a8 a5 34
       -8.638681e-25 3.406128e-08 0.09141765 3.08565e-07
000210 08 63 68 b1 2b 09 91 3d 18 5f bd 3d 89 c6 a5 3d
       -3.3816736e-09 0.07081827 0.09246653 0.08094508
000220 cb 7b 59 b6 c7 1e 98 38 66 25 a2 b5 51 37 bd b0
       -3.2407577e-06 7.2536575e-05 -1.2080825e-06 -1.3767282e-09
000230 57 80 91 af 29 d9 d6 b3 98 5e c0 3d 5a 6e 4b 2f
       -2.6466537e-10 -1.0004653e-07 0.09393042 1.8501947e-10
000240 e6 6a d0 b2 5c bd bd 3d 70 1d 26 aa e8 08 d3 33
       -2.4262999e-08 0.09264633 -1.4753975e-13 9.827073e-08
000250 ec 5b ad 31 f1 48 48 a9 42 03 be b4 b4 63 25 32
       5.045413e-09 -4.4472188e-14 -3.5392628e-07 9.626934e-09
000260 7f bf 65 b1 04 6a 51 a8 27 1e 8f b2 23 5d b8 b6
       -3.3432739e-09 -1.1624819e-14 -1.6661103e-08 -5.49447e-06
000270 ac 68 4e b3 ca 11 8b b8 61 91 d9 b6 a0 88 3f 3d
       -4.805831e-08 -6.63135e-05 -6.4840283e-06 0.046761155
000280 cb 93 2f 96 2f 34 f4 a9 06 f1 50 34 a1 8d 52 b3
       -1.4183023e-25 -1.0844829e-13 1.9459193e-07 -4.9023246e-08
000290 55 19 9a 32 42 b0 95 b2 35 80 02 38 6c b4 1a 36
       1.793948e-08 -1.7426036e-08 3.1113817e-05 2.3052808e-06
0002a0 ed 61 64 33 3f 68 97 3d 6a 01 2f 35 c9 cd 47 36
       5.317445e-08 0.0739293 6.519464e-07 2.9773094e-06
0002b0 8d ad 19 b5 e0 e0 96 b1 0d f9 1e b6 56 30 61 35
       -5.724949e-07 -4.39114e-09 -2.3688801e-06 8.388937e-07
0002c0 f1 c3 28 34 0b 01 fe b8 78 f7 5d 3d 66 b5 6b af
       1.5717502e-07 -0.00012111858 0.054191083 -2.1437571e-10
0002d0 a3 7b 68 b7 1f 00 04 38 2e bb 6b 33 2c 9d 60 b0
       -1.3857064e-05 3.1471365e-05 5.488544e-08 -8.171408e-10
0002e0 f4 d5 0d 02 5e 01 3c 3d 90 cf ca 31 f4 11 c1 34
       1.0420446e-37 0.04589974 5.902571e-09 3.5962114e-07
0002f0 72 c3 90 b2 bf 6b 1d 34 d1 ba bc b5 4b 4b 3f a9
       -1.6852685e-08 1.4660962e-07 -1.4061462e-06 -4.2475826e-14
000300 92 09 39 b6 8c be 9b 34 68 04 83 31 4f 01 00 80
       -2.757272e-06 2.900964e-07 3.8131027e-09 -4.7e-43
000310 37 3c 68 32 68 06 5a b0 20 e4 a4 b3 6d 6d d7 a7
       1.3517869e-08 -7.931704e-10 -7.678341e-08 -5.9793127e-15
000320 cd 8b 2b b2 39 46 62 34 b4 f4 ab b4 68 54 81 b2
       -9.985297e-09 2.1073437e-07 -3.2029277e-07 -1.505596e-08
000330 68 ca ee b4 d9 ad 06 36 d3 26 60 31 ba 98 16 b0
       -4.4478224e-07 2.0068749e-06 3.261836e-09 -5.478672e-10
000340 32 8f d0 35 8d d6 ac 33 b5 86 79 b1 7e ac d2 85
       1.5538883e-06 8.048401e-08 -3.631084e-09 -1.9811669e-35
000350 5b 3c bf 3d bd 55 aa 3d a3 93 02 b4 44 07 59 b4
       0.09337684 0.083171345 -1.2160903e-07 -2.0212343e-07
000360 4d 6f 90 34 18 b9 ea b2 dd 07 94 3d 61 a5 8f 3d
       2.6903072e-07 -2.7325356e-08 0.07228062 0.070139654
000370 da 56 be 36 64 5b 99 3d b2 5a bb 36 0e b6 d3 96
       5.672552e-06 0.074881345 5.5835926e-06 -3.420378e-25
000380 a7 43 40 34 cc 5a 8a b4 ee e1 3f 35 13 77 95 b3
       1.7906005e-07 -2.5770566e-07 7.1481816e-07 -6.960013e-08
000390 e6 05 4e b4 78 59 ae 9d 8d 7d e3 a3 1c 7c 96 32
       -1.9187391e-07 -4.6149925e-21 -2.4664562e-17 1.7518737e-08
0003a0 ad 3f 28 33 d0 22 7b b4 41 5f a6 35 2e e6 be 32
       3.917346e-08 -2.3388861e-07 1.2395686e-06 2.2223585e-08
0003b0 09 01 00 80 02 b4 9b b1 a5 22 e2 34 da d7 d6 b1
       -3.71e-43 -4.5315582e-09 4.2120988e-07 -6.252759e-09
0003c0 d3 cd b0 b7 80 03 a6 33 3c 5f 80 3d 30 11 84 b5
       -2.107668e-05 7.730614e-08 0.062681645 -9.839769e-07
0003d0 13 0f 17 b6 86 2f ae 38 48 f1 6e b2 9d 36 80 b0
       -2.2509528e-06 8.3058185e-05 -1.3908284e-08 -9.328748e-10
0003e0 7d 65 6e 33 9a 32 8a 32 97 75 d8 36 10 f5 a9 3d
       5.5505996e-08 1.6088325e-08 6.450991e-06 0.08298695
0003f0 28 4e af 3d 1e 8c 5f b3 3d fb c1 b4 50 62 24 af
       0.08559829 -5.204867e-08 -3.613185e-07 -1.4950641e-10

linear_output.weight f4 [1, 256]
000000 00 8a 49 b3 12 c2 16 3e 17 6f 1f b7 b9 a0 ae b7
       -4.692447e-08 0.1472247 -9.503004e-06 -2.0817259e-05
000010 6f 37 1b 33 60 6c 2d 3e a8 d6 b4 33 19 74 2d 3e
       3.6139166e-08 0.16935873 8.420949e-08 0.16938819
000020 39 8f 0d b5 93 d4 42 b4 96 f3 50 b7 73 ad 4b 3e
       -5.273501e-07 -1.8144992e-07 -1.245448e-05 0.19890384
000030 1c cc 72 b3 17 af 8c b5 8c 22 aa 3b 9e 05 22 b2
       -5.6530652e-08 -1.0481771e-06 0.0051921066 -9.430918e-09
000040 dd b4 47 ba 09 ad 74 b8 26 84 5b a2 62 29 21 34
       -0.0007618198 -5.8335285e-05 -2.9749993e-18 1.5009348e-07
000050 ab 11 8e 33 0e 9e 3c b6 0d 02 00 80 6d e9 99 34
       6.615604e-08 -2.8106183e-06 -7.36e-43 2.866831e-07
000060 42 56 95 b6 df 06 4a 3e c2 19 51 b4 21 29 bd b3
       -4.4505878e-06 0.19729184 -1.9474012e-07 -8.8084796e-08
000070 bf 83 39 3e df 01 00 80 08 2f 4e 33 30 ad 36 b9
       0.18116663 -6.71e-43 4.8005887e-08 -0.0001742139
000080 16 fe d5 32 20 58 21 33 f6 c5 39 3a 3b 20 63 32
       2.4912008e-08 3.7565883e-08 0.00070866884 1.3220467e-08
000090 e5 f8 03 b1 fe 76 1b b7 df 56 86 b8 9a f1 d2 b6
       -1.920449e-09 -9.266425e-06 -6.405799e-05 -6.286614e-06
0000a0 06 19 5a b6 b6 6f a2 9c b2 c4 2e b3 52 e6 96 b5
       -3.2499097e-06 -1.0749137e-21 -4.0691425e-08 -1.1242903e-06
0000b0 53 57 63 b5 c5 ec 51 b9 54 cd 34 36 70 f7 40 b7
       -8.4691163e-07 -0.00020019997 2.6941607e-06 -1.1501703e-05
0000c0 5c 61 d7 33 1d 89 d1 3d f2 84 a4 33 a9 cb 05 9d
       1.0029427e-07 0.102312304 7.661028e-08 -1.7707693e-21
0000d0 55 ab dc b9 c3 78 10 3e 57 e7 f2 b4 24 3a 6d b5
       -0.00042089322 0.14108567 -4.5244335e-07 -8.8373986e-07
0000e0 d4 56 08 ba 0c 8d 02 b3 6e db 1f b5 34 14 ea 33
       -0.00052009267 -3.0396265e-08 -5.955143e-07 1.0900149e-07
0000f0 a3 f2 ea b3 6b 37 38 34 31 52 f2 b3 ad b9 25 3e
       -1.09406095e-07 1.7156496e-07 -1.1283954e-07 0.16184111
000100 15 72 27 b8 3a bd b1 2f a6 c3 29 3e 6d 70 6a b5
       -3.992215e-05 3.2330566e-10 0.1657854 -8.7335394e-07
000110 59 fb 03 36 89 2a 4e 33 50 01 00 80 97 13 29 b9
       1.9666825e-06 4.8001798e-08 -4.71e-43 -0.00016124394
000120 0a 01 00 00 0f cc dd 31 c3 6e 8f 34 11 80 78 32
       3.73e-43 6.4551453e-09 2.6716415e-07 1.4464619e-08
000130 eb 87 b5 32 ee e9 c6 34 cc 00 00 80 19 66 44 35
       2.1132982e-08 3.705058e-07 -2.86e-43 7.316426e-07
000140 1d ec 73 b4 f5 ca 17 3e 73 6e 0c 36 a0 53 ad 32
       -2.2717036e-07 0.14823516 2.0925916e-06 2.0177879e-08
000150 bd 00 00 80 a5 ba 7b 35 e0 12 31 bc 0c e6 14 3e
       -2.65e-43 9.377639e-07 -0.010807723 0.14540881
000160 a6 b3 40 33 a4 d0 11 b7 d9 25 7c 34 91 bc 94 34
       4.4866873e-08 -8.691251e-06 2.3483098e-07 2.7704348e-07
000170 c7 00 00 00 1d b4 1e 3e 93 30 3f 9e 20 49 14 33
       2.79e-43 0.15498395 -1.0121501e-20 3.4525442e-08
000180 53 6d f9 35 71 c5 2a b9 ef 49 ff b6 ab ad 82 37
       1.8583763e-06 -0.00016286016 -7.608199e-06 1.5578078e-05
000190 b5 07 00 00 58 2d 35 3e 08 7a db 37 dd 42 03 3e
       2.765e-42 0.17693079 2.616366e-05 0.12818475
0001a0 76 4c 90 15 cc 13 08 35 5f ba 24 31 5d cd 9c 32
       5.828177e-26 5.0692756e-07 2.397108e-09 1.8254179e-08
0001b0 22 a4 f8 b5 dc b4 b3 b9 90 c7 1b 31 a9 ba 1b 32
       -1.8525209e-06 -0.0003427629 2.2668907e-09 9.064629e-09
0001c0 91 1e c3 ba 0a 3a 01 a0 38 bf 41 32 ed 25 09 15
       -0.0014886429 -1.0945929e-19 1.1277557e-08 2.7696848e-26
0001d0 bf d1 53 35 e5 b7 3e 3e 9a ff 25 86 ff 65 f4 b1
       7.8908846e-07 0.18624838 -3.1220837e-35 -7.1129302e-09
0001e0 61 b3 2d 3e 1d c0 d6 3d 81 3b d5 34 06 ef 05 8d
       0.16962959 0.104858615 3.9717636e-07 -4.1271503e-31
0001f0 2e e1 3d b6 66 53 94 b4 54 dc 8c 34 0d e9 db af
       -2.8294266e-06 -2.7627829e-07 2.6237342e-07 -4.000146e-10
000200 96 00 00 00 bb 2f c6 b3 e5 ee 44 3e d5 de 8a b5
       2.1e-43 -9.2287756e-08 0.19231756 -1.0346654e-06
000210 4b 35 c9 b2 c4 9a 2a 3e 4b e9 46 3e 72 8e 30 3e
       -2.3423715e-08 0.16660601 0.19424932 0.17241839
000220 49 98 21 b8 17 f5 c3 38 a2 21 b5 b5 b8 a9 9c 33
       -3.8527218e-05 9.343976e-05 -1.3495339e-06 7.295188e-08
000230 a2 b2 a1 b2 11 ca 03 34 7d 26 4b 3e 9a 3a fc b0
       -1.88241e-08 1.2273837e-07 0.19838901 -1.8352069e-09
000240 66 0f 8c 32 e9 72 47 3e 31 9b eb 08 b3 c9 af b4
       1.6305147e-08 0.19477428 1.4180033e-33 -3.2743046e-07
000250 e9 11 80 33 98 03 00 80 b0 48 f0 33 d2 64 52 b2
       5.963722e-08 -1.289e-42 1.1189093e-07 -1.2246533e-08
000260 5b 8a 64 a0 f4 00 00 80 37 c5 5f 32 ba b0 bb 36
       -1.9358129e-19 -3.42e-43 1.302515e-08 5.593608e-06
000270 f7 0d 51 34 c2 b3 b3 b9 ac fb 47 37 55 3e f9 3d
       1.9469722e-07 -0.0003427547 1.1919921e-05 0.12170092
000280 ee 00 00 80 05 0e 00 80 02 a5 24 b5 d6 75 2b b2
       -3.34e-43 -5.029e-42 -6.133488e-07 -9.980303e-09
000290 34 67 ea b2 28 ca b8 b3 49 82 87 b9 2d 4f 3a b6
       -2.7288117e-08 -8.60494e-08 -0.00025846277 -2.7762246e-06
0002a0 9c 00 dd b3 30 c6 31 3e c5 ee 24 b5 2d 26 8d 37
       -1.0291225e-07 0.17360759 -6.1442216e-07 1.6826287e-05
0002b0 41 24 12 b4 58 0c eb a1 66 e3 86 36 56 d3 8f b7
       -1.3610499e-07 -1.5927487e-18 4.019984e-06 -1.714534e-05
0002c0 f6 91 ed 33 42 46 00 b7 46 de 12 3e 2c 11 51 31
       1.1062723e-07 -7.645753e-06 0.14342603 3.0423264e-09
0002d0 a8 12 cb 36 89 47 8c b9 47 60 3c b4 ac c8 0e b1
       6.0520433e-06 -0.0002675618 -1.754389e-07 -2.0777788e-09
0002e0 f8 4f ab 81 b9 0d f3 3d e6 0f 97 b3 74 71 17 30
       -6.293023e-38 0.11867852 -7.034377e-08 5.5094707e-10
0002f0 f2 55 d7 a4 bf e5 4f 34 34 e2 d4 35 5c 70 51 07
       -9.3386984e-17 1.9361958e-07 1.5861065e-06 1.5756432e-34
000300 69 fd 84 36 79 90 9f 34 e3 3e 5e b2 ba 00 00 00
       3.9634074e-06 2.9721176e-07 -1.29363995e-08 2.6e-43
000310 b5 19 12 b4 d5 f7 57 b1 50 8c 93 33 a3 00 00 80
       -1.3606662e-07 -3.1427494e-09 6.8707436e-08 -2.28e-43
000320 40 e7 9e b4 b6 69 4c 33 08 bf ee b4 82 f6 00 b3
       -2.959805e-07 4.7593595e-08 -4.4469948e-07 -3.002652e-08
000330 41 82 86 b1 8b 06 90 36 0e b7 37 31 b7 2c 62 b2
       -3.9147214e-09 4.292296e-06 2.673406e-09 -1.3165098e-08
000340 71 35 c8 b6 8f 39 0a 34 c3 cd f2 b3 23 2d a0 86
       -5.966686e-06 1.2873191e-07 -1.1306431e-07 -6.0251633e-35
000350 a7 05 49 3e 57 95 34 3e ab 62 3c 33 94 34 44 b7
       0.19631062 0.17635094 4.38619e-08 -1.1694752e-05
000360 c8 55 ca 34 20 b3 20 b2 22 00 2e 3e 96 89 27 3e
       3.7687846e-07 -9.353954e-09 0.16992238 0.16361079
000370 e1 0d f1 b7 88 48 32 3e b4 63 1d b8 6c 00 00 80
       -2.8735902e-05 0.17410481 -3.7524573e-05 -1.51e-43
000380 0d ec 0c 33 6b 84 84 34 fe 95 41 b6 2b 00 89 34
       3.2810977e-08 2.4683263e-07 -2.8846548e-06 2.551836e-07
000390 96 a1 98 b3 fd 00 00 00 58 01 00 00 ca 09 48 b3
       -7.107444e-08 3.55e-43 4.82e-43 -4.6575032e-08
0003a0 21 b0 e4 b3 a8 10 87 b5 af 55 41 37 c1 e4 8a 33
       -1.0649115e-07 -1.0063131e-06 1.1523646e-05 6.467736e-08
0003b0 69 00 00 80 0c 71 4a a4 65 6a 92 34 c5 43 0d a4
       -1.47e-43 -4.3897522e-17 2.727203e-07 -3.0631904e-17
0003c0 bc 39 07 b7 0b 87 15 b4 4b e0 15 3e 6f c2 a7 35
       -8.060069e-06 -1.3925835e-07 0.14636342 1.2499057e-06
0003d0 bd 54 19 b8 a8 dd 6a ba f6 aa 3b 34 de 85 74 31
       -3.655696e-05 -0.0008959421 1.7477927e-07 3.5582768e-09
0003e0 fb 0b b7 33 df 82 b6 32 32 f8 08 37 45 6e 34 3e
       8.523781e-08 2.1247102e-08 8.164019e-06 0.1762019
0003f0 98 d0 39 3e f6 5a 24 33 7f 1a 0e 35 6c db b9 16
       0.18145978 3.8266954e-08 5.293768e-07 3.0026837e-25

exp_avg f4 [256, 17]
000000 76 62 4f b0 dd 29 2d b0 e7 75 72 2f 60 94 bc 2f
       -7.544608e-10 -6.2996525e-10 2.2051659e-10 3.4302428e-10
000010 f6 78 0b b0 7d 05 19 b0 c2 58 0a 2d f7 50 c9 2f
       -5.07398e-10 -5.5668875e-10 7.8641e-12 3.6619216e-10
000020 f4 9a b6 af 94 8b 05 b0 ba 55 11 2e 1b 28 d4 2f
       -3.3215708e-10 -4.858347e-10 3.3045323e-11 3.8591072e-10
000030 54 fc 72 b1 67 73 dd 2e 8d ad 68 2f 93 14 f7 2f
       -3.5359067e-09 1.0070416e-10 2.1161935e-10 4.4943657e-10
000040 7d 53 85 af 02 6b 58 31 20 37 96 31 4e 96 9d 31
       -2.425188e-10 3.1492964e-09 4.3718416e-09 4.586389e-09
000050 d2 2b 24 2d b7 e3 54 31 23 e5 a8 31 15 1a a2 31
       9.332051e-12 3.0979501e-09 4.9154933e-09 4.7177857e-09
000060 2f 72 03 ad cf a6 4c 31 4d 21 b2 31 60 f2 a4 31
       -7.471842e-12 2.9780727e-09 5.1842677e-09 4.800583e-09
000070 fc 03 24 2d 14 ae 43 b1 cb 20 8d 30 ce 15 38 2f
       9.323205e-12 -2.8475187e-09 1.0268421e-09 1.6742449e-10
000080 36 cc aa 30 99 81 b6 b0 8b 12 ad ac 32 f1 3f ab
       1.2427168e-09 -1.3279077e-09 -4.9190144e-12 -6.8191557e-13
000090 9a a6 f5 2d 49 9e b6 ac 62 c7 9c ac 9f 0c 6d ab
       2.7927261e-11 -5.1903243e-12 -4.4559226e-12 -8.421683e-13
0000a0 b2 cb e8 2d 5a 52 b6 ac cf 45 ac ac 79 b9 18 ac
       2.6465805e-11 -5.181894e-12 -4.8962843e-12 -2.1703457e-12
0000b0 b6 5d d6 2d 1e 91 a3 ac 75 79 38 ae 53 31 78 ad
       2.43706e-11 -4.64885e-12 -4.1944632e-11 -1.410812e-11
0000c0 ac 56 cf ad ed af 83 ac db 87 cb ab 85 41 89 ab
       -2.3571665e-11 -3.7427756e-12 -1.4461725e-12 -9.752621e-13
0000d0 4a 42 27 ac 06 4f 85 2a ac be 83 2a 80 a6 d2 ab
       -2.3768925e-12 2.368038e-13 2.340258e-13 -1.496761e-12
0000e0 6a 30 2e ac 0d b2 36 2b c7 02 6c 2a 00 bc 14 ac
       -2.4753762e-12 6.4906484e-13 2.0961974e-13 -2.1136426e-12
0000f0 e0 6b 30 ac 03 30 96 2b 55 e5 8a 2a 72 a6 3e 2d
       -2.5070987e-12 1.0671467e-12 2.4672855e-13 1.0837208e-11
000100 f1 75 51 aa 90 7e 62 2b fb 18 a6 2c b5 a1 d2 ab
       -1.8603848e-13 8.046697e-13 4.720777e-12 -1.496628e-12
000110 60 fa 18 3a 43 0a 96 39 12 80 60 39 d8 f9 6e 38
       0.00058356486 0.00028617875 0.00021410015 5.6976307e-05
000120 d2 ee fe 39 bc 23 32 39 04 28 c6 39 ae e0 ae 38
       0.0004862459 0.00016988715 0.00037795317 8.3388164e-05
000130 81 69 e9 39 3c 78 0b 39 72 21 09 3a 2f 9f 44 38
       0.0004451983 0.00013300864 0.0005231119 4.6878293e-05
000140 0c 56 db b8 27 0d 16 39 2d 6d 09 39 6e 71 bb 39
       -0.00010458761 0.00014310014 0.0001310601 0.0003575193
000150 63 f9 09 3a 2e a9 4a ab 71 56 29 ab 6f 0b 3d 2b
       0.0005263297 -7.19996e-13 -6.0160823e-13 6.7162156e-13
000160 0b 57 00 aa 96 af 4f ab 63 25 2f ab d0 78 2a 2b
       -1.1398883e-13 -7.378485e-13 -6.2224374e-13 6.0563794e-13
000170 76 3b 05 aa 2c 50 52 ab 10 fc 2e ab 3a aa 16 2b
       -1.1833403e-13 -7.471825e-13 -6.2167025e-13 5.352694e-13
000180 d2 ff 09 aa db d8 28 ab f3 fc f3 aa 38 3a 33 ab
       -1.22568e-13 -5.9986537e-13 -4.334099e-13 -6.367437e-13
000190 d3 d4 0f aa 4c c3 fa 2a 16 90 f4 aa 91 42 41 ab
       -1.277479e-13 4.4544435e-13 -4.3443087e-13 -6.8659753e-13
0001a0 02 6c 15 2b ad 33 df 29 61 88 26 ab 2f 1a 81 ab
       5.3085325e-13 9.912154e-14 -5.916431e-13 -9.173269e-13
0001b0 e4 3a 1f 2b 7b f1 db 29 11 5e 58 ab f3 7d a5 ab
       5.6569875e-13 9.767444e-14 -7.686916e-13 -1.1758913e-12
0001c0 2d cb 27 2b cc c1 d8 29 0e 08 bc aa ce f1 1b aa
       5.961228e-13 9.625945e-14 -3.3401098e-13 -1.3850658e-13
0001d0 3b b3 34 a9 55 e0 9f 2a 06 12 b1 28 73 e9 0b b5
       -4.0123487e-14 2.8399735e-13 1.9658764e-14 -5.212125e-07
0001e0 d6 0a 56 b4 8a 7f 02 35 1a 9b 69 b2 5c 6a 14 b5
       -1.9934245e-07 4.861437e-07 -1.3597651e-08 -5.528907e-07
0001f0 24 a8 58 b4 d6 51 e6 34 f3 18 9b b2 9d fb 23 b5
       -2.0177737e-07 4.2900382e-07 -1.805572e-08 -6.108838e-07
000200 7a 8d 84 b4 3f 0c da 34 35 ac a5 b2 b9 5e 03 b5
       -2.4689854e-07 4.0614574e-07 -1.9286839e-08 -4.893914e-07
000210 68 07 a7 b3 cb 5a f9 b3 ea f5 f1 34 09 e4 99 33
       -7.777891e-08 -1.1611481e-07 4.5068674e-07 7.166097e-08
000220 ba 30 6c b5 e3 80 aa b4 1d b5 30 35 98 56 a8 b4
       -8.798776e-07 -3.1758745e-07 6.5828664e-07 -3.1355444e-07
000230 eb 0b a1 b5 3c 36 47 b5 b0 4f 0b 35 97 b6 ac b4
       -1.1998903e-06 -7.42122e-07 5.1897496e-07 -3.2170348e-07
000240 d6 a1 c7 b5 ad 7b 97 b5 1d ba f6 34 7a 2b 9d b4
       -1.4873756e-06 -1.1286371e-06 4.5956486e-07 -2.9275162e-07
000250 c0 11 3b b6 56 65 16 b5 9a 71 4a b5 ff 20 ef b3
       -2.7875503e-06 -5.602682e-07 -7.5416176e-07 -1.1135307e-07
000260 2e ea 96 b5 b2 02 38 31 2d ae 81 31 1a 4a c1 32
       -1.1244026e-06 2.6777056e-09 3.7741956e-09 2.2501855e-08
000270 0e 06 01 31 0b 9c 1c 31 23 21 86 31 29 08 ca 32
       1.8775412e-09 2.2789688e-09 3.9036805e-09 2.3519606e-08
000280 72 41 08 31 d4 80 f7 30 c2 96 8a 31 de d9 d4 32
       1.9827806e-09 1.800823e-09 4.033468e-09 2.4779123e-08
000290 59 dd 08 31 83 1d 0c b3 44 b3 f0 30 ec 71 0d b1
       1.9916426e-09 -3.262313e-08 1.7513249e-09 -2.0582958e-09
0002a0 5e 78 04 30 48 4c 41 b0 4e 39 0b b6 57 75 8d b5
       4.819237e-10 -7.0321393e-10 -2.074597e-06 -1.0539469e-06
0002b0 63 b7 bb 35 67 52 bf b4 73 d6 22 b6 64 7d d6 b5
       1.3985958e-06 -3.5636478e-07 -2.4264707e-06 -1.5980736e-06
0002c0 6e 25 8c 35 fc 75 c2 b4 c2 16 3a b6 20 46 16 b6
       1.0441706e-06 -3.622116e-07 -2.7729407e-06 -2.239256e-06
0002d0 31 a8 37 35 5b 44 ca b4 5b f7 20 b6 be 51 db b5
       6.8417563e-07 -3.7675167e-07 -2.3985838e-06 -1.6340562e-06
0002e0 b4 88 e7 b5 28 1c 15 b5 9b 03 3a 36 f5 de 23 b9
       -1.7250627e-06 -5.55478e-07 2.7718258e-06 -0.0001562795
0002f0 8c c0 76 ba d1 d3 b0 ba a7 9f 2f 3a c0 24 bd b8
       -0.0009412847 -0.0013490861 0.000669951 -9.0190675e-05
000300 97 7d 6d ba 67 92 c5 ba ba dd 35 3a 59 9e c6 b8
       -0.0009059547 -0.0015073539 0.0006937642 -9.47087e-05
000310 65 01 72 ba de 84 da ba 9b c5 4c 3a 59 f4 00 3b
       -0.0009231775 -0.0016671678 0.0007811428 0.0019676893
000320 f9 78 25 3a 33 6b f2 39 f0 44 22 b8 8c bd 8a ba
       0.0006312277 0.00046237707 -3.8688013e-05 -0.0010585054
000330 7f 20 58 ad 85 e3 27 ae 7b bd 17 ae 48 93 d7 2b
       -1.2285394e-11 -3.8173482e-11 -3.4501717e-11 1.5317548e-12
000340 22 ca 60 ad 3f 06 38 ae 9f 46 2e ae 6d 54 90 2b
       -1.2777808e-11 -4.1842304e-11 -3.9625744e-11 1.0255248e-12
000350 9c b2 75 ad d7 e8 4d ae cd d5 49 ae c1 1d 99 2b
       -1.3966297e-11 -4.6818407e-11 -4.5892002e-11 1.0879562e-12
000360 aa 11 43 ad 33 0c d8 ac 5d cf b0 ac 62 00 36 2c
       -1.1088389e-11 -6.1404436e-12 -5.025243e-12 2.5863968e-12
000370 08 9c ac ab e0 fe 65 b7 db a5 50 b7 8f f3 32 b7
       -1.2264642e-12 -1.3708806e-05 -1.2436382e-05 -1.0666335e-05
000380 eb c5 2b 34 ae f5 66 b7 26 f0 4e b7 c6 f6 35 b7
       1.5997618e-07 -1.376627e-05 -1.2334471e-05 -1.0845897e-05
000390 36 b4 8b 34 ea d8 6d b7 8c b7 50 b7 97 12 34 b7
       2.6021888e-07 -1.4176805e-05 -1.2440501e-05 -1.0733164e-05
0003a0 eb e3 1d 34 03 12 e9 37 71 42 9a b6 cd f9 38 b5
       1.470468e-07 2.7784152e-05 -4.5972924e-06 -6.890885e-07
0003b0 36 2d 9b b7 ff cd 1c b8 48 af 30 ac 45 b2 ca 2a
       -1.8498493e-05 -3.7385147e-05 -2.5108405e-12 3.6006107e-13
0003c0 49 58 d5 2c c2 d7 10 ac 12 d0 2f ac 1b 98 18 2b
       6.0636257e-12 -2.05834e-12 -2.4984498e-12 5.4212337e-13
0003d0 95 8d d4 2c af bf 08 ac 35 63 2e ac 5b aa 37 2b
       6.041121e-12 -1.9433168e-12 -2.4781958e-12 6.5251076e-13
0003e0 d1 8d d2 2c fb d9 07 ac b6 7d e4 ac 7c c6 38 ac
       5.9843038e-12 -1.9305657e-12 -6.4941065e-12 -2.6258154e-12
0003f0 27 ba 8a ac 20 39 99 ac d5 00 13 ac 12 ef e8 ac
       -3.942863e-12 -4.3548637e-12 -2.0890418e-12 -6.6203787e-12
