src/scripts/ddpg/weights/critic_best.pth (torch, 853167 bytes, 15 tensors)

linear_input.weight f4 [256, 17]
00000000: 30d4 6231 7d87 a531 9303 4031 b2fd e630
00000010: 06fa 4e31 b528 b931 2efa d630 e5da e730
00000020: d488 4031 44bb da31 7213 1630 7b77 e630
00000030: 0877 60b2 eded 7eb2 10b5 ce31 81b2 05b2
00000040: 855f 5132 8061 2033 a346 9233 8eea af33
00000050: 0e21 c832 61e3 1d33 c4ad 9b33 c5a8 9f33
00000060: f289 c932 f02f 2633 aa12 b133 9f94 8433
00000070: 3179 c732 5e38 b4b4 8758 4fb4 f29b 4233
00000080: 70f5 6eb3 490e 4b34 03a2 ffaf 7751 1830
00000090: 30f0 3031 2b46 a62f 7766 34b0 64bb 8030
000000a0: 09e6 d430 9343 a32f de7d 7cb0 b1d7 a330
000000b0: eeae 5030 9b12 a32f c5db 57b2 3021 83b1
000000c0: fee5 eb2f 877a 99b1 2e82 3430 419c 97b2
000000d0: 39e9 ab32 ddab a831 d8db 9ab1 a6fb a2b2
000000e0: 50df cc32 8c68 d431 10b7 9bb1 f4a8 afb2
000000f0: 1111 0433 420d ad31 e19c 9bb1 0ca6 1bb4
00000100: 74b9 38b3 4fc7 9132 f1f2 11b2 2b0c c730
00000110: f975 c4b9 244f 0d39 1d81 2d3a 64f2 08b9
00000120: 65e9 bdb9 4f58 3039 4dc3 343a 58f9 09b9
00000130: ccfe c1b9 36b7 5439 e48b 383a 7d87 07b9
00000140: 6730 b1b8 95cb 8e3a 0d92 2eb9 6385 10b9
00000150: 29de 803a ee03 6830 8ed2 df31 dbbb 4d32
00000160: 6b4a b731 8d11 9230 a272 0b32 afa0 1a32
00000170: c789 b731 b926 8d30 892c 3732 7b9f df31
00000180: fb5a b731 bd72 52b3 3a82 17b3 24c9 6332
00000190: 9021 6ab2 eaab 0c33 f133 94b0 de1a 75b1
000001a0: a466 0432 af80 c431 cdd9 4e2f 3e67 d4b0
000001b0: 639a b731 3796 c331 1743 c830 a859 b130
000001c0: ed1c 3531 f83d c331 5cf7 7ab3 9394 04b3
000001d0: 097d 9a31 0096 9eb2 9d16 e231 ceb7 77b3
000001e0: 1805 d633 f9fc b12e ab75 bf31 bbd4 86b3
000001f0: e9d3 f433 ed6c abb1 9e7a ad31 14d8 98b3
00000200: 81e7 0e34 d059 73b2 dbae b131 f0c6 e6b4
00000210: 2f71 b6b3 70b3 5533 11e5 29b3 efbc 96b3
00000220: 6146 40bb a7cc dcbb 11a7 053c a478 88b9
00000230: 1c86 8fbb 5f1d 2cbc 6f3c d93a 3606 90b9
00000240: 5b2a e8bb 0ad1 72bc 4751 d2ba a13b 87b9
00000250: 70a0 523d f6b1 90bc 6e60 c63b 54b2 6ebb
00000260: b31d 20bc ddb2 04b1 00a6 1130 403a 2631
00000270: 3ae0 81b0 10cb 09b1 bc25 3b30 ead2 2831
00000280: 5efa 81b0 a17f 0fb1 6aeb 4630 363b 2b31
00000290: 3429 81b0 b68d 11b0 ce8d 6531 38a1 99b0
000002a0: 2a45 83b0 e4f6 2a31 d303 4fbc d859 91ba
000002b0: abfb f33b 26c8 be3b c252 6ebc d307 9f3b
000002c0: 27fd 2c3c e143 bd3b 2f95 81bc 843b 413c
000002d0: 9cb8 633c a3a1 be3b d9a6 8dbd 127b 2dbc
000002e0: 1a8b 873c 02fb e23c be63 a53b 2a1b 9fbb
000002f0: 7690 b43b fe37 a13b dfff 3a3c 842b 013c
00000300: 783a 093c 9cf7 a93c 808a 3b3c 8933 183d
00000310: 2d24 833c 8177 253d c2ea 3c3c b8be b8bd
00000320: 4f5a 273d 0f04 f13a 5cd1 513d 3d5c 97bd
00000330: 860c b3bc 57df 5dbb 5bdd 433c 8f9d 2f3c
00000340: 53ec d2bc 8a76 eb3b c96c 8f3c f21a 2e3c
00000350: 1b95 e6bc ad98 a13c 7e29 c33c 5504 2f3c
00000360: 118d f8bd 7a97 8ebc 6a53 013d 11c1 4b3d
00000370: 91ac 933b 7328 31b5 1219 a335 4ffa a634
00000380: 97c9 ebb4 d596 44b5 5dcc c735 024b bc34
00000390: 82ea edb4 8bfe 66b5 6632 f235 f1bc b134
000003a0: 2955 ebb4 98b8 d8b6 da02 00b6 4cb1 8035
000003b0: e07f 1cb4 93e4 5833 6526 adb6 9a1d a037
000003c0: ef7c e935 e544 92b6 feec c0b6 db65 c637
000003d0: 6c05 ff35 cbf2 94b6 8096 e0b6 c584 f537
000003e0: 336a 3c35 0f8f 91b6 5dd7 b9b8 4a7a 81b7
000003f0: dec2 9537 7857 5836 02d5 4db7 f33a 81b6
3.3007943e-09 4.8175353e-09 2.794171e-09 1.6806807e-09 3.0119067e-09 5.3888365e-09 1.5641655e-09 1.6869676e-09
2.8017455e-09 6.3659247e-09 5.4597316e-10 1.6768661e-09 -1.3065581e-08 -1.4838844e-08 6.0159735e-09 -7.782206e-09
1.218712e-08 3.734158e-08 6.8115035e-08 8.191738e-08 2.3298096e-08 3.676121e-08 7.249358e-08 7.4347135e-08
2.346221e-08 3.8693486e-08 8.2456e-08 6.173763e-08 2.322176e-08 -3.3568625e-07 -1.9310583e-07 4.5310976e-08
-5.5636917e-08 1.8911045e-07 -4.6499346e-10 5.5413046e-10 2.5747902e-09 3.0245081e-10 -6.562923e-10 9.366485e-10
1.549041e-09 2.9697542e-10 -9.1855934e-10 1.1921114e-09 7.591855e-10 2.9662747e-10 -1.2564617e-08 -3.8163748e-09
4.290967e-10 -4.466816e-09 6.5668615e-10 -1.764977e-08 2.0013077e-08 4.908982e-09 -4.5069832e-09 -1.8973719e-08
2.3850276e-08 6.1818977e-09 -4.5319055e-09 -2.0449512e-08 3.0749167e-08 5.03647e-09 -4.528929e-09 -1.4495907e-07
-4.3009507e-08 1.6970857e-08 -8.495349e-09 1.4482614e-09 -0.0003747193 0.0001347629 0.00066186656 -0.00013060268
-0.00036222782 0.00016817565 0.0006895557 -0.00013158226 -0.00037001667 0.00020286147 0.00070398883 -0.00012925077
-8.449033e-05 0.0010894412 -0.00016648341 -0.000137826 0.0009831834 8.440669e-10 6.5140915e-09 1.1975284e-08
5.3344613e-09 1.0627886e-09 8.116929e-09 9.000515e-09 5.3416644e-09 1.0270106e-09 1.0662128e-08 6.508285e-09
5.3363443e-09 -4.899879e-08 -3.5275868e-08 1.3258873e-08 -1.3628224e-08 3.2752645e-08 -1.078318e-09 -3.5667465e-09
7.706749e-09 5.7189804e-09 1.8812969e-10 -1.5454373e-09 5.3435527e-09 5.6923244e-09 1.4570983e-09 1.2903927e-09
2.635541e-09 5.682292e-09 -5.8432633e-08 -3.0868772e-08 4.4962047e-09 -1.8461833e-08 6.5800365e-09 -5.767634e-08
9.966078e-08 8.093965e-11 5.572209e-09 -6.278557e-08 1.14006816e-07 -4.9891384e-09 5.0489026e-09 -7.117356e-08
1.3309001e-07 -1.4164883e-08 5.1712568e-09 -4.2985585e-07 -8.4956234e-08 4.9756125e-08 -3.9556713e-08 -7.019286e-08
-0.0029338824 -0.0067382636 0.0081575075 -0.00026029826 -0.0043800008 -0.0105050495 0.0016573797 -0.00027470448
-0.0070851273 -0.014820347 -0.0016045951 -0.00025793634 0.051422536 -0.017662983 0.006053976 -0.003642221
-0.009772706 -1.93102e-09 5.2986593e-10 2.418929e-09 -9.449714e-10 -2.0051552e-09 6.808383e-10 2.4567108e-09
-9.457144e-10 -2.0881787e-09 7.2366524e-10 2.4917433e-09 -9.397696e-10 -5.2952076e-10 3.3404493e-09 -1.1178036e-09
-9.551162e-10 2.4878597e-09 -0.012635189 -0.0011089398 0.0074457726 0.0058221994 -0.014546098 0.0048532276
0.010558403 0.005775914 -0.015818207 0.011793975 0.013898995 0.0058176084 -0.06916589 -0.010588424
0.016545821 0.02770758 0.0050472906 -0.004855533 0.005510385 0.004920005 0.0114135435 0.00788391
0.008375756 0.020747952 0.011446595 0.037158523 0.01600846 0.04039717 0.01153058 -0.09020752
0.04085761 0.001838805 0.05122505 -0.0739064 -0.021856558 -0.0033855045 0.011954631 0.010718717
-0.025747454 0.007185762 0.017507927 0.010626541 -0.02814727 0.019726122 0.023823496 0.010682185
-0.12136281 -0.017406214 0.03157369 0.04974467 0.0045066555 -6.59965e-07 1.2151743e-06 3.1102033e-07
-4.3918837e-07 -7.323518e-07 1.4886133e-06 3.5072304e-07 -4.4315317e-07 -8.6052086e-07 1.8045073e-06 3.3106292e-07
-4.3834123e-07 -6.458791e-06 -1.9075146e-06 9.588343e-07 -1.4575153e-07 5.0499306e-08 -5.1602715e-06 1.908727e-05
1.7396213e-06 -4.3591594e-06 -5.7496354e-06 2.365087e-05 1.9000558e-06 -4.4390085e-06 -6.6932407e-06 2.9268102e-05
7.019e-07 -4.337991e-06 -8.861602e-05 -1.5434944e-05 1.7852926e-05 3.2237422e-06 -1.2268547e-05 -3.851362e-06

linear_input.bias f4 [256]
00000000: 5328 16b2 2ad6 8cb3 60be acb1 c4fb 47b2
00000010: f1b0 26b9 0d43 88b2 8b51 bbb2 aa32 49b3
00000020: 26f8 07bb d673 6fb0 c0e5 fe3c 9ad5 733d
00000030: deed 633d 3eef 2fb4 902e 3536 e5e5 1ab6
00000040: 1427 a2b6 a6ec 8f3c d3a2 f93b 143c f4b9
00000050: bdfa b1af 9d01 89b0 c8d7 6abc f267 0cb2
00000060: 7fd9 b83b 1d6d 09b9 c6d2 26b8 e527 e5b0
00000070: f1d3 21b8 351a 953c f5ca 3bbd 95a8 c0bc
00000080: 9ba5 b83c ac91 2e3c f929 9db2 2f76 baaf
00000090: fcb2 4d34 7b32 163d 34cf 1eb3 b848 a3b8
000000a0: b627 c0b0 75cf 88b2 866f d33c 4487 a0b7
000000b0: e81d bbb2 fcd9 433d 1f61 bdb1 5008 bd30
000000c0: b3a5 243d 984e 8038 b61f 9e3c 6ce8 a3b3
000000d0: c90d 9db9 3405 66b5 25ae 44b1 6a15 373c
000000e0: bf3c e1b4 eb33 3fbd daec 10b7 50c1 963a
000000f0: 002c e72d 5b06 07b5 1181 ca30 70b1 b7b5
00000100: c678 c33a edc6 32b3 6424 0e33 e80c 65bd
00000110: 442a b334 214a 88b3 f536 25b7 c516 82bc
00000120: 91a6 55b8 c560 04b6 d9ee ee39 b552 2db4
00000130: 3a05 a83c c1a8 c4ae 4ddd f134 c792 7cbc
00000140: 2209 9a33 4bc0 da3c 4df6 05b1 dd95 20b3
00000150: 4f58 86b0 8bc1 cab3 b342 b7b2 3701 7baf
00000160: 5280 b2b1 b6c8 8a36 64ee 81b3 ff38 c33c
00000170: ca0c e63c d277 0930 547a 9d3a 4867 093d
00000180: 40b4 9730 a059 03b9 a2a9 0fb4 eb39 64bb
00000190: 4cb9 7ab2 6120 a2b1 a15b 9fb2 8553 97bc
000001a0: eadd 38b5 0f24 b4b0 6440 0839 b191 01bd
000001b0: d144 1ab2 90aa 9d3c 1964 afb1 da77 13b4
000001c0: a9a4 b339 b6ee 67bd 2fd0 0bba 1f8c 03bc
000001d0: db2d 7cbd fb24 4f3d 220a fdb7 0d99 9631
000001e0: f023 aa3b 04ec 41b9 3b17 3ab8 9071 9ab0
000001f0: 8bf6 933c faa5 ef2f 4a01 c7b4 b0e1 50b9
00000200: 8d61 7c3c b89d bfb0 640e e6b2 ccb3 f2b0
00000210: aba3 bf3c 16b7 063c 1cf5 17b0 5ae2 a53c
00000220: ba11 a7bb ec8f 6dbc fecb f7bc 1106 17bd
00000230: f9f8 5a35 e7ca 00b7 37e5 7a3c e5d5 553b
00000240: 792f 9ab3 b719 b83c 96ce 643b f657 163b
00000250: 2ed6 323b 7208 57bb b6ba 0bb1 5161 b436
00000260: 4def 13b1 4bbf bb39 7955 4c30 176d 0cb7
00000270: c5f4 0fbd 87df 013d b08c 12bd f7f0 fe3c
00000280: 1310 37b8 761c e1b6 5953 03bc 5ad0 6db1
00000290: a8c2 38b4 3b32 f531 99a2 2ebb 466d 72b7
000002a0: 07a2 2f37 3ed7 8b38 9132 9b34 ef1e 67b1
000002b0: 2581 acb6 6849 f43c 2d2c 9c3d 94d5 8cb1
000002c0: 9aa8 a1b8 a7a5 33b1 10c4 6cb0 668b 863c
000002d0: 878c 549b fe09 7cb8 d2fb afb7 81c8 b43c
000002e0: b06e 343a 2a94 923c f635 733c a2d0 50b3
000002f0: cae9 523c 20a2 f23c bc89 52b0 f0e9 6338
00000300: 7b8c a43b a7cc a0b6 0ceb 05b2 fd1d 0238
00000310: e430 ca2f 56c8 3e33 0b28 8c3a ff15 3e35
00000320: d1ff acb0 55ec 7fb2 8298 60bc 89ad e4bb
00000330: 8e9f a4b6 8da3 1b3d 98ed 1db5 3a27 53b1
00000340: 573e d839 2a0f e2b7 388d 30b5 daf5 64b3
00000350: 334a 02b1 91bc adb6 6b49 4cb8 95a3 66b6
00000360: 2ee4 b53c f83e a739 da1a b1ba ac19 9eb4
00000370: a9a1 3f3c 3323 d3ae 84a6 0db2 124f a2bd
00000380: a5f8 22b3 1204 5fb6 ab29 a1bd 64db 08bb
00000390: e183 c1b3 0d3d 11b5 39a9 d9ba 77b1 ef3c
000003a0: 128a 77b8 58a9 3dbd 18a8 e6b3 cc30 e6af
000003b0: ca52 83b3 491a c6b3 e47d fdbc 15c0 41b9
000003c0: 252f c0b1 7777 593d 1792 04b3 085e 78b0
000003d0: 94e8 b7b3 1443 d53c bc3f 68b4 9de4 39b0
000003e0: 198d 01b4 9609 773a b8e0 f63b 554e 6a35
000003f0: 849a 23b3 e752 7fb0 5ad1 57b0 5482 ff3c
-8.740318e-09 -6.558214e-08 -5.027502e-09 -1.1640569e-08 -0.0001589691 -1.5862975e-08 -2.1806747e-08 -4.6845038e-08
-0.0020747273 -8.7112306e-10 0.031115413 0.05952988 0.05564677 -1.6385181e-07 2.6998205e-06 -2.3081604e-06
-4.8325255e-06 0.017568897 0.007618287 -0.00046584068 -3.2374273e-10 -9.96852e-10 -0.014333673 -8.172707e-09
0.005641162 -0.00013105986 -3.9773782e-05 -1.6673282e-09 -3.8582777e-05 0.018200973 -0.04584785 -0.023517886
0.022539904 0.010654848 -1.8296292e-08 -3.3917177e-10 1.9157227e-07 0.036669236 -3.6975692e-08 -7.7859906e-05
-1.3981125e-09 -1.5926824e-08 0.025810014 -1.9136474e-05 -2.1783265e-08 0.047815308 -5.5116653e-09 1.3753922e-09
0.040197086 6.118155e-05 0.01930223 -7.632556e-08 -0.00029955644 -8.568925e-07 -2.8620744e-09 0.011174539
-4.1953714e-07 -0.046680372 -8.638215e-06 0.0011501703 2.62812e-11 -5.030067e-07 1.4734117e-09 -1.3686204e-06
0.0014913313 -4.1624777e-08 3.309505e-08 -0.05592051 3.33721e-07 -6.3464775e-08 -9.847562e-06 -0.015879998
-5.0938284e-05 -1.972586e-06 0.00045572853 -1.6141969e-07 0.020510305 -8.943025e-11 4.5050766e-07 -0.015415854
7.172845e-08 0.02670302 -1.9494053e-09 -3.7389203e-08 -9.774882e-10 -9.441563e-08 -2.1334335e-08 -2.2828749e-10
-5.19507e-09 4.1360863e-06 -6.0503936e-08 0.023830889 0.02808227 5.0010585e-10 0.0012014606 0.033545762
1.1037926e-09 -0.00012526521 -1.3379625e-07 -0.003482456 -1.4594047e-08 -4.7185016e-09 -1.8551704e-08 -0.018472442
-6.886827e-07 -1.3106972e-09 0.00012993958 -0.031633083 -8.979627e-09 0.01924637 -5.10455e-09 -1.3734044e-07
0.00034264222 -0.056624137 -0.0005333451 -0.008029013 -0.06156717 0.050572377 -3.0164669e-05 4.3829744e-09
0.0051922724 -0.00018493837 -4.436749e-05 -1.1237251e-09 0.018061897 4.359178e-10 -3.7067576e-07 -0.00019920501
0.015404117 -1.3941905e-09 -2.6782068e-08 -1.7658919e-09 0.023393473 0.008222362 -5.52818e-10 0.020249534
-0.0050985487 -0.014499646 -0.030248638 -0.03687102 8.157363e-07 -7.676636e-06 0.015313438 0.0032628712
-7.179819e-08 0.0224732 0.0034913174 0.0022940612 0.0027288306 -0.003281143 -2.0333295e-09 5.375747e-06
-2.1527342e-09 0.00035809944 7.433623e-10 -8.37005e-06 -0.03514554 0.031707313 -0.0357787 0.03112076
-4.364557e-05 -6.708836e-06 -0.008015477 -3.4606473e-09 -1.7207151e-07 7.136149e-09 -0.0026647209 -1.4449766e-05
1.0468538e-05 6.6681285e-05 2.8907792e-07 -3.3632508e-09 -5.141034e-06 0.02982016 0.07625613 -4.0988173e-09
-7.708483e-05 -2.614209e-09 -8.613492e-10 0.016423892 -1.7581636e-22 -6.0090788e-05 -2.0978889e-05 0.022068264
0.0006882949 0.017892916 0.014844408 -4.8618524e-08 0.0128731225 0.029618323 -7.659329e-10 5.433889e-05
0.0050216294 -4.7921963e-06 -7.795062e-09 3.1022344e-05 3.6778325e-10 4.4420027e-08 0.0010693086 7.0812524e-07
-1.2587354e-09 -1.4896689e-08 -0.013708236 -0.006978695 -4.9061555e-06 0.03799777 -5.88328e-07 -3.0726839e-09
0.00041245177 -2.694836e-05 -6.577061e-07 -5.3308987e-08 -1.8959667e-09 -5.177754e-06 -4.8705766e-05 -3.4367888e-06
0.022203531 0.00031899638 -0.0013512031 -2.9448472e-07 0.011696258 -9.601422e-11 -8.2451415e-09 -0.07925238
-3.7944705e-08 -3.3231959e-06 -0.07869276 -0.002088272 -9.0112515e-08 -5.410555e-07 -0.0016606218 0.029259427
-5.9017977e-05 -0.046304077 -1.0740786e-07 -4.1871429e-10 -6.115222e-08 -9.224875e-08 -0.030943818 -0.0001847747
-5.593295e-09 0.053092446 -3.0866513e-08 -9.03555e-10 -8.563907e-08 0.026032962 -2.162987e-07 -6.7627487e-10
-1.2065392e-07 0.00094237307 0.007534113 8.728578e-07 -3.8091926e-08 -9.288627e-10 -7.851405e-10 0.031190075

linear_hidden.0.weight f4 [256, 256]
00000000: 812c dfb5 cf56 c3b6 f18f 8baa 993d e62d
00000010: 8c4d bdb5 8d27 5e37 d4db 2ead bff9 8e32
00000020: 36dd a135 8cd9 812d 83b1 9b35 503d 4436
00000030: ddd0 44b5 4860 b0af e058 cfb6 e118 0f38
00000040: 5ef2 1035 8a86 1935 5c96 5035 c62c 86b1
00000050: e927 afb5 a24c 0735 d2db 1936 fb5f 2832
00000060: 6b06 8735 d388 04b5 c680 4732 8460 5b2e
00000070: 8325 5833 12cc 0835 ed59 0d35 e867 c133
00000080: 745b fa35 cfb9 2e33 4ebd ffb1 c3ab 14b6
00000090: 9b17 8333 2588 1f36 6ac7 cbaf 0cc6 a4b3
000000a0: c397 012c 5912 2833 7d4c 7036 44b0 03b2
000000b0: 0322 38b1 caef 92b5 c992 8b2a 5e72 51b7
000000c0: 1ddf 7936 86d2 ae35 9d8b 6036 5ad4 f22a
000000d0: afc0 7fb6 c733 70af 5c61 a831 7d1d d535
000000e0: 0abf 1cb4 bdc6 bc35 97c0 c333 17da a633
000000f0: a8c1 87af 07b3 3ab5 a467 cbb2 54a6 642f
00000100: 5f1e db34 c9f3 a92f 34ac 9432 d4e7 0636
00000110: 25f1 9034 e1c7 cf2d 1a47 4c30 cff0 2d35
00000120: 425a 3433 da33 c731 ffbc 3937 7e59 17b7
00000130: 0ee0 d635 48b9 f9b4 8dcf a533 bbfe 8536
00000140: 1439 a22e 0e71 4636 197c 5830 40d2 ffaa
00000150: bace 9e34 eac5 0d2f 014b fcab 1f0c cdae
00000160: 0a33 242f f675 a9ad 16d0 8035 ad9d 6136
00000170: 1874 9e36 7f98 98b7 b83d 8bb6 7193 8236
00000180: 60dc 2e30 3741 0734 f9c4 abb2 817a 2636
00000190: 363b 2ab2 731c 5c31 cd27 e7b0 2caa ed35
000001a0: 6f21 86b4 0b99 94b0 d386 10b4 cb35 8b35
000001b0: aea1 62b4 eb68 9a35 be5e 4ab2 6b04 20b7
000001c0: d86e 91b5 9ae7 c635 7c26 b035 9a20 ac35
000001d0: f95a 0a36 5f74 4e36 cd0a 0634 2325 2d2c
000001e0: 7f4f bd34 2a98 bcb3 06c1 42b6 feae f4aa
000001f0: 99cb 0735 99b5 912f b9aa 9b2b 92f1 5133
00000200: 165e 0435 4fb7 91b6 4ac3 4a30 ec31 fa2e
00000210: b92c 3c35 f2b6 0235 1af3 0033 e2da 1c36
00000220: 3af9 d036 a995 6136 99bc 7236 ddec a335
00000230: 8a4d ce2e 33c0 0331 a056 cd35 92bf db35
00000240: 6013 58af bcd5 4136 0031 c835 a3e1 cb35
00000250: fbb7 da34 e50b 9936 7e62 80b0 df30 c5b1
00000260: 4eb1 78b4 68bd 98b3 a077 a42c e028 53b6
00000270: 3e4d ca35 3c6a 2936 a878 0f36 06fb ac36
00000280: da7a 3eb3 0f69 d1af a074 e4b3 bf24 35b4
00000290: abc3 372e 8961 4ab3 1196 02b5 84e6 c430
000002a0: 85c9 cdb0 5577 8c35 6715 c2b5 a4d8 0530
000002b0: 9519 b033 0c74 8936 44c8 2036 64ba abaf
000002c0: 6761 4833 5009 3c2b bee2 1930 a9b2 da35
000002d0: 45f2 28af 8b3e 7434 5d9d 14b1 bc9b 2c35
000002e0: 28e3 8235 2450 1735 1f2a ee35 4009 dd2e
000002f0: 2e6b 7435 3681 2e36 6504 d332 db69 7bb4
00000300: 1bd6 b935 3ee1 4631 183f 95b4 6371 b932
00000310: 4b04 b635 6a0e a633 89de 01b5 4493 80b3
00000320: 97fb bbae 1de0 de33 edf8 c635 8aa4 8434
00000330: 12f8 ad35 8cb0 9835 93b7 5533 d7f9 44ae
00000340: b43f 9a33 fe0f 25b3 fec4 b332 96b8 21b3
00000350: 97b5 75b0 d898 af34 1066 2635 1203 bc31
00000360: b408 4536 db99 9a33 31f0 b636 9ba0 852f
00000370: 6f6e 07b5 80c7 10b8 e997 27ab 015a a035
00000380: 8a32 c5ae 45b3 63b0 ac5b 9c35 8768 2936
00000390: c1b9 49af 8e63 5c35 6815 afb4 f03d 8936
000003a0: 7439 d2b2 81d9 3a35 95c1 a8b2 6d9c 7836
000003b0: 089f 3f36 1e39 1eb4 3e62 2d36 2d6f 9137
000003c0: 02d6 ccb6 91ea 4c36 aa79 2b38 aa39 77ad
000003d0: 0971 0e33 6118 7336 3797 93b5 7667 6c33
000003e0: 549f 6837 cc15 3036 db41 5635 e577 08b6
000003f0: 9a57 b7ae 4c16 9bb6 40dd 5e32 7483 6835
-1.6627747e-06 -5.8215587e-06 -2.479124e-13 2.6175328e-11 -1.4104166e-06 1.324144e-05 -9.9395665e-12 1.6644547e-08
1.2059816e-06 1.4762212e-11 1.1600063e-06 2.9241965e-06 -7.3319626e-07 -3.2082625e-10 -6.179427e-06 3.4117027e-05
5.399687e-07 5.719272e-07 7.770484e-07 -3.9050034e-09 -1.3050131e-06 5.0402934e-07 2.292673e-06 9.8007105e-09
1.0060152e-06 -4.937294e-07 1.1612604e-08 4.9880558e-11 5.0325536e-08 5.096091e-07 5.265745e-07 9.006163e-08
1.8653068e-06 4.0681524e-08 -7.442998e-09 -2.2153697e-06 6.104457e-08 2.3772093e-06 -3.7067177e-10 -7.6728696e-08
1.8416247e-12 3.9132235e-08 3.580731e-06 -7.665282e-09 -2.6794857e-09 -1.0947635e-06 2.4793213e-13 -1.2483999e-05
3.723376e-06 1.3025281e-06 3.3459867e-06 4.3135184e-13 -3.8110118e-06 -2.1846268e-10 4.900512e-09 1.5878319e-06
-1.4598132e-07 1.4064932e-06 9.115427e-08 7.769648e-08 -2.4693958e-10 -6.955092e-07 -2.367944e-08 2.0795571e-10
4.0814027e-07 3.091414e-10 1.7307777e-08 2.0102498e-06 2.6997546e-07 2.362194e-11 7.431581e-10 6.4797945e-07
4.1991605e-08 5.797557e-09 1.1070863e-05 -9.021138e-06 1.6009451e-06 -4.6514674e-07 7.7211645e-08 3.9933634e-06
7.377046e-11 2.9570106e-06 7.8756696e-10 -4.544299e-13 2.9580207e-07 1.2894188e-10 -1.7926495e-12 -9.324474e-11
1.4933846e-10 -1.926546e-11 9.597304e-07 3.3619392e-06 4.722282e-06 -1.8190824e-05 -4.149708e-06 3.8914663e-06
6.3614003e-10 1.259658e-07 -1.9996593e-08 2.4807234e-06 -9.908765e-09 3.2030385e-09 -1.6818774e-09 1.7707403e-06
-2.498377e-07 -1.0811915e-09 -1.3460094e-07 1.0371963e-06 -2.1106709e-07 1.1504429e-06 -1.1779489e-08 -9.537772e-06
-1.0835602e-06 1.4819555e-06 1.3124222e-06 1.2824487e-06 2.0616556e-06 3.076413e-06 1.2483652e-07 2.4605394e-12
3.5261834e-07 -8.782111e-08 -2.9020607e-06 -4.3464532e-13 5.058769e-07 2.650438e-10 1.1060797e-12 4.888131e-08
4.9310745e-07 -4.3426767e-06 7.3764694e-10 1.1377552e-10 7.010054e-07 4.8694994e-07 3.0023422e-08 2.3373218e-06
6.227897e-06 3.3614726e-06 3.6170588e-06 1.2213383e-06 9.381569e-11 1.9172262e-09 1.5298901e-06 1.6372526e-06
-1.9651969e-10 2.888365e-06 1.4915422e-06 1.5190348e-06 4.0739528e-07 4.56114e-06 -9.341219e-10 -5.7390106e-09
-2.3161303e-07 -7.1125044e-08 4.6744414e-12 -3.1465243e-06 1.5072653e-06 2.52448e-06 2.1378892e-06 5.1552224e-06
-4.4349555e-08 -3.8091527e-10 -1.0638291e-07 -1.6870307e-07 4.178317e-11 -4.7120498e-08 -4.864715e-07 1.4326393e-09
-1.4972988e-09 1.0465543e-06 -1.4460355e-06 4.8692983e-10 8.200292e-08 4.096428e-06 2.3958428e-06 -3.1237157e-10
4.6654716e-08 6.680394e-13 5.5983296e-10 1.6294263e-06 -1.5365582e-10 2.2747024e-07 -2.1626285e-09 6.4301616e-07
9.751866e-07 5.6368503e-07 1.7744641e-06 1.00515596e-10 9.105305e-07 2.6003231e-06 2.4565631e-08 -2.3414707e-07
1.3845887e-06 2.8940828e-09 -2.779932e-07 2.1588397e-08 1.3561306e-06 7.732599e-08 -4.8380076e-07 -5.987252e-08
-8.548467e-11 1.03784465e-07 1.4824597e-06 2.4706634e-07 1.2961702e-06 1.1376264e-06 4.9759887e-08 -4.4787143e-11
7.1827714e-08 -3.84316e-08 2.0927924e-08 -3.7653614e-08 -8.9388535e-10 3.2707499e-07 6.198834e-07 5.471869e-09
2.9360353e-06 7.19917e-08 5.4519846e-06 2.4306676e-10 -5.045212e-07 -3.4518074e-05 -5.9541136e-13 1.1947124e-06
-8.9675004e-11 -8.2836876e-10 1.1649586e-06 2.5243805e-06 -1.8346837e-10 8.210126e-07 -3.2611865e-07 4.0901286e-06
-2.4473344e-08 6.960691e-07 -1.9645805e-08 3.7045932e-06 2.8553786e-06 -1.4735676e-07 2.5836193e-06 1.7337117e-05
-6.1045876e-06 3.0534904e-06 4.0882886e-05 -1.40531285e-11 3.3164756e-08 3.6224012e-06 -1.0996363e-06 5.504213e-08
1.3865374e-05 2.6238731e-06 7.9817045e-07 -2.0335367e-06 -8.337438e-11 -4.6219557e-06 1.2972407e-08 8.6618024e-07

linear_hidden.0.bias f4 [256]
00000000: 7503 2137 e2c5 223d aa8c 2d3d 499f 8c3d
00000010: c413 213d dac8 c338 196c a23c 5ba3 95b4
00000020: bc18 8eb6 3363 6a3c ad0f 08b5 c70d 7e31
00000030: c276 9ab1 6e68 1cb6 58bc ecb2 577e 813d
00000040: 9696 9cb2 5992 58b4 1a15 f9b5 34f1 05b7
00000050: cbe3 85b2 3d04 683d b778 09b9 cf9e 343c
00000060: 3985 a0b9 11cd 13b9 7aa4 5ab3 7623 08b2
00000070: 9eac 0cb3 46fe 3cb1 e219 51b7 8d9d cfb3
00000080: 28a9 8033 89e6 be33 b801 10b4 673e 42b6
00000090: ba87 133d f0f7 49b8 0555 bcb7 88f7 083c
000000a0: b411 9234 41c7 be32 d395 833d 0cf1 afb6
000000b0: 427c d93c 5452 ffb3 faf2 fdb8 b63b 7e3d
000000c0: 05a9 8db5 5b99 6c3d 0414 85b4 6209 003c
000000d0: 9b93 993d bbd7 a63c 8429 293d 7347 ff3c
000000e0: 20ac f7b4 0c22 813d 06ef acb2 0aba 0db3
000000f0: 5f61 13b7 7cd8 9eb9 917a 663d 43bc 57b2
00000100: 8e05 ad3b 5202 98b2 648d 16b6 a409 5c3d
00000110: 936e 2337 6a58 6a3d 98fa f2b9 9426 39b8
00000120: a2cd 2a3c 0897 2bb4 7410 9534 1008 4633
00000130: ffb8 8db6 2e3e 1e3d 3250 2902 80c0 9b3c
00000140: 4e92 153d b425 8a2d ec92 15b7 7238 35b7
00000150: 7509 a13d aefc 1d3d 87ee 90ac 36d5 683d
00000160: 4ba3 1b34 9f97 73b8 355d e43b 2061 d7b3
00000170: 84a9 123d 8713 fd35 d69a 0eb3 2ce5 06b5
00000180: ca00 0080 b2bb a53c 1988 6f3d e42f 5cb1
00000190: 1fa6 0f3d aeb9 a8b1 1df9 103d f30e 923d
000001a0: 92ce 29b2 5c49 46b9 aac3 7ab3 643f 4632
000001b0: 5db0 adb5 db0c 9c3d b571 91b5 0817 1d3d
000001c0: 7ff3 7f3d bc71 86b8 55aa b035 1dfd 99b4
000001d0: 8f39 5eb5 8ed8 bf3c a7ef 733a 0513 263d
000001e0: 80b0 643c ebee 39b8 149f d83c d73f 8eb6
000001f0: a15d de3c 6f45 9b3c 8b0d ceb2 cf23 2b3d
00000200: dec0 663d bab2 91b5 8a4e d33c 03ea 9db5
00000210: db9d 0f38 5e86 c8b5 3b71 48b5 184e 673d
00000220: b9ec 7d3b 6451 1331 86fd 1ab7 b999 35b4
00000230: c4d8 563d e31c da3c fd6f 98b5 0257 503a
00000240: 1f5f 5eb3 dcd1 83b2 5963 b2b2 90b8 41b5
00000250: a413 1bb4 2236 bb3c 1613 54b5 6f0e 8639
00000260: d546 943d f5bd 6b3d de41 7db6 46fe e53c
00000270: 54da 543d a0b8 b0b7 c0ae 9934 1b85 4f3b
00000280: 0cb4 f5b2 6929 e933 7f11 3c3d 18cf bf38
00000290: a0e6 863d 3b14 a53c 51bb 24b4 7494 0d39
000002a0: 4f36 073d ef18 c7b1 4f1a 84b5 29c7 12b8
000002b0: a1e2 25a7 0b9c 553c af41 89b6 6a45 dcaa
000002c0: 9417 82b2 5039 95b6 d678 78b2 0a26 193d
000002d0: d927 9f33 f711 a83c cabd 5fb5 dfe1 a8b6
000002e0: 53e1 0a3d 151a d0b9 13cf d2b3 a2ff b73c
000002f0: 4747 e23c 2071 2f3d a387 14b4 6040 02b7
00000300: 92c5 663d dde7 113d fd8e c238 a206 603d
00000310: 5849 86b2 3998 8e3d 8b3c edb4 9a6b d235
00000320: f30f 53b8 6d09 c9b1 8c3f 3ab5 a7e1 a5b7
00000330: ac57 2a29 07d7 b236 c8ec 3f34 d088 35b2
00000340: 1cc0 203d ebf9 093d d26c 0eb4 5d31 4038
00000350: 7b59 a7b8 0de5 a0a6 7921 143d e2c0 4033
00000360: a889 42b7 eb38 2e3d ae0f 3535 f499 589c
00000370: 1143 c5ae 9ee5 6534 84fc a63c 965f 6731
00000380: de4c ad3c 3089 94b3 b00b 23b4 2f9d 222e
00000390: eea2 4ab2 2dbd 6a3d 6d40 42b3 2a17 cc8e
000003a0: 1af1 4fb8 d8cd b6b7 910e 90b5 362c 8eb7
000003b0: acba 3d3c aa57 65b5 9229 713d a0ac 2a3d
000003c0: 11b2 3532 ddcd a032 2af4 06b3 29cd 7a3d
000003d0: a601 0080 79d5 10b5 c302 ae31 bc81 853b
000003e0: 30db bc3c ff76 86b4 241e e724 ffe1 d332
000003f0: 1ebf 13b3 bc47 3235 c82e 3cb4 e78b 99b5
9.597153e-06 0.039739497 0.042370476 0.06866319 0.03932549 9.335736e-05 0.019826936 -2.787227e-07
-4.2348092e-06 0.0143058775 -5.068676e-07 3.6969696e-09 -4.495491e-09 -2.3306598e-06 -2.7559665e-08 0.063229255
-1.8229269e-08 -2.0169809e-07 -1.8558087e-06 -7.983577e-06 -1.5586826e-08 0.056644667 -0.00013110308 0.011024191
-0.00030616837 -0.00014095406 -5.090667e-08 -7.924305e-09 -3.2753285e-08 -2.7502138e-09 -1.2463397e-05 -9.667847e-08
5.991234e-08 8.8894986e-08 -1.341167e-07 -2.8944576e-06 0.03601811 -4.8153044e-05 -2.2450937e-05 0.008359797
2.72075e-07 2.2209521e-08 0.06425061 -5.243468e-06 0.026548509 -1.1889338e-07 -0.00012109238 0.062068664
-1.055451e-06 0.05776344 -2.4787744e-07 0.007814737 0.07498857 0.02036654 0.041299358 0.031162
-4.6132573e-07 0.06305322 -2.013213e-08 -3.2998322e-08 -8.784554e-06 -0.00030297402 0.056269232 -1.2557453e-08
0.005280203 -1.7696184e-08 -2.2434042e-06 0.05372013 9.741302e-06 0.057213224 -0.00046344544 -4.4143366e-05
0.010425003 -1.5980561e-07 2.7765384e-07 4.61078e-08 -4.223664e-06 0.038633518 1.2439174e-37 0.01901269
0.03651648 1.5705527e-11 -8.9153e-06 -1.0801583e-05 0.07863132 0.038571052 -4.119208e-12 0.05684396
1.4494906e-07 -5.8076923e-05 0.006969119 -1.00293846e-07 0.035806194 1.8855652e-06 -3.3202774e-08 -5.025238e-07
-2.83e-43 0.020231102 0.058479402 -3.2041436e-09 0.035070535 -4.910553e-09 0.035393823 0.071317576
-9.884063e-09 -0.0001891008 -5.8385616e-08 1.153953e-08 -1.2940833e-06 0.076196395 -1.0836435e-06 0.038352042
0.062488075 -6.4108026e-05 1.3162595e-06 -2.8682635e-07 -8.2785203e-07 0.023418691 0.00093054253 0.040545482
0.0139580965 -4.4329947e-05 0.026443042 -4.2393617e-06 0.027144255 0.018954007 -2.3987715e-08 0.041782197
0.056336276 -1.0855358e-06 0.025794286 -1.1765518e-06 3.424087e-05 -1.4940267e-06 -7.467058e-07 0.05647096
0.0038745834 2.143758e-09 -9.238143e-06 -1.6912863e-07 0.052452818 0.026625102 -1.1357475e-06 0.00079475355
-5.1774915e-08 -1.534584e-08 -2.0767105e-08 -7.2166677e-07 -1.4442645e-07 0.022852961 -7.900393e-07 0.00025569226
0.07240073 0.057554204 -3.7738278e-06 0.028075349 0.051966026 -2.1066808e-05 2.8625618e-07 0.003166503
-2.860363e-08 1.08574405e-07 0.045915123 9.146164e-05 0.06586957 0.020151248 -1.5341836e-07 0.00013502111
0.033010777 -5.794497e-09 -9.842423e-07 -3.4994595e-05 -2.3021206e-15 0.013037692 -4.0905647e-06 -3.9128016e-13
-1.5144714e-08 -4.447218e-06 -1.4462975e-08 0.037389793 7.411263e-08 0.020516379 -8.3350153e-07 -5.033085e-06
0.033906292 -0.00039692284 -9.8165536e-08 0.022460762 0.027621878 0.042832494 -1.3832918e-07 -7.763592e-06
0.05634076 0.035621513 9.2772745e-05 0.054693826 -1.5633006e-08 0.06962628 -4.418874e-07 1.5677535e-06
-5.0321174e-05 -5.8509415e-09 -6.938287e-07 -1.977461e-05 3.7823626e-14 5.329846e-06 1.7874402e-07 -1.0566694e-08
0.03924571 0.033685606 -1.3264369e-07 4.582234e-05 -7.9798476e-05 -1.1164315e-15 0.036164735 4.487891e-08
-1.1595352e-05 0.04253475 6.745057e-07 -7.1667385e-22 -8.970436e-11 2.1410821e-07 0.02038408 3.3669258e-09
0.021154817 -6.916741e-08 -1.518481e-07 3.6974142e-11 -1.1794993e-08 0.05730932 -4.522774e-08 -5.031219e-30
-4.957719e-05 -2.1791944e-05 -1.0733075e-06 -1.6948306e-05 0.011580151 -8.5436716e-07 0.058877535 0.041668534
1.0576074e-08 1.8720067e-08 -3.1421372e-08 0.061230812 -5.91e-43 -5.3954824e-07 5.0643805e-09 0.0040743034
0.023053735 -2.5046026e-07 1.0023134e-16 2.4666404e-08 -3.4399925e-08 6.6414555e-07 -1.7525883e-07 -1.1440105e-06

linear_output.weight f4 [1, 256]
00000000: 53d6 8c37 9d06 ec3d 2d55 fc3d ea4f 503e
00000010: e942 7bbe 4b73 5738 b067 f9bd 75d9 3334
00000020: 8426 8036 61e8 b1bd ab4d 1535 73d2 edaf
00000030: 7374 d6b0 98b2 d5b6 5241 d6b2 f017 3f3e
00000040: e63e 28b4 70c0 36b3 062c 3eb4 6d4b 3439
00000050: a7bc 85b0 da60 2a3e 4864 2ab8 f895 87bd
00000060: f4d8 00b9 fa1c 2cb9 a1ee dcb3 d6dc 7ab3
00000070: 9db3 97b3 4e15 03b4 b5a7 4e37 0659 0734
00000080: 7f8e 8833 aef3 0833 a8d4 4cb1 6243 1937
00000090: 499d d53d a0a4 2838 129d 9036 6904 4bbd
000000a0: a175 5eb4 99fd bdb3 d77e 423e 3968 81b6
000000b0: d13a 28be 5ffe 3db4 83fa 62b9 7c6c 3b3e
000000c0: 91d3 2237 32d8 2d3e 5575 60b4 6704 3dbd
000000d0: ea3c 653e 7a36 00be 8493 f53d 6ea4 b73d
000000e0: 4d5e a6b4 f3c4 3e3e 807a 8db3 7064 d1b3
000000f0: 1065 7536 d4a6 5aba f224 293e 0b92 7135
00000100: 4473 f8bc 394e 4231 d18b 2137 a510 213e
00000110: 0db8 2fb8 c3fc 2b3e ef19 5c38 fd4d 1338
00000120: 9107 80bd 656b 58b4 44fe 1eb6 976f 5533
00000130: 8ef7 3fb6 ae87 e53d c1d8 ea02 87dd eebd
00000140: 18d9 68be 2eaa c730 74aa 9e36 9f35 0637
00000150: 7f13 713e 9d28 e53d 81ca ddac 8703 2b3e
00000160: a5e6 08b5 786e b6b8 9467 27bd 98b1 25b3
00000170: 7047 64be d530 0136 682a 40b4 eba1 08b4
00000180: be01 0080 50ac febd 76f6 2f3e 727c 27b1
00000190: 33ff cf3d b72d 3133 f9cc d13d e6fc 583e
000001a0: 469b 0234 4fbf 3238 9c1d 7bb3 09a4 1033
000001b0: e675 71b5 5b47 693e 15c2 e936 2bb4 e33d
000001c0: 27ce 3c3e 20b5 f037 94a0 5635 10d7 99b4
000001d0: 4d81 8ab4 3dfb 13be 439a 90bb 8aad 81be
000001e0: d96f adbd c015 2f39 0428 9b3d 30d1 9cb7
000001f0: 4a14 2cbe 5e1c eebd 1972 d7b2 4f74 f83d
00000200: da5d 293e 924d 02b3 a85f 23be 4897 92b6
00000210: 4b39 0639 6791 7fb8 2e98 a835 e9cf 293e
00000220: 711c aebc 0ce0 b4b2 ac48 33b6 126f d132
00000230: 3640 1d3e b6b8 28be d5ce 0836 bbb5 73bb
00000240: 905e 6db2 6300 8c34 8f76 57b3 bff1 0037
00000250: 00b9 4734 5a58 10be e7ab 9b34 e46a a038
00000260: 6b5f 5c3e 891c 2d3e c347 6a35 a703 a53d
00000270: 56dd 1b3e 506e a237 6e04 31b4 50eb 8abc
00000280: 67ab 81b2 123c fdb4 71cb 083e 7f5d 2e39
00000290: 2581 473e 14a3 fdbd d069 0fb2 1516 22b9
000002a0: f1f5 c23d 496b 55b0 24bb 6335 4fa5 7c34
000002b0: adb6 ec1b db91 a1bd 0c53 b3b5 c9f6 ed2d
000002c0: f879 30b2 c5c9 6eb6 1319 fdb2 8a8f 6ebe
000002d0: 3fb5 6e32 1536 01be e0fc 3f36 bda6 6bb6
000002e0: 93fe c83d 11da 1639 51d6 5fb3 75c6 0dbe
000002f0: b42e 2fbe 510d ff3d 0937 6535 6634 aab7
00000300: 3f2d 293e 442b d33d ec60 8238 71eb 233e
00000310: cf42 8733 6fa4 533e b8f2 3336 e742 8fb5
00000320: fa87 fb38 25f8 0c32 3c40 23b5 13d2 8037
00000330: 807b 3929 6447 8538 65b4 9134 1a0e d233
00000340: 583e e93d 1a49 c73d 015a 84b4 c96a 2bb9
00000350: 968c b838 4f2e a226 9170 d63d 8abe 56b4
00000360: 3fa3 e335 d579 fd3d c976 05b6 075f 889d
00000370: eba9 6130 9d67 a6b7 3754 00be b090 a0b2
00000380: e657 05be d8c7 d634 00dd 75b4 5d16 74ae
00000390: 08e4 5134 2a5c 2c3e 9b26 52b4 ce00 0080
000003a0: c858 8939 18f9 c5b6 1398 8834 ffeb fb37
000003b0: 59c3 8ebd 34d6 dd33 2a8c 313e 75dd f73d
000003c0: 7987 0834 1f4a 3cb4 9626 f932 76cb 383e
000003d0: 3b06 0080 30c9 5e35 95c7 4932 9d28 bbbc
000003e0: 2e9e 11be 957c 62b4 f699 98a4 3882 7e32
000003f0: 54a9 5e33 720a 4f37 1623 a4b3 80f7 8bb7
1.6789103e-05 0.11524699 0.123209335 0.20342985 -0.24537243 5.136737e-05 -0.1217798 1.6749784e-07
3.819181e-06 -0.08686901 5.561985e-07 -4.3259582e-10 -1.5603646e-09 -6.3686857e-06 -2.4942583e-08 0.18661475
-1.5669102e-07 -4.2550198e-08 -1.7711145e-07 0.00017194236 -9.730642e-10 0.16638508 -4.0624553e-05 -0.06620401
-0.00012287853 -0.00016413993 -1.0287955e-07 -5.840851e-08 -7.064157e-08 -1.2208076e-07 1.2317604e-05 1.2605241e-07
6.3589134e-08 3.1886593e-08 -2.9806788e-09 9.135199e-06 0.104303904 4.020764e-05 4.30982e-06 -0.049564753
-2.0718154e-07 -8.8471275e-08 0.18993698 -3.8566327e-06 -0.16428687 -1.7694536e-07 -0.00021646362 0.18303102
9.705212e-06 0.16977003 -2.0904311e-07 -0.046146777 0.22386518 -0.12520781 0.11991027 0.08966909
-3.0988522e-07 0.18629818 -6.588107e-08 -9.7505904e-08 3.656667e-06 -0.00083408994 0.16518 8.9992017e-07
-0.0303284 2.827518e-09 9.628901e-06 0.15729006 -4.1894662e-05 0.1679564 5.247624e-05 3.5120163e-05
-0.06251443 -2.0155638e-07 -2.3691837e-06 4.9694417e-08 -2.8605314e-06 0.112075195 3.450762e-37 -0.11663347
-0.22739065 1.4527524e-09 4.7286103e-06 7.999507e-06 0.23542593 0.11189387 -6.3036802e-12 0.16700564
-5.099958e-07 -8.699013e-05 -0.040870264 -3.8578577e-08 -0.22292876 1.9250922e-06 -1.7896821e-07 -1.2724892e-07
-6.25e-43 -0.1243521 0.17183861 -2.4372437e-09 0.10156097 4.12526e-08 0.102441736 0.21190223
1.2163682e-07 4.2616677e-05 -5.846742e-08 3.3676802e-08 -8.995106e-07 0.22781126 6.9665352e-06 0.11118349
0.18438016 2.8694572e-05 7.9954884e-07 -2.865495e-07 -2.5798582e-07 -0.14451309 -0.0044129207 -0.25327712
-0.08468599 0.00016697403 0.07575992 -1.869406e-05 -0.16804615 -0.11626504 -2.508118e-08 0.12131559
0.16539708 -3.0338533e-08 -0.15954459 -4.3687505e-06 0.00012800579 -6.0932154e-05 1.2561266e-06 0.16583218
-0.021253796 -2.1056643e-08 -2.671538e-06 2.4381311e-08 0.15356526 -0.16476712 2.0385971e-06 -0.0037187177
-1.3816717e-08 2.6077313e-07 -5.0166417e-08 7.68568e-06 1.8600622e-07 -0.14096203 2.8996075e-07 7.6493045e-05
0.21520774 0.16905417 8.727622e-07 0.08057337 0.15221152 1.9363273e-05 -1.6486021e-07 -0.016957909
-1.5095521e-08 -4.716863e-07 0.13358857 0.00016628763 0.19482858 -0.1238462 -8.3477545e-09 -0.0001545775
0.09519566 -7.764141e-10 8.4836415e-07 2.3529468e-07 3.9160976e-22 -0.07889148 -1.3360709e-06 2.7053375e-11
-1.0272281e-08 -3.558221e-06 -2.9464479e-08 -0.23296943 1.3894634e-08 -0.12618287 2.860841e-06 -3.5114783e-06
0.09814181 0.00014386351 -5.2116153e-08 -0.13845237 -0.1710766 0.12453712 8.5389235e-07 -2.028998e-05
0.16521166 0.10310987 6.216936e-05 0.16007783 6.29858e-08 0.20668195 2.681436e-06 -1.0673801e-06
0.0001199394 8.205494e-09 -6.0815705e-07 1.5356612e-05 4.118537e-14 6.355232e-05 2.713961e-07 9.781452e-08
0.11388844 0.0973074 -2.4652402e-07 -0.00016347611 8.79999e-05 1.125356e-15 0.10470689 -1.9999621e-07
1.6960329e-06 0.12376753 -1.9887686e-06 -3.6097156e-21 8.209599e-10 -1.983699e-05 -0.12532125 -1.8692248e-08
-0.13021812 4.0006012e-07 -2.2897802e-07 -5.549904e-11 1.9547599e-07 0.16832033 -1.9571819e-07 -2.89e-43
0.00026196823 -5.900056e-06 2.5442623e-07 3.0031426e-05 -0.06970853 1.0330078e-07 0.17338625 0.121027865
1.2715272e-07 -1.753583e-07 2.9004962e-08 0.18046364 -2.235e-42 8.299421e-07 1.17451195e-08 -0.022846514
-0.14220497 -2.1093213e-07 -6.618031e-17 1.4814354e-08 5.1842406e-08 1.23405935e-05 -7.643227e-08 -1.6685342e-05

exp_avg f4 [256, 17]
00000000: df89 66ac 9f31 112d 2a15 002e b998 73ab
00000010: e8d6 56ad 0a16 762d a920 6c2d fc42 67ab
00000020: 84e0 bbad f796 ce2d 967e 29ab 77aa 62ab
00000030: 05be 38af 8383 61af d0bc 3d2e c9ef b8ae
00000040: 6ce9 4d2f 0b70 f72f f561 7730 a930 9e30
00000050: cde8 b8ae 4d22 ef2f 4af3 8430 76f4 9a30
00000060: a118 b7ae 8a54 f42f 1a54 9730 19b3 8c30
00000070: efe2 b9ae 922e 7fb1 48be 03b1 e453 d12f
00000080: 0e91 bfaf 0a03 c130 75c8 f0ac e39c c52d
00000090: ce0f 5d2e 5523 1b2d b846 feac c638 f92d
000000a0: f810 2d2e 24d3 192d d5a2 e3ac f91f 0a2e
000000b0: 3eee 0a2e 6c37 1a2d 8cce 12af 4fed 44ae
000000c0: ba54 832d bb73 81ae 5d93 172c bfa0 08af
000000d0: c126 9a2f 29a1 1a2e f1fd 05af e417 24af
000000e0: 2b40 b52f 7bb3 772e 6696 06af 6ea3 34af
000000f0: add9 e82f afd0 672e f19d 05af 5416 b3b0
00000100: 2cba f7af 0e3e 722f 05aa 712e bfd9 1c2f
00000110: ccd4 9f35 7930 06b7 d6b6 0ab7 75bb 2436
00000120: e67e 9035 3215 feb6 ab63 dab6 1187 2636
00000130: 312f 8635 1bf8 f9b6 55c6 afb6 de20 2436
00000140: 4ead 6b38 f632 d936 9d76 bd36 638a 6037
00000150: 7730 8837 4102 f02d 9563 172f 7fc5 432f
00000160: 3972 c92d fd26 b12d 9c04 2e2f 4e1b 232f
00000170: 2931 ca2d ae76 582d de0c 532f 54fc 062f
00000180: 9c0c ca2d 591a 1cb0 230e f4af eccb 212f
00000190: 2c77 10af 6a3c bd2f 7586 3e2e c801 ac2e
000001a0: 7b07 ac2e bb25 372e dc75 4e2e 774a d02e
000001b0: 0d12 812e 74e9 372e cef0 4b2e 86d6 062f
000001c0: aec8 0e2e 4ad0 362e 2c02 2fb0 104d dcaf
000001d0: 5b69 b52e 2380 48af 5477 832e b561 49b0
000001e0: 23a8 6c30 68fc 4f30 dbcc d0af 1c25 58b0
000001f0: 1a31 8230 3220 4c30 bddd d2af a2d4 68b0
00000200: 72da 9730 2237 3830 e824 d1af b06c 82b1
00000210: d510 a9b0 301e ee2e 2c61 07b0 3a73 a32f
00000220: aa70 993a aa59 d4b9 a8ab 3ebb a78b c639
00000230: e120 993a bd1c bbb9 6e96 3bbb a481 c539
00000240: d548 993a d69b 7eb9 291c 37bb 0709 c539
00000250: dd4d 253b 04b3 e2b9 9e83 d43a f328 053b
00000260: 3cd3 d338 5ace 902d f86f 9cad 7c82 9aad
00000270: 8ae1 d52c 0222 962d 331c 86ad 4b02 6aad
00000280: 9718 d92c 81ea 9f2d 8bfd 82ad 9519 29ad
00000290: 04e9 d42c c2e4 762f 3d26 432e 87a4 2f2e
000002a0: b9b3 442e 4ac4 552e 269f c639 85eb d339
000002b0: 06e4 88b9 d43f a0b7 538a b439 52d6 de39
000002c0: 9f2c a9b9 6c88 a6b7 c2ed 9339 45d8 e639
000002d0: 4dd2 c6b9 4a60 a4b7 d36c f5b9 e043 8dba
000002e0: 1cdc a2b9 0c6c a0b7 c349 fcb8 3414 abba
000002f0: bc63 3dba b3af 163b 26ab 8fb9 26c1 b7ba
00000300: dcee 78ba d935 103b 8b72 8db9 d73b ceba
00000310: 4b99 a8ba 3bd3 0b3b b81c 8eb9 f4e3 903a
00000320: d4fd 2bba 11dc e2ba 3bae b6ba fdbd 2f3b
00000330: c19d 2c3a 4141 173a 7142 51ba 5004 4438
00000340: d1e8 183a b518 283a 695a 62ba e24c 3f38
00000350: 1501 f839 6ac8 343a fdf2 6dba 02c7 3d38
00000360: 0fbd 1bba e291 ceba 403b 0ab9 f74b ca39
00000370: f068 fcb9 88f0 38b1 cf20 5132 72e7 1332
00000380: 9f0e e3b1 e145 7bb1 1fa3 7732 c372 2232
00000390: 8f96 e4b1 c15f a2b1 2421 9732 47d6 2732
000003a0: 804f e2b1 16fe 54b3 7780 9eb2 6119 dd31
000003b0: d2af 8231 9d6d 6832 0670 41b3 c43b ca33
000003c0: 22c7 1134 f4f4 a6b3 0311 8ab3 972f f133
000003d0: 8e45 0634 cc3b a8b3 b396 a6b3 646a 2434
000003e0: da2b e033 8a43 a6b3 6694 16b5 961e a5b4
000003f0: ca53 8b30 d426 cf32 7a6d a034 2d9d ef32
-3.27615e-12 8.253314e-12 2.9122628e-11 -8.654289e-13 -1.221221e-11 1.3988375e-11 1.3422299e-11 -8.2160645e-13
-2.1359144e-11 2.348653e-11 -6.0216534e-13 -8.0527897e-13 -1.6802211e-10 -2.0510353e-10 4.3141324e-11 -8.409946e-11
1.872757e-10 4.500865e-10 8.999728e-10 1.1509843e-09 -8.408705e-11 4.349822e-10 9.673411e-10 1.1274455e-09
-8.3262515e-11 4.444341e-10 1.1010599e-09 1.0237243e-09 -8.4531375e-11 -3.7133856e-09 -1.9171171e-09 3.8076486e-10
-3.4845765e-10 1.4043462e-09 -6.8434655e-12 2.2465979e-11 5.026362e-11 8.818575e-12 -7.2269656e-12 2.8333235e-11
3.9350717e-11 8.743926e-12 -6.469806e-12 3.1405965e-11 3.158917e-11 8.766193e-12 -1.3352003e-10 -4.4776013e-11
1.4930602e-11 -5.886799e-11 2.1540194e-12 -1.2426236e-10 2.8039973e-10 3.5158685e-11 -1.2186498e-10 -1.4924201e-10
3.2969302e-10 5.632071e-11 -1.2240661e-10 -1.6428967e-10 4.2355222e-10 5.2708667e-11 -1.2152392e-10 -1.303031e-09
-4.506132e-10 2.2031818e-10 5.4948063e-11 1.4265476e-10 1.1908355e-06 -7.998308e-06 -8.268011e-06 2.4547019e-06
1.0765768e-06 -7.5722573e-06 -6.508509e-06 2.4814547e-06 9.997513e-07 -7.4496616e-06 -5.2384953e-06 2.4457036e-06
5.618977e-05 6.4730366e-06 5.6464473e-06 1.3383661e-05 1.6235032e-05 2.7285842e-11 1.3768749e-10 1.7805311e-10
2.290178e-11 2.0139885e-11 1.5826845e-10 1.4834464e-10 2.2986573e-11 1.2304531e-11 1.919491e-10 1.2276874e-10
2.2970341e-11 -5.678991e-10 -4.4393386e-10 1.4715312e-10 -1.3139062e-10 3.4421827e-10 4.332042e-11 7.821971e-11
7.822983e-11 4.1642894e-11 4.6943657e-11 9.4719725e-11 5.869447e-11 4.181673e-11 4.6370734e-11 1.2263443e-10
3.24653e-11 4.1567007e-11 -6.3667716e-10 -4.0072523e-10 8.249642e-11 -1.8235417e-10 5.978387e-11 -7.3262224e-10
8.6095236e-10 7.566485e-10 -3.7980538e-10 -7.863308e-10 9.4727e-10 7.426052e-10 -3.8356332e-10 -8.470328e-10
1.1048782e-09 6.701716e-10 -3.8043102e-10 -3.7958543e-09 -1.2301152e-09 1.0828349e-10 -4.9250803e-10 2.97314e-10
0.001170655 -0.00040502596 -0.0029094014 0.00037869552 0.0011682772 -0.0003568883 -0.0028623599 0.00037671358
0.0011694679 -0.00024281381 -0.0027940369 0.00037581494 0.0025223412 -0.00043239456 0.0016213541 0.0020318597
0.000101006095 1.6462543e-11 -1.778487e-11 -1.756572e-11 6.078864e-12 1.7068128e-11 -1.524656e-11 -1.3301869e-11
6.170241e-12 1.8180348e-11 -1.4891885e-11 -9.612218e-12 6.0512723e-12 2.2454841e-10 4.437183e-11 3.9936523e-11
4.4724866e-11 4.8604933e-11 0.00037884078 0.00040420532 -0.00026109832 -1.9103209e-05 0.00034435335 0.0004250282
-0.00032267437 -1.9852268e-05 0.00028215168 0.00044030152 -0.0003792219 -1.9595162e-05 -0.00046811122 -0.0010777675
-0.00031063042 -1.91238e-05 -0.000120300356 -0.0013052286 -0.00072246394 0.0022992908 -0.000274026 -0.0014019355
-0.0009496042 0.0022004752 -0.00026978957 -0.0015734386 -0.0012863068 0.002133562 -0.00027105748 0.0011054263
-0.00065609557 -0.0017308017 -0.0013937423 0.0026816123 0.00065847865 0.00057699165 -0.0007982618 4.6734058e-05
0.0005833032 0.0006412373 -0.0008634688 4.560955e-05 0.00047303052 0.0006896319 -0.00090770406 4.5246452e-05
-0.00059409527 -0.0015760029 -0.00013182778 0.0003858504 -0.0004814337 -2.691225e-09 1.2172861e-08 8.609151e-09
-6.6082317e-09 -3.6565029e-09 1.4414382e-08 9.455735e-09 -6.65279e-09 -4.7257065e-09 1.7593784e-08 9.7694e-09
-6.586504e-09 -4.9591186e-08 -1.845204e-08 6.434832e-09 3.8034864e-09 1.35291005e-08 -4.50382e-08 9.417229e-08
1.3576621e-07 -7.774534e-08 -6.42922e-08 1.12310936e-07 1.2505026e-07 -7.8339866e-08 -7.7573894e-08 1.5312395e-07
1.04387894e-07 -7.742263e-08 -5.60953e-07 -3.07559e-07 1.0137395e-09 2.4115629e-08 2.9881977e-07 2.7894737e-08

exp_avg_sq f4 [256, 17]
00000000: 6d87 5131 ab50 f231 52e0 9131 a723 872f
00000010: fbbb 6131 d480 ef31 815b 9331 cb2e 872f
00000020: 4c3f 7731 edaf f131 59a1 9a31 37f9 862f
00000030: 4af7 4532 17fb fb31 5c79 cf31 2787 eb31
00000040: 88b2 fc31 f6c7 4a31 6889 dd31 effb b832
00000050: 7473 e72f 3caa 4031 8e57 de31 082c b932
00000060: c7d3 e62f bc85 3231 2b2c e231 56af b832
00000070: 7d06 e82f 033d f032 30ce 8f32 1b4f 6832
00000080: 222b 4b32 01f9 8532 97ad 0a31 fa3e a431
00000090: 4112 8531 1bdc 802f 8878 1931 150b b031
000000a0: 9931 5c31 8d08 812f 266f 3131 50e4 c531
000000b0: 1fad 3b31 75df 802f e47f a932 1e3f d931
000000c0: 56ca b831 d69d e331 1304 f131 748e c231
000000d0: 839b 9a31 c94e 2333 14b1 3030 159d c531
000000e0: 3265 a131 f5ee 2233 85a2 3030 b835 ce31
000000f0: 9ae9 ae31 01aa 1f33 b77b 3030 9631 6d33
00000100: 5fcd 6a32 adbb 9b32 fee3 a232 fb9f a932
00000110: 150a 0a30 7c2a 9e30 dca5 da31 dc2a 3b2f
00000120: 48fd 1a30 b534 9c30 e8e9 c731 1ea9 3a2f
00000130: 2882 4730 88fe a030 271b b331 0640 3b2f
00000140: 85e7 3932 bc1f c730 d5c1 5231 9e90 ac31
00000150: b939 0331 598e 0131 b144 5c31 b58a 4232
00000160: 9591 812f 5edc 0431 29e8 6a31 6404 3432
00000170: 1f69 812f 6246 1031 717f 8331 c937 2832
00000180: 178b 812f 5fad 8232 33cb e831 6849 d331
00000190: 5292 e731 0125 2132 35d0 4130 3ad0 9630
000001a0: a672 b231 c71f 142f d2f8 5930 e68e bc30
000001b0: 7b15 9831 4b9c 132f a0db 8330 292d f730
000001c0: 2c4c 7d31 c193 132f f63d 5532 69a5 8c31
000001d0: 6d08 8531 0eb2 9f31 6cbf a331 e55b 0e31
000001e0: 672d 4532 506b ac31 0640 0a30 c568 2231
000001f0: 06d6 4832 4538 8a31 0e40 0b30 6a55 3831
00000200: 0b0a 4b32 7a9e 7831 2100 0b30 1044 f332
00000210: e2ff 6232 8a6b 7332 d298 6c32 bb48 ab32
00000220: 22c3 9536 e09a d236 dc3d 3a38 1c09 6535
00000230: 8710 9536 d54b dc36 b256 2d38 9b16 6535
00000240: 0e66 9c36 007a f036 1fce 1e38 db06 6535
00000250: e8b6 9538 3e74 ae37 5d3c af37 d619 d537
00000260: 58ac c337 b4da 2030 0d0d 6830 d60f 6531
00000270: 9ce9 b22e be42 2a30 21f4 7330 64c1 5131
00000280: 61ef b22e c06b 4430 f260 8b30 f9f3 4031
00000290: 2807 b42e 0f4f ad31 658d f830 80b5 3231
000002a0: d826 0131 3d97 1c31 4193 ec35 5ad4 9236
000002b0: a519 0036 a91b 2c34 3cd3 0236 50db 9936
000002c0: f962 ee35 571e 2c34 4996 1236 1768 a636
000002d0: 5a72 ea35 9de8 2b34 da7f 0436 f86f 8c36
000002e0: 572c 8836 9052 9836 066b 9c36 ea20 de37
000002f0: faba 2838 80ce 3e39 3207 8b36 f9bd ed37
00000300: 089b 3638 dae1 2e39 99f5 8a36 ce62 0838
00000310: 163d 4e38 47b6 1e39 c6fe 8a36 4e2f 5a39
00000320: 4e61 f938 43b6 df38 aa3f 0139 c3c9 0439
00000330: 89ff ca36 36fe 7f37 5b90 e036 a759 1635
00000340: cb48 e036 7be8 8537 a34a d036 6f4f 1635
00000350: 19cc fa36 2477 9037 b8e7 cb36 cf1f 1635
00000360: ec48 e336 2e70 7737 b5a1 6837 3987 8537
00000370: 331a 8837 4cbc 5f32 0d8d 8632 a328 ae33
00000380: d288 cd30 ec46 6632 b78d 8632 1384 aa33
00000390: 8b69 cd30 a4f9 7532 f237 8832 dbc9 a633
000003a0: 1658 cd30 9c2e da33 ea7a 0c33 3ac4 2433
000003b0: 6b25 3833 a589 2133 599f fc31 ce85 9232
000003c0: d10b c433 87ee 4531 5180 0732 f71e 8b32
000003d0: d155 a733 9b5a 4531 43ac 1c32 a072 8d32
000003e0: 60b3 8833 f9cb 4531 97a0 5f34 efa3 9233
000003f0: 2dc9 5433 de5a af33 155f 4c33 91b8 4830
3.0490483e-09 7.052298e-09 4.2455577e-09 2.458169e-10 3.2848664e-09 6.9704615e-09 4.288666e-09 2.4589605e-10
3.597921e-09 7.0340236e-09 4.500333e-09 2.4551536e-10 1.1523136e-08 7.333607e-09 6.03829e-09 6.854765e-09
7.354462e-09 2.9508533e-09 6.447568e-09 2.1534985e-08 4.210069e-10 2.8036444e-09 6.471004e-09 2.1556858e-08
4.1987233e-10 2.5978428e-09 6.582487e-09 2.1500153e-08 4.2205164e-10 2.7967422e-08 1.6741154e-08 1.3522164e-08
1.1825962e-08 1.5596472e-08 2.0180317e-09 4.780188e-09 3.8728847e-09 2.343946e-10 2.2332944e-09 5.123534e-09
3.2042407e-09 2.347104e-10 2.582007e-09 5.7594107e-09 2.731049e-09 2.344184e-10 1.9732347e-08 6.322707e-09
5.3781077e-09 6.6245134e-09 7.0144863e-09 5.662338e-09 4.4996695e-09 3.802305e-08 6.428007e-10 5.7513128e-09
4.6972213e-09 3.7935894e-08 6.425938e-10 6.001496e-09 5.090624e-09 3.717469e-08 6.4204236e-10 5.522596e-08
1.3667289e-08 1.812972e-08 1.8962961e-08 1.974694e-08 5.0218435e-10 1.1508088e-09 6.363491e-09 1.7022778e-10
5.638481e-10 1.1365474e-09 5.8182543e-09 1.6976684e-10 7.258074e-10 1.1713874e-09 5.2126725e-09 1.7030297e-10
1.0821059e-08 1.4488175e-09 3.0669203e-09 5.0223e-09 1.909582e-09 1.8852886e-09 3.205326e-09 1.13238245e-08
2.3568406e-10 1.9333792e-09 3.418345e-09 1.0478377e-08 2.3539656e-10 2.0994766e-09 3.82709e-09 9.791571e-09
2.3563793e-10 1.5212832e-08 6.7751897e-09 6.1492536e-09 6.7396195e-09 9.379847e-09 7.050887e-10 1.0973118e-09
5.193516e-09 1.3471811e-10 7.9297735e-10 1.3719414e-09 4.4262243e-09 1.3425099e-10 9.593926e-10 1.7984451e-09
3.6859644e-09 1.3422065e-10 1.241232e-08 4.093341e-09 3.8717674e-09 4.6477515e-09 4.7656865e-09 2.0715956e-09
1.14772325e-08 5.018059e-09 5.029509e-10 2.3633657e-09 1.16901955e-08 4.0227257e-09 5.065893e-10 2.6824076e-09
1.1818439e-08 3.6178833e-09 5.056809e-10 2.8319874e-08 1.3213112e-08 1.4168913e-08 1.3771755e-08 1.9940094e-08
4.4632625e-06 6.2765175e-06 4.4403467e-05 8.5322404e-07 4.44247e-06 6.565339e-06 4.1327155e-05 8.5342043e-07
4.661043e-06 7.16676e-06 3.78621e-05 8.5319124e-07 7.1389426e-05 2.0796546e-05 2.0889735e-05 2.540361e-05
2.3326065e-05 5.8518457e-10 8.4419655e-10 3.3332888e-09 8.136e-11 6.1940486e-10 8.8749813e-10 3.0523433e-09
8.137025e-11 7.1457507e-10 1.0141135e-09 2.807836e-09 8.1867235e-11 5.0439506e-09 1.8084562e-09 2.600558e-09
1.879405e-09 2.2786957e-09 1.7626227e-06 4.37586e-06 1.9088413e-06 1.6028811e-07 1.9494464e-06 4.5852867e-06
1.7761187e-06 1.6029786e-07 2.1843173e-06 4.959303e-06 1.7467639e-06 1.601024e-07 1.9743952e-06 4.18536e-06
4.0582777e-06 4.5395645e-06 4.6616215e-06 2.6479789e-05 4.0228457e-05 0.00018196739 4.1433605e-06 2.8341065e-05
4.3536565e-05 0.0001667807 4.141312e-06 3.2516946e-05 4.9171118e-05 0.00015135958 4.14238e-06 0.00020807722
0.0001189137 0.000106674175 0.00012326115 0.00012663663 6.0498173e-06 1.52583725e-05 6.6925254e-06 5.6009816e-07
6.6841944e-06 1.5963093e-05 6.207572e-06 5.5994946e-07 7.4743407e-06 1.7221617e-05 6.076847e-06 5.592564e-07
6.7736164e-06 1.4748466e-05 1.3865928e-05 1.5917803e-05 1.6224663e-05 1.3023122e-08 1.5663796e-08 8.109898e-08
1.49546e-09 1.3403888e-08 1.5664098e-08 7.940266e-08 1.494571e-09 1.4317639e-08 1.5857925e-08 7.766695e-08
1.4940749e-09 1.0159894e-07 3.270808e-08 3.8362693e-08 4.287487e-08 3.761092e-08 7.352281e-09 1.7057484e-08
9.1291106e-08 2.880286e-09 7.88721e-09 1.6195811e-08 7.7921534e-08 2.8718776e-09 9.119563e-09 1.6466686e-08
6.3656216e-08 2.8783218e-09 2.0826916e-07 6.828474e-08 4.9543065e-08 8.165601e-08 4.7583928e-08 7.302186e-10
