src/scripts/ddpg/weights/critic.pth (torch, 853231 bytes, 15 tensors)

linear_input.weight f4 [256, 17]
0	0x145e88a7	1.1235086e-26
1	0x13f04a6c	6.0657903e-27
2	0x92eeb041	-1.5063362e-27
3	0x148325c9	1.3242523e-26
4	0x1493ffc7	1.4944093e-26
5	0x14414a0a	9.7586115e-27
6	0x15de5e3f	8.981378e-26
7	0x140ec22c	7.2074616e-27
8	0x13dfec46	5.6526098e-27
9	0x1412f1f7	7.4188354e-27
10	0x9614411f	-1.1975893e-25
11	0x13910c25	3.661512e-27
12	0x13b9ac64	4.6870556e-27
13	0x13461827	2.5003022e-27
14	0x1304b63b	1.6750589e-27
15	0x944c7014	-1.03214715e-26
16	0x934a571b	-2.553893e-27
17	0xb90da7c0	-0.000135093
18	0xba8610e6	-0.0010228425
19	0xba86efb1	-0.0010294822
20	0x39f2b4e7	0.0004629262
21	0xb91d233b	-0.00014985811
22	0xba8abfb1	-0.0010585693
23	0xba872db9	-0.0010313309
24	0x39f65bb9	0.00046989115
25	0xb9281a1f	-0.0001603146
26	0xba8e3594	-0.0010849708
27	0xba871bbb	-0.0010307947
28	0x39f5af0a	0.00046860456
29	0x3a3b72e7	0.00071506057
30	0x3a3ced01	0.0007206947
31	0x3a224d98	0.0006191372
32	0xba3e1580	-0.00072511286
33	0xb9e0864e	-0.00042824674
34	0x3a721c91	0.0009235824
35	0xbc49eb23	-0.012324127
36	0xbc7d63fa	-0.015465731
37	0x3b36dbe5	0.0027902063
38	0x3b2fcbf2	0.0026824442
39	0xbc49c701	-0.012315513
40	0xbc78dd76	-0.015189519
41	0x3b48316d	0.0030547038
42	0x3b63614f	0.0034695452
43	0xbc55c104	-0.013046507
44	0xbc847825	-0.01617057
45	0x3b45b539	0.0030167832
46	0x3c70652e	0.014672561
47	0x3b171a23	0.002305635
48	0x3b06eeb4	0.0020589055
49	0xbb6430d1	-0.0034819136
50	0xbbb5fae6	-0.005553591
51	0x16ca360c	3.2668968e-25
52	0x976b65ab	-7.606092e-25
53	0x19879c14	1.4021712e-23
54	0x96656ebd	-1.8533416e-25
55	0x170055a7	4.146714e-25
56	0x1817983e	1.9593155e-24
57	0x18906adb	3.7331024e-24
58	0x1749e918	6.524081e-25
59	0x1704a83f	4.2863857e-25
60	0x97654349	-7.4078817e-25
61	0x1881b8f2	3.3532465e-24
62	0x962ac647	-1.3795056e-25
63	0x95e7cd9b	-9.3624545e-26
64	0x17012abc	4.1736086e-25
65	0x968a526b	-2.2347115e-25
66	0x177a5a83	8.08936e-25
67	0x17951863	9.635055e-25
68	0x2224ebc3	2.2350956e-18
69	0xa267ed24	-3.1431879e-18
70	0x230e616b	7.7184645e-18
71	0xa132e6e8	-6.061435e-19
72	0x220aae6f	1.8794832e-18
73	0x23167385	8.1559785e-18
74	0x234eac77	1.1203803e-17
75	0xa0dbbfee	-3.7227052e-19
76	0xa1f010b7	-1.6267457e-18
77	0x2291e01a	3.9539606e-18
78	0x2370b83a	1.30494376e-17
79	0xa1d109aa	-1.4164949e-18
80	0xa281f9d5	-3.523004e-18
81	0xa28a36da	-3.746305e-18
82	0xa31e9840	-8.597437e-18
83	0x22159693	2.0272979e-18
84	0xa24151d1	-2.619969e-18
85	0x06db3e4d	8.2470187e-35
86	0x87a244bd	-2.4415452e-34
87	0x86bc4c9a	-7.0830296e-35
88	0x851a2812	-7.248405e-36
89	0x06d25af1	7.9126847e-35
90	0x8728f9c6	-1.2712317e-34
91	0x8687a4bc	-5.102341e-35
92	0x869890b4	-5.738867e-35
93	0x06e12f22	8.470485e-35
94	0x05905602	1.3573289e-35
95	0x076d2e7f	1.7843562e-34
96	0x04a86095	3.9585307e-36
97	0x06135ddf	2.7716593e-35
98	0x06ba1539	6.999661e-35
99	0x85013e3a	-6.07698e-36
100	0x85891127	-1.2889719e-35
101	0x86c40bb3	-7.3744196e-35
102	0x3cf06e0a	0.029349346
103	0x3d0aab00	0.033854485
104	0xbd46c9b8	-0.048532218
105	0xbcca8055	-0.024719397
106	0x3c6f603d	0.014610347
107	0x3b54118e	0.0032359096
108	0x3d67fb7f	0.05663633
109	0xbcc6bfc1	-0.024261357
110	0x3d56f70c	0.052481696
111	0xbcdd2a6b	-0.026997766
112	0x3ca9fe18	0.020751044
113	0xbcda6a55	-0.026662031
114	0x3e0d0513	0.13771467
115	0xbddc0b95	-0.107443966
116	0x3de8ffe4	0.11376932
117	0xbd7c6444	-0.06161906
118	0x3da011a8	0.07815868
119	0x3b9cf02a	0.004789372
120	0xbc9e72cc	-0.019341849
121	0x3a4f9bde	0.00079196494
122	0x3a082a69	0.0005194308
123	0x3bb1eb3a	0.0054296525
124	0xbcabc103	-0.020966059
125	0x3a55faf3	0.00081626995
126	0x39eddbc6	0.00045367907
127	0x3bd18c93	0.0063949316
128	0xbcb2d1ed	-0.021828616
129	0x3aaf1faf	0.0013360883
130	0x39abfc29	0.00032803536
131	0xbc7397dd	-0.01486775
132	0x3c3bbf67	0.011459208
133	0xbd010e5e	-0.031507842
134	0x3ca1c458	0.019746944
135	0xbcc547f6	-0.024082165
136	0xbb00bd57	-0.0019644105
137	0xbbc1ab7c	-0.005910335
138	0x3c523e30	0.0128322095
139	0xbcee047b	-0.02905487
140	0x3cc1bb2e	0.023648825
141	0xbbe6ae4d	-0.0070398212
142	0xbc0c61b9	-0.008568221
143	0xbd0711e5	-0.03297605
144	0x3c27fd4b	0.010253261
145	0xbb3d1da7	-0.0028856786
146	0xba036e5a	-0.0005013697
147	0xbd0d48b3	-0.03449316
148	0x3e0fd218	0.14044988
149	0x3d2af07e	0.041733257
150	0xbc9d6aba	-0.01921593
151	0xbc8250c4	-0.015907653
152	0x3c9e51e9	0.019326167
153	0xb91ad700	-0.00014766678
154	0xbc0e893d	-0.008699712
155	0xbc2b5151	-0.010456399
156	0x3b8b4ae7	0.0042508724
157	0xb90cc557	-0.00013424955
158	0xbc119a67	-0.00888691
159	0xbc2b61c0	-0.010460317
160	0x3b8e52a8	0.0043433495
161	0xb90b319b	-0.00013274552
162	0xbc1481f8	-0.00906419
163	0xbc2b93bf	-0.010472237
164	0x3b8e42e1	0.0043414687
165	0x3bcc58fa	0.006236193
166	0x3be25e56	0.0069082184
167	0x3bae9c47	0.0053286883
168	0xbbd60282	-0.0065310607
169	0xbb697f6a	-0.0035628923
170	0x392041bf	0.00015283281
171	0xb9cfe618	-0.0003965355
172	0x380435d1	3.1521373e-05
173	0x38e04a7a	0.00010695025
174	0x39358f50	0.00017314893
175	0xb9ea9bd5	-0.00044748062
176	0x384a283a	4.8198017e-05
177	0x38e692b0	0.00010994577
178	0x394590bb	0.000188413
179	0xb9f70a50	-0.00047119195
180	0x360462ac	1.9726967e-06
181	0x38ed9b4e	0.000113299684
182	0xb9e94e90	-0.00044499757
183	0x3907efde	0.00012963961
184	0xba6d77ef	-0.0009058704
185	0x3a0fdc0c	0.00054878066
186	0xba2094c2	-0.0006125682
187	0xb77044c1	-1.4321123e-05
188	0xb70eb37e	-8.505651e-06
189	0xb7594358	-1.2949888e-05
190	0x378b64b3	1.6616983e-05
191	0xb7abdee0	-2.0488573e-05
192	0xb71ce5d0	-9.351832e-06
193	0xb768feb7	-1.3887583e-05
194	0x378a2f98	1.6473045e-05
195	0xb7c00b73	-2.2893515e-05
196	0xb6e0670d	-6.687717e-06
197	0xb76d0c4d	-1.4129165e-05
198	0x378b1fed	1.6584958e-05
199	0xb6259540	-2.467379e-06
200	0x375d7e43	1.3202024e-05
201	0x380b2a62	3.3179655e-05
202	0xb7ba8467	-2.2234583e-05
203	0x36c7e1dc	5.9569556e-06
204	0xbc0d9e2f	-0.008643671
205	0x395466f6	0.00020256251
206	0x3c54d1b2	0.012989448
207	0x3c20722c	0.009792846
208	0xbc9c7db2	-0.019102905
209	0xbbac974b	-0.005267059
210	0xbc3f3b51	-0.011671857
211	0x3c770312	0.015076416
212	0xbca68203	-0.020325666
213	0x3b977ea4	0.004623251
214	0x3c80cfef	0.01572415
215	0x3c630e23	0.013858351
216	0x3cffbf15	0.031219045
217	0x3c8543d4	0.016267695
218	0xbc54a106	-0.012977844
219	0x3aa2421b	0.001237932
220	0x3d1cf13c	0.038315997
221	0xbc95dce4	-0.018293805
222	0x3cab31a4	0.020897694
223	0x3c8028b3	0.015644407
224	0xbc55cb82	-0.013049008
225	0xbd0045d5	-0.031316597
226	0x3c681c89	0.01416696
227	0xbd41203d	-0.047149885
228	0xbc11fa2e	-0.008909745
229	0xbd111ff8	-0.03543088
230	0x3c4a70aa	0.012355963
231	0x3cda29a5	0.026631186
232	0xbc01c569	-0.007920601
233	0x3e3fc8cb	0.1872894
234	0xbdfc4758	-0.12318295
235	0x3d9e9b00	0.07744408
236	0xbcc7171f	-0.024303017
237	0xbc89adf9	-0.01680659
238	0xb8a76cbb	-7.983433e-05
239	0xb8b019a7	-8.397112e-05
240	0xb7693da6	-1.3902236e-05
241	0x388bd567	6.667786e-05
242	0xb8c82c47	-9.5449905e-05
243	0xb8b4c8b8	-8.6204556e-05
244	0xb7985daa	-1.8163428e-05
245	0x388becda	6.6721535e-05
246	0xb8d60ecc	-0.00010207071
247	0xb8a15bce	-7.694178e-05
248	0xb79f9039	-1.9021436e-05
249	0x388bd80a	6.668277e-05
250	0xb80988d6	-3.2790784e-05
251	0x380ac8a4	3.3088625e-05
252	0x391da6d6	0.00015034838
253	0xb8befb8a	-9.106759e-05
254	0x387eef50	6.0781196e-05
255	0x85a5df6a	-1.5598595e-35

linear_input.bias f4 [256]
0	0x14254811	8.344584e-27
1	0x3a4cc63a	0.00078115205
2	0x3b8e0dd0	0.0043351427
3	0x96908ec4	-2.3354553e-25
4	0xa2b8e85c	-5.011932e-18
5	0x872dd77a	-1.3078396e-34
6	0xbc1c555d	-0.009541837
7	0xba716317	-0.0009208186
8	0xbd271873	-0.0407948
9	0x3beed808	0.0072889365
10	0x39644e25	0.00021772886
11	0x37fb6bab	2.9971668e-05
12	0x3ca75334	0.020425417
13	0xbc489a20	-0.0122437775
14	0x38cd6b1a	9.795111e-05
15	0x8601775f	-2.4349903e-35
16	0xbd11855c	-0.035527572
17	0x3d0cdff8	0.03439328
18	0x3b6cfe9a	0.0036162497
19	0xbd54642b	-0.05185334
20	0x3d3c1739	0.045920584
21	0x3c9e8a35	0.019353012
22	0x00000026	5.3e-44
23	0xbd31cfaa	-0.043410935
24	0xbb4604f8	-0.0030215364
25	0x3cf887a3	0.030338114
26	0x38900b4e	6.868561e-05
27	0x3563e81c	8.4901853e-07
28	0x3a3296a4	0.00068126083
29	0x05952645	1.402595e-35
30	0x0e2178ac	1.9902884e-30
31	0xbd3cdd26	-0.04610934
32	0xbcdeeede	-0.02721351
33	0x3cc10b9e	0.02356511
34	0xbbe62683	-0.007023634
35	0xbbd8820f	-0.006607301
36	0x824f6b57	-1.5238763e-37
37	0xbbc90fbb	-0.0061359084
38	0x3c522e5d	0.012828437
39	0x2477d814	5.3742613e-17
40	0x1a9a55da	6.383161e-23
41	0xa48b48fb	-6.0405275e-17
42	0x3b3d5f68	0.0028895978
43	0xbb4eded6	-0.0031565926
44	0x2acee1ac	3.6749542e-13
45	0xbd4c3054	-0.049850777
46	0x3b9f9d87	0.0048710736
47	0xbcc2721d	-0.023736054
48	0xbcf03717	-0.029323144
49	0x3c360905	0.011110549
50	0xaf01b49c	-1.1796647e-10
51	0x3c5ca2e4	0.0134665705
52	0xae3b1ec3	-4.25462e-11
53	0x9e9539e7	-1.5799936e-20
54	0x3b429be5	0.002969497
55	0xbc91cb5f	-0.01779717
56	0x3c79ca80	0.015246034
57	0x84f8e6fa	-5.851664e-36
58	0x3cd3539a	0.0257967
59	0x11ffd9ed	4.0366213e-28
60	0x23ceed99	2.2435191e-17
61	0x3b3a3cf2	0.0028417674
62	0x3bb46f09	0.0055064005
63	0x3bc0cb81	0.0058836346
64	0x1aefb5e2	9.914193e-23
65	0x3cc111bc	0.023568027
66	0xbbdc82af	-0.006729446
67	0x3c130008	0.008972175
68	0x3bb56932	0.005536222
69	0xbdb13b0e	-0.08653842
70	0x38dfff48	0.000106810185
71	0x3bda56bb	0.006663171
72	0xbc5b942b	-0.013402025
73	0x15a55060	6.676978e-26
74	0x32e98239	2.7183988e-08
75	0x3b827ec4	0.003982397
76	0x3025e7a3	6.0355826e-10
77	0xbc8aad5d	-0.01692837
78	0x3a20cb10	0.00061337743
79	0x0e6f67bc	2.950897e-30
80	0xbce7901f	-0.028266964
81	0x80000222	-7.65e-43
82	0x3bda3cb7	0.00666007
83	0xbc806ecf	-0.015677838
84	0x3ce80408	0.028322235
85	0x2bb29633	1.2689349e-12
86	0x998bfcc3	-1.4474353e-23
87	0xba9ceeb6	-0.0011972997
88	0xbcd1b9e1	-0.02560133
89	0xbbfb3bb1	-0.007667028
90	0xb975375b	-0.00023385642
91	0x3c8f21a5	0.017472098
92	0xbba61471	-0.005068355
93	0x2c21c62d	2.2989486e-12
94	0x8cd45e4a	-3.272052e-31
95	0x38a744ee	7.97602e-05
96	0x3cb1aed4	0.02168981
97	0x2d62ca7e	1.2891575e-11
98	0xbc4db062	-0.01255426
99	0x3c89d717	0.016826196
100	0x3b112d6b	0.0022152315
101	0xbc09264e	-0.008370949
102	0x91b0690b	-2.7832642e-28
103	0xbcec67b0	-0.028858036
104	0x2432c536	3.876464e-17
105	0x135d66cd	2.7944806e-27
106	0x35c1ffd2	1.4454074e-06
107	0x99832f3d	-1.3564162e-23
108	0x3c5e1406	0.013554579
109	0x3ccd3ff9	0.025054919
110	0x959ee787	-6.418098e-26
111	0x8ee07380	-5.5331486e-30
112	0x3d52b5d4	0.051442936
113	0x3bdf7010	0.006818779
114	0x9c4e6dbd	-6.8301516e-22
115	0x3d94a187	0.072573714
116	0x3a577804	0.0008219483
117	0x2da57516	1.8810325e-11
118	0xa645abf6	-6.8581155e-16
119	0x3b950c20	0.0045485646
120	0xbae4e7cf	-0.0017464104
121	0xbbc9b55e	-0.006155654
122	0x3aaf81b9	0.0013390101
123	0x892dfd8d	-2.0943337e-33
124	0xbbb5f43b	-0.005552796
125	0x28de6892	2.4692301e-14
126	0x3ccb674f	0.024829535
127	0xbd0502bc	-0.03247331
128	0x3b187f5f	0.0023269278
129	0x27082b52	1.8897275e-15
130	0xbcdb9cef	-0.02680823
131	0x3bf3a7e5	0.007435786
132	0x8903c07e	-1.585906e-33
133	0x3c885d8e	0.016646173
134	0x3cda8236	0.026673418
135	0x3a591de9	0.000828235
136	0x0a603438	1.0795029e-32
137	0x25aaa448	2.960162e-16
138	0x904cb2be	-4.0369604e-29
139	0x3c8493a3	0.01618368
140	0x3c9314db	0.01795428
141	0x3bc51ca2	0.006015376
142	0xbac867fc	-0.0015289779
143	0xbca0644d	-0.019579077
144	0xbd011db3	-0.031522464
145	0x2901afcb	2.879623e-14
146	0xbcd12c9a	-0.025533963
147	0x3b26979e	0.002541996
148	0x8e832ef6	-3.2339215e-30
149	0xbce18c70	-0.027532786
150	0x3893b37d	7.0429385e-05
151	0x9312702b	-1.8483094e-27
152	0x2c7d8d9e	3.6032076e-12
153	0xbad6bfe0	-0.0016384088
154	0xbbd651bd	-0.0065405057
155	0x000097d1	5.4461e-41
156	0xbbc4e62e	-0.006008885
157	0x84e827ec	-5.45796e-36
158	0xbcea1b45	-0.028577456
159	0x3d0b8e26	0.03407111
160	0xbb754522	-0.003742524
161	0xbc663729	-0.014051237
162	0x3a29b003	0.0006473066
163	0x8a193236	-7.376126e-33
164	0x3bb9a608	0.0056655444
165	0x3b99e7be	0.0046968153
166	0x3c911296	0.017709058
167	0xbca2bf28	-0.019866541
168	0x3b87474c	0.0041283723
169	0x3c9f07b5	0.019412855
170	0xb85bf22d	-5.2439213e-05
171	0x3b9dec4c	0.0048194285
172	0x3bfb2734	0.0076645855
173	0xbb91a8ec	-0.004445186
174	0x3c80f57b	0.015742054
175	0xba088057	-0.00052071124
176	0x3b020d20	0.001984425
177	0xbca53bb8	-0.020170078
178	0x129e83e6	1.0003717e-27
179	0x3aff9697	0.0019499835
180	0xb31ad070	-3.6045492e-08
181	0x394d2cd8	0.00019567029
182	0x3c910885	0.017704258
183	0x36844517	3.9419497e-06
184	0x3d06f1b3	0.032945346
185	0x3d00053f	0.031255003
186	0x2528ac70	1.4630101e-16
187	0x3c8ad76a	0.01694842
188	0xbc14ac92	-0.009074347
189	0x0cbc9af1	2.9059238e-31
190	0x29f02f35	1.066633e-13
191	0x3bc464bb	0.0059934533
192	0xbcba43d1	-0.022737416
193	0x37bd9744	2.2600994e-05
194	0xbc1c9cda	-0.009558881
195	0x3bb3df2c	0.0054892506
196	0x39ada7e8	0.0003312223
197	0x2f48b57a	1.8254367e-10
198	0x3a2b0dc3	0.0006525183
199	0x29dc8984	9.793818e-14
200	0x3c11c6a3	0.008897456
201	0x3aa2a611	0.0012409111
202	0xbd1040b2	-0.03521795
203	0x2928e261	3.7499846e-14
204	0x3bd9952a	0.006640096
205	0xbba83e9d	-0.005134417
206	0x3c592b5c	0.013254967
207	0x3c923d4c	0.017851494
208	0x3ac86f0f	0.0015291887
209	0x3cba1a0f	0.022717504
210	0xbd64ffb3	-0.055907916
211	0x3bb75381	0.0055946712
212	0x3c82ef23	0.01598317
213	0x3142c46b	2.8342366e-09
214	0x3c3c82ce	0.011505796
215	0x38dea104	0.000106157764
216	0x3cb785d9	0.02240269
217	0x8c90e4b6	-2.2324363e-31
218	0x93a84e10	-4.2486138e-27
219	0x2d00ac07	7.314155e-12
220	0xbbb32171	-0.005466633
221	0x3c943195	0.018090049
222	0xb38556fc	-6.2091175e-08
223	0x3aba23e2	0.0014201368
224	0x0a70c684	1.1592916e-32
225	0x3bf60e99	0.0075090644
226	0x9c9afc60	-1.0256103e-21
227	0xbb4abbe4	-0.0030934745
228	0x276f86e7	3.3241044e-15
229	0x3cab0d53	0.020880377
230	0xbcd89624	-0.02643878
231	0x3c50dda4	0.012748156
232	0x3aa1bebb	0.0012340167
233	0x3c599b01	0.013281585
234	0xbb87ad68	-0.0041405447
235	0x3d0e95c0	0.03481078
236	0xbb1c9cc1	-0.0023897144
237	0xbcf9ff38	-0.030517206
238	0x3b891b76	0.004184182
239	0x3cb4d944	0.022076257
240	0xb982052f	-0.00024799394
241	0x90939dfb	-5.8224684e-29
242	0x3cefffd3	0.029296791
243	0x982633ef	-2.1481217e-24
244	0x3b08c82a	0.002087126
245	0x3c0ec4b8	0.008713894
246	0x2f37a500	1.6702373e-10
247	0x2990b6ec	6.4266165e-14
248	0x36108dca	2.1540204e-06
249	0x339df38b	7.3551824e-08
250	0x39c9c35f	0.0003848327
251	0xbc83b379	-0.01607679
252	0x3ca2ee0f	0.019888906
253	0x3c7f5602	0.015584471
254	0x390731b8	0.00012893125
255	0x3c4068a3	0.011743697

linear_hidden.0.weight f4 [256, 256]
0	0x1446b59d	1.0032262e-26
1	0x39d5a349	0.00040748183
2	0x3afb1759	0.0019156738
3	0x96e0ac36	-3.6297832e-25
4	0x216a3da5	7.936387e-19
5	0x85e94314	-2.1935855e-35
6	0xbcdfa763	-0.027301496
7	0xbbecc223	-0.0072252913
8	0xbc9266ec	-0.017871343
9	0x3b55d401	0.0032627585
10	0xb9504812	-0.00019863274
11	0x3735ee3f	1.0843912e-05
12	0x3c13fa35	0.009031822
13	0xbced0285	-0.028931865
14	0x38429de3	4.6400248e-05
15	0x04f22d36	5.6935446e-36
16	0xbc8fe1b6	-0.017563682
17	0x3c85a40c	0.016313575
18	0x3acc9866	0.0015609383
19	0xbd13b6e9	-0.03606311
20	0x3c901960	0.017590225
21	0x3d00197c	0.031274304
22	0x800000cb	-2.84e-43
23	0xbc8fb81e	-0.017543849
24	0xbb2f152d	-0.0026715503
25	0x3c194c7d	0.009356615
26	0xbaa08b3b	-0.0012248525
27	0xb4d34eb5	-3.935908e-07
28	0x39979b06	0.00028916466
29	0x858221df	-1.2237584e-35
30	0x8d593581	-6.693269e-31
31	0xbcdabc23	-0.026701039
32	0xbc0ffd7f	-0.0087884655
33	0x3c67b22c	0.014141601
34	0xbb4cd1db	-0.0031253013
35	0x3c8d0842	0.017215852
36	0x8008f43d	-8.223e-40
37	0xbbfd0979	-0.0077220765
38	0x3bbf55b0	0.005839072
39	0xa2f19c93	-6.548896e-18
40	0x1b33d05e	1.487386e-22
41	0xa485b868	-5.799195e-17
42	0x3aad8af1	0.001324026
43	0xbb975668	-0.0046184547
44	0x29a4db62	7.32112e-14
45	0xbcb0b2d1	-0.021569641
46	0x3bba45d6	0.0056845946
47	0xbd266f79	-0.040633652
48	0xbca00453	-0.019533312
49	0x3b93b8ab	0.004508098
50	0x2d02b6a0	7.430195e-12
51	0x3ba85307	0.0051368508
52	0x2d38b957	1.0500343e-11
53	0x1f04fd35	2.8161535e-20
54	0x3ae19797	0.0017211315
55	0xbce71023	-0.028205937
56	0x3cadef58	0.021232292
57	0x075e0f76	1.6705967e-34
58	0xbc90871c	-0.01764255
59	0x12088d95	4.3088547e-28
60	0x222c68e2	2.3365871e-18
61	0x3aa85434	0.0012842477
62	0x3b5aa1b4	0.0033360543
63	0x3b2a7d29	0.0026014543
64	0x1adc9a58	9.1239223e-23
65	0x3c39f3de	0.011349646
66	0xbb3f0180	-0.0029145181
67	0x3ba8bb4d	0.005149281
68	0x3b111596	0.002213811
69	0xbd014a1f	-0.031564828
70	0xb95b3f8b	-0.00020909139
71	0x3b8d46c3	0.004311414
72	0xbb8e8404	-0.0043492336
73	0x160b558a	1.1255322e-25
74	0x325e73fb	1.2948472e-08
75	0xbc737e7f	-0.014861702
76	0x315341e8	3.0742004e-09
77	0xbc39749b	-0.011319305
78	0x398d109e	0.00026905996
79	0x8e02ce15	-1.6122962e-30
80	0xbc1f4f78	-0.009723537
81	0x8000021e	-7.6e-43
82	0x3b8942bd	0.004188864
83	0xbbdce220	-0.0067408234
84	0x3c84671d	0.01616245
85	0xa9efc664	-1.06481474e-13
86	0x18af0233	4.523866e-24
87	0xb96a8e4c	-0.00022368989
88	0xbc163cdc	-0.009169783
89	0xbb578473	-0.0032885342
90	0x3935cf97	0.00017338838
91	0x3c210a05	0.009829049
92	0xbc778cab	-0.015109221
93	0xac253de7	-2.3482273e-12
94	0x0d890d48	8.446474e-31
95	0x3823183d	3.8884802e-05
96	0x3c3eb987	0.011640913
97	0x2b2082de	5.7025034e-13
98	0xbc43c05e	-0.011947719
99	0xbc94ee8e	-0.018180158
100	0xbc72a2b5	-0.0148093
101	0xbbbb8cad	-0.005723557
102	0x1240d08d	6.0841576e-28
103	0xbc64765e	-0.013944237
104	0x244010a1	4.164745e-17
105	0x9421a1f9	-8.160366e-27
106	0xb52b0590	-6.371056e-07
107	0x998b7fd2	-1.442389e-23
108	0x3c91500d	0.017738366
109	0x3c1b70f3	0.009487378
110	0x158b7e3e	5.634083e-26
111	0x0dec377f	1.4557983e-30
112	0x3cb5c2dc	0.022187643
113	0x3b3b75b7	0.00286041
114	0x9b692cf7	-1.9287837e-22
115	0x3cd63f70	0.026153296
116	0x39c03e38	0.0003666745
117	0xa9aab3ff	-7.580741e-14
118	0x2948f173	4.4618345e-14
119	0x3b048168	0.0020218734
120	0xbbdf69c1	-0.006818027
121	0xbae1e9dc	-0.0017235833
122	0xbbd6b027	-0.0065517607
123	0x08d99362	1.3094862e-33
124	0xbbe5a321	-0.007007972
125	0x2b90de6a	1.0293548e-12
126	0x3c20c33c	0.0098121725
127	0xbc965846	-0.018352639
128	0xbc63677b	-0.013879652
129	0xa636b7ab	-6.339285e-16
130	0xbc3c1643	-0.011479917
131	0x3b4a39b9	0.003085716
132	0x077e301b	1.9122973e-34
133	0xbcd6f315	-0.026238957
134	0x3c1ed665	0.00969467
135	0x39c51ff4	0.00037598575
136	0x0b098e5a	2.6492334e-32
137	0x24b094dc	7.658001e-17
138	0x0f817e6f	1.2769083e-29
139	0x3be3e252	0.0069544697
140	0x3ce350c5	0.027748475
141	0x3b3579fc	0.0027691117
142	0xbc3423f0	-0.010994896
143	0xbc0d0b0f	-0.008608594
144	0xbd027cee	-0.031857423
145	0x28ca307b	2.244753e-14
146	0xbc01419f	-0.00788918
147	0xbc19b2dd	-0.009381023
148	0x0e076424	1.668825e-30
149	0xbc28f664	-0.01031265
150	0xb91a7d8b	-0.00014733353
151	0x13374ecb	2.3136695e-27
152	0xaa9589c5	-2.6563314e-13
153	0xbcc0d709	-0.023540037
154	0xbbecb626	-0.007223862
155	0x0000374b	1.9835e-41
156	0xbc4b419b	-0.012405778
157	0x042a51ab	2.0020904e-36
158	0xbc2f04ed	-0.010682327
159	0x3c357359	0.011074864
160	0xbc9f59c1	-0.019451978
161	0xbb8585b4	-0.0040747765
162	0xbbaeb8d7	-0.005332093
163	0x87327fb6	-1.3428763e-34
164	0xbc8e3ea2	-0.01736385
165	0x3b0ac757	0.0021175945
166	0x3be8d91a	0.0071059586
167	0xbcc86698	-0.024462983
168	0x3b3eca97	0.0029112452
169	0x3c026e07	0.007960803
170	0xb651172c	-3.1156915e-06
171	0xbc8c5579	-0.0171306
172	0x3ca55ce4	0.020185895
173	0xbac9eadb	-0.0015405075
174	0x3c114ce0	0.008868426
175	0x389b53b2	7.4065654e-05
176	0x3a98c607	0.0011655696
177	0xbbeeb305	-0.0072845244
178	0x1369938c	2.948148e-27
179	0x3a853ff2	0.0010166152
180	0xb278d72a	-1.44844226e-08
181	0xb9c73ea1	-0.000380029
182	0x3be7593a	0.007060197
183	0xb5986ca2	-1.1356499e-06
184	0x3c8f4def	0.017493216
185	0x3c4e4374	0.012589324
186	0x23355766	9.830537e-18
187	0x3c230ceb	0.00995181
188	0xbc89ff3b	-0.016845336
189	0x0d1914fa	4.7172015e-31
190	0xa9782f12	-5.510789e-14
191	0x3b666cd8	0.003516009
192	0xbc953352	-0.018212948
193	0x36f1644a	7.194035e-06
194	0xbc860349	-0.016358988
195	0x3b8e312f	0.0043393592
196	0x3909080f	0.0001306834
197	0xadb9570f	-2.1070727e-11
198	0xbab3b340	-0.0013710037
199	0x27832cd6	3.6408415e-15
200	0x3b7be392	0.0038435203
201	0x39ff0dd9	0.00048647707
202	0xbd087f01	-0.033324245
203	0x285e2d68	1.23333215e-14
204	0xbc894c0c	-0.016759895
205	0xbc065516	-0.008198997
206	0x3bbb4a0a	0.0057156133
207	0x3c089940	0.008337319
208	0x3ac6741c	0.0015140804
209	0x3c51b623	0.012799772
210	0xbc98eae3	-0.01866669
211	0x3b679666	0.0035337447
212	0x3c61798a	0.013761887
213	0x2fe1c93e	4.1070253e-10
214	0x3b94bb38	0.00453892
215	0xb94865fc	-0.00019111478
216	0x3c1d6b1a	0.0096080545
217	0x0d80b466	7.932038e-31
218	0x1284815c	8.362261e-28
219	0xab2f4016	-6.2261426e-13
220	0x3c632867	0.013864613
221	0x3c001368	0.007817127
222	0xb4ee6a93	-4.4408498e-07
223	0xbb29182f	-0.0025801768
224	0x08a1b8df	9.733298e-34
225	0x3cd47fca	0.02593984
226	0x1c6f8802	7.9254253e-22
227	0xba2fc852	-0.000670557
228	0xa7e53e60	-6.3627895e-15
229	0x3c41d0c9	0.011829563
230	0xbc90cfd5	-0.017677227
231	0x3ba0d3e4	0.004908072
232	0xbbb279b4	-0.005446637
233	0x3bd4de8c	0.006496256
234	0xba033c00	-0.0005006194
235	0x3c7018c1	0.014654339
236	0xba3025cc	-0.00067194994
237	0xbc40672b	-0.011743347
238	0x3b046b0d	0.0020205409
239	0x3c002ebb	0.007823641
240	0xb884eed9	-6.338739e-05
241	0x000002af	9.63e-43
242	0x3c57f52a	0.01318101
243	0x997f9f64	-1.321538e-23
244	0x3a8871ab	0.0010409852
245	0xbc1a8832	-0.009431886
246	0xae5ba4c6	-4.9941183e-11
247	0x293c1c18	4.1768753e-14
248	0x356b8fef	8.7753773e-07
249	0x31989f60	4.441901e-09
250	0x3923adc9	0.00015609631
251	0xbbba74b0	-0.0056901798
252	0x3c0467d6	0.008081397
253	0x3bd900dd	0.0066224174
254	0x386c46b2	5.6332625e-05
255	0x3b9afa55	0.004729549

linear_hidden.0.bias f4 [256]
0	0x3d7f4109	0.06231788
1	0xbb1fea91	-0.0024401287
2	0xbae991ef	-0.0017819981
3	0xba4e9687	-0.00078807067
4	0xbb23a868	-0.0024972204
5	0xbb5b98bc	-0.0033507785
6	0x3d8de6a3	0.06928756
7	0xbad1fc9d	-0.0016020719
8	0xbadfb57d	-0.0017067638
9	0xba0faa7f	-0.0005480423
10	0xbb4239d3	-0.0029636517
11	0xbb218e17	-0.0024651343
12	0xb65b9372	-3.2719367e-06
13	0x37c9f37a	2.4074445e-05
14	0xbb0b32e1	-0.0021240043
15	0xbaf61798	-0.0018775342
16	0xbb96bef3	-0.0046003996
17	0xb91b1cb4	-0.00014792645
18	0xacbeae02	-5.4194435e-12
19	0xb9d632c8	-0.00040855096
20	0xbafd9760	-0.0019347481
21	0xb99aeba1	-0.00029548726
22	0x3d36e504	0.044652
23	0xbb9dfcca	-0.0048213946
24	0xbab83781	-0.0014054627
25	0x3d46475e	0.048407905
26	0xbb7a5c80	-0.0038202107
27	0x3803b8ee	3.1405063e-05
28	0xba26b2d3	-0.00063590443
29	0xbb4f698f	-0.0031648611
30	0xbb419c5c	-0.002954266
31	0xa2aa3771	-4.6137293e-18
32	0xbb50db65	-0.003186905
33	0xbb925917	-0.0044661867
34	0x27e65141	6.392592e-15
35	0xbb391e4b	-0.0028246816
36	0xbb764102	-0.0037575369
37	0xb9983f1f	-0.00029038728
38	0xbafa9c5a	-0.0019120083
39	0xbb7159cd	-0.0036827207
40	0xa72e1bb9	-2.416238e-15
41	0xbacdff4b	-0.0015716342
42	0xba0d851f	-0.000539856
43	0xbb15f96d	-0.0022884265
44	0xbab9245c	-0.0014125216
45	0xbb1aa576	-0.0023597158
46	0x3d811c1d	0.0630419
47	0xba2dc3c8	-0.00066286
48	0x3d8859b6	0.06657736
49	0x32cd5bdb	2.3906912e-08
50	0x3d90db3f	0.07073068
51	0x3832ae7c	4.260101e-05
52	0xbba11b7a	-0.0049166055
53	0x385bdb72	5.2418043e-05
54	0xbbd92e08	-0.006627802
55	0x3d6cd5db	0.057821136
56	0xbaa5f96d	-0.0012662836
57	0x3d939328	0.07205802
58	0xbae34c3b	-0.0017341444
59	0xbbfd1c31	-0.007724308
60	0xbb050cd4	-0.0020301836
61	0xbb1490d0	-0.0022669323
62	0xbabd09fe	-0.0014422534
63	0x8000066c	-2.304e-42
64	0x9e9bf250	-1.6511481e-20
65	0x3d6a1546	0.057149194
66	0xba8f5310	-0.0010934789
67	0x00000719	2.546e-42
68	0xbb3d6c1c	-0.002890355
69	0xbaaebb89	-0.0013331036
70	0x1ed1e5cc	2.2223778e-20
71	0xab0c4170	-4.9828804e-13
72	0xbaa4056e	-0.0012513825
73	0x8000052a	-1.853e-42
74	0xbb3bdd42	-0.0028665815
75	0xbba0f023	-0.004911439
76	0xbb030656	-0.001999279
77	0xbadeef15	-0.0017008508
78	0x30825541	9.482976e-10
79	0x18bdb3cd	4.9036907e-24
80	0xbb5242ce	-0.0032083276
81	0xbb3a6a9f	-0.0028444899
82	0xb9d297a4	-0.00040167302
83	0xba3bbd83	-0.00071617233
84	0x80000252	-8.32e-43
85	0x00000066	1.43e-43
86	0xbb5d6147	-0.0033779906
87	0xb8e277e6	-0.000107988526
88	0xb12ec41a	-2.5431803e-09
89	0x369a78e9	4.6036334e-06
90	0xbb244b4e	-0.00250693
91	0x3d9afa6f	0.07567298
92	0xbbc02e56	-0.0058648987
93	0x3d95d370	0.07315719
94	0xbb55c553	-0.0032618835
95	0x3d9a002a	0.075195625
96	0xbb38f005	-0.0028219235
97	0xbad9c8dd	-0.0016615648
98	0x3876e2b3	5.88621e-05
99	0xae0761c9	-3.0782297e-11
100	0xbae4e876	-0.0017464298
101	0xb7b5011c	-2.1577398e-05
102	0xba41ab96	-0.0007387934
103	0xa785911c	-3.7072243e-15
104	0xbb4033ed	-0.0029327825
105	0xba9b3dc3	-0.0011843968
106	0xb6cad677	-6.045036e-06
107	0xbae70e4d	-0.0017628163
108	0xbb775b7b	-0.0037743736
109	0x3d868ca9	0.065697975
110	0x375c39dc	1.3126493e-05
111	0x37c07f9b	2.2947605e-05
112	0xbbab7e62	-0.005233572
113	0xbb2c7483	-0.0026314564
114	0xbaee5e6e	-0.0018186101
115	0xba43dc63	-0.00074715
116	0xbafd28df	-0.0019314549
117	0xb60132eb	-1.9252136e-06
118	0x2b068420	4.7789724e-13
119	0xbbb6bfb4	-0.005577052
120	0xba3fc8aa	-0.0007315973
121	0xb703f1f4	-7.864543e-06
122	0x800001af	-6.04e-43
123	0x3da67ce5	0.081292905
124	0x3d67cc4e	0.056591325
125	0xba3bfe25	-0.00071713544
126	0x36445bba	2.9259668e-06
127	0x3841a5aa	4.6169072e-05
128	0xbab74d7e	-0.0013984886
129	0x3d5bdb9f	0.053676244
130	0x3d71462a	0.058904804
131	0xab69b4a7	-8.3028934e-13
132	0xbaed32b3	-0.0018096775
133	0xa484523b	-5.738518e-17
134	0xbb117785	-0.0022196483
135	0x3d5d1ac0	0.05398059
136	0xafe447be	-4.1523934e-10
137	0x37d1fc11	2.5032119e-05
138	0xb87063fa	-5.731357e-05
139	0xba4bb2cb	-0.00077704777
140	0xbad681b9	-0.0016365565
141	0x37ed1cdb	2.8266038e-05
142	0xbb55e59e	-0.0032638083
143	0xbb3c0087	-0.0028686838
144	0xbb775d20	-0.0037744716
145	0xbadd49e4	-0.0016882983
146	0xba50ae9c	-0.0007960589
147	0xbae6a5f4	-0.0017597065
148	0xbb61264b	-0.00343551
149	0xbb3faac5	-0.0029246074
150	0xbb34d128	-0.0027590487
151	0x380eb0d8	3.4020137e-05
152	0xbb98af23	-0.00465955
153	0xb38ebdb3	-6.6468964e-08
154	0xbb6ec1cf	-0.0036431437
155	0xb78bbea9	-1.6658874e-05
156	0xbabd32bf	-0.0014434679
157	0x3d230f20	0.039809346
158	0x3d41a7c4	0.047279134
159	0xbb627e9d	-0.003456033
160	0xba14ca6c	-0.0005675915
161	0xbb5de1ec	-0.0033856584
162	0xa6c8ec73	-1.3941877e-15
163	0xba88d0d2	-0.001043821
164	0xbaaf2e04	-0.0013365154
165	0xbb9feb59	-0.0048803505
166	0x2a91a9ca	2.587499e-13
167	0x382501ba	3.9340674e-05
168	0xbb81fc6e	-0.0039668595
169	0xb9b823e8	-0.00035121967
170	0xb9bfad1b	-0.00036559333
171	0xbb1b4dc5	-0.0023697477
172	0xba835667	-0.0010020257
173	0xbbf9adf9	-0.007619616
174	0xbaf8311d	-0.0018935535
175	0xba9a1e3e	-0.001175828
176	0xbad4a299	-0.0016222774
177	0xbb99b101	-0.00469029
178	0xb996d68e	-0.00028770085
179	0xbb5f60ad	-0.0034084723
180	0xb345442d	-4.5929642e-08
181	0xbbcae35f	-0.0061916555
182	0xb9b0a82c	-0.00033694634
183	0xbaecaa41	-0.0018056111
184	0x3d8a938d	0.06766424
185	0xbb5f04a5	-0.0034029868
186	0xbb8bb248	-0.004263196
187	0xb7030706	-7.809844e-06
188	0xba156cf5	-0.0005700135
189	0x383ed882	4.550117e-05
190	0xbb77cb8d	-0.0037810535
191	0xa9ed7cad	-1.0546542e-13
192	0x0b794f92	4.8015518e-32
193	0xb75d2dad	-1.3183261e-05
194	0xba28f8d9	-0.00064457726
195	0xbb84c6f8	-0.0040520392
196	0xba1ab9f4	-0.0005902343
197	0x349b0372	2.8873507e-07
198	0xba14d035	-0.0005676777
199	0xb71e9ad2	-9.453581e-06
200	0xbbcc3842	-0.0062322924
201	0xbb21d9ae	-0.0024696398
202	0xbab1a0f2	-0.0013551994
203	0xbb49c232	-0.0030785915
204	0xbac0926f	-0.0014692078
205	0xba3074bc	-0.0006731262
206	0xbb1d3cd5	-0.0023992558
207	0xba942d91	-0.0011305084
208	0xba87f5e7	-0.0010372967
209	0x3d99374e	0.07481252
210	0xba161c86	-0.0005726296
211	0x8000259c	-1.3492e-41
212	0xba8ea7cd	-0.0010883749
213	0xb6867cc1	-4.0080345e-06
214	0xb8b3adc9	-8.567755e-05
215	0xbb215192	-0.002461527
216	0xbb431c5d	-0.0029771545
217	0xa49211fc	-6.3347874e-17
218	0x3d603468	0.05473748
219	0xbb0ea6f2	-0.0021766988
220	0xbb116871	-0.0022187496
221	0xba3029c7	-0.00067200925
222	0x3d93007e	0.07177828
223	0xba67fa41	-0.00088492414
224	0xbb0f01b9	-0.0021821095
225	0xbb83e7bb	-0.004025427
226	0xbb853aa1	-0.004065827
227	0xbae8f546	-0.0017773292
228	0xbb48c6af	-0.0030636003
229	0xbaccacd9	-0.0015615477
230	0xbae4a1e3	-0.0017443266
231	0xba2a3c1f	-0.0006493944
232	0x3d80457d	0.06263254
233	0x3d8856bc	0.06657168
234	0xba81639d	-0.0009871606
235	0xbb855033	-0.0040683984
236	0x0000155f	7.667e-42
237	0xa0b86366	-3.123659e-19
238	0x3da0a826	0.07844572
239	0x2e5f05db	5.070953e-11
240	0xbab47582	-0.001376793
241	0xbb6355af	-0.0034688523
242	0xbb223613	-0.002475147
243	0xb88fd9bb	-6.859327e-05
244	0xbb55f5e4	-0.0032647783
245	0xbb453af5	-0.0030094956
246	0xbaef06e5	-0.0018236308
247	0x8000008e	-1.99e-43
248	0xb79da253	-1.8791447e-05
249	0x80000438	-1.513e-42
250	0xbb646b0a	-0.003485384
251	0xbaa9c470	-0.001295222
252	0xbb1343e0	-0.0022470877
253	0xb8bf06f8	-9.108888e-05
254	0xba4ff854	-0.0007933427
255	0x36e244c3	6.74333e-06

linear_output.weight f4 [1, 256]
0	0x3e33fb86	0.17576417
1	0xbd92c06a	-0.07165606
2	0xbd746644	-0.05966784
3	0xbd328df5	-0.043592412
4	0xbda94563	-0.082651876
5	0xbda32291	-0.079655774
6	0x3e427a88	0.18992054
7	0xbdb90bec	-0.09035477
8	0xbdbab969	-0.091173954
9	0xbd18e506	-0.03732779
10	0xbda4ff1e	-0.08056472
11	0xbdc852b1	-0.09781397
12	0xbbc5b9bb	-0.0060341037
13	0xbc94b566	-0.018152904
14	0xbd875f13	-0.06609931
15	0xbd73f271	-0.059557382
16	0xbdc558d4	-0.09636083
17	0xbce337e2	-0.027736608
18	0xacd0d406	-5.935255e-12
19	0xbd09acca	-0.03361205
20	0xbd81052d	-0.06299815
21	0xbce87a7a	-0.028378714
22	0x3e045001	0.12921144
23	0xbdcd9fc3	-0.10040238
24	0xbd644789	-0.055732284
25	0x3e0ee178	0.13953197
26	0xbdda2368	-0.106512845
27	0xbc1e16ad	-0.009648961
28	0xbd220fd9	-0.039565895
29	0xbe06ab23	-0.13151221
30	0xbdb4494d	-0.088030435
31	0xa21636a2	-2.0357713e-18
32	0xbdc1cf36	-0.094633505
33	0xbddc98ef	-0.10771357
34	0xa6b9ef3d	-1.2901799e-15
35	0xbddc7dc0	-0.107661724
36	0xbdd0278b	-0.10163792
37	0xbce70b02	-0.028203491
38	0xbd791405	-0.060810108
39	0xbdb2be23	-0.08727672
40	0xa80871d5	-7.5742e-15
41	0xbd782145	-0.060578603
42	0xbd175dce	-0.036954693
43	0xbd899df3	-0.067195795
44	0xbd862e4c	-0.06551799
45	0xbdcb06e9	-0.099134274
46	0x3e350856	0.17678961
47	0xbd24b8e0	-0.040215373
48	0x3e3c18a9	0.18368782
49	0xb49d591b	-2.9308362e-07
50	0x3e49199e	0.19638678
51	0xbc5fadf5	-0.013652314
52	0xbddc156b	-0.10746273
53	0xbc71d962	-0.014761301
54	0xbdf3d304	-0.119054824
55	0x3e246d78	0.16057384
56	0xbd4f07df	-0.050544616
57	0x3e565f0d	0.20934696
58	0xbd734704	-0.059393898
59	0xbe0fdcac	-0.14049023
60	0xbda359d9	-0.079761215
61	0xbd9e49a3	-0.07728889
62	0xbd770237	-0.060304847
63	0x00000421	1.481e-42
64	0x9eef3f98	-2.5331411e-20
65	0x3e21934b	0.15778844
66	0xbd510b25	-0.05103602
67	0x00000284	9.02e-43
68	0xbda52612	-0.08063902
69	0xbd6223ab	-0.055209797
70	0x1fd92b0e	9.19743e-20
71	0x2c11694e	2.0664195e-12
72	0xbd64ec58	-0.055889457
73	0x80000024	-5e-44
74	0xbda4dbf2	-0.08049764
75	0xbdcf5b46	-0.10124831
76	0xbd91f400	-0.071266174
77	0xbd757495	-0.059925634
78	0xb23f0d2e	-1.112066e-08
79	0x18eb87da	6.088325e-24
80	0xbdc659e4	-0.09685114
81	0xbdaa9ed8	-0.08331078
82	0xbd03972d	-0.032126594
83	0xbd2f6b46	-0.042826913
84	0x000001f9	7.08e-43
85	0x800000c4	-2.75e-43
86	0xbdb60392	-0.088874
87	0xbcbbd1e2	-0.022927228
88	0x310b4bbe	2.0270217e-09
89	0x358ceede	1.0500332e-06
90	0xbdb6cf61	-0.08926273
91	0x3e8151cd	0.25257722
92	0xbdf1efb5	-0.118132986
93	0x3e71c390	0.23609757
94	0xbdc82640	-0.097729206
95	0x3e6cf9c8	0.23142159
96	0xbdb2b408	-0.087257445
97	0xbd93943c	-0.07206008
98	0xbc731ba5	-0.014838134
99	0x2da045a4	1.822082e-11
100	0xbd8e25f4	-0.06940833
101	0xbb0195e4	-0.001977318
102	0xbd3099fa	-0.043115593
103	0x278427f7	3.668069e-15
104	0xbdc383c8	-0.0954662
105	0xbd4f1107	-0.050553348
106	0xba454411	-0.00075250963
107	0xbda00d2b	-0.078150116
108	0xbdc6fcb4	-0.09716168
109	0x3e47135c	0.19440979
110	0xbbe3c6f3	-0.006951207
111	0xbc938f51	-0.018012675
112	0xbdda978e	-0.10673438
113	0xbda0ed41	-0.078577526
114	0xbd77d801	-0.06050873
115	0xbd2ee696	-0.042700373
116	0xbdca23e4	-0.09870127
117	0xbb2ffd96	-0.002685403
118	0x2b2bc79b	6.102841e-13
119	0xbddd69bf	-0.10811185
120	0xbd2bb965	-0.041924853
121	0xba14075c	-0.00056468486
122	0x000006cd	2.44e-42
123	0x3e7bd87a	0.24594298
124	0x3e212e19	0.15740241
125	0xbd2ad9c4	-0.041711584
126	0xbc05bd2e	-0.00816278
127	0xbc56a938	-0.013101868
128	0xbd6f57fc	-0.058433518
129	0x3e1acabb	0.15116398
130	0x3e26b28d	0.16279049
131	0xb0a4c67f	-1.1988986e-09
132	0xbda38c0f	-0.079856984
133	0x245644ac	4.646202e-17
134	0xbd9bc56a	-0.07606013
135	0x3e202a53	0.15641145
136	0x2e9c893b	7.118436e-11
137	0xbca303dc	-0.019899301
138	0xbcb305da	-0.021853376
139	0xbd30e083	-0.04318286
140	0xbd7d75c1	-0.061879877
141	0xbc911b26	-0.01771314
142	0xbdadc4cd	-0.084848024
143	0xbdc20870	-0.094742656
144	0xbdb66e2f	-0.089077346
145	0xbd854f6a	-0.06509288
146	0xbd40b182	-0.047044285
147	0xbd8b367a	-0.067975
148	0xbdb35779	-0.087569185
149	0xbd9afb49	-0.0756746
150	0xbd940c14	-0.07228866
151	0xbc0cea2c	-0.008600753
152	0xbdd10baa	-0.10207303
153	0xb6f398c3	-7.259748e-06
154	0xbdd9053b	-0.10596701
155	0xba67586d	-0.0008825127
156	0xbd7fe3e8	-0.062473208
157	0x3df25b6e	0.11833845
158	0x3e0c2e0e	0.13689443
159	0xbde917a5	-0.11381463
160	0xbd1d3ec0	-0.03838992
161	0xbdbb0f4e	-0.091337785
162	0xa8d683b9	-2.3815898e-14
163	0xbd4b8bc8	-0.049693853
164	0xbd5f6be1	-0.05454624
165	0xbde12293	-0.10992923
166	0x2c69be99	3.3217094e-12
167	0xbc9b13ad	-0.01893028
168	0xbdc5329e	-0.09628795
169	0xbcfbeac0	-0.030751586
170	0xbd04cb65	-0.032420535
171	0xbd8bf2b0	-0.06833398
172	0xbd4654d9	-0.04842076
173	0xbe0aa54d	-0.1353962
174	0xbdf718f1	-0.12065304
175	0xbd53f5eb	-0.051748198
176	0xbd81d605	-0.06339649
177	0xbdce6c48	-0.10079247
178	0xbce8d672	-0.028422568
179	0xbdcf945e	-0.10135721
180	0xb50fec63	-5.361564e-07
181	0xbded401d	-0.11584494
182	0xbcf680ba	-0.030090678
183	0xbd7e122a	-0.06202904
184	0x3e413b46	0.18870267
185	0xbda9c2db	-0.08289119
186	0xbdc02666	-0.09382324
187	0x360c02c7	2.0863242e-06
188	0xbd1ad0fe	-0.037796967
189	0xbc3b4bf4	-0.011431683
190	0xbdc35b39	-0.09538884
191	0xa88a0955	-1.5325125e-14
192	0x8c249808	-1.2679851e-31
193	0xba5eedb6	-0.00085040496
194	0xbd22c6f9	-0.039740536
195	0xbdf2d3af	-0.11856782
196	0xbd1f362c	-0.03887002
197	0xb745320c	-1.17537675e-05
198	0xbd1ec85b	-0.038765293
199	0xba9670c2	-0.0011477696
200	0xbdec617c	-0.11542031
201	0xbdc30d94	-0.09524074
202	0xbd61be2f	-0.055113014
203	0xbdb89e92	-0.0901462
204	0xbd6afa90	-0.05736786
205	0xbd252069	-0.04031411
206	0xbd8ac742	-0.06776287
207	0xbd5a2d53	-0.05326588
208	0xbd543e7a	-0.051817395
209	0x3e4a1cf3	0.19737606
210	0xbd1bccce	-0.038037114
211	0x00002b7f	1.5603e-41
212	0xbd4ca18b	-0.049958747
213	0xbb7f508b	-0.003895792
214	0xbcc57533	-0.024103737
215	0xbda0b853	-0.07847657
216	0xbd9d729c	-0.07687876
217	0x24421689	4.2086132e-17
218	0x3e1d6ae5	0.15372808
219	0xbd8dc0f3	-0.06921568
220	0xbd9da3a0	-0.076972246
221	0xbd254dcb	-0.040357392
222	0x3e640044	0.22265726
223	0xbd3c2a4c	-0.045938775
224	0xbd8f07cc	-0.06983909
225	0xbde19fcb	-0.11016806
226	0xbdb87289	-0.09006221
227	0xbd9bcf28	-0.07607871
228	0xbda1c4d2	-0.078988686
229	0xbd900d8e	-0.07033835
230	0xbdc20fc7	-0.094756655
231	0xbd227146	-0.039658807
232	0x3e30ceda	0.17266408
233	0x3e3ae8c0	0.1825285
234	0xbd56a9a7	-0.052407887
235	0xbdd749a2	-0.10512091
236	0x0000132e	6.88e-42
237	0xaf830952	-2.3835384e-10
238	0x3e8768d4	0.26447165
239	0x2ef861d1	1.129511e-10
240	0xbd5efaf7	-0.054438557
241	0xbdd67ef8	-0.10473436
242	0xbdee434f	-0.11633932
243	0xbcbddae3	-0.023175662
244	0xbda045f7	-0.07825845
245	0xbda15254	-0.07877031
246	0xbdc08626	-0.09400587
247	0x8000003a	-8.1e-44
248	0xbb795b50	-0.0038048811
249	0x000002d9	1.022e-42
250	0xbdb45564	-0.088053495
251	0xbd788ad1	-0.06067926
252	0xbd8779e0	-0.06615043
253	0xbcb002cb	-0.021485707
254	0xbd3579de	-0.044305675
255	0xb885ccc2	-6.380073e-05

exp_avg f4 [256, 17]
0	0x91e4cc14	-3.609783e-28
1	0x91f53c91	-3.8691511e-28
2	0x12b5c832	1.1472058e-27
3	0x918ef6a0	-2.2555644e-28
4	0x91f5f281	-3.880364e-28
5	0x920b6f3c	-4.3997773e-28
6	0x134a0d72	2.5502614e-27
7	0x91951006	-2.351793e-28
8	0x920b404a	-4.393991e-28
9	0x92171e7f	-4.768479e-28
10	0x9250bb72	-6.586427e-28
11	0x91a0f632	-2.5395279e-28
12	0x90f16264	-9.5209334e-29
13	0x91b98d47	-2.9274922e-28
14	0x926fd754	-7.5680515e-28
15	0x125d96ae	6.992103e-28
16	0x924a86d0	-6.390613e-28
17	0xb6d7dda7	-6.433303e-06
18	0xb6e88d97	-6.930622e-06
19	0x371dcb1a	9.4052175e-06
20	0xb685693e	-3.9759607e-06
21	0xb6e0b47f	-6.6967327e-06
22	0xb6ed7f3b	-7.077962e-06
23	0x3720a9bc	9.5762625e-06
24	0xb68b5efb	-4.15358e-06
25	0xb6e79ae2	-6.902367e-06
26	0xb6f43a21	-7.2785338e-06
27	0x37212b82	9.606478e-06
28	0xb6862798	-3.9981205e-06
29	0xb58bfafc	-1.0429353e-06
30	0xb68b3f8d	-4.149921e-06
31	0xb60b35b4	-2.0743873e-06
32	0x36753182	3.6536662e-06
33	0xb69093e3	-4.3087507e-06
34	0x395c0430	0.00020982395
35	0x394aa68a	0.00019326262
36	0xba06eb62	-0.0005146769
37	0x39125234	0.00013954268
38	0x3971ff1a	0.00023078584
39	0x3965e3ad	0.00021923958
40	0xba06e928	-0.00051464373
41	0x391061a6	0.00013769287
42	0x39757b3c	0.00023410929
43	0x39651d1d	0.00021849987
44	0xba09bd73	-0.00052543654
45	0x390a2ca5	0.00013177337
46	0x38a01c6f	7.634691e-05
47	0x38e5ba0f	0.00010954227
48	0x39e9c5ea	0.0004458868
49	0xb99d358d	-0.00029985272
50	0x39996cc1	0.00029263462
51	0x142e14ff	8.788896e-27
52	0x94701055	-1.21201244e-26
53	0x167c6066	2.0386816e-25
54	0x1343964c	2.4686562e-27
55	0x14363e43	9.200931e-27
56	0x144e9808	1.0430325e-26
57	0x158a4a4c	5.5854976e-26
58	0x1485ffe2	1.3530496e-26
59	0x136c394d	2.981564e-27
60	0x947946fe	-1.2585288e-26
61	0x157dc4ac	5.124809e-26
62	0x1380596f	3.239993e-27
63	0x13502fb3	2.6276808e-27
64	0x13f6e93e	6.2329125e-27
65	0x9321a0e9	-2.0400392e-27
66	0x1483de9f	1.3315428e-26
67	0x14846de5	1.337194e-26
68	0x9f6c6e8b	-5.0066383e-20
69	0x9fc19c7d	-8.199757e-20
70	0x1fb567a5	7.682795e-20
71	0x9f837a91	-5.568343e-20
72	0x9f881079	-5.762549e-20
73	0x1e6793a5	1.225957e-20
74	0x200bc57d	1.1839101e-19
75	0x9f856847	-5.6500203e-20
76	0x9ca9f18d	-1.1245921e-21
77	0x9f485ef7	-4.24302e-20
78	0x206445d2	1.9335453e-19
79	0x9f1cccff	-3.3203854e-20
80	0x9f3e39bc	-4.0281822e-20
81	0x9f9340dc	-6.236422e-20
82	0x9fc919f1	-8.516973e-20
83	0x9f57b745	-4.5679618e-20
84	0x9ed30725	-2.2343449e-20
85	0x82d6bf41	-3.1554248e-37
86	0x846061ad	-2.6375924e-36
87	0x0336d7f3	5.373289e-37
88	0x83aeaab4	-1.0265992e-36
89	0x830ffb00	-4.2312057e-37
90	0x02f254f5	3.5607467e-37
91	0x03a05a56	9.424695e-37
92	0x838b9c13	-8.205519e-37
93	0x8310300c	-4.237295e-37
94	0x83cac08e	-1.1916701e-36
95	0x0505647b	6.272085e-36
96	0x84017ad2	-1.5220273e-36
97	0x8300b3b2	-3.78221e-37
98	0x0282c39e	1.9214062e-37
99	0x03406bba	5.6547393e-37
100	0x827e51d7	-1.868446e-37
101	0x81dbdf83	-8.076862e-38
102	0x3ba882f7	0.0051425654
103	0x3abd6509	0.0014449666
104	0xbc1dfa1d	-0.009642151
105	0x3b4c2e87	0.0031155662
106	0x3ba6a5f3	0.0050857007
107	0x3aae2dfc	0.0013288851
108	0xbc0d42c8	-0.008621879
109	0x3b4b8881	0.0031056704
110	0x3bb2395b	0.005438966
111	0x3a881800	0.0010383129
112	0xbc133563	-0.008984896
113	0x3b43a73e	0.0029854323
114	0x3adb4b0c	0.001673074
115	0x3b118b17	0.0022208148
116	0x3b9b8684	0.00474626
117	0xbb7299ea	-0.003701801
118	0x3b9e63b5	0.0048336633
119	0xb9de7e6c	-0.0004243733
120	0x3934f3d3	0.0001725697
121	0x3a21ac1a	0.0006167308
122	0xb954d2c8	-0.00020296418
123	0xb9e07f7e	-0.00042819598
124	0x39386662	0.00017585748
125	0x3a221eba	0.0006184388
126	0xb957bce0	-0.00020574359
127	0xb9de38ec	-0.0004238555
128	0x393b492c	0.00017860968
129	0x3a23cdb0	0.00062486064
130	0xb95633e1	-0.00020427957
131	0xb8b7865f	-8.7511486e-05
132	0xb916235f	-0.00014318292
133	0x399a51b8	0.00029434054
134	0xb8bba1cf	-8.946994e-05
135	0xb92606dd	-0.0001583355
136	0x3b438134	0.002983165
137	0x3b182181	0.002321333
138	0xbbaf1995	-0.005343626
139	0x3ac986bb	0.0015375236
140	0x3b593130	0.003314089
141	0x3b22248e	0.0024741027
142	0xbbb71c77	-0.00558811
143	0x3ac33331	0.0014892576
144	0x3b4fd9f7	0.003171561
145	0x3b26ebfa	0.0025470243
146	0xbbb4d900	-0.0055190325
147	0x3ab84974	0.0014059977
148	0x3ab59259	0.0013852819
149	0x3b35ac4a	0.00277211
150	0x3b42d35d	0.0029728033
151	0xbb35a8be	-0.0027718986
152	0x3b07f864	0.0020747418
153	0x37167fd3	8.970458e-06
154	0x376c80fb	1.4096727e-05
155	0xb8130871	-3.5055393e-05
156	0x3631f9a0	2.6520356e-06
157	0x37107dd2	8.612364e-06
158	0x3793367e	1.754914e-05
159	0xb8102361	-3.4365225e-05
160	0x35814266	9.630573e-07
161	0x36eb202d	7.0072915e-06
162	0x378f68fc	1.7095816e-05
163	0xb8109c22	-3.4477685e-05
164	0x35ad85aa	1.2928406e-06
165	0xb73d66bd	-1.12891985e-05
166	0x3700e943	7.683705e-06
167	0x389887f4	7.273248e-05
168	0xb81e3d56	-3.772726e-05
169	0x37bca626	2.2488715e-05
170	0xb7396edc	-1.1052671e-05
171	0x36b2e87a	5.331877e-06
172	0x3778ac9b	1.482214e-05
173	0xb666b3de	-3.4377367e-06
174	0xb73ad1ef	-1.1135343e-05
175	0x36b2715e	5.318011e-06
176	0x377c59fd	1.50413225e-05
177	0xb669aca3	-3.4820193e-06
178	0xb73ae73b	-1.11403015e-05
179	0x36b43852	5.3709746e-06
180	0x3774d5c9	1.4593309e-05
181	0xb661c88e	-3.364435e-06
182	0xb64f1482	-3.085734e-06
183	0xb6d8a919	-6.456987e-06
184	0x36e0192f	6.678652e-06
185	0xb5b58d16	-1.3526612e-06
186	0xb61f4e1c	-2.3738312e-06
187	0xb55d0144	-8.233076e-07
188	0xb4e58388	-4.2750275e-07
189	0x35be5849	1.4181797e-06
190	0xb4d9d11b	-4.0571544e-07
191	0xb575ff8e	-9.1641493e-07
192	0xb50588d4	-4.974547e-07
193	0x35be889c	1.4195862e-06
194	0xb4dde0d4	-4.1328042e-07
195	0xb5805fbb	-9.564604e-07
196	0xb504b8d6	-4.9442804e-07
197	0x35be7da1	1.4192666e-06
198	0xb4db0989	-4.0798867e-07
199	0xb4bc11f3	-3.503079e-07
200	0xb5002293	-4.773403e-07
201	0xb54debc6	-7.6711547e-07
202	0x353b2b2a	6.972574e-07
203	0xb49437b3	-2.7607675e-07
204	0xb991f97e	-0.0002784244
205	0x3887991e	6.465822e-05
206	0x3a5b0c44	0.0008356015
207	0xb9b16207	-0.00033833107
208	0xb9c5576b	-0.000376399
209	0xb82176fe	-3.849621e-05
210	0x3a1ca226	0.000597509
211	0xb994836d	-0.0002832668
212	0xb9cab5e6	-0.00038663967
213	0x37d29a11	2.5105694e-05
214	0x3a651dcd	0.00087400974
215	0xb99c3cbe	-0.00029799895
216	0xb81e1a23	-3.7694477e-05
217	0x3775f236	1.4659532e-05
218	0xba877584	-0.0010334705
219	0x3a02438e	0.0004969173
220	0xba58e435	-0.00082737516
221	0xb9e26b1d	-0.00043185885
222	0xba812df8	-0.0009855619
223	0xbac9e053	-0.0015401937
224	0x3a36f903	0.00069798547
225	0xba179cde	-0.0005783568
226	0xba9a01ea	-0.0011749838
227	0xbb0d8820	-0.002159603
228	0x3a382bd9	0.0007025577
229	0xba37abd7	-0.0007006502
230	0xbab55ecb	-0.0013837455
231	0xbab9f7d8	-0.0014188243
232	0x3a2d2bec	0.0006605971
233	0xb9bd371a	-0.00036089943
234	0xbabc2f33	-0.0014357328
235	0x3a760ff3	0.0009386532
236	0x39a9558e	0.00032297935
237	0x3b0ae63b	0.0021194357
238	0xb58e3e45	-1.0597947e-06
239	0xb5a367f7	-1.2174704e-06
240	0x365dfc44	3.3078404e-06
241	0xb57f7582	-9.51659e-07
242	0xb5ab613c	-1.2768792e-06
243	0xb5cdf73e	-1.5345647e-06
244	0x36609331	3.3464278e-06
245	0xb57fa3d2	-9.523329e-07
246	0xb5c0e409	-1.4371482e-06
247	0xb5e693fd	-1.7179406e-06
248	0x36615ddb	3.3582244e-06
249	0xb580ec46	-9.605508e-07
250	0xb551f1f7	-7.821067e-07
251	0xb5a5302f	-1.2307481e-06
252	0xb6856bdd	-3.976266e-06
253	0x364de53c	3.0680812e-06
254	0xb653c0d3	-3.1553689e-06
255	0x820daffa	-1.0409547e-37

exp_avg_sq f4 [256, 17]
0	0x2f8a922c	2.5205915e-10
1	0x3064131c	8.2973073e-10
2	0x30cf9231	1.5102782e-09
3	0x2e61079d	5.116584e-11
4	0x2f435196	1.7764132e-10
5	0x3003e9fa	4.7990023e-10
6	0x30eed632	1.7377657e-09
7	0x2f4ee7ce	1.8817944e-10
8	0x30a32fef	1.1873434e-09
9	0x30851be5	9.684952e-10
10	0x30f652a6	1.7922346e-09
11	0x3061e625	8.218158e-10
12	0x2f2218cd	1.4742625e-10
13	0x30095a63	4.9968757e-10
14	0x30ad08f0	1.2589947e-09
15	0x2f0aaef9	1.261319e-10
16	0x2f5648be	1.948903e-10
17	0x323c1c0e	1.0949419e-08
18	0x32279124	9.7536805e-09
19	0x3339cddf	4.3260908e-08
20	0x31f3503e	7.0813533e-09
21	0x3244b44a	1.14496945e-08
22	0x3231a773	1.03408295e-08
23	0x333a3d85	4.336245e-08
24	0x31f6791e	7.1733117e-09
25	0x3252dd95	1.2273991e-08
26	0x323f0c94	1.1120523e-08
27	0x3339be90	4.3246985e-08
28	0x31d8fa4c	6.314883e-09
29	0x321a44b7	8.979604e-09
30	0x3246927f	1.1558426e-08
31	0x32427f72	1.1321264e-08
32	0x32372d6e	1.06623315e-08
33	0x324751c8	1.1601919e-08
34	0x354f595a	7.724353e-07
35	0x35574910	8.020006e-07
36	0x3608576e	2.031647e-06
37	0x346edae9	2.2245116e-07
38	0x355b9729	8.1803825e-07
39	0x35661d6f	8.572451e-07
40	0x360883bb	2.0342256e-06
41	0x346ec5a8	2.2237384e-07
42	0x3562dc8a	8.451249e-07
43	0x35700cda	8.942567e-07
44	0x3608bafe	2.0374423e-06
45	0x346f7e63	2.2304589e-07
46	0x34ab8864	3.195047e-07
47	0x34d73377	4.0084316e-07
48	0x34c6cb63	3.7028357e-07
49	0x34c1955c	3.6057725e-07
50	0x35108798	5.3841495e-07
51	0x2f9cdec8	2.853453e-10
52	0x2ff92df2	4.5325482e-10
53	0x3105b480	1.945665e-09
54	0x304cae51	7.4462486e-10
55	0x2fb16897	3.2270428e-10
56	0x2efa6295	1.13861955e-10
57	0x30e85992	1.6905679e-09
58	0x30b9005e	1.3460626e-09
59	0x3068e918	8.4732354e-10
60	0x2fefc269	4.3611983e-10
61	0x30db1629	1.5940645e-09
62	0x3056ba6b	7.811766e-10
63	0x2fa9563d	3.0802197e-10
64	0x30d3e73d	1.5417992e-09
65	0x2fedf16c	4.328159e-10
66	0x30d1c263	1.5261999e-09
67	0x30c16738	1.4071935e-09
68	0x2e5becbd	5.00051e-11
69	0x2fef1eed	4.349582e-10
70	0x2ffa75a3	4.555832e-10
71	0x2e33bc8c	4.086735e-11
72	0x2e6d9cb3	5.4026738e-11
73	0x2f2e9d9d	1.5881203e-10
74	0x2f90b2b9	2.6320437e-10
75	0x2e2fe4eb	3.9993713e-11
76	0x30314f9a	6.4505346e-10
77	0x2f6a1454	2.1289398e-10
78	0x3082ee9b	9.526561e-10
79	0x2e88c7c6	6.220051e-11
80	0x302a4d82	6.1955785e-10
81	0x2f0f41c1	1.3029135e-10
82	0x304a4080	7.357883e-10
83	0x2d025373	7.408174e-12
84	0x2e0f3e02	3.256951e-11
85	0x2f6a450e	2.1306709e-10
86	0x302e575c	6.3424976e-10
87	0x2fad84bb	3.1562827e-10
88	0x2e342a52	4.096485e-11
89	0x2f3a9986	1.6971144e-10
90	0x30857613	9.710582e-10
91	0x2f84447e	2.4059327e-10
92	0x2dd50d2b	2.4221144e-11
93	0x2f46f05d	1.8093389e-10
94	0x2f865333	2.4433575e-10
95	0x30687eb7	8.458118e-10
96	0x2dad2ff0	1.9689111e-11
97	0x2e160179	3.410736e-11
98	0x300db555	5.155319e-10
99	0x307099f6	8.7530283e-10
100	0x300aeb19	5.05382e-10
101	0x2e83e9fc	5.998754e-11
102	0x3903bb57	0.00012562923
103	0x39073157	0.00012892984
104	0x39a45535	0.00031344002
105	0x37ed2d32	2.8273647e-05
106	0x390be250	0.00013340381
107	0x39119513	0.00013883812
108	0x39a50d37	0.00031481098
109	0x37ee9b2b	2.8444067e-05
110	0x3911b922	0.00013897245
111	0x39192190	0.0001460372
112	0x39a4be8a	0.0003142248
113	0x37ee579f	2.8412613e-05
114	0x3808ad0d	3.2586093e-05
115	0x38861dcc	6.395168e-05
116	0x386b5822	5.6110446e-05
117	0x3867df45	5.5282628e-05
118	0x38c12771	9.210304e-05
119	0x35d69e16	1.5990252e-06
120	0x351e9a59	5.908419e-07
121	0x36ca4669	6.028266e-06
122	0x358e7d19	1.0616233e-06
123	0x35dd1679	1.6472324e-06
124	0x3523ba61	6.099345e-07
125	0x36ca91ac	6.0370276e-06
126	0x358ea3cb	1.0627494e-06
127	0x35e22967	1.6850362e-06
128	0x3526cffc	6.2142476e-07
129	0x36cac036	6.0424454e-06
130	0x358ed068	1.0640479e-06
131	0x34a8a428	3.1411878e-07
132	0x354cd091	7.6299426e-07
133	0x34fd34bf	4.71633e-07
134	0x351f1e46	5.927617e-07
135	0x354a55ab	7.537553e-07
136	0x38741523	5.819382e-05
137	0x386790de	5.520961e-05
138	0x390e1efd	0.0001355372
139	0x37450f9b	1.1745748e-05
140	0x38821634	6.203019e-05
141	0x387b1944	5.9866594e-05
142	0x390e4f61	0.00013571746
143	0x37461286	1.18060325e-05
144	0x38871e46	6.4429405e-05
145	0x38844286	6.3066414e-05
146	0x390e5828	0.00013575016
147	0x374603f2	1.1802638e-05
148	0x37794baa	1.48591735e-05
149	0x37d97598	2.5923175e-05
150	0x37cb5cb8	2.4242661e-05
151	0x37cb2eb6	2.4221237e-05
152	0x38245576	3.918024e-05
153	0x340141b5	1.2037965e-07
154	0x33f47618	1.13836165e-07
155	0x34d25164	3.9174768e-07
156	0x335ce8d5	5.14345e-08
157	0x3408ff44	1.2758852e-07
158	0x3402f38f	1.21958e-07
159	0x34d21dfd	3.9137367e-07
160	0x335be8e2	5.1201717e-08
161	0x340e504b	1.3253991e-07
162	0x3407db00	1.2652526e-07
163	0x34d28d73	3.9218466e-07
164	0x335bc387	5.1167742e-08
165	0x33dde7f3	1.0333306e-07
166	0x33dfb424	1.0417014e-07
167	0x33d54eba	9.932906e-08
168	0x33cf9d53	9.667806e-08
169	0x33d83f07	1.00697484e-07
170	0x331ba29c	3.6236642e-08
171	0x333550c3	4.22158e-08
172	0x346a0eba	2.1798306e-07
173	0x330782bf	3.155105e-08
174	0x332271f1	3.7822193e-08
175	0x3338d54c	4.303483e-08
176	0x346a71fc	2.1834416e-07
177	0x330170ff	3.0137922e-08
178	0x33244f59	3.8256392e-08
179	0x333b489a	4.360536e-08
180	0x346ae366	2.1875675e-07
181	0x330655e3	3.127742e-08
182	0x3234501f	1.0495596e-08
183	0x328c01e5	1.6299007e-08
184	0x32767086	1.43446695e-08
185	0x328b2604	1.6199017e-08
186	0x32b0eda3	2.0597161e-08
187	0x32267101	9.688166e-09
188	0x32270ff5	9.724308e-09
189	0x32fc151d	2.9346262e-08
190	0x316bb200	3.4298182e-09
191	0x323cc6bd	1.0988228e-08
192	0x322d5bd9	1.0090809e-08
193	0x32ee0dbe	2.7713096e-08
194	0x31697fe2	3.3978655e-09
195	0x32349fdc	1.0513727e-08
196	0x32354c55	1.05529425e-08
197	0x32ee1bad	2.7719432e-08
198	0x31792f78	3.6261252e-09
199	0x3173d5b3	3.5482628e-09
200	0x31a7e4e9	4.8863638e-09
201	0x319ec294	4.620526e-09
202	0x319e81d9	4.613167e-09
203	0x31e168c5	6.5602728e-09
204	0x36890d87	4.084493e-06
205	0x368d508e	4.2115053e-06
206	0x3781d8c7	1.5478943e-05
207	0x35ed883e	1.7697528e-06
208	0x36938bb0	4.397203e-06
209	0x369644a8	4.478341e-06
210	0x3781e999	1.5486776e-05
211	0x35eef4af	1.7803594e-06
212	0x369aa297	4.6084856e-06
213	0x369bfe9a	4.6489995e-06
214	0x37821865	1.5508567e-05
215	0x35eebf5c	1.7788075e-06
216	0x35d4523b	1.5819163e-06
217	0x3634a1bb	2.691623e-06
218	0x36258934	2.4666779e-06
219	0x3622cee8	2.4260316e-06
220	0x3641c1f7	2.8872144e-06
221	0x38e2d4f8	0.00010816188
222	0x3910290b	0.000137482
223	0x39889301	0.00026049468
224	0x37d2b51d	2.5118288e-05
225	0x38f08e96	0.000114706505
226	0x391a3351	0.00014705701
227	0x39896a82	0.0002621003
228	0x37d440ca	2.530254e-05
229	0x38f9a67a	0.00011904254
230	0x392152d9	0.0001538502
231	0x3988e032	0.0002610698
232	0x37d44996	2.5306636e-05
233	0x3818c88d	3.64264e-05
234	0x38599fb7	5.1885578e-05
235	0x3847a31d	4.759721e-05
236	0x3841d116	4.6209512e-05
237	0x386fbfcb	5.716066e-05
238	0x32199f1a	8.941948e-09
239	0x320dc33f	8.251674e-09
240	0x32f9611c	2.9031575e-08
241	0x3186c173	3.921906e-09
242	0x322ac6f0	9.9405355e-09
243	0x321753c9	8.808407e-09
244	0x32f60195	2.8638889e-08
245	0x31820e1a	3.785101e-09
246	0x3227e64e	9.773045e-09
247	0x321d6cdb	9.163354e-09
248	0x32f0eea4	2.8048198e-08
249	0x3181f274	3.781958e-09
250	0x3184ed9e	3.8687196e-09
251	0x31c12842	5.621616e-09
252	0x31b3a0f1	5.2278826e-09
253	0x31a6a52b	4.8500133e-09
254	0x31db8058	6.38833e-09
255	0x2d815187	1.4701807e-11
