src/scripts/ddpg/weights/critic.pth (torch, 853167 bytes, 15 tensors)

linear_input.weight f4 [256, 17]
000000 83 8f 98 3b e3 e8 c5 3b 83 15 a1 ba e2 50 d0 3b
       0.00465578 0.006039725 -0.0012289736 0.006357298
000010 2a 83 40 3b 1e 1e 62 3c 05 9e 19 3c 79 41 d1 3b
       0.0029375055 0.013801126 0.009376054 0.006385979
000020 7a 50 11 3b b5 d7 bf 3c 4d 3e 9d 3c 67 8f d2 3b
       0.0022173212 0.023418287 0.019194746 0.0064257863
000030 e1 f5 46 bd 2f b6 80 bc 16 51 85 3d df bd 3e 3d
       -0.048574332 -0.015711872 0.065096065 0.046567794
000040 b7 d1 41 bd 50 cd d2 3b f6 9a 2b bb c3 13 2a 3a
       -0.04731914 0.0064331666 -0.0026184893 0.000648793
000050 e5 1e 3c bb 31 f8 b4 3b 2e ee f7 bb 2e 6b b3 bb
       -0.0028704938 0.005522751 -0.007566235 -0.0054754233
000060 cc 91 3e bb de a0 74 3b bc 49 82 bc 4d 02 31 bc
       -0.00290786 0.003732733 -0.0159043 -0.010803771
000070 f0 2b 42 bb 69 f9 d3 bd 6f e0 8f bb 8a 5b 35 bd
       -0.002962824 -0.103503056 -0.0043907682 -0.04427675
000080 e8 75 20 bd ff 89 43 bd 31 7a e0 ae b1 57 95 2e
       -0.039174944 -0.047739025 -1.0208046e-10 6.7913127e-11
000090 e4 55 05 2e ba cf cc 2d 27 15 1c af db 60 d9 2e
       3.0316985e-11 2.3284364e-11 -1.4195632e-10 9.8852225e-11
0000a0 46 14 30 2e fa 3b 23 2e 56 24 04 af 6a 41 22 2f
       4.0035773e-11 3.711518e-11 -1.2018239e-10 1.4757054e-10
0000b0 02 f0 81 2e 7e f7 23 2e 9d 8f 90 af 23 61 97 af
       5.908875e-11 3.7281726e-11 -2.629549e-10 -2.753576e-10
0000c0 a7 f4 31 2f 8c 22 4d 2f f4 84 99 af a3 bb 4c 3c
       1.6184974e-10 1.8656915e-10 -2.7925007e-10 0.012495908
0000d0 c2 dd 28 bc a7 5d 94 bc 0b 36 f4 39 aa 60 6a 3c
       -0.010306777 -0.018111063 0.00046579572 0.014305273
0000e0 f8 d5 70 bc da 93 a1 bc 53 c4 e4 39 3b 9c 83 3c
       -0.014699452 -0.019723821 0.00043633822 0.016065707
0000f0 95 be a3 bc 9a 3d ae bc 84 4a fa 39 04 7a 52 3c
       -0.019988338 -0.021269608 0.00047739234 0.012846474
000100 f8 45 9e 3c f6 12 39 bc 7f cc 2d bb b6 af ff bc
       0.019320473 -0.011296025 -0.0026519594 -0.031211715
000110 ee 96 cf b9 11 ff af 3b 51 83 26 bc 7e 60 ef 39
       -0.00039594568 0.0053709825 -0.010163144 0.00045657525
000120 98 c4 ec ba 2f c3 10 3c bf 19 1b bc 50 86 ff 39
       -0.0018063961 0.008835598 -0.009466588 0.0004873746
000130 33 ca 31 bb f2 94 65 3c 80 a7 1b bc 83 d9 e6 39
       -0.0027128577 0.014012562 -0.009500384 0.00044031077
000140 4c f4 89 bc 3a 8d 12 bc 00 a7 86 3c 89 63 d7 3b
       -0.016840123 -0.008944804 0.016437054 0.006573145
000150 58 ac b6 3c 0e 18 b3 3b 18 ef 0b bc a3 39 ed ba
       0.022298977 0.005465514 -0.008540891 -0.0018098842
000160 fb 07 93 bb 72 09 7d 3b 0e f6 8d bc 5b 45 35 bc
       -0.0044870353 0.0038610366 -0.017329242 -0.011063899
000170 c7 5f 95 bb a0 62 80 38 0f e6 00 bd f3 12 a2 bc
       -0.0045585367 6.121886e-05 -0.0314694 -0.019784426
000180 f5 b0 95 bb 0a 7f e9 bd b9 01 a2 bc b7 ec a5 bd
       -0.004568214 -0.11401184 -0.019776212 -0.081017904
000190 59 ed 8e bd a5 2e 90 bd 6c c0 91 3a 38 94 83 3b
       -0.06978864 -0.07040147 0.0011119968 0.004015472
0001a0 57 f5 d9 3a fd 46 6a 3a 21 42 c8 3a 42 ff b8 3b
       0.0016628903 0.00089369697 0.0015278497 0.0056456635
0001b0 02 ad fb 3a d6 0f 68 3a 22 65 b6 3a 7f fd f6 3b
       0.0019201341 0.00088524574 0.0013915638 0.0075375433
0001c0 42 09 a5 3a c8 cb 5a 3a 50 78 c6 bb c1 5a 38 b9
       0.001259126 0.0008346406 -0.006056823 -0.00017581416
0001d0 98 bc 8d 3c 7c b7 0b 3c 69 ab b7 bc 4a 92 53 ab
       0.017301843 0.008527633 -0.022420602 -7.5165275e-13
0001e0 ea 7d 85 2b 1d 2c ae 2b a7 3f b1 aa b6 36 d5 aa
       9.485167e-13 1.2375687e-12 -3.1485684e-13 -3.7874364e-13
0001f0 a4 22 5d 2b f6 b0 97 2b 98 62 2c ab bc dc 0d ab
       7.8563046e-13 1.0778312e-12 -6.12435e-13 -5.0399593e-13
000200 a5 f0 ea 2a 31 31 b8 2b 2e ad f6 aa 4b 89 d9 29
       4.173373e-13 1.308764e-12 -4.3818546e-13 9.6605524e-14
000210 25 eb 58 2a ed e2 92 ab 4c 2f 0c a8 bf 2d 4c 2b
       1.9266236e-13 -1.0436908e-12 -7.781817e-15 7.2538845e-13
000220 5d fa 85 23 e5 ea 9e 1f e5 88 62 32 28 c3 0d a1
       1.4525922e-17 6.7304203e-20 1.3186058e-08 -4.8030945e-19
000230 c3 55 d2 23 9a 89 a7 1f d9 0a 53 30 bf ed ea a1
       2.2804567e-17 7.0954894e-20 7.677677e-10 -1.5919388e-18
000240 c4 ed 03 24 63 1c 4c a1 df 64 23 b2 30 68 c6 21
       2.8607492e-17 -6.915546e-19 -9.510784e-09 1.344458e-18
000250 7b d7 38 30 4e 2e 4b a3 f5 4f f1 21 20 e8 05 23
       6.7245026e-10 -1.10144574e-17 1.635196e-18 7.259099e-18
000260 f7 34 4a ae 77 61 2a 3c d3 8c 32 3c e3 58 eb bb
       -4.5976525e-11 0.010399214 0.010897833 -0.007182227
000270 0c 5a 47 3c 8a c5 f2 3b 4a 12 d1 3c 20 a2 9b 3c
       0.012167465 0.0074088024 0.025521416 0.018998206
000280 c2 d6 47 3c f0 6f d2 3b 7d e9 31 3d ac 83 fb 3c
       0.012197198 0.0064220354 0.043435562 0.030702434
000290 7b 23 49 3c c7 67 bb bd e3 d0 e2 bc 45 28 fa 3d
       0.012276526 -0.09150653 -0.027687496 0.12214712
0002a0 e8 be a7 3d 4d 92 b2 bd 37 f0 71 39 1d 07 07 ba
       0.08190709 -0.08719311 0.00023073038 -0.0005150901
0002b0 33 4e 72 3b de 3a 90 b9 e5 5b 51 39 35 4b 00 ba
       0.003697288 -0.0002750968 0.00019966027 -0.0004894019
0002c0 de 93 6b 3b 06 97 8c b9 a9 e4 67 b9 b8 73 ed b9
       0.003594629 -0.00026815402 -0.00022115059 -0.0004529038
0002d0 a1 cc 6c 3b db e0 9a b9 97 6d 4b bb 8c 0a 4e b9
       0.003613271 -0.000295407 -0.0031040662 -0.0001964962
0002e0 39 1c 8b 38 d1 d2 31 39 83 c9 c0 b9 aa 7f dc 3a
       6.6332934e-05 0.0001695857 -0.00036771232 0.0016822715
0002f0 7f 8f 95 ba e8 4e 10 3a 36 8b 30 38 04 2a ff 3a
       -0.0011410563 0.0005504922 4.209132e-05 0.0019467478
000300 6a 81 c7 ba 72 e0 86 3a 9d 1a 2d 38 57 96 17 3b
       -0.0015221064 0.0010290279 4.12712e-05 0.002313038
000310 65 29 0b bb be 5f e5 3a a4 26 7c 38 16 85 0f bb
       -0.002123439 0.0017499847 6.011747e-05 -0.0021899394
000320 4e 4f 47 3b eb a3 be ba 94 4b 6e 3b dc bd 91 ba
       0.003041226 -0.0014544701 0.0036360966 -0.0011119205
000330 2a 29 f1 bb 27 a5 2b 3b 00 42 e1 bb dc 5b 33 bb
       -0.0073596435 0.0026190968 -0.006874323 -0.0027367985
000340 cf 55 00 bc 78 73 3c bb b3 af 61 bc ad 27 35 bb
       -0.007832958 -0.0028755348 -0.0137748 -0.0027642057
000350 5a bc 1a bc 4f 9d 2b bc 07 56 a3 bc 18 ac 34 bb
       -0.009444321 -0.010474517 -0.019938482 -0.0027568396
000360 e2 70 8a 3c 9c 9f 77 bc 10 13 60 bc 17 1d c1 bc
       0.01689953 -0.015113737 -0.01367642 -0.023573441
000370 9f 6c 3b bd 12 8a 73 3c 16 2b 69 3c a8 39 9b bc
       -0.045757886 0.0148644615 0.014231464 -0.018948391
000380 2a d3 8c 3c b8 05 28 3c 41 4b 0c 3d 0b 71 ee 3c
       0.017190535 0.01025527 0.034251455 0.029106637
000390 ef 1b 8d 3c 15 b5 0d 3c f9 56 70 3d 46 75 3b 3d
       0.017225234 0.00864913 0.058676694 0.045766138
0003a0 b5 06 8e 3c e0 78 fd bd 08 03 18 bd 32 77 2a 3e
       0.017337183 -0.12376571 -0.037112266 0.16647032
0003b0 a3 88 e5 3d 08 f2 f3 bd 5a a8 7f 2e c7 a8 0a ae
       0.11207702 -0.11911398 5.8129813e-11 -3.152747e-11
0003c0 ea 21 80 2f 3b cb 98 ad e9 83 bb 2d 6a d2 33 2e
       2.3307162e-10 -1.7370652e-11 2.1318019e-11 4.0886773e-11
0003d0 19 f1 73 2f d4 b9 6f ad 93 71 58 ad 41 87 3c 2e
       2.2186376e-10 -1.3626839e-11 -1.2303397e-11 4.286638e-11
0003e0 fe 0c 75 2f ac 1a f6 2c d4 c5 b5 ad 63 7a db 2d
       2.2287236e-10 6.9947017e-12 -2.0665171e-11 2.4951768e-11
0003f0 99 60 25 ae dd 7f 3d ae 43 59 54 2e e0 17 00 80
       -3.7602452e-11 -4.308719e-11 4.82825e-11 -8.565e-42

linear_input.bias f4 [256]
000000 87 97 2b 3d 2d 51 93 bc 4b 0a 10 2f b4 91 73 3b
       0.041892555 -0.017983044 1.310038e-10 0.0037165703
000010 33 ec aa 3b 03 94 f5 bc 53 e8 84 ba 65 54 de ab
       0.0052161454 -0.029977804 -0.0010140039 -1.5797473e-12
000020 0a 10 41 b0 a9 2f 96 3d ce 86 12 bb f4 44 86 3a
       -7.0235784e-10 0.07333309 -0.0022358182 0.0010243938
000030 51 41 9a bc d1 c5 c8 3d bd 99 a6 ae e0 2d 00 80
       -0.018829973 0.098033555 -7.5761154e-11 -1.6457e-41
000040 18 67 0d b9 ce 0e 08 b8 e9 d2 27 23 81 47 f6 aa
       -0.00013485213 -3.2438715e-05 9.09775e-18 -4.3747994e-13
000050 08 91 e3 ac 53 08 78 ad 69 1d 01 ad b6 04 f0 b5
       -6.4678297e-12 -1.4099016e-11 -7.339331e-12 -1.7882764e-06
000060 a7 0b 48 3c 90 93 80 b7 8d ea a1 b1 01 bc 83 38
       0.012209809 -1.5327503e-05 -4.712382e-09 6.281585e-05
000070 3a da fa bc 83 bf b2 a5 f4 8d 2a ad ae 2e 66 bc
       -0.030621637 -3.100785e-16 -9.694901e-12 -0.014049215
000080 0a cb 2e bd a7 97 77 bd 2b 8d 9e bb d8 ff 84 3b
       -0.042674102 -0.06044736 -0.004838606 0.0040588193
000090 60 ed 1c 3c 50 3b bd 3d 43 7c 85 b7 ea aa f1 3b
       0.009578079 0.092398286 -1.59127e-05 0.007375111
0000a0 17 73 59 ac a7 f5 71 9f 90 4e 03 bd b0 8f 9c 3d
       -3.0901442e-12 -5.1236934e-20 -0.032057345 0.07644594
0000b0 30 97 ff 3a e8 b3 84 3c 92 e6 9b b5 ba f9 75 ab
       0.0019500013 0.016199067 -1.1615505e-06 -8.738805e-13
0000c0 85 59 3f a0 32 f1 94 bc 6c 55 01 80 1e 80 17 bd
       -1.6207949e-19 -0.018181417 -1.22479e-40 -0.036987416
0000d0 83 e2 76 bd 49 30 03 b7 0f 1a cc 86 c9 81 ad 37
       -0.060274612 -7.819451e-06 -7.677456e-35 2.0683643e-05
0000e0 22 cd 83 2e d1 23 17 1d f7 f1 54 bd 77 c8 86 3c
       5.993629e-11 2.00032e-21 -0.05198857 0.016453011
0000f0 3c 5d 74 2d a1 39 34 b0 f3 bb 3f 31 b1 64 27 bd
       1.3890496e-11 -6.5565514e-10 2.7900995e-09 -0.04086751
000100 8c 98 74 ae ea df 65 bd 09 52 27 b3 08 1c ee 3d
       -5.5614666e-11 -0.056121744 -3.8957328e-08 0.1162644
000110 27 d5 6f 3d 92 0b 01 bd 65 ab af bc 9c 3c 30 b2
       0.058552887 -0.031505175 -0.021444032 -1.0258329e-08
000120 8f 88 2d 21 0f 6e d7 bc aa 5f bf ae 3d 4e e4 aa
       5.8795414e-19 -0.026297597 -8.702668e-11 -4.0555225e-13
000130 44 01 b1 a8 60 ec fe 3b 5a 9c 0f bd 2c be b6 b7
       -1.9651496e-14 0.007779643 -0.035061218 -2.1784646e-05
000140 fa 75 23 30 ab cd 92 bc 29 c6 8c b3 23 ad 00 00
       5.946671e-10 -0.017920336 -6.555303e-08 6.211e-41
000150 2b f2 3c ab b3 59 4f bd d3 21 62 bb 11 7f fe 3c
       -6.7127093e-13 -0.050622653 -0.0034505024 0.03106645
000160 5a d1 e8 2c b3 16 0a b0 0c d2 0c bd 49 1a eb 97
       6.6170793e-12 -5.0236365e-10 -0.034380004 -1.5193154e-24
000170 83 9a e3 85 61 09 a2 3d ee e6 26 b1 ec f8 e9 98
       -2.1403736e-35 0.07911945 -2.4287448e-09 -6.0480435e-24
000180 10 b4 a7 aa 1d 9a ac a5 16 fb b4 b8 94 fb 83 a4
       -2.9790103e-13 -2.9941675e-16 -8.629837e-05 -5.7238384e-17
000190 cd 9f ab 3c 92 65 37 04 29 bb 16 b8 f2 29 2e b0
       0.020950222 2.1558185e-36 -3.5937093e-05 -6.336044e-10
0001a0 75 e8 84 3b ed 7f da 3a c0 5b 1f 3d 6c ec 00 80
       0.0040560314 0.0016670205 0.03890586 -8.4812e-41
0001b0 75 c6 3d bd 77 dc 58 bc 71 1d ac b2 e9 88 05 21
       -0.04633184 -0.013236157 -2.0036824e-08 4.524335e-19
0001c0 b6 3d 0e bd 81 dc 73 b5 db d5 41 3b 55 ae 02 2b
       -0.03472682 -9.084543e-07 0.002957693 4.642721e-13
0001d0 b5 ee 30 b5 1d 7a cb bc b6 85 2d 01 32 98 57 bd
       -6.5912474e-07 -0.024838502 3.1871015e-38 -0.05263538
0001e0 b1 c0 82 a2 f1 34 a3 3d 4d 25 15 13 19 92 1e bd
       -3.544059e-18 0.07969082 1.8824835e-27 -0.03871355
0001f0 05 65 15 3c ac 53 cd bb 3e 34 97 3b d4 81 0b bd
       0.009118323 -0.006266078 0.004614382 -0.03405936
000200 7e 67 65 3d 7f 19 ab b1 f0 70 de bc ec b2 ee a1
       0.0560069 -4.9796536e-09 -0.027153462 -1.6174868e-18
000210 a4 b4 d8 b6 6e ee 51 3c 2e 04 d9 3b f1 d9 c9 3a
       -6.458331e-06 0.012813194 0.0066228127 0.0015400035
000220 88 c4 da b3 77 9b 8e ba 78 84 ae a9 70 aa 0c 13
       -1.0187165e-07 -0.0010880072 -7.750132e-14 1.7754516e-27
000230 6a 2b 0b 3c a0 c4 70 3c 2e 34 ff 2e 93 7b ee bc
       0.008494237 0.014695317 1.16053264e-10 -0.02911166
000240 87 37 89 b9 a4 63 07 b5 4b 54 3e 3c a5 aa 98 a9
       -0.00026172047 -5.0436415e-07 0.011616777 -6.779758e-14
000250 cb 16 25 b7 ec 92 f7 b9 c0 76 f2 2b ec 55 2c 2a
       -9.840073e-06 -0.00047220977 1.7228094e-12 1.5306479e-13
000260 11 bc 60 34 ff e8 e1 3a 79 3d 32 34 18 90 3f aa
       2.0930044e-07 0.0017235576 1.6599905e-07 -1.70142e-13
000270 70 32 e8 ad d8 11 9b bc f4 2a 1b 33 18 9d bb aa
       -2.6397745e-11 -0.018929407 3.6127815e-08 -3.3326879e-13
000280 a4 76 1d bb c7 21 f2 3a 78 d0 99 9f 66 ac 59 2f
       -0.0024027014 0.0018473201 -6.51429e-20 1.9797283e-10
000290 de f0 82 3d 4a bf 0a bc c4 f5 31 27 66 73 97 3c
       0.06393598 -0.008468458 2.4696914e-15 0.018487643
0002a0 94 3c 1b 3d 62 7c 44 bd 75 be 27 3d 54 13 7c b9
       0.03789957 -0.047970183 0.04095312 -0.00024039793
0002b0 fa 30 b3 3b 2f 75 5d ae 7c b2 d3 32 81 0b 41 33
       0.005468485 -5.0353662e-11 2.4644798e-08 4.4946777e-08
0002c0 80 8a 56 34 53 10 de 31 24 f5 8d 29 73 4a eb bc
       1.9980689e-07 6.462906e-09 6.304183e-14 -0.028722024
0002d0 8c cf f7 ad bb 6f fe 3b c3 38 7a 2a 8a 91 11 b8
       -2.8172818e-11 0.007764784 2.2224154e-13 -3.4706238e-05
0002e0 0a c7 00 80 70 aa bf 3b 24 34 1f 3c 3b a0 9d ab
       -7.1402e-41 0.005849175 0.009717021 -1.1199994e-12
0002f0 29 91 96 b9 36 c6 18 a9 74 8f 4b a7 42 56 a0 aa
       -0.00028718382 -3.39227e-14 -2.8249675e-15 -2.8481563e-13
000300 e3 d2 6b ab 9d d4 f2 b7 af db 83 bd e7 c1 05 3a
       -8.3781436e-13 -2.8947654e-05 -0.06438386 0.0005102441
000310 21 56 88 0d d6 71 93 23 e6 07 8b bb 27 40 49 b3
       8.402382e-31 1.5985983e-17 -0.004242885 -4.6857306e-08
000320 ab 61 b5 3b f2 77 1d 38 d7 db 43 bc 13 ab 50 30
       0.0055353246 3.7543425e-05 -0.011954269 7.591307e-10
000330 21 54 e0 30 14 ac 07 a5 ed de f5 2a 34 72 0a bd
       1.6322056e-09 -1.1767686e-16 4.3675428e-13 -0.03380032
000340 78 c2 c3 3a c8 16 d8 2d c7 6a 89 39 97 1b 09 3c
       0.0014935276 2.4566474e-11 0.00026210232 0.008368394
000350 00 df 6f 3d 89 cd 62 3d 4a 6f b2 2f ff 54 55 b2
       0.05856228 0.055371795 3.2457087e-10 -1.2417558e-08
000360 13 1e 00 80 92 53 91 3d ff ff e3 ac 3e 2f 69 3c
       -1.0789e-41 0.07096018 -6.4801493e-12 0.014232455
000370 ee 5e ea 2c 68 96 57 b7 ce 02 f8 3c d8 e5 d0 9b
       6.6612193e-12 -1.2850018e-05 0.030274775 -3.4559247e-22
000380 d0 c4 3d ab f0 31 91 2d b7 4b 0f 8f 1c 88 36 2e
       -6.741942e-13 1.6506768e-11 -7.0650265e-30 4.15029e-11
000390 64 fe 8d 81 95 bf b1 1d fc 98 bf 3b d2 35 d8 bc
       -5.216025e-38 4.70496e-21 0.0058470946 -0.026392851
0003a0 ba d6 84 bc a6 20 97 3c da 64 96 2c e4 a5 b4 2e
       -0.01621567 0.018448185 4.274453e-12 8.2149204e-11
0003b0 a2 67 5d 39 1f 64 3a 13 03 08 6e 9d 47 04 df 3b
       0.00021114809 2.3525864e-27 -3.150318e-21 0.00680593
0003c0 0c f3 8f af 9a 2b 49 21 13 6d 08 bd 8d 5f 1e 3c
       -2.6184244e-10 6.8159155e-19 -0.033307146 0.009666336
0003d0 b3 aa 5d bd d6 25 fb bc 84 c6 d2 3d 74 b8 15 32
       -0.05411787 -0.03065769 0.1029177 8.714881e-09
0003e0 41 65 09 3c 58 5f 9d 32 29 16 2d bd 3e 62 ea bc
       0.008385957 1.8320563e-08 -0.04225746 -0.028611299
0003f0 ad ad b6 27 d6 2c 2a 3c 76 34 6f bc d7 54 ff 3c
       5.0703447e-15 0.010386666 -0.01459991 0.031168384

linear_hidden.0.weight f4 [256, 256]
000000 30 35 05 b9 07 23 04 bb 64 be 63 ac 61 fa ba 3a
       -0.00012703682 -0.002016248 -3.2364328e-12 0.0014265293
000010 c2 a2 ac b8 18 77 26 bb 68 8f 26 3a f9 d8 cc 25
       -8.231915e-05 -0.0025400575 0.00063537667 3.5535385e-16
000020 07 82 3e a2 02 5f 33 39 2e b8 18 37 45 ba f2 b8
       -2.5818637e-18 0.00017106163 9.102789e-06 -0.000115741546
000030 fe 8f 8c b8 67 8d d8 39 b2 aa 34 2c a7 01 00 00
       -6.702541e-05 0.00041304083 2.5674293e-12 5.93e-43
000040 75 37 b4 37 f0 58 56 36 e0 e6 17 22 23 55 56 a9
       2.1483496e-05 3.1940253e-06 2.058654e-18 -4.759139e-14
000050 f9 a4 a9 2a 2e 76 90 a9 56 82 95 ab ba f0 2d 33
       3.0134903e-13 -6.4153855e-14 -1.0623262e-12 4.049864e-08
000060 36 6f 39 ba 81 fe 22 b5 e3 a8 20 af 4b 71 ae 39
       -0.00070737617 -6.0720055e-07 -1.4611916e-10 0.00033272276
000070 50 e3 3e ba e3 4d 30 25 90 ef 1d 2a dc b5 b5 ba
       -0.0007281797 1.5291956e-16 1.4027516e-13 -0.0013863402
000080 ae 66 93 ba 84 63 d6 b9 05 d1 94 b9 42 81 c8 3a
       -0.0011245811 -0.00040891406 -0.0002838449 0.0015297311
000090 12 f8 50 3b 66 23 2d 39 65 a8 de 35 65 4d 23 3b
       0.0031886143 0.00016511753 1.6589298e-06 0.0024917957
0000a0 5f bc 39 a5 14 f5 8b 1d 1c 9b c4 3a 9a 82 87 39
       -1.6110015e-16 3.70464e-21 0.001499984 0.00025846512
0000b0 f9 dd 79 3a e1 03 4d b8 e7 4b d6 b2 3f 61 26 a7
       0.00095316727 -4.887942e-05 -2.4947395e-08 -2.3089845e-15
0000c0 2f e6 59 81 6f fa fe ba 98 08 00 00 9c 62 fb 3a
       -4.0021754e-38 -0.0019453297 3.083e-42 0.0019179168
0000d0 76 18 e4 ba 9a 28 be b4 91 70 b3 04 76 96 1f 36
       -0.001740231 -3.54198e-07 4.2186074e-36 2.3780426e-06
0000e0 c7 f7 6d 2c 2a 3b 3d 9b 63 24 f1 b9 4c 49 7f ba
       3.381727e-12 -1.565283e-22 -0.00045994212 -0.00097384
0000f0 98 be 34 2b 4a 66 2c 2d 8f e8 1e b0 2b 0c 14 3b
       6.421335e-13 9.799781e-12 -5.781055e-10 0.002259026
000100 af 69 aa 2b 9f 57 dd b9 51 02 2a 32 12 5f 22 3a
       1.210856e-12 -0.00042217688 9.895829e-09 0.0006193976
000110 06 ae 8c 38 13 2b 42 ba 7e 77 16 bb 03 8d cf 2f
       6.7081346e-05 -0.0007406931 -0.0022959406 3.7753276e-10
000120 bf d0 ac a0 c0 df 90 3a 29 61 cc 2d 6f a1 6a 29
       -2.927607e-19 0.0011053011 2.3235263e-11 5.209846e-14
000130 39 4c 85 24 54 ab 37 3b 25 2e 62 ba 2e ba ad 34
       5.780868e-17 0.0028025704 -0.0008628092 3.2359225e-07
000140 75 ee 55 2d 25 97 f0 ba de 35 82 2f 90 18 00 00
       1.2160596e-11 -0.0018355591 2.3685137e-10 8.811e-42
000150 a6 9e ef 28 13 d4 b6 ba d1 9f 30 b9 14 3e fe b8
       2.6603133e-14 -0.0013948701 -0.00016844204 -0.00012123227
000160 d9 d7 e2 aa 8a ed c8 ad a8 20 ef 3a 55 95 f8 13
       -4.029544e-13 -2.2842856e-11 0.0018243985 6.2751254e-27
000170 f8 1b b4 04 c4 ac 9b 38 59 7b ce ae e7 66 e8 15
       4.2343482e-36 7.423156e-05 -9.3897064e-11 9.3866405e-26
000180 76 64 c9 27 79 9c 6c 23 38 ca de b5 e6 56 04 a2
       5.5897627e-15 1.282672e-17 -1.6599142e-06 -1.793534e-18
000190 53 b4 ba ba 7f 55 49 03 67 e4 8b b9 73 05 3f 2e
       -0.0014244415 5.9166736e-37 -0.0002668232 4.3433212e-11
0001a0 b0 1c 7f b9 f0 91 64 3a a4 fd 0e b9 67 35 00 00
       -0.00024329382 0.0008719256 -0.00013636664 1.9157e-41
0001b0 9e d5 98 ba 21 0d 68 b7 d0 04 0c b0 ba 30 c4 a1
       -0.0011660343 -1.3831334e-05 -5.093854e-10 -1.3294374e-18
0001c0 44 5e 3e bb 13 db f0 30 01 b7 ab b8 b2 1b 23 29
       -0.0029047886 1.7524563e-09 -8.1880025e-05 3.6217292e-14
0001d0 7d 3e 02 31 4d 7d 11 bb 60 65 11 80 59 25 c0 ba
       1.895301e-09 -0.002219993 -1.59757e-39 -0.0014659568
0001e0 29 fe 91 1f e4 81 77 39 79 2f c4 11 9c 8e a5 b9
       6.183036e-20 0.00023604144 3.0952605e-28 -0.00031577505
0001f0 f0 c3 07 b8 8f 9a 42 39 0d ea 9b b9 24 51 c5 3a
       -3.236899e-05 0.0001855886 -0.00029738285 0.0015054089
000200 0a 62 76 38 81 d7 0d b0 56 c5 b6 3a a4 fb cf 9d
       5.8742276e-05 -5.160175e-10 0.0013944309 -5.5052634e-21
000210 6c 1b ca b4 c4 07 ee 38 4a bc a2 b9 8d c5 03 b9
       -3.7645384e-07 0.00011350171 -0.00031039334 -0.00012566727
000220 3d 04 15 30 c3 cc ac b7 a8 d4 a8 25 c1 83 72 92
       5.4211907e-10 -2.0599347e-05 2.9287456e-16 -7.6524135e-28
000230 65 90 ff b9 65 1c 94 ba b9 21 15 ad 36 34 a2 3a
       -0.00048744972 -0.0011299966 -8.477157e-12 0.0012375179
000240 1c 79 98 38 5a 70 a5 b3 db 52 86 38 1c 6f 80 28
       7.270483e-05 -7.703848e-08 6.405051e-05 1.425904e-14
000250 d0 b0 f6 b3 c9 ed 91 b9 61 e5 06 2a 5f 0d 21 28
       -1.148743e-07 -0.0002783372 1.1981173e-13 8.940195e-15
000260 3a 37 ce 31 59 6e 63 3a b3 a4 f4 32 be b5 a0 28
       6.0016676e-09 0.0008675806 2.8480235e-08 1.7842387e-14
000270 22 8d be ab ed 84 48 3a 10 35 85 31 6b 54 65 a6
       -1.3539484e-12 0.0007649202 3.876842e-09 -7.9564743e-16
000280 df 0c c0 b7 10 e6 2f b9 ba 2d a6 1a 46 fb 9f 2d
       -2.2894177e-05 -0.00016775005 6.8729866e-23 1.8187795e-11
000290 be 52 f5 b8 2b aa ba 37 6f 39 ae 25 e2 f8 93 39
       -0.00011697922 2.2252168e-05 3.0223107e-16 0.00028223457
0002a0 6b 39 ef b8 a9 e8 aa ba e7 90 05 b9 0e ef ed 38
       -0.00011407103 -0.0013039309 -0.00012737849 0.00011345568
0002b0 69 56 ad b8 61 d8 68 2b 99 19 17 30 88 eb 84 b1
       -8.265378e-05 8.2723243e-13 5.4969856e-10 -3.8684824e-09
0002c0 73 65 07 31 0f 56 6d af ed 39 8e 27 93 d0 4b b9
       1.9702753e-09 -2.1585599e-10 3.947572e-15 -0.00019437289
0002d0 72 c5 da 29 0f 06 bd b9 ec 57 15 29 57 5b 30 ba
       9.715396e-14 -0.00036053403 3.3160906e-14 -0.0006727478
0002e0 ab 0b 00 00 90 b8 97 b9 8f 98 10 ba 7b 8d 8d 28
       4.186e-42 -0.00028938474 -0.0005515897 1.5715502e-14
0002f0 65 39 fa 38 6d 91 93 27 ef 6b 88 a4 d7 25 04 a9
       0.000119316195 4.0958367e-15 -5.9163445e-17 -2.934271e-14
000300 0c 72 9f a9 de fd f2 b5 2e 2c f7 ba 18 ad ad 37
       -7.0808024e-14 -1.810429e-06 -0.0018857771 2.070381e-05
000310 5f 32 0d 0b 62 dc 3f 20 18 c8 9a 38 f6 18 9b 30
       2.7193507e-32 1.6251248e-19 7.3805626e-05 1.1284829e-09
000320 7b d8 00 3b 6a 99 d0 36 1b 0f f2 39 a5 84 16 af
       0.0019660282 6.216743e-06 0.0004616909 -1.3689545e-10
000330 1e d9 a0 2f a5 1c cf 9f d6 ad 6d a8 f8 3d 55 ba
       2.9258101e-10 -8.77153e-20 -1.31938375e-14 -0.0008134539
000340 d7 d6 39 b9 63 e9 e1 2c ff ca f6 b7 42 fb 39 3b
       -0.00017723009 6.4207958e-12 -2.9420013e-05 0.002837852
000350 87 16 4c b8 04 0e 8f b8 18 6b 9d ad 91 f7 41 b0
       -4.865837e-05 -6.821382e-05 -1.7896393e-11 -7.0564804e-10
000360 9c 02 00 80 e0 c4 e8 37 73 05 9c a9 52 60 5d ba
       -9.36e-43 2.7748232e-05 -6.928737e-14 -0.0008444834
000370 17 f2 17 ab e2 15 aa b6 46 09 0a b9 9e 59 99 03
       -5.3981944e-13 -5.0689423e-06 -0.0001316416 9.013107e-37
000380 9b f8 c6 a8 43 fa 8d 2c 34 58 6f 8e 03 9a 89 2c
       -2.2090231e-14 4.0352457e-12 -2.9501493e-30 3.910873e-12
000390 5b dd 0d 00 f3 eb 04 1c 91 a4 07 3b 02 22 91 3a
       1.273269e-39 4.3980094e-22 0.0020697454 0.0011072757
0003a0 84 f0 eb ba 45 68 94 ba 07 2f 18 ab cb 02 6c ac
       -0.0018000756 -0.0011322579 -5.406651e-13 -3.3539168e-12
0003b0 a0 a1 08 b9 b6 11 e6 90 7c af 08 1a 3e 43 15 3b
       -0.0001303018 -9.074629e-29 2.8265896e-23 0.0022775675
0003c0 97 90 2e 2d 56 30 a9 20 94 21 85 b9 80 a8 68 37
       9.92286e-12 2.86617e-19 -0.00025392754 1.386751e-05
0003d0 aa 15 c6 ba a5 26 39 ba 65 24 05 3a 9e 38 4d 30
       -0.0015112658 -0.00070629484 0.00050789706 7.4659023e-10
0003e0 9c 30 db b7 a8 47 7e 31 83 f8 b0 b9 b8 49 30 bb
       -2.612947e-05 3.7002597e-09 -0.00033754492 -0.0026899409
0003f0 46 cd dd a4 c9 05 67 3b fe 0b cf ba 21 69 f6 b8
       -9.619122e-17 0.003525125 -0.0015796421 -0.00011749776

linear_hidden.0.bias f4 [256]
000000 93 c9 87 3b 23 92 7a 2d 15 8b d6 b4 d4 2a a3 38
       0.0041439026 1.4243304e-11 -3.9961802e-07 7.780423e-05
000010 97 33 35 39 4e 63 24 bb ca 68 32 3b 3b 45 13 3d
       0.00017280724 -0.0025083604 0.0027223104 0.035954695
000020 e0 ff fb 3a 76 a1 3a b9 21 28 43 ba 20 88 c8 b4
       0.0019226037 -0.00017798491 -0.00074446393 -3.7351947e-07
000030 89 de e1 ba 26 3a 18 bb 1b 87 d6 bb b2 4c b6 ba
       -0.0017232458 -0.0023228019 -0.0065468675 -0.0013908355
000040 03 3d 6f ba 8a 75 fa 33 cc 46 da b3 50 a6 ac 38
       -0.0009126218 1.16629124e-07 -1.0164294e-07 8.232577e-05
000050 0e a9 86 ba d6 ea 29 b9 07 e5 9f 33 44 3e 78 b9
       -0.0010273771 -0.00016204579 7.445674e-08 -0.00023674319
000060 f1 c4 0b 35 d2 63 fa ad 0b a5 9d b9 f6 e0 a2 bb
       5.206812e-07 -2.8466039e-11 -0.0003006834 -0.004970665
000070 aa 5c 18 bb 53 de 6a 1c 7a e0 0f 3a c7 35 1c 3a
       -0.0023248591 7.7711453e-22 0.00054884667 0.0005958941
000080 5a c4 53 bb 26 85 35 39 38 54 bf bb 7d 8f 0e b2
       -0.003231308 0.00017311107 -0.005838897 -8.298113e-09
000090 e3 fe 54 2e 6c 62 82 b9 c6 b2 86 b9 96 3e 89 3a
       4.8429604e-11 -0.00024868862 -0.00025691668 0.0010470923
0000a0 9d e2 dc bb 58 07 00 80 39 f0 29 ba 88 4e a8 b9
       -0.0067408816 -2.634e-42 -0.00064826343 -0.00032101967
0000b0 0b 7a 4d b7 cf 33 05 a1 17 b5 52 bb e8 1d ec b3
       -1.22473675e-05 -4.513072e-19 -0.0032151395 -1.0995046e-07
0000c0 a1 81 d7 3b 6d 87 a8 3b 50 5f 96 b2 57 e9 c7 bb
       0.0065767323 0.005143097 -1.7505641e-08 -0.0061008143
0000d0 7c 03 c9 b4 8e d9 31 b5 37 43 aa b9 4b bc bc 9c
       -3.7441703e-07 -6.625422e-07 -0.00032475006 -1.2489469e-21
0000e0 08 24 33 bb 4d 20 da 38 b4 f7 7b ba 51 d3 5d b9
       -0.0027334709 0.000104010665 -0.0009611801 -0.00021154924
0000f0 be fc 06 3c 9d 97 89 37 63 55 e4 29 e6 bb cd ba
       0.008238969 1.6402273e-05 1.0140046e-13 -0.0015696257
000100 2c da a1 bb 9e 66 cf 37 84 56 0b 39 b0 1a fd 37
       -0.004939338 2.4724108e-05 0.00013288303 3.0172378e-05
000110 77 95 98 37 c3 1b 01 37 51 92 9d bb c4 fc df bb
       1.8189412e-05 7.695463e-06 -0.004808702 -0.006835552
000120 f1 96 81 ba 3b 56 1f bb 59 30 66 bb 05 28 02 bb
       -0.0009886903 -0.0024312872 -0.0035124032 -0.001986028
000130 a6 cf a8 b8 25 63 4f 3b 0b 62 d5 38 76 ac 32 3c
       -8.049542e-05 0.0031644788 0.000101748934 0.010905376
000140 54 47 be bb 66 ba 5f 32 1e 4d 07 b9 c6 0e 19 34
       -0.005806843 1.30226905e-08 -0.00012903332 1.425461e-07
000150 d1 ff 30 ba 68 ee 90 b9 11 b9 28 b8 71 35 3f bb
       -0.0006751987 -0.00027643447 -4.0226678e-05 -0.002917614
000160 da 67 66 3c e2 e1 79 bb 61 b9 b9 b9 3b 30 24 3a
       0.014062846 -0.0038129021 -0.00035424068 0.00062632904
000170 19 4c 83 38 64 71 a8 bb e4 0e bf 3b bd d4 6d b9
       6.260741e-05 -0.0051404703 0.0058306325 -0.00022681332
000180 a8 48 99 3c ef 12 a0 20 94 a8 6e 3b 3f ae 9f bb
       0.018711403 2.7117584e-19 0.0036416398 -0.0048730667
000190 00 39 78 b9 5f dc 93 3c 6a dd 09 37 6d 30 32 bb
       -0.00023672357 0.018049417 8.217388e-06 -0.0027189509
0001a0 08 bc 07 bb 88 cc 4e b8 8a c8 56 34 58 e5 47 ba
       -0.002071144 -4.9304712e-05 2.0003259e-07 -0.00076254224
0001b0 b6 16 91 bb ea e3 c8 24 04 f0 46 22 c9 6a 13 b7
       -0.004427756 8.7122275e-17 2.6961067e-18 -8.786746e-06
0001c0 95 e6 51 3b 63 83 a8 b9 c7 b6 cf b4 44 42 2b ba
       0.0032028307 -0.00032141348 -3.8689743e-07 -0.00065330067
0001d0 05 a8 26 b6 26 b5 d6 ba 83 38 c0 38 c9 df d0 ba
       -2.4833728e-06 -0.0016380891 9.1657996e-05 -0.0015935834
0001e0 b7 67 29 25 8d 1c 2d bb 0b df 0d 37 61 75 d2 38
       1.4693553e-16 -0.0026414723 8.456186e-06 0.00010035444
0001f0 4e 6e c3 bb ba 75 32 ba f8 a5 15 bb a2 04 00 00
       -0.005964077 -0.0006807704 -0.002283452 1.662e-42
000200 28 2a 1f ba 95 92 b0 bb c4 56 17 b9 ab 36 dd 35
       -0.00060716504 -0.0053885677 -0.00014432805 1.6481694e-06
000210 e3 33 b9 a0 8b e8 0f bb 2f 79 80 bb 79 9c 39 ba
       -3.1374555e-19 -0.0021958675 -0.003920696 -0.0007080506
000220 cc 3e 25 b9 52 2d 7f ba 14 7c ff a1 3a 0b 42 b3
       -0.0001575902 -0.0009734231 -1.7312315e-18 -4.5179355e-08
000230 1e 4a 66 ac 52 4e 84 b9 70 94 2d 3c 97 e2 41 34
       -3.272611e-12 -0.00025235355 0.010594472 1.8056959e-07
000240 f0 82 23 3a a7 a3 28 b6 cc e4 25 bb bd 85 cf bb
       0.0006237468 -2.512921e-06 -0.0025313376 -0.0063330815
000250 71 01 d4 8b 15 ff 04 b1 26 f1 a6 b9 da 30 f6 37
       -8.16616e-32 -1.9353525e-09 -0.00031841657 2.9348234e-05
000260 93 3c 1e bb 9b 35 fa 37 92 b0 3d 3c 6b 12 c3 bb
       -0.0024144992 2.9827284e-05 0.011577742 -0.0059531233
000270 07 5c b8 32 49 a5 8c 38 1f fb ea ba 5a ef c5 38
       2.1462268e-08 6.706507e-05 -0.0017927623 9.438275e-05
000280 dc 35 63 b9 31 dc 30 38 8f a9 d2 38 2e 5e f9 a3
       -0.00021668471 4.216674e-05 0.00010045163 -2.703652e-17
000290 f6 17 85 b7 58 36 3d 17 6e e3 51 bb a2 2b aa 3c
       -1.5865993e-05 6.1137785e-25 -0.0032026428 0.020772759
0002a0 5c f5 9b b8 93 dc 2f b9 18 01 b9 b8 f1 1b 75 b9
       -7.436678e-05 -0.00016771471 -8.821691e-05 -0.0002337543
0002b0 81 ed 8a b8 08 70 b6 bb ad 1b 8b ba 6c 11 aa b9
       -6.624591e-05 -0.0055675544 -0.0010613106 -0.00032437907
0002c0 99 28 6e bb 06 29 e1 bb 0c 84 cd 3c 37 84 e7 ac
       -0.0036340116 -0.0068713455 0.025087379 -6.5800937e-12
0002d0 4f 05 d9 ba 80 a0 9c bb 20 76 24 36 35 33 02 b7
       -0.0016557368 -0.0047798753 2.4506662e-06 -7.760526e-06
0002e0 0f d6 da b8 14 da 81 b9 f9 c4 7b bb b1 aa 19 3d
       -0.000104349216 -0.00024767278 -0.0038416965 0.0375163
0002f0 53 f2 05 bb f7 e3 6c ba bd 65 0a ba 6f 53 d8 3c
       -0.0020438626 -0.0009036655 -0.00052794424 0.026406972
000300 62 a5 b3 bb ce 42 4e ba e9 1f d1 a0 f8 55 3c 39
       -0.0054823617 -0.0007868231 -3.5427094e-19 0.00017961103
000310 59 de 4c ba 55 da d7 ba 52 d5 c2 28 08 4b 42 ba
       -0.0007815115 -0.0016468266 2.163084e-14 -0.0007411693
000320 7a a0 2e 3c 15 8a b0 ba 61 cf 89 3c 8c 1f 97 3a
       0.010658378 -0.0013468886 0.016822519 0.0011529787
000330 91 03 07 ba 8a 1d ab bb 40 71 4a 39 61 79 4a ba
       -0.0005150373 -0.005222027 0.0001930641 -0.00077237753
000340 3f 63 61 ba 9f eb 91 ba c6 d7 20 bb d1 75 bd a9
       -0.00085978577 -0.0011132843 -0.0024542673 -8.413724e-14
000350 89 34 ce 38 4a db 27 ba 13 cd 53 ba 4a d9 d9 38
       9.832631e-05 -0.0006403221 -0.00080795697 0.000103878396
000360 a8 47 68 bb 4a 1f 66 82 fb 25 e5 38 9d c7 b2 38
       -0.00354431 -1.6906711e-37 0.00010926645 8.524882e-05
000370 ec 7e 88 3c 02 89 1e b9 f0 9e 1e ba 1d 0c 9d b9
       0.016662084 -0.00015119094 -0.0006050905 -0.000299544
000380 1b 43 99 b9 e6 e0 f4 b6 db af 40 b2 0b 9f 0f bb
       -0.00029232432 -7.2979483e-06 -1.1215856e-08 -0.0021914865
000390 bb 63 0f bb be a0 5e 33 32 3c 75 3a be a1 42 33
       -0.0021879512 5.1834597e-08 0.0009354978 4.531625e-08
0003a0 91 d2 de 33 aa 9c da 3c 61 2f 50 a4 ea 07 57 b9
       1.03759824e-07 0.026686031 -4.5142942e-17 -0.00020506946
0003b0 13 1a 7d ba 51 9d 89 ba d7 7b b3 bb fd 24 b0 28
       -0.00096550694 -0.0010499154 -0.0054774093 1.9555966e-14
0003c0 d4 a8 4f ba df cb 36 ba db 0f f7 b9 76 f9 89 a9
       -0.00079215807 -0.0006973128 -0.00047123324 -6.127297e-14
0003d0 ae ea 0b 28 4e e1 f3 3a 7b be 07 b9 37 ee 20 3c
       7.766938e-15 0.0018606575 -0.00012945563 0.00982242
0003e0 6c a1 03 ba 5f 1d b4 ba 38 44 98 bb 6f 84 49 ba
       -0.0005021307 -0.0013741663 -0.004646804 -0.00076872756
0003f0 6d 01 39 3a 4d 03 00 00 b1 bb c8 b9 d9 2c 2a bb
       0.00070574024 1.184e-42 -0.00038286814 -0.0025966673

linear_output.weight f4 [1, 256]
000000 a0 09 6c 3c b7 37 71 ae d9 a7 09 b7 63 bf 98 bb
       0.014406592 -5.484654e-11 -8.204916e-06 -0.004661487
000010 33 00 06 bc 6c 74 cd bd 5d 40 86 be 0b 36 08 3e
       -0.008178758 -0.10031971 -0.2622098 0.13301866
000020 bd 30 c9 3b 0f f4 57 39 df f6 25 bd 65 79 36 b7
       0.0061398433 0.00020594917 -0.040518638 -1.087631e-05
000030 65 38 96 bd 84 c6 be bd cf 5c 72 be 8c 15 82 bd
       -0.07334975 -0.093152076 -0.23668216 -0.06351766
000040 0e bd 5d bd ee 82 fe b4 5e ed af b5 e2 e6 e1 bb
       -0.054135375 -4.740645e-07 -1.3107599e-06 -0.0068939785
000050 8a dd 75 bd 3f 71 d8 bd 7f de c8 33 ae e0 b5 bd
       -0.06002573 -0.10568475 9.3536975e-08 -0.08880745
000060 fa 2f b0 35 bf 0f 59 b0 47 50 61 bd 66 f9 41 be
       1.3126985e-06 -7.8966517e-10 -0.0550082 -0.18942794
000070 2a 04 c2 bd f1 cb 8e 9e 98 e5 c4 3a 6d 3a 8a ba
       -0.094734505 -1.5119183e-20 0.0015022038 -0.0010545977
000080 f6 3a 01 be 26 66 f9 bb 41 fc 5e be 2e c0 47 32
       -0.12620148 -0.007611054 -0.21775915 1.1627021e-08
000090 6d c8 8a b1 f2 1d e9 bc ff 08 9c bd 17 ce 5c be
       -4.0391144e-09 -0.028456662 -0.07618903 -0.21562992
0000a0 90 59 78 be ee 0a 00 00 cd cc 1c bd d0 a6 8b bd
       -0.24252915 3.921e-42 -0.03828125 -0.06818926
0000b0 ed c8 ae b7 64 a8 6c a2 99 a4 00 be 79 5b 46 b4
       -2.083598e-05 -3.207311e-18 -0.12562789 -1.8473465e-07
0000c0 91 90 c1 3c 42 e4 5b be 41 e7 93 32 19 e4 76 be
       0.023628505 -0.21473792 1.7218214e-08 -0.2411045
0000d0 6e a8 62 b8 3b 33 5e 35 a1 e2 ec bc 1d a1 11 1e
       -5.403946e-05 8.2775995e-07 -0.028916659 7.7095535e-21
0000e0 74 d7 df bd c6 93 81 39 bd 69 5f bd e2 67 af bd
       -0.10929766 0.00024714897 -0.0545442 -0.08564736
0000f0 b4 04 f7 3c 43 9b f3 ba 13 e7 53 ab bf 6f 90 bd
       0.03015361 -0.00185857 -7.528294e-13 -0.07052564
000100 e3 2e 44 be 8e a6 d4 39 3e 69 e5 bb 96 92 be b9
       -0.19158511 0.00040559884 -0.0070010712 -0.0003634884
000110 38 bc bf ba 06 2a a9 ba eb 5d 3a be d1 73 7a be
       -0.0014628237 -0.0012906201 -0.1819989 -0.24458243
000120 5e 96 71 bd aa e6 c7 bd a6 30 0c be 5c ec a3 bd
       -0.058981292 -0.097607926 -0.13690433 -0.08004066
000130 80 55 c8 bd 22 18 24 be 43 3c 3b bc fe 8d 24 3d
       -0.09781933 -0.16024831 -0.011427942 0.040174477
000140 4c 53 5f be 70 b2 4a 32 21 04 df bd ba a3 19 34
       -0.21809119 1.17985195e-08 -0.108894594 1.4308799e-07
000150 7d aa 3d 38 53 12 e9 bc 99 71 00 bb f0 3b f1 bd
       4.521989e-05 -0.02845112 -0.001959896 -0.1177901
000160 f3 4d 56 3d 8d b7 17 be bf 58 5a bd 48 dc 5b 3a
       0.052320432 -0.14816113 -0.05330729 0.00083870115
000170 eb 70 86 ba 9d 2b 46 be 12 77 aa 3c 03 8b d4 bc
       -0.0010257041 -0.19352575 0.02080873 -0.025945192
000180 e2 b8 8e 3d fd f5 c6 a0 23 8f 38 be cb 19 3d be
       0.06968857 -3.3705286e-19 -0.18023352 -0.1846687
000190 45 8f ab bd 3b e2 89 3d 72 25 ca bd d5 3c dd bd
       -0.08376936 0.06732603 -0.098704234 -0.108026184
0001a0 d5 06 af bd a1 8a 67 bc eb 62 84 35 2f 9f 3a bd
       -0.08546225 -0.014132173 9.863555e-07 -0.045561966
0001b0 f8 b7 2e be ac cf c5 a4 ac e6 05 a3 df 52 9b b7
       -0.17062366 -8.578694e-17 -7.258791e-18 -1.851603e-05
0001c0 d3 0d 24 be 1c 74 89 bd 16 b8 51 b5 64 38 1d bd
       -0.16020899 -0.06711599 -7.812645e-07 -0.038383856
0001d0 04 e1 be bd 53 34 92 bd 6c 99 9a bb 88 7c 92 bd
       -0.09320262 -0.07138886 -0.0047179963 -0.07152659
0001e0 fe fd 59 a5 77 b9 d5 bd f8 02 39 38 55 38 01 bc
       -1.8907806e-16 -0.10435765 4.4110202e-05 -0.007886966
0001f0 ae 57 5f be dc 0e 23 bd 38 e2 bd bd ed 10 00 00
       -0.21810791 -0.039809093 -0.092716634 6.072e-42
000200 64 a8 38 bd 31 e4 53 be f0 22 ca bd 08 dc 32 36
       -0.045082465 -0.20692517 -0.09869945 2.6652142e-06
000210 e2 ee 0a a2 9b b8 b8 bd e1 d2 19 be 61 9b 22 bd
       -1.882895e-18 -0.09019586 -0.1502185 -0.039698962
000220 36 78 a6 bc 26 aa 5d bd c4 4c 31 22 1f 10 36 33
       -0.020320993 -0.054117344 2.4028612e-18 4.238984e-08
000230 7a dc 45 af a1 a1 b8 bc 8f e1 1f 3d fa ed b0 b6
       -1.7995375e-10 -0.022538008 0.03903347 -5.272913e-06
000240 a2 3f e4 3a cd 3f e9 b8 a2 0a d0 bd f8 4f 82 be
       0.0017413984 -0.000111221896 -0.10158278 -0.25451636
000250 1b 57 1b 8d 27 7c 67 b2 73 c2 8d bd 8a 09 39 38
       -4.786791e-31 -1.3474199e-08 -0.06921854 4.411632e-05
000260 01 62 c8 bd 35 90 16 bb ba 71 2f 3d 31 a4 5d be
       -0.09784318 -0.0022974138 0.042833067 -0.21644665
000270 25 27 82 33 8a c6 48 bb 03 fa 9a bd 46 d0 46 bc
       6.060717e-08 -0.0030635917 -0.07567217 -0.012134617
000280 fe b7 c3 bc f3 48 5f 38 aa ed 8f bb 9b 2f 06 22
       -0.023891445 5.3235282e-05 -0.0043923454 1.8185589e-18
000290 ec e9 6a b9 e2 d0 bc 97 2d f5 00 be c0 43 9e 3d
       -0.00022403122 -1.2201945e-24 -0.12593527 0.07727766
0002a0 96 3e 89 bc 93 a4 a5 bc 60 02 b0 bd 74 c1 c0 bc
       -0.016753476 -0.020220077 -0.08594203 -0.023529746
0002b0 22 ee b3 bd dc f2 59 be e6 52 65 bd 05 0d ea bc
       -0.087856546 -0.2128405 -0.05598726 -0.028570661
0002c0 5c 0f 10 be fc c0 7a be 27 b4 be 3d c4 b8 b0 ae
       -0.14068359 -0.2448768 0.09311705 -8.036374e-11
0002d0 f2 26 92 bd e2 d9 40 be 86 a4 5c bc 7d 01 d1 ba
       -0.071363345 -0.18833116 -0.01346696 -0.0015945878
0002e0 f0 fb c3 bd 9a c0 be bc 6d 28 18 be 23 1b 0e 3e
       -0.09569538 -0.023285199 -0.14859171 0.1387754
0002f0 43 6f aa bd 73 c7 66 bd d5 8a fb b9 d9 ba c8 3d
       -0.08322003 -0.056342553 -0.0004797789 0.09801263
000300 c1 57 63 be fa 4b 2d bd 10 8e 15 a2 04 03 12 bc
       -0.22201444 -0.042308785 -2.0268473e-18 -0.008911852
000310 1d 61 43 bd 8d 50 90 bd 4a f4 8d 29 7a 53 39 bd
       -0.047700036 -0.07046614 6.304035e-14 -0.045245625
000320 5d e8 20 3d ce 55 7f bd d9 7e 80 3d 2b b4 08 be
       0.0392841 -0.06233769 0.06274194 -0.13349979
000330 bc b5 29 bd d2 1d 48 be df 47 f7 bb 13 15 34 bd
       -0.04143308 -0.19542626 -0.0075464095 -0.04396541
000340 5a 5d 3d bd 39 0f 79 bd 7a 68 c9 bd 22 d9 65 aa
       -0.046231605 -0.060805533 -0.098343804 -2.0414619e-13
000350 b4 85 6e 39 8e bd 32 bd e9 37 dd bd cf 96 e3 bb
       0.00022747257 -0.043637805 -0.1080168 -0.006945468
000360 38 74 0d be e3 27 9d 81 17 8a d0 bb 1a c7 42 bc
       -0.13813865 -5.7729926e-38 -0.006364118 -0.01188829
000370 01 8d 7e 3d 7e 77 d2 bd e0 6c 32 bd 9e 8d 91 bd
       0.06214619 -0.102766976 -0.043560863 -0.071070895
000380 a4 91 e4 bc 68 8d c1 b8 c8 a5 41 b2 a8 80 b6 bd
       -0.027901478 -9.229296e-05 -1.1271773e-08 -0.08911258
000390 2e 07 b5 bd c8 a6 2e 34 f6 9c 33 3b 8e 50 20 30
       -0.0883926 1.6265687e-07 0.0027406788 5.8322136e-10
0003a0 28 3e ed 33 3a bc ca 3d c3 dc 9c a5 8f 2d 08 38
       1.1047479e-07 0.098991826 -2.721128e-16 3.2467357e-05
0003b0 59 96 71 bd ab 8a 5e bd a7 d0 58 be 31 39 32 a9
       -0.058981273 -0.054331463 -0.21173345 -3.9573545e-14
0003c0 b2 3e 40 bd 23 03 41 bd 18 f5 14 bd 07 40 f2 a9
       -0.04693479 -0.047122132 -0.036366552 -1.0758066e-13
0003d0 c2 97 c0 a6 6e 53 c0 3b 91 7c ca bd 01 12 14 3d
       -1.336381e-15 0.0058693206 -0.098870404 0.036149982
0003e0 5f 9a 0c bd 3d 5e 80 bd 0a 3b 39 be 3d 4b 40 bd
       -0.034326907 -0.062679745 -0.18088928 -0.046946753
0003f0 5a fd 02 3b 46 04 00 80 a0 60 06 bd 53 da d3 bd
       0.0019987435 -1.533e-42 -0.032806993 -0.103443764

exp_avg f4 [256, 17]
000000 e8 7a 83 b9 de c3 22 39 db 09 7e 3a de 66 10 b9
       -0.0002507784 0.0001552249 0.00096907996 -0.00013771231
000010 23 03 74 b9 25 81 2b 39 10 af 77 3a 06 fe 0f b9
       -0.00023270822 0.00016355941 0.00094483886 -0.00013732174
000020 55 75 59 b9 d3 4a 33 39 0c 73 75 3a 45 ed 0f b9
       -0.00020738442 0.00017098644 0.00093631516 -0.00013725933
000030 8c 08 f7 b9 78 a0 45 3a 08 13 28 b8 01 e9 8e b7
       -0.0004711788 0.00075388653 -4.0072046e-05 -1.703622e-05
000040 e4 03 3e 3a c4 53 c0 39 e6 1e a0 38 4a 0d bf ba
       0.00072485046 0.00036683504 7.63515e-05 -0.0014576104
000050 8e f6 1a 39 ad e5 be 39 84 90 b6 38 f4 7a c3 ba
       0.00014778433 0.00036410746 8.7053544e-05 -0.0014913962
000060 34 46 1a 39 0d 72 bf 39 43 49 c0 38 52 29 c6 ba
       0.00014712737 0.00036515333 9.1689195e-05 -0.0015118516
000070 51 d0 1a 39 24 f8 a4 39 12 0e 7b b9 b6 7d 52 b8
       0.00014764188 0.00031465397 -0.00023942467 -5.018498e-05
000080 48 7d 18 ba 38 4c 42 ba cc e9 b7 ab 31 db 93 aa
       -0.0005817008 -0.000741187 -1.3067824e-12 -2.626454e-13
000090 49 b2 17 2c e1 3a 42 2a 48 4d ca ab 93 ea 07 ab
       2.1557359e-12 1.7251089e-13 -1.4374413e-12 -4.828717e-13
0000a0 8a 0d 19 2c c5 e5 38 2a e4 2c e2 ab 1b 72 29 2b
       2.1750123e-12 1.64222e-13 -1.6070725e-12 6.0199214e-13
0000b0 73 4b 1c 2c 75 ac fc 28 90 22 0c ac 3f ec 3a ac
       2.2210816e-12 2.8052412e-14 -1.9914383e-12 -2.6563333e-12
0000c0 dd 3e 1a 2b 76 42 d8 2b 14 57 59 ac 1b 44 4a 39
       5.479903e-13 1.536617e-12 -3.0885893e-12 0.00019289592
0000d0 5c 23 d0 b8 00 22 3a ba fc 8d aa 38 c5 6c 43 39
       -9.924799e-05 -0.00071004033 8.132678e-05 0.00018637169
0000e0 5e 48 d9 b8 f0 a3 38 ba d6 25 a9 38 37 16 3f 39
       -0.00010360846 -0.00070434716 8.0655955e-05 0.00018223455
0000f0 3a 84 eb b8 f0 c6 38 ba 63 c9 a9 38 cf b7 23 39
       -0.00011230302 -0.0007048687 8.096059e-05 0.00015613365
000100 9e 0e 50 b9 04 d2 f4 37 36 fe 56 b7 4d 91 27 ba
       -0.00019841871 2.9184863e-05 -1.2814582e-05 -0.0006392196
000110 50 de c3 b8 99 2c 4e 38 0f 81 db 39 a1 36 69 b8
       -9.3397335e-05 4.9155762e-05 0.0004186709 -5.5602406e-05
000120 d8 61 c1 b8 ca ce 4b 38 0f 5f d9 39 14 8c 66 b8
       -9.221182e-05 4.859156e-05 0.0004146029 -5.496673e-05
000130 e0 51 c2 b8 b4 e1 57 38 be 36 d5 39 6c f4 67 b8
       -9.265891e-05 5.1470197e-05 0.00040667312 -5.5302327e-05
000140 7a 65 51 b8 dd ea c2 38 be 34 a9 b8 bb 72 50 b8
       -4.992399e-05 9.2943876e-05 -8.068372e-05 -4.9697916e-05
000150 22 70 e9 39 5c e5 8f 3a 7c 69 bf b9 22 7c 59 bb
       0.0004452477 0.0010978389 -0.0003650895 -0.0033185561
000160 b1 96 d7 39 c3 82 8c 3a 5e 27 b5 b9 d1 22 57 bb
       0.0004112027 0.0010720122 -0.0003455234 -0.0032827149
000170 04 be d6 39 18 82 89 3a 3c 34 b7 b9 b9 d3 54 bb
       0.00040958833 0.0010491041 -0.00034943398 -0.003247483
000180 b8 08 d7 39 1a 74 91 3a b6 9e 39 ba 50 97 f7 b8
       0.00041014492 0.0011097223 -0.000708084 -0.00011806062
000190 2d 9f 23 ba 0a 53 f2 ba 1a 2e 81 b8 18 f4 cb 38
       -0.00062416756 -0.0018487882 -6.1597864e-05 9.72526e-05
0001a0 96 7b 80 39 f4 8a 1f b8 d1 a4 57 b8 c4 b0 de 38
       0.0002450614 -3.8037964e-05 -5.141349e-05 0.0001061871
0001b0 70 a3 75 39 2d bc 1f b8 79 64 4c b8 f5 75 f2 38
       0.00023425906 -3.8083806e-05 -4.8730963e-05 0.000115614304
0001c0 33 45 62 39 69 8e 21 b8 6f e8 0d b7 7e e8 e7 38
       0.00021578818 -3.851802e-05 -8.458373e-06 0.000110582434
0001d0 c1 ac c8 38 cf 4f 9c 37 79 4a d1 b7 8c a2 5c 27
       9.568921e-05 1.8633813e-05 -2.494942e-05 3.061925e-15
0001e0 5c d9 96 26 8d 53 1e a9 3a 17 dc 27 6c f6 3a 27
       1.0467256e-15 -3.5155516e-14 6.108745e-15 2.594627e-15
0001f0 5d 65 76 27 f4 aa 13 a9 4e 8f c6 27 fe 41 d7 26
       3.4194307e-15 -3.2788835e-14 5.511141e-15 1.4936509e-15
000200 86 ec 9e 27 64 88 03 a9 dd 47 d2 27 4f 6e ac a9
       4.411025e-15 -2.9206143e-14 5.8364623e-15 -7.65747e-14
000210 82 c8 52 a8 87 46 85 28 25 23 91 28 e4 c2 d9 a8
       -1.170082e-14 1.4796553e-14 1.6113475e-14 -2.417636e-14
000220 10 d3 a1 20 08 27 16 1d 0b 7e 23 2f 91 58 bc 9e
       2.741413e-19 1.9872513e-21 1.4869543e-10 -1.9941904e-20
000230 9a 5a d1 20 4a 4a 12 1d 9d 59 18 2d 44 e0 af 9d
       3.5465932e-19 1.9361346e-21 8.660098e-12 -4.6554e-21
000240 69 42 ca 20 89 93 89 9e 32 db eb ae 53 d8 8e 9c
       3.4264078e-19 -1.4566458e-20 -1.07255e-10 -9.45269e-22
000250 f8 9a 0d 2d 3e 35 8a a0 a8 f4 40 9e be 8f 62 20
       8.049332e-12 -2.3413342e-19 -1.0214989e-20 1.9190505e-19
000260 ca 3c 28 ab de cc fe b9 e7 42 c2 39 a3 dd 17 3b
       -5.976995e-13 -0.00048599293 0.0003705241 0.0023172877
000270 d0 0a a0 b9 7f 40 e9 b9 6d c0 c6 39 83 ae 19 3b
       -0.00030525634 -0.00044489276 0.0003790887 0.0023449964
000280 98 41 9f b9 c4 20 cd b9 ce 55 c8 39 11 12 15 3b
       -0.00030375714 -0.0003912506 0.00038210902 0.0022746364
000290 2e 95 9f b9 e1 5c 64 ba 93 cb bf 3a a4 d9 36 b9
       -0.0003043799 -0.000871135 0.0014632813 -0.0001743795
0002a0 ee 39 9b 39 7d 6e e7 3a 0c 1e 45 b6 69 f4 42 b6
       0.00029607065 0.001765683 -2.9372777e-06 -2.9050518e-06
0002b0 ca fa 41 38 82 27 37 35 f0 19 56 b6 a7 82 53 b6
       4.624835e-05 6.8230304e-07 -3.1903583e-06 -3.15175e-06
0002c0 4c be 3d 38 e1 17 4f 35 56 48 fc b6 99 2a 69 b6
       4.523834e-05 7.714826e-07 -7.5186063e-06 -3.47445e-06
0002d0 71 30 3c 38 31 ca e0 34 10 da 2e b8 07 e5 0a 35
       4.4867807e-05 4.1870365e-07 -4.168792e-05 5.1742285e-07
0002e0 5e 2d 46 35 40 c0 55 b6 34 6e 6d 36 50 ec 17 38
       7.3826766e-07 -3.1851378e-06 3.5379899e-06 3.622129e-05
0002f0 8b 0f 8d b7 0b c6 a8 b8 a6 b0 3f 37 85 33 19 38
       -1.6815748e-05 -8.0477526e-05 1.1425616e-05 3.6526024e-05
000300 4f fd 96 b7 c4 ad a0 b8 eb 73 3e 37 28 2b 1a 38
       -1.799935e-05 -7.661761e-05 1.1351872e-05 3.6756654e-05
000310 17 77 b0 b7 31 db 94 b8 8a 2e 3e 37 88 48 19 38
       -2.103629e-05 -7.0980175e-05 1.1335718e-05 3.6545593e-05
000320 30 24 d3 b7 ed 08 92 b6 b2 08 d9 37 f6 f2 3b b8
       -2.5170011e-05 -4.352178e-06 2.5872465e-05 -4.481055e-05
000330 0c 1b b5 39 00 b7 2d b9 fc 70 8f ba 74 fa 0a 39
       0.00034543162 -0.00016566738 -0.0010943706 0.00013254007
000340 f0 ca b0 39 81 ca 37 b9 ca 32 8f ba 26 1f 0a 39
       0.00033720536 -0.00017527679 -0.001092517 0.00013172309
000350 41 71 ac 39 9b b2 43 b9 bb 01 8f ba f2 a8 0a 39
       0.00032890777 -0.00018663185 -0.001091055 0.00013223643
000360 51 12 71 39 e6 11 a0 b9 e9 73 d3 b8 83 10 78 b9
       0.00022990374 -0.00030530914 -0.00010082854 -0.00023657274
000370 d6 ce 8d ba ce e3 28 ba eb f9 ff 39 09 a2 46 3b
       -0.0010819088 -0.0006442637 0.00048823594 0.0030308983
000380 c5 69 d6 b9 e6 e2 1b ba 43 70 02 3a bb ee 50 3b
       -0.00040896065 -0.0005946591 0.0004975835 0.0031880576
000390 e0 5e d5 b9 c7 01 0a ba f6 58 02 3a e5 e1 4a 3b
       -0.00040697213 -0.0005264547 0.00049723627 0.0030957398
0003a0 0e d2 d5 b9 ba 34 98 ba a1 33 02 3b b2 77 9b b9
       -0.0004078303 -0.0011612393 0.00198672 -0.00029653084
0003b0 c4 4a c6 39 1f c6 1a 3b a5 80 95 2a 0c 3a af aa
       0.00037821208 0.0023616625 2.6556982e-13 -3.1126523e-13
0003c0 77 61 6a 2c d0 0e d5 25 ed 5d e0 aa 3d 8b ef 28
       3.3307504e-12 3.6959647e-16 -3.9855567e-13 2.6594715e-14
0003d0 73 d7 60 2c 3d 34 69 29 6f b9 69 ab 0e dd 9c 2a
       3.1951913e-12 5.1781702e-14 -8.303557e-13 2.7864554e-13
0003e0 27 57 5b 2c d8 87 1c aa d9 2b d9 aa 83 12 a6 27
       3.1170151e-12 -1.3902714e-13 -3.857737e-13 4.6094326e-15
0003f0 cc 05 2a aa d6 af 26 a9 ee f2 2e a8 42 00 00 80
       -1.5101044e-13 -3.7011918e-14 -9.711617e-15 -9.2e-44
