src/scripts/weights/HER_VFC2L256_PFC2L64_b(curr best)/actor_best.pth (torch, 68975 bytes, 18 tensors)

linear_input.weight f4 [64, 13]
0	0xbc99d212	-0.018776927
1	0x3d87d892	0.066331044
2	0xbe8c4d04	-0.27402508
3	0x3e8d9adc	0.2765721
4	0xbdc5fca6	-0.096673295
5	0x3e3aa357	0.18226372
6	0xbe74cdba	-0.23906603
7	0x3e8da152	0.2766214
8	0xbedc7ac5	-0.43062416
9	0x3e80a4a1	0.25125602
10	0xbcc9b55f	-0.024622617
11	0x3c86245d	0.016374761
12	0xbec80ee9	-0.39073876
13	0x3eabe4ef	0.335731
14	0xbe70601b	-0.23474161
15	0x3ddb6649	0.10712869
16	0xbe3b345e	-0.18281695
17	0x3ec1d8d8	0.3786075
18	0xbe9923a8	-0.29910016
19	0x3e04fb02	0.12986377
20	0x3e65a1c6	0.22424993
21	0x3eef19ee	0.4669947
22	0x3c75e9ea	0.015009383
23	0x3e40f974	0.18845159
24	0x3c40cb71	0.011767254
25	0xbe8ae0a0	-0.271245
26	0xbe49752b	-0.19673602
27	0x3dcf5258	0.10123128
28	0xbec59d13	-0.385964
29	0x3e1af2b8	0.15131652
30	0xbe897ba6	-0.2685215
31	0x3e9d4c92	0.3072248
32	0x3dcc0d2b	0.09963449
33	0x3e814fcc	0.25256193
34	0xbed0e9ab	-0.40803275
35	0x3f0d29ee	0.55142105
36	0xbd0d3e38	-0.034483165
37	0x3ef5281b	0.4788216
38	0xbd02aaa2	-0.03190101
39	0x3b00a166	0.001962745
40	0x3e83c99e	0.2573976
41	0xbdea3d19	-0.11437435
42	0x3ac293c8	0.0014845068
43	0xbd410641	-0.047125105
44	0x3eb69e9f	0.35667893
45	0xbe8d1e35	-0.2756211
46	0xbd45cb4f	-0.048289593
47	0xbec452a9	-0.38344315
48	0x3f00f92b	0.503802
49	0xbe10b92f	-0.14133142
50	0x3db16cad	0.086633064
51	0xbeb5b301	-0.35488132
52	0x3e16afa7	0.14715444
53	0x3e50f01d	0.20404096
54	0xbdc96f27	-0.09835654
55	0x3e48217d	0.19544025
56	0x3d25ca5e	0.040476196
57	0x3ecba63c	0.39775264
58	0xbe1d513d	-0.15363021
59	0x3cb1c9c4	0.021702655
60	0xbe7cf2a3	-0.24701934
61	0x3d08b2dd	0.033373702
62	0x3d248e62	0.04017485
63	0x3d2c024a	0.04199437
64	0xbedcbc93	-0.4311262
65	0xbe8081bb	-0.25098976
66	0x3e6ad365	0.22932203
67	0xbe8091ac	-0.2511114
68	0x3e4e9bd1	0.20176627
69	0xbe6057ba	-0.21908465
70	0x3e4db818	0.20089757
71	0x3d11cac9	0.03559378
72	0x3d6be83c	0.057594523
73	0xbe94435d	-0.28957644
74	0x3ea01fb5	0.3127419
75	0xbde50293	-0.111821316
76	0x3ee486c5	0.4463407
77	0x3e997c79	0.29977778
78	0xbec9285d	-0.39288607
79	0x3ea3b39c	0.3197297
80	0x3dad60c9	0.08465726
81	0x3e251cf1	0.16124322
82	0xbe5ac9cf	-0.21366046
83	0x3ea104a2	0.31448847
84	0x3e568ce9	0.2095219
85	0xbba4d7b1	-0.005030595
86	0xbe389c17	-0.18028294
87	0x3e3c8728	0.18410933
88	0x3ed44243	0.41456804
89	0x3d76d937	0.060265746
90	0x3e1c09bf	0.15238093
91	0xbe2c9fa1	-0.16857769
92	0x3eb8b025	0.36071888
93	0x3e499ea7	0.19689427
94	0x3d6197a2	0.05507625
95	0xbca5c421	-0.020235123
96	0x3f0158ab	0.5052592
97	0x3dca8203	0.09888079
98	0xbc2da213	-0.010597724
99	0x3dff01b4	0.12451497
100	0x3e040992	0.12894276
101	0x3e11b542	0.142293
102	0xbd8e4009	-0.069458075
103	0x3e900eda	0.2813633
104	0x3eae7c65	0.3407928
105	0xbe85d0fc	-0.26136005
106	0xbe68c728	-0.22732222
107	0xbc7c7789	-0.015409359
108	0x3ec1f3ca	0.3788131
109	0xbe6056d1	-0.21908118
110	0x3d4c1991	0.04982907
111	0xbe7ad34b	-0.24494664
112	0x3e9af14a	0.30262214
113	0xbeaf1252	-0.34193665
114	0xbe29092b	-0.16507404
115	0xbea2ad0b	-0.31772646
116	0x3e499f0d	0.1968958
117	0xbe9bbf6b	-0.30419478
118	0x3efd701d	0.49499598
119	0xbd090ba7	-0.03345838
120	0x3ded0b8f	0.1157447
121	0xbebbd7fa	-0.36688215
122	0xbae4b027	-0.0017447517
123	0xbeb19dd5	-0.3469073
124	0x3db92615	0.09040467
125	0xbe957ebd	-0.29198256
126	0x3ed981c7	0.42481825
127	0xbd82f837	-0.063949995
128	0x3ee4d4f3	0.44693717
129	0x3e22c8c3	0.15896897
130	0x3e842504	0.2580949
131	0x3dde87f3	0.10865774
132	0x3e2d51bb	0.16925709
133	0x3eaf004a	0.34179908
134	0x3e82980f	0.25506637
135	0xbcca2944	-0.02467788
136	0xbe4922a3	-0.19642119
137	0x3f074f28	0.5285516
138	0x3e01b89d	0.1266808
139	0x3ef0181d	0.46893397
140	0x3e6af9a8	0.22946799
141	0x3e38681f	0.18008469
142	0xbdfe6826	-0.124222085
143	0x3ea0d943	0.31415758
144	0xbd89fa95	-0.06737248
145	0xbde91d7a	-0.11382575
146	0x3d86a0a0	0.065736055
147	0x3e04250e	0.1290476
148	0xbebe6ba3	-0.37191495
149	0xbcfb5faf	-0.030685274
150	0xbc3d5e4b	-0.011558126
151	0x3e99e4de	0.30057424
152	0xbd57ddb2	-0.05270166
153	0xbe2a30bd	-0.16620155
154	0xbdddc731	-0.10829008
155	0x3e0e6177	0.13904367
156	0xbf10b490	-0.56525517
157	0x3e81d7f2	0.25360066
158	0x3e6fb2b5	0.23408015
159	0xbe6ccb1c	-0.23124355
160	0xbe16202e	-0.14660713
161	0xbdea7c6f	-0.11449515
162	0x3e9fd73a	0.31218892
163	0x3d4ed17e	0.050492756
164	0xbe77458f	-0.24147628
165	0x3df1f8ca	0.11815031
166	0xbd1d4c7f	-0.03840303
167	0x3e61830c	0.22022647
168	0x3d51cdad	0.05122154
169	0x3e4f4355	0.20240529
170	0xbe38c304	-0.18043143
171	0x39a154c6	0.00030771474
172	0xbe57cd0a	-0.2107431
173	0x3e6d89d5	0.2319711
174	0xbe642eba	-0.2228345
175	0xbd3b02d1	-0.045656983
176	0xbe9d930f	-0.3077626
177	0xbe1f1300	-0.15534592
178	0xbeafae4f	-0.34312674
179	0x3e083665	0.13302
180	0xbe8138c4	-0.2523862
181	0xbdafe942	-0.08589412
182	0xbd335a10	-0.043787062
183	0x3def7304	0.11691859
184	0xbd5a5c6f	-0.053310808
185	0x3e4fcbb7	0.20292555
186	0x3e8bdf62	0.27318865
187	0x3c83450b	0.016024133
188	0xbe592ea4	-0.21209198
189	0x3ed6f169	0.41981056
190	0xbdc9a706	-0.0984631
191	0x3f1eb478	0.61994123
192	0x3d324aff	0.043528553
193	0xbd466362	-0.048434623
194	0xbdaafa84	-0.08348563
195	0xbdfe6c40	-0.12422991
196	0xbb4b6103	-0.0031033165
197	0x3e9d7bc9	0.30758503
198	0x3e164fc6	0.14678869
199	0xbefa63b9	-0.48904207
200	0x3e4f00b3	0.2021511
201	0x3e4c96d5	0.19979413
202	0xbd3c2a55	-0.04593881
203	0xbe7c4914	-0.24637252
204	0x3eacf276	0.33778733
205	0xbe1df931	-0.1542709
206	0xbdf72c5d	-0.120690085
207	0x3e8cdf9a	0.27514344
208	0xbe039fb1	-0.12853886
209	0x3ec60c56	0.38681287
210	0xbe51934d	-0.20466347
211	0x3ed5f6cb	0.4178985
212	0x3e026749	0.12734713
213	0x3eaf4c3b	0.34237847
214	0xbd2ca88a	-0.04215292
215	0xbbb57b6f	-0.005538396
216	0xbd9c1176	-0.07620518
217	0x3ec27acd	0.37984315
218	0xbe11aa04	-0.14225012
219	0x3de69f70	0.11260879
220	0xbeb12ee6	-0.34606093
221	0xbea0e1bc	-0.31422222
222	0x3e12e547	0.14345275
223	0xbd648d9b	-0.055799108
224	0x3e1d7b29	0.15379013
225	0xbe64d3fc	-0.2234649
226	0x3ede9573	0.43473396
227	0x3d395cae	0.0452544
228	0x3e3235a6	0.17403278
229	0xbea70837	-0.32623455
230	0x3ebee2fc	0.3728255
231	0x3b5adbdf	0.0033395214
232	0x3ebaf30d	0.36513558
233	0x3eaa030f	0.3320546
234	0x3eb84c52	0.35995728
235	0xbece62bf	-0.40309712
236	0xb9c5e113	-0.0003774246
237	0xbe3321bf	-0.17493342
238	0x3d2e8610	0.04260832
239	0x3b309e44	0.0026949802
240	0x3d83ce0e	0.06435786
241	0xbc9d061f	-0.019167958
242	0x3e5e74a6	0.21724185
243	0xbf095f4c	-0.53661036
244	0xbe258626	-0.16164455
245	0xbc27f38b	-0.010250936
246	0x3e8da737	0.27666637
247	0xbded1794	-0.11576763
248	0x3e8ac40b	0.27102694
249	0xbd833b58	-0.06407803
250	0x3eda461b	0.4263161
251	0xbea5eb9f	-0.32406327
252	0x3e86e98c	0.26350057
253	0xbcab407b	-0.02090477
254	0x3eee9803	0.4660035
255	0xbe7aa2ce	-0.24476168

linear_input.bias f4 [64]
0	0xb96d6d76	-0.00022642859
1	0x3d8d0ecd	0.06887589
2	0x3ef1e23f	0.47242925
3	0x3ec8188d	0.3908123
4	0x3cc757fe	0.02433395
5	0x3e958ea9	0.29210404
6	0xbcde3aee	-0.02712771
7	0x3d8525ab	0.06501325
8	0xbe7362cc	-0.23768157
9	0x3eb3ba92	0.3510328
10	0x3ed9a201	0.42506412
11	0xbe97fb33	-0.29683837
12	0x3d677f0e	0.056517653
13	0x3e4a2e4d	0.19744225
14	0xbdd01f42	-0.10162212
15	0x3d2a0a29	0.041513596
16	0x3d5ac7de	0.053413264
17	0x3e36fa30	0.17868876
18	0xbe9027bb	-0.28155312
19	0x3e20184f	0.15634273
20	0x3f0c948f	0.5491418
21	0xbe34e4af	-0.17665361
22	0x3d2e3dd9	0.04253945
23	0x3e8798ce	0.26483768
24	0x3e12894d	0.14310189
25	0x3e3fadd8	0.1871866
26	0xbdc1c784	-0.09461883
27	0x3e1e4c05	0.15458687
28	0x3e931521	0.28727058
29	0xbea8659a	-0.32890016
30	0x3edd1ed8	0.43187594
31	0x3d9e0bc0	0.07717085
32	0x3e16973f	0.14706133
33	0x3e95aba7	0.29232523
34	0x3ee4c45a	0.44681054
35	0xbe8559a2	-0.26044947
36	0x3ec97fad	0.3935522
37	0x3e8a7852	0.27044922
38	0x3e08eaf5	0.13370879
39	0x3df440f8	0.11926454
40	0x3eef3592	0.46720558
41	0xbda249e1	-0.079242475
42	0xbe3d6171	-0.18494202
43	0x3e73686b	0.23770301
44	0x3d79a09e	0.060944192
45	0xbe93a236	-0.28834695
46	0x3e909695	0.28239885
47	0x3e230859	0.15921153
48	0xbd739872	-0.059471555
49	0x3ea20f34	0.31652224
50	0xbd4b6429	-0.049656067
51	0x3db7d657	0.08976429
52	0xbe384b8f	-0.17997573
53	0x3d9f5a51	0.07780898
54	0x3ebc5e22	0.36790568
55	0x3e6b2a36	0.22965321
56	0xbe151163	-0.14557414
57	0xbe4e0c66	-0.20121917
58	0xbcb1a8a4	-0.02168686
59	0xbc85ab80	-0.01631713
60	0xbe7df6c4	-0.24801165
61	0x3eb42d94	0.35191023
62	0x3ed3043d	0.4121417
63	0x3eea4fc0	0.4576397

linear_hidden.0.weight f4 [64, 64]
0	0xbd75fce2	-0.06005562
1	0x3e3b70eb	0.18304794
2	0x3c1d61c2	0.009605827
3	0xbd63dc26	-0.05562987
4	0xbe326f88	-0.17425358
5	0x3dc2d98b	0.09514149
6	0x3db318c5	0.08744959
7	0xbcf9dd55	-0.030501047
8	0xbc6f0545	-0.014588659
9	0xbe0063d5	-0.12538083
10	0x3ebf13e4	0.37319863
11	0xbdcf2ade	-0.10115598
12	0x3d0ad246	0.03389194
13	0x3b626bae	0.0034549045
14	0xbd5fce30	-0.054639995
15	0x3d9f66be	0.077832684
16	0xbd08dbe6	-0.033412836
17	0x3db966f3	0.09052839
18	0xbde1d933	-0.110277556
19	0x3db26f8d	0.08712683
20	0x3dee6f44	0.11642316
21	0x3dec80ea	0.11548026
22	0x3dd27f67	0.10278206
23	0x3e275d08	0.16344082
24	0x3ea71a08	0.32637048
25	0xbdcb9434	-0.09940377
26	0x3d65447f	0.055973526
27	0x3d4258e4	0.047448054
28	0x3db65d43	0.08904507
29	0xbb996892	-0.004681655
30	0x3e1731ee	0.1476514
31	0xbe0cee5f	-0.13762806
32	0xbd1af253	-0.037828755
33	0x3ce6bb0a	0.028165359
34	0x3e45c4e4	0.19313389
35	0x3ce8ecb8	0.028433189
36	0x3da347df	0.07972693
37	0x3c81be9f	0.015837966
38	0x3d2aa436	0.04166051
39	0xbd851ddd	-0.064998366
40	0x3e759a8f	0.2398474
41	0x3e15f1ac	0.14642972
42	0xbe26d5ab	-0.16292445
43	0x3d51e6f8	0.05124566
44	0xbdfaf196	-0.1225311
45	0xbcb49b74	-0.022046782
46	0x3daaec78	0.08345884
47	0xbe038598	-0.1284393
48	0xbdb5c1da	-0.08874865
49	0x3d1fde97	0.039030638
50	0x3e925c52	0.2858606
51	0xbdc88da8	-0.09792644
52	0xbd863771	-0.06553543
53	0xbd7b0a7d	-0.0612893
54	0x3e3dc594	0.18532401
55	0xbe62259d	-0.22084661
56	0xbe95625a	-0.291766
57	0x3da094d5	0.078408875
58	0x3d7ec8ba	0.062203147
59	0xbee8a572	-0.45438725
60	0xbe469606	-0.19393167
61	0x3dd638d8	0.10460061
62	0x3d7de659	0.061987255
63	0xbcb8086d	-0.022464955
64	0xbc2e62fd	-0.010643718
65	0xbe9df4fc	-0.3085097
66	0x3ea55253	0.3228937
67	0x3e13f8fc	0.14450449
68	0x3dd2be7f	0.102902405
69	0x3e6b36e0	0.22970152
70	0x3d796fdf	0.060897704
71	0x3cdb96f8	0.026805386
72	0xbaee8ea6	-0.0018200472
73	0x3ec9b4dd	0.393958
74	0xbdb3269f	-0.08747601
75	0xbda77951	-0.08177436
76	0x3e476366	0.19471511
77	0xbd757e3a	-0.059934832
78	0x3ca190e8	0.019722417
79	0x3e3a11a4	0.18170792
80	0x3e0b209e	0.13586661
81	0x3d808e61	0.062771566
82	0xbe3b32d4	-0.18281108
83	0x3e93e64a	0.28886634
84	0x3da8efaf	0.08248841
85	0xbe223604	-0.15840918
86	0xbe21b85e	-0.15792987
87	0xbda390a1	-0.0798657
88	0x3ec96546	0.39335078
89	0x3db1ccca	0.086816385
90	0xbe3defea	-0.18548551
91	0x3e62c70e	0.22146246
92	0x3dade5e0	0.08491111
93	0x3cbd40cc	0.023102187
94	0x3dcb972e	0.099409446
95	0x3dcb49f3	0.09926214
96	0xbd8999f3	-0.067188166
97	0xbe00fb66	-0.12595901
98	0x3e33acb2	0.17546347
99	0xbddbfb5d	-0.10741303
100	0x3d875b52	0.06609215
101	0x3ce1149e	0.027475651
102	0x3e8b077b	0.27154145
103	0x3b89a53b	0.004200605
104	0x3eab495f	0.33454415
105	0xbd5bf1dc	-0.053697452
106	0x3dfe5797	0.1241905
107	0x3a8a0a5d	0.0010531653
108	0x3de56e5b	0.11202689
109	0xbe26837f	-0.162611
110	0x3d5238b2	0.0513236
111	0xbd6051b7	-0.05476543
112	0x3dcf678f	0.10127174
113	0x3de6aa72	0.112629786
114	0x3e52ae47	0.20574294
115	0xbd9ef6f6	-0.07761948
116	0x3e49d188	0.19708836
117	0xbd8a9691	-0.067669995
118	0x3f02da14	0.5111401
119	0x3dbbc832	0.091690436
120	0x3daa1a41	0.08305789
121	0xbe753fa7	-0.23950063
122	0x3cd82d75	0.026388863
123	0xbe554d8a	-0.2083036
124	0xbe8b0e20	-0.27159214
125	0xbd74d3f1	-0.059772436
126	0xbca7c76f	-0.02048084
127	0x3dc75f2e	0.09734951
128	0xbc983473	-0.018579697
129	0x3e889154	0.26673377
130	0x3e76161a	0.24031869
131	0x3de11152	0.10989632
132	0xbe4381bb	-0.19092457
133	0x3d2da2d5	0.042391617
134	0x3dbc4224	0.09192303
135	0xbc90d09f	-0.017677603
136	0xbdc988a0	-0.09840512
137	0x3d4ccffb	0.050003033
138	0x3ecd2393	0.40066203
139	0x3c4b8d59	0.012423837
140	0x3e790254	0.24317294
141	0xbd6ce392	-0.057834215
142	0x3c832d8f	0.016012935
143	0xbd14695b	-0.036233287
144	0xbd4065a0	-0.046971917
145	0x3db618e4	0.08891466
146	0xbe48c123	-0.19604926
147	0x3d53aea6	0.05168023
148	0x3e851c87	0.25998327
149	0x3d4ad597	0.0495201
150	0x3d74bcfa	0.059750535
151	0x3e1e0fa0	0.15435648
152	0x3edc9a72	0.43086582
153	0xbe6ff9b4	-0.23435098
154	0xbe11b24b	-0.1422817
155	0xbd5f50ee	-0.05452054
156	0x3ec6cd38	0.38828444
157	0xbe382249	-0.17981829
158	0x3cc1ba5e	0.023648437
159	0xbe15b348	-0.14619172
160	0xbd0eba53	-0.03484566
161	0x3d81e779	0.06342978
162	0x3eacf942	0.3378392
163	0xbe28cae8	-0.16483653
164	0x3ce1f05a	0.027580429
165	0x3cada8bb	0.021198621
166	0x3dc0166b	0.09379276
167	0x3ccc2c03	0.02492333
168	0x3e6fb953	0.2341054
169	0x3e40edf9	0.1884078
170	0xbc1abdbb	-0.009444649
171	0xbb1bcc81	-0.0023773017
172	0xbd52b259	-0.051439617
173	0xbda31785	-0.0796347
174	0x3e0e1fea	0.13879362
175	0xbc188dca	-0.009311149
176	0x3ba58085	0.005050721
177	0xbd1b4f92	-0.03791768
178	0x3ef0b18f	0.47010466
179	0x3d08b3c7	0.033374574
180	0x3dab4f37	0.083647184
181	0xbe3a35bf	-0.18184565
182	0x3e7f525f	0.24933766
183	0xbd85f397	-0.06540602
184	0xbe0bac59	-0.13639964
185	0x3d348ee6	0.04408159
186	0x3e00525b	0.12531416
187	0xbf0db176	-0.5534891
188	0xbc3fff1c	-0.011718538
189	0x3db1df57	0.08685177
190	0x3df234a9	0.118264504
191	0x3e71679d	0.23574682
192	0x3c1952df	0.009358137
193	0xbd8937ce	-0.06700097
194	0xbe76cce9	-0.24101605
195	0xbcf3c5d7	-0.029757423
196	0x3e3c8d3c	0.18413252
197	0xbe720b82	-0.23637202
198	0xbdf91acd	-0.12163315
199	0xbc800112	-0.01562551
200	0xbc8f8b33	-0.01752243
201	0xbe0a5e3d	-0.13512512
202	0xbe108612	-0.14113644
203	0xbd383c66	-0.044979475
204	0xbdc36987	-0.09541612
205	0x3d80770a	0.06272705
206	0x3c44e461	0.01201734
207	0x3e118c63	0.1421371
208	0x3e365688	0.17806447
209	0x3d640186	0.055665515
210	0x3e7161ec	0.2357251
211	0x3dd5ac26	0.10433225
212	0xbe23559f	-0.1595063
213	0x3cde5278	0.027138934
214	0x3e4efcf4	0.20213681
215	0xbdd3c105	-0.1033955
216	0xbec53fdd	-0.38525286
217	0x3eae3841	0.34027293
218	0x3abdc009	0.0014476787
219	0x3ddbe01a	0.10736103
220	0xbe5a9e3c	-0.21349424
221	0x3e5dc4b9	0.21657075
222	0x3d57902e	0.052627735
223	0x3cf8abb8	0.03035532
224	0x3dac130d	0.08402071
225	0x3cac6cc2	0.021047954
226	0xbe4b7fc0	-0.19872952
227	0x3e4ba6ef	0.19887899
228	0x3c047deb	0.008086662
229	0xbd2e7955	-0.04259618
230	0xbd4a8679	-0.04944465
231	0x3d739b9c	0.059474573
232	0xbe61b9ad	-0.22043486
233	0x3df56c8b	0.119835936
234	0xbd6260e9	-0.055268202
235	0x3dd45610	0.103679776
236	0x3dbe74e9	0.092996426
237	0x3b7b3ea9	0.003833691
238	0x3d63fe55	0.05566247
239	0x3d1f4311	0.03888232
240	0x3d9f1650	0.07767928
241	0x3b7ce38f	0.0038587784
242	0xbd2f4192	-0.042787142
243	0x3d98dad0	0.0746361
244	0xbe42b7f4	-0.19015485
245	0x3d94c1ab	0.07263502
246	0xbe2cc990	-0.16873765
247	0x3e8954df	0.26822564
248	0x3ea08306	0.31349963
249	0x3e1ee621	0.15517475
250	0xbcb517d6	-0.022106092
251	0x3edc6fba	0.4305399
252	0x3ea7021e	0.32618803
253	0x3be06526	0.0068479953
254	0xbc26cea7	-0.010181106
255	0xbe1cb748	-0.15304291

linear_hidden.0.bias f4 [64]
0	0x3db54286	0.08850579
1	0x3d81260a	0.063060835
2	0x3e0373fa	0.1283721
3	0x3d148250	0.03625709
4	0x3e254e9e	0.16143271
5	0xbd58b697	-0.052908506
6	0xbe1ed607	-0.15511332
7	0xbd4b6945	-0.04966094
8	0x3e336311	0.1751826
9	0x3d3745c7	0.04474428
10	0x3c19c441	0.0093851695
11	0x3e40a7d8	0.18814027
12	0xbe22619f	-0.15857552
13	0x3e81d36a	0.2535661
14	0x3dd056f7	0.10172837
15	0x3e005974	0.12534124
16	0x3cf40f68	0.029792503
17	0x3dd51dd0	0.10406077
18	0x3d93d6bb	0.07218691
19	0xbd96ca9e	-0.07362865
20	0xbd932ad6	-0.07185905
21	0x3d3cd976	0.046105824
22	0xbe3d714c	-0.1850025
23	0x3e06a38c	0.13148326
24	0xbd267f46	-0.04064872
25	0xbe03efc1	-0.12884428
26	0x3cdff2c5	0.027337441
27	0xbba61804	-0.005068781
28	0x3d8a5d44	0.0675607
29	0xbd1d7446	-0.038440965
30	0x3da80db2	0.08205737
31	0x3cf09327	0.029367043
32	0x3d31c013	0.043396067
33	0xbd66f1fc	-0.056383118
34	0x3c5319c6	0.012884563
35	0x3da45e25	0.08025769
36	0x3e2a8479	0.16652097
37	0x3e4b5a02	0.19858554
38	0xbd24d4af	-0.040241893
39	0x3e4ccf9c	0.20001072
40	0x3cf3ae16	0.029746097
41	0xbd208669	-0.039190684
42	0x3de64cfd	0.11245153
43	0xbddd7d16	-0.10814874
44	0xbac9139e	-0.0015340929
45	0x3d56ae9f	0.052412625
46	0x3df0f400	0.11765289
47	0x3e39a8a1	0.18130733
48	0x3e3a8813	0.1821597
49	0xbe012127	-0.12610303
50	0x3d0f1c7c	0.034939274
51	0x3e885416	0.26626652
52	0x3e432d3f	0.19060229
53	0x3da5523d	0.08072326
54	0xbc17a47b	-0.009255524
55	0xbd8aea8a	-0.06783016
56	0x3d83faf0	0.06444347
57	0x3e0406e7	0.12893258
58	0x3d6774b6	0.05650779
59	0x3d078584	0.033086315
60	0x3db83ad6	0.08995597
61	0x3e0c6b01	0.13712694
62	0x3dd10fc9	0.10208089
63	0xbd7a08a1	-0.061043385

linear_output.weight f4 [4, 64]
0	0xbc3f1fbf	-0.011665284
1	0x3cbed7b6	0.023296218
2	0xbd5cfcee	-0.05395215
3	0x3c435b30	0.011923596
4	0x3e3625ee	0.17787907
5	0xbdb05daa	-0.08611615
6	0xbda60de7	-0.081081204
7	0xbbd72a35	-0.0065663108
8	0xbc45d220	-0.0120740235
9	0x3bdf6579	0.0068175164
10	0xbc7d182e	-0.015447659
11	0x3d3e6b35	0.04648896
12	0x3eddfa80	0.4335518
13	0xbc206da7	-0.009791768
14	0x3c7f8b4b	0.015597175
15	0x3d6c4452	0.057682343
16	0x3d2e0f08	0.042494804
17	0x3d2874c3	0.041126978
18	0x3d25ff3a	0.040526606
19	0x3995b111	0.0002855142
20	0x3cc6b9a3	0.02425844
21	0xbd3ca67c	-0.04605721
22	0x3dd37a7a	0.10326095
23	0x3ddf02e3	0.108892225
24	0xbd2f94b2	-0.042866416
25	0xbc5847e8	-0.013200738
26	0xbd41aebf	-0.04728579
27	0x3cd83d94	0.02639655
28	0xbcd11e07	-0.025527013
29	0xbd198d4b	-0.037488263
30	0xbd81fb90	-0.0634681
31	0xbc214001	-0.00984192
32	0xbd4297ff	-0.047508236
33	0xbd1e739f	-0.038684484
34	0x3dcdadf7	0.10042947
35	0xbd934380	-0.07190609
36	0xbd5558f6	-0.052086793
37	0x3d4b3c07	0.049617793
38	0xbd9027f6	-0.07038872
39	0x3e2661a4	0.16248184
40	0xbcade530	-0.02122745
41	0xbd2b9396	-0.041888796
42	0x3c543503	0.012952092
43	0xbb0ad451	-0.002118368
44	0xbd651553	-0.05592854
45	0xbcf40bfd	-0.029790873
46	0xbd6412e9	-0.055682097
47	0x3d21c826	0.039497517
48	0x3cf3373e	0.029689427
49	0x37b1c6b7	2.1192578e-05
50	0xbdaf9fe4	-0.085754186
51	0xbce09924	-0.027416773
52	0xbdbaba18	-0.09117526
53	0xbbce552e	-0.0062967753
54	0xbd4994bf	-0.04921412
55	0xbce24372	-0.027620051
56	0x3dacffd0	0.0844723
57	0xbd2af8f5	-0.04174133
58	0xbd2159fb	-0.039392453
59	0xbd942ddd	-0.0723531
60	0xbd942703	-0.072340034
61	0xbe7e02ad	-0.24805708
62	0xbd9e4b8f	-0.077292554
63	0xbd2e17f1	-0.0425033
64	0x3d9a0b86	0.07521729
65	0x3d73c521	0.05951417
66	0x3d9030b5	0.0704054
67	0x3d95dcc9	0.07317502
68	0x3da7b6c3	0.08189156
69	0x3e393563	0.18086772
70	0x3d79b2b7	0.06096145
71	0x3d8800a0	0.06640744
72	0x3f22cd1e	0.63594234
73	0x3d784bf1	0.0606193
74	0x3d80b938	0.06285328
75	0x3e9bc1b3	0.30421218
76	0xbb43611c	-0.002981252
77	0x3ea76bdf	0.32699487
78	0x3e5d648d	0.21620388
79	0x3ed1c860	0.40973186
80	0x3e3b6f92	0.1830428
81	0x3dfa37db	0.12217685
82	0x3ede7a64	0.43452752
83	0x3d9820b0	0.0742811
84	0x3b176645	0.002310173
85	0x3d835d67	0.064142995
86	0x3d8ed35b	0.069739066
87	0x3ed5bdc6	0.41746348
88	0x3db2dfec	0.08734116
89	0x3db34629	0.08753616
90	0x3f810f7a	1.0082848
91	0x3d9b1a3f	0.075733654
92	0x3dae829c	0.085210055
93	0x3da28b56	0.079367325
94	0x3da89b77	0.082327776
95	0x3dd47fb3	0.10375919
96	0x3d80906f	0.062775485
97	0x3db7a0bc	0.089662045
98	0x3d998d93	0.07497706
99	0x3dd88d20	0.105737925
100	0x3d754ae4	0.059885874
101	0x3e78d73b	0.24300854
102	0x3d730d91	0.05933911
103	0x3dc82450	0.09772551
104	0x3d827e0f	0.063717
105	0x3da9c9b0	0.08290422
106	0x3d5bceb6	0.05366393
107	0x3ae67078	0.0017581126
108	0x3da0c580	0.0785017
109	0x3d8b8bca	0.06813772
110	0x3d857de0	0.065181494
111	0x3f19b54f	0.6004228
112	0x3eb80372	0.3594013
113	0x3a612de0	0.0008589905
114	0x3d785c0f	0.06063467
115	0x3f0b6bee	0.5446156
116	0x3d84ff31	0.064939864
117	0x3e504d6c	0.20342034
118	0x3d9eb333	0.07749023
119	0x3da81ed8	0.08209008
120	0x3dc3ab72	0.09554185
121	0x3d8aea75	0.067830004
122	0x3da2cfa5	0.07949761
123	0x3e7561b4	0.23963052
124	0x3dc7b940	0.097521305
125	0x3d7192d8	0.05897793
126	0x3f68a986	0.9088367
127	0x3d917834	0.07103005
128	0xbd8fa0e7	-0.070131116
129	0xbd960c40	-0.07326555
130	0xbdbb39fb	-0.09141918
131	0x3d7597fe	0.059959404
132	0xbc47658f	-0.01217021
133	0x3d9aa514	0.075510174
134	0xbe2d0bab	-0.16898982
135	0xbe5c4c4b	-0.21513478
136	0x3dd6cd13	0.104883336
137	0xbd96a677	-0.073559694
138	0xbdae05ff	-0.084972374
139	0x3d590310	0.052981436
140	0xbd6b9e56	-0.057524048
141	0x3c743d6f	0.014907225
142	0x3d0a8890	0.033821642
143	0x3d428e22	0.04749883
144	0xbd084eb2	-0.033278175
145	0xbdc47b75	-0.0959386
146	0x3e1d8bcc	0.1538536
147	0x3d8d063a	0.06885953
148	0x39989558	0.0002910297
149	0xbe25fcde	-0.16209742
150	0x3e5676b8	0.20943725
151	0x3d72c3c5	0.05926873
152	0x3bff4819	0.007790577
153	0x3d2f9126	0.042863034
154	0x3e8f34cc	0.27969968
155	0xbd1e1ab1	-0.038599674
156	0xbda240d9	-0.07922525
157	0xbef05a97	-0.46944115
158	0x3dc7b45c	0.09751198
159	0xbdaa1f75	-0.08306781
160	0xbe723a96	-0.23655161
161	0xbca9966e	-0.020701613
162	0x3d7da3e1	0.061923865
163	0xbc9419fa	-0.018078793
164	0xbdbd980e	-0.09257518
165	0x3c6d0c87	0.014468319
166	0xbe0bc80c	-0.1365053
167	0xbcae7fbf	-0.021301148
168	0x3ccee259	0.025254415
169	0x3c10e08a	0.008842597
170	0xbdbf2b90	-0.09334481
171	0xb9ce2ad5	-0.00039323294
172	0xbd903ce4	-0.07042864
173	0x3c2cd64b	0.010549138
174	0xbed24bc1	-0.4107342
175	0x3dcee957	0.101031
176	0x3e073370	0.13203216
177	0x3af328a8	0.0018551545
178	0xbeec589c	-0.46161354
179	0x3e18aeba	0.14910403
180	0xbc565f34	-0.013084222
181	0xbd2908c9	-0.041268144
182	0x3cd02760	0.0254094
183	0x3cf91d0a	0.030409355
184	0x3d19226c	0.037386343
185	0xbdbc138d	-0.091834165
186	0x3e10081f	0.14065598
187	0x3e36fe11	0.17870356
188	0xbcc5b976	-0.024136286
189	0x3c8633e9	0.016382175
190	0x3e8f415f	0.27979562
191	0xbdd9ecb1	-0.106408484
192	0xbcb4a870	-0.022052974
193	0xbe0aaf73	-0.13543491
194	0xbe202cfc	-0.1564216
195	0x3db987cf	0.090591066
196	0xbda3a6e8	-0.07990819
197	0x3e767f66	0.24072036
198	0x3e82d81c	0.25555503
199	0x3de0aa72	0.1097001
200	0xbe8ec246	-0.27882594
201	0xbe031ae7	-0.12803231
202	0xbc8dbac4	-0.01730097
203	0xbe44bdc3	-0.19213013
204	0xbebafac1	-0.36519435
205	0xbdad9572	-0.0847577
206	0x3ee8bb0c	0.45455205
207	0xbe473dbd	-0.19457145
208	0xbe17e54b	-0.14833562
209	0x3ecfa1db	0.40553173
210	0xbe10df5a	-0.14147702
211	0x3ddb6ba8	0.10713893
212	0x384f7f1b	4.9471022e-05
213	0x3e20f836	0.15719685
214	0x3de1deb6	0.11028807
215	0x3eee49ea	0.46540767
216	0x3dc7a0c8	0.097474635
217	0x3de9c12b	0.11413797
218	0x3e434636	0.19069752
219	0xbe015251	-0.12629057
220	0xbe50fd1b	-0.20409052
221	0x3e6be523	0.23036627
222	0x3dd23a8f	0.102650754
223	0xbdc28354	-0.09497705
224	0x3e0b5d84	0.13609892
225	0x3def2057	0.1167609
226	0x3da6609e	0.08123897
227	0x3e09befe	0.13451764
228	0xbe166782	-0.14687923
229	0xbe1d5df5	-0.15367873
230	0x3e3c0d41	0.18364431
231	0xbdcf9514	-0.10135856
232	0x3d95c4af	0.07312905
233	0x3dd25069	0.10269243
234	0xbe3d5344	-0.18488795
235	0x3ad7bd76	0.0016459662
236	0xbe5c92ca	-0.2154037
237	0x3d9c5fef	0.076354854
238	0x3ed1afca	0.4095443
239	0xbe3fcce6	-0.18730506
240	0xbe04209d	-0.12903066
241	0x3bf4806a	0.007461597
242	0x3e9ee56e	0.31034416
243	0xbd6da2af	-0.058016475
244	0xbcd87521	-0.026423039
245	0xbe19c1a2	-0.15015271
246	0x3df2f55b	0.11863204
247	0x3ddbd8fa	0.10734744
248	0x3d1a2a08	0.03763774
249	0xbe27b72e	-0.16378471
250	0x3dc8a1a1	0.09796453
251	0x3e7a2a96	0.24430308
252	0x3de79887	0.11308389
253	0x3e1ce9be	0.1532354
254	0x3e4a1d33	0.19737701
255	0x3dff6e41	0.12472201

linear_output.bias f4 [4]
0	0xbc20bb82	-0.00981033
1	0x3d6dd679	0.058065865
2	0xbcbd81fa	-0.023133267
3	0xbd1fb025	-0.038986344

exp_avg f4 [64, 13]
0	0xba2a513d	-0.0006497091
1	0x39ef4947	0.00045640228
2	0x3af66991	0.0018799772
3	0xb96f0802	-0.000227958
4	0xba2a1019	-0.0006487384
5	0x39f79cda	0.00047228375
6	0x3af528d9	0.001870419
7	0xb96e791c	-0.00022742565
8	0xba28e9f0	-0.0006443551
9	0x3a00cdb0	0.00049134623
10	0x3af34270	0.0018559229
11	0xb96e833c	-0.00022746337
12	0xb9dfaed1	-0.00042664123
13	0x3a4772ad	0.00076083356
14	0xb9ef569d	-0.00045650164
15	0xbb072512	-0.002062146
16	0x3988703e	0.00026023568
17	0x3a47e2a5	0.000762502
18	0xb9f50ee8	-0.00046741148
19	0xbb0520b9	-0.0020313694
20	0x39883a24	0.0002598326
21	0x3a48372a	0.00076376146
22	0xba00150d	-0.00048859493
23	0xbb030df1	-0.0019997323
24	0x39881f6f	0.0002596336
25	0x3a2362cf	0.000623268
26	0xbb320695	-0.0027164568
27	0x3aebe446	0.0017997108
28	0x3c06073b	0.008180435
29	0xba7eeeaf	-0.00097248977
30	0xbb3168ec	-0.0027070595
31	0x3aef7fe5	0.0018272368
32	0x3c05aab5	0.0081583755
33	0xba7e8913	-0.00097097567
34	0xbb2fe9e2	-0.0026842286
35	0x3af2e331	0.0018530843
36	0x3c054836	0.008134892
37	0xba7e76e6	-0.00097070483
38	0xbb5d0915	-0.0033727337
39	0xba8f0481	-0.0010911376
40	0x3a4253f6	0.0007413024
41	0x3b545b48	0.003240304
42	0xb9ca6fbc	-0.0003861169
43	0xba8e9ef0	-0.0010881107
44	0x3a47cc0d	0.00076216535
45	0x3b53adc1	0.003229961
46	0xb9ca175d	-0.0003854585
47	0xba8d3026	-0.0010771796
48	0x3a4de1fa	0.00078538025
49	0x3b53255b	0.003221831
50	0xb9ca00f1	-0.00038529144
51	0xba8afa2c	-0.0010603121
52	0xb84393ef	-4.6629397e-05
53	0x37cfa8ec	2.4754983e-05
54	0x38d7da4e	0.00010292661
55	0xb7547da8	-1.2665441e-05
56	0xb83df8be	-4.529277e-05
57	0x37c8a2ef	2.391773e-05
58	0x38d72fe1	0.00010260917
59	0xb753f55d	-1.2633708e-05
60	0xb8342527	-4.2949945e-05
61	0x37c8ccc2	2.3937206e-05
62	0x38d2efcb	0.00010058245
63	0xb75287fe	-1.2548639e-05
64	0x38d756bb	0.00010268154
65	0xbaa4896b	-0.0012553161
66	0x3a6cdf08	0.000903592
67	0x3b712565	0.003679597
68	0xb9e69f48	-0.00043987692
69	0xbaa5487f	-0.0012610106
70	0x3a79b0fa	0.0009524968
71	0x3b715cbf	0.0036828963
72	0xb9e63624	-0.00043909356
73	0xbaa4d9ef	-0.0012577156
74	0x3a83539a	0.0010019422
75	0x3b72194d	0.003694135
76	0xb9e62d77	-0.00043902893
77	0xbaaaca51	-0.0013030266
78	0xb6162363	-2.237234e-06
79	0x36ca4dea	6.0291395e-06
80	0xb6e92534	-6.948272e-06
81	0x35eb014c	1.7509242e-06
82	0xb63ff9ef	-2.8606698e-06
83	0x36e9aefd	6.9643124e-06
84	0xb6c2f239	-5.809849e-06
85	0x35eb2c5a	1.7521772e-06
86	0xb66823a6	-3.4591444e-06
87	0x3704a975	7.907268e-06
88	0xb69b44d1	-4.6273713e-06
89	0x35eb33cf	1.7523943e-06
90	0x37aab72e	2.0350879e-05
91	0xb7b98777	-2.21168e-05
92	0x3695fd35	4.470023e-06
93	0x38ade35e	8.291633e-05
94	0xb72699c2	-9.930171e-06
95	0xb7aee5ce	-2.0849428e-05
96	0x33e02b13	1.0438648e-07
97	0x38a2aca4	7.756919e-05
98	0xb7268603	-9.925573e-06
99	0xb7aa4edc	-2.0302301e-05
100	0xb6b69d21	-5.442315e-06
101	0x3898141f	7.251673e-05
102	0xb726489f	-9.911279e-06
103	0xb91b507c	-0.00014811935
104	0x3a67d1e7	0.00088432286
105	0xba1bb38d	-0.0005939536
106	0xbb2f4e01	-0.0026749375
107	0x39a75768	0.00031917845
108	0x3a66fdf3	0.0008811645
109	0xba1ea9ba	-0.0006052513
110	0xbb2ec664	-0.0026668543
111	0x39a71492	0.00031868048
112	0x3a64b725	0.00087248004
113	0xba216c42	-0.0006157794
114	0xbb2e47d2	-0.0026593101
115	0x39a70aee	0.00031860865
116	0x3a91feaa	0.0011138518
117	0xbad73690	-0.0016419459
118	0x3a96c8c1	0.0011503921
119	0x3b9c69c0	0.0047733486
120	0xba164428	-0.0005732202
121	0xbad811a9	-0.0016484755
122	0x3a9e443c	0.0012074779
123	0x3b9c4b25	0.0047697
124	0xba160065	-0.00057221047
125	0xbad76769	-0.0016434017
126	0x3aa5e2bd	0.0012656074
127	0x3b9c7863	0.0047750934
128	0xba15f8f7	-0.00057209976
129	0xbaf1b724	-0.0018441421
130	0xbb03c72d	-0.0020107732
131	0x3a9818a9	0.0011604029
132	0x3bd57a33	0.0065148114
133	0xba496e39	-0.0007683966
134	0xbb018158	-0.0019760933
135	0x3a8bee91	0.0010675957
136	0x3bd388c8	0.0064555146
137	0xba493824	-0.0007675907
138	0xbaff03ae	-0.0019456053
139	0x3a7d9721	0.0009673704
140	0x3bd09959	0.0063659367
141	0xba4928cd	-0.00076736213
142	0xbb570be6	-0.0032813489
143	0x3a56d43e	0.00081950787
144	0xba0583b5	-0.0005093173
145	0xbb24973d	-0.002511456
146	0x399d4745	0.00029998473
147	0x3a550292	0.0008125688
148	0xba036f0b	-0.00050138
149	0xbb239b33	-0.0024964332
150	0x399d0fc5	0.00029957123
151	0x3a526e78	0.00080273254
152	0xba00d5ef	-0.0004914691
153	0xbb225bf4	-0.0024774047
154	0x399d01f3	0.00029946826
155	0x3a99f82f	0.0011746938
156	0xb54d114a	-7.639361e-07
157	0x364b2b63	3.0274612e-06
158	0xb6199747	-2.2886832e-06
159	0x35311680	6.597038e-07
160	0xb57d6650	-9.439873e-07
161	0x36656cbe	3.4186955e-06
162	0xb603fd2f	-1.9667893e-06
163	0x353119ac	6.5974996e-07
164	0xb599ec76	-1.1468208e-06
165	0x3677ee31	3.6944514e-06
166	0xb5d522af	-1.5879831e-06
167	0x35312a49	6.599917e-07
168	0x36d07bee	6.2133104e-06
169	0x398a5c46	0.0002639016
170	0xb93e5369	-0.00018150885
171	0xba491e5a	-0.0007672064
172	0x38c5bfc5	9.429412e-05
173	0x398ae811	0.00026494314
174	0xb9445542	-0.00018723778
175	0xba475c78	-0.00076050265
176	0x38c55f55	9.411449e-05
177	0x398a2070	0.0002634558
178	0xb947736d	-0.00019021118
179	0xba460841	-0.00075543305
180	0x38c569a1	9.413367e-05
181	0x3a2715b9	0.00063737814
182	0xb9dd6172	-0.00042225007
183	0x398ebcf5	0.00027225135
184	0x3a9d4eb8	0.001200161
185	0xb91b1b40	-0.00014792103
186	0xb9ddefb4	-0.00042330998
187	0x39911abd	0.00027676477
188	0x3a9b7c28	0.0011862563
189	0xb91b0b19	-0.00014786086
190	0xb9ddcccd	-0.00042304993
191	0x399293f2	0.00027957518
192	0x3a998f87	0.0011715748
193	0xb91ae585	-0.00014772087
194	0xba1587a0	-0.00057041086
195	0xb681d266	-3.868993e-06
196	0xb612c880	-2.1872402e-06
197	0x37baee9b	2.2284037e-05
198	0xb63eb783	-2.8419024e-06
199	0xb65c1e9a	-3.2800367e-06
200	0xb665513d	-3.4170946e-06
201	0x37aff014	2.097342e-05
202	0xb63dfa99	-2.8309062e-06
203	0xb63196be	-2.6462799e-06
204	0xb6a47853	-4.9015885e-06
205	0x37a7d778	2.0008287e-05
206	0xb63dec1f	-2.8300635e-06
207	0xb83d5046	-4.5135872e-05
208	0xb9eecd65	-0.00045547928
209	0x398cab02	0.00026830292
210	0x3aa172da	0.0012317554
211	0xb91c4f1e	-0.00014906793
212	0xb9f09a35	-0.0004589126
213	0x39912db3	0.00027690604
214	0x3aa050f5	0.0012231158
215	0xb91c05cc	-0.00014879479
216	0xb9f12dd7	-0.00046001255
217	0x399673e8	0.00028696586
218	0x3a9f4280	0.0012150556
219	0xb91c04e4	-0.00014879141
220	0xb9840db6	-0.00025187217
221	0xb9849ae6	-0.0002529241
222	0x39420867	0.00018504412
223	0x3a52aafd	0.00080363435
224	0xb8bcebd0	-9.008462e-05
225	0xb983a601	-0.0002510995
226	0x394c8de9	0.00019507822
227	0x3a5537d5	0.0008133625
228	0xb8bc9d82	-8.993877e-05
229	0xb97ec7a8	-0.00024297705
230	0x39524307	0.0002005213
231	0x3a5956ff	0.00082908565
232	0xb8bcbf7a	-9.000204e-05
233	0xba7176a8	-0.00092111016
234	0x3ac8cf0f	0.0015320497
235	0xba7fa4bf	-0.0009752027
236	0xbb99e90e	-0.0046969717
237	0x3a12bdff	0.00055977696
238	0x3ac7108b	0.0015187425
239	0xba7c23fd	-0.00096184
240	0xbb990368	-0.0046695955
241	0x3a128a3b	0.0005590056
242	0x3ac4c40d	0.0015012041
243	0xba77d92b	-0.0009454663
244	0xbb97c923	-0.0046321317
245	0x3a127db6	0.00055881904
246	0x3b076912	0.0020661992
247	0xbae8aa6c	-0.0017750985
248	0x3aa204bf	0.0012361034
249	0x3bad1322	0.005281822
250	0xba255633	-0.0006307095
251	0xbae8674e	-0.0017730983
252	0x3aa77eda	0.0012778894
253	0x3bac994c	0.005267298
254	0xba250bf8	-0.0006296034
255	0xbae68d41	-0.0017589704

exp_avg_sq f4 [64, 13]
0	0x3532a101	6.654446e-07
1	0x3486c8aa	2.5105447e-07
2	0x36bc40fb	5.6104013e-06
3	0x33a5a63c	7.713649e-08
4	0x353413cb	6.708403e-07
5	0x34870ebd	2.5156433e-07
6	0x36bb6eeb	5.585947e-06
7	0x33a575d0	7.704841e-08
8	0x3534b003	6.7311356e-07
9	0x3483ed24	2.4573194e-07
10	0x36ba6101	5.5545247e-06
11	0x33a5871e	7.707989e-08
12	0x35c04c15	1.4327258e-06
13	0x35ea6892	1.7464793e-06
14	0x3526af3d	6.2094824e-07
15	0x3771231e	1.4372896e-05
16	0x3456319b	1.994835e-07
17	0x35edc643	1.7715578e-06
18	0x35280f46	6.26071e-07
19	0x37707b1e	1.433378e-05
20	0x34560def	1.9935372e-07
21	0x35f267b4	1.8060587e-06
22	0x3527e37b	6.2543376e-07
23	0x376fa40d	1.4283706e-05
24	0x34561ced	1.9940826e-07
25	0x35dcb08e	1.6442661e-06
26	0x36d3181e	6.2910976e-06
27	0x36259277	2.467217e-06
28	0x386910b1	5.5567074e-05
29	0x354b4467	7.572293e-07
30	0x36d30b36	6.289595e-06
31	0x3623b5c3	2.4394692e-06
32	0x38683ccc	5.5369732e-05
33	0x354b17f1	7.565823e-07
34	0x36d208b4	6.259501e-06
35	0x361f5a06	2.3745247e-06
36	0x38669d6b	5.498288e-05
37	0x354b23c0	7.5675416e-07
38	0x3776d105	1.4711409e-05
39	0x35c03e94	1.4323327e-06
40	0x350fccfa	5.356993e-07
41	0x3752d25f	1.2565956e-05
42	0x343890ae	1.718897e-07
43	0x35bfc5f1	1.4288217e-06
44	0x350c25aa	5.220887e-07
45	0x37519887	1.2492884e-05
46	0x343861de	1.7171939e-07
47	0x35beab56	1.4205968e-06
48	0x350640af	5.0013017e-07
49	0x374f8005	1.2367968e-05
50	0x34386ebe	1.7176623e-07
51	0x368fb08b	4.2822844e-06
52	0x33b1dacc	8.282004e-08
53	0x32f2083e	2.8176256e-08
54	0x353fcbce	7.144962e-07
55	0x3223720d	9.513781e-09
56	0x33b39f82	8.364351e-08
57	0x32f4db8a	2.8505173e-08
58	0x35408589	7.1719893e-07
59	0x32234716	9.504012e-09
60	0x33b5dcb8	8.468618e-08
61	0x32f6ae75	2.8717503e-08
62	0x3541642d	7.204388e-07
63	0x322354d5	9.507137e-09
64	0x339cb8a7	7.297904e-08
65	0x36132371	2.1925337e-06
66	0x355d1f32	8.237431e-07
67	0x37a08703	1.9136356e-05
68	0x348c4fc6	2.6135075e-07
69	0x36135180	2.1952146e-06
70	0x355ae472	8.154376e-07
71	0x379fc72d	1.9047025e-05
72	0x348c2f64	2.6111513e-07
73	0x36133645	2.1936296e-06
74	0x3555f29a	7.9701715e-07
75	0x379e886b	1.8898592e-05
76	0x348c3a69	2.611953e-07
77	0x36b4f175	5.3925273e-06
78	0x30e270ab	1.6475686e-09
79	0x31b6d37b	5.3209397e-09
80	0x31f57c25	7.144552e-09
81	0x2fc4c1ca	3.5789888e-10
82	0x31007e1a	1.8698132e-09
83	0x31ebfab4	6.867902e-09
84	0x31b8ff4c	5.3841287e-09
85	0x2fc4770f	3.5736789e-10
86	0x31220574	2.3577202e-09
87	0x3216a902	8.769577e-09
88	0x318acefa	4.039859e-09
89	0x2fc41205	3.5664996e-10
90	0x33569e21	4.9969575e-08
91	0x31a6a45c	4.8499214e-09
92	0x30924b3f	1.0644284e-09
93	0x3332c86a	4.162613e-08
94	0x30495c56	7.325459e-10
95	0x31a29f5c	4.7329376e-09
96	0x30cddfe7	1.497935e-09
97	0x331f3d4d	3.7075825e-08
98	0x30494be9	7.323125e-10
99	0x31a8592b	4.8995807e-09
100	0x31239623	2.3804965e-09
101	0x330d3500	3.2877324e-08
102	0x3049405c	7.3214834e-10
103	0x340ee6ed	1.3308791e-07
104	0x35511478	7.7888353e-07
105	0x34a04c31	2.985776e-07
106	0x36e7f5a3	6.9129323e-06
107	0x33ca7ba1	9.428846e-08
108	0x3550d8ab	7.780133e-07
109	0x349e3888	2.9470925e-07
110	0x36e73197	6.8901095e-06
111	0x33ca4db8	9.420495e-08
112	0x354faf98	7.736903e-07
113	0x3499ca6f	2.864576e-07
114	0x36e5bf6f	6.8470176e-06
115	0x33ca59e7	9.422711e-08
116	0x35fc5eed	1.880309e-06
117	0x367a4bf5	3.7297116e-06
118	0x35bb6739	1.3962627e-06
119	0x38095a83	3.274764e-05
120	0x34f02852	4.473282e-07
121	0x367a2ce2	3.7279028e-06
122	0x35b87a58	1.3744675e-06
123	0x3808b5f5	3.2594387e-05
124	0x34efeec3	4.469094e-07
125	0x3679386a	3.7136729e-06
126	0x35b2e0da	1.3327474e-06
127	0x3807a3fe	3.2339238e-05
128	0x34f0021d	4.470502e-07
129	0x372f5e8f	1.0452829e-05
130	0x36c50c34	5.872478e-06
131	0x3604c83c	1.9786085e-06
132	0x385d9408	5.282837e-05
133	0x35437d10	7.282515e-07
134	0x36c410e4	5.8432215e-06
135	0x3600b0d1	1.9176407e-06
136	0x385c3ab4	5.250676e-05
137	0x35435e8a	7.2780733e-07
138	0x36c32035	5.8152023e-06
139	0x35f806e0	1.8479441e-06
140	0x385a32cb	5.2022555e-05
141	0x3543641b	7.2788833e-07
142	0x3788d222	1.6310314e-05
143	0x3541b4aa	7.2161004e-07
144	0x3497417f	2.8173596e-07
145	0x36d975bb	6.4808096e-06
146	0x33bd8f16	8.8270255e-08
147	0x354165b4	7.20461e-07
148	0x34966469	2.8012735e-07
149	0x36d8ef0f	6.4651317e-06
150	0x33bd6ca2	8.8207585e-08
151	0x354048ef	7.1631706e-07
152	0x34941215	2.7580305e-07
153	0x36d7d0aa	6.431791e-06
154	0x33bd74ed	8.822267e-08
155	0x35ceb1fb	1.5399995e-06
156	0x2e221d38	3.6860487e-11
157	0x2ffb175f	4.567324e-10
158	0x2fb6157e	3.3120878e-10
159	0x2dd31fbc	2.4002016e-11
160	0x2e4ad0a0	4.611478e-11
161	0x301e7c00	5.765628e-10
162	0x2f84143a	2.4025032e-10
163	0x2dd336c1	2.4012238e-11
164	0x2e88de19	6.2240164e-11
165	0x303beb15	6.8364275e-10
166	0x2f38ce3e	1.6807974e-10
167	0x2dd372e3	2.4038943e-11
168	0x31724207	3.5253167e-09
169	0x3464d4ac	2.1311524e-07
170	0x33a4f3a4	7.681163e-08
171	0x3600d4ed	1.9197425e-06
172	0x32e013ff	2.6086125e-08
173	0x34646e41	2.1274265e-07
174	0x33a1e7df	7.539324e-08
175	0x3600d996	1.9200138e-06
176	0x32dfe872	2.606632e-08
177	0x3463368f	2.1160871e-07
178	0x339c1ad7	7.269198e-08
179	0x3600b94f	1.918135e-06
180	0x32dff44f	2.6071715e-08
181	0x34cb799f	3.7900188e-07
182	0x35273938	6.229561e-07
183	0x348020e5	2.3865792e-07
184	0x36bee2be	5.6888375e-06
185	0x33ab2d09	7.971e-08
186	0x3525eba5	6.18102e-07
187	0x3487eec5	2.5319437e-07
188	0x36bc4e3f	5.6119457e-06
189	0x33ab0d6a	7.965248e-08
190	0x352619d5	6.187741e-07
191	0x34958f90	2.7857868e-07
192	0x36b95623	5.5234573e-06
193	0x33ab18c3	7.967312e-08
194	0x36322c8d	2.655e-06
195	0x2ffcd925	4.5992823e-10
196	0x30058b64	4.8583204e-10
197	0x31a7f6d3	4.8884004e-09
198	0x2ef0ac7a	1.09445744e-10
199	0x2ffbdd4a	4.581387e-10
200	0x303d0717	6.8767875e-10
201	0x318ee60e	4.158898e-09
202	0x2ef05172	1.0928404e-10
203	0x300c9da9	5.115575e-10
204	0x3085ea39	9.743594e-10
205	0x31740d0e	3.5514094e-09
206	0x2ef0b5f6	1.0946259e-10
207	0x32bd8eda	2.2067457e-08
208	0x34e9aa28	4.3523437e-07
209	0x342a0fcb	1.5838229e-07
210	0x36724422	3.6100469e-06
211	0x335467bf	4.9454453e-08
212	0x34ec12ae	4.3972017e-07
213	0x34299b70	1.57959e-07
214	0x36713e4e	3.5948065e-06
215	0x335428b3	4.9397112e-08
216	0x34edb08b	4.4273142e-07
217	0x34248d04	1.5324991e-07
218	0x366fe0ca	3.574462e-06
219	0x335439df	4.941273e-08
220	0x3583ad78	9.810747e-07
221	0x33dfad76	1.0415799e-07
222	0x3390b112	6.7377314e-08
223	0x3589546a	1.0231863e-06
224	0x32993885	1.7837246e-08
225	0x33dd35c9	1.0300898e-07
226	0x33c8435b	9.3254776e-08
227	0x357ddaee	9.456843e-07
228	0x329929f3	1.783062e-08
229	0x33eb1822	1.094743e-07
230	0x340d6072	1.3166735e-07
231	0x356a6d70	8.7331046e-07
232	0x32994b71	1.7845851e-08
233	0x35bf88a7	1.427038e-06
234	0x363f42b1	2.8500037e-06
235	0x35936047	1.0980374e-06
236	0x37d728bf	2.5648971e-05
237	0x34bb3d48	3.4876052e-07
238	0x363efc0b	2.8458915e-06
239	0x359234f8	1.0893264e-06
240	0x37d6b4be	2.5594953e-05
241	0x34bb1d80	3.4852928e-07
242	0x363e0c76	2.831946e-06
243	0x358f7f20	1.0691328e-06
244	0x37d5af7c	2.5473295e-05
245	0x34bb2540	3.4858567e-07
246	0x36b59fdb	5.41283e-06
247	0x364c290a	3.0422257e-06
248	0x35993705	1.1415401e-06
249	0x37e05a0b	2.674481e-05
250	0x34c471c1	3.6590612e-07
251	0x364bcb97	3.0367862e-06
252	0x3595e54d	1.11681e-06
253	0x37df2472	2.6600643e-05
254	0x34c4406e	3.6554724e-07
255	0x364a8c6d	3.0182084e-06

exp_avg f4 [64]
0	0xbaaa445d	-0.0012990345
1	0x3ac24821	0.0014822521
2	0xbbb560ad	-0.0055352063
3	0xbb100857	-0.0021977627
4	0xb89789dc	-7.2259194e-05
5	0xbb2402e7	-0.0025026144
6	0x3727f93b	1.0012004e-05
7	0xb86d4bcc	-5.6575795e-05
8	0x3aee1fc5	0.0018167427
9	0xbb55c1bc	-0.0032616695
10	0xbb8f6917	-0.0043765414
11	0x3adfe36b	0.0017081326
12	0x367cf7fe	3.7695277e-06
13	0x3a0cb030	0.000536683
14	0xba5cfce0	-0.00084300153
15	0xb7875500	-1.6132835e-05
16	0xba5ec31a	-0.00084977003
17	0xba063db6	-0.000512089
18	0x3b50e02c	0.0031871898
19	0xbb6b3c13	-0.0035893961
20	0xbb6c62d8	-0.0036069658
21	0x3b003459	0.0019562452
22	0x3ad90ad9	0.0016559019
23	0xbb2f076e	-0.002670731
24	0xb86ab5b1	-5.595916e-05
25	0xb8e2afba	-0.000108092514
26	0x3b0a95db	0.002114645
27	0xb8b036c4	-8.402535e-05
28	0xb8bf06f0	-9.108882e-05
29	0x3b10d11b	0.0022097293
30	0xbb3efd1d	-0.0029142566
31	0x38f08ba6	0.00011470103
32	0x39c30d11	0.00037203034
33	0xbaa4e9c1	-0.0012581871
34	0xbbb5d2f0	-0.0055488274
35	0x3b0fb20f	0.00219262
36	0xbb588f0b	-0.0033044245
37	0xbb0e827f	-0.0021745262
38	0xb93a76e6	-0.00017782635
39	0x3afb7017	0.0019183186
40	0xb696bea7	-4.492543e-06
41	0xb992573f	-0.00027912293
42	0x30010407	4.693565e-10
43	0xbae4172d	-0.0017401926
44	0xb7ed3cf5	-2.8280987e-05
45	0x3b1039bd	0.002200707
46	0xb97ec307	-0.00024295981
47	0x3a9c05df	0.0011903605
48	0xba079a8a	-0.00051728694
49	0xba001553	-0.000488599
50	0xbb14c32f	-0.0022699346
51	0x3ab34617	0.0013677505
52	0x364730d6	2.9681737e-06
53	0x3a431315	0.0007441503
54	0xb9a9c011	-0.00032377293
55	0xb8442add	-4.676996e-05
56	0xb8cf0aa7	-9.872513e-05
57	0x3b56fc27	0.0032804103
58	0x390514c5	0.00012691606
59	0xba83eab1	-0.001006445
60	0x3a2eca3f	0.000666771
61	0xbb4b5c3a	-0.0031030313
62	0xbb1c0830	-0.002380859
63	0xbb0f0ec0	-0.002182886

exp_avg_sq f4 [64]
0	0x3627cc72	2.5003942e-06
1	0x36d8ea68	6.46459e-06
2	0x37cdec30	2.4547888e-05
3	0x36bb0158	5.5731907e-06
4	0x34a56c49	3.0812433e-07
5	0x370e2881	8.47329e-06
6	0x324794f7	1.1617195e-08
7	0x32cc99c4	2.381865e-08
8	0x364d1f08	3.0565443e-06
9	0x37735100	1.4502788e-05
10	0x37c60868	2.3607354e-05
11	0x36400658	2.8613922e-06
12	0x30573b97	7.8301227e-10
13	0x3562f415	8.4546747e-07
14	0x362d7bb3	2.5851011e-06
15	0x31749d77	3.5596182e-09
16	0x35d72568	1.6029635e-06
17	0x351b9981	5.796538e-07
18	0x373da9a8	1.1304779e-05
19	0x374708a9	1.1863341e-05
20	0x376d2866	1.4135707e-05
21	0x36b6e602	5.450799e-06
22	0x36851298	3.9658735e-06
23	0x37233ac8	9.729243e-06
24	0x36167f3f	2.2425809e-06
25	0x356499fc	8.5160696e-07
26	0x360d350d	2.1041517e-06
27	0x358b3529	1.0371779e-06
28	0x3537dcbb	6.849402e-07
29	0x36687212	3.4637092e-06
30	0x37079513	8.081336e-06
31	0x34d37f59	3.939447e-07
32	0x348c0904	2.6083592e-07
33	0x35d085de	1.5536168e-06
34	0x37c8cdde	2.3937722e-05
35	0x3680c129	3.837184e-06
36	0x3720fc9f	9.595561e-06
37	0x365f560a	3.327967e-06
38	0x33b54e82	8.44275e-08
39	0x3692e837	4.3781724e-06
40	0x369e3405	4.714823e-06
41	0x36a74ff2	4.9862947e-06
42	0x2e0183c3	2.9448232e-11
43	0x362c66ce	2.5689837e-06
44	0x351b7968	5.791867e-07
45	0x36c473cb	5.8547353e-06
46	0x3438ad6d	1.7199427e-07
47	0x358fe970	1.072227e-06
48	0x356824bd	8.6480196e-07
49	0x34fe1062	4.7323107e-07
50	0x36f9a14c	7.4395557e-06
51	0x367c9d5d	3.7642524e-06
52	0x3064e196	8.3266494e-10
53	0x350d14d8	5.2556925e-07
54	0x35492ddc	7.494507e-07
55	0x35af4154	1.3057529e-06
56	0x349bf464	2.9048817e-07
57	0x3737d3b2	1.0956939e-05
58	0x35ee7933	1.7767655e-06
59	0x367d4b41	3.7743741e-06
60	0x364a6c49	3.0163376e-06
61	0x3709025b	8.166385e-06
62	0x36c1854a	5.767365e-06
63	0x36833c59	3.9111296e-06

exp_avg f4 [64, 64]
0	0x3710f8a5	8.640961e-06
1	0x379e2517	1.8852339e-05
2	0xb81fad2b	-3.806983e-05
3	0xb79d032c	-1.8717335e-05
4	0x37a9cff0	2.0243198e-05
5	0xb8221630	-3.8644474e-05
6	0x367b0d02	3.7409486e-06
7	0xb6e913bb	-6.946238e-06
8	0x37592300	1.2942357e-05
9	0xb81a95a5	-3.685583e-05
10	0xb7c35a4c	-2.328786e-05
11	0x36f51025	7.3034485e-06
12	0x35c6ef6f	1.4821834e-06
13	0x36db5220	6.536269e-06
14	0xb78ad3c6	-1.6549497e-05
15	0x3694e260	4.4370972e-06
16	0x36cc6f29	6.0926145e-06
17	0xb7efead4	-2.860037e-05
18	0x37756aa1	1.4627964e-05
19	0xb7937983	-1.7580349e-05
20	0xb7a61b8c	-1.980157e-05
21	0x3720ef37	9.59244e-06
22	0x37275a7d	9.975044e-06
23	0xb799ac89	-1.8319364e-05
24	0xb813777a	-3.5158802e-05
25	0xb52215db	-6.0381507e-07
26	0x36b38c47	5.350946e-06
27	0xb65798ad	-3.2126366e-06
28	0xb814f0d5	-3.5510242e-05
29	0x3724a403	9.813349e-06
30	0xb7898e1d	-1.639785e-05
31	0xb67e08a6	-3.7853983e-06
32	0xb6e90ed8	-6.945669e-06
33	0xb72cbff0	-1.0296688e-05
34	0xb7972d42	-1.8021678e-05
35	0x37825eb1	1.5541302e-05
36	0xb7dd34c2	-2.636982e-05
37	0xb5acc589	-1.2872489e-06
38	0xb7938a41	-1.7588145e-05
39	0xb6d6da78	-6.40313e-06
40	0xb7cf81e3	-2.4736806e-05
41	0xb71eed8b	-9.472841e-06
42	0x311cef60	2.2837057e-09
43	0x3729c6bf	1.0119459e-05
44	0x37c64968	2.3637622e-05
45	0x3777a93f	1.4761753e-05
46	0xb7a9c940	-2.0240084e-05
47	0x3747e465	1.1914502e-05
48	0x370fb125	8.564709e-06
49	0xb7a43607	-1.9575482e-05
50	0xb7eeaa64	-2.8451155e-05
51	0x376d3661	1.4138962e-05
52	0x36604274	3.3417282e-06
53	0x370c4976	8.361754e-06
54	0xb7fc0239	-3.0041776e-05
55	0xb6899fb4	-4.10151e-06
56	0x370c9d7d	8.381318e-06
57	0x3750da49	1.244859e-05
58	0xb6df72ae	-6.6592684e-06
59	0x3803ba3e	3.1406285e-05
60	0x377e67e5	1.516377e-05
61	0xb774c477	-1.4589276e-05
62	0xb78dab1d	-1.688819e-05
63	0xb82cdffa	-4.121659e-05
64	0x3864d6fd	5.455966e-05
65	0x36c4f8c2	5.8702144e-06
66	0x36739657	3.629733e-06
67	0x384baeaa	4.856164e-05
68	0x3784ba4d	1.582238e-05
69	0xb80f9ead	-3.4241635e-05
70	0x36870344	4.0236937e-06
71	0xb67f1258	-3.8008639e-06
72	0xb639b2b9	-2.7671178e-06
73	0xb74eebf4	-1.2333494e-05
74	0xb5da53c0	-1.626664e-06
75	0xb6076249	-2.0173777e-06
76	0x35d5225c	1.5879737e-06
77	0x374d9163	1.2252803e-05
78	0x36a54204	4.9250684e-06
79	0x36ab5c5e	5.10695e-06
80	0x38094a35	3.2732456e-05
81	0xb80889a3	-3.255311e-05
82	0xb79f651a	-1.9001356e-05
83	0x37dc7b90	2.6283582e-05
84	0x378fd809	1.7147528e-05
85	0xb7daff05	-2.6106378e-05
86	0xb7aed4e1	-2.0841546e-05
87	0x36f53374	7.307559e-06
88	0xb761c0c6	-1.3455929e-05
89	0x36d39d93	6.306634e-06
90	0x376130e3	1.3422427e-05
91	0xb863449b	-5.418491e-05
92	0xb7935c8b	-1.756686e-05
93	0x35d3d855	1.5783686e-06
94	0x381df34d	3.765831e-05
95	0xb52334eb	-6.079924e-07
96	0x37842909	1.5754735e-05
97	0x385baca4	5.2374453e-05
98	0x36fd5d0e	7.5508206e-06
99	0xb788777b	-1.62681e-05
100	0x380515f8	3.173013e-05
101	0x37c235c1	2.3151633e-05
102	0xb765da49	-1.3700287e-05
103	0xb82e7ab4	-4.159911e-05
104	0xb793b9e9	-1.7610337e-05
105	0x37aa8d62	2.0331416e-05
106	0x3129ca56	2.4707751e-09
107	0x3814cdc0	3.547757e-05
108	0x37df48fd	2.661766e-05
109	0xb6770524	-3.680886e-06
110	0xb7026664	-7.7724435e-06
111	0x3815b56b	3.5693327e-05
112	0x380b8ce2	3.327139e-05
113	0x37c66b00	2.3653265e-05
114	0xb75f2736	-1.3300965e-05
115	0x36b80d79	5.4851957e-06
116	0x3670bf8a	3.5874277e-06
117	0x35ae857c	1.3002859e-06
118	0xb7967926	-1.7937808e-05
119	0x36c4e08d	5.8673963e-06
120	0x375099ff	1.2433621e-05
121	0xb80320af	-3.1263273e-05
122	0xb7d0221b	-2.4811414e-05
123	0x38178869	3.6128247e-05
124	0xb8494b7b	-4.799243e-05
125	0x38115c0d	3.4656423e-05
126	0x380dd31a	3.3813623e-05
127	0xb86a9927	-5.593258e-05
128	0xb92fe76a	-0.00016775509
129	0xb5c5b462	-1.4730142e-06
130	0xb9b8770c	-0.00035183912
131	0xb9b23b3b	-0.00033994936
132	0x37dab722	2.6072903e-05
133	0xb9ed14e3	-0.00045219724
134	0x36a3b271	4.878552e-06
135	0xb741d8f9	-1.1554214e-05
136	0xba3bb5f5	-0.00071605976
137	0xb9e43a0c	-0.00043530797
138	0xb99ca239	-0.00029875504
139	0xba0a0bcc	-0.000526604
140	0x3601c0ef	1.93348e-06
141	0xb9187ee4	-0.0001454312
142	0xb9025f83	-0.00012433347
143	0x36b99c02	5.5315913e-06
144	0xb8d984e4	-0.00010372119
145	0xb8d50da2	-0.00010159171
146	0xb9cbf316	-0.0003890029
147	0xb964df4c	-0.00021826959
148	0xb9ac30af	-0.0003284267
149	0xb9b3178e	-0.0003415909
150	0xb9bcfbcc	-0.00036045758
151	0xb9537788	-0.00020167057
152	0xb8da9ef8	-0.0001042466
153	0xb4c2cd1e	-3.6284558e-07
154	0xb8af2639	-8.35177e-05
155	0xb8d104b7	-9.966775e-05
156	0xb8c06d8f	-9.17568e-05
157	0xb9e1dab8	-0.00043078302
158	0xb9b79886	-0.0003501812
159	0xb70239c7	-7.762056e-06
160	0xb923086d	-0.0001554803
161	0xb9be670b	-0.00036316397
162	0xb92dae88	-0.00016563584
163	0xb9b2b39e	-0.0003408463
164	0xb9965084	-0.00028670218
165	0xb8b20dfd	-8.490307e-05
166	0xb84084ea	-4.5900153e-05
167	0xba02d059	-0.00049901527
168	0xb8ccf393	-9.772847e-05
169	0xb9cd4bb9	-0.00039157065
170	0x314c8594	2.9761837e-09
171	0xb8e510b9	-0.00010922686
172	0xb809965d	-3.2803382e-05
173	0xba163f26	-0.0005731456
174	0xb8bd8205	-9.03644e-05
175	0xb99285d7	-0.00027947008
176	0xb8b99f1b	-8.851123e-05
177	0xb995192f	-0.00028438258
178	0xb8c574de	-9.41546e-05
179	0xb98ec020	-0.00027227495
180	0x36925288	4.360747e-06
181	0x3767e42a	1.38217965e-05
182	0xb8a5b111	-7.900794e-05
183	0xb73da8ac	-1.130455e-05
184	0x374a86c0	1.2071512e-05
185	0xb9cad55c	-0.00038687408
186	0xb9994448	-0.00029233308
187	0x381ff918	3.814054e-05
188	0xb8852248	-6.3483196e-05
189	0xb990136c	-0.0002748029
190	0xb9ae928f	-0.0003329706
191	0xb9da7ae5	-0.00041671764
192	0x389922a8	7.302064e-05
193	0x35066c25	5.007626e-07
194	0x38e992f5	0.00011137679
195	0x390b0be6	0.00013260506
196	0xb7a56faa	-1.972153e-05
197	0x390af647	0.00013252451
198	0xb28d6bd8	-1.6463602e-08
199	0x34e7c9ed	4.3174023e-07
200	0x39991c2a	0.00029203418
201	0x390c2a7a	0.00013367264
202	0x38edfbed	0.000113479655
203	0x395f089b	0.00021270143
204	0xb1fbba50	-7.3262427e-09
205	0x389cef73	7.4832606e-05
206	0x381342e3	3.5109824e-05
207	0x31a36123	4.7549675e-09
208	0x3809af64	3.282669e-05
209	0x362a61ea	2.5388968e-06
210	0x39229acf	0.00015507195
211	0x38a77bbf	7.98623e-05
212	0x390afee9	0.00013255667
213	0x390e3a55	0.00013563906
214	0x391a0501	0.00014688449
215	0x389f7c11	7.60482e-05
216	0x36b6c863	5.4473508e-06
217	0xb6fc656b	-7.521992e-06
218	0x3823cb48	3.905155e-05
219	0xb794a68c	-1.772053e-05
220	0x36ee2595	7.097328e-06
221	0x393739ff	0.00017473845
222	0x3917cb41	0.000144762
223	0xb5738b9b	-9.0727707e-07
224	0x38801cd0	6.1088824e-05
225	0x3922e5d7	0.00015535146
226	0x3880f704	6.149526e-05
227	0x39120826	0.0001392668
228	0x38d7c719	0.00010289084
229	0x380b8522	3.3264172e-05
230	0x3691ee7a	4.349099e-06
231	0x3932d15d	0.00017053397
232	0xb5ca0500	-1.5051628e-06
233	0x392b136b	0.00016315065
234	0xac1c39eb	-2.2201084e-12
235	0x382e01db	4.148656e-05
236	0x37012099	7.696589e-06
237	0x3975008b	0.00023365223
238	0x37c236c5	2.3152106e-05
239	0x3912cb83	0.00013999459
240	0x37e9c256	2.786626e-05
241	0x38e710e7	0.00011018087
242	0x3660ec78	3.3516244e-06
243	0x3905984a	0.000127406
244	0xb07d5130	-9.215624e-10
245	0xb70a5480	-8.245115e-06
246	0x36ef6163	7.1340924e-06
247	0xb70380ce	-7.838198e-06
248	0xb7447936	-1.1710732e-05
249	0x391ebfce	0.00015139507
250	0x38cf13b1	9.874197e-05
251	0xb7eb1e82	-2.802839e-05
252	0xb7e95c9c	-2.7818889e-05
253	0x38e998b2	0.000111387475
254	0x391069b1	0.00013772283
255	0x38ede3d0	0.00011343474
