src/scripts/weights/HER_VFC2L256_PFC2L64_b(curr best)/critic_best.pth (torch, 853167 bytes, 15 tensors)

linear_input.weight f4 [256, 17]
000000 3e 02 11 bd 0b fb 20 bd 6a aa 30 bc 74 d5 14 ba
       -0.03540253 -0.039301913 -0.010782817 -0.0005677559
000010 ec 8f 23 bd 2f f4 2f bd 8f c4 84 bc 6f 12 22 ba
       -0.039932176 -0.04295748 -0.016207008 -0.00061825564
000020 e1 1c 49 bd e2 5c 31 bd 77 a8 a8 bc 9b f8 24 ba
       -0.049099807 -0.04330147 -0.020588143 -0.00062931486
000030 c4 de 1e 3d fb b1 b8 bc 73 b7 9e bd 44 42 05 bd
       0.038786665 -0.022545805 -0.07749834 -0.0325339
000040 c3 c5 e6 3d 5e 53 e5 b1 21 5f 8f 34 0a 15 11 36
       0.11268189 -6.674255e-09 2.670504e-07 2.161893e-06
000050 d4 b6 51 32 a5 ea 0a b2 b7 f3 a3 34 20 3d 08 36
       1.2206971e-08 -8.086009e-09 3.0538442e-07 2.0301159e-06
000060 4e c7 53 32 f3 0e 04 b2 38 d3 bb 34 19 f0 fc 35
       1.2327133e-08 -7.68681e-09 3.4985146e-07 1.8845341e-06
000070 f9 68 51 32 01 5a ef 31 aa d0 f4 32 6b 48 10 34
       1.2189269e-08 6.9660477e-09 2.8500228e-08 1.343739e-07
000080 6c 49 18 34 8a fa 9d b4 2e 4e 16 ac 32 05 a0 2c
       1.4182814e-07 -2.942582e-07 -2.135968e-12 4.5480503e-12
000090 b7 3f 0f 2f 25 d8 1d ac f4 78 46 ac 6c 22 b7 2c
       1.302841e-10 -2.2431026e-12 -2.8204635e-12 5.2049944e-12
0000a0 f8 5e 0d 2f 92 44 20 ac c0 3e 87 ac 08 3e da 2c
       1.2857615e-10 -2.2775432e-12 -3.8438974e-12 6.2028195e-12
0000b0 a8 d4 0f 2f 03 39 23 ac d5 42 a2 ae 90 6f d8 ac
       1.3081325e-10 -2.319534e-12 -7.378779e-11 -6.151475e-12
0000c0 85 c8 00 ad e8 6d 84 ac a3 de d9 2d c5 47 40 3b
       -7.320482e-12 -3.7638677e-12 2.4768914e-11 0.0029339653
0000d0 6e ed 03 bb 67 ff 08 3b 3d c6 52 3a 92 59 f0 3a
       -0.0020130533 0.0020904185 0.0008040404 0.0018337241
0000e0 3f 34 c4 b8 f6 6f 08 3b 2d 90 59 3a fc 2d 86 3a
       -9.35574e-05 0.0020818687 0.0008299377 0.0010237093
0000f0 a8 38 57 3b 80 88 a7 3b 8d 07 5b 3a 0a e2 ed bb
       0.0032840166 0.0051127076 0.0008355312 -0.007259612
000100 a2 67 36 3c 78 7c ab 3c 96 4d 01 3c 9a bf 8a bc
       0.011133106 0.020933375 0.007892033 -0.016937066
000110 2f bb 2b 3b 98 27 ca ba 2d d3 8d b8 fa 3e 2b 3a
       0.00262041 -0.0015423177 -6.7627385e-05 0.00065325166
000120 ef 9e d4 3a 98 b6 3e 39 a9 55 63 3b bd 40 31 3a
       0.0016221682 0.00018187833 0.0034688509 0.0006761661
000130 f7 7f 6e 3a bc ce 52 3b 48 0e a8 3b d2 93 32 3a
       0.0009098048 0.003216668 0.0051286556 0.0006812188
000140 48 82 eb bb 97 c7 2a 3c a5 07 99 3c 36 b7 c8 3b
       -0.0071871616 0.0104235625 0.018680403 0.006125356
000150 05 a3 83 bc de 4f 7f 2b 24 f7 a8 ab 99 61 18 2d
       -0.016068945 9.0705037e-13 -1.2005713e-12 8.661871e-12
000160 16 8f 6a ab 35 f6 af 2b 84 e5 d7 aa 9d 8d 0e 2d
       -8.333207e-13 1.2502834e-12 -3.835093e-13 8.10321e-12
000170 23 39 67 ab 8d bf 6f 2b 2f 68 06 aa e9 79 01 2d
       -8.214698e-13 8.5175687e-13 -1.1937737e-13 7.3598705e-12
000180 8e c9 2c ab 28 b0 2a ad eb f9 2b 2b 6d 19 55 2b
       -6.138639e-13 -9.702496e-12 6.1098235e-13 7.5708087e-13
000190 ed 30 26 2d 4f 03 a0 2c 4c ed 11 bc af c3 e0 bc
       9.446871e-12 4.547841e-12 -0.008906674 -0.02743706
0001a0 2e da 3e 3b 6b 2f ce bb 6a ed 01 bc 6c a7 18 bd
       0.0029121744 -0.0062922738 -0.007930139 -0.03726904
0001b0 e3 e9 20 bc 59 23 cf bb 55 a2 15 bc 72 e0 43 bd
       -0.009821388 -0.0063213524 -0.009132941 -0.04782147
0001c0 9c c7 9c bc d3 26 cc bb 8f d1 00 be 03 ef 97 3c
       -0.01913815 -0.006230214 -0.1257994 0.018546587
0001d0 16 fe ca bd 85 db 82 bd 6b 24 b0 bd b4 76 02 3c
       -0.09911744 -0.06389526 -0.08600696 0.007962871
0001e0 96 bc 74 b7 05 97 b5 3b 29 8c 9c ba 4e d9 29 3c
       -1.4587442e-05 0.0055416846 -0.0011943626 0.010366751
0001f0 27 2f 03 bb a1 5f a9 3b f6 3e 9d ba d0 e0 64 3c
       -0.0020017119 0.0051688706 -0.0011996913 0.013969615
000200 75 c7 ba bb 88 ab 86 3b 74 cc 9e ba b6 aa a8 3c
       -0.0057000467 0.0041098036 -0.0012115375 0.020589214
000210 8c ce 8f 3a 07 c9 3a bb 82 d9 a6 3b bc 09 d7 38
       0.001097159 -0.002850117 0.005091847 0.00010253812
000220 e0 a6 85 b2 3f ba 82 33 56 74 b7 33 a3 64 23 32
       -1.5559124e-08 6.087475e-08 8.542763e-08 9.510731e-09
000230 9c 39 90 b2 7d f4 87 33 b0 eb d4 33 46 2e 24 32
       -1.6790004e-08 6.3308995e-08 9.9148906e-08 9.556578e-09
000240 3a 2b a0 b2 94 b2 8d 33 50 71 e3 33 44 64 23 32
       -1.8646109e-08 6.598307e-08 1.0591123e-07 9.5106465e-09
000250 f1 b8 87 b3 ff 8d bc b1 45 35 9a 32 aa 8d b5 32
       -6.320068e-08 -5.487663e-09 1.7952184e-08 2.1135595e-08
000260 9b 8a 2a b3 be 59 a6 a5 c2 d6 11 25 ae ef e1 26
       -3.970727e-08 -2.8857221e-16 1.2649508e-16 1.5677477e-15
000270 df ad 64 a4 6f 7a c8 a5 2f 73 88 a2 6b 58 df 26
       -4.9586894e-17 -3.4777434e-16 -3.698483e-18 1.5497699e-15
000280 9d 15 dc a3 12 8b ef a5 6d 9c 0b a5 64 1c eb 26
       -2.3861601e-17 -4.155413e-16 -1.2109327e-16 1.6314096e-15
000290 56 2e 51 a4 c2 d7 81 a6 b1 02 f1 24 75 41 bb a6
       -4.53589e-17 -9.009654e-16 1.0452165e-16 -1.2993474e-15
0002a0 38 23 a2 a6 1f 11 83 26 14 fe b9 b1 5d 4b 00 33
       -1.1250554e-15 9.094592e-16 -5.413094e-09 2.9870865e-08
0002b0 fe f1 35 33 54 07 a0 b0 d2 26 dc b1 8c b4 08 33
       4.2362437e-08 -1.1643615e-09 -6.407256e-09 3.1829174e-08
0002c0 0b d9 2d 33 43 50 26 b1 f5 c8 b4 b1 3f 49 1e 33
       4.04771e-08 -2.4201803e-09 -5.2615357e-09 3.685386e-08
0002d0 a6 37 28 33 02 a2 f5 b0 fe 19 63 32 fd b9 3c b2
       3.916616e-08 -1.7872142e-09 1.3219049e-08 -1.0985329e-08
0002e0 f8 60 0f 31 49 19 91 b1 7d dd 6e b1 61 7d 0b bc
       2.086436e-09 -4.22293e-09 -3.475946e-09 -0.008513779
0002f0 bb f4 b3 bc a5 b4 40 3c fa 40 29 bc ba 87 9e bb
       -0.021967283 0.011761819 -0.010330433 -0.004837957
000300 66 c4 0a bd 01 94 44 3a 90 81 29 bc 6c 42 34 bb
       -0.033878706 0.0007498861 -0.0103458315 -0.002750541
000310 49 58 38 bd da 4e 87 bc 3d 0e 29 bc c9 44 e5 3c
       -0.04500607 -0.016517092 -0.010318336 0.0279869
000320 6d a6 57 3d e8 ad 93 bd d5 8a 45 bd c7 c8 98 bd
       0.05264895 -0.07210904 -0.048228104 -0.0746017
000330 e7 17 ca 2a 7b 87 34 ab 8b 4f 31 2c c7 41 b2 a9
       3.5898994e-13 -6.4136863e-13 2.5197368e-12 -7.9161985e-14
000340 18 60 dc 2a 64 22 27 ab 73 49 b6 2b 42 8b 63 a9
       3.914653e-13 -5.9378045e-13 1.2952264e-12 -5.0524912e-14
000350 17 1f 10 2b c1 18 07 ab 76 71 c3 2a d7 98 90 a9
       5.1202223e-13 -4.799599e-13 3.4717688e-13 -6.421398e-14
000360 fe 26 95 ac 50 df 4f 2a 4e 24 6a 2c 98 63 78 2c
       -4.2391637e-12 1.846277e-13 3.3273553e-12 3.5298205e-12
000370 9f e8 6f 2a 76 8c 18 bc 27 28 41 bb 07 69 2c bc
       2.1308171e-13 -0.009310832 -0.0029473396 -0.010523087
000380 ab a0 63 3a e5 74 31 bc df 79 b1 bb c5 dd 48 bc
       0.0008683304 -0.0108310925 -0.0054161395 -0.012259905
000390 fa 65 59 3a 42 82 6f bc 0a 4b 0a bc b2 a3 94 bc
       0.0008293089 -0.014618458 -0.008440742 -0.018144462
0003a0 52 7f 72 3a 93 04 14 be da 7b 71 bc 14 6f d4 bc
       0.00092505396 -0.1445487 -0.014739001 -0.025931872
0003b0 4c 50 b3 bc 90 ff f0 bc 63 71 02 b8 82 59 4e 38
       -0.021888874 -0.029418737 -3.1100015e-05 4.9197588e-05
0003c0 87 94 70 39 ff cf 18 b7 38 15 0d b8 e5 ab 56 38
       0.00022943514 -9.108334e-06 -3.363678e-05 5.1181665e-05
0003d0 bb 11 7f 39 ed a8 17 b7 d3 10 37 b8 f8 25 5a 38
       0.000243253 -9.0396325e-06 -4.364627e-05 5.201061e-05
0003e0 d8 d8 87 39 13 60 18 b7 8e d0 0c 38 47 02 b3 b8
       0.00025910768 -9.082275e-06 3.3572833e-05 -8.535809e-05
0003f0 14 90 8e 35 ae 0a bd 38 ae d6 e1 b8 16 bb aa b1
       1.0621757e-06 9.0142115e-05 -0.00010768823 -4.9689204e-09

linear_input.bias f4 [256]
000000 97 3b aa ba bd f2 38 b3 44 2c 97 ad 7e 30 17 3c
       -0.001298773 -4.3061608e-08 -1.718637e-11 0.00922787
000010 24 f8 08 3c 23 04 4d ac cf 26 4e bd cb a1 e7 bb
       0.008359943 -2.9134549e-12 -0.05032998 -0.007068848
000020 6a b8 bf 32 66 1e b1 a6 b6 63 d1 b1 6f 04 64 bd
       2.2319188e-08 -1.2290082e-15 -6.0940364e-09 -0.05566829
000030 c9 06 ea 2b c5 e9 4d bb fc 98 81 37 45 7f 0a b4
       1.6628583e-12 -0.0031419855 1.5449237e-05 -1.2898552e-07
000040 82 8f cc ba 36 8a 06 3d 49 28 92 3d ab 92 72 bc
       -0.0015606734 0.032846652 0.0713659 -0.014805476
000050 6e 58 50 ac 7c 7f a1 3c de 1f 17 3d 10 6f 81 bd
       -2.9607666e-12 0.01971411 0.036895625 -0.063200116
000060 94 70 d9 3b 71 c3 ea a9 53 be 3d 3c 61 0c d2 b0
       0.006635735 -1.0425591e-13 0.011581021 -1.5283029e-09
000070 c5 53 0b bd 56 8d d2 bd c8 d7 09 38 a4 b0 ab bb
       -0.034015436 -0.10280864 3.2864307e-05 -0.005239563
000080 9b 59 27 a9 64 f1 d7 ba df ed 47 b5 45 ed 71 bd
       -3.715917e-14 -0.0016475138 -7.4479425e-07 -0.05906417
000090 e6 f2 d4 31 69 a0 dd 39 71 8f d2 3c d4 ea ad bd
       6.1976264e-09 0.0004227192 0.025703164 -0.084920555
0000a0 5e 47 93 bb 52 0a 21 3a 59 64 72 bd 80 f6 87 ba
       -0.0044945916 0.00061432004 -0.05917773 -0.0010373145
0000b0 ce 24 bb 35 68 76 4c b5 e1 c6 2d 34 75 09 fa bb
       1.3943297e-06 -7.6168226e-07 1.6184232e-07 -0.007630522
0000c0 fa 13 45 3a cb 5f a2 bc 4e 6c 77 b3 a2 7d ed bc
       0.00075179304 -0.019821068 -5.760767e-08 -0.02899057
0000d0 b3 36 96 31 27 52 b2 b1 38 54 00 3c 9c 29 2c bc
       4.371793e-09 -5.1898215e-09 0.007832579 -0.010507967
0000e0 e6 9d e4 a9 99 9c 30 ba 4e 3c b0 bb 07 e0 3e 3a
       -1.0152625e-13 -0.0006737202 -0.0053782826 0.00072813075
0000f0 01 12 02 bc 00 26 b2 bc 76 ee 0f 30 0c 14 6f b9
       -0.007938863 -0.021746635 5.236197e-10 -0.00022800284
000100 4d 34 0e b8 e2 12 ee bd 3d 52 c5 b2 2b 92 ad bd
       -3.3904147e-05 -0.11624695 -2.2971216e-08 -0.08475145
000110 a2 3c 66 b8 d9 fe 69 ac 2a a1 4d 3d 2b 5f 8b bb
       -5.4892742e-05 -3.325276e-12 0.050202526 -0.0042532883
000120 66 78 92 b8 d6 74 a4 bb be 29 33 b5 a5 b1 e7 31
       -6.9842485e-05 -0.0050188107 -6.674344e-07 6.7431807e-09
000130 a3 a6 b0 3c 96 07 bd b8 32 e7 32 25 42 c6 3d a3
       0.021563834 -9.013635e-05 1.5517371e-16 -1.0287693e-17
000140 b1 d1 04 a6 96 38 e5 bb 67 13 77 1b 87 a8 40 39
       -4.6080885e-16 -0.006995271 2.043763e-22 0.00018373328
000150 c5 6a 35 b3 3b 2c 6a ae 1e 0a 93 3c 1a 2b 55 3b
       -4.2239453e-08 -5.3244725e-11 0.01794916 0.0032526911
000160 91 3b cf 3b 0d 7b e7 3c c3 11 58 bc a4 38 53 bd
       0.0063242395 0.028256917 -0.0131878285 -0.05156769
000170 4a 8e c6 bd d0 74 88 b4 6d 72 76 29 74 03 14 bb
       -0.09695108 -2.5416966e-07 5.472222e-14 -0.0022585066
000180 8a 0f 14 af 9d 59 b3 bd b4 39 67 ad 63 79 01 3d
       -1.3466042e-10 -0.08757327 -1.3143642e-11 0.031609904
000190 eb 26 a3 3a d0 d3 d7 ac 74 71 af 31 17 ce 00 bd
       0.0012447512 -6.1341834e-12 5.1060685e-09 -0.031446543
0001a0 ad c0 ba bd f3 f6 1f ae 4b 10 16 35 10 da 85 34
       -0.09118781 -3.637175e-11 5.5903064e-07 2.4931842e-07
0001b0 6e 2a 3c b3 fe c4 db 2b 9c fe cf bd d2 d1 2a bc
       -4.381075e-08 1.5615562e-12 -0.10155985 -0.010426002
0001c0 e1 9a db 29 07 a2 f7 3c 18 d6 27 af fc df a6 3d
       9.752421e-14 0.030228628 -1.5264623e-10 0.081481904
0001d0 9e c1 82 34 30 b9 bd 28 a3 90 f8 bd ed 83 22 3c
       2.4355262e-07 2.1063527e-14 -0.12136962 0.009919149
0001e0 bf 7d 98 b9 44 b3 ca 34 47 6e 03 bd 42 17 8f 38
       -0.00029085387 3.7755865e-07 -0.03208759 6.8231035e-05
0001f0 7b 17 7c b3 ba b5 cb 31 06 a8 98 bb 79 71 ef 34
       -5.8694678e-08 5.9287375e-09 -0.004658702 4.459978e-07
000200 8a 1e b4 b6 38 4d b1 b7 51 27 a4 ba d3 f7 7f b5
       -5.3679732e-06 -2.1136002e-05 -0.0012523924 -9.5355534e-07
000210 b2 82 77 3b ac bd 0f 3d 90 83 ff b7 89 1a 5d a9
       0.003776711 0.035092995 -3.0459632e-05 -4.9094873e-14
000220 6b f1 96 3c 84 96 a4 31 3b 3f d8 ba b4 21 59 ad
       0.018425664 4.79014e-09 -0.0016498336 -1.23425055e-11
000230 62 02 1c a4 3d af e8 24 f2 55 48 b4 af 1c ae b5
       -3.3829126e-17 1.0091083e-16 -1.8657718e-07 -1.2972358e-06
000240 6d 64 04 af 34 8e 21 b5 ad 4f a4 bd d2 4a 5d bd
       -1.2041008e-10 -6.0184107e-07 -0.080230094 -0.054026432
000250 16 f9 84 bd be 14 dd 2a aa d5 57 3d ce d6 19 bb
       -0.06492822 3.927188e-13 0.052694 -0.002347398
000260 21 aa d2 aa 53 4f 46 bd 32 f5 06 39 98 71 c8 bc
       -3.7421544e-13 -0.048415493 0.00012870578 -0.024468228
000270 04 cc f6 b9 e0 ee 1e 29 c5 f1 e7 ad 12 ef 44 b4
       -0.0004707278 3.529024e-14 -2.6369027e-11 -1.8340896e-07
000280 bb 37 3a a7 6b 7f 93 bd 15 7e 8d b4 d9 ab d1 bc
       -2.5842897e-15 -0.072020374 -2.6355033e-07 -0.025594639
000290 97 85 ac ae 9e 76 f8 b0 d2 4d 38 bb 49 ff 52 bd
       -7.845385e-11 -1.8078088e-09 -0.0028122556 -0.05151299
0002a0 e3 d5 4f b3 41 db aa 29 bf 72 b0 33 2d 95 f7 aa
       -4.8390472e-08 7.587551e-14 8.216511e-08 -4.3979525e-13
0002b0 78 fe 89 2b 7d 21 95 b4 a2 80 f0 bc a1 1a 11 33
       9.805065e-13 -2.777778e-07 -0.029358212 3.3784662e-08
0002c0 ec e3 64 3b 65 b7 a9 b5 f6 5e e3 3b a8 e6 07 38
       0.003492589 -1.2644856e-06 0.0069388105 3.2401324e-05
0002d0 0c 5b 66 3a 34 91 93 b8 46 b1 4e ab f3 51 1c 3c
       0.0008787371 -7.0365524e-05 -7.343192e-13 0.009541023
0002e0 c8 ea c7 33 98 38 c5 37 42 10 13 bb 26 71 64 2e
       9.309366e-08 2.3510584e-05 -0.002244011 5.1941694e-11
0002f0 50 b5 1c b0 07 f1 0d bc 9b f0 10 bd f8 58 cc af
       -5.701013e-10 -0.008663422 -0.03538571 -3.71706e-10
000300 ef c7 1b b5 08 61 15 bd 48 73 17 b9 10 5f 2a ad
       -5.803294e-07 -0.03646949 -0.00014443428 -9.684489e-12
000310 b0 94 2f b7 38 d7 b3 ae c5 81 e3 b2 e5 fa 76 bb
       -1.0465432e-05 -8.178208e-11 -2.648529e-08 -0.0037686166
000320 22 93 3d af 45 f6 96 2a 1f 4b 2f 27 ba 3d 26 a6
       -1.7241722e-10 2.6816236e-13 2.4326852e-15 -5.7676474e-16
000330 4e ce 3a aa 33 0a a2 3a 33 c4 c4 bc 14 18 8e ba
       -1.6591695e-13 0.0012362659 -0.024019336 -0.0010840916
000340 67 c6 f7 b2 9f d4 35 32 e9 3a 93 bb bd b6 ef 26
       -2.8844807e-08 1.0583931e-08 -0.0044931066 1.6633488e-15
000350 43 f2 fc 2b a3 f5 90 ab 0a 0a c5 3c d3 dc e3 2a
       1.7972918e-12 -1.0299993e-12 0.024052639 4.0476528e-13
000360 92 5f 29 b0 7d 31 b1 bd b3 50 5a bd 7d 53 76 ad
       -6.1617655e-10 -0.08652017 -0.053299617 -1.4002019e-11
000370 59 21 c0 bc 77 a5 87 3c 7a b0 b5 3b 8e f6 dd bd
       -0.023453401 0.016558392 0.0055447193 -0.10838042
000380 bc 46 ba 27 34 b4 2d 27 f8 81 7d b8 2d b4 64 ad
       5.170206e-15 2.4106261e-15 -6.0440943e-05 -1.30003066e-11
000390 88 68 2a 3c c1 14 4a a8 6b 50 54 2f 98 aa bb bd
       0.010400899 -1.1217753e-14 1.9309858e-10 -0.091633976
0003a0 9f 39 c7 af 18 78 8a b1 bd 63 74 30 ac b0 6f 2b
       -3.623883e-10 -4.0299817e-09 8.890842e-10 8.515504e-13
0003b0 a4 07 37 b7 5f 9f a6 ad ef 51 10 bb ca 18 ac 3b
       -1.0909429e-05 -1.894279e-11 -0.0022021492 0.0052519785
0003c0 29 e3 1b b0 97 36 ca bd 24 7e 1c 3c 65 c7 fe bc
       -5.6711486e-10 -0.098736934 0.009551559 -0.031100938
0003d0 fa cf bb 31 2c f1 6a bd a5 6f 90 b3 6c ed f5 ac
       5.4660605e-09 -0.057358906 -6.7258306e-08 -6.989678e-12
0003e0 58 ee 51 b9 79 c3 41 29 52 80 b9 bb 0e bc 50 31
       -0.00020020583 4.3024154e-14 -0.005661049 3.037488e-09
0003f0 f9 cb a4 3c 5a 19 1e be 3f 4d bc 3c 76 b5 07 3b
       0.020116793 -0.15439358 0.022986053 0.0020707524

linear_hidden.0.weight f4 [256, 256]
000000 88 18 a0 3c 86 13 8a b3 5e c6 04 ab 33 14 72 3b
       0.019542947 -6.429677e-08 -4.717111e-13 0.003693831
000010 c9 11 56 3b 12 86 80 ab fe 4b c5 bc 33 2a 31 bb
       0.003266441 -9.132159e-13 -0.024084087 -0.002703321
000020 98 a3 95 b2 ad a4 92 25 7e 59 d2 b1 33 cf 90 bc
       -1.7420277e-08 2.5438551e-16 -6.1219785e-09 -0.017676925
000030 b3 d6 02 ab ba e5 92 bc 85 8f 37 b7 ab 72 c0 b0
       -4.6483233e-13 -0.017931808 -1.0941066e-05 -1.4002429e-09
000040 0e 11 2b 33 28 bd 84 bc 99 93 11 3d 76 37 15 bc
       3.982955e-08 -0.016203478 0.03554115 -0.009107461
000050 24 4d 27 2c d0 0b 3d 3c 0a 75 9e 3c 73 89 ba bc
       2.377495e-12 0.011538461 0.019342918 -0.022770619
000060 aa 9e 82 ba 94 4d b4 28 59 61 a8 3b 91 6d 0e ae
       -0.0009965498 2.0017659e-14 0.005138558 -3.2384376e-11
000070 6e d3 fd bb cc 3d e5 bc 0f 36 bb b7 14 3d a1 bc
       -0.0077461516 -0.027983569 -2.231731e-05 -0.019682445
000080 96 c4 bf a9 d2 e7 cc 38 fb 9c 91 32 56 9e f2 bc
       -8.516206e-14 9.770658e-05 1.6951608e-08 -0.029616516
000090 ea 20 ab 32 aa ff d9 b9 bb 47 5e bc 89 a7 b6 bc
       1.9921988e-08 -0.0004157995 -0.013566907 -0.022296684
0000a0 9c 5a e2 bc 82 50 85 3c e2 32 7b bc ea 84 7f bc
       -0.027631097 0.01627374 -0.015331956 -0.015595654
0000b0 d7 83 a2 34 e0 74 56 33 99 06 0a 34 df 3e 03 bc
       3.0270778e-07 4.9932055e-08 1.2854652e-07 -0.008010595
0000c0 e0 02 59 ba 4d 7e 37 bc fd 68 09 b2 2c eb 97 bc
       -0.00082783215 -0.011199546 -7.998321e-09 -0.018544756
0000d0 59 6c c4 b1 88 ac f7 b3 de 69 67 bb b9 4e e5 3b
       -5.7166685e-09 -1.1533217e-07 -0.0035310904 0.00699791
0000e0 02 7e 11 a8 1a 8c 28 b6 c4 bb 2a bb 73 51 bb 36
       -8.0764405e-15 -2.51155e-06 -0.0026051858 5.582516e-06
0000f0 cc b3 ef bb 8b 59 ba bc 96 80 0c b0 b4 4d c4 b6
       -0.0073151346 -0.022747776 -5.1114435e-10 -5.850301e-06
000100 2a cc 02 b4 94 d1 b1 bc 40 36 91 b1 26 d3 00 bd
       -1.2181468e-07 -0.02170638 -4.226223e-09 -0.031451367
000110 d5 a7 8a b7 42 0c a5 29 f3 46 bb 3c 2f ba 05 bb
       -1.6529035e-05 7.3295984e-14 0.02286098 -0.0020405164
000120 b8 f6 0f b7 36 6e 61 3b 38 0a a1 33 7c 30 a8 2f
       -8.580908e-06 0.0034397966 7.4990055e-08 3.0593472e-10
000130 51 8d 3f 3c ff 89 45 b5 34 82 03 24 79 2b 9e 20
       0.011691407 -7.358903e-07 2.8516383e-17 2.679501e-19
000140 d9 ab b0 24 26 a9 24 3c 87 fb de 9d e9 95 31 b9
       7.6618954e-17 0.010050094 -5.9022984e-21 -0.00016935881
000150 aa 1d 09 b2 d9 73 7a ac da 2d 0f 3c f8 36 9c ba
       -7.981194e-09 -3.5591445e-12 0.008738959 -0.0011918237
000160 62 cb 34 bc 0a d4 80 bc cb bb 46 3c f3 6b 62 bc
       -0.011034818 -0.015726108 0.012129734 -0.013819682
000170 f0 c2 e6 bc d2 ed e2 b2 e4 d0 87 a9 7b 68 30 3c
       -0.028169125 -2.6418011e-08 -6.031441e-14 0.010767098
000180 06 d0 c0 ac fc b0 06 bd 1a be e5 2b 4e 8a 84 3c
       -5.4800635e-12 -0.03288363 1.6324192e-12 0.01617923
000190 d7 fc 74 3a bc d4 c6 aa 15 2d b1 b1 9f f3 9f bc
       0.00093455374 -3.531948e-13 -5.1565032e-09 -0.019525347
0001a0 cd 3f 09 bd d6 ed 92 ad 99 f7 b1 b3 8b 67 2f b4
       -0.03350811 -1.6703899e-11 -8.2872425e-08 -1.6335814e-07
0001b0 fe 16 07 b2 e8 8f 49 ac cb c9 21 bd 56 26 97 bb
       -7.863262e-09 -2.8643702e-12 -0.039499085 -0.0046127243
0001c0 54 50 6d 27 bb 22 c7 bc a4 f4 f4 ae df 38 0e bd
       3.2933903e-15 -0.024308553 -1.1139292e-10 -0.034722205
0001d0 94 69 5a b3 3f ea 4a 28 ee 53 39 bd b7 c8 76 bc
       -5.0853103e-08 1.12640466e-14 -0.045246057 -0.015062503
0001e0 9c d5 22 ba 23 fe 11 b4 2e a7 ec bb 3c 31 ab b8
       -0.000621164 -1.3596632e-07 -0.007222078 -8.163086e-05
0001f0 44 1a 06 32 e1 88 4f b1 d5 e6 12 bb 39 7f bc b3
       7.805799e-09 -3.0200271e-09 -0.0022415419 -8.777574e-08
000200 3f 55 f6 b3 e0 27 12 b7 f0 d7 77 b9 fe af a4 32
       -1.1470774e-07 -8.711562e-06 -0.00023636199 1.9172145e-08
000210 84 6b 09 3b e9 fe 8d bc 13 14 91 37 26 4a e3 a6
       0.0020968625 -0.017333465 1.7294695e-05 -1.5771387e-15
000220 af 41 21 3c 7d 4c 03 b1 a4 50 3f ba 7d 08 fd 2c
       0.00984232 -1.9106488e-09 -0.0007298088 7.191635e-12
000230 45 38 07 22 d3 22 49 23 a6 59 74 b2 2a 35 0f b4
       1.83257e-18 1.0903606e-17 -1.4223053e-08 -1.3337254e-07
000240 f3 f1 a7 ad 75 90 8e 33 e3 83 f3 bc f0 bf 9a bc
       -1.9093149e-11 6.638667e-08 -0.029725974 -0.018890351
000250 08 53 a9 bc 0a 6b 24 a5 c9 19 b3 3c e8 a4 a2 3c
       -0.020669475 -1.4260999e-16 0.021862881 0.019854024
000260 5c c0 0b a6 87 c6 bc bc 57 97 42 b7 48 dc bc bb
       -4.848601e-16 -0.023043884 -1.1598538e-05 -0.0057635643
000270 a4 fd e7 bc 55 6d b6 28 42 04 9e 2b 2e fe a5 b2
       -0.028319187 2.0253474e-14 1.1227757e-12 -1.9324116e-08
000280 3f 19 25 a6 c6 ff d4 bc d3 c0 54 b3 46 81 61 bc
       -5.728009e-16 -0.026000869 -4.953547e-08 -0.013763731
000290 d4 57 50 ad 60 72 5c af f2 5f 62 ba 97 0e fa bb
       -1.1842933e-11 -2.0049518e-10 -0.0008635513 -0.007631134
0002a0 91 cd 21 b2 8c b5 80 29 2b 29 a0 b3 c9 68 53 a9
       -9.418174e-09 5.715835e-14 -7.458069e-08 -4.6942298e-14
0002b0 31 be 07 ab 76 ad 8b 34 dc fb 77 bc 47 fb e5 b2
       -4.822558e-13 2.6016977e-07 -0.015135732 -2.6773376e-08
0002c0 4d 8a 09 3b ab b8 ba b4 ec 4a 2d bb db c4 23 b8
       0.0020986975 -3.4779563e-07 -0.0026442362 -3.9045564e-05
0002d0 62 98 49 ba 76 16 91 36 39 23 bc a7 2f a2 73 bb
       -0.00076902483 4.3239515e-06 -5.221867e-15 -0.0037175526
0002e0 cc 53 ad b1 2d 02 83 b7 f7 c3 73 3a 68 9d b4 ab
       -5.0444893e-09 -1.561743e-05 0.00092989154 -1.2833458e-12
0002f0 e4 a2 0c ae 18 85 7d bc bf 52 07 bc d3 28 21 2d
       -3.197699e-11 -0.015473627 -0.008259474 9.160855e-12
000300 ed fe f1 b2 8c f7 a4 bc af b9 aa b8 ee 58 30 ac
       -2.817202e-08 -0.02013757 -8.140818e-05 -2.506047e-12
000310 da 73 09 b7 4d cc 8e ad 98 30 62 b1 15 38 d9 bc
       -8.19281e-06 -1.6234259e-11 -3.291495e-09 -0.026516
000320 68 97 26 ac 1a dc 04 2a 14 37 8d a7 84 b2 dd a5
       -2.3674066e-12 1.1800318e-13 -3.9195077e-15 -3.8458356e-16
000330 26 d1 bf a6 ec c7 b7 ba 6b 3f 83 bc 46 23 87 bc
       -1.3309977e-15 -0.0014021373 -0.016021451 -0.016496312
000340 cf 59 c4 af 84 cb 8a b2 72 32 ab ba 06 55 81 26
       -3.5716005e-10 -1.6157863e-08 -0.0013061299 8.974219e-16
000350 00 d2 db ab ce ae 79 28 9e 34 37 bc 42 f4 c5 ab
       -1.5619173e-12 1.3860181e-14 -0.0111819785 -1.4065487e-12
000360 51 a7 87 af 2a 81 e8 bc 8a ec 4c bc b6 25 7a 27
       -2.4675242e-10 -0.028381903 -0.012507567 3.4714913e-15
000370 92 b0 27 bc aa 0a c3 bb a2 ea 68 3a 2d 9b d9 bc
       -0.010234969 -0.005952199 0.00088850607 -0.026563251
000380 47 7d dd a7 b2 9c a3 a6 e2 b3 9a 37 bb 2f 29 ac
       -6.147565e-15 -1.1352869e-15 1.8441995e-05 -2.404284e-12
000390 f1 b3 71 bb 51 d1 7f a6 fc 9e a6 ae 07 3c a2 bc
       -0.0036880935 -8.8754574e-16 -7.577047e-11 -0.019804014
0003a0 96 99 5e 2f 84 2b 83 af 2e 4a 6c b0 4d 2c e8 a9
       2.0245347e-10 -2.385968e-10 -8.5961716e-10 -1.03105546e-13
0003b0 83 5f b8 35 cf a3 07 ac 96 34 27 3a 97 55 fe ba
       1.3736866e-06 -1.9275586e-12 0.00063783803 -0.001940417
0003c0 ec 9d 14 af 04 79 0a bd b9 3c 45 bb 44 77 87 bc
       -1.3516627e-10 -0.033806816 -0.0030096008 -0.016536362
0003d0 ec b5 97 b1 12 35 ea bc e2 b3 0b b3 97 ba c5 ab
       -4.4153605e-09 -0.028589759 -3.2527062e-08 -1.4049481e-12
0003e0 e8 32 87 af 9b 14 a4 29 16 09 a7 3b 33 51 32 b2
       -2.4592528e-10 7.2866375e-14 0.0050975187 -1.0379426e-08
0003f0 86 8f 2d 3c 03 d6 30 bd 19 57 26 bc 14 6c b3 3a
       0.010593301 -0.043172847 -0.010152602 0.0013688826

linear_hidden.0.bias f4 [256]
000000 b4 84 a6 3d 52 a5 09 2d 5c 51 7d b9 a0 e1 93 3d
       0.0813078 7.824257e-12 -0.00024158269 0.07220769
000010 f2 00 32 af 0f 2d 3e b1 0c ef f9 33 4d 02 85 b3
       -1.6189342e-10 -2.7674252e-09 1.16384484e-07 -6.1937136e-08
000020 04 76 ed 25 c8 3f 65 b3 80 ff 2e 3b 1b f3 45 38
       4.1192917e-16 -5.3376226e-08 0.0026702583 4.719487e-05
000030 73 61 cf 3a f8 e8 6c 3a 72 ce 09 39 15 be 33 b9
       0.0015821889 0.00090374006 0.00013142245 -0.00017141581
000040 b4 79 b9 2a 09 38 7c af ac 0b 86 3b 4c 3f 99 b9
       3.294705e-13 -2.2939174e-10 0.004090747 -0.00029229594
000050 a7 35 31 39 0d d8 04 80 c9 e1 97 af 9b 58 1f 3b
       0.00016900022 -4.44846e-40 -2.762717e-10 0.0024314288
000060 02 5e 21 3b f9 b3 46 3d cf da 4c 2e b1 ec 19 3a
       0.0024622683 0.04851148 4.657857e-11 0.00058717566
000070 b7 c8 3b b0 39 21 f5 a7 16 f3 74 35 72 4c 7e b9
       -6.8315437e-10 -6.803718e-15 9.125082e-07 -0.00024251806
000080 9f ad b1 31 30 f4 e5 3a e4 9c e1 39 e0 2b 9e 38
       5.1711164e-09 0.0017544087 0.00043032237 7.5421995e-05
000090 87 60 31 37 92 fe b7 3a 2f a9 98 3b f1 9a ff 34
       1.0572497e-05 0.001403766 0.00465884 4.7610186e-07
0000a0 cd 92 b6 3d 7f ce 2d 3a 0b 10 73 b9 61 9b 30 b5
       0.08914719 0.00066301966 -0.00023180262 -6.5791215e-07
0000b0 ef 3e 7d b6 df a1 80 3b 4d 02 c1 3d 5f 5c d7 b5
       -3.773657e-06 0.0039255465 0.09424267 -1.6045632e-06
0000c0 a2 76 8b 3a de f8 e6 a9 2b 6d 72 3d fd 64 d6 3a
       0.0010640214 -1.02572234e-13 0.059186142 0.0016357001
0000d0 45 9f 0a b8 23 74 be b9 e9 4a b3 3a f5 a9 59 3a
       -3.3050095e-05 -0.00036326153 0.0013678941 0.00083032186
0000e0 45 19 41 38 3b 36 e9 3a c9 b4 cd 33 65 5c 76 b3
       4.603832e-05 0.0017792651 9.578941e-08 -5.736037e-08
0000f0 fd dc 81 3d 91 9b 23 3b 83 1c 67 3a 81 0f b0 2d
       0.06340978 0.002496455 0.0008816199 2.0015769e-11
000100 5a 77 6a 28 e8 fc 77 b4 c5 b0 ec 3c 63 b2 46 3a
       1.301549e-14 -2.3095674e-07 0.028892884 0.0007579682
000110 63 b3 07 2a e3 c6 42 3b aa 6f cf b0 63 f8 82 3d
       1.2052646e-13 0.0029720597 -1.5092969e-09 0.06395032
000120 0c 43 cb 3d 43 68 99 b9 9e a9 c2 ab 4a fe f1 31
       0.099248976 -0.00029260115 -1.3831607e-12 7.0429325e-09
000130 c7 ff c5 b1 09 0b c2 b2 80 2a 45 3b ed 28 4b ae
       -5.762533e-09 -2.258959e-08 0.0030085146 -4.6193206e-11
000140 40 41 a8 3d 5c a3 1a af 2e 05 27 2f c1 96 b1 b2
       0.082155704 -1.4064255e-10 1.5190402e-10 -2.0674067e-08
000150 00 f6 82 39 99 42 9e ac 2a 14 80 3b 5b 97 a1 a8
       0.00024978817 -4.498024e-12 0.0039086537 -1.794023e-14
000160 ed f5 4f ab c7 67 65 b5 d8 77 95 b9 c4 9f 6a 31
       -7.3882464e-13 -8.5460164e-07 -0.00028508785 3.4142298e-09
000170 67 1d 4e b7 6d 8d 87 3b 71 cc bb 3d 76 1d 9c b5
       -1.2285403e-05 0.0041367323 0.091698535 -1.163148e-06
000180 e4 02 00 80 ab 38 dd 37 9e 93 49 3b e0 b6 0c a2
       -1.037e-42 2.6371641e-05 0.0030758153 -1.9070351e-18
000190 f5 a7 56 b8 51 ad 93 33 2b de 25 39 b4 38 9e b2
       -5.1177998e-05 6.876747e-08 0.0001581839 -1.8419406e-08
0001a0 33 9e 85 2b 91 15 9c 36 72 c9 8b b9 38 e3 48 38
       9.494127e-13 4.651673e-06 -0.00026662234 4.789533e-05
0001b0 fe 3a 9d 3d a2 58 57 b9 42 37 8f 3d a0 30 18 2d
       0.076772675 -0.00020537016 0.069929615 8.650997e-12
0001c0 81 e4 16 b3 4d 47 a7 3a de b2 a9 3d 3b 9f be 3d
       -3.513242e-08 0.0012762338 0.08286069 0.093077146
0001d0 32 66 7f b3 50 ab 9d 3d a3 98 18 b1 eb 5a b2 3d
       -5.946476e-08 0.07698691 -2.2205675e-09 0.087087475
0001e0 65 be 5a 2f 45 29 4e 3b 1c 91 84 3d b9 d0 50 ae
       1.9894626e-10 0.0031457704 0.0647299 -4.7479107e-11
0001f0 10 5b bf 3d 86 01 d2 3a 0c 8d 2b 2f 6e da 12 b7
       0.09343541 0.0016022183 1.560247e-10 -8.753135e-06
000200 10 0b 16 39 ea 8f 5a 34 40 44 5a 90 b9 76 1d 3b
       0.00014309236 2.0355188e-07 -4.3045497e-29 0.0024027063
000210 47 19 7e 3b 9a 46 89 b3 de 3d 85 b0 4e 49 36 3b
       0.003877239 -6.392402e-08 -9.694607e-10 0.002781469
000220 c8 a9 3a 14 32 bc b1 3d 9b b1 99 3d 89 21 97 b9
       9.424084e-27 0.086784735 0.07504579 -0.0002882595
000230 66 95 5e 3a 3a c8 be 3d 09 ac 4b 3b 6b 69 d4 1f
       0.000849089 0.09315534 0.0031077883 8.995989e-20
000240 bf d9 fa aa ae 1f 0e 38 1b cc d8 ab df c9 30 af
       -4.4560013e-13 3.3884942e-05 -1.5404374e-12 -1.6078826e-10
000250 66 64 44 3b 75 66 e3 3d 94 d6 b0 b2 6f dc 7f 3b
       0.0029967069 0.111035265 -2.0586675e-08 0.00390413
000260 e9 57 49 3a 86 d5 b1 b5 c0 e4 b7 3d c0 34 b1 b4
       0.0007680641 -1.3249671e-06 0.089791775 -3.30072e-07
000270 bf 7f ff b8 33 96 b2 39 4c c6 14 35 16 96 98 3d
       -0.00012183142 0.00034062713 5.5422856e-07 0.074505016
000280 ba 2c a1 3d 4f cf ce 9f af 58 61 3b 7b 72 be ae
       0.07869859 -8.758736e-20 0.0034385135 -8.6605355e-11
000290 48 95 88 3b 24 76 9a b9 5b 1c 56 b3 17 8d e6 b5
       0.0041681863 -0.0002946119 -4.9851547e-08 -1.7177398e-06
0002a0 8a 7c 5e ab 14 78 1d a5 b8 10 08 80 db 69 fa b1
       -7.9043076e-13 -1.3658263e-16 -7.40682e-40 -7.287992e-09
0002b0 4a 4e d6 3a 10 ff a0 b0 ca 9c 60 b1 68 23 21 3b
       0.0016350236 -1.1714025e-09 -3.2685414e-09 0.0024587754
0002c0 b6 e7 4e 36 cf fa 9c ac d5 1c fc b2 90 75 db 39
       3.0831266e-06 -4.461632e-12 -2.9349772e-08 0.00041858526
0002d0 68 f2 bf ae 4f 0c 2f 32 11 6f 0e 8e ce db 73 b8
       -8.7287344e-11 1.0189139e-08 -1.7556328e-30 -5.8140424e-05
0002e0 66 6e 99 2d d4 00 56 34 a7 f9 79 39 b7 15 74 3b
       1.7443113e-11 1.9930604e-07 0.00023839493 0.0037244388
0002f0 a2 0e 92 b9 f4 1e c9 b2 28 85 17 39 ca c8 7e 29
       -0.00027858192 -2.3413556e-08 0.00014450087 5.6573486e-14
000300 d9 7c 99 2a 55 fe 0f b6 32 05 ef 2d db 2b 8d 3d
       2.726489e-13 -2.1456701e-06 2.7173461e-11 0.068931304
000310 1c c6 30 ab 69 ba 42 9f 58 da 81 3b 53 29 91 38
       -6.2802693e-13 -4.1235293e-20 0.003962796 6.921836e-05
000320 c9 cb 8c a8 a4 b4 10 27 4b 0e 7b 3b d1 7e 5c af
       -1.56315e-14 2.008194e-15 0.003830808 -2.0053938e-10
000330 e1 83 9e b9 8c 10 ee 30 de 6e b5 37 51 e5 d6 b5
       -0.00030234366 1.7321482e-09 2.1628508e-05 -1.6010982e-06
000340 c5 8b ee b4 e5 84 09 39 cb a4 81 af 01 47 b9 a0
       -4.443265e-07 0.00013114845 -2.3582056e-10 -3.1387205e-19
000350 a6 de ca 39 f5 90 9a 3b a7 ae 96 b9 8c 8d 80 3b
       0.00038694328 0.0047169873 -0.00028740356 0.0039231237
000360 06 93 40 2d 62 81 e8 a3 d6 5d 98 3b 9c dd a4 ae
       1.0946582e-11 -2.5208286e-17 0.004649858 -7.497222e-11
000370 1e 67 96 a2 bb 8d 9f 3d 83 84 c8 3d 7b 84 6d b0
       -4.076676e-18 0.07790705 0.097908996 -8.6408364e-10
000380 41 88 1c 38 2f be 62 3b 8e 23 8b 3b d6 80 0f ad
       3.7320195e-05 0.0034598222 0.004246182 -8.157216e-12
000390 23 59 b2 3d 1e f8 df a6 9f 19 cc 30 44 91 1b 30
       0.08708408 -1.5540986e-15 1.4850235e-09 5.6595106e-10
0003a0 ed 7b 2f 34 8c 0a 53 3b 1b e9 cb 3d 37 04 5f b8
       1.6343229e-07 0.0032202331 0.09956571 -5.317127e-05
0003b0 df 8e 02 39 c9 80 be 3d 59 d8 26 3a af 61 57 32
       0.0001245099 0.093019076 0.0006364636 1.2536858e-08
0003c0 5f 5c 85 39 8f 21 03 80 bc 15 a4 b7 b8 e7 81 9e
       0.0002543656 -2.87545e-40 -1.9560444e-05 -1.3754243e-20
0003d0 65 a8 75 b9 16 15 98 1d 10 d7 a1 b9 de e1 16 33
       -0.00023427753 4.0255867e-21 -0.00030868547 3.513002e-08
0003e0 d4 c0 4f 30 d0 d7 01 3b 05 e7 ae b9 0b 1d ec 26
       7.5580187e-10 0.0019812472 -0.0003335999 1.6383662e-15
0003f0 65 1e e9 29 2d 1c 16 39 df f2 06 b6 51 34 50 b0
       1.0352551e-13 0.00014315611 -2.0108926e-06 -7.5744305e-10

linear_output.weight f4 [1, 256]
000000 88 33 57 3e 2b e5 c3 2d 7c d3 a3 bc b6 2a 3f 3e
       0.21015751 2.2270704e-11 -0.019998305 0.18668637
000010 4b 31 e4 30 51 d8 81 30 b9 d5 93 b4 b2 cb fe 32
       1.6603193e-09 9.447466e-10 -2.7536387e-07 2.9662122e-08
000020 8d 04 07 a6 7a f3 17 b3 0d cb 11 be 24 44 ba bd
       -4.68437e-16 -3.5378868e-08 -0.14237614 -0.09095028
000030 91 b5 f8 bd d8 c5 de bd 0f a4 82 bd c6 45 cc bd
       -0.12144006 -0.108775795 -0.06378948 -0.09974246
000040 64 75 18 ab 8d 7a 04 2f 00 7b 2e be 4a 39 ae bc
       -5.416416e-13 1.2048869e-10 -0.17039108 -0.021267552
000050 35 fb 8c bd 50 4f 03 00 f3 25 17 2f c8 ad 0e be
       -0.068838514 3.03958e-40 1.3746852e-10 -0.1393348
000060 d3 06 0e be c2 52 fb 3d 47 a9 35 2e 0f 49 b4 bd
       -0.1386979 0.12271644 4.1304984e-11 -0.08802997
000070 6c 02 08 31 32 ac 19 28 e2 3a 81 b5 e5 f8 89 bc
       1.9791981e-09 8.530545e-15 -9.628386e-07 -0.016842315
000080 7a 39 e9 b1 93 52 02 be cf 52 a9 bd 47 78 7e bd
       -6.787727e-09 -0.12726812 -0.082677476 -0.062126424
000090 eb d1 5f bd 4d 07 f0 bd d7 6c 5d be 0b 1b b8 b4
       -0.054643553 -0.117201425 -0.2162355 -3.4292347e-07
0000a0 09 9e 6a 3e a2 11 b8 bd e1 6a 99 bb dc 24 ce 33
       0.22911848 -0.08987738 -0.0046819304 9.599327e-08
0000b0 55 94 9b b2 e1 a0 28 be bb a8 78 3e fe be 1b 37
       -1.8111828e-08 -0.1646762 0.24283116 9.283189e-06
0000c0 8b cc e4 bd a7 14 6a 2a 7b 25 1b 3e ad 9e f5 bd
       -0.11171826 2.079054e-13 0.15151016 -0.11993156
0000d0 56 6b 42 bd 2b 8c 69 bc 26 ce f4 bd e9 f0 d6 bd
       -0.047465645 -0.01425461 -0.11953382 -0.10495169
0000e0 4e 96 d4 bd 88 db ff bd b2 04 6f 34 d8 0d f6 33
       -0.10380231 -0.12493044 2.2260318e-07 1.1457786e-07
0000f0 af af 26 3e da a6 11 be c7 02 d5 bd f0 97 5c ad
       0.16277955 -0.14223805 -0.1040092 -1.2539289e-11
000100 6f ac 54 a8 e8 45 60 34 45 b3 91 3d 78 02 c5 bd
       -1.1805755e-14 2.0887057e-07 0.07114271 -0.096196115
000110 1d 87 77 aa 95 5d 18 be 5a b1 87 31 6c 4d 28 3e
       -2.1984884e-13 -0.14879449 3.9491796e-09 0.16435784
000120 fd bf 86 3e 77 b7 ce bd 0d c2 9d 2a 12 84 cb b2
       0.2631835 -0.10093587 2.8023452e-13 -2.3692369e-08
000130 ad d8 d5 31 24 44 66 34 67 c2 12 be 2b 25 8e 2d
       6.223749e-09 2.1445209e-07 -0.14331971 1.6160037e-11
000140 87 96 59 3e b3 87 02 ae 43 fa 43 af 95 d0 4a b1
       0.21248828 -2.9679103e-11 -1.7824058e-10 -2.9513434e-09
000150 7c 72 99 bd 05 e5 9e 2a 31 f2 23 be bb 4f 9a 27
       -0.07492539 2.8225352e-13 -0.16010357 4.283003e-15
000160 72 77 3b ac d3 0f a2 36 f3 bd 75 bc 71 9a 33 b1
       -2.6640604e-12 4.8298184e-06 -0.014998901 -2.6135718e-09
000170 bc 50 12 37 f8 99 38 be b0 33 74 3e de 38 cb 35
       8.721076e-06 -0.18027484 0.23847842 1.5141229e-06
000180 43 04 00 00 c5 0a bb b7 aa cf 14 be ab 85 74 a1
       1.529e-42 -2.2297152e-05 -0.14532343 -8.2847324e-19
000190 4f c8 41 bd 98 27 a6 b3 35 2d 97 bd 6a 40 67 b0
       -0.04731017 -7.7371794e-08 -0.073816694 -8.412885e-10
0001a0 07 4b e8 a9 ed fa ee b5 2a f3 bf bb 53 81 bb bd
       -1.0315885e-13 -1.7805411e-06 -0.005857845 -0.09155526
0001b0 4e 72 4a 3e f4 ba 84 bb 9b f4 38 3e 08 02 89 ad
       0.19770166 -0.004050607 0.1806206 -1.5575999e-11
0001c0 7c 38 72 b3 33 8e ee bd cb ce 5b 3e 85 3b 75 3e
       -5.6396388e-08 -0.11648216 0.21465604 0.23948486
0001d0 a4 ba 1d 33 ea e0 4c 3e 9d ed f3 b0 3e 44 65 3e
       3.672416e-08 0.20007673 -1.7748111e-09 0.22389314
0001e0 36 05 34 af 6b d2 1c be 1f 0f 2a 3e d8 b3 8d ae
       -1.6372756e-10 -0.15314643 0.1660733 -6.443884e-11
0001f0 bf 5b 7c 3e 10 d8 fa bd 40 da 38 af 3a 8b 20 37
       0.24644373 -0.12248242 -1.681224e-10 9.569159e-06
000200 6d 10 ad bd 95 41 8f b4 79 01 00 00 f8 ee 0c be
       -0.084503986 -2.6683543e-07 5.28e-43 -0.13763034
000210 e4 13 25 be 32 3b 25 ad b9 0f 4c 2f c4 cb 14 be
       -0.16120869 -9.392308e-12 1.8559278e-10 -0.14530855
000220 6e 99 fc 14 58 e7 68 3e 69 b6 45 3e f8 5b 9d bc
       2.5506015e-26 0.227445 0.19307865 -0.019208893
000230 92 0e d6 bd ea 4d 79 3e 9f e7 1c be 78 1e 42 20
       -0.10451998 0.24346128 -0.15322731 1.644252e-19
000240 c2 9d f1 2a 51 b2 b1 bd c9 b4 e8 ad 09 08 71 2e
       4.2919666e-13 -0.08676589 -2.6455631e-11 5.4804192e-11
000250 78 4a 19 be 87 e9 96 3e 1e 41 88 32 98 1e 27 be
       -0.14969814 0.29475042 1.5862096e-08 -0.16320264
000260 65 14 c7 bd b0 35 43 b4 8e 34 6c 3e f7 45 86 35
       -0.09720687 -1.8180322e-07 0.23066923 1.000414e-06
000270 9b 88 be bd 8d 9d 9f bd db a3 36 b5 ca 44 44 3e
       -0.09303399 -0.07793722 -6.8038725e-07 0.19166866
000280 6d eb 4f 3e 06 4a 19 9f 6a a5 1e be 86 ce 34 2f
       0.20304652 -3.246024e-20 -0.15492788 1.6444276e-10
000290 db 54 40 be 32 ec ff bb 19 df 36 33 89 60 11 36
       -0.1878237 -0.007810139 4.2578083e-08 2.1662875e-06
0002a0 f7 18 00 80 a1 06 f8 23 99 1d 07 00 50 52 31 32
       -8.956e-42 2.6891021e-17 6.53466e-40 1.0321472e-08
0002b0 4b 20 fe bd 16 e7 23 30 88 f6 e1 b0 c5 4d 0e be
       -0.12408503 5.962745e-10 -1.6440973e-09 -0.13896854
0002c0 45 d9 12 b6 f2 40 de ac b5 50 8e 33 5d c2 ab bd
       -2.1882163e-06 -6.31683e-12 6.627071e-08 -0.08386681
0002d0 11 5b b3 2e 62 a9 12 b1 f7 01 00 00 00 04 a8 b8
       8.156154e-11 -2.134208e-09 7.05e-43 -8.011609e-05
0002e0 b5 08 0c 2e 25 a3 ba b3 93 2b 97 bd a9 df 23 be
       3.1840048e-11 -8.690976e-08 -0.07381358 -0.16003288
0002f0 a1 42 ae bc 82 9e 4d 32 5d 7b 8a bd ab ec 88 a9
       -0.021272006 1.1968611e-08 -0.06761811 -6.0806686e-14
000300 e0 2c a3 aa 61 b6 ec b1 7b 7b 4d 2f 02 11 35 3e
       -2.8985755e-13 -6.889238e-09 1.868851e-10 0.17682269
000310 8e 5b 3b ab c1 01 00 80 5f 8e 2a be e3 e9 7d bd
       -6.6562803e-13 -6.29e-43 -0.16655873 -0.06199063
000320 8b 7e c3 a6 c9 e3 d9 a6 9a af 27 be cf 4a 48 2f
       -1.3565143e-15 -1.5119141e-15 -0.1637558 1.8216471e-10
000330 b8 f6 c6 bd be 91 e2 b0 89 6e 07 ba 3b 55 0d 37
       -0.097150266 -1.6485087e-09 -0.00051663123 8.424099e-06
000340 6b 3c b3 34 5a a1 84 bd 8f f8 2c 09 30 b6 38 a0
       3.3385308e-07 -0.06476088 2.0820619e-33 -1.5645687e-19
000350 0d 98 b1 bd 4f 9a 63 be 39 1d cd bd 08 e8 25 be
       -0.086715795 -0.22226833 -0.100153394 -0.16201794
000360 6c 88 35 ac 04 1e 8f a3 a4 35 58 be f9 73 86 9c
       -2.5797376e-12 -1.5516803e-17 -0.21114212 -8.897354e-22
000370 88 dd b4 9c 83 9c 4d 3e a1 54 81 3e b7 1f c4 b0
       -1.1968665e-21 0.20079236 0.2525988 -1.4269891e-09
000380 74 88 81 ba e4 b6 1d be 18 6b 41 be cf 57 28 2e
       -0.0009882585 -0.15401798 -0.1888851 3.8276767e-11
000390 10 67 67 3e 60 37 10 26 a9 bb ae b0 5a e6 a5 30
       0.22597909 5.0035083e-16 -1.2713502e-09 1.20708e-09
0003a0 7d d7 bc b3 0c 5e 19 be 0a 8d 85 3e 67 26 2c bd
       -8.793629e-08 -0.14977282 0.26084167 -0.04202881
0003b0 b7 fb 7e bd 3c e5 74 3e d8 1a b6 bd 5a 3e b3 b2
       -0.062251773 0.23915571 -0.08891839 -2.0866697e-08
0003c0 aa 54 9c bd 0a 31 00 80 f6 b6 c9 37 cb c5 60 9e
       -0.07633336 -1.7592e-41 2.4046265e-05 -1.1899364e-20
0003d0 7e cb 9c bb a8 ae 08 1e 1c 37 d8 bd a3 53 00 b3
       -0.0047850003 7.235898e-21 -0.10557386 -2.987839e-08
0003e0 8a 46 e5 ae 99 42 06 be 33 2e 03 bc 89 7e 89 26
       -1.04262446e-10 -0.13111342 -0.00800662 9.540582e-16
0003f0 99 e8 bf a8 36 6b 8a bd 39 db f8 36 bb 12 38 a5
       -2.1306133e-14 -0.0675873 7.416497e-06 -1.5965802e-16

exp_avg f4 [256, 17]
000000 6a 23 47 3b 85 31 cd ba 9d 9c 10 bc 59 11 92 3a
       0.0030386099 -0.0015655017 -0.008826402 0.0011144086
000010 3e 42 43 3b 74 82 ba ba 8f 90 0e bc 36 a0 91 3a
       0.0029794122 -0.0014229552 -0.008701458 0.0011110369
000020 e6 ee 3f 3b 36 ef a3 ba d7 96 0b bc 69 da 91 3a
       0.0029286682 -0.0012507204 -0.00851985 0.0011127713
000030 87 ab f4 3b 70 c4 0e ba 21 ab 7f 3b 25 9f 84 3b
       0.0074667367 -0.00054461416 0.0039011913 0.004047292
000040 52 9e d8 3b 43 27 bc 2f 51 88 9b 30 bf 1a cd 32
       0.00661067 3.4224898e-10 1.1316478e-09 2.3877304e-08
000050 45 da 83 af e1 2a d9 2f 3d a4 c1 30 b7 c9 bf 32
       -2.398385e-10 3.9502537e-10 1.4089278e-09 2.2327056e-08
000060 18 c4 84 af f4 65 dc 2f 3e d5 f1 30 b2 f0 b0 32
       -2.4149993e-10 4.009021e-10 1.7595665e-09 2.0598552e-08
000070 88 94 83 af a4 8d 81 b0 fe 47 02 30 26 7a d5 2e
       -2.39343e-10 -9.426242e-10 4.739603e-10 9.7078165e-11
000080 d2 3a d6 2f 9e 42 2b b1 ed 69 a1 a9 b4 24 49 29
       3.8968168e-10 -2.4921643e-09 -7.1682115e-14 4.46628e-14
000090 fb 52 db 2b 0a 23 a5 a8 50 0a b0 a9 17 0e 60 29
       1.5583918e-12 -1.8333876e-14 -7.817759e-14 4.9750212e-14
0000a0 80 bd d8 2b 0d 9d 9f a8 c8 4d cd a9 69 13 8b 29
       1.540032e-12 -1.7720656e-14 -9.117322e-14 6.176207e-14
0000b0 bd e2 dc 2b 3a 75 97 a8 5e 79 80 ab 90 73 d8 a9
       1.5694873e-12 -1.6815207e-14 -9.128633e-13 -9.612374e-14
0000c0 c3 1e 31 aa f1 39 b3 a9 e4 90 c4 2a ae 20 35 38
       -1.573143e-13 -7.959248e-14 3.4917132e-13 4.3184198e-05
0000d0 cc b4 45 39 dc ff cf b8 19 1e 93 36 12 13 a6 37
       0.00018854736 -9.918187e-05 4.384445e-06 1.9797622e-05
0000e0 32 6d 6d 39 0d e5 bc b8 71 3d 98 36 f0 05 cb b6
       0.0002264276 -9.0072026e-05 4.5371057e-06 -6.0505627e-06
0000f0 29 ed 94 39 d5 27 86 b8 51 9b af 36 5a 77 22 3a
       0.00028405458 -6.397037e-05 5.2334876e-06 0.00061975943
000100 cb f7 8c b7 8c 70 06 3a eb b4 9c 39 39 b6 7e 39
       -1.6804688e-05 0.0005128465 0.00029889433 0.00024291211
000110 ba c2 7d 37 f5 bf 33 39 1c e1 ea b7 03 a5 cd b6
       1.5125313e-05 0.0001714228 -2.7999798e-05 -6.128686e-06
000120 03 91 ab b6 0c 2f 55 39 bf ad 7b 37 77 a0 c7 b6
       -5.1130787e-06 0.00020330789 1.5001219e-05 -5.9493427e-06
000130 f8 f9 e0 b7 f4 53 84 39 72 14 e6 37 55 19 b3 b6
       -2.6819282e-05 0.00025239552 2.7427657e-05 -5.3375647e-06
000140 7c 76 00 3a df 38 78 b6 74 46 e0 39 d5 04 7b 39
       0.0004900468 -3.6987983e-06 0.000427771 0.00023939025
000150 bd 6a 44 39 31 67 35 a9 08 b8 09 a8 47 d5 04 2a
       0.0001873178 -4.0279578e-14 -7.644933e-15 1.179795e-13
000160 68 1c c1 27 dd de 37 a9 0d d7 b8 a7 31 a4 f3 29
       5.359906e-15 -4.0827466e-14 -5.1303418e-15 1.08198505e-13
000170 5a c0 c3 27 3f df 41 a9 7b bf 56 a8 8c be d6 29
       5.433192e-15 -4.3048244e-14 -1.1920907e-14 9.536564e-14
000180 d5 dc d5 27 82 53 20 aa d1 4a 26 28 b1 5f 64 a9
       5.9358803e-15 -1.4239827e-13 9.231074e-15 -5.070917e-14
000190 f3 aa 5a 28 49 4a 1e 2a d9 74 7b 39 15 82 1f ba
       1.21385e-14 1.4058992e-13 0.00023980754 -0.00060847524
0001a0 ad d3 f1 ba 42 42 6d 39 51 3e 64 39 69 81 20 ba
       -0.0018449925 0.00022626764 0.00021766989 -0.0006122799
0001b0 52 ca fd ba aa d7 6c 39 86 bc 4f 39 82 fc 1d ba
       -0.0019362664 0.00022587055 0.00019811289 -0.00060267013
0001c0 57 c7 01 bb 93 42 6c 39 99 52 07 3a af 7b 94 b9
       -0.0019802654 0.00022531515 0.00051621493 -0.0002832091
0001d0 ef dd 05 ba c5 22 44 b9 18 73 a4 ba 95 d6 0a ba
       -0.0005106618 -0.00018704969 -0.0012546508 -0.00052962574
0001e0 72 c5 8a 39 30 20 d5 3a ab 75 46 b9 98 f1 03 ba
       0.0002646852 0.0016260203 -0.00018926586 -0.00050332537
0001f0 b9 70 71 39 4b 02 d4 3a d3 02 46 b9 90 b9 f4 b9
       0.00023025543 0.0016175 -0.00018883804 -0.00046677561
000200 54 ac 39 39 7a 86 d2 3a b7 c7 46 b9 18 dd af ba
       0.00017707172 0.0016061806 -0.00018957151 -0.0013417332
000210 22 72 69 39 23 97 3c ba 09 8b 0c ba 01 e9 30 ba
       0.0002226313 -0.0007194152 -0.0005361294 -0.00067485875
000220 f7 b2 25 af be 61 38 af af 4e 8d 30 83 8e 9f ad
       -1.5070244e-10 -1.6769428e-10 1.0281463e-09 -1.8139495e-11
000230 c5 c9 28 af 15 1a 54 af f6 ee 99 30 f4 b0 a4 ad
       -1.5351194e-10 -1.9290554e-10 1.1200132e-09 -1.8723224e-11
000240 6a 72 4b af a1 e1 70 af ea e7 9b 30 1c d7 9d ad
       -1.850339e-10 -2.1908032e-10 1.1343648e-09 -1.7944361e-11
000250 aa 09 86 b0 c0 a4 04 af 5c 55 b1 af e0 b5 39 af
       -9.75253e-10 -1.2063861e-10 -3.2256764e-10 -1.6890267e-10
000260 76 9f 87 af 95 51 1c 21 57 b9 82 22 9d 6f 83 23
       -2.466966e-10 5.296283e-19 3.5432807e-18 1.4250319e-17
000270 9c 22 a8 a1 83 e2 1b a1 50 50 87 22 8d db 76 23
       -1.1393284e-18 -5.281583e-19 3.6676857e-18 1.3382178e-17
000280 bf a1 3d a2 05 54 df a1 27 33 88 22 4e ca 8a 23
       -2.5699904e-18 -1.5133308e-18 3.6917034e-18 1.504767e-17
000290 e3 bd ad a1 2b 9b c1 23 13 46 56 a0 fb 41 30 a2
       -1.1773199e-18 2.0990818e-17 -1.8149691e-19 -2.3887378e-18
0002a0 29 5b 47 21 7a 10 d2 a3 17 9f 09 ae be a4 99 2e
       6.754447e-19 -2.2775224e-17 -3.1291494e-11 6.9868986e-11
0002b0 20 ea 17 30 ae a6 a7 ac 34 4d 29 ae 7b 36 89 2e
       5.526619e-10 -4.7649306e-12 -3.849472e-11 6.2397164e-11
0002c0 13 92 10 30 ef 8d 4e ad 14 ea 68 ae de 81 23 2e
       5.259448e-10 -1.174126e-11 -5.2958596e-11 3.7177254e-11
0002d0 13 47 0b 30 76 2e 09 ad 5c 05 d0 2f 45 a9 52 af
       5.066891e-10 -7.797865e-12 3.7838788e-10 -1.9159525e-10
0002e0 5e 37 b0 ae 8c 43 e8 ac d3 95 4a af 62 8b 88 3a
       -8.0133886e-11 -6.601336e-12 -1.8425021e-10 0.0010417516
0002f0 59 01 81 ba f4 e8 92 bb d9 e3 11 3a 33 75 84 3a
       -0.000984232 -0.0044833366 0.0005565263 0.0010105729
000300 f9 33 77 ba fc 3b 91 bb b3 07 12 3a 09 72 83 3a
       -0.0009430047 -0.0044321995 0.0005570605 0.0010028492
000310 95 e3 62 ba c1 43 92 bb fe bd 11 3a 27 32 57 3b
       -0.0008655128 -0.0044636433 0.0005559622 0.003283629
000320 72 bc 80 39 52 91 57 3a 54 50 f3 38 59 cf 3b bb
       0.00024554465 0.00082232535 0.00011602105 -0.0028657524
000330 c3 07 ba a7 da 71 c5 a8 d0 de b0 29 6a 9c 3a a6
       -5.1633786e-15 -2.1920769e-14 7.854622e-14 -6.4743694e-16
000340 e8 f1 4c a7 43 ad d6 a8 16 cf 7b 29 8f dc 04 a6
       -2.8441825e-15 -2.3833913e-14 5.5912814e-14 -4.609561e-16
000350 33 ec 53 a6 33 42 f1 a8 51 f8 2a 29 e2 cc 1c a6
       -7.352544e-16 -2.6785084e-14 3.7962963e-14 -5.440104e-16
000360 7a c9 c3 a9 38 34 aa 28 d9 72 c9 28 e0 6e 19 29
       -8.69469e-14 1.8896438e-14 2.236529e-14 3.4068993e-14
000370 22 28 08 a7 59 bf e8 38 46 19 75 b9 d8 fe 99 ba
       -1.8895547e-15 0.00011098263 -0.00023374436 -0.0011748923
000380 5e bb 0a 39 85 6a ad 38 d8 51 6f b9 66 8f 9a ba
       0.00013230505 8.269124e-05 -0.00022823305 -0.0011792004
000390 6d cc 0a 39 58 d4 4f 38 91 d2 58 b9 23 a0 a0 ba
       0.0001323686 4.9550406e-05 -0.00020677807 -0.0012254756
0003a0 3c b2 09 39 78 f0 a5 39 cd cf 08 ba 01 2d 89 b9
       0.00013131736 0.00031650416 -0.0005218953 -0.00026164207
0003b0 74 1e d5 b8 3e 53 95 ba a6 af a6 b4 73 20 76 34
       -0.00010162304 -0.0011392606 -3.104771e-07 2.292234e-07
0003c0 61 9a 20 36 3b 95 67 b4 aa 86 b1 b4 82 e7 76 34
       2.3931718e-06 -2.1567841e-07 -3.30668e-07 2.2994757e-07
0003d0 4b a7 28 36 ec 5e 67 b4 a5 6b f0 b4 23 26 61 34
       2.5131328e-06 -2.1548084e-07 -4.4781805e-07 2.0968632e-07
0003e0 eb 4d 32 36 7f 41 68 b4 ba ee 9f 34 2d 61 81 b5
       2.6569421e-06 -2.1630511e-07 2.9789754e-07 -9.639531e-07
0003f0 9e 54 5c b4 74 3a 55 35 2f 01 94 b5 c2 b1 58 ae
       -2.051988e-07 7.9433744e-07 -1.1027204e-06 -4.9270595e-11
